Assets/Onx/2DGround/11Ob_MaxReachHeight0.9/MoveAgent2D-360000309.onnx (onnx, 423660 bytes, 15 tensors)

discrete_act_size_vector f4 [1, 5]
0	0x40400000	3.0
1	0x40000000	2.0
2	0x40000000	2.0
3	0x40000000	2.0
4	0x40400000	3.0

network_body._body_endoder.seq_layers.0.weight f4 [256, 130]
0	0x3e098d8f	0.13432907
1	0x3f06798a	0.52529204
2	0xbebbdb96	-0.36690968
3	0x3f1f5565	0.62239677
4	0xbecad977	-0.39619038
5	0xbea5e6b4	-0.32402575
6	0x3ee448cb	0.44586787
7	0xbf8c564d	-1.0963837
8	0xbf31f331	-0.69511706
9	0x3ec83afd	0.39107504
10	0xbec59f77	-0.38598225
11	0xbead77b9	-0.33880404
12	0x3e6e4d1a	0.232716
13	0xbf09963a	-0.5374485
14	0x3e84b24b	0.25917277
15	0xbe06f171	-0.1317804
16	0x3f4e6841	0.8062783
17	0xbec5f6bc	-0.38664806
18	0xbf7fda51	-0.999425
19	0x3f8c1838	1.0944891
20	0x3e5533e1	0.20820571
21	0xbf805fd7	-1.0029248
22	0x3d22ee00	0.039777756
23	0xbf482c17	-0.78192276
24	0xbd078136	-0.03308221
25	0xbd2845f0	-0.041082323
26	0xbd8fd25a	-0.07022543
27	0xbfadb5bc	-1.3571086
28	0xbd2fc61e	-0.04291355
29	0xbe34238d	-0.17591687
30	0x3d98c5a4	0.07459572
31	0xbee5ac6a	-0.44858104
32	0xbe8315d0	-0.2560258
33	0xbe66efc9	-0.22552408
34	0xbe688387	-0.22706424
35	0x3de78a15	0.11305634
36	0xbe520cc8	-0.20512688
37	0xbdb99022	-0.09060694
38	0xbd2f5f18	-0.042815298
39	0xbf189385	-0.59600097
40	0xbed280fe	-0.41114038
41	0xbf07e787	-0.5308766
42	0x3ec57432	0.38565212
43	0xbeef1492	-0.4669538
44	0xbe60f36a	-0.21967855
45	0xbeec472c	-0.4614805
46	0xbda5d4c3	-0.08097222
47	0x3f205867	0.6263489
48	0xbf8e8ab2	-1.1136076
49	0xbf864a76	-1.0491474
50	0x3ee04121	0.4379969
51	0xbeba0aa6	-0.3633625
52	0xbedad1ac	-0.42738092
53	0xbf19a88b	-0.600228
54	0xbe803866	-0.2504303
55	0xbf0e6284	-0.5561907
56	0x3d4ecb8a	0.05048708
57	0x3e10185b	0.14071791
58	0x3f124e31	0.5715056
59	0xbea550b6	-0.3228814
60	0xbf17af24	-0.5925162
61	0xbf0c8742	-0.5489389
62	0x3e39dea0	0.18151331
63	0xbf9caca1	-1.2240182
64	0x3d341bdb	0.043971878
65	0x3cde2ff8	0.027122483
66	0x3ca711d4	0.020394243
67	0x3c64843a	0.013947541
68	0xbf164f05	-0.58714324
69	0xbef26830	-0.47345114
70	0xbea59d4c	-0.3234657
71	0xbf34584e	-0.7044724
72	0xbe0c3149	-0.13690676
73	0xbdf26b13	-0.11836829
74	0x3ed1ee9d	0.4100236
75	0xbf49bfd3	-0.78808326
76	0xbf088484	-0.533272
77	0xbf142beb	-0.57879514
78	0xbdecb31e	-0.115576014
79	0xbe24c03d	-0.16088958
80	0xbea4e465	-0.322055
81	0xbec07418	-0.37588573
82	0x3ed349e6	0.41267318
83	0x3eb71070	0.35754728
84	0xbf8688a6	-1.0510452
85	0xbf7bbd00	-0.98335266
86	0xbe58dd73	-0.21178226
87	0xbf67daf6	-0.9056848
88	0xbed3b29a	-0.413472
89	0xbea9d2b0	-0.33168554
90	0xbe49faa0	-0.19724512
91	0x3c52120a	0.012821684
92	0xbeb2d571	-0.34928468
93	0xbe6bbeb7	-0.2302197
94	0xbf1c1044	-0.6096232
95	0xbf0342c7	-0.5127377
96	0x3db8b863	0.09019544
97	0x3e6679f7	0.22507463
98	0xbf9e9ca0	-1.2391548
99	0xbe034c55	-0.12822087
100	0x3e3fb73a	0.18722239
101	0x3ec393c7	0.38198683
102	0xbf3ca244	-0.736851
103	0x3fb0c70b	1.3810743
104	0xbe044274	-0.12915975
105	0xbd15eebd	-0.03660463
106	0xbf7930fd	-0.97340375
107	0xbf5e161c	-0.86752486
108	0x3e9528f1	0.29132798
109	0x3e743ddc	0.23851722
110	0xbe87f746	-0.26555842
111	0xbf004e93	-0.50119895
112	0x3e14cc03	0.1453095
113	0x3e0b5ba4	0.13609177
114	0xbf6f1570	-0.93392086
115	0xbf1307c7	-0.5743374
116	0x3e0aab29	0.13541855
117	0x3e8139a9	0.25239304
118	0xbf3994c7	-0.7249264
119	0x3fb996d4	1.4499154
120	0xbe2ec6ff	-0.17068098
121	0x3ccf7780	0.025325537
122	0xbee7da78	-0.45283866
123	0xbf8f0f67	-1.1176575
124	0x3e28b087	0.1647359
125	0x3d9108ac	0.07081732
126	0xbfcd6546	-1.6046531
127	0x3f0b0a78	0.5431285
128	0x3e705703	0.23470692
129	0x3e497475	0.19673331
130	0xbf14abef	-0.5807485
131	0x3ec90b11	0.39266255
132	0x3da5496d	0.080706455
133	0xbc5d76d1	-0.013517098
134	0xbe87e7b7	-0.26543972
135	0xbf2854f4	-0.6575463
136	0x3f25f67a	0.6482922
137	0xbe04f360	-0.12983465
138	0xbe8de278	-0.27711844
139	0xbe90d91c	-0.2829064
140	0xbf0f47b9	-0.55968815
141	0xbeebed96	-0.460797
142	0x3ed78dc1	0.42100337
143	0xbe1cd6d8	-0.15316331
144	0x3bb324d1	0.0054670353
145	0xbe4765df	-0.19472454
146	0xbe71dfd1	-0.23620535
147	0x3f0515c0	0.5198631
148	0xbdee5c19	-0.1163866
149	0xbf9493a8	-1.1607561
150	0xbe7e4570	-0.24831176
151	0x3e661c3e	0.22471711
152	0xbed4114a	-0.4141944
153	0x3f296be5	0.6618026
154	0xbe9d572b	-0.30730566
155	0xbe49e899	-0.19717635
156	0xbf782300	-0.96928406
157	0xbd559159	-0.052140567
158	0xbdb2837e	-0.087164864
159	0xbd9224c9	-0.071359225
160	0x3ed25463	0.41080007
161	0xbf6075d1	-0.87679774
162	0xbe7abb12	-0.24485424
163	0xbefbde2b	-0.49192938
164	0xbf7b8dc9	-0.9826322
165	0x3dbf7168	0.093478024
166	0x3e15092b	0.14554279
167	0xbcc20d84	-0.023688085
168	0xbea0e4c6	-0.3142454
169	0x3e440394	0.1914199
170	0xbe340351	-0.1757939
171	0xbeb5d50a	-0.35514098
172	0xbf0647e2	-0.52453434
173	0x3e8f9367	0.28042147
174	0xbe874b6b	-0.26424727
175	0xbe839c6d	-0.2570528
176	0xbeaecb99	-0.34139708
177	0xbe4bb75b	-0.19894163
178	0xbec28d22	-0.379983
179	0xbd18ac4e	-0.037273698
180	0xbf54bd15	-0.83101016
181	0x3f217a8c	0.63077617
182	0xbeb22969	-0.34797218
183	0xbe8c9b48	-0.2746222
184	0xbf19fefc	-0.601547
185	0xbce2217f	-0.027603863
186	0xbe6e6253	-0.23279695
187	0xbe9c11d4	-0.30482352
188	0xbf06ac6a	-0.52606833
189	0x3b9098aa	0.00441273
190	0xbeb52bbb	-0.35384926
191	0xbe840531	-0.2578521
192	0xbf25fde7	-0.6484055
193	0xbe9b0f3a	-0.30285054
194	0xbe45a78d	-0.19302197
195	0xbe99ed93	-0.30064067
196	0xbe7d6347	-0.24744903
197	0xbe3c41a5	-0.18384416
198	0xbf039310	-0.51396275
199	0xbf04ea1b	-0.51919717
200	0xbf48e800	-0.78479004
201	0xbf41d40f	-0.757142
202	0xbdb658e6	-0.08903675
203	0xbe4de865	-0.20108183
204	0xbed8dcaa	-0.42355853
205	0xbe595456	-0.21223578
206	0xbe442a64	-0.19156796
207	0xbe1e6434	-0.15467912
208	0xbec57fc5	-0.38574043
209	0xbf8dea34	-1.1087098
210	0xbeb9dd52	-0.36301666
211	0xbe84fb39	-0.25972918
212	0xbf61e9cf	-0.8824739
213	0x3e1ddb77	0.1541575
214	0xbe5e3af7	-0.21702181
215	0xbe6ef757	-0.2333654
216	0xbe4e9130	-0.20172572
217	0xbf6435fa	-0.8914486
218	0xbec372a6	-0.38173407
219	0xbeda12d5	-0.42592493
220	0xbf36d2ff	-0.71415704
221	0x3d329e1c	0.043607816
222	0xbef18860	-0.47174358
223	0xbe8b1153	-0.27161655
224	0xbe9d776e	-0.3075518
225	0xbf68fc7a	-0.9101025
226	0xbdde7581	-0.10862256
227	0xbe9b4b2b	-0.30330786
228	0xbf215568	-0.63020945
229	0x3e645111	0.2229655
230	0xbefeaaa1	-0.49739555
231	0xbedbe235	-0.4294602
232	0xbee5cd30	-0.44883108
233	0xbf8b7b6f	-1.0897044
234	0x3d56120a	0.052263297
235	0xbd1c6e28	-0.03819099
236	0xbef8f542	-0.48624617
237	0xbf2f268c	-0.6841819
238	0xbe6b2f7a	-0.2296733
239	0xbe7360bc	-0.2376737
240	0xbf0d53f0	-0.55206203
241	0xbf09b9ee	-0.5379933
242	0xbdcb6775	-0.09931842
243	0xbe3f6f3f	-0.18694781
244	0xbf547e7a	-0.8300549
245	0xbfae1848	-1.360116
246	0xbe4e6a8c	-0.20157832
247	0xbe253b4f	-0.16135906
248	0xbf51e485	-0.8198932
249	0xbe28aef0	-0.16472983
250	0xbf007308	-0.50175524
251	0xbe765428	-0.2405554
252	0x3e93d808	0.28875756
253	0xbf998c42	-1.1995928
254	0xbf3d58d3	-0.7396366
255	0xbf0d52bd	-0.55204374

network_body._body_endoder.seq_layers.0.bias f4 [256]
0	0xbec68072	-0.3876987
1	0xbf145199	-0.5793701
2	0x3da3749c	0.07981226
3	0xbf06c9fc	-0.52651954
4	0xbeccc07a	-0.39990598
5	0xbdd00283	-0.10156729
6	0xbdedf21a	-0.11618443
7	0xbeb7ff45	-0.35936943
8	0xbe1b49c8	-0.15164864
9	0xbec04bfd	-0.37557974
10	0xbe31d3f5	-0.17366011
11	0xbeb394df	-0.35074517
12	0xbd92cf5e	-0.071684584
13	0x39c2d1b4	0.00037158804
14	0x3caab041	0.020835998
15	0xbe525643	-0.20540719
16	0xbed7460e	-0.42045635
17	0xbf00a1b4	-0.5024674
18	0xbf101857	-0.5628714
19	0xbcc8c523	-0.024508065
20	0xbca37e36	-0.019957643
21	0xbeb687a0	-0.3565035
22	0xbe6ecf60	-0.23321295
23	0xbd74b403	-0.059741985
24	0xbee5a8d4	-0.44855368
25	0xbe4f2366	-0.20228347
26	0x3d68a737	0.056800094
27	0xbe423fd3	-0.1896966
28	0xbea68c57	-0.32528946
29	0xbe940c39	-0.28915575
30	0xbf0e95b1	-0.5569716
31	0x3e11400e	0.14184591
32	0x3d86a8e8	0.06575185
33	0xbe185e74	-0.14879781
34	0xbebadf97	-0.3649871
35	0x3f5a13c0	0.85186386
36	0xbb7a545d	-0.0038197257
37	0xbd9ec6f4	-0.07752791
38	0xbe7cb472	-0.2467821
39	0xbedfb171	-0.43690065
40	0xbeb475e5	-0.35246196
41	0xbe318492	-0.17335728
42	0xbec301c5	-0.38087288
43	0xbe8e2b0b	-0.27767214
44	0xbeeb3b5e	-0.4594373
45	0xbea19f64	-0.31566918
46	0xbe25d3c4	-0.16194063
47	0xbe5350c1	-0.20636274
48	0x3e8809d2	0.26569992
49	0xbdd81de9	-0.1055258
50	0xbeb2279c	-0.34795845
51	0xbe4570b6	-0.19281277
52	0x3e051e71	0.12999894
53	0x3bc97a50	0.006148614
54	0xbeb49cb8	-0.35275817
55	0x3e911227	0.28334162
56	0x3e5d1773	0.21590976
57	0xbef519d2	-0.47871262
58	0xbedbc45e	-0.42923254
59	0xbe000d56	-0.12505087
60	0xbedd6335	-0.4323975
61	0x3d79f5e8	0.06102553
62	0x3c5029d7	0.012705288
63	0xbf19cfb0	-0.6008253
64	0xbf037337	-0.5134768
65	0xbee7fd2d	-0.45310345
66	0xbdeb1422	-0.114784494
67	0xbd21b64d	-0.039480496
68	0xbe5aaa64	-0.21354061
69	0xbec299f3	-0.3800808
70	0xbe826070	-0.254642
71	0x3e8bef9a	0.2733124
72	0xbf567f08	-0.83787584
73	0xbe6947f5	-0.22781356
74	0xbf0b8bc3	-0.54510134
75	0x3de9aae3	0.11409547
76	0xbe58fad0	-0.21189427
77	0xbe81f44b	-0.25381693
78	0xbea813a1	-0.32827476
79	0xbe6a05db	-0.22853796
80	0xbebd443a	-0.36966115
81	0xbaa5db7f	-0.0012653916
82	0xbe12cfec	-0.14337128
83	0xbf1bb423	-0.6082174
84	0xbefd0c50	-0.49423456
85	0x3e53e4bc	0.20692724
86	0xbe0160e4	-0.12634617
87	0xbdc29395	-0.09500805
88	0xbe96b918	-0.2943809
89	0xbf29dc4d	-0.6635178
90	0x3e1d54ae	0.15364334
91	0xbadead90	-0.0016988982
92	0xbe3f7c8b	-0.18699853
93	0xbe0c2a7a	-0.13688079
94	0xbea3e290	-0.3200879
95	0xbe9b6792	-0.30352455
96	0xbdfb7f43	-0.122801326
97	0xbe888492	-0.26663643
98	0xbdb90b42	-0.090353504
99	0xbee6ce06	-0.45079058
100	0xbebdfd65	-0.37107387
101	0xbf205ca5	-0.62641364
102	0xbf1de43c	-0.61676383
103	0xbd50cda4	-0.050977364
104	0xbea22900	-0.31671906
105	0xbd91f76a	-0.071272686
106	0x3e0abf26	0.1354948
107	0xbc45b210	-0.012066379
108	0x3dfac5c9	0.12244756
109	0xbe82d922	-0.25556284
110	0xbe473fea	-0.19457975
111	0xbf154fb3	-0.58324736
112	0x3dbc1177	0.09183019
113	0xbea4ac3d	-0.32162657
114	0xbdd96cae	-0.10616432
115	0xbee539aa	-0.44770557
116	0xbe5d956b	-0.2163903
117	0xbed0287c	-0.40655887
118	0xbe9942ff	-0.29933926
119	0xbd772008	-0.06033328
120	0x3e2910b3	0.16510276
121	0xbced1340	-0.028939843
122	0xbe535d90	-0.2064116
123	0xbed9098f	-0.42390105
124	0x3d99b418	0.07505053
125	0xbefcd6f9	-0.4938276
126	0xbd7d50f1	-0.06184477
127	0xbdea3367	-0.114355855
128	0x3ee5792e	0.44819015
129	0xbeed3779	-0.46331385
130	0x3da6f430	0.08152044
131	0xbe94203f	-0.28930852
132	0xbd789857	-0.060692158
133	0x3f446506	0.7671665
134	0xbe314c26	-0.17314205
135	0xbf52a1f0	-0.82278347
136	0xbe6fe4e6	-0.23427162
137	0xbeb9c396	-0.36282033
138	0xbf068c7f	-0.5255813
139	0xbeb7e7d6	-0.35919064
140	0xbe7a7205	-0.24457557
141	0xbefa59a4	-0.48896515
142	0xbf214510	-0.62996006
143	0xbeaf86c6	-0.3428251
144	0xbe9f2c30	-0.310884
145	0xbe9db90c	-0.30805242
146	0xbeb2b747	-0.34905455
147	0x3e64c8d2	0.22342232
148	0xbe83be93	-0.25731334
149	0xbe404484	-0.18776137
150	0x3d025ac3	0.03182484
151	0xbeb189d5	-0.3467547
152	0xbe8f60ea	-0.28003627
153	0x3dc013d1	0.0937878
154	0xbda0c1b8	-0.07849449
155	0xbe6988a9	-0.22806038
156	0xbe8221f8	-0.2541654
157	0xbe9972c6	-0.29970378
158	0xbe815694	-0.25261366
159	0xbea6fb70	-0.32613707
160	0xbf0b9633	-0.5452606
161	0xbea02e5e	-0.31285375
162	0xbe6ee6e9	-0.23330273
163	0xbe8d0620	-0.27543736
164	0xbe6f9556	-0.23396811
165	0x3c801b5b	0.015638044
166	0xbe13bec6	-0.14428243
167	0xbe9d68f8	-0.30744147
168	0xbf139a38	-0.57657194
169	0xbda3e29b	-0.08002206
170	0x3ee1b238	0.44081283
171	0x3f19ec48	0.6012616
172	0xbe73cba4	-0.23808151
173	0xbeb0421f	-0.34425446
174	0xbea9e8ac	-0.33185327
175	0xbe9c8fc0	-0.30578423
176	0x3d41bbc7	0.04729822
177	0x3ef73d77	0.4828908
178	0xbeddc8d1	-0.43317273
179	0xbe88ffe5	-0.26757732
180	0xbe15d348	-0.14631379
181	0xbf116d56	-0.5680746
182	0xbd95e906	-0.07319836
183	0xbe68717d	-0.22699542
184	0xbe7ccd39	-0.24687661
185	0xbe48869b	-0.19582598
186	0xbdbfcc36	-0.09365122
187	0x3c09b44c	0.0084048025
188	0xbf037065	-0.51343375
189	0xbc9ca74d	-0.019122744
190	0xbed55eb8	-0.41673827
191	0xbe6e13c0	-0.23249722
192	0xbef2c8d7	-0.47418854
193	0xbed3d388	-0.41372323
194	0xbe8ab632	-0.2709213
195	0xbddb40a9	-0.10705692
196	0xbe27ccd3	-0.16386728
197	0xbeb42d64	-0.3519088
198	0xbe7ee295	-0.24891122
199	0xbedec4a0	-0.43509388
200	0x3e686631	0.22695233
201	0xbebbe34c	-0.3669685
202	0xbefad26b	-0.4898866
203	0xbf17fb5c	-0.5936792
204	0xbe5ffaf3	-0.21873073
205	0xbda25c20	-0.07927728
206	0x3e743d66	0.23851547
207	0xbdfcfd15	-0.12352959
208	0xbd974642	-0.073864475
209	0xbe28a2c8	-0.16468346
210	0xbea92b2a	-0.33040744
211	0xbf01c605	-0.5069278
212	0x3d5ddbb6	0.05416461
213	0xbf10f147	-0.5661816
214	0xbefc4c4b	-0.49276957
215	0xbc984e79	-0.018592106
216	0xbf089248	-0.5334821
217	0xbeaab794	-0.33343184
218	0xbe6d577c	-0.23177904
219	0x3c03b97c	0.008039828
220	0xbe592a5c	-0.21207565
221	0xbe0e5117	-0.13898121
222	0x3e3261ce	0.17420122
223	0xbd9f2621	-0.077709444
224	0xbf0c4ff6	-0.5480951
225	0xbe81afe3	-0.25329503
226	0xbef61ea5	-0.48070255
227	0xbf0efd7c	-0.55855536
228	0xbe6f915b	-0.23395292
229	0x3c89048a	0.016725797
230	0xbd14a3a0	-0.036288857
231	0x3e54f0f7	0.20795046
232	0xbda3f248	-0.08005196
233	0xbdd392af	-0.10330712
234	0xbe9a31f6	-0.30116242
235	0xbf338bbb	-0.70135087
236	0xbec4e313	-0.38454494
237	0xbe8b4f84	-0.27209103
238	0xbdf1c91e	-0.11805938
239	0xbd2f1115	-0.0427409
240	0xbed3b125	-0.41346088
241	0xbeb488d3	-0.3526064
242	0xbe970fba	-0.29504186
243	0xbe37a03b	-0.17932217
244	0xbec456dd	-0.3834752
245	0xbe250ab5	-0.16117366
246	0xbed0c3e8	-0.40774465
247	0xbec126d6	-0.37724942
248	0xbe8ced30	-0.2752471
249	0x3e3bf2e4	0.18354374
250	0xbe915567	-0.2838547
251	0x3dd1b9df	0.1024053
252	0xbe8d3e4d	-0.27586594
253	0xbe45373c	-0.19259351
254	0xbe30eb0b	-0.17277162
255	0x3d54416b	0.0518202

network_body._body_endoder.seq_layers.2.weight f4 [256, 256]
0	0xbed95f66	-0.42455596
1	0x3e6f9536	0.23396763
2	0x3ee8e4c1	0.45487025
3	0xbecd41c4	-0.40089238
4	0xbe97840a	-0.29592925
5	0xbce8f4be	-0.028437015
6	0xbde7c4eb	-0.11316856
7	0x3e263fcf	0.16235279
8	0x3c9519e8	0.01820083
9	0x3e61e8a5	0.22061403
10	0xbccf9c01	-0.025342943
11	0x3dec6cd3	0.11544194
12	0xbf25eb18	-0.6481185
13	0xbe9ce32e	-0.30642074
14	0xbf477b54	-0.7792256
15	0x3d893b68	0.06700784
16	0xbf4ebd90	-0.80758
17	0xbec8d7b0	-0.39227057
18	0x3ea6f93a	0.3261202
19	0xbcf85e9b	-0.030318549
20	0xbef6bdee	-0.4819178
21	0xbf4f5cc9	-0.81000954
22	0xbeb2e38e	-0.34939235
23	0x3e73c662	0.23806146
24	0xbe446c6a	-0.19181982
25	0x3f155770	0.58336544
26	0xbee2d02e	-0.44299453
27	0xbf3759fd	-0.71621686
28	0xbeb70ce3	-0.3575202
29	0xbe31d73b	-0.1736726
30	0xbede9c55	-0.43478647
31	0x3d43410d	0.04766946
32	0xbd9c66af	-0.07636773
33	0xbf26e61a	-0.6519486
34	0xbeb14b5c	-0.34627807
35	0xbd7eff7e	-0.062255375
36	0xbe360c8a	-0.17778221
37	0x3db869e7	0.09004574
38	0xbd9181e8	-0.07104856
39	0x3d24e2ee	0.04025548
40	0x3ee18101	0.44043735
41	0x3e5a49b2	0.21317175
42	0xbf9090e2	-1.1294215
43	0xbf2a49bb	-0.66518754
44	0x3e6455a3	0.22298293
45	0x3da5c01f	0.08093285
46	0xbd2bc6dc	-0.041937694
47	0x3f2a955b	0.6663415
48	0xbf8c6231	-1.0967466
49	0xbf4b90cf	-0.79517835
50	0x3f416638	0.755466
51	0xbe2656a1	-0.16243984
52	0xbf98c4cd	-1.1935059
53	0xbd82c045	-0.06384329
54	0xbf0580ea	-0.5214983
55	0xbed56017	-0.41674873
56	0xbece4695	-0.40288225
57	0xbf44a098	-0.76807547
58	0x3db8fd91	0.09032739
59	0x3ed4b928	0.41547513
60	0x3e001072	0.12506273
61	0x3e92bce3	0.28659734
62	0x3e857a4d	0.2606987
63	0xbe8bca41	-0.27302745
64	0xbe880bcd	-0.26571503
65	0xbf96be53	-1.1776832
66	0x3e9d0205	0.30665603
67	0xbf325a48	-0.6966901
68	0xbe7ee797	-0.24893032
69	0xbe3c89cb	-0.18411939
70	0xbf365b71	-0.7123328
71	0xbce2bd01	-0.027678015
72	0xbd903ebc	-0.07043216
73	0xbe40974e	-0.18807718
74	0x3e8149d9	0.25251654
75	0xbf1076f3	-0.564315
76	0x3dbe0caa	0.09279759
77	0xbf343317	-0.70390457
78	0xbcb49419	-0.022043275
79	0xbed1a994	-0.4094969
80	0x3f0eda7c	0.5580213
81	0x3eac53aa	0.3365758
82	0xbe2f6348	-0.17127717
83	0xbf4350e0	-0.7629528
84	0x3f0f3121	0.5593434
85	0xbdfb008a	-0.12255962
86	0xbeb0355f	-0.3441572
87	0xbe453b92	-0.19261006
88	0x3e315c8d	0.17320462
89	0x3ea5ec2d	0.3240675
90	0x3ee651a5	0.44984165
91	0xbf37c408	-0.71783495
92	0xbe1ff729	-0.15621628
93	0xbf162eeb	-0.5866534
94	0xbf1d2fb2	-0.614009
95	0xbea44ee0	-0.32091427
96	0x3f3444e6	0.7041763
97	0xbf11dc85	-0.5697711
98	0xbeedd827	-0.46453974
99	0x3f4e0a57	0.8048453
100	0x3ee941f6	0.45558137
101	0xbf11f98d	-0.5702141
102	0xbe1af349	-0.15131868
103	0x3f0c3d2b	0.54780835
104	0x3e98f8c4	0.29877293
105	0xbf1af773	-0.6053383
106	0x3f410dfa	0.7541195
107	0xbeb0ca65	-0.34529415
108	0xbdfccdb1	-0.1234392
109	0xbf084408	-0.5322881
110	0x3f4c7427	0.79864734
111	0x3e7b45fe	0.24538419
112	0xbe62722c	-0.22113866
113	0x3e0b130e	0.13581488
114	0xbe917bb6	-0.28414696
115	0x3ce7253c	0.028215997
116	0xbf0dd625	-0.55404884
117	0xbded3aae	-0.11583458
118	0xbee3f3e4	-0.4452201
119	0x3c9449e6	0.018101644
120	0x3f1187bd	0.56847745
121	0x3de91d53	0.11382546
122	0xbf204c5c	-0.62616515
123	0x3e988c28	0.2979443
124	0xbf2596c0	-0.6468315
125	0xbf062b75	-0.5241006
126	0xbd325743	-0.04354025
127	0xbd156cc0	-0.036480665
128	0xbd4d95fc	-0.050191864
129	0xbf870204	-1.054749
130	0xbe1b3c03	-0.15159611
131	0xbed7dc84	-0.42160428
132	0xbe8601d4	-0.2617327
133	0xbf2a1046	-0.6643108
134	0xbf270eb7	-0.6525683
135	0xbd7c4dfe	-0.061597817
136	0x3d82b3c9	0.063819475
137	0xbec22866	-0.37921447
138	0xbefd9d85	-0.4953424
139	0x3f16bd5d	0.58882695
140	0xbe9db75e	-0.3080396
141	0x3f0f1bf0	0.55902004
142	0xbf25906e	-0.6467351
143	0x3d41c3d8	0.04730591
144	0xbe29fb47	-0.16599761
145	0xbeda6f01	-0.42662814
146	0x3dd9c190	0.10632622
147	0xbf186d62	-0.59541905
148	0xbe93e44d	-0.28885117
149	0xbf2c3272	-0.67264473
150	0xbddd0b04	-0.10793117
151	0x3eab5ca6	0.33469123
152	0xbea3d959	-0.3200176
153	0xbeb9edbb	-0.36314186
154	0xbf9d197b	-1.2273401
155	0xbfc3ee05	-1.5307013
156	0xbf5f93ad	-0.8733471
157	0xbf138a33	-0.5763275
158	0x3f1dcb4b	0.61638325
159	0xbf2b3664	-0.6687987
160	0x3df75969	0.120776005
161	0xbea1a244	-0.3156911
162	0xbed11fae	-0.40844482
163	0xbeab28b1	-0.33429483
164	0xbea2fb84	-0.31832516
165	0x3eb2e3ca	0.34939414
166	0xbeeb21bc	-0.45924175
167	0xbf8fd528	-1.1236925
168	0x3f338547	0.7012524
169	0xbddbcb84	-0.10732177
170	0xbe27ba85	-0.16379745
171	0xbeacfd64	-0.33787072
172	0xbf90a868	-1.1301394
173	0xbea715bc	-0.3263377
174	0x3e444da2	0.1917024
175	0xbeb68431	-0.3564773
176	0x3f0637ae	0.5242871
177	0xbdf251a7	-0.1183198
178	0xbe0ad81d	-0.13559003
179	0xbf9dd706	-1.2331245
180	0xbeb9e96d	-0.36310902
181	0x3c2bebfa	0.010493273
182	0xbf806337	-1.0030278
183	0xbeb56dbc	-0.35435283
184	0x3e1a497d	0.15067096
185	0x3dc77dd6	0.09740798
186	0x3ef92399	0.4865997
187	0x3d9e2353	0.07721581
188	0xbeba482e	-0.36383194
189	0xbf0f7a9e	-0.56046474
190	0xbf093076	-0.5358957
191	0xbdf88fce	-0.121368036
192	0xbecb763c	-0.39738643
193	0xbf60001e	-0.8750018
194	0x3ea11713	0.31462917
195	0x3e02f67d	0.1278934
196	0xbe568a34	-0.20951158
197	0xbee6d202	-0.45082098
198	0x3eb9ff74	0.36327708
199	0xbef318e4	-0.47479928
200	0xbe4dc69f	-0.20095299
201	0x3edcb990	0.43110323
202	0x3ee07698	0.4384048
203	0xbdc70497	-0.09717672
204	0xbd855fa3	-0.06512382
205	0xbf86a04e	-1.0517671
206	0xbf2a6cc7	-0.6657223
207	0x3e9797c0	0.29607964
208	0x3e8b6f8b	0.27233538
209	0xbddc5185	-0.10757736
210	0x3f0011a7	0.50026935
211	0xbc8f2b6f	-0.017476765
212	0xbf255ada	-0.64591753
213	0xbe350815	-0.17678864
214	0xbf6215bd	-0.8831442
215	0x3d28a90b	0.041176837
216	0x3db3de22	0.08782603
217	0x3ef714df	0.4825811
218	0x3da9f4e7	0.082986645
219	0xbf21e1e4	-0.63235307
220	0x3ec6bef8	0.38817573
221	0x3ef88685	0.4854013
222	0x3d8e9a28	0.06962997
223	0xbf47bb7e	-0.78020465
224	0xbf223635	-0.63363963
225	0x3e5d757a	0.21626845
226	0xbdd7de7f	-0.10540485
227	0x3dd82648	0.105541766
228	0x3f2ab0fc	0.66676307
229	0xbe8130c1	-0.2523251
230	0xbebd661b	-0.36991963
231	0xbd79b3a2	-0.060962327
232	0xbf5b6163	-0.85695475
233	0xbfc9c335	-1.5762697
234	0xbfbf30ef	-1.4936808
235	0x3d44506c	0.04792826
236	0xbd9581e5	-0.07300166
237	0x3e0ca151	0.13733412
238	0xbf91b6cb	-1.1383909
239	0x3e16b0c8	0.14715874
240	0xbf3f7f85	-0.74803954
241	0xbe6bf0fa	-0.23041144
242	0x3f399d7b	0.7250592
243	0x3eb8c514	0.3608786
244	0xbf3ac273	-0.72952956
245	0x3e47ee6d	0.19524546
246	0x3e7f57f1	0.2493589
247	0x3f4d9cc1	0.8031731
248	0xbe0f192c	-0.13974446
249	0xbf0099e7	-0.50234836
250	0x3e920099	0.2851608
251	0xbda3b055	-0.07992617
252	0x3f5ce284	0.86283135
253	0xbe6b8872	-0.23001269
254	0xbef5e322	-0.4802485
255	0x3ebde574	0.3708912

network_body._body_endoder.seq_layers.2.bias f4 [256]
0	0xbf149041	-0.58032614
1	0xbf173567	-0.5906586
2	0xbea8da13	-0.32978877
3	0xbdf37b9e	-0.118888125
4	0xbcf7daed	-0.03025576
5	0xbef7df9a	-0.48412782
6	0xbd03a31f	-0.032137986
7	0xbeb68ad8	-0.35652804
8	0xbeeff957	-0.4686992
9	0xbe2d0057	-0.16894661
10	0xbee3b588	-0.44474435
11	0xbe11d8f8	-0.14242923
12	0xbe142308	-0.14466488
13	0xbe2a6944	-0.16641718
14	0xbeefdcce	-0.46848148
15	0xbedabc49	-0.42721775
16	0xbefa2888	-0.48859048
17	0xbf2e970b	-0.68199223
18	0xbf0f6281	-0.5600968
19	0xbe176d02	-0.14787677
20	0xbf0ef10b	-0.5583655
21	0xbf17e420	-0.59332466
22	0xbf0dde74	-0.5541756
23	0xbe2b20d5	-0.16711743
24	0xbee12ec9	-0.43981007
25	0xbe8f95e2	-0.2804404
26	0xbe343493	-0.1759818
27	0xbf32fc88	-0.6991658
28	0xbec9b038	-0.39392257
29	0xbe74ba8f	-0.23899291
30	0xbebf8eb4	-0.3741356
31	0xbe772d3a	-0.24138346
32	0xbeafcef7	-0.3433759
33	0xbedd7d44	-0.43259633
34	0xbea699bd	-0.32539168
35	0xbebad673	-0.36491737
36	0xbea6d354	-0.32583106
37	0xbe8b997b	-0.27265534
38	0xbe954448	-0.29153657
39	0xbee4b204	-0.44667065
40	0xbf175abe	-0.59122837
41	0xbe608328	-0.21925032
42	0xbedffe5a	-0.43748742
43	0xbf21bfd3	-0.63183326
44	0xbe6905a7	-0.22756062
45	0xbee1ff83	-0.44140252
46	0xbe19412d	-0.14966269
47	0xbeea3b7c	-0.45748508
48	0xbe66222b	-0.22473972
49	0xbeb7cfac	-0.3590063
50	0xbeb0a3ec	-0.34500062
51	0xbeda5192	-0.42640358
52	0xbf05db6e	-0.5228795
53	0x3b8e37d5	0.004340152
54	0xbecdd937	-0.40204784
55	0xbe446426	-0.19178829
56	0xbe2d6e1b	-0.16936533
57	0xbe844838	-0.2583635
58	0xbf00c6ba	-0.5030323
59	0xbeeba152	-0.46021515
60	0xbe7cf49a	-0.24702683
61	0xbf2f4cec	-0.6847675
62	0xbe7e8c4b	-0.24858205
63	0xbed88581	-0.42289355
64	0xbf278692	-0.65439713
65	0xbe555fb2	-0.20837286
66	0xbf6bfdcd	-0.92184144
67	0xbeaab8c4	-0.3334409
68	0xbe478c9e	-0.19487235
69	0xbef19280	-0.47182083
70	0xbee5a7dc	-0.4485463
71	0xbee1c7a5	-0.4409763
72	0xbe2ba52d	-0.16762228
73	0xbf21e520	-0.6324024
74	0xbee3a883	-0.44464502
75	0xbea6b4d0	-0.32559824
76	0xbef21970	-0.47285032
77	0xbedac84e	-0.42730945
78	0xbd98c5cd	-0.074596025
79	0xbe52fdd0	-0.20604634
80	0xbf125e69	-0.5717531
81	0x3bb83245	0.005621227
82	0xbf0617f1	-0.5238028
83	0xbe28e18e	-0.16492292
84	0xbe894393	-0.26809368
85	0xbe73ac06	-0.2379609
86	0xbf324f54	-0.69652295
87	0xbe3be9ca	-0.18350902
88	0xbf0ad1d2	-0.5422641
89	0xbefb978a	-0.49139053
90	0xbf57af9c	-0.84252334
91	0xbedfbf62	-0.437007
92	0xbe2b611c	-0.16736263
93	0xbe01483b	-0.1262521
94	0xbea9903e	-0.3311786
95	0xbe966569	-0.29374245
96	0xbec035f9	-0.37541178
97	0xbea19b64	-0.31563866
98	0xbe4e5a15	-0.20151551
99	0x3f017fb0	0.5058546
100	0xbefbcbe6	-0.49179
101	0xbf5d2d32	-0.8639709
102	0x3ca67e76	0.020323973
103	0xbefeb7c3	-0.49749574
104	0xbea22c99	-0.3167465
105	0xbe4b2ab2	-0.19840506
106	0xbe996bdd	-0.29965106
107	0xbe855a4f	-0.26045462
108	0xbf2dfb62	-0.67961705
109	0xbee3477c	-0.44390476
110	0xbe3bede8	-0.18352473
111	0xbeec698f	-0.46174285
112	0xbe45931c	-0.19294399
113	0xbdc02823	-0.093826555
114	0xbec3a5c4	-0.38212407
115	0xbe9b8dea	-0.3038171
116	0xbeeb4c4b	-0.45956644
117	0xbdc11da8	-0.094294846
118	0xbf234b54	-0.63786817
119	0xbef7077b	-0.48247895
120	0xbec7e9bf	-0.39045522
121	0xbef06254	-0.46950018
122	0xbe8cec4e	-0.27524036
123	0xbee6e3dc	-0.45095718
124	0xbe85466a	-0.26030284
125	0xbf143846	-0.57898366
126	0xbe55bd1b	-0.2087292
127	0xbe9e008c	-0.30859792
128	0xbece9677	-0.4034917
129	0xbed3929c	-0.41322792
130	0xbe1c94d5	-0.1529115
131	0xbe22e3e9	-0.15907253
132	0xbe8a487e	-0.27008432
133	0xbeb92194	-0.3615843
134	0xbee9e979	-0.45685938
135	0xbe02d96a	-0.1277825
136	0xbdaeda97	-0.085377865
137	0xbee1314c	-0.43982923
138	0xbf245444	-0.6419108
139	0xbe5a2e5c	-0.21306747
140	0xbe3d79d3	-0.18503504
141	0xbe665f00	-0.22497177
142	0xbece1d8d	-0.4025692
143	0xbeeffdb2	-0.46873242
144	0xbf01c2b9	-0.5068775
145	0xbf06a37b	-0.525932
146	0xbeecaaf8	-0.4622419
147	0xbe8640c4	-0.26221287
148	0xbed4bab8	-0.41548705
149	0xbed1e912	-0.4099813
150	0x3dbb877b	0.091567
151	0xbc69103e	-0.014225064
152	0xbf5dcea3	-0.8664343
153	0xbd1cebbe	-0.03831076
154	0xbc83a644	-0.016070493
155	0xbe8f0af3	-0.2793804
156	0xbd84ff33	-0.06493988
157	0xbeed48d0	-0.46344614
158	0x3f0339f9	0.51260334
159	0xbf09e56b	-0.5386569
160	0x3e3a7f6f	0.18212675
161	0xbeb9789b	-0.36224827
162	0xbec3e887	-0.38263342
163	0xbf0cd509	-0.55012566
164	0xbe0d303a	-0.13787928
165	0xbef43f49	-0.47704533
166	0xbe447244	-0.19184214
167	0xbf08e765	-0.5347808
168	0xbe027af5	-0.12742217
169	0xbe6508b0	-0.22366595
170	0xbe6f5be6	-0.233749
171	0xbf279b2b	-0.6547114
172	0xbf110199	-0.5664306
173	0xbedb2c68	-0.42807317
174	0xbedb96f2	-0.428886
175	0xbeaeec6e	-0.34164757
176	0xbec1805e	-0.3779325
177	0x3eb56fc3	0.3543683
178	0xbe6bd98b	-0.23032205
179	0xbe0407ac	-0.12893552
180	0xbf42ec48	-0.76141787
181	0xbf1cd8db	-0.61268395
182	0xbef1002b	-0.4707044
183	0xbf0690fc	-0.5256498
184	0xbebf27fe	-0.373352
185	0xbecae4b1	-0.39627603
186	0xbe81688a	-0.2527507
187	0xbecc2d4f	-0.39878318
188	0xbf20982b	-0.6273219
189	0xbe87eb15	-0.2654654
190	0xbeea09dc	-0.45710647
191	0xbf082b0b	-0.5319068
192	0xbe8ac398	-0.2710235
193	0xbeab7a83	-0.33491907
194	0xbf27f9fb	-0.65615815
195	0xbeb2a291	-0.34889653
196	0xbe128e4d	-0.14312096
197	0xbeb6a4f2	-0.35672718
198	0xbef07a9a	-0.46968538
199	0xbe9384a1	-0.28812125
200	0xbeae3d04	-0.34030926
201	0xbea3caf3	-0.31990775
202	0xbe3c4e38	-0.18389213
203	0xbee4a191	-0.44654515
204	0xbe665c60	-0.22496176
205	0xbf38c4c1	-0.7217522
206	0xbe682ece	-0.22674105
207	0xbf0be6b5	-0.54648906
208	0xbe854154	-0.26026404
209	0xbe2f60e5	-0.17126806
210	0xbf6ce505	-0.92536956
211	0xbf043e85	-0.516579
212	0xbedea791	-0.43487218
213	0xbf32d421	-0.69854933
214	0xbe3fc489	-0.18727316
215	0xbf2948aa	-0.661265
216	0xbeff5f19	-0.4987724
217	0xbe6950f0	-0.22784781
218	0xbd187bb0	-0.037227333
219	0xbf207d63	-0.62691325
220	0xbeb9d784	-0.36297238
221	0xbe8b6c1b	-0.27230915
222	0xbe9b1e48	-0.3029654
223	0xbf1c62fe	-0.6108855
224	0xbeda4fcf	-0.42639014
225	0xbef37ae1	-0.47554687
226	0xbf0ef8e5	-0.5584853
227	0xbe8d5071	-0.27600434
228	0xbe663656	-0.22481665
229	0xbddca389	-0.10773379
230	0xbe753bfc	-0.23948663
231	0xbecdfaf9	-0.4023054
232	0xbf0f99ed	-0.5609425
233	0xbee2651f	-0.44217774
234	0xbed42fdc	-0.41442764
235	0xbf192b3f	-0.59831613
236	0xbebec42b	-0.3725904
237	0xbf0fb041	-0.5612832
238	0xbe8d6ef2	-0.27623707
239	0xbeb00c73	-0.34384498
240	0xbf11e66f	-0.5699224
241	0xbed99600	-0.42497253
242	0x3e8f9b83	0.28048334
243	0x3e095cae	0.1341426
244	0xbd40b3d9	-0.047046516
245	0xbf1bbcf2	-0.6083518
246	0xbec16bad	-0.37777463
247	0xbf0eaf3f	-0.55736154
248	0xbec1d36f	-0.37856624
249	0xbeb9186a	-0.3615144
250	0xbeba65e9	-0.36405876
251	0xbe703367	-0.23457108
252	0xbf1c6c32	-0.6110259
253	0xbd917ce0	-0.07103896
254	0xbea6dfd4	-0.32592642
255	0xbef7133b	-0.4825686

action_model._discrete_distribution.branches.0.weight f4 [3, 256]
0	0xbcad6c5e	-0.021169838
1	0x3e198d57	0.14995323
2	0x3e75a476	0.23988518
3	0x3e01af57	0.12664543
4	0x3e53dca6	0.2068964
5	0x3eef63c2	0.46755797
6	0xbda0dbb7	-0.07854407
7	0x3dde481f	0.108536
8	0xbe2d7fb7	-0.1694325
9	0x3d73dc83	0.05953647
10	0x3e009ee5	0.12560613
11	0xbcc001bc	-0.023438327
12	0xbe8f24f4	-0.2795788
13	0xbe6df270	-0.23237014
14	0xbe114056	-0.14184698
15	0x3de68d25	0.1125739
16	0x3d34d5d3	0.04414923
17	0xbd6a1e34	-0.05715771
18	0x3e414e7e	0.18877599
19	0x3ec56f72	0.3856159
20	0x3da921ab	0.08258375
21	0x3d1bf20e	0.03807264
22	0x3d83bee8	0.06432897
23	0xbdc435b4	-0.095805556
24	0xb8b9fd73	-8.868696e-05
25	0xbe9c1a51	-0.30488828
26	0x3dc5039e	0.096198305
27	0x3e8170cb	0.25281367
28	0x3dbc1705	0.09184078
29	0xbe41c6f4	-0.18923551
30	0x3d5e5463	0.054279696
31	0x3e8f7232	0.28016812
32	0x3ea2a26b	0.3176454
33	0xbe395a5a	-0.18100873
34	0x3d9884e9	0.074472256
35	0xbea862b8	-0.32887816
36	0xbd4cf5bb	-0.050039034
37	0x3ca2c0ae	0.019867267
38	0x3db222d7	0.086980514
39	0x3e286123	0.16443305
40	0x3d3102df	0.04321563
41	0x3db7e5d4	0.08979383
42	0x3cd90ccc	0.02649536
43	0x3e76625e	0.24060962
44	0xbe28919a	-0.16461793
45	0xbe69483b	-0.2278146
46	0x3e09f586	0.13472566
47	0x3ddce4da	0.107858375
48	0x3e3e456d	0.18581171
49	0x3e18b3e6	0.14912376
50	0x3e91cc76	0.28476304
51	0xbe003d26	-0.12523326
52	0x3da9eab9	0.08296723
53	0x3e56e75c	0.20986694
54	0x3e2d13e9	0.16902126
55	0x3d1fd898	0.03902492
56	0x3c1ac710	0.009446874
57	0xbe4b0ad0	-0.19828343
58	0xbe894bbe	-0.268156
59	0x3eb026b1	0.3440452
60	0x3de681da	0.11255236
61	0x3bc3a9fb	0.005971191
62	0x3c40d6f6	0.011770001
63	0xbca8f617	-0.020625157
64	0xbd1acd85	-0.037793655
65	0xbe80a592	-0.2512632
66	0x3e9cf963	0.30659017
67	0xbe6d3e40	-0.23168278
68	0xbe5f6a97	-0.21818005
69	0xbdec8c8e	-0.11550246
70	0x3e215fa7	0.15759145
71	0x3e33fefe	0.1757774
72	0xbdf06a6a	-0.11739047
73	0x3de66a6f	0.11250769
74	0xbeae7393	-0.3407255
75	0xbe23a985	-0.15982635
76	0x3e43aec5	0.19109638
77	0xbbc6b525	-0.0060640746
78	0x3daad1f3	0.08340826
79	0x3bc069d4	0.0058719907
80	0xbca938d7	-0.020656986
81	0xbd0fa64a	-0.035070695
82	0x3e3569a8	0.17716086
83	0x3de26aa4	0.11055496
84	0x3d186685	0.037207145
85	0x3de49b7e	0.1116247
86	0xbc3a571e	-0.011373309
87	0x3e265b56	0.1624578
88	0x3e96c482	0.294468
89	0x3eef59dd	0.46748248
90	0x3e2cb230	0.16864848
91	0xbe86f83a	-0.26361257
92	0x3e28efc1	0.16497709
93	0xbcb82871	-0.022480221
94	0x3e4a20fc	0.19739145
95	0xbe37c5f0	-0.17946601
96	0xbea9511e	-0.330697
97	0x3db00959	0.08595533
98	0x3d8c2928	0.068437874
99	0x3ed7ba7c	0.42134464
100	0x3e66f6dd	0.22555108
101	0xbe0d5c08	-0.13804638
102	0xbe7e0710	-0.24807382
103	0x3e73d792	0.23812702
104	0xbe28e093	-0.16491918
105	0xbe6cc2e0	-0.23121214
106	0x3d3dfb92	0.046382494
107	0xbe36c428	-0.17848265
108	0xbe2e9931	-0.17050625
109	0x3e5d9e1f	0.2164235
110	0xbd8406b8	-0.06446594
111	0xbe41411d	-0.18872495
112	0x3ddaf85b	0.10691901
113	0x3db16644	0.08662084
114	0xbc9b017d	-0.018921608
115	0x3e736081	0.23767282
116	0x3eb9570c	0.36199224
117	0xbe2cd538	-0.16878211
118	0x3c2c279c	0.0105074905
119	0xbd5d474b	-0.05402307
120	0x3da34f5b	0.0797412
121	0xbe9b5985	-0.30341735
122	0xbde25087	-0.110505156
123	0xbd6d8547	-0.05798843
124	0xbcb3ccf0	-0.021948308
125	0xbe0aef97	-0.13567959
126	0x3ed35d98	0.41282344
127	0xbe31a416	-0.1734775
128	0x3d4a683a	0.049415804
129	0xbd00bb70	-0.031428754
130	0xbe0d3cf4	-0.13792783
131	0x3e0c0581	0.13673975
132	0x3e8f15da	0.2794636
133	0xbc856d59	-0.016287493
134	0xbce31a91	-0.027722629
135	0x3e25020d	0.16114064
136	0x3e2dfaf9	0.1699027
137	0x3de11f87	0.109923415
138	0xbc51ece1	-0.012812824
139	0x3e421ce2	0.1895633
140	0x3dccaccb	0.09993895
141	0x3ecf181e	0.40448087
142	0x3e43b8b8	0.19113433
143	0x3cbf1acc	0.023328207
144	0x3dd1b1b9	0.10238976
145	0x3edea32f	0.43483874
146	0x3e808a3c	0.25105464
147	0xbd7d7155	-0.06187566
148	0x3e2a3635	0.16622241
149	0x3d0c56dc	0.034262523
150	0x3ded5155	0.115877785
151	0x3e994808	0.29937768
152	0x3e84a020	0.25903416
153	0x3d272752	0.040808983
154	0xbda2ebe9	-0.079551525
155	0xbe59ea03	-0.21280675
156	0xbe1328ea	-0.14371076
157	0x3e039390	0.1284926
158	0x3d15ba64	0.03655471
159	0x3d42b91b	0.04753981
160	0x3d867700	0.06565666
161	0xbd9c24d3	-0.07624211
162	0xbd3e582e	-0.046470813
163	0xbddc1801	-0.10746766
164	0x3b505723	0.0031790219
165	0xbdef0271	-0.116703875
166	0xbe3b2c21	-0.18278553
167	0xbd3d8765	-0.0462717
168	0xbdefc430	-0.11707342
169	0x3e9adcb5	0.3024651
170	0xbcd6f808	-0.026241317
171	0x3ec4a175	0.38404432
172	0x3d665d67	0.05624142
173	0x3ea90586	0.33012027
174	0x3ddfbc76	0.10924618
175	0x3eefb149	0.46814945
176	0x3c59bef0	0.013290152
177	0x3d8b60f1	0.068055995
178	0xbdd0de64	-0.10198668
179	0x3de529c7	0.11189609
180	0xbda0f5c3	-0.07859375
181	0xbdcac5ce	-0.099010095
182	0x3de52e75	0.111905016
183	0xbf0b0742	-0.5430795
184	0x3dbd6262	0.09247281
185	0x3e18e4c0	0.14931011
186	0x3e8fc6be	0.28081316
187	0xbd74eb5c	-0.05979477
188	0xbd1ab3cd	-0.037769128
189	0x3e33f640	0.17574406
190	0x3e052a5b	0.13004439
191	0x3cc5ea39	0.024159538
192	0xbddfaa76	-0.10921185
193	0x3eb28abf	0.3487148
194	0xbdea4dbb	-0.11440607
195	0xbdb60ff7	-0.08889764
196	0xbb9ce55a	-0.004788083
197	0xbdcb818f	-0.09936821
198	0xbc31eabc	-0.010859188
199	0x3d36fbc6	0.044673704
200	0xbd33737d	-0.04381131
201	0x3e934132	0.28760678
202	0x39b3e2e6	0.00034310593
203	0x3e5e58f3	0.21713619
204	0xbc3cb7ca	-0.011518428
205	0xbe666449	-0.22499193
206	0xbdec1c21	-0.11528803
207	0xbd3b26bf	-0.045691248
208	0x3e961457	0.29312393
209	0xbf05c5ea	-0.5225512
210	0xbc489705	-0.012243037
211	0x3d661a9b	0.056177717
212	0xbdfae020	-0.1224978
213	0x3e292ff4	0.16522199
214	0x3d4aba37	0.049493995
215	0x3e82aa57	0.25520584
216	0x3e63f35c	0.22260803
217	0x3dfe7639	0.12424893
218	0xbdf62aeb	-0.12019905
219	0x3e162241	0.14661504
220	0xbec4e8c3	-0.38458833
221	0x3df61f78	0.12017721
222	0x3c7ad054	0.015308458
223	0xbe6545a2	-0.22389844
224	0xbe719308	-0.23591244
225	0xbb53f209	-0.003234031
226	0xbe3d0ac1	-0.18461134
227	0x3e27e29b	0.16395037
228	0xbd63c307	-0.055605914
229	0x3e2f2830	0.17105174
230	0x3e110024	0.1416021
231	0x3cb42b7f	0.021993397
232	0xbd653725	-0.055960793
233	0x3d800c25	0.062523164
234	0xbd137418	-0.035999388
235	0x3d3bd005	0.04585268
236	0x3e9bb964	0.3041488
237	0x3dcd2e21	0.10018564
238	0x3e141341	0.1446047
239	0xbec4aef0	-0.38414717
240	0xbd8b8724	-0.068128854
241	0x3e7016d7	0.23446213
242	0x3e866e0c	0.26255834
243	0x3e0f3dcd	0.13988419
244	0xbe494bc8	-0.19657815
245	0xbe89b758	-0.26897693
246	0x3ed249a6	0.41071814
247	0xbe6b8f30	-0.2300384
248	0x3e807501	0.25089267
249	0xbda4cdcd	-0.08047066
250	0x3d796de8	0.06089583
251	0xbb0acdeb	-0.0021179866
252	0x3e68139c	0.2266373
253	0xbd12bc65	-0.0358242
254	0x3d704cc5	0.058666963
255	0xbe148349	-0.14503206

action_model._discrete_distribution.branches.0.bias f4 [3]
0	0x3c6f4f66	0.014606332
1	0x3ccbbb48	0.024869576
2	0xbd6da9ee	-0.058023386

action_model._discrete_distribution.branches.1.weight f4 [2, 256]
0	0xbe6173aa	-0.22016779
1	0xbc72f1f5	-0.014828195
2	0x3eada227	0.33912775
3	0xbd7fb804	-0.06243135
4	0xbd4b8282	-0.04968501
5	0x3db3a526	0.08771734
6	0xbec981e1	-0.39356902
7	0x3d3dc950	0.046334565
8	0x3daf52d0	0.08560717
9	0xbe72473d	-0.23659988
10	0x3e596962	0.21231607
11	0x3e08b317	0.13349567
12	0xbdf77108	-0.12082106
13	0x3d220187	0.039552238
14	0xbe63448f	-0.22194122
15	0x3bb66937	0.005566742
16	0x3e856845	0.26056114
17	0xbd188f4a	-0.037246026
18	0x3cbb584b	0.02286925
19	0x3d15d5ac	0.036580727
20	0xbe191259	-0.14948405
21	0xbc4b4c1c	-0.012408283
22	0xbea6ebef	-0.32601878
23	0xbe91a890	-0.28448915
24	0xbe19c12d	-0.15015097
25	0x3db26654	0.08710924
26	0x3e1b8e21	0.15190937
27	0xbd5cecd4	-0.053936794
28	0xbda327c8	-0.07966572
29	0xbe5e46a7	-0.21706639
30	0xbd82c431	-0.06385077
31	0x3db7e809	0.08979804
32	0xbc444960	-0.011980385
33	0x3c039ddf	0.008033245
34	0x3d9527c8	0.07282978
35	0x3f0dfd06	0.5546421
36	0xbdb25ba0	-0.08708882
37	0xbca33ffd	-0.019927973
38	0xbd746ab1	-0.05967206
39	0xbeeae2ec	-0.45876253
40	0xbd880cbc	-0.06643054
41	0xbd563a71	-0.052301828
42	0x3e112fe1	0.1417842
43	0xbd20a592	-0.0392204
44	0xbdd2f600	-0.10300827
45	0xbd40d6af	-0.04707974
46	0xbc450e68	-0.0120273605
47	0x3d4e9fd6	0.0504454
48	0x3d308f1f	0.04310524
49	0x3e761120	0.2402997
50	0x3db51580	0.088419914
51	0xbe3377a7	-0.17526112
52	0x3ea16e5b	0.31529507
53	0xbd8aed2b	-0.067835175
54	0xbc458270	-0.0120550245
55	0x3e3045e7	0.17214166
56	0xbe55bf3b	-0.2087373
57	0xbe29db42	-0.16587546
58	0xbd193a7b	-0.037409287
59	0x3db543bd	0.08850811
60	0xbd03a89c	-0.03214322
61	0x3dee7c77	0.116448335
62	0x3d8fc37a	0.07019706
63	0xbe8d53c2	-0.27602965
64	0xbdd55c52	-0.10417999
65	0xbd647a59	-0.055780742
66	0xbdfb2cff	-0.12264442
67	0xbd78503c	-0.060623392
68	0xbe52cfa3	-0.2058702
69	0x3dc873ee	0.09787737
70	0xbd71a55f	-0.0589956
71	0x3e211d37	0.15733801
72	0xbe8814ee	-0.26578468
73	0x3c2af405	0.010434155
74	0x3e3a7dc9	0.18212046
75	0x3dffc4ee	0.12488733
76	0xbe687433	-0.22700576
77	0xbd1cc44a	-0.038273133
78	0x3aef9fae	0.0018281841
79	0x3e78328c	0.24238032
80	0x3d94a498	0.07257956
81	0x3c0e774c	0.008695435
82	0x3e63902d	0.22222967
83	0x3dcf7807	0.10130315
84	0xbe4bb2d0	-0.1989243
85	0x3c4c00de	0.012451379
86	0x3e7f45fa	0.24929038
87	0xbe4b4910	-0.1985209
88	0x3e102386	0.14076051
89	0xbccfd905	-0.025372038
90	0xbdf0b071	-0.117524035
91	0xbdd51595	-0.10404507
92	0xbe33a8da	-0.1754488
93	0xbdd6ed8d	-0.10494528
94	0xbe155918	-0.14584768
95	0x3d2080da	0.039185382
96	0xbdd312cd	-0.1030632
97	0xbda893af	-0.082312934
98	0x3cc6e811	0.02428058
99	0x3eb699f3	0.3566433
100	0x3d8a1236	0.06741755
101	0xbe0ce192	-0.13757923
102	0x3d6481aa	0.05578772
103	0xbdb81324	-0.08988026
104	0xbe426456	-0.18983588
105	0x3e0d33b1	0.1378925
106	0x3cf5d187	0.030007137
107	0x3c2a715a	0.010403002
108	0x3e0ea66f	0.13930677
109	0x3b829928	0.003985543
110	0x3cf622a9	0.030045824
111	0xbe8e7741	-0.2782536
112	0x3e36c202	0.17847446
113	0x3d17b48f	0.03703743
114	0xbda8d390	-0.08243477
115	0x3c61b3ad	0.013775748
116	0xbd4feaa8	-0.050760895
117	0xbd35bf2f	-0.04437178
118	0x3d9e4104	0.077272445
119	0xbde28b4a	-0.110617235
120	0x3e3940b8	0.18091094
121	0xbcb67be0	-0.022275865
122	0x3deaf056	0.11471622
123	0x3e4cfa66	0.20017394
124	0xbd8be764	-0.06831244
125	0xbca4c23f	-0.020112155
126	0x3d3956be	0.04524874
127	0xbe6db040	-0.23211765
128	0xbdb5e0a0	-0.088807344
129	0x3e166b51	0.14689375
130	0xbeecae1a	-0.4622658
131	0xbd07e4ca	-0.033177175
132	0xbd218a4f	-0.039438542
133	0xbd3c3565	-0.04594936
134	0x3e109647	0.14119826
135	0xbba86d97	-0.0051400173
136	0x3e8b0949	0.27155522
137	0xbe53f6dd	-0.2069964
138	0x3ea77347	0.32705137
139	0x3cfebd8a	0.031096239
140	0x3da7baa3	0.08189895
141	0xbc5ddfd7	-0.013542137
142	0xbde73a69	-0.11290438
143	0x3d996e12	0.07491697
144	0xbe4be72a	-0.19912401
145	0x3dcc6f1f	0.09982132
146	0x3ca3ff14	0.020019092
147	0xbd98d8e8	-0.074632466
148	0xbcd18928	-0.025578097
149	0xbe869e12	-0.26292473
150	0xbb3be723	-0.0028671704
151	0x3eab7afc	0.33492267
152	0xbe789cab	-0.24278514
153	0x3cc28683	0.02374578
154	0xbc6cf368	-0.014462329
155	0xbd414018	-0.047180265
156	0xbe75e615	-0.2401355
157	0xbc220e0e	-0.009891046
158	0xbc321706	-0.010869747
159	0xbdaaf3ac	-0.08347258
160	0xbd80d310	-0.06290257
161	0x3e4dfca3	0.20115905
162	0xbcc4d649	-0.02402796
163	0xbbb673a5	-0.005567985
164	0x3e05c7ab	0.13064449
165	0xbd7d15d2	-0.061788388
166	0xbce43acd	-0.02786007
167	0xbea62c0d	-0.32455483
168	0xbcae0708	-0.021243587
169	0xbe24d051	-0.16095091
170	0xbc5c7178	-0.013454787
171	0xbea1e072	-0.3161655
172	0xbe2b6f0f	-0.16741584
173	0xbea83e1d	-0.3285989
174	0xbd425fb6	-0.04745456
175	0xbddcc22a	-0.10779221
176	0x3e071921	0.1319318
177	0x3ca60ae3	0.020268863
178	0xbcc93905	-0.024563322
179	0xbe3211bc	-0.17389578
180	0x3ded1111	0.11575521
181	0xbdd4e5da	-0.10395403
182	0xbdce7bc3	-0.100821994
183	0x3db740af	0.08947884
184	0x3e4c98cd	0.19980164
185	0x3d2a76aa	0.041617073
186	0xbd69f48f	-0.057117995
187	0xbe7f3fdf	-0.24926709
188	0x3d38af61	0.04508913
189	0x3dd2d362	0.10294224
190	0x3d19ecf2	0.037579484
191	0xbea6aa04	-0.32551587
192	0xbc451a23	-0.012030157
193	0x3deca866	0.11555557
194	0x3e5d9cd0	0.2164185
195	0xbe100862	-0.14065698
196	0xbda32bb7	-0.07967322
197	0x3e65d342	0.2244387
198	0xbe77ce55	-0.24199803
199	0x3dfe963a	0.12430997
200	0x3d190d95	0.03736647
201	0xbdea6471	-0.11444939
202	0x3e20af33	0.15691833
203	0x3d8c243a	0.06842847
204	0xbe093c8f	-0.13402008
205	0x3e19162e	0.14949867
206	0x3d00d153	0.031449627
207	0x3e4b91e7	0.19879876
208	0xbd6b4156	-0.057435356
209	0xbc5e210c	-0.013557684
210	0x3bbf6dac	0.0058419313
211	0x3e696e74	0.22796041
212	0xbd0332ed	-0.03203099
213	0xbd04d3f5	-0.0324287
214	0x3ed4e92f	0.41584155
215	0x3dfeecd1	0.12447513
216	0x3e2510a1	0.16119625
217	0x3c76c204	0.015060905
218	0xbd67e8a1	-0.056618337
219	0xbcf601ef	-0.030030219
220	0xbeb3c3f9	-0.35110453
221	0x3c864842	0.016391877
222	0x3d2339d5	0.039850075
223	0x3e31ba1a	0.17356148
224	0x3cef0bb0	0.029180378
225	0xbdd9b636	-0.10630457
226	0x3e3fd4b9	0.18733491
227	0x3e2ca3ae	0.16859314
228	0x3dc44cf7	0.095849924
229	0xbc11f58c	-0.008908641
230	0xbd3f3a68	-0.04668656
231	0x3d31ef91	0.04344136
232	0xbdb307f2	-0.0874175
233	0xbe237e5a	-0.15966168
234	0xbd8e4ef1	-0.06948651
235	0x3e39f51c	0.18159908
236	0xbda1ef5c	-0.07906982
237	0xbdb4548c	-0.088051885
238	0x3d74c190	0.059754908
239	0xbdb4ba39	-0.08824582
240	0x3c33bdfd	0.01097059
241	0xbdb6c540	-0.08924341
242	0x3d140ca9	0.036144886
243	0x3eda5357	0.42641708
244	0x3d63c1c2	0.055604704
245	0xbe411fcf	-0.1885979
246	0xbc55f8ac	-0.013059776
247	0x3de48d27	0.11159735
248	0xbdf774a1	-0.12082792
249	0xbed026fb	-0.4065474
250	0xbd969d0e	-0.073541746
251	0x3b8aaa90	0.0042317584
252	0x3d8ffba0	0.070304155
253	0x3b35da99	0.0027748703
254	0xbe1ed74a	-0.15511814
255	0xbdc6e6f2	-0.09712018

action_model._discrete_distribution.branches.1.bias f4 [2]
0	0x3dab1053	0.08352723
1	0xbdab0f95	-0.083525814

action_model._discrete_distribution.branches.2.weight f4 [2, 256]
0	0xbd8bb441	-0.0682149
1	0xbd59f497	-0.053211775
2	0x3da2480e	0.079238996
3	0xbe21ed80	-0.15813255
4	0xbabc7cae	-0.0014380419
5	0xbe8e7718	-0.27825236
6	0x3dc855ed	0.09782014
7	0x3c9bf071	0.01903555
8	0x3d8c8a39	0.068623014
9	0x3e32d650	0.17464566
10	0xbd572770	-0.052527845
11	0x3cb4cadc	0.022069387
12	0xbda5d527	-0.08097296
13	0xbccf080b	-0.02527239
14	0xbdaad4d1	-0.08341373
15	0x3cd37d8d	0.025816703
16	0xbc175fb0	-0.009239122
17	0x3d0d4ab0	0.034495056
18	0x3c51ffa4	0.012817297
19	0x3dbe36ae	0.09287773
20	0xbd386a64	-0.045023337
21	0x3be3a4ca	0.0069471346
22	0xbe8598b0	-0.26093054
23	0x3d2dff95	0.04248007
24	0x3d8b2c67	0.067955784
25	0x3e0fbab7	0.1403607
26	0x3d3dd185	0.04634239
27	0x3d8cbf28	0.06872398
28	0xbd7d9922	-0.061913617
29	0x3d3c50c2	0.045975454
30	0xbe16ef66	-0.14739761
31	0xbd60d60f	-0.054891642
32	0xbf1217a0	-0.570673
33	0x3e9a09f8	0.3008573
34	0x3e387852	0.18014649
35	0xbd72a8c5	-0.059242982
36	0xbdba92d3	-0.09110036
37	0x3d3a90d4	0.045548275
38	0xbeaad629	-0.33366516
39	0xbdcb7349	-0.09934098
40	0x3cf4e7d1	0.029895695
41	0x3ddfc465	0.10926131
42	0xbd815594	-0.06315151
43	0x3db31ba5	0.08745507
44	0xbe1303b1	-0.14356877
45	0x3e2ed038	0.17071617
46	0xbb4b6c8e	-0.0031040045
47	0xbeb9c50a	-0.3628314
48	0xbe498ae5	-0.1968189
49	0xbd854261	-0.065068014
50	0x3d25d00b	0.04048161
51	0xbd2cd986	-0.042199634
52	0xbd5d3f8d	-0.054015685
53	0x3db6e712	0.08930792
54	0xbe033cec	-0.12816209
55	0xbe467cf3	-0.19383602
56	0xbd937377	-0.071997575
57	0x3e1c5a96	0.15268931
58	0x3d69b81c	0.057060346
59	0xbdd78c79	-0.1052484
60	0xbd29bbe1	-0.04143894
61	0xbe8fa171	-0.28052858
62	0x3def73bc	0.116919965
63	0xbe0efe5f	-0.13964222
64	0x3f3cbcce	0.73725593
65	0xbda7d112	-0.08194174
66	0xbb08163b	-0.0020765204
67	0x3e58aa2f	0.2115867
68	0x3dbdbc72	0.09264459
69	0xbd0f30d9	-0.034958694
70	0xbb604358	-0.0034219828
71	0x3e4b6ace	0.19864962
72	0xbcb7774c	-0.022395752
73	0x3cd97bd1	0.026548298
74	0xbe4be445	-0.19911297
75	0x3e2ed438	0.17073143
76	0xbd482247	-0.048860814
77	0x3d0c8b94	0.0343128
78	0xbde54b89	-0.11196048
79	0x3d891f82	0.06695463
80	0xbd2d1acf	-0.042261895
81	0x3e7b01f7	0.24512468
82	0xbd42ca2a	-0.04755608
83	0xbd882f30	-0.06649625
84	0x3e2b66c3	0.16738419
85	0xbcfbfdc3	-0.030760651
86	0xbe0d24ba	-0.13783541
87	0x3ce148e9	0.027500587
88	0x3c7b98e3	0.015356275
89	0x3bf3be9f	0.0074384953
90	0x3d522256	0.051302277
91	0x3e9effab	0.31054434
92	0x3ddf4558	0.10901898
93	0xbe6ab123	-0.22919135
94	0x3c1d8212	0.009613531
95	0xbb2326e9	-0.0024895018
96	0x3e012730	0.12612605
97	0xbc4ba88f	-0.012430324
98	0xbe0b1bc6	-0.13584813
99	0x3d7d2dcf	0.061811265
100	0xbd2fe916	-0.042946897
101	0xbde08ee9	-0.10964758
102	0xbdf83de4	-0.1212118
103	0xbe9c57c8	-0.30535722
104	0x3cbf6308	0.023362651
105	0x3d0d1bbd	0.03445028
106	0x3c9ae328	0.018907145
107	0x3d63030b	0.055422824
108	0x3e17935d	0.14802308
109	0x3d03c88f	0.03217369
110	0xbe183310	-0.14863229
111	0x3f1f4ec0	0.6222954
112	0x3e0a2fc9	0.13494791
113	0xbd2267b6	-0.039649688
114	0x3d83bddb	0.064326964
115	0xbe871467	-0.26382753
116	0xbd5eb97e	-0.054376118
117	0x3e4528ff	0.1925392
118	0x3d413145	0.047166128
119	0xbe35358b	-0.17696206
120	0x3da663b5	0.08124486
121	0xbd957091	-0.07296861
122	0xbd6a7c8c	-0.057247683
123	0x3e87ff39	0.26561907
124	0xbd2befed	-0.041976858
125	0x3c66aba6	0.01407901
126	0xbd39ed4e	-0.045392327
127	0x3e0d5012	0.13800076
128	0xbda50700	-0.08057976
129	0xbe1900d8	-0.14941728
130	0x3e5a8e8e	0.21343443
131	0x3ca7b9ce	0.02047434
132	0xbcec6725	-0.028857777
133	0x3e84822d	0.25880566
134	0x3c0f5adc	0.00874969
135	0x3d6f5ceb	0.058438223
136	0xbdb7d3c8	-0.08975941
137	0x3d0367da	0.032081462
138	0xbe143f76	-0.14477333
139	0x3bdc400c	0.006721502
140	0xbcce3020	-0.025169432
141	0x3e1a96cd	0.15096588
142	0x3cff6e19	0.031180428
143	0x3dd22211	0.10260404
144	0xbeba76a9	-0.36418656
145	0xbeac5487	-0.3365824
146	0xbcbf1224	-0.02332408
147	0x3dca5368	0.0987919
148	0xbe41cffa	-0.18926993
149	0xbe3c4db0	-0.1838901
150	0x3a17a1ef	0.0005784323
151	0xbcee331f	-0.02907711
152	0x3d997d36	0.07494585
153	0xbebea252	-0.37233216
154	0x3c27a743	0.010232749
155	0x3dc47f85	0.09594635
156	0x3d3a9376	0.045550786
157	0x3df5974f	0.119917504
158	0x3eb0310e	0.34412426
159	0x3df30447	0.1186605
160	0xbde119e4	-0.10991266
161	0x3d1a0a54	0.037607506
162	0xbd00a010	-0.031402647
163	0xbe03d2e0	-0.12873411
164	0xbdcc7ed2	-0.099851266
165	0x3d667397	0.05626258
166	0x3e5ff04b	0.21869008
167	0x3d8aa55b	0.0676982
168	0x3ea07ea7	0.31346628
169	0x3db79ca9	0.089654274
170	0x3dc00cd1	0.093774445
171	0x3d083425	0.033252854
172	0xbe37c998	-0.17947996
173	0x3d2cfe0e	0.042234473
174	0xbd36c293	-0.044619154
175	0xbcc0adcd	-0.023520375
176	0xbd099bf7	-0.033596005
177	0x3c47571f	0.012166767
178	0x3ca8be0c	0.020598434
179	0x3dae788e	0.08519088
180	0xbee0e9a7	-0.43928263
181	0x3e6ab5a7	0.22920857
182	0xbd8c8d46	-0.06862883
183	0x3ca769b0	0.020436138
184	0x3d2e37a6	0.04253354
185	0xbe39d52f	-0.1814773
186	0xbcfad88a	-0.030620832
187	0x3e1ede8a	0.1551458
188	0x3d83c5c5	0.06434206
189	0x3cdb2598	0.026751325
190	0xbde3dc19	-0.11125965
191	0xbe778a6d	-0.24173899
192	0x3d74d668	0.059774786
193	0xbe082041	-0.13293554
194	0xbe9c6dc3	-0.30552492
195	0xbe32ba5f	-0.17453907
196	0xbf2698dd	-0.65077
197	0x3bc526b6	0.0060165776
198	0xbe2879d7	-0.16452728
199	0x3d56c82f	0.052437004
200	0xbe0e6165	-0.1390434
201	0x3de4d982	0.11174299
202	0xbd24028b	-0.040041488
203	0x3eb8ddf5	0.3610684
204	0xbd4ed22c	-0.050493404
205	0x3e9fa847	0.31183073
206	0x3d518577	0.051152673
207	0x3e202d2e	0.15642235
208	0xbc334379	-0.01094138
209	0xbd7dd5f9	-0.06197164
210	0x3de35fe1	0.11102272
211	0x3dca1d88	0.09868914
212	0x3dc4dc49	0.096123286
213	0xbd37a71f	-0.044837113
214	0xbc396235	-0.011314918
215	0x3b3b8c63	0.0028617613
216	0xbca46545	-0.02006782
217	0x3e96b34f	0.29433677
218	0xbdf6bbf4	-0.12047568
219	0x3d740742	0.059577234
220	0x3d13cce4	0.03608407
221	0x3e1f0d4c	0.15532416
222	0xbc9dc943	-0.019261008
223	0x3ea0a6a0	0.31377125
224	0x3ca28e9f	0.019843398
225	0xbdb79d80	-0.089655876
226	0xbc516a41	-0.012781681
227	0xbd7186e7	-0.058966544
228	0xbe12eed9	-0.14348926
229	0xbdb09c3e	-0.08623551
230	0xbdb307bc	-0.087417096
231	0x3dec1ef0	0.11529338
232	0x3e076d23	0.13225226
233	0x3d356158	0.044282287
234	0xbdb59a96	-0.088673756
235	0xbe30c337	-0.17261969
236	0x3c27a00e	0.010231031
237	0xbd152ec5	-0.036421556
238	0x3df727b1	0.120681174
239	0x3dcf9ca2	0.10137297
240	0xbdfc5b70	-0.12322128
241	0x3de0cf53	0.10977044
242	0xbc482e08	-0.012218006
243	0x3ca029f9	0.019551264
244	0x3ca78f20	0.02045399
245	0xbe1d8edc	-0.15386528
246	0x3e85f1a4	0.2616092
247	0x3cab119a	0.020882417
248	0xbe5c0deb	-0.21489684
249	0xbd16f621	-0.03685582
250	0xbe1cbe17	-0.15306889
251	0x3d3b9320	0.045794606
252	0x3ccda26b	0.025101861
253	0x3b5bdeca	0.003354954
254	0x3d49975c	0.049216613
255	0x3d4c0836	0.049812518

action_model._discrete_distribution.branches.2.bias f4 [2]
0	0x3dbc6d44	0.09200528
1	0xbdbc6c2a	-0.09200318
