results/Player4/MoveAgent2D/checkpoint.pt (torch, 520290 bytes, 48 tensors)

discrete_act_size_vector f4 [1, 2]
00000000: 0000 4040 0000 0040
3.0 2.0

network_body._body_endoder.seq_layers.0.weight f4 [128, 5]
00000000: e699 223e 500d 22bf e8e4 b2be d8b9 f43e
00000010: 9133 b6bd 5d9c 963e 1b86 633e 184f d0be
00000020: 2213 8ebe ce1f 563d 8be1 86be 0eaf 68be
00000030: 6190 8cbe c9d5 12be 13b1 9fbe 240a fe3e
00000040: 6049 cc3e 7281 2c3f 4172 173f c5d4 b5bd
00000050: 59f7 1ebe 22b0 f43e 4fb9 f6be ad98 be3e
00000060: e759 fcbc fe2b 3bbe 39f8 63bf eb51 133f
00000070: aa3c 0c3f 2b1e 8e3e 7799 593d 4c8b 95bd
00000080: d4af 3e3f f145 0a3f b6f2 0f3f fb6d ac3e
00000090: 9eb2 d7be ebe0 0bbe 45c7 4abe c638 513f
000000a0: a314 b73e 2734 583f 921d 35be 9a64 b4be
000000b0: d2df e0be 9815 d6bd 7dbd f5be 5863 a43e
000000c0: c6bc 46be 1c26 433f 6c6a 5a3e 840b f33e
000000d0: 6ec3 353f 5cd1 f23e fc2d 253f a110 193e
000000e0: 9d63 033f 90aa 0a3f 91ac 263e 8d40 96be
000000f0: 939e f7be 2110 26bf 0590 66bf e66c 03bf
00000100: 82ae 153f 46c3 f73d d54e babd 0dc5 d3be
00000110: af3f d9bd 1178 10bf a73c 4cbf a9d2 203f
00000120: c02c 4e3f 1a7b 55be dce1 833d 4565 f33d
00000130: 9d94 72be 80d0 d5bd c15c 0d3e a507 7bbd
00000140: d43f 4f3e 0157 e93d 39f1 4a3e b2cf bbbe
00000150: ef09 47bf 0254 5dbf c383 01bf 0fb3 cbbe
00000160: 74e8 7e3e fde3 d13e 1aa1 1dbf e6c4 483f
00000170: dc46 723e 97bb 9ebd 2292 9a3e c4dd b93e
00000180: de58 df3e d3e3 cdbc 8564 0bbf 43f0 41bf
00000190: 316d 433f 6052 713e 0652 f83d 088c 023e
000001a0: 1631 b8be a716 c33e 9bb1 94bc 248b c7be
000001b0: a09f e13e 986d 903e be11 31bf 94a5 873c
000001c0: ffc8 aa3e 1e4e a53f d5e5 6fbf 424a 953d
000001d0: b1cb 1bbf 3ad4 c63c fc0e aebe 9a66 45bd
000001e0: 0cc1 17bf 377f 043f 9033 9cbe 64aa eabd
000001f0: 2e5f 91bf 9622 94bf 551e 0ebf 15ac 803e
00000200: f933 adbf 20bf aebe 6674 f03d 3658 723e
00000210: e273 03be 4c77 2c3f 26bb 79bf 15eb d3be
00000220: 32a8 a03e ffb8 e63e 3490 efbe 68a4 723e
00000230: 3ba8 843e 70ee f7bd f685 40be 4ea1 2ebe
00000240: e20e de3c f2f4 d73d b4d1 cabd e6a7 13bf
00000250: 8dae c23b fffd a03e ed74 773e 9394 163f
00000260: 19b4 253f 2dd2 b73e 21e3 883e 286d 9cbc
00000270: 5513 45be ec30 763e 8b53 d6be e37d 603b
00000280: bf08 29bd e89d 333e 1974 873d 167d b1be
00000290: dcbf 00bf fc68 a8bd 4c13 9e3e 8dc5 213f
000002a0: 1d56 373e 5695 913e d482 83be 1af2 833f
000002b0: e13f 9c3e 8aee bf3c f9d3 1ebe fee4 093f
000002c0: fb8f 52bf 56a7 083f f2d4 7ebe 07a2 20bf
000002d0: fd5f 613e 625f 4a3e 5210 013f 4309 debd
000002e0: 82f3 36bf fa80 0ebb 05d8 35bd 955d 06bf
000002f0: b4ad bd3e 8073 02be df56 d1bd 84fb 4abf
00000300: d098 1b3f 8a44 e2be 4028 17bf 0541 48be
00000310: de6e ac3e 22a3 21bf 4df8 14bf a56f aa3e
00000320: b6c7 0abf eba9 6abd fb08 9dbe 0e68 01bf
00000330: d370 47be 477e ac3d 7b41 2c3d 578a 1c3e
00000340: 7aa2 fcbc 4e22 183f 62ce 49be 87a2 6dbf
00000350: 799c 29bf 4e4e 97bf 2362 05be 43a6 1c3f
00000360: 1176 55bc f3e0 433e c30c 5b3e 4b0b 603e
00000370: 5add be3e 7723 dd3e e0d9 01bf 3afa f03e
00000380: 5986 0f3d fb1e 9ebe 7e5f c8be b180 56be
00000390: e2ab 173e b186 eebe ef44 cc3e 8172 6abd
000003a0: b458 76be 0e26 053f 9545 11bd e8dc 59bd
000003b0: 6714 20be 4a7c e6be dfa0 a33e 1690 4f3f
000003c0: f9bd 113c 8d3d fcbd 4c3b fe3e ec38 333e
000003d0: ad8f d6bd 0499 06bf a2c9 0e3c 5d18 15be
000003e0: 8de6 f03e a7a8 c5be 3a8e 2a3f 2223 c9bd
000003f0: 7b53 10bf 9ff6 3cbe d119 38be 4f1b 93bf
0.1587902 -0.63301563 -0.34940267 0.47798038 -0.08896554 0.2941617 0.22219126 -0.40685344
-0.27748972 0.052276425 -0.2634395 -0.22723028 -0.27453902 -0.14339365 -0.31189784 0.49617112
0.3989973 0.6738502 0.5915871 -0.08878473 -0.15524043 0.4779063 -0.48188254 0.37225857
-0.030804588 -0.182785 -0.8905063 0.5754687 0.54780066 0.2775739 0.05312487 -0.073019594
0.7448704 0.5401297 0.5622972 0.33677658 -0.42128462 -0.13660018 -0.19802578 0.81727254
0.35757932 0.8445458 -0.17687061 -0.35233003 -0.4392076 -0.104533374 -0.4799613 0.32107043
-0.19407949 0.76230025 0.21329659 0.47469723 0.7100133 0.47425354 0.6452329 0.1494775
0.5132387 0.5416651 0.16276766 -0.29346123 -0.4836317 -0.6486836 -0.90063506 -0.5133804
0.584694 0.12097792 -0.09097067 -0.41361275 -0.1060785 -0.56433207 -0.7978005 0.6282144
0.80537033 -0.20847741 0.06439564 0.1188455 -0.23689504 -0.10440159 0.13804914 -0.061286587
0.20239192 0.11393548 0.19818582 -0.36681896 -0.7774953 -0.8645631 -0.5059168 -0.39785048
0.24893361 0.40994254 -0.61573946 0.78425443 0.23659843 -0.07750624 0.30189615 0.36302006
0.43622488 -0.02513305 -0.54450256 -0.75757235 0.7633849 0.2356658 0.1212502 0.1274873
-0.3597495 0.3810322 -0.018151095 -0.38973343 0.44067097 0.28208613 -0.691677 0.016558446
0.33356473 1.2914464 -0.9371007 0.07289554 -0.60857683 0.02427112 -0.33995807 -0.04819355
-0.5927894 0.51756614 -0.3050809 -0.11458281 -1.1357172 -1.1573055 -0.55515033 0.25131288
-1.3531486 -0.34130192 0.11740951 0.23666462 -0.12837175 0.6736953 -0.9755119 -0.4139029
0.31378323 0.45063016 -0.46789706 0.23695529 0.259096 -0.12106025 -0.18801102 -0.1705372
0.027106706 0.105447665 -0.09903279 -0.5767807 0.005941218 0.31443784 0.24165697 0.58820456
0.6472793 0.3590254 0.26735786 -0.019095019 -0.19245656 0.240421 -0.41860613 0.0034254722
-0.041268107 0.17540705 0.06613941 -0.34665745 -0.50292754 -0.08223149 0.30874097 0.63192064
0.17903943 0.28434247 -0.2568575 1.0308259 0.30517486 0.023429174 -0.15510549 0.5386504
-0.82250947 0.53380334 -0.2488592 -0.62747234 0.22009273 0.19762948 0.5041553 -0.1084161
-0.71465313 -0.0021744356 -0.044395465 -0.52486545 0.37046587 -0.12739372 -0.102216475 -0.7929003
0.6078005 -0.44192916 -0.5904579 -0.19556053 0.33678335 -0.63139546 -0.58191377 0.33288303
-0.54210985 -0.057290953 -0.30670914 -0.505494 -0.19476633 0.08422523 0.042054635 0.15287147
-0.030839194 0.59427345 -0.19707635 -0.9282612 -0.66254383 -1.1820772 -0.13025717 0.61191195
-0.0130286375 0.1912878 0.21391587 0.21879308 0.37278253 0.4319112 -0.50723076 0.47065908
0.035040233 -0.3088301 -0.39135355 -0.2094753 0.14811662 -0.46587136 0.39896342 -0.057238106
-0.24057275 0.5201119 -0.03546675 -0.05318919 -0.15632783 -0.450167 0.31958672 0.8107923
0.008895391 -0.123164274 0.49654615 0.17502183 -0.10476623 -0.52577233 0.008715065 -0.14560075
0.47050896 -0.38605234 0.6662327 -0.09821154 -0.5637738 -0.18453453 -0.17978598 -1.1492709

network_body._body_endoder.seq_layers.0.bias f4 [128]
00000000: dff0 e53c 3c87 60bb 25d7 b8bc e2d8 9bbc
00000010: 4ae2 f43c 548b 633c 9901 ac3a 4e73 ae3c
00000020: b74f f83b 9817 033d fe1e 4e3d 6bfc 923b
00000030: 7144 39bd ba5d 363d 6abb f43c 281d d2bb
00000040: be65 2a3c f35e 71bc 1a8a 063d 5773 d8bb
00000050: c0fa 823b e94a e3bc dfc6 843b 0f11 c1bc
00000060: f454 0cbc 7bbb dd3c 0edc 9e3b 37b0 d63c
00000070: 045b 133d 6677 95bc 3ef6 58bc 0b59 51bd
00000080: 0459 af3c eacd a83c 54c3 9fbc 4776 013d
00000090: 0464 5a3c 43f3 78bc 1780 783b 8f3d dcbb
000000a0: 65d5 18bd dd1b d4bc 1896 0a3c d64b 3fbc
000000b0: ca38 e6bc 9efe 833c 0fc7 e639 5db5 b1bc
000000c0: c091 2b3d e854 133c 1a8c 61bc 6d7c 4ebc
000000d0: ddf2 363d bc66 56bd 57d6 14bc c9bc b13c
000000e0: 30f7 a43c 710a a339 ce27 0a3d 4583 cf3c
000000f0: 3380 813d 4515 51bc 28ad 8b3a 0f66 9d3d
00000100: b652 12bd cbb7 273d e8e4 40bc a443 06bd
00000110: 2464 8f3c e49f 353b f018 c73c f344 7fbc
00000120: 5fc5 483d 8117 393d 7a98 543d c8a4 9f3d
00000130: 0d46 613d f226 703d c0a0 823c e0e3 1dbc
00000140: 4ad2 173d 1888 3e3d 3a6e a83c 5e0e ea3b
00000150: 58f7 033d b7ac 443c e669 46bc 7fc1 a63b
00000160: 02dc 7d3d afb2 093d 83a5 aa3c 2a5f 9bbc
00000170: 7575 853c 0605 1c3c 2706 0b3d be9a 183d
00000180: 2fcb 62bc 22c0 8d3c 73b2 e93c 0a0d 4e3d
00000190: 8beb 1fba bf17 523d 5425 49bc caa6 83bc
000001a0: f4cf e539 d3dc 853c dd44 69bd 9e5f e33c
000001b0: 123b b53c 798a 03bc b2ee 82bb 0981 1bbd
000001c0: 8355 39bd e4c2 0bbd dbbb a5bc 7b4d 1cbd
000001d0: bf84 3c3d 4fec 30bd 9a7d ea3c 68a6 26bd
000001e0: 7631 2cbd 0d03 933c 8f84 533d b2bc ce3c
000001f0: 682f fbbc 8ba1 78bc 26b1 b5bc 6bdb 953c
0.028068958 -0.0034260293 -0.022563526 -0.019024316 0.02989306 0.013888199 0.0013123035 0.021295216
0.007577862 0.032004923 0.050322525 0.004485657 -0.045231286 0.04452298 0.029874522 -0.006412167
0.010400234 -0.01473211 0.032846548 -0.0066055465 0.003997177 -0.02774568 0.0040520276 -0.023567704
-0.008565176 0.027066937 0.00484801 0.026207073 0.03597547 -0.01824541 -0.013242302 -0.05111031
0.02140475 0.020606 -0.01950232 0.03160694 0.01332951 -0.015194717 0.0037918144 -0.0067212055
-0.037312884 -0.025892192 0.008458637 -0.011675796 -0.028103251 0.016112622 0.0004401733 -0.021692926
0.041887045 0.008992411 -0.013766313 -0.012602908 0.044665206 -0.05234407 -0.009084306 0.021696465
0.0201374 0.00031097562 0.033729367 0.025331149 0.0632328 -0.012761419 0.0010656463 0.07685482
-0.03572341 0.040946763 -0.0117733255 -0.03277935 0.017503805 0.002771371 0.024303883 -0.015580404
0.049016353 0.04518843 0.051903225 0.077951014 0.054998446 0.05863089 0.015945792 -0.009636849
0.03706578 0.046516508 0.020560373 0.007142826 0.032218307 0.012004069 -0.012110209 0.0050889845
0.061977394 0.03361767 0.020830875 -0.018966276 0.01629136 0.009522682 0.033941414 0.03725695
-0.013842388 0.01730353 0.028527474 0.050305404 -0.0006100467 0.051292177 -0.012276966 -0.016070742
0.0004383322 0.016340649 -0.05695044 0.027755555 0.022122893 -0.00802862 -0.00399574 -0.037964854
-0.045247566 -0.03412141 -0.020231178 -0.03815983 0.046025034 -0.04319411 0.028624345 -0.04068604
-0.042039357 0.01794579 0.05164009 0.025236461 -0.030662253 -0.015175234 -0.022179198 0.018293103

network_body._body_endoder.seq_layers.2.weight f4 [128, 128]
00000000: 6a94 db3d b6b3 3e3d 0087 b1bc 25dc dcbc
00000010: 8175 79bd e14f 1f3d 0829 243e 5be8 b4bc
00000020: a97b 353e e467 6b3e 3420 55be 98f9 1cbe
00000030: 1b43 0fba b38f f2ba a65e 92be b147 d83c
00000040: 957c 4fbd 1992 d7bd 3f0a 893d 44fe 193d
00000050: 49a6 ca3d acdf 56bd 9ab2 07be eeea fbbc
00000060: 157b 4abe c7fe 523e 637c 94bd 06b0 943d
00000070: 5fca a1bd c97e 603d b3f4 bf3d d1c0 4f3c
00000080: adc9 f9bc 944e 373e 537e 5cbe fd54 55bc
00000090: 9231 23bc 2c10 54bd b0c3 0f3e 7d7d 623d
000000a0: 7745 853c 9936 1c3d 6b5a a43d c4da 233c
000000b0: 90d5 f4bd fbcd 9c3c bf49 573d 8709 05bd
000000c0: 123d c83d 55a8 83bd 4528 403e d8bd 81bd
000000d0: 5792 e63d fcfe bfbd 2d1b 83ba 1560 613e
000000e0: 1e98 5d3d 5de9 6abd 222f c93d adfd 0b3d
000000f0: fadb 233e d39e cebd 6d9e 1c3d 4dde 083e
00000100: 05ff 2bbd be25 9dbd fcfe 7b3b 126b 453e
00000110: ef63 c8bc 738a e3bd 2db9 6ebd 8f3f f13a
00000120: 7f34 ca3d 65a3 ab3d 5772 293c 3847 acbd
00000130: b855 aebd 2ebd 41bd 631a e5bc cf77 953d
00000140: f421 60bd 22e4 9fbd 847f 4ebd ee3e a73d
00000150: db0e b53d 33cb 163c c748 a03d 1f06 473d
00000160: 2825 363e f03c dcbd d487 583d 5e23 563d
00000170: f970 8fbd 06b3 bebc 78d8 cd3d e4e8 da3d
00000180: 04ee cb3c d666 22bd cfc5 8e3d 947e 46bc
00000190: ca0e 633d 2607 17bd 9986 ab3c a2f6 e6bc
000001a0: 97dc 10bb 95f5 f93c ee25 33bc 9637 c8bb
000001b0: ecc0 03be 7303 bfbd 1f71 223d 51b8 c93d
000001c0: 0c46 8a3d 13e1 4bbd 48aa 6c3d 96f9 4dbd
000001d0: a07d a2bd 4ff3 c9bd c4f0 163d aaaa c73d
000001e0: 0db7 97bd 7829 d63d b842 f5bd 28f3 913d
000001f0: b323 45bb f1d9 c5bd 8095 24bc a210 d5bd
00000200: 773c 3c3c 7956 363d 97a7 133c d7bb 6dbd
00000210: 599c 573d 44e1 853d a1e4 9b3c 3286 b83d
00000220: ce02 1f3e f0f3 d33d 3b22 26bd 67d0 893d
00000230: a23f 993d bcfb 363d f688 283d a2b7 00be
00000240: 8234 13bd 279d 653d d6e3 37bd 86ba 603d
00000250: 1e08 b83c d860 16bd 0ab7 a03d 8c11 093d
00000260: 6522 7bbd b51a 55bc 7d95 c0bc eb6f 16bd
00000270: f3c7 403e 6662 bdbd 4824 37bd f05c 91bd
00000280: dad6 f23d 4780 bbbd 8a6d 493c b181 c1bb
00000290: 8ad7 37bd 03b9 38bd e1a6 a13b ef8c 353d
000002a0: 0f35 4cbd a3d4 473d f592 603d 478e 5e3b
000002b0: b426 2b3d de33 2fbc 313d 80be 19d0 6a3d
000002c0: 05ff 22be 92b9 24be 4738 a4bc ba70 47bb
000002d0: 85ff c6bd f610 90bd d7ec d9bd 0b50 0abe
000002e0: 379a e8bc af53 29bd efde 2abe 2dd1 1abe
000002f0: 4d9c b0bc aa2b efbd f52a 14be ad3c 9f3c
00000300: 4510 aa3d 8ed5 023c 18b1 cebc 0fb7 09be
00000310: d70c b63b b38d 32be 214f 70bd 88a7 2dbe
00000320: c0a3 613d ad1c 8b3b 3dad ca3c b470 db3d
00000330: 5e55 a73c 36b8 ec3d afd1 02bd cfc4 063e
00000340: d657 f33d dae9 0e3d 2c50 783d c99f 043e
00000350: f9d2 59bd fe3b 96bd 29b3 2b3d ed91 593d
00000360: 4c9b 873d 1939 b4bd ae6a 1ebd f087 35be
00000370: fef8 de3d f692 46bc e731 04be d271 ddbd
00000380: 8752 213d fecd b0bc 7a6e 4cbd 90a3 613d
00000390: ac41 bebd 121b 53bc d7a6 d23d f6f1 2abd
000003a0: 4f01 49bd 426a 0fbe c3bc 603d 1460 7cbd
000003b0: d005 2abd 3646 aabd 3b83 06bd 6e41 0ebe
000003c0: aa65 9fbd f6d3 97bd 4e5e 183c cb11 92bc
000003d0: c047 663d defe f4bd 9193 cebd 7fe5 dfbb
000003e0: 863f d23d f4a0 ef3d 122e 063e 47b5 bfbd
000003f0: 4958 863d f78e 86bc 3279 2a3d 5750 20be
0.10721667 0.046558104 -0.021670818 -0.026960442 -0.060903076 0.038894538 0.16031277 -0.022083452
0.17722954 0.2298885 -0.20813066 -0.15329587 -0.00054650166 -0.001850596 -0.28587836 0.026401373
-0.05065592 -0.10525913 0.066914074 0.037596002 0.098949976 -0.052459404 -0.13251725 -0.030751672
-0.19773515 0.20605002 -0.072502874 0.07260136 -0.07899927 0.05480841 0.093728445 0.012680248
-0.030491674 0.17901069 -0.21532564 -0.013020751 -0.009960549 -0.051773235 0.14039493 0.055295456
0.016268475 0.038138006 0.08025058 0.010000888 -0.11954796 0.019141188 0.052560564 -0.03247979
0.09777273 -0.06428591 0.18765362 -0.06335038 0.11258381 -0.09374806 -0.0010002606 0.22009309
0.05410015 -0.05735146 0.09823443 0.03417747 0.16001883 -0.10088887 0.038237024 0.13366051
-0.041991252 -0.076732144 0.0038451543 0.19279125 -0.024461715 -0.111103915 -0.058282066 0.0018405783
0.09873294 0.083807744 0.010342202 -0.084120214 -0.08512443 -0.047299556 -0.027966684 0.07298242
-0.05471988 -0.07807185 -0.050414577 0.081663 0.08840724 0.00920372 0.07826381 0.048589822
0.17787611 -0.107538104 0.05286391 0.052279823 -0.0700397 -0.023278724 0.10051054 0.106889516
0.024893768 -0.039648853 0.06971323 -0.0121151395 0.055434026 -0.03687205 0.020938205 -0.028193776
-0.0022104138 0.03051261 -0.010934336 -0.006110142 -0.12866563 -0.0932683 0.039658662 0.09849609
0.06751642 -0.049775194 0.05777958 -0.05028685 -0.07934117 -0.098608606 0.036850706 0.097493485
-0.07407961 0.10457128 -0.11975616 0.071264565 -0.0030081093 -0.0966071 -0.010045409 -0.10403563
0.011489025 0.04451606 0.0090121245 -0.058040466 0.05263934 0.06537107 0.019029917 0.09009971
0.15528414 0.10349262 -0.04055999 0.06729203 0.0748284 0.044673666 0.04114624 -0.1257005
-0.035938747 0.056058075 -0.044895016 0.054865383 0.022464808 -0.03671345 0.07847412 0.033464
-0.061312098 -0.013006856 -0.023508782 -0.036727827 0.18826275 -0.09247284 -0.044712335 -0.070978045
0.11857386 -0.09155326 0.012294183 -0.005905353 -0.04488329 -0.045098316 0.0049332236 0.044323858
-0.049855288 0.04878677 0.05482765 0.0033959316 0.041784957 -0.010693518 -0.25046685 0.057327364
-0.15917595 -0.16086414 -0.020046366 -0.003043218 -0.09716705 -0.07034485 -0.10640877 -0.13507096
-0.028393848 -0.041339573 -0.16686605 -0.15118857 -0.021558905 -0.1167825 -0.14469512 0.019438112
0.083038844 0.007985486 -0.02523093 -0.13448738 0.00555573 -0.17436866 -0.058669213 -0.1695844
0.055087805 0.004245362 0.02474081 0.10714856 0.020426448 0.11558573 -0.03193825 0.13161014
0.11881988 0.034890987 0.060623333 0.12951578 -0.053179715 -0.07335661 0.041918907 0.05311768
0.066214174 -0.08799953 -0.038675956 -0.17727637 0.10887335 -0.012119999 -0.12909661 -0.10812725
0.039385345 -0.0215826 -0.049910046 0.055087626 -0.0928987 -0.012884872 0.102857284 -0.04173466
-0.049073514 -0.14005378 0.054867517 -0.061615065 -0.04150945 -0.08314173 -0.032839995 -0.13892147
-0.07783063 -0.07413475 0.009299828 -0.01783075 0.05622077 -0.119626746 -0.1008674 -0.006832778
0.102660224 0.11700621 0.13103512 -0.09360748 0.06559808 -0.016425593 0.041619487 -0.15655647

network_body._body_endoder.seq_layers.2.bias f4 [128]
00000000: c0cb 203d 9b23 603d 9e72 423d 3b0b 093d
00000010: 003c b8bc 3123 22bd bf32 d9bc 267f febc
00000020: 9528 c03b af01 3b3d 8b3b 58bc 8d26 173d
00000030: 0d28 883d a94b 583d d218 5bbd 1b65 a83c
00000040: bdc4 303d c3fd e7bc c3e4 72bd 0568 173d
00000050: c431 5fbc ad93 96bc de6e 2a3d bee8 28bc
00000060: 0aaa b93c a7a4 943c ff74 043d 5562 de3c
00000070: 7405 033d d442 f13c e6f3 c1bb 6747 b7bc
00000080: f069 d23c db31 3a3d cfe7 353d b0a3 2cbd
00000090: aa56 923c 9e2e 913c 0422 70bc 1491 413d
000000a0: 62db c93c 37c7 ce3c f912 063d b243 a43c
000000b0: b6d2 583d acac 783a fbb0 0dbd 03ea 843c
000000c0: 4df3 0bbd ec00 41bd b1e7 e33c 4604 8abb
000000d0: dd96 d7bc 6673 5e3a 1149 c43c cfbb 0b3d
000000e0: d712 803d c246 09bd bf1d 233d ce96 3c3d
000000f0: f917 94bc eaef 30bc 072b b43c b732 94bc
00000100: 0a03 6a3d 3aab 74ba 1a71 813d b089 353d
00000110: 1647 1cbd ce47 32bb 13cd 65bc 63e6 c0bc
00000120: a1de d9bc d207 fb3b 2ca6 d5bc 1622 c13c
00000130: 42ae 873c 7a58 87bc 4670 dbbc e2ba a8bc
00000140: a2fd 293d 5094 16bd 4068 5fbd 714b 82bd
00000150: f96e 92bc 2654 dcbc 1128 233d 0b81 87bc
00000160: f2e7 a63d 1914 1cbd 50b8 1d3d 9de8 14bd
00000170: 29f5 843d 2073 8dbc aae1 0c3d b105 8dbb
00000180: 48b1 d83b 9ba4 363d 83b5 e23c 4560 743c
00000190: b5c6 20bd 3f43 2a3d 8d5f fbbc 2bd6 05bd
000001a0: 6ed7 d1bc fe96 93bc 4672 b63c 93e3 f63a
000001b0: 8325 73bb 5ec6 e83c 9a54 993c f27e e239
000001c0: 9d26 b0bc 641b 5dbc 26bc b0bc ceb9 b1bc
000001d0: 0e95 03bd 6a46 5c3b b8e8 ecbb 466b 3a3d
000001e0: de0a d93c 749b 28bd 7d25 1ebd 8806 7dbb
000001f0: 22ee 5e3d 1f00 543d a264 043b c04f 32ba
0.03925681 0.054721456 0.04747259 0.033457976 -0.022489548 -0.039584342 -0.026513455 -0.031066488
0.0058642128 0.045655902 -0.01319779 0.036902 0.06648264 0.05280653 -0.053490467 0.020556023
0.043156374 -0.028319245 -0.059300195 0.036964435 -0.013622705 -0.018380964 0.041609637 -0.010309396
0.022664089 0.018144919 0.03233814 0.027146498 0.031987622 0.029450811 -0.0059189675 -0.022372914
0.02568528 0.045457702 0.044410523 -0.042148292 0.01786359 0.017722424 -0.014656547 0.047257498
0.024640743 0.025241477 0.032732937 0.02005181 0.052935325 0.00094861793 -0.03459261 0.016224867
-0.034167577 -0.04712002 0.02782044 -0.004211935 -0.026317054 0.00084858236 0.023960622 0.034114655
0.062535934 -0.033514746 0.03982329 0.046042256 -0.018077837 -0.0107993875 0.021993173 -0.018090589
0.057131805 -0.0009333376 0.063204005 0.044320762 -0.03815373 -0.0027203443 -0.014025944 -0.023547357
-0.026595416 0.0076608444 -0.026080213 0.023575824 0.016562585 -0.016521681 -0.026786935 -0.020596925
0.04150165 -0.036762536 -0.05454278 -0.063620456 -0.017875182 -0.026895594 0.039833132 -0.016541025
0.08149709 -0.038105104 0.038505852 -0.03635465 0.06492073 -0.01726681 0.034394898 -0.004303657
0.0066129304 0.044590574 0.027674442 0.014915531 -0.039252 0.041568037 -0.03068521 -0.03267495
-0.02561542 -0.018016335 0.022271287 0.0018836133 -0.0037101216 0.028414901 0.018717099 0.0004320066
-0.021502787 -0.0134953 -0.021574091 -0.021695044 -0.03212457 0.0033611306 -0.0072298907 0.04551246
0.02649444 -0.041163877 -0.03860997 -0.003860863 0.05442632 0.051757928 0.0020201583 -0.0006802045

action_model._discrete_distribution.branches.0.weight f4 [3, 128]
00000000: 8a5d a9bb 3018 f8bb ba0b 2c3c f64f 643c
00000010: a452 213c 860e 1cbd 94b0 b9bc de53 c8bc
00000020: bbca 78bb f459 04bc 533e 973a 5423 903d
00000030: 4b6d 073d a911 e63c ea4a 12bd 9d6c a6bb
00000040: 5aaa 8f3c 31f2 e4bc 0bc9 03bd 5b60 693c
00000050: 24f9 eb3b 888c 623c 362e bd3c 9290 83bb
00000060: 7719 5d3c f3ee 3a3c 309a 9c3c b8d6 6b3c
00000070: 2303 443c 4d98 983b 751a 22bc 00b2 51bc
00000080: a6d8 773b 2a9d 6c3c 5b20 cb3b 29e9 98bc
00000090: eaa6 e83c 8572 bfbd 1f24 f23b cf70 fb3c
000000a0: 8ba5 aa3b 2080 d2bc 43e9 5b3c 7e91 e83b
000000b0: 713d 083c eaac 8b3b 7a51 85bc 10f8 993c
000000c0: 6aa6 c33b 2fe9 52bc d834 24bb aaa6 fa3b
000000d0: cb0f 1cbd 033f aa3b 41a2 023c fae6 b63b
000000e0: 795a 3d3c 999c 01bd 3dd3 573d 2dc9 5e3c
000000f0: 8e27 debc 3eff 07bc 4688 2d3c e2bb b53a
00000100: b024 b73b 1d45 71ba 048a 223d 3415 f13c
00000110: b313 febc d50c 323b c254 2dbc adcf 1abc
00000120: fbb7 0abd 0014 70ba 19ec 3dbc 7392 223c
00000130: 10a6 543b fc31 32bb acf9 8dbc 6c34 a1bc
00000140: 918a 323b 54f7 66bc 5cee 51bc be7c 90bb
00000150: 7be2 6dbc 0d5d 9ebb f26c fe3b 02c3 d9bb
00000160: d843 df3c ed2f b6bc d66a 663c 5c4c fdbc
00000170: 5823 1a3c 8fb0 313c e20c 0b3c ea30 f43a
00000180: ad11 abbb 4d77 cab9 5b28 83ba c097 c33b
00000190: 7756 36bb 40d0 3a3c 286b 92bb 62aa 83bc
000001a0: daaf 72bc f297 203c a9cf 57bc 993f 2bbc
000001b0: 2380 30bb 0ef6 993b c815 643c dd7b 03bd
000001c0: 1b80 51bd ca30 5c3b 2061 02bb b355 1cbd
000001d0: 2807 9bbd 4d14 eeba cca0 f1bc 178a 1c3d
000001e0: ccef 7f3c 2260 18bb b231 f4ba 8fdc 2ebc
000001f0: b77a 81bb fa06 9b3c 632c 8fbc 3571 93bc
00000200: 17ac 273c 52f9 8b3c 5e5b 83bb 9b40 113c
00000210: 3d74 99bc ca59 f93c 9db4 2f3c f09f 3c3c
00000220: a039 8bbc 9fbf 4e3c 65ec 77bc 7d3f a9bd
00000230: a587 d2bc 8fca 3f3c 30f2 083c 2357 01bc
00000240: ab51 6a3c a174 ca3c f030 f33c bf2b 60bc
00000250: c23c 533c 9a73 793c 96e7 bebc 2769 0e3b
00000260: 69eb a8bb dacd 7bbc 5744 0dbc 257c c2bc
00000270: 67dc 8dbc ac04 d9bb df11 9ebc 5894 b63c
00000280: 993a 4fbc be06 f23a 43ef 6e3c bb87 0e3d
00000290: 0f8d 26bd b12f 8b3d 4987 7c3c 04d0 50bc
000002a0: 3efb b6bc e4ec e93c fceb e8bc 1719 e4bb
000002b0: ef93 ecbc ed60 e5b9 b099 f13b 8453 0bbd
000002c0: 20dc 7339 fdbd 9c3b 64d8 623c 67f1 b938
000002d0: 6f87 9c3c 7890 ecbc eb5f 0a3b 0bc4 76b9
000002e0: c634 ebbc 3a7f 39bc 31e7 32bd 33ab a53b
000002f0: 1627 39bc 717b 79bc a990 8f3b 6b54 ffbb
00000300: 4f84 2f3b fb34 f7ba 150c 11bd a6af 0dbb
00000310: 3a32 86bb 71ff ba3c 7f66 203c 9a90 f2ba
00000320: f4b4 49bc ae0a 8f3b 6655 c63c 068d 81bd
00000330: 527a 75bc ab02 87bc 1fde 803a d166 373c
00000340: 73c5 08bc f591 e53c e477 613c a18f 353c
00000350: 07c9 cfbb e2cf ff3b 221a 41bb 5212 563c
00000360: ccb4 d0bc 956b e63c f9ae 913b 5ae9 0c3d
00000370: a5df 7f3b 2577 be3a e31b 5d3c d1c9 173d
00000380: 07d8 ab3c 152b da3b 0f70 67bb 33a2 a73b
00000390: 1436 18bc fed3 12bc 10b0 b23b 584c 983c
000003a0: 4a83 c838 73ab daba 2811 1fbc c4c4 173b
000003b0: 9dcc bb3c 50b2 9cbb 8f9e b6bc a3b1 0d3d
000003c0: 153f eebb 9a8c fbba e21d 823c 52eb 053d
000003d0: bfeb cf3c 3e34 033d 423d 24bd 31c5 163b
000003e0: ea9a 623c 2c7b 2239 15dd c7ba a15e eebc
000003f0: 8551 633c a571 e1bc de24 963c 2995 ae3c
-0.0051686214 -0.0075712427 0.010500843 0.01393508 0.009846363 -0.038099788 -0.022667207 -0.024454053
-0.0037962634 -0.008078087 0.001153896 0.07037988 0.033063214 0.028084593 -0.035715975 -0.0050788657
0.017537285 -0.027947517 -0.03217415 0.014244164 0.0072013307 0.013827451 0.023093324 -0.004015037
0.013494841 0.011409509 0.019116491 0.014394455 0.0119636385 0.0046568275 -0.009894003 -0.012798786
0.0037818342 0.014441768 0.0061989254 -0.018665867 0.028399903 -0.09348015 0.00738956 0.03069344
0.0052077225 -0.02569586 0.013422313 0.007097422 0.00831543 0.0042625563 -0.016274203 0.018795043
0.005970766 -0.012872978 -0.0025055911 0.0076492624 -0.038101 0.0051955 0.007973255 0.005581734
0.011557215 -0.031643484 0.052691687 0.013597769 -0.02711847 -0.008300601 0.010591572 0.0013865198
0.0055890903 -0.0009203719 0.039682403 0.029429056 -0.031015253 0.0027168293 -0.01057929 -0.009448928
-0.033866864 -0.00091582537 -0.011591935 0.0099226115 0.0032447614 -0.0027190438 -0.017330967 -0.019678317
0.0027243237 -0.014097054 -0.012813177 -0.0044094017 -0.014519329 -0.00483287 0.007764452 -0.006645561
0.02725403 -0.02223965 0.014063558 -0.0309202 0.009407841 0.0108453175 0.008486958 0.00186303
-0.005220613 -0.00038617328 -0.0010006534 0.0059690177 -0.0027822533 0.01140219 -0.0044683404 -0.016072456
-0.014812434 0.009801852 -0.013172069 -0.010452175 -0.0026931844 0.0046985215 0.013921209 -0.032100547
-0.05114756 0.0033598416 -0.0019894317 -0.038167667 -0.07569724 -0.0018164009 -0.02949562 0.03821763
0.015621137 -0.002325066 -0.0018630533 -0.010672702 -0.0039513963 0.018924225 -0.01747722 -0.017998317
0.0102339005 0.017086659 -0.0040086946 0.008865501 -0.018732185 0.030438323 0.010724214 0.011512741
-0.016995251 0.012618928 -0.015132044 -0.082640626 -0.025699446 0.011706009 0.008358523 -0.00789431
0.014301698 0.024713816 0.029686421 -0.013682305 0.012892904 0.0152253155 -0.023303788 0.0021730156
-0.005155016 -0.015368903 -0.0086222505 -0.023740837 -0.01731701 -0.0066228714 -0.019295631 0.022287533
-0.012648248 0.0018465144 0.014583412 0.03479741 -0.040661868 0.06796206 0.015413114 -0.012744907
-0.022336598 0.028555341 -0.028432839 -0.0069609988 -0.028879134 -0.000437505 0.0073730573 -0.034015194
0.00023256289 0.0047833906 0.013845537 8.866452e-05 0.019107549 -0.028877482 0.00211143 -0.0002353342
-0.028711688 -0.011321837 -0.043677513 0.005055809 -0.011300823 -0.015227185 0.0043812585 -0.007792046
0.0026781743 -0.0018860394 -0.035411913 -0.0021619587 -0.004095343 0.022826882 0.009790062 -0.0018506229
-0.012311209 0.004365287 0.024210643 -0.06325726 -0.014982777 -0.016480764 0.0009831822 0.011193947
-0.008347857 0.0280237 0.013761494 0.011081607 -0.006341103 0.007806764 -0.002946504 0.013065891
-0.025476836 0.028127471 0.004445907 0.03440223 0.0039043215 0.0014531357 0.013495418 0.0370577
0.020977033 0.006657968 -0.0035314595 0.005115771 -0.009290237 -0.008961676 0.005453117 0.018591091
9.561198e-05 -0.0016683176 -0.00970868 0.0023158053 0.022924716 -0.0047819987 -0.022292404 0.034593236
-0.0072707036 -0.0019191683 0.01588339 0.032695122 0.025380967 0.032032244 -0.040097483 0.0023005719
0.01383088 0.00015495409 -0.0015248383 -0.029097857 0.013874416 -0.02752001 0.018328127 0.02131136

action_model._discrete_distribution.branches.0.bias f4 [3]
00000000: edb0 203d 1580 a2bc e5a6 b1bc
0.03923123 -0.019836465 -0.021686027

action_model._discrete_distribution.branches.1.weight f4 [2, 128]
00000000: 4225 823c 7c69 2f3d 0e25 a83c 57df 353c
00000010: 2730 9cbc 3a35 60bc 50d4 a2bc 715e 78bc
00000020: 2726 7abb 254f 9b3c fc8d 443a 18ac 4abb
00000030: 8617 293a 1845 0c3b 5eb2 1cbb 3341 663c
00000040: 90e1 383b fae0 1cbc d3c8 6fbb ecdd 123c
00000050: 5b7e 04bc 510a 36bc c61d 953b 626d 913b
00000060: b401 ddb9 5ca8 913c 3f7b 113c 9972 27bc
00000070: 10eb e73c 7777 5e3c 72de c2bc 3247 abbc
00000080: 5a73 423c a610 e93c 9b6a ba3b 7413 b5bc
00000090: 81a0 623c 97b5 bdbd 1646 0abc cc46 a1b9
000000a0: 04b0 0abc 5935 623c 2e1c 943c 5ca7 843d
000000b0: 0aff d0ba 997e 0cbc 227b e9bc a347 1a3c
000000c0: 49c1 94ba 3773 1fbc 8024 6cba cb6d a73c
000000d0: 4231 2fbc 70a0 77b9 9ba5 9e3c b804 e73c
000000e0: bc79 c03c d62c 4e3c 5373 cbbb 28c8 543c
000000f0: f52c a5bc 9585 b33c 04a4 91bb 396c 85bb
00000100: d6ea a33c 62d1 f2bb fdf0 a43b 533d efba
00000110: 1e46 33bc 57c2 37b8 8b92 1abc 888f 75bc
00000120: 8e12 acbb 46a2 563d 73a0 4aba 0fc7 5eb9
00000130: 8766 a53b 781c 97bc 04a0 f6bb 8b6a acbc
00000140: 518e adbb c2b1 0dbc 32c3 b2bb d2c6 ba38
00000150: f262 eebb 69d7 debb f952 753c fa77 0c3c
00000160: 1e19 fd3c 1136 93bc 3afc 3b3c a241 cabc
00000170: c44f 8d3c 3b5a 7ebc 13df 533c c9e1 73bb
00000180: 1f45 d93b 4341 4c3c 3a64 7b3c 4c73 493c
00000190: 6886 fbbb 6d8e 343b 8c16 1a3b f2cc f4b9
000001a0: 6d5c be3b c816 97bb 05f5 ef3b aa40 933c
000001b0: 1105 6c3d 8e11 b83c 1638 d23a cab8 2f3c
000001c0: 42dd 05bd 7a97 1ebb c1a5 92bb 803b a7bd
000001d0: c96c 8dbc 4278 2c3c f1dd 8e3c 24e3 0c3c
000001e0: de09 903b 4850 d5bc 92a0 11bc 27ef 953c
000001f0: 87b8 d63c 5e2c 483c a39c 033d 6042 49bb
00000200: b772 d1bb f6d0 0fbd 43bf 92bc f915 4a3c
00000210: 8208 fd3b fda3 e73c 2790 163d f9d5 bd3c
00000220: 1e54 b73c d8cc a4bc e44b 9c3c fe77 d73c
00000230: f20f 21bc a322 33bc f7cc 083d ed09 ecbb
00000240: 0794 60bc 82b3 7e3c 8855 1b3c 6601 cabb
00000250: 61bf 89ba 60be 703c f74a 3c3a 85b6 a93b
00000260: 2f36 94bc f254 4abc 25c5 c4ba 9b6e 06bc
00000270: 6d80 b2bc 4569 c3bc 886f 883c 87d5 d63a
00000280: b782 ac3b 56fd a9bc b157 51bc 8c65 503d
00000290: c0f2 67bb 6def b23d ffe6 2e3c ce44 9a3b
000002a0: f0d0 6cbb 3232 afbc d428 32bc 9b4d 84bd
000002b0: 8d52 193c 53d9 02bb c5ab da3c 1e0c f03b
000002c0: 6e05 6f3c 2180 a93c 65da 0bbc 63cd feb9
000002d0: 6fb7 063d 6701 9c3a 20bc d9bc f507 01bc
000002e0: 0971 99bb 6e8b d53c 67aa f03b 3dc3 883b
000002f0: 0b80 783c 7501 5d3c 6b1b f3bb 84b4 503c
00000300: 0236 33bc 0b65 37bb b16e 7dbc 57a8 aabc
00000310: ffe8 463b 8703 943c 721b 9f3c 4071 0d3c
00000320: 0719 61bc 0816 84bd 4114 35ba 1243 a0bc
00000330: 5c78 de3b 8a6a fb3c 06ae 9a3b 8c69 ed3c
00000340: a30e 3dbc dcfa 413b dc8c b5ba bc89 7a3b
00000350: a6e8 09bb ca7e 5b3a 0e2d 31ba ebed cebb
00000360: d394 a4bc 6f2a f83c 87cb 21bc d329 d13c
00000370: 5de2 9bbb 6aaa 2b3c bd3f 2639 ca57 e13b
00000380: 24c0 d5bb d59b bebc 0297 343a 9d32 d8bc
00000390: 385e 503c 5c0f babc f95d 2dbb 83c8 4e3c
000003a0: b707 a8b9 67e5 0f3c ebbe 9cbc c0b0 06bc
000003b0: 17b1 7dbd 424c a4bc 8202 e13b 24e1 a9bb
000003c0: 020a 343d 4460 613c 0bed 72bc 4574 b23d
000003d0: 5dfd 4b3c 0860 19bd 605b 453c 23d4 45bb
000003e0: b5c8 783a eca7 0f3c 06ce 283c dbaf b03c
000003f0: 5009 5cbc 9ddf d43b 2957 7cbc b838 d2bc
0.015886907 0.042825207 0.020525482 0.011100612 -0.01906593 -0.013684565 -0.01987663 -0.015159235
-0.0038169713 0.018958637 0.0007497964 -0.003092533 0.00064503436 0.0021403488 -0.0023910026 0.014053631
0.0028210618 -0.009575123 -0.0036588206 0.008964043 -0.008086766 -0.011110858 0.0045506684 0.0044380883
-0.00042153674 0.017780475 0.008879482 -0.010220193 0.028310329 0.013578287 -0.02378771 -0.020907972
0.011868322 0.028450321 0.005688978 -0.022104003 0.013832212 -0.09263151 -0.008439561 -0.0003076106
-0.008464817 0.013806664 0.018079843 0.06477234 -0.0015945148 -0.008575105 -0.028501097 0.009416494
-0.0011349107 -0.009732059 -0.00090081245 0.020438096 -0.010692896 -0.00023615523 0.019366076 0.028200492
0.023495547 0.012583932 -0.006208816 0.012987174 -0.020163039 0.021914283 -0.004444601 -0.004071739
0.02000944 -0.0074102143 0.005033611 -0.0018252529 -0.01094201 -4.3811593e-05 -0.009434353 -0.014987834
-0.0052512353 0.05240085 -0.0007729597 -0.00021245725 0.0050476226 -0.018446192 -0.0075263996 -0.021046897
-0.0052965065 -0.008648338 -0.005455398 8.906204e-05 -0.007274979 -0.0068005812 0.0149733955 0.0085735265
0.030895766 -0.017970117 0.01147371 -0.0246895 0.01724995 -0.015524442 0.012931603 -0.0037213436
0.0066305543 0.0124667315 0.01534372 0.012295555 -0.0076759346 0.0027550713 0.0023511974 -0.00046692003
0.005809358 -0.00461087 0.00732291 0.01797517 0.05762202 0.022469308 0.0016038443 0.0107252095
-0.03268171 -0.0024199174 -0.004475326 -0.081656456 -0.017263787 0.010526719 0.017439814 0.008599076
0.0043957075 -0.026039258 -0.008888381 0.018302513 0.026211036 0.012217609 0.032131802 -0.0030709729
-0.006391849 -0.03511139 -0.017913466 0.01233434 0.0077219615 0.028276438 0.03675857 0.02317332
0.022378977 -0.020117208 0.019079156 0.026302334 -0.009830462 -0.010933551 0.033398595 -0.0072033317
-0.0137071675 0.015545728 0.009480841 -0.0061647175 -0.0010509306 0.014693826 0.00071828015 0.0051792287
-0.018092243 -0.012349354 -0.0015012367 -0.008205081 -0.021789754 -0.023853907 0.016654745 0.001639054
0.005264606 -0.020750683 -0.012777255 0.050878093 -0.0035392493 0.08737073 0.010675191 0.004707909
-0.0036135279 -0.02138624 -0.010873992 -0.064601146 0.009358061 -0.001996596 0.026693234 0.007325663
0.014588697 0.02069098 -0.008535956 -0.0004859968 0.03288978 0.0011902273 -0.026578963 -0.007875432
-0.0046826643 0.026067462 0.0073445323 0.004173665 0.015167247 0.013489117 -0.00741904 0.012738351
-0.010938169 -0.002798381 -0.015468285 -0.020832224 0.003035128 0.018068088 0.019422267 0.008632958
-0.013738877 -0.064495146 -0.000690762 -0.019563232 0.0067892503 0.03069045 0.0047204522 0.028980993
-0.011539134 0.0029598987 -0.0013851183 0.0038229069 -0.002104321 0.000837308 -0.0006758728 -0.006314983
-0.020090496 0.030293671 -0.009875185 0.025532639 -0.004757209 0.010477642 0.00015854738 0.0068769203
-0.006523149 -0.023267666 0.0006888957 -0.026391322 0.012717776 -0.022712402 -0.0026453717 0.012621048
-0.00032049205 0.008782721 -0.019134006 -0.008220851 -0.061936464 -0.020055894 0.006866754 -0.0051843096
0.043954857 0.013755862 -0.014827023 0.08713583 0.012450543 -0.0374451 0.012045711 -0.0030186258
0.0009490357 0.008768063 0.010303026 0.02156823 -0.013429955 0.0064963833 -0.01540164 -0.025661811

action_model._discrete_distribution.branches.1.bias f4 [2]
00000000: 619b 0e3d 5f9b 0ebd
0.03481615 -0.034816142

exp_avg f4 [128, 5]
00000000: f4e6 dd38 aaea 5d38 7778 e2b5 9ad7 0639
00000010: 9846 50b7 5cb6 a4bb 0e7f dd39 3682 0838
00000020: 5f8c 43bb 1c61 b2ba 72af 07ba 00f6 1b39
00000030: 0771 c837 0c32 05b9 36f1 4439 ce5f 18b9
00000040: 88d5 22b8 58ab 0436 c758 b938 00fd 48b8
00000050: 74c8 1c3a 087a d8b7 6197 44b6 a543 7b39
00000060: b282 1f39 acd5 e439 6f16 dab9 c537 4d37
00000070: a26f 20b9 e40e a33a 912d 023a 8639 beb9
00000080: 3809 d1b7 2ae9 003a a637 85b9 c046 ed39
00000090: e09f 2438 0ba2 a937 68be 4439 08ac a439
000000a0: 98cf 1e38 e22f fdb8 582a 4eb7 ccf3 da39
000000b0: 3508 16b9 644f 503b 2ae9 feb9 97b4 05b8
000000c0: 3a6e d53a 0084 a4b6 f07d eb3a f24b f5b9
000000d0: ff04 90b7 f894 9a3a f0be 9438 e539 1f3a
000000e0: c4fb 2fb8 18bd 91b7 e587 a339 be86 5539
000000f0: 4fdb 83ba ed5c 153a 4826 0738 0e83 0eba
00000100: 7621 183a 2c35 6437 c53b 41b7 b64e 6635
00000110: 7e88 10b8 459b 9137 8f11 463a 14f8 88b7
00000120: 7d1a a3b7 3da8 c039 0ad3 d2b9 917d 35ba
00000130: 874c 2c38 5ed3 1b37 33a4 d7b9 bcb8 23ba
00000140: ec42 3939 a23c 2cb7 cd2c 0e37 639b 84b9
00000150: 38b4 2639 640e c6ba f186 e039 8c9f 4c38
00000160: 9a2f 59ba 968d 803a 4512 3b3a 8366 f438
00000170: 8b71 4eb7 7ced 9539 8f9f 8db8 80da 8939
00000180: e604 33b9 d281 d2b5 8390 d1b9 0cd0 5639
00000190: bef9 15ba 39f0 c4b8 d889 2fb7 bc00 02b8
000001a0: bcff 05ba d03b d0ba aa48 59b9 0ee3 6737
000001b0: ef21 3dba 2c65 81ba 6492 6038 8bfe 89b7
000001c0: 0ebe 3835 f403 2937 27db 32b7 dbbc cab9
000001d0: 2e37 d8b7 ad6a efb6 8004 b339 5e21 0eb9
000001e0: e673 b7b9 556e 9cb8 bda0 e236 a4d0 b9b8
000001f0: 6c13 0b39 7090 59b8 b838 8db9 89c6 c5b6
00000200: e81f 6539 d032 2cb9 87f5 3b38 577f dd36
00000210: 5c92 c434 d60b 0538 df6b ec37 d585 d83a
00000220: e99b 84ba adeb 84b8 12b5 783a 7a6a acba
00000230: 6d12 413a 4642 34b9 778a fbb7 847e 413a
00000240: 5033 5537 8a8c 02bb 4dc1 9639 f4ad 2838
00000250: 5c38 c5ba 4a47 8139 54a0 783a 787b 99b8
00000260: 8296 5fb6 ce67 f639 c2e1 5b3a 2e08 95ba
00000270: a75f f639 c717 2538 99d3 82b9 6ea4 093a
00000280: 704b 5f38 4977 2038 b976 8236 35a7 0db9
00000290: 27b0 f938 f5a8 263b 2e0c 143a 8c8d 42b6
000002a0: df94 c93a 4755 c03a 8535 44ba 1847 9fb8
000002b0: 8bc7 22b7 5899 d9b8 d221 adb9 bf6a 5439
000002c0: 9f5d 23b9 4b35 2bb6 f052 bb36 10a3 8639
000002d0: 5b1b be37 c89b ac36 1fcd 15b4 000d 80b6
000002e0: e7de 0437 d086 8eba f12a a9b9 c419 0736
000002f0: 2c71 5fba 2ed6 8cba 885f adb9 8eeb fab8
00000300: c237 18b7 f40c 3439 4467 0237 eafc 8fba
00000310: ee85 9439 b174 8437 6e70 68ba 303e 2d39
00000320: bcbd b739 7c5f 8db8 93a9 4eb7 e309 1d3a
00000330: de23 3cba 719e f3b9 70aa 283a 186f af37
00000340: 4d37 a3b9 ba10 123a 1dc0 65ba f24b 7039
00000350: 04ad 7b37 1a4f a7b9 57a9 ef39 a4f2 10b9
00000360: 37ba 43b9 164e be36 23e0 86b9 1d65 c639
00000370: 5779 12bb b709 02ba 685a e536 5eb5 c1ba
00000380: 0894 e6ba 975b bab9 8d6b 1638 fedd 9d36
00000390: 5db7 09b9 fdc9 0939 7958 bbba 370b 90b9
000003a0: 965c 4337 1485 6bb9 43ed 57ba 5d6d 6dba
000003b0: fea1 443a b7ce 1d38 5b51 79ba 167b 233a
000003c0: 3c5d c339 a7ac 70b8 5007 1636 2d8b 0f39
000003d0: 259c b338 143b 17b9 d2f5 9db7 3f96 f236
000003e0: 2eb5 0ab8 4419 c938 ea9d efba b9ed 3cb9
000003f0: 4c31 4236 ac9c 59ba d28a a4ba 365a 7a39
0.000105811196 5.2909054e-05 -1.6873372e-06 0.00012859554 -1.24142025e-05 -0.0050266217 0.00042247068 3.2546195e-05
-0.0029838306 -0.0013609263 -0.00051759847 0.00014873594 2.389449e-05 -0.00012702512 0.00018781875 -0.0001453154
-3.8822676e-05 1.9769268e-06 8.8380235e-05 -4.791934e-05 0.00059807976 -2.5806032e-05 -2.929439e-06 0.00023962425
0.0001521211 0.00043646747 -0.00041596915 1.2231937e-05 -0.00015300376 0.0012440351 0.00049658964 -0.00036282482
-2.4919034e-05 0.00049175567 -0.00025409198 0.00045256875 3.9249542e-05 2.0221827e-05 0.00018762948 0.0003140869
3.7863472e-05 -0.00012072899 -1.2288416e-05 0.00041761843 -0.00014308172 0.0031785602 -0.00048620376 -3.187786e-05
0.001628346 -4.9029477e-06 0.001796661 -0.00046786625 -1.7168464e-05 0.0011793664 7.092755e-05 0.00060739956
-4.1957726e-05 -1.73734e-05 0.00031191032 0.00020363458 -0.0010059866 0.0005697746 3.222216e-05 -0.0005436399
0.0005803326 1.3602239e-05 -1.1517613e-05 8.5796216e-07 -3.4459394e-05 1.735765e-05 0.0007555717 -1.6327984e-05
-1.9443449e-05 0.0003674644 -0.00040211558 -0.0006923313 4.1079267e-05 9.287933e-06 -0.00041130334 -0.0006245484
0.00017667905 -1.0266116e-05 8.474291e-06 -0.00025292774 0.0001589813 -0.001511049 0.0004282515 4.878598e-05
-0.0008284986 0.0009807821 0.0007136206 0.00011653921 -1.2304993e-05 0.00028596434 -6.753124e-05 0.00026293471
-0.00017072595 -1.5684002e-06 -0.00039971256 0.00020486134 -0.00057211134 -9.390753e-05 -1.0462907e-05 -3.09951e-05
-0.0005111655 -0.0015886966 -0.00020721802 1.3821538e-05 -0.00072148343 -0.000987207 5.35421e-05 -1.6450203e-05
6.882191e-07 1.0074105e-05 -1.0660652e-05 -0.0003866915 -2.5774902e-05 -7.1351737e-06 0.00034144893 -0.00013554606
-0.0003499083 -7.4592106e-05 6.7540373e-06 -8.86035e-05 0.00013263308 -5.187135e-05 -0.00026935874 -5.89417e-06
0.00021851028 -0.00016422127 4.481294e-05 6.6011376e-06 3.6614335e-07 3.1720694e-05 2.8183624e-05 0.0016519377
-0.0010117266 -6.3381485e-05 0.0009487431 -0.0013154291 0.00073651114 -0.00017190826 -2.998601e-05 0.0007381218
1.27077365e-05 -0.0019920194 0.0002875425 4.0216328e-05 -0.0015046704 0.00024657912 0.000948434 -7.3186064e-05
-3.3317197e-06 0.00046998117 0.00083878275 -0.0011370236 0.00046992043 3.936121e-05 -0.00024953185 0.0005250637
5.32376e-05 3.8258066e-05 3.888123e-06 -0.00013509097 0.00011906056 0.0025430296 0.0005647567 -2.8990644e-06
0.001537945 0.0014673852 -0.00074847817 -7.594953e-05 -9.702412e-06 -0.00010375929 -0.0003302233 0.00020257662
-0.00015579768 -2.5512006e-06 5.5826895e-06 0.00025679963 2.2662503e-05 5.144135e-06 -1.3951329e-07 -3.8162107e-06
7.919712e-06 -0.0010873917 -0.00032266186 2.0131565e-06 -0.0008523639 -0.0010744983 -0.00033068308 -0.000119648044
-9.072888e-06 0.00017170963 7.772647e-06 -0.0010985408 0.00028328545 1.5789965e-05 -0.0008866851 0.00016521732
0.00035045843 -6.741189e-05 -1.2318039e-05 0.0005990548 -0.00071769755 -0.0004646662 0.00064340886 2.0913358e-05
-0.00031130985 0.00055719505 -0.0008764284 0.00022916475 1.5001049e-05 -0.00031911657 0.000457118 -0.00013823301
-0.0001866602 5.6715317e-06 -0.00025725467 0.00037840838 -0.0022350156 -0.0004960554 6.8352565e-06 -0.0014778783
-0.0017591724 -0.00035544924 3.586295e-05 4.704808e-06 -0.00013133646 0.00013140585 -0.0014293335 -0.00027474176
1.1644463e-05 -0.00022460922 -0.0008236954 -0.0009057129 0.00075009454 3.7624235e-05 -0.0009510719 0.0006236298
0.00037262763 -5.7381254e-05 2.2355998e-06 0.0001368939 8.564469e-05 -0.0001442249 -1.8830327e-05 7.229653e-06
-3.30705e-05 9.589133e-05 -0.0018281315 -0.00018017636 2.8936947e-06 -0.0008301239 -0.0012553579 0.00023875464

exp_avg_sq f4 [128, 5]
00000000: aaef 7436 4503 d134 b400 8a30 0eda fe35
00000010: de3f 0936 2356 2038 88bc b636 90dc b132
00000020: 4325 c337 72ed 0a38 be66 8237 1c72 9035
00000030: bdaa 9631 23e9 ef36 fdc4 cf36 699d 1536
00000040: 2fee 5734 55ed 2e30 8af6 5f35 3e40 a235
00000050: b2de 0e37 4167 8335 a717 ac31 256c 7c36
00000060: 3dec af36 4630 d437 5356 3436 54f9 f731
00000070: 95ef 4637 e170 7e37 5b07 3737 9972 ea35
00000080: a367 bd31 83e5 9736 fde4 3437 3e21 d437
00000090: 209b ca35 2ab4 dc31 9525 0337 4826 4637
000000a0: bb0e 4836 2c28 1c35 8bbc 9830 8072 ad35
000000b0: 49ae 0136 55b5 1b38 65e3 9236 92e4 8832
000000c0: f930 a037 fd6c e437 4172 3837 d526 2736
000000d0: 1a9e 0a32 97b1 ee36 c09a 6c37 497b e035
000000e0: f898 8e34 d5a1 1a30 4d50 1135 9500 5935
000000f0: c20e 1e37 a3b6 1036 3912 8331 86de b336
00000100: 7a2f 1237 e4d8 7334 b03d cb32 ba3e dd2d
00000110: ecd9 5e33 ea35 bd32 b9b8 0037 5957 0335
00000120: e6fb 4031 0416 6136 b355 8036 feb4 4837
00000130: d846 3036 4b36 8131 67a3 a536 c2a1 1337
00000140: 3abf 0536 7688 5b34 ef61 2430 8c38 d035
00000150: a297 1c35 97eb e736 a625 a235 0b24 8e31
00000160: 1722 a436 310f e736 7e2e 8337 c0ea cf35
00000170: 0eb4 a731 75c1 c836 2c3c f536 0261 0a36
00000180: 7231 ec34 6aa7 aa30 c992 d935 fbdd 9735
00000190: bf9b 0336 aee0 8e34 5b0d 0330 252d 5b35
000001a0: d9b4 7635 27aa 9637 9ee3 a135 4165 b831
000001b0: f8c0 f636 3852 1a37 2bd2 8335 a009 6f34
000001c0: 1753 992f 59a0 b534 4653 d334 6499 4e37
000001d0: 5d96 8735 f821 9231 e360 ad36 94c8 c936
000001e0: 30ad 8336 f640 c534 a224 9330 a32e a335
000001f0: eecb 4c35 1f76 4436 c80f 6035 383b 0231
00000200: b428 3e36 91e8 2636 3379 8034 f91c 4933
00000210: 8dc4 f12d f152 3034 25ac d833 865a 3a37
00000220: 5e73 5d36 7033 1132 2a38 2b37 c097 8637
00000230: 51f4 bc36 a593 e935 5468 8a31 6e16 aa36
00000240: 8b61 d236 3512 e136 9424 0a36 99fe a231
00000250: 5f2a 9136 dfad 0f37 4bff e436 54f0 a935
00000260: e91e 8f31 74c8 a636 f4e8 ea36 b7f4 2338
00000270: a0f6 a636 8406 8d32 c423 9737 3242 be37
00000280: 1d83 bb35 663d 3d35 e310 5330 7a01 fe35
00000290: 3ba8 3e35 740c 6237 553f d335 34fd ea31
000002a0: 7262 da36 5345 2c37 69c8 1238 3d0d 3036
000002b0: aba2 4332 c3ca 3337 062f 6b37 ade9 1336
000002c0: f9fc f334 f226 7630 26ab b135 2b66 ce35
000002d0: c8ff b833 30d4 6332 3932 822d 1e32 aa32
000002e0: 339f 0c32 6dc8 aa36 f8a6 6735 46bf 3731
000002f0: c73e 6336 7df2 6a36 44ee a036 7198 4535
00000300: 5b64 df30 3e65 5636 a1b7 f835 1e37 3437
00000310: 832a 4536 73dc cf31 1226 b936 c16e 7237
00000320: 0e52 0037 eaa4 3a36 659c 7631 76ea b836
00000330: 223d f236 a761 6a37 a254 e235 a904 c631
00000340: a8e0 bd36 e1d7 0c37 76b8 9c36 1df1 f234
00000350: 1853 0f31 aa30 0336 30b6 3436 a8e0 fd35
00000360: 09d4 c334 0a05 c830 da83 e935 1bdf 0c36
00000370: b908 b237 f574 2236 6422 2232 f08b 2e37
00000380: f69b 6737 0247 8536 513b ac34 623d a630
00000390: 3fa9 4335 53e2 8835 71da b936 d99a 6c35
000003a0: 06f2 2231 0ad5 fd35 5400 6c36 1cde a936
000003b0: e051 db35 e8fe a131 57e4 9036 2b43 f436
000003c0: fa69 5036 41ba 6c34 5a7f 8130 08d8 0036
000003d0: 3b9b d635 095c ad36 34be d534 6e4c bb30
000003e0: 2937 8d35 25f5 df35 8158 5037 d018 db35
000003f0: 4166 a231 7c25 a436 e598 0237 37ef 7937
3.6498336e-06 3.8931663e-07 1.0041021e-09 1.8987937e-06 2.0451766e-06 3.8227194e-05 5.4459706e-06 2.0705812e-08
2.3263163e-05 3.3122902e-05 1.554505e-05 1.0762046e-06 4.3849853e-09 7.1498957e-06 6.192013e-06 2.2294355e-06
2.0110086e-07 6.36381e-10 8.3432735e-07 1.2088638e-06 8.51571e-06 9.790311e-07 5.008548e-09 3.7613875e-06
5.242908e-06 2.5294848e-05 2.6872337e-06 7.2169914e-09 1.1857502e-05 1.5165861e-05 1.0909363e-05 1.7467711e-06
5.512406e-09 4.5268694e-06 1.0782152e-05 2.5287849e-05 1.509532e-06 6.423325e-09 7.816959e-06 1.1810633e-05
2.9810897e-06 5.8172986e-07 1.1113043e-09 1.2922828e-06 1.9323945e-06 3.712376e-05 4.3776113e-06 1.5936426e-08
1.9096291e-05 2.723047e-05 1.0993856e-05 2.4907542e-06 8.068605e-09 7.113627e-06 1.4102727e-05 1.6725181e-06
2.656086e-07 5.625485e-10 5.413356e-07 8.0839646e-07 9.42097e-06 2.156398e-06 3.8146735e-09 5.360521e-06
8.713332e-06 2.2710043e-07 2.3660363e-08 2.5152647e-11 5.18866e-08 2.2027013e-08 7.672404e-06 4.892841e-07
2.8082865e-09 3.3540427e-06 3.824674e-06 1.19630695e-05 2.626728e-06 3.7605665e-09 4.9364057e-06 8.799545e-06
1.9929853e-06 2.0445609e-07 5.9802024e-10 1.5513665e-06 5.8335183e-07 6.9117627e-06 1.2080898e-06 4.1368415e-09
4.8915495e-06 6.886105e-06 1.5638067e-05 1.5491023e-06 4.8808095e-09 5.982986e-06 7.308574e-06 2.0620068e-06
4.3994402e-07 1.241671e-09 1.621048e-06 1.1314982e-06 1.9611177e-06 2.6613037e-07 4.76765e-10 8.164955e-07
9.190531e-07 1.7960627e-05 1.206168e-06 5.366616e-09 7.353836e-06 9.198258e-06 9.821428e-07 2.2262111e-07
2.7889577e-10 3.3830545e-07 3.9362402e-07 1.2314271e-05 1.0102045e-06 4.253021e-09 5.167081e-06 6.013617e-06
3.924266e-06 3.6741375e-07 1.0706069e-09 1.215802e-06 7.629268e-07 2.9275031e-06 8.346947e-07 1.8951152e-09
2.8335899e-06 2.48713e-06 2.3930042e-07 4.682531e-08 2.7485814e-11 1.6421451e-07 1.0089597e-07 1.1107541e-05
3.2998719e-06 8.451806e-09 1.0205471e-05 1.6044709e-05 5.631279e-06 1.7402823e-06 4.0281893e-09 5.069006e-06
6.269843e-06 6.707642e-06 2.0584894e-06 4.743765e-09 4.3262694e-06 8.563947e-06 6.8246495e-06 1.2661426e-06
4.165362e-09 4.9705213e-06 7.0008628e-06 3.9090137e-05 4.9758964e-06 1.6417523e-08 1.8017257e-05 2.268059e-05
1.3970745e-06 7.0497333e-07 7.678535e-10 1.8924904e-06 7.1025323e-07 1.3473549e-05 1.5739157e-06 6.839082e-09
6.508367e-06 1.026814e-05 3.499576e-05 2.623375e-06 1.138748e-08 1.0716441e-05 1.401804e-05 2.2040724e-06
4.544634e-07 8.9549623e-10 1.3237338e-06 1.5377931e-06 8.614694e-08 1.3261385e-08 1.4801592e-11 1.9813395e-08
8.18527e-09 5.0897274e-06 8.629718e-07 2.6738731e-09 3.3862177e-06 3.5009864e-06 4.7961094e-06 7.361005e-07
1.6253908e-09 3.1947416e-06 1.8530883e-06 1.0741669e-05 2.9380033e-06 6.049555e-09 5.5178616e-06 1.4450111e-05
7.648499e-06 2.7812152e-06 3.5886611e-09 5.510922e-06 7.219279e-06 1.3970223e-05 1.6862944e-06 5.7630882e-09
5.6587924e-06 8.3949135e-06 4.6706364e-06 4.5251446e-07 2.0856472e-09 1.9548847e-06 2.6928137e-06 1.8915352e-06
3.6475856e-07 1.4553347e-09 1.7398227e-06 2.099149e-06 2.1223315e-05 2.420796e-06 9.437461e-09 1.040379e-05
1.3804985e-05 3.9719753e-06 3.2080655e-07 1.2095536e-09 7.2889446e-07 1.0198659e-06 5.5388596e-06 8.8142184e-07
2.3711677e-09 1.8911971e-06 3.5166931e-06 5.0624494e-06 1.63406e-06 4.714696e-09 4.3181167e-06 7.279586e-06
3.1056102e-06 2.2046972e-07 9.422181e-10 1.9199233e-06 1.598942e-06 5.166516e-06 3.9812733e-07 1.3627763e-09
1.0521372e-06 1.6686141e-06 1.24183725e-05 1.6323993e-06 4.7264455e-09 4.8919446e-06 7.784202e-06 1.4897253e-05

exp_avg f4 [128]
00000000: 783f 5ab5 1e11 13b8 72a4 1537 609e 6cb5
00000010: 8012 3736 4e80 5338 9236 7eb7 5e28 5237
00000020: 6093 3cb7 40b7 a2b7 0c7c 36b7 7c79 e336
00000030: 5fca 0e38 fd91 6835 c89d d1b7 31e8 c1b7
00000040: 6946 0d37 7c05 6138 2885 48b7 2833 eb36
00000050: 67ab b0b7 b7dd 07b8 e4f5 24b4 c0c3 01b7
00000060: f289 f736 5485 91b6 f4a0 9d35 d8f6 90b8
00000070: 49b4 37b7 2cef ec37 ae3f e037 37b0 1d38
00000080: b3db b936 d40d 2c38 d035 d3b6 44f2 3d37
00000090: cf0b f434 4285 30b8 258f a8b5 8646 b737
000000a0: 6a9d 9fb7 b356 ab37 f5a1 a937 dc00 1e37
000000b0: b78a 84b8 be01 0937 0dd1 0bb8 8687 0f38
000000c0: f45d 5e36 07a5 9536 e758 48b8 f0b5 dfb5
000000d0: 566f 5ab7 0e66 6638 00e3 4e38 72f7 1337
000000e0: 92e3 0437 b453 12b8 9b30 d837 09f9 65b4
000000f0: 0279 72b8 5bc2 efb7 7691 8535 900b 68b7
00000100: 8b4c a233 86f2 5937 5529 8337 a2bc 0038
00000110: ed33 bf37 b666 83b8 62c4 6437 2eeb 30b8
00000120: 99a5 a437 075b 80b7 c103 4b37 3607 f437
00000130: 46b0 a8b4 f7de bd37 f0aa 9536 4435 e035
00000140: 9116 94b6 ee3c 39b6 9718 deb2 e56d 3638
00000150: 30d0 5d34 480a 2fb7 72fc 9334 56be ab37
00000160: 1c5c 3b38 bb2b 5bb7 c681 0238 4e1a 1bb9
00000170: eb15 6bb7 446a 2238 cae8 a5b5 dd32 5338
00000180: 44a0 17b7 b74e 05b8 1ab3 ec36 ce8f 93b7
00000190: 5828 6638 546f 88b7 7a06 cc36 a5f7 7737
000001a0: dcda 2e37 90a4 37b8 ea47 8fb7 406b a7b5
000001b0: fbec 7232 38e4 cab5 b208 6537 c022 9537
000001c0: 2822 0cb8 1034 60b8 fcd7 c6b7 ccbc ef36
000001d0: 6251 c238 54a3 6337 b757 b9b5 4655 c337
000001e0: 708e 6738 1b89 6fb7 c0bd 8f36 d389 6e38
000001f0: a098 cb36 510e 5c37 c711 3437 2263 68b8
-8.130369e-07 -3.5063473e-05 8.91938e-06 -8.8147317e-07 2.7279893e-06 5.0425813e-05 -1.5152285e-05 1.2526374e-05
-1.1239987e-05 -1.9397237e-05 -1.0876927e-05 6.77927e-06 3.404391e-05 8.6639176e-07 -2.4988214e-05 -2.3115515e-05
8.420649e-06 5.3649288e-05 -1.1951932e-05 7.009501e-06 -2.106065e-05 -3.2392996e-05 -1.5363145e-07 -7.734576e-06
7.3772326e-06 -4.336858e-06 1.1744255e-06 -6.912433e-05 -1.0949626e-05 2.8244765e-05 2.6732534e-05 3.759583e-05
5.539006e-06 4.1020874e-05 -6.2945546e-06 1.1321685e-05 4.5457134e-07 -4.2085776e-05 -1.2558636e-06 2.184814e-05
-1.9027579e-05 2.0425161e-05 2.0221787e-05 9.417734e-06 -6.320088e-05 8.166242e-06 -3.3334876e-05 3.4220073e-05
3.3135266e-06 4.4597577e-06 -4.7766513e-05 -1.6667746e-06 -1.3019735e-05 5.493132e-05 4.9325638e-05 8.819496e-06
7.920798e-06 -3.4887067e-05 2.577184e-05 -2.1417885e-07 -5.7809993e-05 -2.8581524e-05 9.951607e-07 -1.383097e-05
7.557636e-08 1.2990675e-05 1.5635664e-05 3.0693256e-05 2.2793154e-05 -6.265698e-05 1.3635583e-05 -4.2180698e-05
1.9627436e-05 -1.5301177e-05 1.2100617e-05 2.9090425e-05 -3.1420694e-07 2.2634382e-05 4.460446e-06 1.6704803e-06
-4.413371e-06 -2.7602614e-06 -2.5855384e-08 4.349453e-05 2.0657967e-07 -1.0433207e-05 2.7564562e-07 2.047342e-05
4.4670058e-05 -1.3063599e-05 3.1115276e-05 -0.00014791751 -1.4012195e-05 3.8722777e-05 -1.2361209e-06 5.035369e-05
-9.037616e-06 -3.178298e-05 7.0541982e-06 -1.759073e-05 5.4873846e-05 -1.6264305e-05 6.0804277e-06 1.47800065e-05
1.0422165e-05 -4.378386e-05 -1.7080416e-05 -1.2473683e-06 1.4140137e-08 -1.5116593e-06 1.3651488e-05 1.7778366e-05
-3.341041e-05 -5.345425e-05 -2.3704015e-05 7.144734e-06 9.2657996e-05 1.3568282e-05 -1.3809102e-06 2.328552e-05
5.5207347e-05 -1.42774325e-05 4.283822e-06 5.687198e-05 6.0676393e-06 1.3116355e-05 1.0732975e-05 -5.5405435e-05
