results/Player2/MoveAgent2D/checkpoint.pt (torch, 456546 bytes, 40 tensors)

discrete_act_size_vector f4 [1, 2]
00000000: 0000 4040 0000 0040
3.0 2.0

network_body._body_endoder.seq_layers.0.weight f4 [128, 9]
00000000: 8d92 10bf f177 a4be 8f80 c03e b52f 4bbe
00000010: e1de 07be b90b e53e 5a1f e1bd 0f46 e7be
00000020: a4c3 cdbd c114 093f 0549 a7be b5e9 d7be
00000030: f92e febe ef62 7c3e 47ab 9abe 0954 fb3e
00000040: da6e a73e 9ac5 05bf 5354 83be aabc 8e3d
00000050: 4920 643d 1506 61be c45d 9ebe 3f03 1ebd
00000060: 8466 293e e582 783c bdef 35be 9ca9 9d3c
00000070: dfd1 b4be 5a3f 983e e63c dbbe cb01 823c
00000080: a34e 6abe fda7 e13c d9f7 6f3e 7b80 d0bd
00000090: 6acf d53e 2ab8 acbe b581 06bf 41f1 953e
000000a0: 066d 3a3e c109 debd d788 e8be d53c 93be
000000b0: 8880 86be f496 07bf c195 57bd 3a99 373c
000000c0: 41c8 263f 45c6 c43e 5850 bbbe 7267 70be
000000d0: 0c36 76be 714f 8bbe e3e9 b8bd 31e5 34be
000000e0: 5d2d 763e e7f3 65be 4fe8 a2be 727e d73d
000000f0: cb62 84be 32b7 c53e 11b3 25bd ecf1 68be
00000100: df2a 1e3e 732d 13bf a702 07be d35f 50bd
00000110: 1851 8c3e 95e7 12be 354a 1a3e a0f6 f0be
00000120: d82f 5ebe 30af 093f bfce 8ebd adb6 58be
00000130: 56b3 1bbd 4dfe e63c 9029 363f 236d a53c
00000140: 3162 10be 7161 8a3e 291b 99bf 78dd 293e
00000150: 3073 89bd f7c6 173e 91ca f4be 3234 a33e
00000160: 8b83 86bd e427 143f 8956 843e c5ee 23be
00000170: 90f3 9e3d 2233 eabd bdd2 1c3d b490 7f3e
00000180: f532 b43d 7ab9 4a3d 8a3f c63d b999 793e
00000190: f58d 8fbd e59b babe 64bf cd3e a9c7 dabe
000001a0: 22e5 993e 516d 94be 79fe 103f 689c 7ebd
000001b0: 58d2 de3e 6f28 65be 30a9 0c3e 1a63 3cbe
000001c0: e7cb cdbe 19d0 813e 4bf5 043e 9edc 9b3e
000001d0: 22f7 483e 1e63 febe ec95 35be a4e8 bb3e
000001e0: 92a8 28bf 460f aebe 32f0 9ebe b7ea 99be
000001f0: 869e f6be fbb2 783d 7c1c 323e f4e0 c53e
00000200: 7759 8a3e b9ed d3be 3f14 39be 42e5 c8bd
00000210: 0025 ad3e 4e2a 6b3e a9ad b63d 023c 52be
00000220: a424 9ebd bab3 193e 1033 d6be bdd3 da3e
00000230: 9013 263e 15e7 a9be 03f6 f9be 8b1c 43be
00000240: 7724 8dbe 1d91 2dbe 5acb dabe 751e c5bd
00000250: b248 973e 799a 15bf 7207 8ebe 429f 743e
00000260: efd0 6e3e 2895 13bf 1462 23bf 437c f83c
00000270: ffa5 9fbe 1633 36be 77e4 3cbe 66f3 d2bd
00000280: 313e a03e 41a5 353f 3157 4b3c 7567 94be
00000290: ad5d acbe fe99 9bbe 423a 1fbf 7d4a 94bf
000002a0: f440 bc3e 12f7 e83d 0744 cfbb 4c05 e5bd
000002b0: 280d 7dbe c2bb a1be 2aed d6bd 50f0 37be
000002c0: da64 90bb 361f e33e 5a37 96be 5b34 753e
000002d0: bc10 ab3d e0a7 f0bd 0730 963e 9d8c 753e
000002e0: f2a0 fdbe ea2e e5bd fe0d 443f 27f9 60be
000002f0: beff 0c3f e7cd 663d e975 3ebd 7216 673c
00000300: 8b40 413e fbad 96be 8afb 4ebe d579 10bf
00000310: 11f3 93bd 6b8c 9b3e 7732 ddbe ec10 4b3e
00000320: 93a3 d83e 3d3f f93c 8932 14be 6eb4 c1bd
00000330: d14a 0abf 8e4e 463e c779 953e b978 b23d
00000340: 51fa 1b3e 6ad6 c03e b2d6 21be 0c23 cbbc
00000350: c2d0 9bbe 33ac f1be 72a5 033e 25de 11be
00000360: dd0e 0f3e cf16 8f3e d0c8 aabe 933f b43e
00000370: f01c 70be 3742 3c3e 26d0 213e 43ee 51be
00000380: afcd a83e ecf0 27be 4d86 e83e 0c0a f23d
00000390: fc4b 92be e83b fdbe 99ef e8bd 63b6 ebbe
000003a0: 4499 77bb 3dd6 743f 3e4b 243f c6ca bf3e
000003b0: b8ef c63e 713d 0fbe 8679 4fbe ad7c 0a3f
000003c0: b105 96be 6a77 b3bd e0c2 5b3d 20d4 803e
000003d0: a9b0 213e e5bb 2d3d 99d5 333f 3351 8fbd
000003e0: b9eb 70be e4fc 173f f76d 7f3e 8751 e83e
000003f0: 987d 05bd ab3d 02be 0717 253e 48bb dabe
-0.5647362 -0.32122758 0.37598082 -0.19842418 -0.13268615 0.44735506 -0.10992308 -0.45170638
-0.10047081 0.5354729 -0.32672897 -0.42170492 -0.49645212 0.24647115 -0.302088 0.4908755
0.3270176 -0.5225464 -0.25650272 0.069695786 0.055694852 -0.21974976 -0.30930912 -0.038577314
0.16543013 0.015167926 -0.17767234 0.019245915 -0.3531637 0.29735833 -0.428199 0.015869996
-0.2288156 0.027545923 0.2343439 -0.10180756 0.41759807 -0.33734256 -0.5254167 0.29285625
0.18205652 -0.10841704 -0.454169 -0.2875735 -0.26269937 -0.5296471 -0.05263305 0.011205966
0.65149313 0.38432518 -0.36584735 -0.23476961 -0.24044055 -0.27209046 -0.09028985 -0.17665555
0.24040742 -0.22456323 -0.31817862 0.105221644 -0.25856623 0.3861633 -0.040453974 -0.22748536
0.15446042 -0.57491225 -0.13184606 -0.050872635 0.2740562 -0.14346154 0.1506737 -0.4706316
-0.21697938 0.5378294 -0.069730274 -0.21163435 -0.038012825 0.028197432 0.7115717 0.020193642
-0.14099957 0.27027467 -1.1961414 0.1658839 -0.067114234 0.14821993 -0.47810796 0.3187576
-0.065680586 0.5787337 0.2584727 -0.16009052 0.077612996 -0.11435534 0.038286913 0.24957544
0.08798782 0.04949329 0.09680088 0.24375047 -0.07009498 -0.36447063 0.40185082 -0.42730454
0.30057627 -0.28989652 0.56638294 -0.06216088 0.43519855 -0.22378705 0.13736415 -0.18397179
-0.40194628 0.25354078 0.12984197 0.30441755 0.19625524 -0.49684995 -0.17732972 0.36700928
-0.6588222 -0.33996028 -0.3104263 -0.30061886 -0.4816782 0.060717564 0.17393678 0.38648188
0.2702138 -0.41392305 -0.1807413 -0.098093525 0.3381729 0.22965357 0.08919842 -0.20530704
-0.077218324 0.15009966 -0.41835833 0.42739668 0.162184 -0.33184114 -0.48820505 -0.19053857
-0.27566883 -0.16949888 -0.4273327 -0.0962495 0.2954765 -0.5843883 -0.27740055 0.23888877
0.2332189 -0.5764947 -0.6382153 0.03033269 -0.31181332 -0.17792925 -0.18446527 -0.10300331
0.31297448 0.7095528 0.012410925 -0.2898518 -0.3366522 -0.30390924 -0.6219827 -1.1585232
0.36768305 0.1137525 -0.006325248 -0.11182651 -0.2471205 -0.3158856 -0.10494454 -0.17962766
-0.0044065537 0.4435975 -0.29339105 0.23945753 0.08352801 -0.117507696 0.29333517 0.23979421
-0.49536854 -0.11190589 0.7658385 -0.21970044 0.5507773 0.056348708 -0.046499167 0.0141044725
0.18872277 -0.29429612 -0.20213142 -0.564359 -0.072240956 0.30380568 -0.43202564 0.19830674
0.42312297 0.030425662 -0.14472403 -0.09458242 -0.5402041 0.19365904 0.2919447 0.08714432
0.15232207 0.37663585 -0.15804556 -0.024796985 -0.30432707 -0.4720169 0.12856081 -0.14244898
0.13970514 0.2794709 -0.33356333 0.35204753 -0.23448539 0.18384634 0.15802059 -0.20501046
0.32969424 -0.16400498 0.45414963 0.118183225 -0.28573596 -0.49459767 -0.113738246 -0.46037588
-0.0037780562 0.956394 0.6417731 0.3745939 0.38854766 -0.13988282 -0.20261201 0.5409649
-0.29301217 -0.08763011 0.053652644 0.2516184 0.15790047 0.04241552 0.702478 -0.069979094
-0.23527421 0.59370255 0.24944292 0.453747 -0.03259048 -0.12718837 0.16122065 -0.4272101

network_body._body_endoder.seq_layers.0.bias f4 [128]
00000000: c0c7 1eba addc f63c a0b8 4cbc 1fe2 3cbc
00000010: 8f83 09bc e194 893b a312 29bb aed1 0ebc
00000020: f3ee dcbb c22a 96bb 53c4 29ba d8e1 bbbc
00000030: 07d6 b2ba 059f f6bc 48dd 1abb 5517 49bc
00000040: 953b 7eb9 61cb fe3b 0e4c 55bc d619 e43b
00000050: da35 e8bb db1b 16bc f41d 38bc 34ff cdbb
00000060: a7bf 8e3c ef91 a7bc 7f66 adba 7e2a dabc
00000070: 41dc 843b 7559 b1bb 596d f6bb 818a dbba
00000080: 0250 39bc 7066 17bb ef5d 82ba b8f6 d8bb
00000090: 26c8 66bb 6b7f 80ba ad28 45bb 73b4 443a
000000a0: bbde 0dbb 8f1e e6bb 058c 583a 71de 103b
000000b0: 946e 963a cb2c b9bb 3899 bbbb 45c2 2239
000000c0: 5504 9d3c 2569 4a3b bac4 07bc 9b2b 42bb
000000d0: 07bc 543c 58af 2abc 2981 3fbc 6ea0 143b
000000e0: 7a42 04bc 435d 94bc f7a8 f73c e849 14bc
000000f0: 4aee 173c 3996 a83c 6315 f03a 2eb2 82bb
00000100: 9037 69bc 077e a3ba c539 653c 8c8b 543b
00000110: ddfd 8c3b ad54 72bc 94c7 79bc 7fd7 3abc
00000120: e7b5 8fbb 0ee7 a9bb 402a e33c 6d61 bfbb
00000130: 6655 133d b9fb 70ba 5e2d dabb 9f5d 823a
00000140: 2a3a f4ba 6472 2bbc 14ab ddbb 5cfe 12bb
00000150: 8a9a 81bb ce2a 7bbc 993d 8dbc fbfd c53c
00000160: 2ab7 9bbc 2ace bbbb d072 62ba 94fc 883a
00000170: 106a 04bb b345 2e3c 69ce e1b9 6e99 7bbb
00000180: cb76 afbb 52f8 bcbb 9bd6 8cbc 2d50 72bc
00000190: 6744 513a c6cc 33bc 3694 af3b 5748 5cbc
000001a0: c6b4 923c d2e0 72bc 1422 5db9 ea9e 8cbc
000001b0: f4db 0ebc 79d4 09bd d56e c33b 9784 cebc
000001c0: b64d 61bc 43c5 3d39 0bba 0cbc b5fc e53a
000001d0: b39d 1bbc 9648 f9bc 6d38 1b3c c8fb 36bc
000001e0: 5bbc a93b bec8 b7bb 1de9 383a 02c5 e4bb
000001f0: 70d4 11bd e5c0 e1bb b9e2 f6bc 8361 e83a
-0.0006056987 0.030134523 -0.01249519 -0.011528521 -0.008393182 0.004198656 -0.0025798462 -0.008716984
-0.006742352 -0.004582734 -0.0006476093 -0.02293484 -0.0013644107 -0.030105123 -0.002363043 -0.012273629
-0.00024245524 0.0077757095 -0.013018621 0.0069610877 -0.0070864977 -0.009161915 -0.01123761 -0.006286526
0.017425371 -0.020455329 -0.0013229399 -0.02663159 0.0040545766 -0.0054122754 -0.0075203595 -0.0016749651
-0.011310579 -0.002310183 -0.0009946207 -0.006621208 -0.0035214513 -0.0009803599 -0.003008406 0.00075036957
-0.002164765 -0.007022686 0.00082606106 0.0022105242 0.0011477047 -0.0056510917 -0.005725052 0.00015521895
0.019167105 0.0030885425 -0.008286649 -0.0029628042 0.012984282 -0.010417782 -0.011688509 0.0022678631
-0.00807249 -0.018110877 0.030231936 -0.009050824 0.009273121 0.020579444 0.0018316921 -0.003988526
-0.014234439 -0.0012473472 0.013990824 0.003243181 0.004302724 -0.014790696 -0.015245337 -0.011403917
-0.004385698 -0.0051850146 0.027730107 -0.0058404715 0.035970114 -0.0009192783 -0.00665824 0.0009946114
-0.0018633057 -0.010464285 -0.006764779 -0.0022429442 -0.00395519 -0.01533003 -0.017241286 0.024168959
-0.019008238 -0.005731364 -0.0008638324 0.0010451251 -0.002020482 0.010636735 -0.00043069132 -0.0038391012
-0.0053547374 -0.005766907 -0.017192176 -0.014789623 0.000798291 -0.010974115 0.0053582443 -0.013444982
0.017908465 -0.014824109 -0.00021088897 -0.01716562 -0.008719433 -0.033649895 0.00596414 -0.025209708
-0.013751438 0.0001809793 -0.008589278 0.0017546626 -0.009498048 -0.03043012 0.009473902 -0.011168428
0.0051799244 -0.005608647 0.00070537796 -0.006981493 -0.035602987 -0.00688945 -0.030137407 0.0017729256

network_body._body_endoder.seq_layers.2.weight f4 [128, 128]
00000000: 1a11 ea3d bcdc 173e 7a17 b4bd 7a5c ecbd
00000010: 0eb6 18bd 0b4e d1bd f22e 11bc 8e8a 24bd
00000020: af3d 0b3e 9170 adbd f114 ea3d 3dfe 9f3d
00000030: 369c cc3c 54d8 d7bd 13bf 2bbd ab58 ec3d
00000040: ab04 f0bc a0fc e83c 7feb 0d3e 83b9 87bd
00000050: 7f02 00bc a7c1 843d 579b 57bd 56ce cdbd
00000060: fbcf 1d3d 699d 23bd 26ad 72ba 5994 edbd
00000070: fea5 0abd be62 093e 21e6 e1bd a279 aa3d
00000080: 709a c43d 0538 8bbd 071c 4dbd 089a 6fbc
00000090: d290 58bd 6827 40bd 583c 8b3d 478e 9f3d
000000a0: e740 b53d b6a3 2bbe 00e3 1c3c b0d7 b6bd
000000b0: 8337 0d3d 1c82 0dba 9f5c 20bd c842 92bc
000000c0: 8d5e 5b3d 30aa 053d 2884 b93d f511 7fbc
000000d0: 67d2 adbc cca3 c53c d90c 32bd 419c 1a3e
000000e0: d814 9f3d 18d9 a439 886e 16be bf97 db3c
000000f0: 8ce5 773d d6f3 223d a62c a63c 8226 c7bd
00000100: 7cf8 0f3d 2bb6 01be 9b04 993d ac3b 233d
00000110: f3f4 a83d 344f e1bd 145b 21bd 0d6b a3bd
00000120: d37f 723d a9dd 1c3b 3b52 8dbd 23b9 4abd
00000130: e7b4 af3d 603f b83d 63f0 90bd b53c 6b3d
00000140: 2267 9bbc d7f7 303d db34 a4bd 0fe5 de3d
00000150: 57bb e4bd 43d7 dfbd 3b0e db3b 3d47 1abe
00000160: 233c c03d 8f77 99bd dbd1 953d b7b4 17bd
00000170: e6ef be3d 5f3c 4c3d eee6 38bd 1be1 873d
00000180: 90e5 c73d 3ebf af3d df13 25be 8b82 e7bd
00000190: aa8e 7a3e b9cb f4bd a85b d13d ea87 4ebd
000001a0: 74d2 53bd b061 59bd 04a9 e13d d67d 8dbd
000001b0: adac 08bc 698a cabc b757 a5bd b1d4 6c3d
000001c0: cc75 8bbc 4134 f0bb 7a7f dc3d 215d 4f3d
000001d0: a779 173c 1204 4c3d 8c0d fd3d 1c53 953c
000001e0: f672 c43d 4424 cd3b f152 26bd 1d77 0cbd
000001f0: 208a 61bc b987 b4bc c8e1 833b faa2 c4bd
00000200: cfd8 60be 4f24 2e3d 0dea f6bc 1115 c8bd
00000210: 705b e0bd 6d58 3cbb 8b8c a7bd 7b65 4cbc
00000220: 21f7 153d 8a71 febd 5040 0cbd c9df f0bc
00000230: c775 cdbd beee c5bd 3c2b e93d 1e99 bc3c
00000240: 042c 05bc ee9a a43d a31f 18bb d064 06be
00000250: 895a 233c b2e7 92bc 60bf 9ebd 6ddc 01bd
00000260: 6d73 b93c 0591 9b3d e708 4abc 396e 1e3b
00000270: 7f04 c33d b893 9fbd 1570 a33d 841c a03c
00000280: 36c8 273e fd44 c0bd dfc0 263d d23a 7b3a
00000290: 9325 0b3b 2be7 6f3d 1475 5fbd c39f 7f3d
000002a0: df26 c0bd 2bbc 303d b3a0 3a3d ba7d b5bd
000002b0: 2f76 9dbd da01 c83c 838b 3a3d ec4b a53c
000002c0: b6bc 37bd 2109 09be bab3 c8bd f1cc d9bc
000002d0: b7e3 63be 745d 17be 1ab5 7abc 6f4f cdbc
000002e0: b131 3abd 68a3 b83c 4dee b83d d1be d1bd
000002f0: f0e9 bbbd 4b45 74bd b33c f5bc bd0e 97bd
00000300: e81e 3d3c 0985 e23d 687d 18be 6370 f2bc
00000310: e9f2 483c e983 8a3d 2d2f 18bd 2201 ccbc
00000320: b311 41be 70df 99bc 0f8f b73c cdd8 b03d
00000330: ae21 313e 5204 e03d 9f7d 02bd 317a 823d
00000340: c037 1cbd 8ea9 3abd 4e4a 113e eda8 98bd
00000350: 8a6d 35bd 484e 0ebe 6945 a4bd 9864 c73d
00000360: 5cd4 6ebd cdfb 0fbd 0f60 b03d 5d84 e4bd
00000370: a3fe 4e3d 3890 1bbe a765 c63d 33dc 923c
00000380: 4245 8abe af1d e1bc 954e 8a3d e2e0 0bbd
00000390: d732 c23d 1d2b 5ebe b7eb 093d 927d 9b3c
000003a0: a710 f93c 4780 013e 74e1 673d 8ad7 203d
000003b0: ba12 60bd 6761 aabd 8c58 9bbd 5fb0 0ebd
000003c0: 0bed ba3d aed3 5bbd 7e43 393d 9303 633c
000003d0: bb32 d3bd f3d6 663c c74a 9e3d aae8 e8bd
000003e0: fc47 ee3d 46f8 2dbd ecb2 893d ff0c 393e
000003f0: 430b 9fbd e5f2 1b3d a76d 77bd 8ba6 aebd
0.11429043 0.14830297 -0.0879354 -0.11541076 -0.037282996 -0.10219964 -0.00886129 -0.0401712
0.13597749 -0.08468736 0.114297755 0.07812164 0.02497683 -0.10539308 -0.04193027 0.115403496
-0.0292991 0.028440773 0.13859366 -0.066271804 -0.007813095 0.06482249 -0.052638378 -0.10049121
0.038528424 -0.03994504 -0.00092573685 -0.11600561 -0.03384971 0.13416573 -0.11030222 0.08323981
0.09599769 -0.06797794 -0.050075557 -0.014624126 -0.052872486 -0.04691258 0.06798619 0.07790809
0.0885027 -0.1676167 0.009575605 -0.08927858 0.03447677 -0.0005398111 -0.03915083 -0.01785411
0.053556968 0.032633007 0.0905841 -0.015568246 -0.021218492 0.024125956 -0.043469284 0.15098669
0.077676475 0.00031442265 -0.14690602 0.026805757 0.060521647 0.03978332 0.020284962 -0.09724142
0.035149083 -0.12667148 0.074715815 0.03985183 0.08249845 -0.11001435 -0.0393935 -0.07979403
0.059203934 0.002393583 -0.0690045 -0.049492966 0.08579426 0.08996463 -0.070771 0.05743094
-0.018970076 0.04320511 -0.08017894 0.10883533 -0.11168545 -0.1092973 0.006685046 -0.15066238
0.0938647 -0.07493507 0.073154174 -0.037037577 0.09323101 0.04986226 -0.045142107 0.06634732
0.097605824 0.085813984 -0.16120861 -0.11304196 0.24468485 -0.119529195 0.1022256 -0.050422587
-0.051714376 -0.053071678 0.11018565 -0.06908767 -0.00834195 -0.024724202 -0.08073371 0.057820026
-0.017023943 -0.007330448 0.10766502 0.050625924 0.009245313 0.04980857 0.123560995 0.018228106
0.095922396 0.0062604267 -0.040606443 -0.034293283 -0.013765842 -0.022037374 0.004024718 -0.09601398
-0.21957706 0.042515095 -0.030140901 -0.09769643 -0.1095494 -0.002873923 -0.08181103 -0.012475367
0.036612634 -0.124239996 -0.03424102 -0.029403584 -0.1003223 -0.09664677 0.113851994 0.02302223
-0.00812817 0.08037363 -0.0023212216 -0.13124394 0.009970316 -0.017932747 -0.07751346 -0.031704355
0.022638047 0.0759602 -0.012331224 0.0024174585 0.09522342 -0.07791847 0.07980362 0.019544847
0.16384968 -0.093881585 0.04071128 0.0009583655 0.0021232113 0.05857007 -0.054555014 0.06240822
-0.09382414 0.0431482 0.04556341 -0.08861871 -0.07688557 0.024414945 0.045543205 0.020177804
-0.044857703 -0.13382389 -0.09799905 -0.026586981 -0.22254835 -0.14781743 -0.015301967 -0.025062291
-0.045457546 0.022538856 0.09029827 -0.102414735 -0.091754794 -0.059636395 -0.02993617 -0.07375858
0.011543013 0.11060531 -0.14891589 -0.029594606 0.012264946 0.06763441 -0.037154365 -0.024902884
-0.18854408 -0.018783301 0.022407083 0.086351015 0.17298004 0.10938324 -0.031858083 0.063709624
-0.038139105 -0.045571856 0.14188501 -0.07454095 -0.044293918 -0.1389705 -0.080210514 0.097359836
-0.05830799 -0.035152245 0.08612072 -0.11158059 0.05053581 -0.15191734 0.096873574 0.017927265
-0.27005965 -0.027479975 0.067532696 -0.03415001 0.09482353 -0.21696134 0.03367206 0.018980775
0.030403448 0.1264659 0.056611493 0.039268054 -0.05470536 -0.08319359 -0.07585248 -0.03483617
0.091272436 -0.05366867 0.04523038 0.013855833 -0.103124104 0.014089334 0.077291064 -0.11372502
0.11634824 -0.0424731 0.0672358 0.18071364 -0.0776582 0.03807344 -0.060407307 -0.08527859

network_body._body_endoder.seq_layers.2.bias f4 [128]
00000000: d353 ac3b ebd9 7ebb 93b5 b8bb 7b32 dd3b
00000010: c0ef 303a fdb9 71bb a8b2 cebb 9e2d ba3a
00000020: 92c5 dbbb e14b 2cbc e208 aebb e6e8 0ebc
00000030: 34be 123a a563 61bc b177 a63b 9db8 0dbc
00000040: a58d f8bb 222f 67bb fdb3 fcbb c0cb 123b
00000050: 98f0 09bb 78fd ffbb d424 c8bb e5d9 b3bb
00000060: e20e 94bb 8900 ecba 1439 23bb 4ca9 dcba
00000070: e601 32bc e98e 37bc 238d 18bb cb0f 8fbb
00000080: 8730 37bc 34e8 7f3b be19 533a 3776 17bc
00000090: 4197 ebbb 68a1 d1bb be23 0bbc 2787 e2ba
000000a0: 0c9d 71bb c2b5 3ebc ba6f 023c 6123 e2bb
000000b0: bf32 9bbb d5c9 3dbc 48ec 0bbb 5148 e2bb
000000c0: 70ee bab9 315c d9bb ac70 6dbb 3115 3abc
000000d0: 0134 0eb9 7c8b 33bc 220f 48bc be07 28bc
000000e0: 3a0c 20bc cd1f f9bb 0af0 82bc 8ab0 88bb
000000f0: 96b5 5ebb c0fe 1cbc 1f7a 6dbc 9e79 29bc
00000100: fc1e 25bb bad6 59bb 5603 9dbb b217 18bc
00000110: bb66 abbb b60b cdb9 242c 9bbc 4cd4 08bb
00000120: 7ec3 cbbb 54f2 24bc e14a f0bb 5a1a 8fbb
00000130: 2571 03bc 063f 08bc 74c2 1dbc 255a 12bb
00000140: f929 4438 b2b0 1b3c 6460 553b 5fd6 09bb
00000150: fa12 28bc 310f 8aba c4fa 87bb 9b0d 3bba
00000160: 2a68 f4ba 3e9b b2ba 1852 25bb b4a2 92bb
00000170: dcf0 dcbb 8eaa abbb a090 4dbb a621 5dbc
00000180: f9f3 41bc a174 f6bb 2ee5 98bb 901a 0cbb
00000190: d364 7cbb 534c 0cbc 0ebb 0dbb 4836 cabb
000001a0: 3607 87bb 51bf babb bad4 39bb 9210 e5bb
000001b0: 8a01 c7bb d6ad d3bb 752d 5ebb 459a 37bc
000001c0: bd86 3ebc c9dc c9bb 6069 88b8 4916 3fbc
000001d0: ca3e d7bb 5cab 05bc 76cb 4cbc 7731 ed3b
000001e0: 8dd4 27bb add5 2ebb f09f e3bb f2e6 d4bb
000001f0: 2166 09bc 77fd 89bb d7dc 93bb e3c3 b8bb
0.005259016 -0.0038887213 -0.0056368797 0.0067504025 0.0006749593 -0.003688454 -0.0063079186 0.0014204269
-0.006706902 -0.010516138 -0.0053111175 -0.0087225195 0.00055978005 -0.013756667 0.0050801863 -0.008649972
-0.0075852447 -0.0035275896 -0.007711886 0.0022399276 -0.0021047946 -0.0078121983 -0.006107906 -0.0054886215
-0.0045183757 -0.0018005531 -0.0024905847 -0.0016835122 -0.01086471 -0.011203506 -0.0023277483 -0.0043658963
-0.011181003 0.0039048316 0.0008052847 -0.009244493 -0.0071896617 -0.006397415 -0.008492408 -0.001728271
-0.003686729 -0.011640014 0.007961208 -0.00690119 -0.004736274 -0.011583765 -0.0021350551 -0.0069055934
-0.00035654334 -0.0066333045 -0.0036230488 -0.0113575915 -0.00013561548 -0.010958549 -0.012210639 -0.010255752
-0.00976854 -0.007602668 -0.0159836 -0.0041714357 -0.0033982745 -0.0095822215 -0.014494448 -0.010343937
-0.002519547 -0.003323956 -0.0047916574 -0.009282993 -0.0052307523 -0.00039109372 -0.018941946 -0.0020878492
-0.006218373 -0.010067541 -0.007333145 -0.004367155 -0.008022581 -0.008315807 -0.009628881 -0.0022331562
4.676913e-05 0.009502577 0.0032558674 -0.0021032316 -0.010258431 -0.0010533092 -0.0041497666 -0.0007135511
-0.0018646766 -0.0013626588 -0.0025225934 -0.004474962 -0.00674258 -0.0052388376 -0.003136672 -0.013496792
-0.011837953 -0.0075212275 -0.004665992 -0.0021378137 -0.0038512244 -0.008563119 -0.0021626386 -0.0061710216
-0.0041207327 -0.005699076 -0.0028355555 -0.0069905007 -0.0060731815 -0.006459932 -0.0033901606 -0.011206214
-0.011628804 -0.006160353 -6.504613e-05 -0.011663028 -0.0065687643 -0.008158531 -0.012499681 0.0072385627
-0.0025608868 -0.0026677654 -0.0069465563 -0.0064972574 -0.008386166 -0.0042111236 -0.00451241 -0.005638586

action_model._discrete_distribution.branches.0.weight f4 [3, 128]
00000000: d213 d33b 1c73 14bb 9b60 2abb d908 2e3c
00000010: 4225 1b3b d698 213c aa46 dbbb 32d4 4c3c
00000020: a0f6 adbb 9b5f 8fbb fe61 d33b 913b b0ba
00000030: 0056 8ebc 7d2b a63a b7f7 83bc 3189 633a
00000040: 67dd 39bb 7020 62bb b785 6ebc 72f8 1bbc
00000050: 09f9 ea3b b354 c4bb 0660 15ba 41e8 453c
00000060: f9e6 cbba 37b8 953b 2995 323c 793f 6e3b
00000070: 9ef0 bdbb 9d8d 10bc 934b 653b 12af 58ba
00000080: 6cc5 83bb eb9b 943c 9e81 c33b adfd 41bb
00000090: ed25 aabc 6e0f 993a bc20 0f3b 252d 80bb
000000a0: c231 7f3c 750c 033c e1c6 953c 1308 d23c
000000b0: 4de7 f0ba e50c 26bc 0f62 953b 273a 303b
000000c0: 4a2a b6bb c3b6 7abb 93a2 423c 258f 71ba
000000d0: 2ce6 1e3c 559f 8e3b 9f01 b7bb 9816 8a3c
000000e0: 56e9 743b 1f75 a1bc 5a67 d03b 2a12 543c
000000f0: 4472 4ebb 811d 0bb9 5824 89bc 40d0 b43b
00000100: f2ce d43b e14a 1ebc 2dea 6f3c 73af e93a
00000110: 5d80 d03b e513 94bb 0ba4 67bc a340 543c
00000120: dc21 39bb a7e3 cc3b 80db 373c 4f53 a03b
00000130: 552a c8ba 9b0a ddbb 6fad 9aba 7860 0fbc
00000140: 08c3 1dbc f322 ce3c e1d1 013c 1f8c 9a3c
00000150: 50f2 05bc 0f0b 6ebb 7387 a5bb 8ec1 a4bb
00000160: 3619 bd3c fe13 283c 7500 133a 89b6 27bc
00000170: b3b6 15bc a8ec 0a3c 6dd9 733b 8aa1 a03c
00000180: 261a d439 8c18 60ba eadf e23b c997 1f3c
00000190: 822c c6bb ffc1 493c 8bf0 6ebc 5071 e3bb
000001a0: f9a3 d13b 67a1 4c3b 4d26 6abc bf75 3e3c
000001b0: 7b52 83bc 0401 1dba 8622 0a3c dec5 c1bb
000001c0: f283 0dbc 7115 4dbc f26c 0fbc a338 b9bb
000001d0: b377 013c 2462 41bb 758b b9bb 8653 6a3b
000001e0: ab4e 0d3b 5bb0 393c 76e8 0f3c 38a4 10bc
000001f0: dfbe f13b 4021 2d3c b0d1 86bb 14f6 be3b
00000200: e147 9dbc 0e9d 2a39 9212 3d3b c3cc a33c
00000210: 4175 593b 2593 703a 3cc5 8cba 5c1b bfbc
00000220: 258a 1cbc 6172 35bc 4750 5e3c e4ec c3bb
00000230: 49f3 80bc 69eb 86bb a13a 50ba 40b8 4b3a
00000240: b4cd cfbb 7fb0 af3b dc76 c8ba 1b32 733c
00000250: 00b3 b939 9358 c63a f91d a3bb 3a4e 99ba
00000260: a26f 3e3b 221e 3cbc 8d3a 98bb 910c d8bb
00000270: b5fa 98bb 0d9f 2dbc a37f 57bc a18a 463c
00000280: 3fac bfbb 0aa7 273c 485e 783b 0654 5e3c
00000290: 8d92 8ebb 95f8 093b 8a7c afba 3e6c e9bb
000002a0: 9e50 17bb cc47 40bc 74ed d439 544b 3dbb
000002b0: feb4 4e3b 0ae1 3bbb 0e6f 8a3c 2933 bebb
000002c0: 734f 9f3c 2627 1a3c 9769 253b b015 7aba
000002d0: e53d 8c3a 518e a7ba 6bfb 36ba 0372 9b3b
000002e0: d03d b2ba f23e 1b3b 8ccb 863c 14c4 c0bc
000002f0: 6917 4e3c c724 843b 2f80 35ba ef7e 85bb
00000300: 8b50 33bd e5ae 8539 c256 b03a acd4 623c
00000310: 42f6 26bc 6ad2 993c c02f 65bc e6aa d9bb
00000320: 2aac 7b39 556e 963c 0678 9a3b 0b93 36b9
00000330: cc32 23bc b9b0 573c df54 f83b 23f6 11bc
00000340: ad4b 8c3b 1d9f c33b 34a7 e43c 47ea 8dbc
00000350: e853 1f3a 8f4b 77bc 4a33 69bc cfb9 813c
00000360: c5f6 8b3c 5515 35bc f946 e9ba 0b9d 8c3b
00000370: 5f5d 88bb da23 4e3b 3716 00bc 36d3 4c3c
00000380: 0371 5bbb 98c6 f33b 14d7 873b 7590 8abb
00000390: fff8 9bbb 6058 4a3c 7e8a 083b 5f58 b6bb
000003a0: 95ad b13a f1c5 113b 8862 103c 717f c23a
000003b0: fc0b a53c bc6a 943b 7fee fcba 9e37 09bb
000003c0: fab5 9a3b a5ed 83bc 000c b2bc 6239 2a3c
000003d0: c06a 013b 1673 e63b de4a 49bb 7d08 963c
000003e0: c9d1 8ebc 8358 7bbc 00d1 c5bb 2e1f 00bc
000003f0: 247f 4ebb cee7 2e3b db6f 35bc 82bb d6ba
0.0064415717 -0.0022651618 -0.0025997523 0.010622227 0.002367333 0.009863099 -0.0066917734 0.012501763
-0.005308941 -0.0043754107 0.0064508906 -0.0013445487 -0.017374992 0.0012677755 -0.01610933 0.0008679806
-0.0028360726 -0.0034504198 -0.014558247 -0.009519683 0.0071708006 -0.0059915422 -0.00056982075 0.012079299
-0.0015556506 0.0045690793 0.01089982 0.003635375 -0.005796506 -0.008822826 0.0034987673 -0.00082658336
-0.0040213373 0.018140754 0.0059663793 -0.0029600665 -0.020770038 0.0011677572 0.002183958 -0.0039116316
0.015575828 0.007998575 0.01828331 0.025638616 -0.001837948 -0.01013491 0.0045588086 0.002689013
-0.0055592405 -0.0038255907 0.011879581 -0.00092147506 0.009698432 0.00435249 -0.00558491 0.016856477
0.0037370524 -0.019709168 0.0063599767 0.012943784 -0.0031501213 -0.00013267064 -0.016740963 0.0055179894
0.0064943964 -0.009661407 0.014643234 0.0017828777 0.0063629583 -0.004518973 -0.014138232 0.012954864
-0.0028248942 0.006252724 0.0112217665 0.0048927437 -0.0015271405 -0.006745649 -0.0011800955 -0.008751027
-0.009629019 0.02516315 0.007923574 0.018865643 -0.008175448 -0.003632251 -0.005051547 -0.0050279563
0.02308331 0.010258673 0.0005607673 -0.010236391 -0.009137797 0.008479275 0.0037208453 0.019608278
0.00040455273 -0.00085485796 0.0069236653 0.009740778 -0.006047786 0.012314319 -0.014583717 -0.006940998
0.006397721 0.0031224133 -0.014291358 0.011624753 -0.01603054 -0.0005989226 0.008431083 -0.00591348
-0.008637415 -0.012517319 -0.008754002 -0.0056525036 0.007902074 -0.002950796 -0.0056623765 0.003575535
0.0021561782 0.01133355 0.00878345 -0.008828215 0.00737749 0.010567009 -0.004114352 0.0058276746
-0.019199314 0.00016270971 0.002885018 0.019995099 0.003318146 0.00091771997 -0.0010739933 -0.023328476
-0.009554421 -0.011074633 0.013568944 -0.0059791673 -0.015741007 -0.0041174185 -0.00079433067 0.0007771291
-0.0063416604 0.005361616 -0.0015294212 0.014843489 0.00035419315 0.0015132598 -0.0049779383 -0.0011696287
0.0029058238 -0.011481794 -0.0046456517 -0.006593295 -0.0046685585 -0.010597003 -0.01315299 0.012118013
-0.0058493908 0.010232696 0.0037897993 0.013569837 -0.0043509663 0.0021052707 -0.0013388556 -0.007123499
-0.0023088823 -0.011735868 0.00040612707 -0.002888401 0.0031540985 -0.002866807 0.016898658 -0.0058044386
0.019447064 0.009408748 0.0025239938 -0.0009539975 0.0010699598 -0.0012783502 -0.0006980213 0.004743816
-0.0013598744 0.0023688641 0.01645448 -0.023530997 0.012578824 0.0040327045 -0.0006923703 -0.0040739696
-0.043777984 0.00025498043 0.001345359 0.01384465 -0.010190548 0.018777091 -0.013988435 -0.006642687
0.00024001361 0.018363157 0.004714015 -0.0001741165 -0.009960841 0.013164693 0.007578477 -0.008908781
0.004281482 0.0059698955 0.02791176 -0.017323626 0.00060778717 -0.015093698 -0.01423342 0.01583567
0.017085442 -0.011052449 -0.0017797641 0.004291182 -0.0041615213 0.0031454475 -0.007817796 0.0125015285
-0.0033484108 0.0074394457 0.0041455124 -0.0042286464 -0.0047599073 0.012350172 0.00208345 -0.005564734
0.001355576 0.0022243226 0.008812554 0.0014839006 0.020147316 0.0045293253 -0.0019297152 -0.0020937691
0.0047214003 -0.016104529 -0.021734238 0.010389658 0.0019747466 0.0070327623 -0.003071479 0.018314594
-0.017434018 -0.015340927 -0.0060368776 -0.007819934 -0.0031508887 0.002668846 -0.011074032 -0.0016382786

action_model._discrete_distribution.branches.0.bias f4 [3]
00000000: 8fed f83a 50bc 893a 0cfc 29bb
0.0018991696 0.0010508392 -0.0025937585

action_model._discrete_distribution.branches.1.weight f4 [2, 128]
00000000: fb99 12bc aed3 b9bc 9ac3 2cbb ad33 d13b
00000010: 333f 93ba 6316 d13a 7ea0 2abb 5493 12bc
00000020: 3e34 173b 5d39 3cbc a74d 02bc 42a0 1f3c
00000030: ea96 7ebb 7b14 c739 dfa3 26bc aaf3 753c
00000040: 0f8c ec3b e36e 8e3b a696 59bc dd71 0a3c
00000050: c0a9 9d3a 830d 3239 c79b eb3b e087 173c
00000060: ba0b 793a c6b3 2c3b 49cf 28bc 3dec b9bc
00000070: 2513 703b 4642 1d3c 6395 a1bb f5a9 013b
00000080: 27ef 29bb eb3c 9c3c c5d6 19bc 92bb 143c
00000090: 0a1c 5539 1c0b d0ba c7fb c0bb c2c0 70bb
000000a0: d073 433c 8973 68bb 0b93 afbc 7332 87ba
000000b0: 369e 73ba a9b3 26bb 3e32 b7bb b325 b039
000000c0: 3434 efbb b315 1dbc 9ce1 e8b9 e6d7 0e3c
000000d0: 590f 623c 15ed d83b 384b fb3b 9a82 133c
000000e0: 2363 813a d10a ba3c e372 1a3c e631 79bc
000000f0: 16a2 dfba 1648 3cba 356c c0ba 0e3f 8bbc
00000100: 1cfc 3fbc daf4 57bc a24f 083b 6462 5b3c
00000110: aad2 de3a 37b6 7e3b 15d8 95bc 6531 2abc
00000120: 047e e3ba 0503 723b 12a7 2dbb cfed 24bc
00000130: e0f2 f0ba 1ccd 0d3c af69 503a 11bb 443c
00000140: a4cf fdbb 72a5 553c 8a9e c83c 4ddb 5a3b
00000150: 481a 92bb 1546 133c 85d4 3f3c 0513 dd3c
00000160: a2aa 393c 9380 26bc 89b5 8b3b 6365 e1bb
00000170: 7016 b7bb d4f3 783b 66b3 603b 2a39 dc3b
00000180: a464 c4bb 9532 2d3c a5f7 623c 1960 d5bc
00000190: cfb3 df3b 75eb 343b fa32 e0bb e531 1c3c
000001a0: c814 b5bc 327a cabb f321 aa3a 503c a63b
000001b0: ddb4 7d3c e96e 7a3c c454 a4bb c8a5 0bbc
000001c0: 83d9 ebba d4ad 01bc 68fc 97bb 9716 eb3b
000001d0: 0525 033c 39fc 41bc 0154 643c 620f 223c
000001e0: 1200 97bc 27c3 323b 8abb 493c 48f4 8b3b
000001f0: a77e 243c d735 513a f930 83bc 63e8 bf3b
00000200: 24cc c93c f1da 853b 0099 21bc b0be 92bb
00000210: ac7c 7d3c 023f 06bb c9c1 49bb 8234 e63c
00000220: a517 e03b 263f 973b cb94 47bc 51df d4ba
00000230: 4e2f 873b 5688 ed3a b398 2a3c 9c85 0c3c
00000240: a789 1dbb d5ad a6b9 9ad5 89bb bfbc 83bb
00000250: 7c71 d83b b16d cb3b 08ac 5a3c 3ca4 263c
00000260: cb19 2bbc 9ae5 18ba f0a8 08bc 3eb6 07bc
00000270: 33c4 bb3b 4cf6 be3b 63cc a1ba 4933 7ebb
00000280: 2484 efbb a116 d6bc bc2c b13b 3b91 af3c
00000290: 4ba8 6f3c 9c37 e2bc b987 2a3c 3af4 c3bb
000002a0: 4fa7 fd3b 048a edbb 82ae 893b cb24 9fbb
000002b0: ede5 e2bb 004c d8bb ed58 a83b 3eac 0c3c
000002c0: 008b 223c 38e8 3a3b b849 6f3a 21f7 883b
000002d0: 7b7f b8bb 9093 23ba eb57 8c3a 1163 043c
000002e0: 2cae c93b e092 97ba 05b7 ea3b fccf 333c
000002f0: 600d 3f3c 2b0c 15ba ef79 ccb9 aee2 fbba
00000300: 8d6a cf3c 1333 ae3b 58f6 0f3b c949 103b
00000310: 1d1b 12bc 9caf e6bb c1bd 63bc c03d 283c
00000320: 1fdb 1d3b 8b03 91ba 8e04 3fbc f5e0 25bc
00000330: d754 c63a c6cd cf3b 884b 9cbb 696e c6ba
00000340: ba88 233c 11fd eeb9 6729 683b 6667 ba3b
00000350: 1a94 213b f1d2 42ba 4a22 8c38 709a 20bc
00000360: ffdc 043c bf0d 9dbb 71bc 03bb 3162 37bc
00000370: 86d1 883c 3c8e 78ba 3370 ec3b 3fbb c53b
00000380: 0350 1abc 5e07 bd3b bac2 8f3a 7e12 05bb
00000390: 9a89 c0bb 08d7 44bc 2870 31bc 5e98 d73b
000003a0: 82a4 9ebb 6eb2 8bbb 7a24 80bc 68db 363b
000003b0: f5fc 4dbc 00ff ddbb 7239 903c 1f39 4abc
000003c0: 60c5 ea3b 88a8 263c d24c 903c 321c 0d3b
000003d0: 55c7 2ebc 7803 5b39 4bfb b33a 38e0 9cbc
000003e0: 06e3 9cba 49dc e1bb c450 153c b7a4 0b3b
000003f0: 6974 863b cd7a fa3b b316 c43b 3656 993a
-0.008947845 -0.022683945 -0.0026361705 0.006384334 -0.0011234045 0.0015952106 -0.0026035602 -0.008946259
0.002307191 -0.011488286 -0.007953084 0.009742798 -0.0038847276 0.00037971497 -0.010170906 0.015011707
0.0072188447 0.004346715 -0.013280546 0.008449999 0.0012028739 0.00016980436 0.007190201 0.009248704
0.00095003436 0.002635227 -0.010303327 -0.022695655 0.0036632505 0.00959832 -0.0049311384 0.001978514
-0.00259299 0.019072017 -0.009389584 0.009077923 0.00020323708 -0.0015872451 -0.005889389 -0.0036735986
0.011929467 -0.0035469255 -0.02143242 -0.0010314718 -0.00092932896 -0.0025436676 -0.005590706 0.00033597424
-0.0072999243 -0.009587693 -0.0004441858 0.008718466 0.0137976045 0.0066200593 0.007668879 0.009003306
0.0009871464 0.022710236 0.009426805 -0.015209651 -0.0017061855 -0.00071823725 -0.0014680686 -0.01699784
-0.011717822 -0.013180936 0.0020799418 0.013390157 0.0017000039 0.0038865933 -0.018291513 -0.010387753
-0.0017356281 0.003692807 -0.0026497287 -0.010066464 -0.0018382929 0.008654859 0.00079503184 0.012007491
-0.0077457 0.0130399335 0.02448966 0.0033394874 -0.0044586994 0.008988877 0.011708383 0.026986608
0.011332186 -0.01016249 0.004263584 -0.0068785413 -0.0055873916 0.003798713 0.0034286617 0.0067206817
-0.0059934426 0.010571142 0.013852988 -0.0260468 0.006826855 0.0027606164 -0.0068420144 0.00953338
-0.022104636 -0.0061791176 0.0012980088 0.005073108 0.015485016 0.015285232 -0.0050149877 -0.008523412
-0.0017993901 -0.007914979 -0.0046382435 0.007174324 0.008004432 -0.01183992 0.013936044 0.009891363
-0.01843265 0.0027276964 0.012312779 0.004271064 0.010039962 0.000798074 -0.016014563 0.00585656
0.024633475 0.0040849377 -0.009863138 -0.004478298 0.015471619 -0.0020484333 -0.003078567 0.02810121
0.006838756 0.004615682 -0.012181471 -0.001624087 0.004125512 0.0018122296 0.010412383 0.008576777
-0.0024038346 -0.00031791502 -0.0042063715 -0.004020303 0.0066053253 0.0062081446 0.0133466795 0.010170992
-0.010443161 -0.0005832553 -0.008341059 -0.008283196 0.005730176 0.0058277007 -0.0012344237 -0.0038787893
-0.0073094536 -0.026133837 0.005406944 0.021431556 0.0146275265 -0.027614407 0.010408335 -0.005980042
0.007740892 -0.0072491188 0.004201711 -0.004856681 -0.006924382 -0.006600857 0.005137554 0.008585988
0.0099208355 0.002851976 0.00091281114 0.0041798507 -0.005630431 -0.0006239945 0.0010707354 0.00808026
0.006154796 -0.0011564158 0.007162931 0.01097488 0.011660904 -0.0005685712 -0.0003900076 -0.0019217336
0.025319362 0.005316147 0.00219669 0.0022016636 -0.008917597 -0.0070399772 -0.013900221 0.010268629
0.0024086905 -0.0011063678 -0.011658801 -0.010124435 0.0015131485 0.006341669 -0.004769746 -0.0015139106
0.009981329 -0.00045583447 0.0035425068 0.0056885956 0.0024654926 -0.00074319454 6.682107e-05 -0.009802446
0.00810933 -0.0047928984 -0.0020101334 -0.011192844 0.016701471 -0.0009481644 0.0072155236 0.0060342844
-0.00941849 0.0057687005 0.0010968067 -0.0020305212 -0.0058757784 -0.012014158 -0.010829963 0.006579443
-0.004841388 -0.004263214 -0.015642393 0.0027901772 -0.012572517 -0.006774783 0.017605517 -0.01234272
0.007164642 0.010172017 0.017614756 0.0021531698 -0.010667642 0.0002088676 0.0013731507 -0.019149885
-0.0011969514 -0.006892715 0.009113494 0.0021307894 0.0041032326 0.0076440335 0.0059841513 0.0011698666

action_model._discrete_distribution.branches.1.bias f4 [2]
00000000: 3b6c dbba a06c db3a
-0.0016740629 0.0016740747

exp_avg f4 [128, 9]
00000000: 09d3 8bb8 c0aa 1e38 a257 8836 77b0 feb9
00000010: d377 8b39 93ac 1bba 17fb 0739 3052 24ba
00000020: 9554 8939 82b7 7238 0039 7bb9 2543 de35
00000030: e1fa f039 9b5e f2b9 1c36 81b9 d275 c0b9
00000040: e5ee be39 1143 0dba a894 e239 9c87 30b9
00000050: 521e 5fb7 7e11 d639 e635 cdba bea3 74b8
00000060: c2eb edba 20f9 f4b9 74f8 e9ba c4bf 58b7
00000070: d608 1137 e95e cdb6 e7b0 d4b8 f064 9136
00000080: 9ebe d938 c099 c2b5 fb8d 0eb9 5067 c5b6
00000090: 0496 f338 ef59 ad38 52a0 6537 80b6 3537
000000a0: f2d6 88b9 f406 a039 f89d 5db9 5f14 f738
000000b0: 873d 93b9 a2b5 a03a 2819 17b8 8fc7 15b7
000000c0: 8af5 be3a 86de 35bb a2c6 0b3a ab4c 3fbb
000000d0: bc1a a6b9 8ffc 45bb 8ecc 9039 e077 ab38
000000e0: 3e2c 4637 43cb 35ba 7e50 86b9 7cd9 10ba
000000f0: 3ee7 4cb9 ce50 8cba a46c 57b9 f850 6739
00000100: 305c 34b8 8dcc 27b6 48f4 da38 1184 b8b8
00000110: 0cea 6db7 0ba0 5eb8 238d 1cb9 2297 35b8
00000120: 25d0 0338 12a3 a038 0a78 f9b6 5225 9f38
00000130: 1fb7 84b8 feca 1139 9b6b 77b8 38da 9638
00000140: c6a8 c5b8 94d9 2a38 6efb 8d38 957d d0b6
00000150: 123c f4b6 59bd d5b8 0b57 7838 6d2b b5b8
00000160: 627d 8eb8 6867 09b9 2ace 9738 dfa9 84b8
00000170: c40b 4cb5 ea6e e0b9 f282 ccb9 0498 38b9
00000180: 1988 a0b9 4674 c7b9 1294 ebb9 8749 a238
00000190: de32 dfb8 e2d5 e136 ac46 8238 9017 3337
000001a0: 8cfc fc39 12b1 fa38 104b 8c39 c0e9 6738
000001b0: 0b96 d5b9 2227 55b8 ab71 4e37 a9dd 86b9
000001c0: 5058 793a 2535 3539 286b 7c3a e27a e739
000001d0: 47c3 853a f893 11b7 2470 5a37 8cf1 9eb5
000001e0: f7cf 85b7 1949 7338 e626 51b7 5a00 8c38
000001f0: fe83 7237 2230 8938 1450 4238 41e3 f4b8
00000200: cab6 0437 107f d4b6 5ee0 b0b8 5165 4d38
00000210: 46eb 95b8 bda2 6db8 1666 e3b8 6c57 6039
00000220: 88d4 9f36 f985 d136 16b1 0739 d591 f1b9
00000230: 55b6 c938 949d 0bba 6afa e9b8 a7e7 07ba
00000240: ccd0 bc35 0ba2 79b8 39de 96b5 6ef3 f038
00000250: 7bb1 20b9 b952 32b8 e193 01b9 20eb 9138
00000260: 42be 3fb9 3195 4c39 2a9a 3239 33ac b8b6
00000270: a33f 0aba 8b78 44b9 ccda 0eba 00ad 02b9
00000280: 38fb 5fba 7c39 26b9 cd5a ea38 46e8 ea38
00000290: 675f 97b6 5859 4cb8 5015 2bb9 6905 0c39
000002a0: 4e15 13b9 e81e 27b9 914c 60b9 1818 22b9
000002b0: 888c 6cb6 ea09 7736 9495 b237 e442 9c39
000002c0: 888f 35b9 3373 8439 2d59 5039 44e8 c839
000002d0: c46a bdb8 5479 7e38 b1ed 2935 443c 2537
000002e0: 0287 1039 d8ea a7b8 fe01 f538 c1b6 c038
000002f0: f8d1 3939 8e29 2b39 1191 cfb8 cf8c ad35
00000300: db52 0839 be26 0fba 25b4 7239 62b7 0fba
00000310: 7c63 1e38 0499 1fba 173c fcb9 1f84 0c39
00000320: c6a5 dfb7 6aaf 053a 1e8d 133a cbf5 5639
00000330: 6c1e dc39 ee52 793a 8de3 113a facf aeb9
00000340: 9895 1039 8275 bcb7 f8e5 1eb9 96e8 0e3a
00000350: 272d 24ba 2a6e 293a 83cb ac38 2d70 183a
00000360: 8832 f338 903a fcb7 b4a3 4836 9c04 1ab9
00000370: 1764 82b9 3ca9 4bb8 a4f5 5ab9 7735 a0b9
00000380: e043 94b9 90cb 96b5 02f8 3d38 1888 b7b5
00000390: fefb 03b5 fc10 e9b6 143e 8736 90b8 c5b6
000003a0: a234 9bb6 fec9 15b7 d8cb ad37 f340 a339
000003b0: dedd 68b6 8a5d a93a 3aa8 6738 5ca0 203a
000003c0: 9653 8339 f43e a73a cdf8 0039 9aea 74b9
000003d0: bf30 51b9 6615 3a37 cc99 2a39 9cd3 a739
000003e0: e848 9039 9b11 8239 40c1 0c3a b033 a639
000003f0: 2992 bbb5 9a8c 69b6 1115 1033 ae94 2d34
-6.667345e-05 3.782916e-05 4.0633176e-06 -0.00048578132 0.00026601422 -0.00059384963 0.00012968142 -0.00062683504
0.00026193695 5.78682e-05 -0.0002395846 1.655983e-06 0.00045963287 -0.00046228323 -0.00024645112 -0.00036708877
0.00036417614 -0.0005388717 0.00043216837 -0.00016835186 -1.3298895e-05 0.00040830293 -0.0015656322 -5.832663e-05
-0.0018151926 -0.0004672492 -0.0017850534 -1.2919252e-05 8.644731e-06 -6.120525e-06 -0.000101418984 4.3330874e-06
0.000103828716 -1.4498873e-06 -0.00013595067 -5.8830847e-06 0.000116150855 8.266034e-05 1.3686791e-05 1.0830932e-05
-0.00026100088 0.0003052276 -0.0002113505 0.00011781672 -0.00028083866 0.0012261162 -3.6024634e-05 -8.927555e-06
0.0014569026 -0.0027751043 0.0005332028 -0.0029189985 -0.00031681906 -0.003021035 0.00027618225 8.176244e-05
1.1812021e-05 -0.00069348904 -0.00025618443 -0.0005525572 -0.000195411 -0.0010705234 -0.0002054447 0.0002206004
-4.30012e-05 -2.5004003e-06 0.00010440551 -8.798403e-05 -1.4180794e-05 -5.3077976e-05 -0.00014929897 -4.3294516e-05
3.1426684e-05 7.659769e-05 -7.4347527e-06 7.588662e-05 -6.3283594e-05 0.00013903898 -5.8989604e-05 7.193204e-05
-9.4251285e-05 4.0733794e-05 6.770236e-05 -6.2135027e-06 -7.2787598e-06 -0.000101919 5.9208873e-05 -8.638841e-05
-6.794442e-05 -0.0001310386 7.238642e-05 -6.3258914e-05 -7.6013043e-07 -0.00042807247 -0.00039007474 -0.00017604238
-0.0003061898 -0.00038042868 -0.00044933014 7.7384575e-05 -0.000106429434 6.730422e-06 6.212047e-05 1.06747175e-05
0.00048253348 0.00011953911 0.00026758807 5.529239e-05 -0.00040738317 -5.0819603e-05 1.2305022e-05 -0.0002572362
0.0009511756 0.00017281303 0.00096290046 0.00044151308 0.0010205292 -8.677125e-06 1.3019922e-05 -1.1842217e-06
-1.5951677e-05 5.8003792e-05 -1.24664275e-05 6.675786e-05 1.4455056e-05 6.5416345e-05 4.6327783e-05 -0.00011677156
7.910372e-06 -6.3328844e-06 -8.4341256e-05 4.8970167e-05 -7.148697e-05 -5.6656765e-05 -0.000108432185 0.00021394872
4.763311e-06 6.244282e-06 0.00012940573 -0.00046075755 9.618389e-05 -0.000532591 -0.00011156949 -0.000518436
1.4067859e-06 -5.951714e-05 -1.1240546e-06 0.00011489434 -0.00015324906 -4.251555e-05 -0.00012357488 6.957934e-05
-0.00018286056 0.00019510534 0.00017032833 -5.503674e-06 -0.0005273765 -0.00018736922 -0.00054494734 -0.00012462214
-0.00085442094 -0.00015852408 0.000111749025 0.00011201254 -4.511257e-06 -4.8720598e-05 -0.0001631577 0.00013353456
-0.00014026949 -0.00015937875 -0.00021390828 -0.000154585 -3.524854e-06 3.681164e-06 2.1288906e-05 0.00029804476
-0.00017314975 0.00025262832 0.00019869646 0.00038320024 -9.032109e-05 6.0671315e-05 6.330329e-07 9.848798e-06
0.00013783204 -8.0069236e-05 0.000116828814 9.189314e-05 0.00017721194 0.00016323311 -9.89755e-05 1.2930485e-06
0.00013000837 -0.000546079 0.00023146028 -0.0005482343 3.7762788e-05 -0.000608817 -0.00048109956 0.0001340066
-2.6660866e-05 0.0005099686 0.0005628633 0.00020500195 0.00041984336 0.00095109537 0.0005565219 -0.0003334282
0.00013788638 -2.2466065e-05 -0.00015153724 0.0005451528 -0.0006262832 0.0006463254 8.239506e-05 0.00058150553
0.00011596555 -3.0068011e-05 2.989761e-06 -0.00014688302 -0.00024870105 -4.8556583e-05 -0.00020881608 -0.00030557413
-0.0002827933 -1.1235115e-06 4.5292087e-05 -1.3674171e-06 -4.9168e-07 -6.9459184e-06 4.0305404e-06 -5.8925434e-06
-4.6254872e-06 -8.928122e-06 2.071813e-05 0.00031138174 -3.4699838e-06 0.0012921554 5.5231365e-05 0.0006127411
0.00025048543 0.001275985 0.00012299717 -0.00023357049 -0.00019949953 1.1091446e-05 0.00016269757 0.00032010383
0.0002752014 0.0002480865 0.00053693727 0.00031700497 -1.3975124e-06 -3.4801546e-06 3.3546772e-08 1.616597e-07

exp_avg_sq f4 [128, 9]
00000000: 1327 5e35 bef9 0f33 4661 2a2e d60e 2636
00000010: e970 be36 0b61 3c36 c7bd cf36 4845 ec35
00000020: 9e4f e636 6cb8 ab34 a540 5d35 29b7 5730
00000030: 1972 a236 ca9d ae36 98b4 ce35 8b24 5e36
00000040: c9a2 5836 e5a3 f036 b58b a236 94cd 5035
00000050: 4000 db30 d003 5e37 ecec 2a38 cbe9 7836
00000060: f22d 3f38 820c ec36 dfdc 5c38 d7a6 aa34
00000070: 828a 0435 071c 1330 94d7 8b35 f188 fb35
00000080: ba9e 2535 47c0 a835 6e75 9035 5ce5 3b36
00000090: 88ea af35 ea50 3d34 f476 cb2f 454a 8637
000000a0: d362 ea36 2086 1a37 328f d736 dcd7 1037
000000b0: ef05 0f37 f724 3c37 0bc2 d035 7bdc 1931
000000c0: 2581 8a38 957d 6438 3722 4d38 93ad 8138
000000d0: bb43 cb38 2325 8f38 ae89 8636 7709 e534
000000e0: ac39 4930 a330 3738 aed5 4737 7443 2138
000000f0: 8df4 3137 8068 8338 6932 6437 dbdc 4136
00000100: 1072 a934 20e1 0930 b49c 2138 8628 4237
00000110: e6ee 0138 4591 2337 8b37 4038 337d 5e37
00000120: 69f9 4635 ab3c df34 f8cb c32f 1b95 5236
00000130: a13d 9d35 d9f6 8536 dc4b 4b35 7bd0 0937
00000140: f496 de35 c898 ab34 28e1 0c35 75d1 e62f
00000150: cfba cc31 3bbd 9c35 dde6 d634 cfce 6035
00000160: 9352 0b35 b98c 0136 2a29 8d36 78aa 0c35
00000170: d79c 0330 e800 7038 2cde f736 47c4 6138
00000180: ad23 af36 a2b3 b338 35ae eb36 cd69 0c36
00000190: 36fb 8b34 c092 e22f 314c cb37 a6dd 2237
000001a0: 22ff a537 36ef 0e37 a3f9 f537 9396 3f37
000001b0: 23c5 8e36 d247 4535 9963 bb30 063d 1038
000001c0: 49c4 ba37 ba7d d637 1608 b337 64e9 5238
000001d0: 0deb e737 9713 f333 ac2f 0d32 f3cf 052d
000001e0: 5375 6f33 4295 3d35 e086 0433 dd4b 7d35
000001f0: af4c 3233 df07 7035 cd1b 6d34 d77b a334
00000200: 92c6 9e2f d9f7 3f34 2376 5335 f0d8 fa34
00000210: 8b3f 1635 bdf7 5235 e772 ac35 accc 5e35
00000220: 9867 6433 2290 892e 07c1 e034 2e98 b136
00000230: 0b2b 7734 ce6a ed36 1802 a634 90c5 e036
00000240: 562e e333 8af5 5a34 5e4d 912f 51d1 8235
00000250: 3566 a635 1b4b ce34 bf1e 5835 4344 4935
00000260: 6acf ec35 dc15 a835 7649 da34 db94 ce2f
00000270: 8207 1837 9be1 be35 354a 3937 a10c 5435
00000280: 1285 be37 da40 d535 6371 9634 bd6a b734
00000290: 0995 ba2f f318 1335 b29c a435 a499 d934
000002a0: 65fb 5f35 1389 3435 471d fb35 1ea8 d234
000002b0: 1f9f 0c35 eeed f22f 4c76 db31 a106 a835
000002c0: b0d3 e434 e631 7135 375b 1535 cfe0 0a36
000002d0: 99ea bf33 d365 2434 2ea8 362f bb00 0b31
000002e0: b335 d434 a9f5 1334 6d10 9834 03a8 3c34
000002f0: 3366 2f35 fe2c e735 6693 e133 dd27 e72e
00000300: fe48 2137 a673 2137 bdaa ea36 4c53 3837
00000310: 3bc0 b336 981e 4337 f78a 9336 6447 3035
00000320: 9a99 8b30 fe42 8038 4efc 5c37 59b7 4938
00000330: a01a 3d37 90d1 8938 8698 7c37 9b96 2e36
00000340: 2448 c234 41a2 7530 2bc2 f636 e010 a237
00000350: f676 7436 2a01 b937 865d cb36 719b cf37
00000360: 4ac7 3935 9866 d633 08f6 cf2e 7daf 1137
00000370: 3062 d035 1665 0037 38a8 9a35 9c33 3737
00000380: f7bc db35 cc7f 8333 ebfa 0634 712b d62e
00000390: 1723 b530 efaf 8a34 ee4e c133 0279 4634
000003a0: cd8d f633 2842 e534 88ad 9136 54e8 0c35
000003b0: eb40 2530 fcef 4038 c440 8437 7b40 2c38
000003c0: c45f 8937 9327 8938 8cbe 9937 5b46 d035
000003d0: be4c f634 9fe2 0830 c393 9037 a5b3 3536
000003e0: ab95 7d37 190e e535 2566 e837 f6eb 4f36
000003f0: 00fa e132 ef4f e431 a8b1 7d2c 6113 9a2e
8.2758305e-07 3.352192e-08 3.873992e-11 2.4744563e-06 5.6755857e-06 2.807067e-06 6.1911737e-06 1.7603534e-06
6.863803e-06 3.1985417e-07 8.2422986e-07 7.847683e-10 4.841259e-06 5.203973e-06 1.5400756e-06 3.3101849e-06
3.2281262e-06 7.171637e-06 4.8442403e-06 7.7785194e-07 1.5934418e-09 1.3233119e-05 4.075181e-05 3.7090965e-06
4.558074e-05 7.034804e-06 5.265779e-05 3.178636e-07 4.937539e-07 5.351812e-10 1.0419049e-06 1.8740812e-06
6.169827e-07 1.2572935e-06 1.0763013e-06 2.7998676e-06 1.3106774e-06 1.7631433e-07 3.7010006e-10 1.600863e-05
6.985248e-06 9.210344e-06 6.4241694e-06 8.6333275e-06 8.524846e-06 1.121428e-05 1.5553682e-06 2.238976e-09
6.604408e-05 5.4476393e-05 4.8907674e-05 6.18353e-05 9.69241e-05 6.8256886e-05 4.009539e-06 4.266146e-07
7.320533e-10 4.3675896e-05 1.19110755e-05 3.8448212e-05 1.0606961e-05 6.2660314e-05 1.3601596e-05 2.8887796e-06
3.1561694e-07 5.016023e-10 3.8531332e-05 1.1572736e-05 3.097849e-05 9.74938e-06 4.5828096e-05 1.3261381e-05
7.412369e-07 4.158113e-07 3.5615222e-10 3.137923e-06 1.1715348e-06 3.9924457e-06 7.5733783e-07 8.214377e-06
1.6584222e-06 3.1962395e-07 5.248171e-07 4.1985584e-10 5.958419e-09 1.1677979e-06 4.002858e-07 8.374745e-07
5.1901696e-07 1.930441e-06 4.2069196e-06 5.240213e-07 4.7880405e-10 5.7221303e-05 7.387038e-06 5.3826978e-05
5.2195596e-06 8.568844e-05 7.023826e-06 2.092321e-06 2.6073548e-07 4.1213433e-10 2.4234965e-05 9.707559e-06
1.9788338e-05 8.519555e-06 2.9322522e-05 1.1419545e-05 4.2548795e-06 7.349273e-07 1.3634348e-09 3.4389108e-05
2.226433e-05 2.5569334e-05 2.1342228e-05 5.0285264e-05 2.76468e-05 1.1319133e-07 8.2181195e-09 7.606349e-12
5.575323e-08 7.0625185e-07 3.0856313e-08 9.436024e-07 4.1513598e-08 8.941842e-07 2.2082459e-07 3.045122e-07
2.8881125e-10 1.7878428e-07 7.8775537e-07 4.6723972e-07 5.597182e-07 7.8591603e-07 1.284844e-06 8.299928e-07
5.3179605e-08 6.255642e-11 4.1863697e-07 5.292727e-06 2.3019327e-07 7.075584e-06 3.0921433e-07 6.6987195e-06
1.057894e-07 2.0392159e-07 2.643032e-10 9.746674e-07 1.239771e-06 3.8425136e-07 8.051101e-07 7.497767e-07
1.7643736e-06 1.2523337e-06 4.0659114e-07 3.757695e-10 9.061654e-06 1.4221763e-06 1.1044137e-05 7.899453e-07
2.271173e-05 1.5888611e-06 2.8022177e-07 3.4164069e-07 3.39391e-10 5.4798073e-07 1.2264557e-06 4.0531188e-07
8.34398e-07 6.7254695e-07 1.8709478e-06 3.923787e-07 5.2385616e-07 4.4188603e-10 6.3871877e-09 1.2518905e-06
4.2622332e-07 8.985211e-07 5.563956e-07 2.0694458e-06 8.936804e-08 1.5310734e-07 1.6612553e-10 2.0227577e-09
3.9527148e-07 1.3779812e-07 2.8324158e-07 1.7569987e-07 6.53413e-07 1.7223936e-06 1.05041906e-07 1.0511745e-10
9.613343e-06 9.623274e-06 6.99362e-06 1.0986649e-05 5.3569943e-06 1.1630029e-05 4.397119e-06 6.5668996e-07
1.0157237e-09 6.115994e-05 1.3171766e-05 4.809289e-05 1.1271477e-05 6.571703e-05 1.5055883e-05 2.6015684e-06
3.6187805e-07 8.936106e-10 7.3539754e-06 1.9319763e-05 3.6428078e-06 2.205426e-05 6.060759e-06 2.4748706e-05
6.9207874e-07 9.983813e-08 9.456974e-11 8.6835325e-06 1.5525784e-06 7.65293e-06 1.1522852e-06 1.0919666e-05
1.6371768e-06 6.123409e-08 1.2571006e-07 9.73931e-11 1.3179456e-09 2.5832512e-07 9.00162e-08 1.848421e-07
1.1481061e-07 4.270271e-07 4.3415384e-06 5.2492146e-07 6.0118904e-10 4.599987e-05 1.5765785e-05 4.1068048e-05
1.6376267e-05 6.54004e-05 1.8327752e-05 1.5517684e-06 4.5876908e-07 4.979856e-10 1.7234945e-05 2.7075669e-06
1.5114822e-05 1.7065933e-06 2.770412e-05 3.098275e-06 2.6307134e-08 6.6447607e-09 3.6052081e-12 7.0065516e-11

exp_avg f4 [128]
00000000: 8b8f 07b6 e43f 4437 76ce a637 609b e2b6
00000010: e71a 14b5 50a2 d537 d6e7 02b7 f51a 88b5
00000020: e766 5eb6 bad8 a2b6 ac96 a2b6 6b06 a7b6
00000030: be8d e9b6 d36b 12b5 de1a 87b6 f209 a036
00000040: 003f b035 2ee5 eab6 35b5 2cb7 c61c 6e37
00000050: 523b dc36 7ad4 8d36 d85c 7a37 6018 1bb5
00000060: 416c e8b6 421e b1b4 54b5 0637 9f30 c136
00000070: 3674 e733 9979 a6b6 2e4b 1c37 c14b 6c36
00000080: 6ee2 17b5 ecf0 ebb6 bcc8 59b5 9715 5e36
00000090: 772e f1b5 b2b2 b837 f463 8a37 c5ab 5b37
000000a0: c6c4 2a36 e37a 47b7 0395 33b6 a094 dbb7
000000b0: 5a89 d5b5 1769 c836 a43e 5fb6 58d6 92b6
000000c0: add0 0337 035a c536 fed0 50b6 02e2 b037
000000d0: 950a ba34 f200 e136 fd7b 5cb6 e03c d535
000000e0: 4c3c ae37 d460 6036 5670 34b7 cc3d 27b7
000000f0: 1d0b a9b6 78f0 79b6 6432 67b6 50be 7534
00000100: e0ea 6fb6 194c ea37 409f 88b6 301a ed36
00000110: 4e2f 0eb6 e9d5 16b7 2e93 f0b6 b98c 3e37
00000120: 8cb4 0ab7 c454 8d37 4cc3 0638 3bda d4b5
00000130: 8f1f acb6 2871 a6b7 7fba bc36 0b25 5f37
00000140: d71c 3bb7 36ef 9036 f852 f5b5 b248 3935
00000150: b276 9a36 d397 5cb7 5e23 45b6 4d37 c3b7
00000160: 0380 8736 a2ab f936 9aaf e9b6 d6ce 97b7
00000170: 250a 8036 7414 b836 91dc 70b6 8267 d8b6
00000180: 786a 64b7 f255 7fb6 f341 87b6 2030 23b7
00000190: 5c68 d335 8036 11b6 a2e3 ffb6 f673 1e37
000001a0: 4cf4 1938 1d0f 20b7 735a 8936 922d da36
000001b0: 2048 f633 18d7 4835 7489 9eb6 f394 24b7
000001c0: 57c3 0d37 3510 05b7 3487 2936 220d d2b6
000001d0: 379e 2d36 10a9 e1b4 1eca bcb7 6fb5 6737
000001e0: 1075 5db6 0f78 6737 58ed ce36 cdfd e636
000001f0: 47e2 9c37 a683 bb36 2471 b0b5 0866 9237
-2.020012e-06 1.1697386e-05 1.9884883e-05 -6.753413e-06 -5.5173444e-07 2.5467161e-05 -7.802582e-06 -1.0140635e-06
-3.3140475e-06 -4.8532065e-06 -4.8455167e-06 -4.977735e-06 -6.960442e-06 -5.4546143e-07 -4.0264413e-06 4.7695294e-06
1.3131357e-06 -7.0004235e-06 -1.0294189e-05 1.4192605e-05 6.5634167e-06 4.226863e-06 1.4922778e-05 -5.777747e-07
-6.926741e-06 -3.2990835e-07 8.029241e-06 5.7575085e-06 1.07779144e-07 -4.9613413e-06 9.315829e-06 3.5210835e-06
-5.658138e-07 -7.0315928e-06 -8.1130906e-07 3.3093145e-06 -1.7969422e-06 2.201772e-05 1.6497426e-05 1.309341e-05
2.5446511e-06 -1.1889936e-05 -2.6759815e-06 -2.6176043e-05 -1.5909711e-06 5.9726985e-06 -3.326605e-06 -4.376092e-06
7.856795e-06 5.8815363e-06 -3.1116065e-06 2.1086078e-05 3.46529e-07 6.7056326e-06 -3.2854725e-06 1.5887454e-06
2.0770494e-05 3.3434962e-06 -1.0754991e-05 -9.968364e-06 -5.0378862e-06 -3.7243863e-06 -3.4451014e-06 2.2886638e-07
-3.575049e-06 2.793041e-05 -4.071655e-06 7.066199e-06 -2.1187184e-06 -8.990502e-06 -7.1696913e-06 1.1357647e-05
-8.267478e-06 1.6847982e-05 3.2129974e-05 -1.5858744e-06 -5.1296734e-06 -1.9841435e-05 5.6245476e-06 1.33004605e-05
-1.1152783e-05 4.3193822e-06 -1.827807e-06 6.9023656e-07 4.6033756e-06 -1.3148371e-05 -2.9375874e-06 -2.3271563e-05
4.038216e-06 7.440759e-06 -6.964384e-06 -1.8096918e-05 3.8158782e-06 5.4860084e-06 -3.5891173e-06 -6.4493515e-06
-1.3614648e-05 -3.8047988e-06 -4.030991e-06 -9.726762e-06 1.5751098e-06 -2.1638407e-06 -7.626092e-06 9.444533e-06
3.670556e-05 -9.540262e-06 4.093448e-06 6.5022114e-06 1.1468387e-07 7.481881e-07 -4.7247686e-06 -9.809842e-06
8.449736e-06 -7.931191e-06 2.526166e-06 -6.2600166e-06 2.5871102e-06 -4.2032525e-07 -2.2505465e-05 1.3810916e-05
-3.2999706e-06 1.3796626e-05 6.166909e-06 6.8840804e-06 1.8702018e-05 5.58836e-06 -1.314595e-06 1.7452068e-05
