results/Player2/MoveAgent2D/MoveAgent2D-499992.onnx (onnx, 80934 bytes, 9 tensors)

discrete_act_size_vector f4 [1, 2]
000000 00 00 40 40 00 00 00 40
       3.0 2.0

network_body._body_endoder.seq_layers.0.weight f4 [128, 9]
000000 13 dd 0f bf 9a 45 a0 be 95 32 cf 3e 19 6f 4a be
       -0.5619671 -0.31303102 0.4046828 -0.19768943
000010 a2 75 0b be ff 57 e5 3e 05 23 e9 bd 79 01 e8 be
       -0.13619092 0.44793698 -0.113836326 -0.45313624
000020 76 1e d5 bd 08 4d 05 3f 0d 71 ab be e3 fe d7 be
       -0.104062006 0.52070665 -0.33484688 -0.4218665
000030 be fa 01 bf af bc 82 3e 06 85 94 be ad c9 ff 3e
       -0.5077323 0.2553458 -0.2900774 0.49958554
000040 9a 3e a1 3e d7 90 03 bf fb f9 79 be b0 45 9e 3d
       0.31493074 -0.51392883 -0.24411766 0.077281356
000050 f0 ee 79 3d e1 0c 5d be 5c 8c a0 be 11 8f 1e bd
       0.061018884 -0.21586944 -0.31357086 -0.038710658
000060 76 e3 24 3e b0 5b 94 3c 19 38 3a be c6 25 a4 3c
       0.16102394 0.018110126 -0.18185462 0.020037543
000070 75 6f ae be ed c5 9a 3e 43 7b dd be 40 81 b6 3c
       -0.3406941 0.3022913 -0.43258104 0.022278428
000080 60 b5 69 be 62 23 0b 3d 9d 96 6e 3e d0 59 c3 bd
       -0.22823095 0.03396929 0.23299642 -0.09538615
000090 f6 89 d5 3e 2d c2 ac be 19 29 02 bf b0 07 97 3e
       0.41706818 -0.33741894 -0.5084396 0.29498053
0000a0 36 3d 35 3e 5f 1a e1 bd d5 31 eb be 32 85 92 be
       0.17699131 -0.10991358 -0.45936456 -0.28617245
0000b0 3d 2f 89 be 04 ea 05 bf a9 7d 28 bd ec 5c 1c 3b
       -0.26793852 -0.52310205 -0.041135464 0.0023859097
0000c0 86 b6 26 3f 4b d3 c2 3e 74 aa bb be 01 5e 74 be
       0.6512226 0.3805183 -0.36653483 -0.23863985
0000d0 9d 49 77 be 53 31 8d be c4 fa b4 bd bd c9 34 be
       -0.24149175 -0.27576694 -0.08836892 -0.17655082
0000e0 22 3e 92 3e 83 d6 64 be 97 e9 a4 be 3d a4 d6 3d
       0.2856303 -0.22347455 -0.32209465 0.10480545
0000f0 85 67 86 be 8f e6 c5 3e d8 a7 36 bd d2 35 61 be
       -0.26250854 0.38652465 -0.044593662 -0.21993187
000100 80 b9 20 3e ca 7c 14 bf c2 7a 05 be d2 ab 66 bd
       0.15695763 -0.58002913 -0.1303511 -0.056316204
000110 60 0f 8d 3e 33 29 19 be 79 75 1a 3e b6 be f3 be
       0.27550793 -0.14957123 0.15083875 -0.47606438
000120 c5 cc 58 be 19 e5 0a 3f 2d 8a 4e bd 85 f8 5b be
       -0.21171863 0.54255825 -0.050424743 -0.21481521
000130 f2 95 0b bd 3c 7d bf 3c 74 64 37 3f 7c 17 94 3c
       -0.034078546 0.023375146 0.71637654 0.018077604
000140 12 ee 0a be 10 f2 8b 3e f7 ad 98 bf 7a a7 2d 3e
       -0.13567379 0.27333117 -1.192809 0.16958418
000150 7b fd 82 bd 4a 02 1b 3e 91 63 f6 be 5f d2 a4 3e
       -0.06396004 0.15137592 -0.48122838 0.3219175
000160 1a 0d 80 bd b9 f6 14 3f 3b af 84 3e c6 65 20 be
       -0.06252499 0.5818897 0.2591494 -0.15663823
000170 ab e3 ed 3d 83 69 e8 bd d8 86 23 3d 98 0f 80 3e
       0.1161569 -0.1134825 0.03992352 0.25011897
000180 06 9c b7 3d 78 42 4d 3d 8b f0 ca 3d 46 3b 79 3e
       0.08965306 0.050112218 0.09909161 0.24339017
000190 1f fe 8e bd 8a 61 a8 be 2e fd d0 3e 0e 05 dc be
       -0.069820635 -0.32886916 0.4081816 -0.42972606
0001a0 23 5f 9c 3e 6c 53 96 be 39 31 12 3f b8 2e 85 bd
       0.30541334 -0.2936052 0.5710636 -0.065030515
0001b0 78 92 dc 3e 06 15 6e be f7 8a 17 3e f2 3f 3c be
       0.43080497 -0.23250207 0.14799105 -0.18383768
0001c0 6e ee cb be 54 f8 82 3e 17 7f 08 3e 74 21 9c 3e
       -0.39830345 0.25580084 0.13329731 0.30494273
0001d0 03 f2 4c 3e 54 0e f7 be d4 2d 30 be 15 ec d5 3e
       0.20014195 -0.4825312 -0.17204982 0.4178168
0001e0 02 8a 24 bf c8 cd b5 be 66 ed 97 be e3 c4 a1 be
       -0.64273083 -0.3550856 -0.29673308 -0.31595525
0001f0 b1 a4 fd be 2c 35 3b 3d b3 7d 35 3e 1d 10 c3 3e
       -0.49539712 0.045705006 0.17723732 0.3809823
000200 20 bd 82 3e dd 35 d4 be 12 a6 3e be 8a 79 c2 bd
       0.25534916 -0.41447344 -0.18618038 -0.09495838
000210 29 50 aa 3e 11 81 68 3e 77 4f ab 3d 3c 82 49 be
       0.33264282 0.22705485 0.08364766 -0.19678587
000220 dd fe 85 bd fb 13 25 3e ec 38 d2 be f9 d5 d6 3e
       -0.06542752 0.16120903 -0.41059053 0.41960123
000230 42 ed 2d 3e 79 e4 ad be e7 f5 fd be a2 18 4b be
       0.16985038 -0.33963373 -0.4960167 -0.19833615
000240 b9 37 8d be f8 81 27 be d3 c3 d5 be 08 b7 c7 bd
       -0.27581576 -0.16358173 -0.41750965 -0.09751707
000250 db 31 98 3e 10 28 16 bf 2b 1d 8d be 8b 22 76 3e
       0.29725537 -0.5865488 -0.27561316 0.24036615
000260 6c a4 70 3e b1 1b 13 bf 00 f0 22 bf 0c 20 58 3d
       0.23500222 -0.5746413 -0.6364746 0.052764937
000270 10 90 9f be d9 c6 37 be 3e 5a 3c be ab bf d6 bd
       -0.31164598 -0.17946948 -0.183938 -0.104857765
000280 5e 38 a0 3e 12 1f 35 3f 19 b9 5a 3c e1 6d 93 be
       0.31293005 0.70750535 0.013349795 -0.28794768
000290 0a 92 a5 be 91 e6 98 be 36 55 1f bf 7e 3d 95 bf
       -0.3233798 -0.29863408 -0.62239397 -1.1659391
0002a0 16 28 bc 3e 6e e0 f7 3d d3 ce d1 bb d8 13 ee bd
       0.36749333 0.121033534 -0.006402829 -0.11624879
0002b0 a8 d2 80 be 5d c1 a7 be d3 1f de bd d6 89 3b be
       -0.25160718 -0.32764712 -0.10845914 -0.18314299
0002c0 de 84 70 ba 17 52 e1 3e 25 04 98 be d4 9a 71 3e
       -0.0009175072 0.44007942 -0.29690662 0.23594218
0002d0 2a ac a5 3d d1 8c e9 bd 46 8d 95 3e ee f0 72 3e
       0.08089478 -0.11403812 0.29209346 0.2372472
0002e0 19 f0 fe be 1e 19 e0 bd 0e 66 43 3f 2b 97 63 be
       -0.49792555 -0.10942291 0.763276 -0.22225635
0002f0 30 58 0c 3f 1b 22 7a 3d 8e fa 43 bd a3 12 48 3d
       0.54822063 0.06106768 -0.04784637 0.0488459
000300 51 74 45 3e 92 80 99 be 7c 40 4d be 14 ef 11 bf
       0.19282652 -0.29980904 -0.2004413 -0.5700543
000310 5a 9e 8e bd 3c b0 98 3e 20 08 db be e7 61 4a 3e
       -0.06963797 0.29821956 -0.42779636 0.1976391
000320 72 83 d3 3e 2c 1d 0a 3d 0f d3 14 be 82 5b bd bd
       0.41311222 0.033719227 -0.14533637 -0.09245969
000330 0a 91 0a bf d9 5b 49 3e 6e 94 95 3e a3 82 c1 3d
       -0.5412756 0.19663943 0.29214805 0.09448745
000340 62 10 18 3e 7a 79 b0 3e bf 90 21 be 60 4e cd bc
       0.1485 0.3446768 -0.15777873 -0.025061786
000350 6a fb 99 be b2 c4 f1 be 50 ac 03 3e a1 0f 12 be
       -0.30074626 -0.4722038 0.12858701 -0.14263774
000360 ac 68 11 3e aa 82 8f 3e 59 f8 a2 be 63 6c b2 3e
       0.14200085 0.28029376 -0.318301 0.34848318
000370 33 03 74 be 36 f3 39 3e 09 19 1e 3e 9e 6e 56 be
       -0.23829345 0.18159184 0.15439238 -0.20940635
000380 8b 24 a6 3e e2 9a 29 be 76 46 ed 3e 6f 55 06 3e
       0.32449755 -0.1656299 0.4634282 0.13118528
000390 2e 07 8d be 88 f7 f7 be 3c 6b fd bd 25 6d e6 be
       -0.2754454 -0.4843104 -0.12373969 -0.45005146
0003a0 ca 4e d5 3b 74 78 77 3f b5 e2 25 3f c8 b1 bd 3e
       0.0065096365 0.9666817 0.6479905 0.370497
0003b0 26 07 bf 3e cd 73 0e be 1f d5 55 be 9b ea 0a 3f
       0.3731014 -0.13911362 -0.2088208 0.5426423
0003c0 15 a6 99 be 11 55 b5 bd 23 37 45 3d ef 12 82 3e
       -0.30009523 -0.08854116 0.048148286 0.2540507
0003d0 3e ee 16 3e 48 88 9f 3c 41 db 34 3f aa 6f 99 bd
       0.1473932 0.019474164 0.70647055 -0.07492001
0003e0 75 e8 6d be 37 7a 16 3f de 5b 80 3e ca 1c e6 3e
       -0.23233207 0.58780235 0.2507009 0.4494384
0003f0 d7 59 05 bd 87 34 00 be 6d 1b 25 3e 96 0c db be
       -0.03255638 -0.12520038 0.16123743 -0.4278304

network_body._body_endoder.seq_layers.0.bias f4 [128]
000000 71 b1 5a 3b 24 5c 96 3c 7b cf 0d bc 6e 11 2b bc
       0.0033369923 0.018354483 -0.008655424 -0.010441167
000010 dd 10 53 bb ed 2d 9c 3b 9d 1d da b9 0c dc f3 bb
       -0.0032206096 0.004766217 -0.00041602264 -0.007442003
000020 3d 66 fe ba 46 1e bb ba bd 77 2e 39 7e 18 8d bc
       -0.0019409131 -0.001427599 0.00016638539 -0.017223593
000030 d3 04 1a bb 0f ed 34 bc 35 22 02 bc a0 f5 99 bb
       -0.002350141 -0.011042847 -0.007942726 -0.0046984702
000040 51 d6 4e 3b d5 a5 c1 3b 36 59 bb bb f2 df 61 3b
       0.0031560848 0.0059096613 -0.005717422 0.0034465757
000050 9f fb 1d bc 8f 06 20 bb 9c 26 3f bb 41 c7 d7 bb
       -0.009642511 -0.0024417972 -0.00291673 -0.006585032
000060 ec 22 60 3b 44 a4 26 bc c3 7d f1 ba c4 8d d4 bc
       0.0034200503 -0.010171 -0.0018424321 -0.025946505
000070 07 12 61 3b 72 82 b6 ba 00 f7 6f bb 53 d5 35 bb
       0.003434302 -0.0013924374 -0.003661573 -0.002774556
000080 2e 47 16 bc b8 ca 3d bb 47 c1 7c bb bf 66 6c bb
       -0.009172244 -0.002895994 -0.003856735 -0.0036071984
000090 de 1a 3d bb 50 7e 43 b9 5b 57 a5 ba 44 b0 88 3b
       -0.0028855125 -0.00018643704 -0.0012614535 0.004171403
0000a0 ed 09 1c ba f8 43 fb bb 6e 81 e5 3a d9 fd 03 ba
       -0.0005952407 -0.0076680146 0.0017509887 -0.00050350797
0000b0 7a b0 62 3a fb 56 d4 bb d5 97 0c bb 07 db cc b9
       0.0008647513 -0.0064800954 -0.0021452804 -0.000390731
0000c0 39 6b a0 3c d5 d9 cf ba 56 cc 5f bb 26 cb 41 b9
       0.019582378 -0.0015857766 -0.0034148893 -0.00018481593
0000d0 a6 63 e7 3b 3f 11 b5 bb f2 ad 0c bc ef 61 91 bb
       0.0070614396 -0.0055257375 -0.008586394 -0.0044367234
0000e0 ad 26 d9 bb 3f f8 80 bc 92 64 d1 3c fa 6e a8 bb
       -0.006626925 -0.015743373 0.025560651 -0.0051401826
0000f0 1a 29 dc bb 2d d4 62 3c 40 05 e8 ba 48 e2 be ba
       -0.006718767 0.013844532 -0.001770176 -0.0014563287
000100 2c 07 2b bc da 77 d1 3a 5b 96 a5 3b 43 7c 20 3b
       -0.010438722 0.0015981153 0.005053324 0.0024488128
000110 7c b8 80 3b 36 8c 94 bb ce d2 8a bb 2f fd dc bb
       0.0039282423 -0.004533316 -0.0042365557 -0.006744049
000120 92 54 1b bb a1 c1 9f ba 0b 2d f3 3c 49 a1 88 bb
       -0.002370153 -0.0012188443 0.029684564 -0.0041696173
000130 29 ad c4 3c 8b fc 6e bb 2b 19 f7 bb 06 41 7a 3a
       0.02400835 -0.0036466445 -0.007540842 0.00095464324
000140 ad 3f 0a 3a dc ce 04 bc 9b c2 25 bb fc 47 dc ba
       0.00052737707 -0.00810596 -0.0025292996 -0.0016806121
000150 fd 8b 24 39 43 e8 66 bc f8 cc 1c bc c8 bd e5 3b
       0.00015692408 -0.014093461 -0.009570353 0.007011149
000160 de 8c ca bb c9 a5 61 bb 5e 71 78 bb 28 81 45 3a
       -0.0061813435 -0.003443109 -0.003790937 0.00075341994
000170 e1 da 81 3b ae c7 90 3c 43 a0 2f bb 94 c5 4e bb
       0.00396286 0.01767334 -0.0026798404 -0.0031550871
000180 08 1c af bb 67 6d 95 bb 60 dc 14 bc be ed 30 bc
       -0.0053439178 -0.004560161 -0.009085745 -0.01079887
000190 18 7d 8b 39 e9 19 1f bc 56 57 13 3c 52 91 50 bc
       0.00026605348 -0.009710767 0.0089929905 -0.01272996
0001a0 43 60 95 3c c7 be 28 bc 2f dc 16 bb 7e 5e 87 bb
       0.018234378 -0.010299391 -0.0023019423 -0.0041311374
0001b0 2b a3 f0 bb 95 04 be bc be 82 ae 3b ef 1b bc bc
       -0.00734367 -0.023195544 0.0053256443 -0.022962539
0001c0 fc 57 6e bc b1 9e 50 bb 66 d0 11 bb ec 90 d9 ba
       -0.014547344 -0.0031832869 -0.002224946 -0.0016598976
0001d0 57 e5 0e bc ea 81 c0 bc 3c 33 1a 3c 5a ff 1b bc
       -0.008721671 -0.023499448 0.009411629 -0.00952133
0001e0 30 cd 90 3b 8d 25 1c bb 6a 39 8e 3b ce 74 f1 bb
       0.0044189915 -0.0023826093 0.0043403404 -0.0073686605
0001f0 8c a7 d5 bc a0 2d 8a bb 0b aa b4 bc 95 c5 93 ba
       -0.02608087 -0.0042168647 -0.022053739 -0.0011274094

network_body._body_endoder.seq_layers.2.weight f4 [128, 128]
000000 99 5b ea 3d 60 c8 1b 3e af 1e a2 bd c6 b7 e8 bd
       0.11443252 0.15213156 -0.07916009 -0.11363177
000010 44 d9 07 bd 6f 22 e5 bd b1 44 87 bb 15 5f 12 bd
       -0.033166185 -0.11188208 -0.0041280617 -0.03573521
000020 b8 49 05 3e 24 e1 a9 bd 49 1a ed 3d 47 70 a8 3d
       0.13016403 -0.08294895 0.11577279 0.0822454
000030 29 07 c1 3c 75 35 bb bd cc e8 28 bd f2 83 ec 3d
       0.023562985 -0.091410555 -0.041237637 0.11548604
000040 a8 08 ff bc 4a 6f d6 3c c2 7d 10 3e 00 e3 8a bd
       -0.031132057 0.026176114 0.14110473 -0.06781578
000050 42 c3 eb bb fa 8f 8d 3d 70 c4 86 bd 7e c0 c5 bd
       -0.0071949074 0.06912227 -0.06580436 -0.096558556
000060 bb ba 1e 3d 38 cf 35 bd 2d cb b9 ba b1 e8 eb bd
       0.0387523 -0.044387072 -0.0014174931 -0.11518992
000070 df 5c 0c bd fd 47 05 3e db 97 d8 bd 90 82 b3 3d
       -0.034268256 0.13015743 -0.10575839 0.08765137
000080 fa da f2 3d e1 33 8b bd 01 5d 6f bd bb c6 8e bc
       0.11858173 -0.067970045 -0.058438305 -0.017428746
000090 96 2c 54 bd a9 76 43 bd b6 04 8d 3d cf 92 ad 3d
       -0.051800333 -0.047720585 0.06885664 0.08475267
0000a0 4e ec aa 3d c8 be 27 be a7 bd 26 3c 21 fb a9 bd
       0.08345853 -0.16381371 0.010177053 -0.08299852
0000b0 76 d7 0f 3d c2 d2 49 3a fd 89 19 bd bc 01 b7 bc
       0.03511759 0.0007698947 -0.03748511 -0.022339694
0000c0 27 72 5b 3d cb 84 03 3d a0 7e b9 3d 33 f6 29 bc
       0.05357566 0.032109063 0.09057355 -0.01037364
0000d0 3e f8 ab bc 85 7a e3 3c ad 5b 2f bd 43 d3 10 3e
       -0.020992395 0.027768383 -0.04281204 0.1414309
0000e0 17 00 9b 3d a4 d1 52 3b 10 9b 16 be 1b 47 ff 3c
       0.075683765 0.0032168413 -0.14707589 0.031161835
0000f0 0c 07 f5 3c 3c 58 bf 3c b7 11 b8 3c 16 78 cf bd
       0.029910587 0.023357503 0.022469385 -0.101303264
000100 96 82 f4 3c 95 29 f5 bd 62 df 84 3d 81 d5 2a 3d
       0.029847424 -0.11970822 0.064879194 0.04170752
000110 46 bc 90 3d af fa fd bd 71 63 42 bd 69 fa a4 bd
       0.0706716 -0.1240133 -0.047458116 -0.080555744
000120 c0 75 6d 3d c1 95 fc 3b 58 91 89 bd 98 6d 51 bd
       0.057973623 0.0077082817 -0.06717175 -0.051129907
000130 a9 45 b1 3d e6 4f bf 3d cc 21 90 bd b9 8c 69 3d
       0.08655865 0.09341411 -0.07037696 0.05701897
000140 ca 30 01 bd 3a 5b 41 3d 5a fc b1 bd f9 c2 dd 3d
       -0.03154067 0.04720614 -0.0869071 0.10828204
000150 fe 53 dc bd 4e be d7 bd 58 d6 28 ba 28 cc 15 be
       -0.10758208 -0.105343446 -0.0006440631 -0.1462866
000160 80 7b c5 3d a0 66 99 bd 69 df 95 3d 67 f4 06 bd
       0.096426964 -0.07490277 0.07318003 -0.032947924
000170 c9 fc 96 3d 04 3a 26 3d 80 c1 36 bd 53 b5 90 3d
       0.07372434 0.04058267 -0.04461813 0.07065835
000180 52 00 cf 3d 98 c1 b7 3d da 55 21 be b0 4a de bd
       0.10107483 0.08972472 -0.15755406 -0.10854089
000190 d3 1b 75 3e 93 c0 02 be 02 14 a6 3d 86 8b 4e bd
       0.23936395 -0.12768774 0.08109285 -0.05042603
0001a0 8f 76 43 bd 8e 2e 46 bd af e6 e5 3d a5 5d a7 bd
       -0.04772049 -0.04838424 0.1122564 -0.08172158
0001b0 8c b3 8a bc 4f ce d8 bc dd 94 9d bd 9d 2b 7c 3d
       -0.016931318 -0.026465563 -0.07694409 0.06156503
0001c0 1d 7b 87 bc ad 77 56 bc 7a 7f dc 3d 83 a5 31 3d
       -0.016538197 -0.013090056 0.10766502 0.043370735
0001d0 71 f0 fd 3b 2b 6b 36 3d a7 33 fd 3d 0f 17 b7 3c
       0.00774961 0.044535797 0.123633675 0.022349862
0001e0 38 24 c4 3d b9 24 31 3c 05 1a 28 bd 68 82 09 bd
       0.09577221 0.010811978 -0.04104044 -0.03357163
0001f0 c6 80 86 bc dd c0 b4 bc 44 1a 80 bb f1 53 ba bd
       -0.016418826 -0.02206462 -0.003909381 -0.09098042
000200 cf d8 60 be 31 e4 2e 3d 16 53 00 bd d4 06 c8 bd
       -0.21957706 0.04269809 -0.031329237 -0.09766927
000210 72 5b e0 bd 2d 89 15 bb bc 8e a7 bd 20 73 4c bc
       -0.10954942 -0.002281736 -0.08181521 -0.01247862
000220 3f 26 18 3d 20 9e fd bd 0a 03 0c bd d1 df f0 bc
       0.03714585 -0.123836756 -0.034182586 -0.029403599
000230 19 6b cd bd 91 f3 c5 bd 64 13 ea 3d f2 7e bc 3c
       -0.10030193 -0.09665597 0.1142948 0.023009751
000240 6e 09 f7 bb 15 8a a6 3d d6 ca f2 ba 71 8e 05 be
       -0.007538966 0.08131806 -0.0018523585 -0.13042618
000250 c1 70 2b 3c 2a a8 96 bc df b7 9c bd 7c cb 02 bd
       0.010463894 -0.018390734 -0.07652258 -0.03193234
000260 4b 78 bc 3c a3 98 9c 3d e9 05 4a bc e5 d4 3c 3b
       0.023006579 0.07646301 -0.012330511 0.0028813418
000270 9e 02 c3 3d 44 2a 9f bd cd 6d a3 3d 3e 1c a0 3c
       0.095219836 -0.077717334 0.07979927 0.019544717
000280 a6 3d 26 3e bb 56 bf bd b4 67 29 3d 69 62 c7 3a
       0.16234455 -0.093427144 0.041358665 0.0015211824
000290 4a a8 0b 3b 2b e7 6f 3d fd a2 5d bd 99 9f 7f 3d
       0.0021310025 0.05857007 -0.054110516 0.062408064
0002a0 b6 00 bf bd 2b bc 30 3d fd 92 3a 3d da ba b4 bd
       -0.093263075 0.0431482 0.045550335 -0.088247016
0002b0 2a 77 9c bd 78 a6 cb 3c 39 4c 3c 3d 25 11 aa 3c
       -0.07639916 0.024859652 0.04597113 0.020760128
0002c0 46 d6 37 bd 41 90 08 be 1a ab c7 bd f1 cc d9 bc
       -0.04488208 -0.13336278 -0.09749432 -0.026586981
0002d0 28 e6 63 be bd 6e 17 be f3 3f 7a bc 80 4f c7 bc
       -0.22255766 -0.14788337 -0.015274036 -0.0243299
0002e0 a3 6e 37 bd 1e 5c bc 3c f4 e6 b8 3d de be d1 bd
       -0.044783246 0.022993144 0.09028426 -0.10241483
0002f0 d7 26 bc bd 0f 3e 79 bd 07 ad f1 bc de 3d 96 bd
       -0.091870956 -0.0608502 -0.029501451 -0.07336019
000300 5d de 46 3c e2 89 e2 3d 83 76 17 be a7 74 f2 bc
       0.0121379765 0.11061455 -0.14791302 -0.02959664
000310 fb 55 4a 3c 7e 07 88 3d d2 1c 16 bd 22 01 cc bc
       0.012349601 0.06642054 -0.03664858 -0.024902884
000320 37 1e 41 be 70 de 99 bc 5d d3 bb 3c 8f ed b1 3d
       -0.18859182 -0.018782824 0.022927934 0.08687889
000330 ae 21 31 3e 5e e4 e0 3d f3 88 00 bd b7 6e 82 3d
       0.17298004 0.109810576 -0.031380605 0.063687734
000340 58 f2 19 bd d5 1d 3a bd 8a dc 11 3e 2c a5 97 bd
       -0.037584633 -0.045438606 0.14244285 -0.07404551
000350 d0 37 37 bd c8 a4 0e be 35 33 a3 bd 13 1b c8 3d
       -0.04473096 -0.13930047 -0.07968751 0.09770789
000360 42 14 6f bd 3b 07 0e bd 0f 60 b0 3d 5d 84 e4 bd
       -0.05836893 -0.034674864 0.08612072 -0.11158059
000370 5d 1d 48 3d 77 b8 1a be f7 63 c7 3d 53 b1 93 3c
       0.048856128 -0.1510943 0.09735864 0.01802889
000380 18 35 8a be af 1d e1 bc f0 5b 8a 3d bd e0 0b bd
       -0.26993632 -0.027479975 0.06755817 -0.034149874
000390 9c 0c c4 3d ae 88 5d be 68 ee 02 3d 25 52 9f 3c
       0.095727175 -0.2163417 0.031965643 0.01944835
0003a0 f1 0d f9 3c fb d9 01 3e 8d b7 69 3d 44 ea 23 3d
       0.030402156 0.12680809 0.057059813 0.040018335
0003b0 ba 12 60 bd 78 38 a9 bd 63 7d 9a bd a1 3b 0e bd
       -0.05470536 -0.08262724 -0.07543447 -0.034724835
0003c0 52 e6 ba 3d 37 d9 58 bd 7e 43 39 3d 74 cf 6c 3c
       0.09125961 -0.052941527 0.04523038 0.014453758
0003d0 c9 21 d2 bd 04 38 73 3c 22 ac 9e 3d cf e8 e8 bd
       -0.1026035 0.014844898 0.077476755 -0.1137253
0003e0 7f 6d ef 3d 46 f8 2d bd e8 a4 89 3d 82 8c 39 3e
       0.116908066 -0.0424731 0.067209065 0.18120006
0003f0 d3 66 9d bd 12 f2 1b 3d f1 45 75 bd e8 0d af bd
       -0.07685628 0.038072653 -0.059881154 -0.08547574

network_body._body_endoder.seq_layers.2.bias f4 [128]
000000 0e c3 b5 3b 7a 65 5e bb 20 da 7e ba 17 17 d9 3b
       0.005546934 -0.0033934996 -0.0009721834 0.006625067
000010 48 c6 78 3a 46 24 3f bb da 25 8f bb 69 26 4d ba
       0.00094899954 -0.0029165908 -0.004368526 -0.0007825853
000020 45 39 c8 bb 91 fa f5 bb 19 5f a2 bb 1b 49 82 bb
       -0.0061103427 -0.0075066765 -0.004955184 -0.003976
000030 dc 27 8e 3b 05 37 47 bc 82 f7 a7 3b c9 5d d0 bb
       0.0043382477 -0.012159114 0.005125941 -0.0063588363
000040 df de 94 bb c0 4f 9b bb 30 97 de bb d5 7c 2c 39
       -0.00454317 -0.0047397316 -0.0067929253 0.00016449702
000050 b6 92 94 ba fd e5 f1 bb 45 2d a2 ba 72 c8 a1 bb
       -0.0011335227 -0.007382153 -0.001237311 -0.004937225
000060 6b 98 40 bb 2d d4 ee ba 60 cf 11 bb 13 6a c2 ba
       -0.0029387723 -0.0018221192 -0.002224885 -0.0014832638
000070 64 b8 ce bb 65 59 1f bc ad 76 f0 39 79 8a 79 bb
       -0.006308602 -0.009725903 0.00045864788 -0.003807692
000080 a3 7d 0a bc 3b cf 93 ba c9 1e e2 ba 45 51 b3 bb
       -0.008452806 -0.001127697 -0.0017251606 -0.0054723346
000090 ab 16 db bb d9 a9 76 bb 65 f7 bb bb 25 fb 9a ba
       -0.006686052 -0.0037637858 -0.005736279 -0.0011824114
0000a0 18 72 31 bb a6 7c 1c bc a6 ec 6a bb 91 17 ba bb
       -0.0027076062 -0.009551203 -0.003584662 -0.005679079
0000b0 d5 d7 50 bb 7e 3d 05 bc 52 25 1e bb 8a 01 aa bb
       -0.0031866927 -0.008132337 -0.0024131131 -0.0051881718
0000c0 54 a2 b6 b9 5b 01 8e bb f5 89 93 bb ec cc 05 bc
       -0.0003483469 -0.0043336577 -0.0045025297 -0.008166533
0000d0 43 37 0c 3b 52 b9 0d bc eb f0 28 bc 62 cf 30 bc
       0.0021395243 -0.008650141 -0.010311346 -0.010791631
0000e0 99 17 12 bc ae cf 1b bc b9 bf 63 bc b0 09 12 ba
       -0.008916759 -0.009509964 -0.013900691 -0.00055709016
0000f0 9e 7b 09 bb a2 18 de bb 60 6b 61 bc 2f 60 9b bb
       -0.0020978223 -0.006777839 -0.01375851 -0.0047416906
000100 06 84 95 3a 52 c1 83 bb 77 14 9f bb a8 68 08 bc
       0.0011407144 -0.0040208483 -0.0048547345 -0.008325733
000110 ae 72 96 bb 27 3e a6 b9 ca da 43 bc b7 ad 27 bb
       -0.0045913076 -0.00031708294 -0.011954019 -0.002558572
000120 0b 0d c0 bb 73 0b 47 bc 68 cc c2 bb 5d f6 68 bb
       -0.00586093 -0.012148726 -0.0059447773 -0.0035547235
000130 8a da a8 bb c8 13 c4 bb 17 ff 06 bc 57 03 8e ba
       -0.005153005 -0.0059838034 -0.008239529 -0.0010834736
000140 3a 7a ad ba 73 3b 12 3c 62 22 0c 3b ef d6 d1 ba
       -0.0013235279 0.008925307 0.0021382798 -0.001600949
000150 fd 9e ee bb 16 a9 2c 3a 30 9c 72 bb 6d 50 3f 3b
       -0.0072821365 0.0006586475 -0.0037019365 0.0029192225
000160 f2 69 6c bb f8 b5 5d bb b9 22 29 bb cc 0d f5 ba
       -0.003607389 -0.0033830386 -0.002580805 -0.0018696128
000170 b6 71 b3 bb a4 80 76 bb 35 aa 4e bb ac 66 42 bc
       -0.005476202 -0.0037613297 -0.0031534557 -0.011865299
000180 d5 8b 06 bc 51 90 a1 bb 01 40 8b bb aa 28 d4 ba
       -0.0082120495 -0.004930534 -0.004249573 -0.0016186435
000190 64 67 07 bb 69 4d cb bb 67 6a 0f 39 50 fb da ba
       -0.002066099 -0.0062042964 0.0001367718 -0.0016706977
0001a0 0c 00 07 bb a1 88 e6 bb 27 e9 99 39 87 d7 b8 bb
       -0.0020599393 -0.0070353304 0.00029356146 -0.0056409272
0001b0 74 05 19 bb 3e b4 54 bb 5c 90 11 bb 40 2a f9 bb
       -0.0023349198 -0.0032456066 -0.002221129 -0.0076039135
0001c0 73 70 15 bc 49 c4 9d bb 77 ae 04 3b 6f 58 ce bb
       -0.009121048 -0.004814659 0.002024559 -0.006297163
0001d0 6d 59 cb bb 7c d1 de bb c6 e7 03 bc 1d 86 7d 3b
       -0.0062057287 -0.006799875 -0.008050865 0.0038684674
0001e0 88 94 19 3b 0c 25 04 3b b5 99 8d bb dd 4c a0 bb
       0.0023434479 0.0020163683 -0.004321302 -0.0048919753
0001f0 27 fb 9d bb df 71 77 bb 44 46 99 bb 99 52 90 bb
       -0.0048211995 -0.0037757081 -0.004677566 -0.0044043777

action_model._discrete_distribution.branches.0.weight f4 [3, 128]
000000 3c 84 1a bc d9 86 2b bb 56 fe 9b bb 5c 1e fd 3b
       -0.009430941 -0.0026172905 -0.004760544 0.0077245664
000010 76 6f a1 39 49 8d 2f 3c 2f 0b f1 bb 35 6b 90 3b
       0.00030791358 0.010714837 -0.0073560695 0.0044073113
000020 c5 90 c5 bb f0 c1 ab bb be 21 f4 3b 3b f7 55 ba
       -0.0060292208 -0.005241625 0.0074503114 -0.00081621454
000030 bb 08 ae bc 60 38 cd 3a 06 54 4a bc 97 22 ec 39
       -0.021244397 0.001565706 -0.012349134 0.000450392
000040 f7 a6 dc bb 39 37 94 bb 47 b5 6c bc 28 0a d6 bb
       -0.006733771 -0.0045231846 -0.014447517 -0.0065319724
000050 9b 8c db 3b 97 ea b9 bb bc 0e 52 bb 7c 37 14 3c
       0.006700111 -0.0056737172 -0.003205224 0.009046432
000060 0a 31 df ba b8 41 95 3b 2f bd 1d 3c fc f3 b5 3b
       -0.0017028165 0.0045549534 0.009627624 0.005552767
000070 07 93 0e bc b7 ac 01 bc 4c a9 2f ba d6 f3 af 3a
       -0.008702046 -0.007914714 -0.00067009474 0.0013424109
000080 29 45 bf bb 4a 6f 84 3c ec ea 99 3b f9 e4 9a bb
       -0.005837102 0.016166348 0.0046971943 -0.0047270027
000090 60 c4 a9 bc 77 09 5c 3b d7 a4 1d 3a f5 a1 32 bb
       -0.020723522 0.0033574977 0.0006013638 -0.0027257178
0000a0 a7 45 6c 3c e0 2c 0a 3c 05 b8 39 b9 26 74 cb 3c
       0.014420903 0.008433551 -0.00017711527 0.024835657
0000b0 4b 57 87 ba 3a 89 40 bc f1 12 c2 3b 40 90 1d 3b
       -0.0010325698 -0.011751467 0.005922668 0.0024042279
0000c0 bc 36 b6 bb 7a bc 9d bb b1 19 56 3c 46 4f ad ba
       -0.005560724 -0.004813728 0.013067649 -0.0013222478
0000d0 a0 fb 56 3c 9a 3e 94 3b bb 0a 1f bc 69 50 81 3c
       0.0131215155 0.0045240643 -0.009707148 0.015785413
0000e0 18 c5 8b 3b 79 72 fa bb 4c 5f 17 3c cc 26 ae 3b
       0.0042654388 -0.0076430407 0.009239029 0.0053146835
0000f0 06 99 8d bb 5e 5c d7 39 9e 5c b6 bc 6a b1 ad 39
       -0.0043212203 0.00041076815 -0.02226096 0.00033129315
000100 9d 85 80 37 24 5f 1a bc 8c a8 4a 3c 70 e2 3c 3b
       1.5321008e-05 -0.009422097 0.012369286 0.002882149
000110 9e 3f 0a 3c f7 28 ac bb ea 6e 7e bc cc 6b 5a 3c
       0.008438019 -0.005253907 -0.015529374 0.013331365
000120 34 92 b5 ba 8a d6 f9 3b 95 53 2b 3c 6f b6 72 3b
       -0.0013852776 0.007624452 0.010456939 0.0037035008
000130 3c b6 a7 bb 91 a6 bc bb a4 57 6b ba e4 4e 02 bc
       -0.0051181596 -0.005757161 -0.0008977598 -0.007953379
000140 e0 db 0c bc e4 d2 bd 3c de 09 f3 3b c6 a5 9a 3c
       -0.008597344 0.02317185 0.0074169477 0.018877875
000150 20 aa 25 bc f8 1b b6 bb 1f b9 f3 bb 11 c4 d4 bb
       -0.010111362 -0.0055575334 -0.0074378396 -0.0064930995
000160 90 d3 aa 3c b5 da a2 3b 19 fb 6e 3b c9 db 2a bc
       0.020852834 0.0049699196 0.0036465584 -0.010428377
000170 71 e4 19 bc 05 5d fb 3b d4 88 73 3b 20 d4 8a 3c
       -0.009392844 0.007671001 0.0037160413 0.016946852
000180 65 c6 16 bb 89 5c 63 bb 1d 75 17 3c 33 04 eb 3b
       -0.0023006436 -0.0034692606 0.009244231 0.0071721314
000190 44 c2 0f bc c1 13 32 3c 0d 85 62 bc a7 15 0b bc
       -0.008774344 0.0108689675 -0.013825667 -0.008489049
0001a0 c8 ce 99 3b 8d 20 e1 3a 3d 93 60 bc bd aa 07 3c
       0.0046938397 0.0017175839 -0.013706979 0.008280453
0001b0 39 57 a3 bb f4 0a 0c 3b fe 43 0a 3c 43 1d d4 bb
       -0.004984763 0.0021368833 0.008439062 -0.006473215
0001c0 22 da 21 bc cc 66 56 bc 66 fc 4c bc 7c 67 dd bb
       -0.009878667 -0.013086032 -0.012511348 -0.006756721
0001d0 23 2b 39 3c 7c a1 a1 bb eb 9d a9 ba 61 65 7f 3b
       0.0113017885 -0.0049325805 -0.001294074 0.0038970339
0001e0 eb 9d a2 3a 74 d2 24 3c 1c 6a 17 3c 0c ac d2 bb
       0.0012406682 0.010059942 0.009241607 -0.006429201
0001f0 ff ba 83 3b 96 b0 37 3c be 8d 2f bb 4a af 98 3b
       0.0040200944 0.011211535 -0.0026787366 0.004659568
000200 0a 43 27 bc c2 b1 fd 37 d7 28 81 3b 8d 6a bb 3c
       -0.010208854 3.0242725e-05 0.003941636 0.022877956
000210 ac 5c ce 3b fb 6b bb b9 a5 b2 d7 b9 3f 9f 98 bc
       0.0062976684 -0.0003574787 -0.00041141096 -0.018630622
000220 b1 b1 1a bc 6f 5f 2c bc 61 56 52 3c a1 22 02 bc
       -0.009441779 -0.0105208 0.012837977 -0.0079428265
000230 84 09 7f bc 2e eb 6f bb 89 5c 83 bb be 04 73 39
       -0.015566234 -0.0036608684 -0.004008834 0.00023176052
000240 96 83 c1 bb 8c dd a1 3b bf f0 cd ba b9 c4 37 3c
       -0.005905579 0.0049397405 -0.0015712007 0.011216336
000250 34 49 8e b9 b8 08 4f 3b f0 c3 b5 bb 0f 4d e5 ba
       -0.0002713889 0.003159089 -0.005547039 -0.0017494279
000260 7c f0 57 3b e8 f6 3c bc b2 c9 8e bb 86 97 e7 bb
       0.0032949736 -0.011533476 -0.00435754 -0.0070676235
000270 bc 25 c6 bb 7c 97 50 bc 56 3c 58 bc 33 3c 3e 3c
       -0.0060469788 -0.012731429 -0.013197979 0.011611032
000280 a7 d2 ae bb 26 30 4c 3c 7e 2c bf 3a 48 b0 6f 3c
       -0.0053351703 0.012462651 0.0014585403 0.014629431
000290 43 01 73 bb cb 56 16 3b b9 45 41 bb bf aa e6 bb
       -0.003707961 0.0022939916 -0.002949102 -0.0070393975
0002a0 72 44 a5 bb d2 85 48 bc b6 f7 07 3b 2a 01 29 bb
       -0.0050435597 -0.0122389365 0.0020747012 -0.0025788047
0002b0 b5 66 b6 3b 18 06 1b bb 4c 72 7e 3c 44 6e b3 bb
       0.005566443 -0.0023654755 0.01553018 -0.005475791
0002c0 98 55 9f 3c 1b 2d 28 3c 76 75 7a 3b 40 e3 de ba
       0.019449994 0.01026466 0.0038216985 -0.0017004982
0002d0 06 81 cd b8 31 50 ab ba 75 a0 b6 3a 93 d1 b0 3b
       -9.799194e-05 -0.0013070164 0.0013933318 0.005396077
0002e0 66 16 01 bb 17 0a 2c 3b 59 d9 59 3c cb 71 be bc
       -0.0019697188 0.0026251131 0.013296449 -0.02324762
0002f0 db 2c 55 3c e8 c6 7c 3b 48 a4 4d bb fe df b7 ba
       0.013011183 0.0038570706 -0.0031378437 -0.0014028547
000300 0c 78 0b bd d3 f6 25 3a 03 f6 fd 3a 75 87 6d 3c
       -0.034050032 0.000633103 0.0019375685 0.0144976275
000310 06 08 40 bc 4d d2 93 3c d8 48 86 bc 92 b5 dd bb
       -0.011720663 0.018044615 -0.016392156 -0.0067660296
000320 5a 44 d5 b9 f6 d3 80 3c 23 c6 a7 3b 6f cf c8 3a
       -0.00040677452 0.01572607 0.0051200553 0.0015320609
000330 c0 51 33 bc 5a 94 5e 3c ed 96 ea 3b 3f ee 1f bc
       -0.010944784 0.013585174 0.007159105 -0.009761392
000340 bd c8 75 3b 81 ae 1f 3c 36 c0 d4 3c 72 35 90 bc
       0.0037503683 0.009746195 0.02597056 -0.01760361
000350 43 3c 0e bb fa ac 72 bc cc e4 32 bc a7 7a 99 3c
       -0.00217034 -0.014811749 -0.010918807 0.018735243
000360 b6 0d 79 3c 1e 98 01 bc 7e d5 49 bb 3b 37 84 b9
       0.015201023 -0.007909803 -0.0030797417 -0.00025218152
000370 dc 2a 73 bb bf 60 6e 3b 39 32 00 bc 44 42 60 3c
       -0.0037104404 0.0036373583 -0.007824474 0.013687674
000380 31 fb 95 ba 04 0f 18 3c 56 ed 58 3b 1e 47 48 bb
       -0.0011442659 0.009280924 0.0033100448 -0.0030559967
000390 05 1c aa bb 55 53 51 3c 31 77 1c 3b 80 58 26 bb
       -0.0051913285 0.012776216 0.0023874755 -0.002538234
0003a0 d5 b6 f2 39 77 0c 1b 39 8d 4e 0d 3c 3e e9 22 3b
       0.00046294057 0.00014786595 0.008624685 0.0024858261
0003b0 9a b3 26 3c ed 5d 8d 3a 81 1f 01 bb 7f d2 05 bb
       0.010174656 0.0010785438 -0.0019702616 -0.0020419655
0003c0 56 35 a8 3b b5 e1 80 bc 61 39 ac bc 2c 41 03 3c
       0.0051333113 -0.015732625 -0.021023454 0.008011144
0003d0 df 9f 9b bb 83 de fd 3b a3 26 c1 bb e5 85 b3 3c
       -0.0047492827 0.0077474727 -0.0058944984 0.021914432
0003e0 6f 8e 70 bc 40 46 54 bc 79 12 f6 bb 6d c7 12 bc
       -0.014682396 -0.012956202 -0.0075095263 -0.00895868
0003f0 7c 1f 16 bb 9e 1c 9c 3a 59 01 44 bc 26 7f d3 b9
       -0.002290695 0.0011910384 -0.011963212 -0.0004033979

action_model._discrete_distribution.branches.0.bias f4 [3]
000000 c4 69 5e 3a a8 d5 8b 3a 3a 6c e6 ba
       0.0008484388 0.0010668533 -0.0017579861

action_model._discrete_distribution.branches.1.weight f4 [2, 128]
000000 11 3c c4 ba c8 db ba bc 58 4b c6 bb 8b 53 d6 ba
       -0.0014971514 -0.022809878 -0.006051462 -0.0016351802
000010 5a b2 32 ba 1b 8b 48 3b 92 19 42 bb d1 df ca bb
       -0.00068167376 0.0030600491 -0.0029617292 -0.006191232
000020 ac 03 72 3b 6f f1 2d bc 8b ab ee bb 13 b2 16 3c
       0.0036928458 -0.010616644 -0.007283633 0.00919773
000030 9c 44 ce 37 8b f9 65 3a c0 c9 42 bc 05 d9 67 3c
       2.4589062e-05 0.00087728415 -0.011888921 0.014150863
000040 d6 eb d6 3b 38 cf 84 3b b3 d1 55 bc 40 15 77 3b
       0.0065588756 0.0040530227 -0.0130504845 0.0037701875
000050 3b d8 1f 3a a5 32 88 bb df a4 ba 3b ac 9e f9 3b
       0.00060975895 -0.004156428 0.0056959237 0.007617792
000060 2c d6 db 3a 0c 30 26 3b 5f c5 04 bc 29 f7 ba bc
       0.0016772202 0.0025358228 -0.008103698 -0.022822933
000070 78 90 9e 3a 22 be 38 3c 6c 14 05 bc ec 0b 30 3b
       0.0012097498 0.0112758 -0.008122545 0.0026862575
000080 88 e0 b2 ba 68 6e 4f bc 8e 4d 12 bc d9 0f 03 3c
       -0.0013647238 -0.0126606 -0.008929623 0.007999384
000090 52 42 27 3b d9 e3 8d b9 7d ce 90 bb a1 f0 3e bb
       0.0025521708 -0.00027063375 -0.0044191466 -0.0029135125
0000a0 e4 c7 39 3c 8b 1b 79 bb 07 3c 1e bc 8a 01 22 3a
       0.011339162 -0.0038010802 -0.009657866 0.0006180039
0000b0 ca 17 8f bb b9 93 8b bb 10 94 9c bb 25 62 b6 b8
       -0.0043668495 -0.0042595533 -0.0047783926 -8.696717e-05
0000c0 dd 2c ef bb 18 3d 1f bc d8 e1 c3 ba 4f b9 1b 3c
       -0.0072990493 -0.009719156 -0.0014944626 0.00950463
0000d0 68 1f 66 3c 46 2d ee 3b ca 02 c2 3b 78 03 0e 3c
       0.014045574 0.0072685806 0.0059207426 0.008667819
0000e0 ed 62 35 3a 5c 92 cf 3c c0 fe 2b 3c 2f dc 20 bc
       0.0006919343 0.025338344 0.010497749 -0.009818121
0000f0 e6 db 03 bb a6 5c ea b8 5a 19 90 ba 45 65 79 bc
       -0.0020120083 -0.000111752466 -0.0010993883 -0.015221898
000100 e6 74 6b b9 23 8d 5d bc 9f 76 e6 ba d5 e2 03 3c
       -0.00022454894 -0.013522419 -0.0017582959 0.008049686
000110 1d 3c 18 3b c6 6f 83 3b db 6b 99 bc 42 09 27 bc
       0.002322919 0.004011127 -0.018728187 -0.010195078
000120 8a a8 ec ba 4f f1 d3 3a 76 ea f5 ba f6 ca f0 bb
       -0.00180556 0.0016169938 -0.0018761891 -0.0073484136
000130 29 e3 63 bb 7c d8 eb 3b 7a b8 8e 3a 74 fd 44 3c
       -0.003477285 0.007197438 0.0010888719 0.012023319
000140 a2 f0 04 bc 30 79 3e 3c 53 41 a1 3c 3b 81 41 3b
       -0.008114012 0.011625573 0.01968447 0.002952649
000150 0b 0e 84 bb d0 0f 36 3c fb c3 39 3c 5d 66 d5 3c
       -0.0040299944 0.011112168 0.011338229 0.026049787
000160 d9 21 3a 3c f6 2f 2a bc ef 0b 2e b9 44 20 c8 ba
       0.011360609 -0.010387411 -0.00016598379 -0.0015268405
000170 0f 61 e2 bb c8 8d 80 3b 9f 93 60 3b 8e f0 00 3c
       -0.006908543 0.0039231516 0.0034267677 0.007869853
000180 6c ad b8 bb 46 93 44 3c d5 2e 6d 3c 2e 18 cd bc
       -0.005635908 0.011998003 0.014476498 -0.025035944
000190 a5 63 e7 3b 24 d1 aa 3a 2e 71 ef bb fd e2 c5 3b
       0.007061439 0.00130323 -0.0073071932 0.006039022
0001a0 6e 0d b4 bc 37 9e 17 bc 7e 6c 1b 39 3d e8 0e 3c
       -0.02197906 -0.00925403 0.00014822368 0.008722362
0001b0 24 ca 2c 3c da d3 60 3c c5 c9 cb bb 77 19 e9 bb
       0.010546241 0.013722384 -0.006219121 -0.0071136313
0001c0 68 9b 7e bb 4d 71 a7 bb 11 e1 99 bb 0f f4 d6 3b
       -0.0038849954 -0.005109942 -0.0046960195 0.006559856
0001d0 0b 67 3d 3c 51 0b 49 bc 5d 33 8e 3c 87 14 c8 3b
       0.011560212 -0.012270764 0.017358476 0.0061059627
0001e0 05 17 7e bc dc f5 ed 3b 5e 34 2a 3c e7 7c 9e 3b
       -0.015508418 0.0072619747 0.010388462 0.004836667
0001f0 75 ac 44 3c ab d3 a7 ba 67 6a 2e bc f4 54 cd 3b
       0.012004008 -0.0012804171 -0.0106454855 0.0062662307
000200 f4 c2 8c 3c c3 fb 89 3b 84 48 d3 bb c1 13 68 3b
       0.017182805 0.0042109205 -0.0064478535 0.0035412165
000210 f1 3f 76 3c e2 3e 66 bb c3 48 32 bb dd a2 cf 3c
       0.015029893 -0.0035132696 -0.0027204014 0.025346214
000220 e3 af b2 3b a9 5e 75 3b 9b 8c 52 bc d8 6d 8d ba
       0.0054530962 0.0037440455 -0.012850906 -0.0010790182
000230 28 b2 62 39 b6 50 ac 3a 94 be 46 3c 41 a0 1a 3c
       0.00021619408 0.0013146612 0.012130398 0.009437622
000240 41 92 e4 ba 7e 32 cb b7 6c 5f 91 bb f6 e2 2c 3a
       -0.0017438607 -2.4222998e-05 -0.004436424 0.0006595099
000250 ef e0 eb 3b 66 98 2c 3c 62 27 73 3c c2 5c 41 3c
       0.007198445 0.0105343815 0.014840933 0.0118019
000260 cb 03 37 bc f5 ad fd b9 df b2 2c bc 57 a0 05 bc
       -0.011170338 -0.00048385528 -0.010540693 -0.008155904
000270 d5 14 06 3c 80 fe 87 3b c7 40 00 3b a0 4a 96 bb
       0.008183678 0.004150212 0.001956986 -0.0045865327
000280 cb e1 0b bc f4 75 b7 3b 5b 1a a2 3b 1f 67 b8 3c
       -0.00853772 0.005598778 0.0049469895 0.02251011
000290 1c 2c 49 3c af 00 ed bc 19 71 12 3c 41 dc dc bb
       0.012278583 -0.02893099 0.008938097 -0.0067401235
0002a0 92 7f 08 3c fe 35 e5 bb 99 25 f8 bb a9 31 d5 bb
       0.008331196 -0.0069949618 -0.0075728414 -0.006506164
0002b0 01 84 64 bb 27 12 a0 bb c2 ba 8d 3b 33 9a 13 3c
       -0.003486872 -0.0048849764 0.004325242 0.009008932
0002c0 46 87 22 3c d2 85 43 3b 2c a7 00 3b ec 68 5e 3b
       0.009919947 0.0029834402 0.0019630892 0.003393705
0002d0 6b 9f c0 bb cb ca a6 ba e5 bc 38 3b 33 e2 09 3c
       -0.005878379 -0.0012725232 0.0028188762 0.0084157465
0002e0 8d 5a d3 3b 9a 05 78 bb 39 9f c7 3b 9f f4 b6 3b
       0.0064500035 -0.0037845136 0.006091979 0.0055833603
0002f0 10 10 44 3c 5c 04 9a ba ba e2 46 ba a0 54 72 bb
       0.01196672 -0.0011750567 -0.00075868855 -0.003697671
000300 d8 86 62 3c aa 63 b9 3b 99 c0 c5 3b 0b 24 f7 3b
       0.013826095 0.005657633 0.0060349223 0.0075421385
000310 ce 4f 1c bc 2a c4 ea bb 59 96 5c bc 9c 15 25 3c
       -0.009540511 -0.007164498 -0.01346358 0.010075953
000320 60 70 22 3b ff 21 7e 3a 0e b1 4b bc 4f 69 52 bc
       0.002478622 0.0009694397 -0.01243235 -0.01284249
000330 19 94 4e 3b a4 8f ff 3b 8b ec a5 bb 6d 81 c8 ba
       0.0031521379 0.0077991057 -0.0050635985 -0.0015297361
000340 8b 91 29 3c c5 46 7b 3a c4 c4 08 3c 73 14 c7 3b
       0.010349642 0.00095854356 0.008347694 0.006075436
000350 6a 7b 05 3b 7d db 3b bb e3 19 e5 39 15 41 11 bc
       0.002036775 -0.002866476 0.0004369757 -0.008865614
000360 d4 65 04 3c fd ae 95 bb 6e 8f 1e 3b 71 88 87 bc
       0.008080918 -0.0045679794 0.0024194377 -0.016544553
000370 1b a4 93 3c 6e 96 8c ba 15 80 ec 3b 4d 13 a0 3b
       0.018022588 -0.0010725984 0.007217417 0.0048851133
000380 95 2b 20 bc e9 45 8e 3b 66 24 f8 39 2d 52 47 bb
       -0.009776016 0.00434183 0.00047329365 -0.003041397
000390 69 39 c8 bb 43 f6 2c bc f3 d0 29 bc a2 0c 25 3c
       -0.0061103594 -0.01055676 -0.010364759 0.010073813
0003a0 f2 c1 a2 bb 6e c0 9b ba 6b 72 6d bc 96 34 61 ba
       -0.0049669677 -0.001188291 -0.014492611 -0.0008590905
0003b0 54 24 fa bb fa c8 aa bb ae 16 9a 3c 26 52 61 bc
       -0.007633725 -0.0052119466 0.018809643 -0.013752496
0003c0 65 8e 17 3c bb 66 f1 3b 01 c6 90 3c 51 61 35 3b
       0.009250258 0.0073669828 0.01767254 0.0027676413
0003d0 62 09 69 bc 06 b2 27 3a 46 4d 06 bb 41 bb 7b bc
       -0.014223428 0.0006397072 -0.0020492836 -0.015364469
0003e0 fd 0a 87 bb 4a 38 3b bc f1 d7 34 3c b8 26 cd 3a
       -0.004121183 -0.011426995 0.011037813 0.0015651798
0003f0 cc 31 0c 3b 44 4b 1f 3c a2 3c 21 3a 9f 48 47 3a
       0.0021391986 0.009722535 0.00061506976 0.0007602069

action_model._discrete_distribution.branches.1.bias f4 [2]
000000 83 ed 73 ba 13 ee 73 3a
       -0.00093051064 0.000930519
