results/Player2/MoveAgent2D/MoveAgent2D-7072.onnx (onnx, 80481 bytes, 8 tensors)

discrete_act_size_vector f4 [1, 2]
0	0x40400000	3.0
1	0x40000000	2.0

network_body._body_endoder.seq_layers.0.weight f4 [128, 9]
0	0xbf106da5	-0.56417304
1	0xbea2c29a	-0.31789094
2	0x3ed3f54a	0.41398078
3	0xbe4bcbca	-0.19901958
4	0xbe07d740	-0.13265705
5	0x3ee46bc3	0.44613466
6	0xbde12f40	-0.1099534
7	0xbee85c16	-0.45382756
8	0xbdcdf3a3	-0.10056236
9	0x3ef76283	0.48317346
10	0xbe9c3085	-0.30505767
11	0xbed41c90	-0.4142804
12	0xbf0c4a6a	-0.54801047
13	0x3e9378ab	0.28803
14	0xbe8cb7e3	-0.27484044
15	0x3f0853a1	0.5325261
16	0x3e91e414	0.28494322
17	0xbef6f90c	-0.48236883
18	0xbe606564	-0.21913677
19	0x3d905502	0.07047464
20	0x3d2f152f	0.04274481
21	0xbe54c552	-0.20778397
22	0xbea31e04	-0.31858838
23	0xbd47c682	-0.048773296
24	0x3e21b28f	0.15790771
25	0x3ce96f4b	0.028495451
26	0xbe3f7a2b	-0.18698947
27	0x3d5d6092	0.054047175
28	0xbeaf8aee	-0.34285682
29	0x3e962ffa	0.29333478
30	0xbedac7af	-0.42730471
31	0x3ca9d87d	0.020733112
32	0xbe64a7fb	-0.22329704
33	0x3d035b78	0.032069653
34	0x3e7769b8	0.24161422
35	0xbdc5ebe3	-0.096641324
36	0x3ed3199e	0.41230482
37	0xbeaa175d	-0.3322095
38	0xbefb7d20	-0.491189
39	0x3e95cc79	0.29257563
40	0x3e2cef46	0.1688815
41	0xbdf0281a	-0.11726399
42	0xbeef008b	-0.46680102
43	0xbe941e14	-0.28929198
44	0xbe8e614e	-0.27808613
45	0xbf040703	-0.515732
46	0xbd4216eb	-0.047385138
47	0xbd1d6946	-0.038430475
48	0x3f26431e	0.6494616
49	0x3ec02ff8	0.37536597
50	0xbebd60fb	-0.36988053
51	0xbe78f1d0	-0.24310994
52	0xbe7b9902	-0.24570087
53	0xbe90058c	-0.28129232
54	0xbdb14d87	-0.08657365
55	0xbe2c2977	-0.16812693
56	0x3ea8be1d	0.32957545
57	0xbe661250	-0.22467923
58	0xbea1471f	-0.31499574
59	0x3dd71952	0.10502876
60	0xbe82acc0	-0.25522423
61	0x3ec6f050	0.3885522
62	0xbd1d3a5f	-0.038385745
63	0xbe5dc502	-0.21657184
64	0x3e22e91e	0.1590924
65	0xbf1d34f7	-0.6140894
66	0xbe02094a	-0.12698856
67	0xbd48367e	-0.048880093
68	0x3e8ebc0f	0.27877852
69	0xbe1286ca	-0.1430923
70	0x3e2164bc	0.15761083
71	0xbef12974	-0.4710194
72	0xbe464a2c	-0.19364232
73	0x3f0d919e	0.5530032
74	0xbd2153fa	-0.039386727
75	0xbe66aabe	-0.2252607
76	0xbd0a776c	-0.033805296
77	0x3c94fab2	0.018185947
78	0x3f37c7e0	0.7178936
79	0x3c1e9c96	0.009680888
80	0xbe0844d4	-0.13307506
81	0x3e9886c7	0.29790327
82	0xbf9a0dc3	-1.203545
83	0x3e45a017	0.1929935
84	0xbd815446	-0.06314902
85	0x3e1c8afe	0.15287396
86	0xbefaa106	-0.48950976
87	0x3ea651a7	0.3248417
88	0xbd7a6076	-0.06112715
89	0x3f155899	0.58338314
90	0x3e86d8c6	0.2633726
91	0xbe29c570	-0.16579223
92	0x3e182340	0.14857197
93	0xbdea143e	-0.11429642
94	0x3d4110b0	0.047135055
95	0x3e80a1c8	0.2512343
96	0x3dc6189f	0.09672665
97	0x3d5556af	0.05208462
98	0x3dd73c8b	0.105095945
99	0x3e7ce190	0.2469542
100	0xbd9f8195	-0.07788388
101	0xbe8377a7	-0.25677225
102	0x3ed78bb7	0.4209878
103	0xbedb5154	-0.42835486
104	0x3ea2152f	0.31656787
105	0xbe9697ac	-0.2941259
106	0x3f160adb	0.58610314
107	0xbd895b3c	-0.06706855
108	0x3ed8c053	0.42334232
109	0xbe7758d3	-0.24154978
110	0x3e509e13	0.203728
111	0xbe3717db	-0.17880194
112	0xbec95b2a	-0.39327365
113	0x3e860657	0.26176712
114	0x3e0c7d4c	0.13719672
115	0x3e9eb3c1	0.30996516
116	0x3e5194ac	0.2046687
117	0xbeef0b44	-0.46688282
118	0xbe2d13d4	-0.16902095
119	0x3ed29b70	0.41134214
120	0xbf215470	-0.63019466
121	0xbebd6296	-0.36989278
122	0xbe8d8911	-0.27643636
123	0xbeaa04ed	-0.33206883
124	0xbf03e87f	-0.51526636
125	0x3cf72434	0.03016863
126	0x3e380058	0.17968881
127	0x3ec5d5f0	0.38639784
128	0x3e820cbc	0.2540034
129	0xbed21613	-0.41032466
130	0xbe35436e	-0.17701504
131	0xbdb80483	-0.089852355
132	0x3eaf6047	0.3425314
133	0x3e706632	0.23476484
134	0x3dbce8bf	0.0922408
135	0xbe47ec2a	-0.19523683
136	0xbd5dffca	-0.054199018
137	0x3e25ea00	0.16202545
138	0xbed07784	-0.40716183
139	0x3ed6c25a	0.41945153
140	0x3e3288aa	0.17434946
141	0xbeadd8fc	-0.33954608
142	0xbefe4824	-0.49664414
143	0xbe4b5713	-0.19857435
144	0xbe93f7dc	-0.2890004
145	0xbe2c7d0b	-0.16844575
146	0xbedc4428	-0.4302075
147	0xbdd4e0c4	-0.10394433
148	0x3e99e92c	0.3006071
149	0xbf140a9c	-0.5782869
150	0xbe8d2e2c	-0.2757429
151	0x3e709f4c	0.23498267
152	0x3e73b637	0.23799978
153	0xbf109f5a	-0.5649315
154	0xbf2b6486	-0.6695026
155	0x3d8d2b68	0.06893045
156	0xbe9c9a76	-0.30586594
157	0xbe3e1414	-0.18562347
158	0xbe313897	-0.17306744
159	0xbde371eb	-0.111057125
160	0x3ea20a50	0.31648493
161	0x3f337b10	0.70109653
162	0xbc25fb5e	-0.010130731
163	0xbe94ba41	-0.2904835
164	0xbea6abce	-0.32552952
165	0xbe97deb0	-0.29662085
166	0xbf1ea8c5	-0.6197627
167	0xbf95ecdc	-1.1712909
168	0x3ebd910c	0.37024724
169	0x3e010654	0.1260007
170	0xbb69eabf	-0.0035692898
171	0xbdeca037	-0.11553996
172	0xbe855474	-0.26040995
173	0xbeb765db	-0.35819897
174	0xbde52ecc	-0.111905664
175	0xbe3f1152	-0.18658951
176	0x3bd6ef22	0.0065592686
177	0x3ededfd2	0.43530136
178	0xbe99c7e2	-0.3003531
179	0x3e6e1354	0.2324956
180	0x3d887d75	0.06664554
181	0xbe009fd5	-0.12560971
182	0x3e920aeb	0.28523955
183	0x3e7ee26c	0.2489106
184	0xbefa071a	-0.48833543
185	0xbdea8d58	-0.114527404
186	0x3f45a040	0.7719765
187	0xbe58f6b6	-0.21187863
188	0x3f0ecf11	0.5578471
189	0x3d6f056c	0.05835478
190	0xbd49e372	-0.049289174
191	0x3dbba50a	0.09162338
192	0x3e44964c	0.19197959
193	0xbe9a7e0f	-0.301743
194	0xbe4fd998	-0.20297849
195	0xbf124490	-0.5713587
196	0xbd8fa6b4	-0.07014218
197	0x3e971831	0.29510644
198	0xbeda0cd2	-0.42587906
199	0x3e42ea74	0.1903475
200	0x3ed0de78	0.4079473
201	0x3d1daef4	0.038496926
202	0xbe196705	-0.14980705
203	0xbdb472e7	-0.088109784
204	0xbf0bb5f4	-0.54574513
205	0x3e4d3f0c	0.20043582
206	0x3e933f86	0.28759402
207	0x3df73b32	0.120718375
208	0x3e188f65	0.1489845
209	0x3e8f6458	0.28006244
210	0xbe1d96cd	-0.15389557
211	0xbcf49662	-0.029856864
212	0xbe9d5344	-0.3072759
213	0xbef45d20	-0.477273
214	0x3e065a7d	0.13120456
215	0xbe172838	-0.14761436
216	0x3e16f310	0.14741158
217	0x3e9680df	0.29395196
218	0xbeacad48	-0.33725953
219	0x3eaf6d16	0.34262913
220	0xbe7ad2f8	-0.2449454
221	0x3e338408	0.17530835
222	0x3e18245c	0.1485762
223	0xbe5de0b8	-0.21667755
224	0x3ea32cdd	0.31870165
225	0xbe250d64	-0.1611839
226	0x3ef0afeb	0.47009215
227	0x3e243c57	0.16038643
228	0xbe87d874	-0.26532328
229	0xbef2c096	-0.47412556
230	0xbe010ba8	-0.12602103
231	0xbedfcb8c	-0.4370998
232	0x3c88a59a	0.016680527
233	0x3f7a13d3	0.976865
234	0x3f24e4fc	0.644119
235	0x3ec11af6	0.37715882
236	0x3ead919b	0.3390015
237	0xbe0a7154	-0.13519794
238	0xbe4c79bf	-0.19968317
239	0x3f0c69da	0.54849017
240	0xbe9733e8	-0.2953179
241	0xbdab34ca	-0.08359678
242	0x3d5d2922	0.053994305
243	0x3e80267a	0.25029355
244	0x3e1db3e0	0.15400648
245	0x3d3633a8	0.044482857
246	0x3f3ca680	0.7369156
247	0xbd692820	-0.05692303
248	0xbe4bb2d7	-0.1989244
249	0x3f19affd	0.6003416
250	0x3e91c809	0.28472927
251	0x3eedf5bb	0.4647654
252	0xbce6f898	-0.02819471
253	0xbdeae933	-0.114702605
254	0x3e2de7a7	0.169829
255	0xbedccec7	-0.4312651

network_body._body_endoder.seq_layers.0.bias f4 [128]
0	0x00000000	0.0
1	0x00000000	0.0
2	0x00000000	0.0
3	0x00000000	0.0
4	0x00000000	0.0
5	0x00000000	0.0
6	0x00000000	0.0
7	0x00000000	0.0
8	0x00000000	0.0
9	0x00000000	0.0
10	0x00000000	0.0
11	0x00000000	0.0
12	0x00000000	0.0
13	0x00000000	0.0
14	0x00000000	0.0
15	0x00000000	0.0
16	0x00000000	0.0
17	0x00000000	0.0
18	0x00000000	0.0
19	0x00000000	0.0
20	0x00000000	0.0
21	0x00000000	0.0
22	0x00000000	0.0
23	0x00000000	0.0
24	0x00000000	0.0
25	0x00000000	0.0
26	0x00000000	0.0
27	0x00000000	0.0
28	0x00000000	0.0
29	0x00000000	0.0
30	0x00000000	0.0
31	0x00000000	0.0
32	0x00000000	0.0
33	0x00000000	0.0
34	0x00000000	0.0
35	0x00000000	0.0
36	0x00000000	0.0
37	0x00000000	0.0
38	0x00000000	0.0
39	0x00000000	0.0
40	0x00000000	0.0
41	0x00000000	0.0
42	0x00000000	0.0
43	0x00000000	0.0
44	0x00000000	0.0
45	0x00000000	0.0
46	0x00000000	0.0
47	0x00000000	0.0
48	0x00000000	0.0
49	0x00000000	0.0
50	0x00000000	0.0
51	0x00000000	0.0
52	0x00000000	0.0
53	0x00000000	0.0
54	0x00000000	0.0
55	0x00000000	0.0
56	0x00000000	0.0
57	0x00000000	0.0
58	0x00000000	0.0
59	0x00000000	0.0
60	0x00000000	0.0
61	0x00000000	0.0
62	0x00000000	0.0
63	0x00000000	0.0
64	0x00000000	0.0
65	0x00000000	0.0
66	0x00000000	0.0
67	0x00000000	0.0
68	0x00000000	0.0
69	0x00000000	0.0
70	0x00000000	0.0
71	0x00000000	0.0
72	0x00000000	0.0
73	0x00000000	0.0
74	0x00000000	0.0
75	0x00000000	0.0
76	0x00000000	0.0
77	0x00000000	0.0
78	0x00000000	0.0
79	0x00000000	0.0
80	0x00000000	0.0
81	0x00000000	0.0
82	0x00000000	0.0
83	0x00000000	0.0
84	0x00000000	0.0
85	0x00000000	0.0
86	0x00000000	0.0
87	0x00000000	0.0
88	0x00000000	0.0
89	0x00000000	0.0
90	0x00000000	0.0
91	0x00000000	0.0
92	0x00000000	0.0
93	0x00000000	0.0
94	0x00000000	0.0
95	0x00000000	0.0
96	0x00000000	0.0
97	0x00000000	0.0
98	0x00000000	0.0
99	0x00000000	0.0
100	0x00000000	0.0
101	0x00000000	0.0
102	0x00000000	0.0
103	0x00000000	0.0
104	0x00000000	0.0
105	0x00000000	0.0
106	0x00000000	0.0
107	0x00000000	0.0
108	0x00000000	0.0
109	0x00000000	0.0
110	0x00000000	0.0
111	0x00000000	0.0
112	0x00000000	0.0
113	0x00000000	0.0
114	0x00000000	0.0
115	0x00000000	0.0
116	0x00000000	0.0
117	0x00000000	0.0
118	0x00000000	0.0
119	0x00000000	0.0
120	0x00000000	0.0
121	0x00000000	0.0
122	0x00000000	0.0
123	0x00000000	0.0
124	0x00000000	0.0
125	0x00000000	0.0
126	0x00000000	0.0
127	0x00000000	0.0

network_body._body_endoder.seq_layers.2.weight f4 [128, 128]
0	0x3de699c2	0.11259796
1	0x3e1ab775	0.15109046
2	0xbd7b57ea	-0.06136314
3	0xbdd6867f	-0.10474872
4	0xbd32ec1a	-0.043682195
5	0xbdfb3899	-0.122666545
6	0xbb291537	-0.0025799999
7	0xbcef2039	-0.02919017
8	0x3df737ad	0.12071166
9	0xbdb407e7	-0.0879057
10	0x3ddae1e6	0.10687618
11	0x3da3fa07	0.08006673
12	0x3c4b3386	0.012402421
13	0xbdd9cd1a	-0.10634823
14	0xbd2291c4	-0.039689794
15	0x3dea0e09	0.11428458
16	0xbcf7eddc	-0.030264787
17	0x3cbd8ca9	0.023138361
18	0x3e17b580	0.1481533
19	0xbd9854f9	-0.07438082
20	0xbc79364d	-0.0152107
21	0x3d58da17	0.05294236
22	0xbd99ab87	-0.07503419
23	0xbde7a07b	-0.11309906
24	0x3d2455f3	0.04012103
25	0xbd4caf71	-0.049972
26	0xbbe740ee	-0.007057301
27	0xbdf6d215	-0.12051789
28	0xbd34b7bb	-0.04412053
29	0x3e01c23b	0.1267175
30	0xbddc0c0c	-0.10744485
31	0x3d91a290	0.071110845
32	0x3e11e805	0.14248665
33	0xbd956961	-0.0729549
34	0xbd944442	-0.07239582
35	0xbc924927	-0.017857147
36	0xbd662751	-0.05618984
37	0xbd29780f	-0.041374262
38	0x3d916ece	0.071012124
39	0x3d953c11	0.072868474
40	0x3d9e6c85	0.07735542
41	0xbe386a7e	-0.18009374
42	0x3af79f34	0.0018892051
43	0xbd80f74e	-0.062971696
44	0x3ceb9f32	0.028762434
45	0xbb6e68b7	-0.0036378333
46	0xbd335ed8	-0.043791622
47	0xbccbb755	-0.024867693
48	0x3d41134e	0.04713755
49	0x3cf0f13e	0.029411908
50	0x3daea2bc	0.08527133
51	0xbc8d7c79	-0.017271267
52	0xbccac674	-0.024752833
53	0x3c44677f	0.011987566
54	0xbd0ad3ec	-0.03389351
55	0x3e0644e3	0.13112216
56	0x3d90c307	0.070684485
57	0x3a0450d1	0.0005047443
58	0xbe1e7275	-0.1547335
59	0x3cf6bec8	0.030120268
60	0x3d0918a8	0.03347078
61	0x3c9f4200	0.019440651
62	0x3cd73a1c	0.026272826
63	0xbdcc23e7	-0.09967785
64	0x3cd31c50	0.025770336
65	0xbe0b208a	-0.13586631
66	0x3d878125	0.06616429
67	0x3d0dabbb	0.034587603
68	0x3d8300d0	0.06396639
69	0xbde59b5c	-0.11211273
70	0xbd6df282	-0.0580926
71	0xbda6160e	-0.08109675
72	0x3d5afd4c	0.05346422
73	0xbc10b2c8	-0.008831687
74	0xbd362aea	-0.04447452
75	0xbd66c8e7	-0.05634394
76	0x3da45e5c	0.0802581
77	0x3dc3e21e	0.09564613
78	0xbd9ce90d	-0.076616384
79	0x3d57cb0b	0.05268387
80	0xbd373712	-0.044730254
81	0x3d5c0fdf	0.053726073
82	0xbdc04c39	-0.09389538
83	0x3dea08d9	0.11427469
84	0xbdfe6b1d	-0.12422774
85	0xbde1c7a4	-0.110244066
86	0x3c171565	0.009221409
87	0xbe078093	-0.13232641
88	0x3db52e9c	0.08846781
89	0xbda43503	-0.08017924
90	0x3d889afb	0.06670185
91	0xbd4a9b74	-0.049464658
92	0x3d941e48	0.07232338
93	0x3d17fc52	0.037105866
94	0xbd4e7efe	-0.050414078
95	0x3d9abf49	0.07556016
96	0x3dd87b85	0.105704345
97	0x3d9fa434	0.07794991
98	0xbe312c5b	-0.17302077
99	0xbdfbf03a	-0.12301679
100	0x3e6f71d4	0.23383266
101	0xbe067215	-0.13129456
102	0x3d96d298	0.07364386
103	0xbd69a9a6	-0.057046555
104	0xbd426bd5	-0.047466118
105	0xbd5ba3cb	-0.053623002
106	0x3dde4f7d	0.10855005
107	0xbdb65ec6	-0.08904795
108	0xbca9245a	-0.020647217
109	0xbcfac614	-0.03061203
110	0xbd928a70	-0.07155311
111	0x3d83b5e3	0.064311765
112	0xbce49b89	-0.027906196
113	0xbc8d119f	-0.017220316
114	0x3dc8ffef	0.098144405
115	0x3d1dfa47	0.03856876
116	0x3b95b962	0.0045692185
117	0x3d35f881	0.044426445
118	0x3ded7e0d	0.11596308
119	0x3bc89c94	0.006122181
120	0x3dc122a7	0.094304375
121	0x3c058403	0.00814915
122	0xbd486c80	-0.0489316
123	0xbcd95777	-0.026530964
124	0xbce6a410	-0.028154403
125	0xbc9655ef	-0.018351523
126	0xbc1144e6	-0.008866524
127	0xbdd0a7ab	-0.1018823
128	0xbe5e8921	-0.21731998
129	0x3d493594	0.04912336
130	0xbd4d90cd	-0.05018692
131	0xbda71118	-0.08157557
132	0xbdc07007	-0.093963675
133	0xbba3d78a	-0.0050000595
134	0xbdbadd71	-0.09124268
135	0xbc2b4186	-0.010452634
136	0x3d17c464	0.037052527
137	0xbde305c5	-0.11085085
138	0xbcebddcb	-0.028792283
139	0xbce83264	-0.02834434
140	0xbdbde214	-0.092716366
141	0xbdc64bcf	-0.09682428
142	0x3de5c97d	0.112200715
143	0x3ca0eafc	0.0196433
144	0xbc26a2d8	-0.010170661
145	0x3dcfc270	0.10144508
146	0x39972a33	0.00028832405
147	0xbdeba800	-0.11506653
148	0x3c870110	0.016479999
149	0xbcca0258	-0.02465932
150	0xbd4d7342	-0.050158747
151	0xbd184356	-0.03717359
152	0x3cbecd47	0.023291243
153	0x3d9b5b44	0.07585767
154	0xbc4848fb	-0.012224431
155	0x3ba7030b	0.0050967983
156	0x3dcd62ae	0.10028587
157	0xbd514d56	-0.051099144
158	0x3da2f3e5	0.079566754
159	0x3ca01492	0.019541059
160	0x3e15d4c5	0.14631946
161	0xbdc021bf	-0.093814366
162	0x3d357442	0.044300325
163	0x3badc398	0.0053028576
164	0x3bd121ec	0.0063822176
165	0x3d6c49fd	0.05768775
166	0xbd48d015	-0.049026567
167	0x3d7f7fbe	0.062377684
168	0xbdbdde66	-0.09270935
169	0x3d3292eb	0.043597143
170	0x3d48e039	0.04904196
171	0xbdbd6449	-0.092476435
172	0xbd923c89	-0.071404524
173	0x3ceaef19	0.028678464
174	0x3d44c661	0.04804075
175	0x3cc1bc01	0.023649218
176	0xbd15bf18	-0.036559194
177	0xbe0a45c9	-0.13503183
178	0xbdb6f7d3	-0.089339875
179	0xbcda0001	-0.02661133
180	0xbe73f6da	-0.23824635
181	0xbe063a50	-0.13108182
182	0xbd11ccf4	-0.03559585
183	0xbce8a9de	-0.028401311
184	0xbcb5c66c	-0.022189341
185	0x3cf4b223	0.029870098
186	0x3dca3daf	0.098750465
187	0xbdc98020	-0.09838891
188	0xbddd5003	-0.10806277
189	0xbd8753f9	-0.066078134
190	0xbcbb1a67	-0.022839738
191	0xbd99ac69	-0.07503588
192	0x3c6b1767	0.014348841
193	0x3de1ecee	0.11031519
194	0xbe102155	-0.14075215
195	0xbcd24181	-0.025666
196	0x3c3d7fc6	0.011566108
197	0x3d35ff34	0.044432834
198	0xbd134726	-0.035956524
199	0xbcd30e21	-0.025763573
200	0xbe35dfd2	-0.17761162
201	0xbcb70fe9	-0.022346454
202	0x3c6cc865	0.014452075
203	0x3db7504d	0.08950863
204	0x3e3a2f28	0.18182051
205	0x3dde5e2b	0.10857805
206	0xbcebaae5	-0.028768012
207	0x3d8105a6	0.062999055
208	0xbd27e1bd	-0.040986765
209	0xbd05634f	-0.03256541
210	0x3e0e9a40	0.13926029
211	0xbd98da05	-0.07463459
212	0xbd3db2c9	-0.04631308
213	0xbe159045	-0.14605816
214	0xbdab5c65	-0.08367232
215	0x3dc66d6f	0.096888416
216	0xbd9f53ec	-0.07779679
217	0xbcd6b0ea	-0.026207406
218	0x3dcc3d94	0.099726826
219	0xbdf01a7e	-0.11723803
220	0x3ce0b428	0.027429655
221	0xbe14e15b	-0.14539091
222	0x3dde50eb	0.10855278
223	0x3bcf434e	0.006325162
224	0xbe898bcf	-0.26864478
225	0xbc97404d	-0.018463278
226	0x3d5e87ba	0.054328658
227	0xbcfdf490	-0.031000406
228	0x3dda8c36	0.10671274
229	0xbe571fe2	-0.21008256
230	0x3c920988	0.01782681
231	0x3cbfa4dc	0.02339404
232	0x3d0322ee	0.032015733
233	0x3e07c47f	0.13258551
234	0x3d6f1747	0.05837181
235	0x3d3ab3a1	0.045581464
236	0xbd6012ba	-0.05470536
237	0xbd8a1327	-0.06741934
238	0xbd90a8c9	-0.07063443
239	0xbd0e6b2e	-0.034770183
240	0x3dca4135	0.098757185
241	0xbd52738f	-0.051379737
242	0x3d38e7dc	0.045142993
243	0x3d670ab7	0.056406703
244	0xbdd074cd	-0.10178528
245	0x3cf7da5c	0.030255489
246	0x3da55f32	0.08074798
247	0xbde8ed88	-0.113734305
248	0x3e028c84	0.12748915
249	0xbcf8585a	-0.030315567
250	0x3d95897d	0.073016144
251	0x3e3d75ab	0.18501918
252	0xbd929cca	-0.071588114
253	0x3ce8f574	0.028437354
254	0xbd77d2c2	-0.06050373
255	0xbdc0e6a7	-0.094189934

action_model._discrete_distribution.branches.0.weight f4 [3, 128]
0	0xbbd9cab7	-0.00664648
1	0xbaa681a9	-0.0012703437
2	0xbbb9b3f6	-0.005667205
3	0x3b869a7b	0.004107771
4	0x3b3a829b	0.0028459195
5	0x3c166356	0.009178957
6	0xbc10e22d	-0.008842987
7	0xbb8eec7b	-0.0043616868
8	0x3b63c96a	0.0034757503
9	0xbb85718c	-0.0040723737
10	0x3b86dd0b	0.004115706
11	0xba855fff	-0.0010175704
12	0xbc6b1dd8	-0.014350377
13	0xba693d8d	-0.00088974164
14	0xbb39f8c9	-0.0028377047
15	0x3ad8061b	0.0016481312
16	0xbc30e60a	-0.010797033
17	0xbbebf7d2	-0.0072011733
18	0xbc6625a3	-0.014047059
19	0xbbfbec52	-0.0076880837
20	0x3c18f9b3	0.009336877
21	0xbb46719b	-0.0030280116
22	0x3bdc41f5	0.00672173
23	0x3c1e2542	0.009652438
24	0xbb40d70e	-0.0029425058
25	0xbae99b03	-0.0017822686
26	0x3c404eb8	0.011737518
27	0x3bcf407f	0.006324827
28	0xbc21c65a	-0.009873951
29	0xbbd3d133	-0.0064641475
30	0x390a520c	0.0001319127
31	0xb9fd70a2	-0.00048339838
32	0xbbe51d67	-0.0069920304
33	0x3bfed505	0.0077768588
34	0x3b2a8a86	0.0026022508
35	0xbba450af	-0.005014501
36	0x3ab64fee	0.0013909319
37	0x3b2e92a4	0.0026637698
38	0x3b1433e0	0.0022613928
39	0xbaf5d1eb	-0.0018754577
40	0x3c86858c	0.016421102
41	0x3c3afb9c	0.011412527
42	0xbb2fe7e1	-0.0026841091
43	0x3cf59ab2	0.029980991
44	0x3b3b315b	0.0028563354
45	0xbc493d44	-0.012282673
46	0x3b3d2cff	0.002886593
47	0x3b7dfb32	0.003875446
48	0xbbc1413d	-0.0058976696
49	0xbba0f133	-0.0049115657
50	0x3c662fa7	0.014049447
51	0xbb78ca0f	-0.0037962233
52	0x3bd2cf32	0.006433391
53	0x3b97a934	0.004628325
54	0xbc5b4de0	-0.013385266
55	0x3cd8035f	0.026368795
56	0x3b09a5c7	0.0021003352
57	0xbc56c58b	-0.013108621
58	0x3bb3ddf1	0.005489104
59	0x3bc66e7f	0.0060556526
60	0xbbc0e83f	-0.005887061
61	0x39408348	0.00018359453
62	0xbc89099e	-0.016728219
63	0xbbda36c0	-0.0066593587
64	0xbc2ba112	-0.010475414
65	0xbc165db3	-0.009177613
66	0x3c6c4bef	0.014422401
67	0x3b952ab6	0.0045522107
68	0x3c0c87b1	0.008577273
69	0xbb3c6f58	-0.002875289
70	0xbc6e3527	-0.01453904
71	0x3c54a2e3	0.012978288
72	0xbb881aab	-0.0041535697
73	0x3bce195a	0.0062896432
74	0x3c26ad64	0.0101731755
75	0x3b04fea7	0.0020293386
76	0xbae96e15	-0.0017809296
77	0xbbabe943	-0.005246313
78	0xbb62fb8b	-0.0034634795
79	0x39b7cbd0	0.00035056332
80	0xbc0663ff	-0.008202552
81	0x3cc4c9cd	0.024022007
82	0x3b65b248	0.003504889
83	0x3ca696ec	0.020335637
84	0xbbaba646	-0.005238327
85	0xbbfef43a	-0.007780579
86	0xbc2a1bf7	-0.010382644
87	0xbc433e1e	-0.011916665
88	0x3c42e70b	0.011895905
89	0x3c055fd8	0.008140527
90	0x3bcefa2a	0.006316443
91	0xbc309583	-0.010777834
92	0xbc1747bf	-0.009233414
93	0x3bbd3c89	0.0057750386
94	0x3acea9d5	0.0015767167
95	0x3c80fe4c	0.015746258
96	0xbbaf1867	-0.005343485
97	0xbabb8623	-0.0014306944
98	0x3bfaa425	0.007648962
99	0x3bdbf51b	0.0067125685
100	0xbc4f5b93	-0.01265611
101	0x3bf6f37f	0.007536351
102	0xbc5d1527	-0.013493813
103	0xbbc4a3db	-0.0060009784
104	0x3aaebb77	0.0013331015
105	0xbc0bedec	-0.008540612
106	0xbc463efb	-0.012099977
107	0x3be7a247	0.0070689055
108	0xbb54d5af	-0.0032475998
109	0x3a768800	0.0009404421
110	0x3c04fc33	0.00811677
111	0xbc42cdc4	-0.011889879
112	0x3c0eebb7	0.008723191
113	0xbc78d8ef	-0.01518844
114	0xbbdc21e8	-0.006717909
115	0xbc18c9ea	-0.009325484
116	0x3c9979c0	0.018734813
117	0xbc020ebf	-0.007938086
118	0xbbb7d65f	-0.005610272
119	0xb96a09fb	-0.00022319697
120	0xbb69fb80	-0.0035702884
121	0x3c4cba56	0.012495598
122	0x3c361935	0.011114408
123	0xbc105f81	-0.008811832
124	0x3b2103a7	0.0024568827
125	0x3c8081f4	0.015686966
126	0xbb0fdb73	-0.002195087
127	0x3bcb5ca7	0.0062061134
128	0xbc07216b	-0.008247714
129	0xb93b9535	-0.00017889294
130	0x3b81994f	0.0039550434
131	0x3c8d5027	0.017250134
132	0x3c425774	0.011861671
133	0xbb18c358	-0.0023309793
134	0xb7aecee0	-2.083875e-05
135	0xbb820e25	-0.0039689713
136	0xbc7aeec3	-0.015315714
137	0xbc853531	-0.016260715
138	0x3ba1fd4e	0.0049435263
139	0xbc2721bb	-0.010200913
140	0xbbc15340	-0.0058998168
141	0xbbc83f5e	-0.0061110696
142	0x3a957a49	0.0011404242
143	0x3adabba7	0.0016688005
144	0xbbd53887	-0.0065069827
145	0xb8f32858	-0.000115946576
146	0x3a97694f	0.001155177
147	0x3b865114	0.0040990207
148	0xbb5c9278	-0.0033656638
149	0x3befff18	0.0073241107
150	0xbb828aae	-0.003983817
151	0xbb08edba	-0.002089365
152	0x3b3b4e65	0.0028580662
153	0xbc6f3d52	-0.014602022
154	0xbc11e903	-0.008905652
155	0xbbe755d2	-0.007059791
156	0xbba91668	-0.0051601417
157	0xbc74ef43	-0.014949623
158	0xbc3bd40d	-0.011464131
159	0x3c39b513	0.011334675
160	0xbbbe8818	-0.0058145635
161	0x3c1ed22e	0.009693665
162	0xba306b33	-0.0006729841
163	0x3c7f0a45	0.015566413
164	0xbc810e29	-0.015753822
165	0xbbd1dc9f	-0.006404474
166	0x3b39268f	0.0028251742
167	0xbc15c201	-0.009140492
168	0xbba7733f	-0.005110174
169	0xbc33d90b	-0.01097704
170	0xba74ba8a	-0.0009335658
171	0xbb963374	-0.0045837704
172	0xbb3c42f8	-0.002872644
173	0xbad4d495	-0.0016237671
174	0x3c7650e0	0.015033931
175	0xbb893c4d	-0.0041880966
176	0x3cab0c82	0.020879988
177	0x3bede687	0.007260147
178	0xba8676f6	-0.0010258842
179	0xbb2c3db4	-0.0026281895
180	0xbbb5c6d0	-0.005547382
181	0xba9ac259	-0.0011807188
182	0x3b844e3d	0.004037647
183	0x3bb2825b	0.0054476685
184	0x3b8995a7	0.004198748
185	0x3c3bb9e6	0.011457896
186	0x3c30c58a	0.0107892845
187	0xbb840d53	-0.0040299087
188	0x3c7b239b	0.015328313
189	0x3b76f402	0.003768206
190	0xbbd85278	-0.006601628
191	0x3b27bba4	0.002559402
192	0x3a64d4bb	0.0008729209
193	0x3a8913bb	0.0010458151
194	0x3b254164	0.0025215978
195	0x3b9bf1d6	0.0047590537
196	0xbc6125da	-0.013741935
197	0x3c2d639d	0.010582832
198	0xbc213d14	-0.009841222
199	0xbc11d0ad	-0.00889985
200	0xbad7fc7f	-0.0016478448
201	0x3c154273	0.009110081
202	0x3b8cc3dc	0.004295809
203	0xbb3d2bc1	-0.002886519
204	0xbc058ca7	-0.00815121
205	0x3c4395d7	0.01193758
206	0x3bf664aa	0.0075193243
207	0xbc0f4dd3	-0.008746582
208	0x3b7c709b	0.0038519267
209	0x3bc77466	0.006086874
210	0x3b6dc2ba	0.0036279396
211	0xbc76adda	-0.015056098
212	0x3a9f42b1	0.0012150613
213	0xbc440cf2	-0.011965977
214	0xbc5f42cf	-0.013626768
215	0x3bb3d054	0.005487481
216	0x3c0e7f69	0.008697369
217	0xbb2e0a3b	-0.002655639
218	0xbac459ab	-0.0014980336
219	0x3b63c235	0.0034753208
220	0xbb7a5ea0	-0.0038203374
221	0x3b59eb92	0.0033251983
222	0xbbd7d5cb	-0.0065867654
223	0x3c87daa8	0.016583756
224	0x3b738468	0.0037157778
225	0x3c7d4e60	0.015460581
226	0xb8a9c26b	-8.094761e-05
227	0x3bb5aa9d	0.0055440203
228	0xbbb9954f	-0.005663551
229	0x3c22dca0	0.009940296
230	0x3b3ea8dd	0.002909235
231	0xbb8cf6f5	-0.0043019005
232	0xbaf0889b	-0.0018351258
233	0x3ac24377	0.0014821131
234	0xb8f8003d	-0.00011825606
235	0x3b1d7bc7	0.0024030076
236	0x3be3f4f3	0.0069566905
237	0x3b178416	0.00231195
238	0xbab9dd67	-0.0014180363
239	0xbb0fbbea	-0.0021932074
240	0x3b15d91f	0.002286501
241	0xbbeffab5	-0.007323588
242	0xbc5c8637	-0.013459734
243	0xbbecede0	-0.0072305053
244	0xbbca59f1	-0.0061752726
245	0x3c854ba9	0.01627143
246	0xbc6a81f0	-0.014313206
247	0x3b0ed658	0.002179524
248	0xbb991d07	-0.00467265
249	0xbc3883ff	-0.011261939
250	0xbc096744	-0.008386437
251	0xbc3e7e6f	-0.011626824
252	0xba8bc3c2	-0.0010663199
253	0x39fa5645	0.00047747992
254	0xbc88d741	-0.016704204
255	0xbb07d270	-0.0020724796

action_model._discrete_distribution.branches.0.bias f4 [3]
0	0x00000000	0.0
1	0x00000000	0.0
2	0x00000000	0.0

action_model._discrete_distribution.branches.1.weight f4 [2, 128]
0	0x39a5651d	0.00031546588
1	0xbc72fc83	-0.014830711
2	0xbc13bf87	-0.009017832
3	0xbbd1caf2	-0.006402367
4	0x3870cd12	5.7411446e-05
5	0x3b3d0f41	0.0028848203
6	0xbb60cabb	-0.0034300524
7	0xbbe1c2f7	-0.0068896967
8	0xbbbe0053	-0.0057983785
9	0xbc73fbe8	-0.014891602
10	0xbbfdf88f	-0.0077505778
11	0x3c3dab4e	0.011576487
12	0x3b31c3b1	0.0027124698
13	0x3a5e9283	0.000849046
14	0xbabe72e3	-0.0014530089
15	0x3c8e12a5	0.017342875
16	0x3c0d67a7	0.00863067
17	0x3bb2a104	0.0054513235
18	0xbc5c0d1f	-0.013430863
19	0xb99aa22e	-0.00029494002
20	0xba04aa32	-0.00050607615
21	0xbb814e8e	-0.003946132
22	0x3c5e3f05	0.01356483
23	0x3c032684	0.008004788
24	0x3af6f2b3	0.001884064
25	0x3ba616be	0.005068629
26	0xbbdc998f	-0.006732173
27	0xbcbd6790	-0.023120672
28	0xba64de35	-0.0008730621
29	0x3c42b093	0.011882919
30	0xbbf65e12	-0.0075185383
31	0x3b1cb6df	0.002391271
32	0x3a50f415	0.00079709414
33	0xbc0d5f52	-0.008628683
34	0xbc6f040d	-0.014588368
35	0x3c0d0265	0.008606528
36	0x3b7f5795	0.0038962115
37	0xbbef152f	-0.0072962265
38	0x3a167163	0.0005738942
39	0xba456bfc	-0.00075310445
40	0x3c56a935	0.013101866
41	0xbb811617	-0.003939401
42	0xbbf24dc5	-0.0073945248
43	0x385874fb	5.160736e-05
44	0xbc101060	-0.008792967
45	0xbb5fbf50	-0.003414113
46	0xbbd88ca3	-0.006608562
47	0xba457e5f	-0.00075337844
48	0xbbd51970	-0.0065032765
49	0xbc6f61c8	-0.014610715
50	0xbbe8c2a5	-0.0071032816
51	0x3c1b369f	0.009473472
52	0x3c7c056b	0.015382151
53	0x3bfefefb	0.007781861
54	0x3bc6951c	0.0060602557
55	0x3b5849eb	0.0033003043
56	0x3b8ef063	0.0043621524
57	0x3c40715b	0.011745776
58	0x3c36648f	0.0111323735
59	0xb94fa9d0	-0.00019804318
60	0xbb28ce79	-0.0025757833
61	0xb9de65aa	-0.00042418885
62	0x3b724ad3	0.0036970868
63	0xbc94a44b	-0.018144747
64	0x3c39358f	0.011304273
65	0xbc619d97	-0.0137704825
66	0xbb3daaf3	-0.0028941005
67	0x3b702b82	0.0036647026
68	0x3b64f34b	0.0034935053
69	0xbb1e4768	-0.0024151448
70	0xbcab539f	-0.020913897
71	0xbc471c32	-0.012152718
72	0xbb8f7e32	-0.0043790573
73	0xbb0adeba	-0.0021189884
74	0xba1130cf	-0.0005538584
75	0xbb69d78f	-0.0035681461
76	0xbb3635f9	-0.0027803166
77	0x3bafa6e5	0.0053604716
78	0x3b0371b5	0.0020056788
79	0x3be3eedf	0.006955966
80	0xbc224f81	-0.0099066505
81	0x3b9c9093	0.004777977
82	0x3c93a52f	0.018023102
83	0x3c23f581	0.010007263
84	0xbc0230b0	-0.007946178
85	0x3c692810	0.014230743
86	0x3c5e11a0	0.013554007
87	0x3c9a69e2	0.018849317
88	0x3c2bcfb7	0.010486535
89	0xbbfdaaa3	-0.0077412887
90	0xb9b7d10f	-0.0003506024
91	0x3b80b1a7	0.003927428
92	0xbb85aacd	-0.004079199
93	0x3b9d8937	0.004807617
94	0x3b9d7f6f	0.004806451
95	0x3c20b71f	0.0098092845
96	0xbada2b93	-0.0016645066
97	0x3c8670df	0.016411243
98	0x3c697eda	0.014251435
99	0xbce80d0f	-0.02832654
100	0x3bfff0bb	0.0078106797
101	0x3b8fb9c7	0.00438616
102	0xbbeaffe7	-0.007171619
103	0x3ba09aff	0.0049012895
104	0xbcba7584	-0.022761114
105	0xbc3712bf	-0.011173903
106	0x3aef296f	0.0018246601
107	0x3c458bce	0.012057258
108	0x3b803263	0.0039122566
109	0x3c601c52	0.013678627
110	0xbbfc3d38	-0.0076977275
111	0xbbc1120c	-0.005892044
112	0xbc385b2f	-0.011252209
113	0xbc077bcd	-0.0082692625
114	0xba81c048	-0.0009899223
115	0x3b1e6208	0.0024167318
116	0x3c87d00b	0.016578695
117	0xbc2a88ae	-0.010408564
118	0x3c7db413	0.015484828
119	0x39b7633e	0.0003497842
120	0xbc83eb52	-0.01610342
121	0x3c266d52	0.0101579
122	0x3c24a215	0.010048409
123	0x3b9a3b6c	0.0047067907
124	0x3c787aed	0.015166027
125	0xbbc301e6	-0.005951154
126	0xbc0bdc42	-0.0085364
127	0x3c064ea0	0.008197457
128	0x3c7bd325	0.015370165
129	0xbb76f48a	-0.0037682378
130	0xbb642dd3	-0.0034817352
131	0x3c081f4a	0.008308241
132	0x3c6a2420	0.014290839
133	0xbb5ac317	-0.0033380443
134	0xbb1397eb	-0.002252097
135	0x3cd55ba5	0.026044676
136	0x3c74d8bf	0.014944254
137	0x3c036210	0.008018985
138	0xbc4ae603	-0.012383941
139	0xbb629dd3	-0.0034578934
140	0xbb21fdc2	-0.0024717902
141	0x3ab0044a	0.0013429013
142	0x3ade1973	0.001694484
143	0x3bcca787	0.0062455568
144	0xbb7a110b	-0.003815713
145	0xbaba7465	-0.0014225362
146	0xbb84e8c1	-0.0040560667
147	0x3b9ad11b	0.0047246343
148	0x3c08389f	0.008314281
149	0x3c29264e	0.010324074
150	0x3be47448	0.0069718696
151	0x3c3b0571	0.011414872
152	0xbc3a6770	-0.0113772005
153	0xbb45b342	-0.003016666
154	0xbc432b7f	-0.011912226
155	0xbc00bf9c	-0.007858183
156	0x3c28348b	0.0102664335
157	0x3b6832fa	0.0035430775
158	0x3ab152c3	0.0013528693
159	0xbb8ca023	-0.0042915507
160	0xbc2f4d2f	-0.010699554
161	0x3acceec7	0.0015635126
162	0x3c2dc3a2	0.0106057245
163	0x3cb36dbf	0.021902917
164	0x3c3326c7	0.010934538
165	0xbcb372f0	-0.021905392
166	0x3b814580	0.0039450526
167	0xbc11d3a3	-0.008900556
168	0x3bd73c5f	0.006568476
169	0xbbe0add0	-0.0068566576
170	0xbc2127e7	-0.009836174
171	0xbbc2a262	-0.0059397677
172	0x3a7636e3	0.0009392334
173	0xbbbbc698	-0.0057304613
174	0x3bc9b350	0.006155409
175	0x3c1e8532	0.009675311
176	0x3c157d8f	0.009124174
177	0x3c010611	0.0078749815
178	0x3bf81d8f	0.007571883
179	0x3b6073b0	0.0034248643
180	0xbbec6ba7	-0.0072149816
181	0xbaea120d	-0.0017858163
182	0x3b2f96de	0.0026792805
183	0x3c61d345	0.013783281
184	0x3b362d1f	0.002779789
185	0x3c20b209	0.009808072
186	0x3bb2d3cc	0.005457377
187	0xbb8446dc	-0.0040367674
188	0x3c4d4c92	0.012530463
189	0xba6221a2	-0.00086262275
190	0xbbb60830	-0.0055551752
191	0xba4b1f2e	-0.00077484816
192	0x3b168dde	0.0022972743
193	0x3bc1845b	0.0059056706
194	0x3beaf7b8	0.0071706437
195	0x3c436993	0.011927026
196	0xbc2f7d99	-0.010711097
197	0xba4185cf	-0.0007382305
198	0xbc38c6dd	-0.011277881
199	0x3c45288f	0.012033596
200	0x3ba58c33	0.0050521134
201	0x3b9a2fdd	0.004705413
202	0xbc615b62	-0.0137546975
203	0xbc882c79	-0.016622769
204	0x3b20e5ee	0.0024551111
205	0x3c1de0b7	0.009636096
206	0xbbc3f756	-0.0059804125
207	0x3b67d7a7	0.0035376342
208	0x3c46f058	0.012142263
209	0x3bffcaa7	0.0078061405
210	0x3c23fcfe	0.0100090485
211	0xba8057d7	-0.0009791803
212	0x3bc31105	0.0059529566
213	0xbbc41e73	-0.005985075
214	0xbae926e5	-0.0017788081
215	0xbada40d3	-0.0016651399
216	0x3c12b7fb	0.008954997
217	0xbbec64cb	-0.007214164
218	0x3b2aa8ca	0.0026040548
219	0xbcb436d4	-0.0219988
220	0x3c78ed03	0.015193227
221	0xbb004252	-0.001957078
222	0x3bbf4a76	0.005837734
223	0x3b410bde	0.0029456536
224	0xbc613d23	-0.013747486
225	0xb895c83d	-7.142171e-05
226	0x3a3711b8	0.00069835363
227	0x3982a8b1	0.00024921217
228	0xbbe0c6d7	-0.006859641
229	0xbc5f78fa	-0.013639683
230	0xbc2c09ba	-0.010500366
231	0x3c37b0aa	0.011211554
232	0xbb892228	-0.00418498
233	0x3a3fc622	0.0007315596
234	0xbc847514	-0.016169108
235	0xbb896dbf	-0.004193991
236	0xba830a05	-0.0009997493
237	0xbba959f2	-0.005168193
238	0x3ca6336b	0.02028819
239	0xbc7555e8	-0.014974095
240	0x3c882084	0.016617067
241	0x3c2c7683	0.010526302
242	0x3c64d2f8	0.0139663145
243	0x3be273ba	0.0069107683
244	0xbc9da138	-0.019241914
245	0xbaa03c2d	-0.0012224965
246	0xb9382874	-0.00017562677
247	0xbc1d6c11	-0.009608285
248	0xbb6717c3	-0.0035261966
249	0xbc6aaab2	-0.0143229235
250	0x3c3a6a1e	0.011377839
251	0x3ade2c72	0.0016950502
252	0xba86107e	-0.0010228304
253	0x3c6bd18a	0.01439322
254	0xbac3d179	-0.0014939747
255	0xba997e37	-0.0011710589

action_model._discrete_distribution.branches.1.bias f4 [2]
0	0x00000000	0.0
1	0x00000000	0.0
