results/Player3/MoveAgent2D/MoveAgent2D-500051.onnx (onnx, 78886 bytes, 9 tensors)

discrete_act_size_vector f4 [1, 2]
0	0x40400000	3.0
1	0x40000000	2.0

network_body._body_endoder.seq_layers.0.weight f4 [128, 5]
0	0xbc6934fb	-0.014233823
1	0x3e31b4a8	0.17354071
2	0xbfb7eae7	-1.4368562
3	0xbd9ea605	-0.077465095
4	0x3ef04cdd	0.46933642
5	0x3db3880b	0.087661825
6	0x3db0aa95	0.08626286
7	0x3f482d23	0.78193873
8	0x3e83e1e3	0.25758275
9	0xbed89e66	-0.42308348
10	0x3e321d24	0.17393929
11	0x3eec0651	0.4609857
12	0xbd75c8ed	-0.06000607
13	0x3e95a8cd	0.29230347
14	0x3d863318	0.06552714
15	0x3f0ac07a	0.54199946
16	0x3f68723a	0.90799296
17	0xbf137e18	-0.5761428
18	0xbefdc135	-0.49561468
19	0xbd70b180	-0.058763027
20	0x3e6c92db	0.23102896
21	0x3e7d580a	0.24740615
22	0x3e0ee3b9	0.13954057
23	0xbf7050c6	-0.9387325
24	0xbea21698	-0.31657863
25	0xbe2d6ea9	-0.16936745
26	0x3ec67ba2	0.387662
27	0xbf0e16a7	-0.55503315
28	0xbed2fe26	-0.41209525
29	0xbe47dc15	-0.19517548
30	0xbf42b7bb	-0.760616
31	0x3eb60cdc	0.35556686
32	0xbf2e378d	-0.68053514
33	0x3e414e7b	0.18877594
34	0x3e1198f1	0.14218499
35	0x3f0d6f21	0.55247694
36	0x3f10d8a4	0.5658057
37	0x3e25219a	0.16126099
38	0x3f11bf1d	0.5693224
39	0xbf092dd2	-0.5358554
40	0xbe06b550	-0.13155103
41	0x3e65210f	0.22375892
42	0xbe4c7a34	-0.19968492
43	0xbe013999	-0.12619628
44	0xbc4d2522	-0.01252106
45	0xbe4b3e84	-0.19848067
46	0x3ea0c29b	0.31398472
47	0x3fb07e1c	1.3788486
48	0xbf07827f	-0.52933496
49	0x3f1d435e	0.6143092
50	0x3e48580f	0.19564842
51	0xbeb869c9	-0.36018208
52	0x3c8a2e63	0.016867822
53	0x3e030291	0.12793948
54	0xbf3b32fe	-0.7312468
55	0xbd3bfcae	-0.04589527
56	0xbe1b1bdb	-0.15147345
57	0x3f3b4789	0.7315603
58	0x3e880ffc	0.26574695
59	0xbea1bfb8	-0.31591582
60	0xbe9d2076	-0.30688828
61	0xbf521c15	-0.820741
62	0xbdeaeb32	-0.11470641
63	0x3f2d0745	0.6758922
64	0xbeca474a	-0.39507514
65	0x3d2f8556	0.04285177
66	0x3eb73c4c	0.3578819
67	0x3f0c5d33	0.5482971
68	0x3eabffbd	0.3359355
69	0xbec70df2	-0.38877827
70	0x3dda0229	0.10644943
71	0xbd064941	-0.032784704
72	0xbeb7738e	-0.3583035
73	0xbec1e8b9	-0.37872866
74	0xbdaed5e5	-0.08536891
75	0x3e78a69c	0.24282306
76	0x3f2ccfa3	0.6750433
77	0xbed23d7e	-0.4106254
78	0xbec978d3	-0.39349994
79	0xbde22cc1	-0.110436924
80	0xbf821a62	-1.0164301
81	0x3d16adf2	0.03678698
82	0xbe1203a2	-0.14259198
83	0x3f083014	0.5319836
84	0x3d330f43	0.043715727
85	0x3ed5da9b	0.41768345
86	0xbf221dc1	-0.6332665
87	0xbf6f0e9a	-0.93381655
88	0xbf0a3f3e	-0.5400275
89	0x3e96d60e	0.29460186
90	0xbe363064	-0.17791897
91	0x3ea6ed6e	0.3260302
92	0xbcb654a8	-0.022257164
93	0x3ebf3edd	0.37352648
94	0x3f0049c6	0.5011257
95	0xbe250b1a	-0.16117516
96	0xbef5dd4d	-0.48020402
97	0xbed78bfd	-0.4209899
98	0xbeb8da6f	-0.36104152
99	0xbea930a7	-0.3304493
100	0x3d750f34	0.059828952
101	0xbe1340b6	-0.14380154
102	0x3f505182	0.8137437
103	0x3eb60704	0.35552227
104	0xbe416d90	-0.18889451
105	0xbd1d5622	-0.03841222
106	0x3e9d6129	0.3073819
107	0xbc9cd490	-0.019144326
108	0x3e6ce356	0.23133597
109	0xbeb764c3	-0.35819063
110	0xbe982677	-0.29716846
111	0xbe54430a	-0.20728698
112	0xbfe966f1	-1.823454
113	0x3f2caaba	0.6744801
114	0x3f479fe6	0.7797836
115	0xbe856033	-0.26049957
116	0xbe8e9cca	-0.27853996
117	0x3f038100	0.51368713
118	0x3e81e1d3	0.25367603
119	0x3e69573a	0.2278718
120	0x3da8fead	0.082517006
121	0x3ea39f10	0.31957293
122	0xbf0aae0e	-0.54171836
123	0x3ebe44c0	0.37161827
124	0x3eb33044	0.3499776
125	0x3e68afb1	0.22723271
126	0x3eb493f4	0.3526913
127	0x3f1dfc40	0.6171303
128	0xbebb3af3	-0.36568412
129	0xbd4078b0	-0.046990097
130	0x3eba35da	0.3636921
131	0x3e51fa8a	0.2050573
132	0x3e9e4ded	0.30918828
133	0x3d259784	0.0404277
134	0x3f33a423	0.7017233
135	0x3e548919	0.20755424
136	0x3e7bcf21	0.24590732
137	0xbd351a67	-0.044214632
138	0x3c97280e	0.018451717
139	0x3da5c419	0.08094043
140	0xbf35eaab	-0.710612
141	0xbd4d15e0	-0.05006969
142	0xbf812b14	-1.0091271
143	0xbca4067d	-0.020022625
144	0x3b85fafc	0.0040887576
145	0x3e78a6cd	0.2428238
146	0x3f163890	0.5868006
147	0x3dd90cc9	0.10598142
148	0x3f18e940	0.5973091
149	0x3d9a3f1b	0.07531568
150	0xbea08792	-0.31353432
151	0xbdd646d4	-0.10462728
152	0xbea60865	-0.3242828
153	0xbee539e6	-0.44770736
154	0x3e9bdcf0	0.30442
155	0xbe583953	-0.21115617
156	0xbe5f0046	-0.21777448
157	0xbebe16f4	-0.37126887
158	0xbee79f8e	-0.45238918
159	0x3b804d82	0.0039154897
160	0xbe9dcc3f	-0.3081989
161	0xbe6a4bb9	-0.22880448
162	0xbe473715	-0.19454606
163	0x3f815ed1	1.0107061
164	0xbd2905a4	-0.041265145
165	0x3e2eb400	0.17060852
166	0xbe695bb1	-0.22788884
167	0x3e75953b	0.23982708
168	0xbf40576f	-0.75133413
169	0x3d2f218c	0.042756602
170	0xbdc10665	-0.09425048
171	0x3dc66e4c	0.09689006
172	0x3e57ef47	0.21087371
173	0xbf0ed824	-0.55798554
174	0xbdde2c01	-0.10848237
175	0x3ddc836b	0.107672535
176	0x3d5a4e52	0.05329735
177	0x3e794d88	0.24345982
178	0x3d21498b	0.039376777
179	0xbdffaae9	-0.124837704
180	0xbd0874b4	-0.03331442
181	0xbed4ded0	-0.41576242
182	0xbfb58c8a	-1.4183514
183	0xbe9c259f	-0.30497453
184	0xbe46bd70	-0.19408202
185	0x3eab3102	0.33435827
186	0xbed9860e	-0.42485088
187	0x3f68d3eb	0.9094836
188	0xbd9f04c1	-0.077645786
189	0x3f2cbfa4	0.6747992
190	0xbdf72c7d	-0.12069032
191	0x3d3614c5	0.0444534
192	0xbe7b6206	-0.24549112
193	0xbeaadb59	-0.33370474
194	0xbf0e3915	-0.5555585
195	0x3ed1aeba	0.40953618
196	0xbd13b264	-0.0360588
197	0xbeac9024	-0.3370372
198	0x3f165009	0.58715874
199	0x3f12b75c	0.57311034
200	0xbe64051c	-0.22267574
201	0xbe610a82	-0.21976665
202	0xbe8b468c	-0.2720226
203	0x3dd6f522	0.10495974
204	0xbf2ae5fb	-0.6675717
205	0x3e2ad162	0.16681436
206	0x3f4a2f03	0.78977984
207	0xbf77910e	-0.9670571
208	0x3d66cb19	0.056346033
209	0x3eb2435d	0.3481702
210	0x3f176a79	0.5914684
211	0x3efa6266	0.48903197
212	0x3d245e5e	0.040129058
213	0xbea3b583	-0.3197442
214	0xbf1aa494	-0.60407376
215	0x3bbb0173	0.00570696
216	0xbda629de	-0.08113454
217	0x3d5bf3c8	0.053699285
218	0x3e573cde	0.21019313
219	0xbdfd9c6c	-0.12383351
220	0xbe7db971	-0.24777772
221	0xbea075e7	-0.31339952
222	0x3f72531f	0.9465808
223	0xbccff28f	-0.025384216
224	0xbf067fb8	-0.52538633
225	0x3f034bf0	0.51287746
226	0xbdd75128	-0.10513526
227	0xbe708838	-0.23489463
228	0x3e8b3be3	0.27194127
229	0x3f0903e4	0.5352156
230	0xbf049d6e	-0.5180272
231	0xbe92712a	-0.28601962
232	0xbd84fc2b	-0.0649341
233	0xbf2869e5	-0.6578658
234	0x3f275b08	0.6537328
235	0xbefca515	-0.49344698
236	0xbe870f49	-0.2637885
237	0x3d2ae166	0.041718863
238	0x3e679af2	0.226177
239	0xbeeb9593	-0.46012554
240	0xbeff8dcc	-0.4991287
241	0x3c54f66a	0.012998203
242	0x3f70a719	0.9400497
243	0x3db94a7a	0.090474084
244	0xbbedc3c9	-0.0072560054
245	0x3eb58aa0	0.35457325
246	0xbf1c3f69	-0.61034256
247	0x3e3d1f25	0.18468912
248	0xbf14ebe5	-0.58172446
249	0x3e7fce80	0.24981117
250	0x3f8243c6	1.0176933
251	0xbe739a36	-0.23789296
252	0xbee16453	-0.44021854
253	0xbec5a83d	-0.38604918
254	0x3ed2ee0c	0.4119724
255	0xbf07d2f8	-0.5305629

network_body._body_endoder.seq_layers.0.bias f4 [128]
0	0x3d6943d1	0.05694944
1	0xbc8bb026	-0.017051768
2	0xbb48ca3c	-0.003063812
3	0x3ca0aba2	0.01961309
4	0xbc966a2d	-0.018361175
5	0x3d11ef2f	0.035628494
6	0xbceab25d	-0.028649503
7	0xbbcbc801	-0.0062189107
8	0xb8039da1	-3.1379637e-05
9	0xbb6831a1	-0.0035429972
10	0x3c93a7ac	0.018024288
11	0x3b5559ae	0.0032554674
12	0xbadee3a7	-0.0017005102
13	0xbc01dcde	-0.007926194
14	0xbc8e2bc8	-0.01735486
15	0x3db05a96	0.08611028
16	0xbd067310	-0.032824576
17	0x3c10075f	0.00879082
18	0x3cb49317	0.022042794
19	0x3b8a9040	0.0042286217
20	0xbbaa9110	-0.005205281
21	0xbc1738f5	-0.009229888
22	0x3ce30faf	0.02771744
23	0x3c4a6cbe	0.012355028
24	0x3cbdf8cf	0.02318993
25	0x3cfc876e	0.030826297
26	0x3ca3f019	0.020011948
27	0xbc81e7be	-0.015857574
28	0x3d8a9e42	0.067684665
29	0x3c829d0a	0.015944023
30	0x3c9ceea0	0.019156754
31	0xbc906357	-0.017625494
32	0xbcc36b67	-0.023854924
33	0xbbe6274c	-0.0070237275
34	0xba7e9287	-0.00097111653
35	0xbcacb4b4	-0.02108226
36	0xbd0a9776	-0.03383585
37	0x3d5175a7	0.051137593
38	0xbc1a6268	-0.009422876
39	0x3b07ba04	0.002071024
40	0xbcbfe17d	-0.02342295
41	0xbc63bb25	-0.013899599
42	0xbd376678	-0.044775456
43	0xbc79e3f9	-0.015252107
44	0x3c721bee	0.014777167
45	0x3c38533c	0.011250313
46	0xbbadea96	-0.005307506
47	0xb99d52d1	-0.00030007077
48	0x3c4512ff	0.012028455
49	0xbd02056b	-0.03174345
50	0xbbae6816	-0.0053224666
51	0x3d5bc820	0.05365765
52	0x3d1183f1	0.03552622
53	0xbc9bdce7	-0.019026233
54	0x3d359ea1	0.044340733
55	0x3c47216f	0.012153967
56	0xbb78e369	-0.0037977344
57	0x3c3a02a2	0.011353167
58	0x3de51f32	0.11187591
59	0x3d2329c4	0.039834753
60	0xbd850e8d	-0.06496916
61	0xbb4f82a6	-0.0031663566
62	0xbd17766b	-0.036978167
63	0xbab5217b	-0.0013819182
64	0xbca7362e	-0.020411577
65	0x3c3ac638	0.011399798
66	0xbd34754f	-0.044057187
67	0x3c54cfb6	0.012988975
68	0x3bd721fb	0.00656533
69	0x3b5dc7c3	0.003384099
70	0x3bc69fef	0.006061546
71	0xbc4fd737	-0.012685589
72	0xbcee8eb3	-0.029120779
73	0x3be1e3a2	0.006893591
74	0x3d1ce8be	0.038307898
75	0x3bebb2ef	0.0071929614
76	0xbbe7b277	-0.007070835
77	0xbcdee9f5	-0.027211169
78	0xbc7ea2de	-0.01554176
79	0xbce84546	-0.028353345
80	0xbc42d1e8	-0.011890866
81	0x3cd4b456	0.025964897
82	0x3c48c6ab	0.012254397
83	0x3cc3d4c5	0.023905167
84	0x3b10b77d	0.0022082024
85	0xbc80f9e9	-0.015744166
86	0x3d6f79ac	0.058465645
87	0x3bbecd03	0.005822779
88	0x39a67705	0.00031750664
89	0xbcbaff87	-0.022826923
90	0x3d46ce15	0.04853638
91	0xbc4b3839	-0.012403541
92	0x3d06fda7	0.032956745
93	0x3d3e58a6	0.04647126
94	0xbd1e01f6	-0.03857609
95	0xbdaff5bc	-0.08591792
96	0xbd082e84	-0.033247486
97	0xbc91e719	-0.017810391
98	0x3c886090	0.016647607
99	0xbb67cfcb	-0.0035371657
100	0xbd4efc04	-0.05053331
101	0xbc012761	-0.007882924
102	0xbd434a48	-0.047678262
103	0xbd491a9b	-0.04909764
104	0x3c674830	0.014116332
105	0xbc9a9799	-0.018871116
106	0x3c9490bd	0.018135423
107	0x3b9f7bfe	0.004867076
108	0xbb8fa176	-0.0043832613
109	0x3a5674ef	0.00081808766
110	0xbc7d01b5	-0.0154423015
111	0x3b846266	0.0040400503
112	0xbc973c1a	-0.018461276
113	0xbd0eded0	-0.03488046
114	0xbb7fb5ca	-0.0039018267
115	0x3b92e16b	0.0044824383
116	0x3d22b82b	0.039726418
117	0x3d4f6e99	0.050642584
118	0xbc374970	-0.011186942
119	0x3ca76bc2	0.020437125
120	0xbbfaaf83	-0.007650317
121	0x3c9f8866	0.01947422
122	0xbbf6cb14	-0.007531533
123	0x3b4052e2	0.0029346277
124	0xbb213f9e	-0.002460457
125	0x3d0387a3	0.032111775
126	0x3b7a5758	0.0038199034
127	0x3d719908	0.058983833

network_body._body_endoder.seq_layers.2.weight f4 [128, 128]
0	0x3e047af9	0.12937535
1	0xbcc4abe2	-0.024007741
2	0x3e8628d4	0.26203024
3	0x3e1fec8a	0.15617576
4	0xbe02baad	-0.12766524
5	0xbdeec440	-0.116585255
6	0x3e0f1b38	0.13975227
7	0xbd2c9194	-0.04213102
8	0xbcdde9a4	-0.027088948
9	0xbddde8b4	-0.108354
10	0x3cb26923	0.021778649
11	0xbd6960a1	-0.056976918
12	0x3d79c261	0.06097639
13	0xbdf74219	-0.12073154
14	0xbd410eb8	-0.047133178
15	0xbb16aa45	-0.0022989672
16	0xbe0916fb	-0.13387673
17	0xbdc4ea29	-0.09614975
18	0x3d18cacd	0.03730278
19	0x3da8f842	0.082504764
20	0x3d900a05	0.07033161
21	0xbd464aa5	-0.04841103
22	0x3de2976e	0.11064039
23	0xbd8ff17e	-0.07028483
24	0x3bd8ddf1	0.0066182544
25	0xbdc62b66	-0.09676246
26	0x3d576c0e	0.052593283
27	0xbda136be	-0.07871769
28	0xbcc4e934	-0.024036981
29	0x3b5bc08a	0.003353151
30	0xbd857de6	-0.06518154
31	0xbdba9c91	-0.09111894
32	0x3de1797d	0.110095
33	0x3c78bcd3	0.015181738
34	0xbd26ea1b	-0.040750604
35	0x3d13d0ad	0.03608768
36	0x3c8636bb	0.01638352
37	0xbe496604	-0.19667822
38	0xbe098ec0	-0.13433361
39	0xbcf1bdbd	-0.02950942
40	0xbd8153a8	-0.06314784
41	0xbdc7ddae	-0.09759079
42	0xbdd46218	-0.103702724
43	0x3dc8a88c	0.09797773
44	0xbd060482	-0.032719143
45	0xbbc08d35	-0.005876208
46	0xbd1fada8	-0.03898397
47	0xbd6eb75a	-0.058280326
48	0x3d35f8f0	0.04442686
49	0xbda1d96f	-0.079028
50	0xbde74d28	-0.11294013
51	0x3d7585bf	0.059942003
52	0xbdfb884c	-0.12281856
53	0xbdcd9893	-0.10038867
54	0x3c39a43e	0.011330662
55	0xbe5c296e	-0.21500179
56	0xbe328229	-0.17432465
57	0x3d8ddc2a	0.069267586
58	0xbb4af26a	-0.0030967244
59	0x3db44c6f	0.08803641
60	0x3cea9102	0.028633598
61	0xbcf4da15	-0.029889146
62	0x3d0eb122	0.034836896
63	0x3cccbdfd	0.024992937
64	0xbd9a79a9	-0.07542736
65	0x3dea269c	0.114331454
66	0x3c8cc26f	0.017182557
67	0x3e128318	0.14307821
68	0xbc2c285a	-0.010507667
69	0x3d49742f	0.049183067
70	0xbb3b92d9	-0.0028621464
71	0xbd9f10a1	-0.077668436
72	0xbd0949c9	-0.033517633
73	0xbd2ce0bd	-0.042206515
74	0x3d2826dd	0.041052688
75	0x3e014892	0.1262534
76	0x3d8ee138	0.06976551
77	0xbd89aaaa	-0.06722005
78	0xbdca1df1	-0.09868992
79	0x3db81b25	0.089895524
80	0x3ccc89d3	0.024968063
81	0x3ce71a77	0.028210862
82	0x3cc8d1b9	0.024514066
83	0xbca11d89	-0.019667404
84	0x3d6915e1	0.05690563
85	0x3e3d7190	0.18500352
86	0x3d44fea4	0.048094407
87	0xbd9a8f2d	-0.0754684
88	0xbccecc71	-0.02524397
89	0xbda7f686	-0.082013175
90	0x3d1e825c	0.03869854
91	0xbd944dc6	-0.072413966
92	0x3aa903e8	0.0012894841
93	0x3e05ef4e	0.13079569
94	0x3e2bdbf7	0.16783129
95	0xbc8851d4	-0.016640581
96	0xbbf0fe33	-0.0073545217
97	0xbcf5fd23	-0.030027932
98	0xbd3cc99c	-0.046090707
99	0x3dc0f2ac	0.09421286
100	0x3c9e9ece	0.019362833
101	0xbd35e238	-0.044405192
102	0x3b524f80	0.0032090843
103	0x3d0e1f77	0.034697976
104	0xbe7f2aed	-0.24918719
105	0xbe4322c8	-0.19056237
106	0x3d96322f	0.073337905
107	0xbd30fbaa	-0.043208756
108	0xbd98d461	-0.07462383
109	0xbd56f643	-0.052480947
110	0x3baca125	0.0052682334
111	0xbe67074c	-0.22561377
112	0xbe0ed2c4	-0.13947588
113	0x3df5e222	0.12006022
114	0xbc17d045	-0.009265964
115	0xbdddca70	-0.108296275
116	0x3b854870	0.004067473
117	0x3c6a28a6	0.014291918
118	0x3ccb17bc	0.02479159
119	0x3d9ece74	0.077542216
120	0x3ce9eb63	0.028554624
121	0x3dc4439e	0.095832095
122	0x3cb71aab	0.022351583
123	0xbd8fd5b7	-0.07023185
124	0xbdbe18de	-0.09282087
125	0xbdef00ee	-0.11670099
126	0xbd96348b	-0.073342405
127	0xbd15753f	-0.036488768
128	0xbe02664d	-0.12734337
129	0xbc2d1837	-0.010564855
130	0xb967500f	-0.00022059701
131	0x3c39ca86	0.011339789
132	0xbc5c4cec	-0.013446074
133	0xbcfd4735	-0.030917743
134	0xbc3fa04b	-0.011695932
135	0x3e769727	0.24081098
136	0xbddab4d8	-0.106790245
137	0xbe3dee64	-0.1854797
138	0xbe5e8dfd	-0.21733852
139	0xbde4d642	-0.11173679
140	0x3d3046ba	0.0430362
141	0xbc98fa26	-0.018673968
142	0xbd833ee7	-0.06408482
143	0x3d502cb5	0.050823886
144	0xbdb693b8	-0.08914894
145	0xbdb25ea1	-0.08709455
146	0x3d95598b	0.072924696
147	0xbda8fa41	-0.08250857
148	0xbbd279ed	-0.006423226
149	0x3e2ad67a	0.16683379
150	0x3e42e0e0	0.19031096
151	0x3dd74c8c	0.10512647
152	0xbd75b22d	-0.059984375
153	0xbd907427	-0.07053404
154	0xbd8553a8	-0.06510097
155	0x3e1b428b	0.15162103
156	0x3d04527f	0.032305237
157	0x3bd730b5	0.0065670856
158	0x3cdde8d7	0.027088566
159	0x3db44baf	0.08803498
160	0xbe0d3bc6	-0.13792333
161	0x3d27e046	0.04098537
162	0x3baece48	0.0053346492
163	0xbd939012	-0.072052136
164	0xbe1c3111	-0.15253092
165	0xbdf7ea9c	-0.12105295
166	0xbcdb7163	-0.026787465
167	0xbd1f5b36	-0.038905345
168	0x3c296400	0.010338783
169	0xbb9a947f	-0.004717409
170	0x3a78cd66	0.0009491056
171	0x3c9815dd	0.018565113
172	0xbe51684a	-0.2044994
173	0xbd5cf914	-0.053948477
174	0xbc53d99c	-0.0129303
175	0x3e047294	0.12934333
176	0xbd97de63	-0.07415464
177	0xb9e89ba2	-0.00044366444
178	0xbcf9ac35	-0.030477623
179	0x3e2a4ed6	0.16631636
180	0xbd71aa35	-0.059000213
181	0x3de8392e	0.11339031
182	0xbd375422	-0.04475797
183	0xbda375db	-0.079814635
184	0xbdfc5eb3	-0.1232275
185	0xbd60a5a7	-0.05484548
186	0x3e2bb493	0.16768102
187	0x3c3d4777	0.011552683
188	0xbd3358f5	-0.043786008
189	0xbd6e395b	-0.058160167
190	0xbe118d5f	-0.14214085
191	0xbe18df50	-0.14928937
192	0x3d6a13ae	0.057147674
193	0x3d9499c8	0.07255894
194	0x3e444624	0.19167382
195	0x3dd7974d	0.10526905
196	0x3dd5a62c	0.104320854
197	0xbd9d338f	-0.0767585
198	0xbd398894	-0.045296267
199	0xbdccc7a4	-0.09999016
200	0x3e295c09	0.16539015
201	0xbda5cdf0	-0.0809592
202	0xbd1ef18a	-0.03880457
203	0x3d9c9889	0.07646281
204	0xbdab8268	-0.083744824
205	0x3c1a0f93	0.009403127
206	0xbd9f7697	-0.07786291
207	0x3d8b1329	0.06790764
208	0x3d1f9d53	0.038968395
209	0x3dd4a957	0.103838615
210	0x3c8260c6	0.015915286
211	0xbd5705ba	-0.052495696
212	0x3cd5853d	0.02606451
213	0xbc9636be	-0.01833665
214	0xbd321502	-0.043477066
215	0x3bda6efc	0.0066660624
216	0x3daba547	0.083811335
217	0xbd48a2f2	-0.04898352
218	0xbe0258f7	-0.1272925
219	0xbda1a206	-0.07892232
220	0xbca8bfc1	-0.020599248
221	0x3c770292	0.015076296
222	0x3d59e5c5	0.05319764
223	0x3dfea370	0.12433517
224	0x3e2a120f	0.16608451
225	0x3e0add52	0.1356099
226	0x3d15ea4f	0.036600407
227	0xbb95fd6f	-0.004577331
228	0x3db18ceb	0.08669456
229	0xbe0cda97	-0.1375526
230	0xbd7b233f	-0.06131291
231	0xbd97b06f	-0.07406699
232	0x3d1ccd20	0.03828156
233	0xbd9b4325	-0.07581166
234	0x3d896cb8	0.067101896
235	0xbd2838bb	-0.041069727
236	0x3d53cef1	0.051711027
237	0xbde8c73c	-0.11366126
238	0x3c2ff5d6	0.010739764
239	0xbdb7ac11	-0.08968366
240	0xbde8bf70	-0.11364639
241	0x3cc4c5bf	0.024020074
242	0xbda86f93	-0.08224406
243	0x3d4f1938	0.05056116
244	0xbdcc49f3	-0.09975042
245	0xbd61610e	-0.0550242
246	0x3c425895	0.01186194
247	0xbdd88cd0	-0.10573733
248	0x3df63010	0.12020886
249	0x3e1d1919	0.15341605
250	0xbe00f903	-0.1259499
251	0xbe19e048	-0.15026963
252	0xbcd055da	-0.025431562
253	0xbdf73517	-0.12070673
254	0xbcb5eab4	-0.022206642
255	0xba726f65	-0.00092481665

network_body._body_endoder.seq_layers.2.bias f4 [128]
0	0x3b1d4689	0.002399834
1	0xbac984cf	-0.0015374663
2	0x3c1a4c97	0.0094176745
3	0x3bb421d0	0.005497195
4	0xba007b92	-0.0004901226
5	0x3c677868	0.014127828
6	0x3d5b63ff	0.05356216
7	0xbc83c781	-0.016086342
8	0xbc09c900	-0.008409739
9	0xbaafbbba	-0.0013407387
10	0x3c195c39	0.0093603665
11	0x3c0109bf	0.007875859
12	0x3c1cc17b	0.009567614
13	0xbb23c9e0	-0.0024992153
14	0xbcba8908	-0.02277042
15	0xbc4cd382	-0.012501599
16	0xbbb77618	-0.0055987947
17	0xbb325621	-0.0027211981
18	0xba0c78c8	-0.0005358574
19	0x3c33a56e	0.0109647345
20	0xbcf5f48b	-0.030023834
21	0x3bc6ad59	0.006063145
22	0xbbc238d2	-0.0059271837
23	0x3abb97fe	0.0014312265
24	0xbb6972a4	-0.003562131
25	0xbb29676a	-0.0025848993
26	0x3b86b7f5	0.004111285
27	0xbc094be0	-0.008379906
28	0x3ca06952	0.01958147
29	0xbbea165a	-0.007143778
30	0x3bb11e48	0.005405221
31	0x3c9f33f9	0.019433962
32	0x3be75c14	0.007060537
33	0x3c2a8800	0.0104084015
34	0xbc72a219	-0.014809155
35	0xbc134ac5	-0.008989994
36	0xbb80f429	-0.003935356
37	0xbc3655a2	-0.011128815
38	0xbc5dbe96	-0.013534209
39	0x3badd720	0.005305186
40	0x3bf288ea	0.0074015753
41	0xbbeae8e0	-0.007168874
42	0xbc27c3c0	-0.0102395415
43	0x3c0fdead	0.008781117
44	0x37a3f228	1.9543877e-05
45	0xbc5c5994	-0.013449091
46	0x3d3115f4	0.043233827
47	0x3cfe7014	0.031059302
48	0x3c1f640d	0.009728444
49	0xbc80f3c1	-0.01574123
50	0x3d7d11b9	0.06178448
51	0x3a714296	0.00092033425
52	0x3a6665aa	0.0008788953
53	0x3cbe2732	0.02321205
54	0xba02a231	-0.0004983275
55	0xbb18de45	-0.0023325842
56	0x3b812966	0.0039417027
57	0x3be5918a	0.007005875
58	0x3c9b3687	0.0189469
59	0x3b5c2ed0	0.0033597238
60	0xbc346e8d	-0.0110126855
61	0x3b229d49	0.0024812988
62	0x3b7ddbae	0.0038735676
63	0xbb9c652c	-0.004772803
64	0xbcf5b571	-0.029993745
65	0xbc97d760	-0.018535316
66	0xbbbcf5ef	-0.0057666223
67	0x3c00acfa	0.007853741
68	0x3cfd1c2d	0.030897224
69	0x3adecc71	0.0016998184
70	0xbc0b3d03	-0.008498433
71	0x3c59773e	0.013273058
72	0x3c0383c0	0.008027017
73	0x3bc738c7	0.0060797664
74	0x3c52dbea	0.012869814
75	0xbc59cb53	-0.013293105
76	0x3c34c1f2	0.011032568
77	0xbc902aac	-0.017598473
78	0x3c50c538	0.012742333
79	0x386895d5	5.5452652e-05
80	0x3b6e3303	0.0036346323
81	0x3aa6a176	0.0012712914
82	0x3b334c20	0.0027358606
83	0x3ce4a534	0.027910806
84	0xbb68db85	-0.0035531234
85	0xbc3fca0b	-0.011705886
86	0x3b33e456	0.0027449331
87	0x3c0df57a	0.008664483
88	0x3b927e76	0.0044706417
89	0x3c853585	0.016260872
90	0x3c73084c	0.014833521
91	0x3c2217ca	0.009893367
92	0x395f543c	0.00021298317
93	0xbbc4eba6	-0.006009537
94	0x3cc4563d	0.023966903
95	0x3ca18ca5	0.019720385
96	0x3c08eeb1	0.00835769
97	0xbbdcf3c8	-0.006742928
98	0x3c27bd48	0.010237999
99	0xbca3ec28	-0.020010069
100	0xbbf699a9	-0.007525642
101	0x3a05758d	0.0005091064
102	0xbbacc4dc	-0.005272491
103	0xbc0cac2b	-0.00858597
104	0x3c904fc2	0.017616156
105	0x3c0a60d7	0.00844594
106	0xbb8a1690	-0.0042141154
107	0xbb70c2b8	-0.0036737155
108	0x3acf468e	0.0015813874
109	0xbac73482	-0.0015198144
110	0x3c927b3e	0.017881032
111	0xbca48342	-0.02008212
112	0x3c434117	0.011917374
113	0xbb7b2683	-0.0038322515
114	0xbc74cffc	-0.014942165
115	0x3c334dd8	0.010943852
116	0xbc718ab2	-0.01474254
117	0xbc65bf26	-0.014022624
118	0xbcbfc72f	-0.023410408
119	0xbc578d35	-0.013156225
120	0xbbe52ad3	-0.0069936304
121	0xbcb2f2e5	-0.021844337
122	0xb90de3e6	-0.00013531707
123	0x3caecab2	0.021336887
124	0xbca9f211	-0.02074531
125	0xbcb6d2a2	-0.022317234
126	0x3a132b60	0.00056140684
127	0xbbf1b1a7	-0.007375914

action_model._discrete_distribution.branches.0.weight f4 [3, 128]
0	0xbc97bfbb	-0.018524041
1	0xbcb0546a	-0.021524627
2	0xbd030f82	-0.03199721
3	0xbc46c7aa	-0.012132565
4	0xbc53ce18	-0.012927555
5	0xbd0fa5b2	-0.03507013
6	0x3d52b438	0.0514414
7	0xba94974e	-0.0011336596
8	0xbbc4e5d7	-0.0060088444
9	0xbc82ff99	-0.01599102
10	0xbc67c585	-0.014146213
11	0x3db5426e	0.08850561
12	0xbc9c5ef1	-0.01908824
13	0xbd67c855	-0.056587536
14	0xbbbf7d7d	-0.005843817
15	0xbc984b95	-0.018590728
16	0x3b903ed6	0.004402022
17	0xbd41d3c3	-0.047321092
18	0x3be40293	0.0069583147
19	0x3df845b9	0.121226735
20	0x3cc6fdc3	0.024290925
21	0xbd07bbcd	-0.033138085
22	0xbba6d038	-0.0050907396
23	0x3cb6921a	0.022286464
24	0x3c998835	0.018741706
25	0xbb744764	-0.0037273997
26	0x3cfd1a36	0.030896287
27	0xbcbd9482	-0.023142103
28	0x3d68913c	0.05677913
29	0x3c380065	0.011230563
30	0xbc884874	-0.01663611
31	0x3c9d6030	0.019210905
32	0xbc712c30	-0.014720008
33	0xbcf477d5	-0.029842297
34	0x3bb41d67	0.005496669
35	0x3a828486	0.0009957708
36	0x3c800cb9	0.015631067
37	0xbb72a8e5	-0.0037026939
38	0xbbef9685	-0.0073116445
39	0xbc4da8a7	-0.012552417
40	0xbb3718ec	-0.0027938439
41	0xbb29346a	-0.0025818595
42	0xbcef2471	-0.029192181
43	0x3ccc6a83	0.024953132
44	0xbd04b430	-0.032398403
45	0xbcb5cbbf	-0.02219188
46	0x3c4f7345	0.01266176
47	0x39793eed	0.00023769932
48	0xbc084e8b	-0.008319507
49	0xbc2fc2c4	-0.010727588
50	0x3d1aad13	0.037762713
51	0xbca97b42	-0.020688657
52	0x3bb577e6	0.0055379746
53	0xbd0e7e9c	-0.034788713
54	0xbbd4110c	-0.0064717587
55	0xbcf9abb3	-0.03047738
56	0xbcc1d072	-0.023658965
57	0x3b85b623	0.0040805503
58	0xbc8b498a	-0.01700284
59	0xbbbff187	-0.0058576497
60	0x3ae41f75	0.0017404394
61	0xbc8141e5	-0.015778491
62	0x3c30175f	0.01074776
63	0xbcad220d	-0.0211344
64	0xbab9baa8	-0.0014170008
65	0xbc914e36	-0.01773749
66	0x3b738c4a	0.0037162476
67	0xbb8055b8	-0.0039164685
68	0xbc26b579	-0.010175102
69	0x3c7c2fe5	0.015392278
70	0x3cdaa07e	0.026687857
71	0x3bf98be1	0.007615552
72	0x3b2f4243	0.0026742376
73	0xbc8981af	-0.01678547
74	0xbdffc2e4	-0.12488344
75	0xbcb1aeaf	-0.021689741
76	0xbd5555cc	-0.052083775
77	0xbaebd6c7	-0.0017993086
78	0x3d4b13c5	0.0495794
79	0xbb126753	-0.0022339418
80	0x3b9dd33f	0.0048164423
81	0x3cbb0dd3	0.02283374
82	0xbd194882	-0.037422664
83	0xbda0b949	-0.0784784
84	0xbb727631	-0.0036996717
85	0xbbb93062	-0.0056515196
86	0xbcd6fbf9	-0.026243197
87	0xbc83f207	-0.016106619
88	0xba6d1bcf	-0.00090449763
89	0xbc78df64	-0.015189979
90	0xbdae005b	-0.084961616
91	0xbc76a08d	-0.015052927
92	0xbb174252	-0.0023080301
93	0xbc8a10eb	-0.01685377
94	0xbbd18862	-0.006394432
95	0x3b06c379	0.0020563288
96	0x3bf08b68	0.0073408373
97	0x3bc3da66	0.005976963
98	0x3d065297	0.032793608
99	0x3b1b6ac6	0.0023714765
100	0x3bf2f0a0	0.0074139386
101	0x3d0408e3	0.032235038
102	0xbb617406	-0.003440143
103	0xbc5df9a9	-0.013548293
104	0x3d0957ed	0.03353112
105	0x3d148ac3	0.036265146
106	0xbc8856c7	-0.016642941
107	0x3d80975a	0.06278868
108	0xbc101e00	-0.008796215
109	0x3b31881c	0.0027089184
110	0xbd2532c5	-0.04033162
111	0xbb862bc4	-0.0040945727
112	0x3a993939	0.0011690027
113	0xbcff8762	-0.031192485
114	0xba11d461	-0.0005562958
115	0xba16f08a	-0.0005757889
116	0xbc46d9b6	-0.012136867
117	0xbbcf2c52	-0.006322422
118	0xbc531d48	-0.012885399
119	0xbc257fe2	-0.01010129
120	0x3bc4940b	0.0059990934
121	0xbb78da25	-0.003797182
122	0xbbff92d1	-0.0077994843
123	0x3ca8a12b	0.020584663
124	0xbc656593	-0.014001268
125	0xbac830e8	-0.0015273364
126	0xbc9054e3	-0.017618602
127	0xbc24885d	-0.010042277
128	0xbc3f52fe	-0.011677502
129	0xbc9350e1	-0.017982902
130	0x3c12ece8	0.008967616
131	0x3c962d13	0.01833204
132	0xba45c2b0	-0.00075439643
133	0x3d4075d4	0.04698737
134	0xbd4efad8	-0.050532192
135	0xbc72c3a3	-0.014817151
136	0xbc499911	-0.01230456
137	0x3c8d73c1	0.01726711
138	0xbc8d02e4	-0.017213292
139	0xbd956fec	-0.07296738
140	0x3d1c5831	0.038170043
141	0x3d578919	0.05262098
142	0xbaa124a3	-0.0012294244
143	0xbc351834	-0.011053134
144	0x3c783220	0.0151486695
145	0xbc6f8d0a	-0.014621029
146	0x3ccf06d6	0.025271814
147	0xbd94b6a8	-0.072614014
148	0xbb86c513	-0.0041128485
149	0xbc127b49	-0.008940526
150	0xbb9d392c	-0.004798075
151	0x3c8f1f5b	0.017471006
152	0x3cd32e40	0.02577889
153	0xbc08bfd8	-0.00834652
154	0xbcf7d4cd	-0.030252839
155	0x3c5f0bcd	0.013613653
156	0x39cd0cee	0.0003911028
157	0xbbb7453a	-0.0055929692
158	0x3c6d435d	0.014481393
159	0xbcff9b4b	-0.03120198
160	0x3ba67c01	0.0050807004
161	0x3adbe5e3	0.0016776886
162	0x3c60b50e	0.013715042
163	0x3c5f751b	0.01363876
164	0xbc1878c1	-0.009306134
165	0x3c382099	0.011238241
166	0xbacc0cbd	-0.0015567761
167	0xbc74d862	-0.014944168
168	0x3cb4376d	0.021999085
169	0x3c109a8a	0.0088259075
170	0x3cd97327	0.026544167
171	0x3c96f6fa	0.018428314
172	0x3b47f7f7	0.0030512789
173	0x3cdd047f	0.026979683
174	0xbd18648a	-0.037205257
175	0xbd522b04	-0.051310554
176	0x3d4ed454	0.05049546
177	0x3b87d1d9	0.004144889
178	0x3cf5e6d7	0.0300173
179	0x3c6376ea	0.013883332
180	0xbc21f9aa	-0.009886185
181	0x3d8a957b	0.067667924
182	0x3b71aacd	0.0036875487
183	0x3cd265d9	0.02568333
184	0x3c918ad3	0.017766392
185	0xbcdaa8bf	-0.026691793
186	0x3c6b9478	0.014378659
187	0x3cd593c5	0.026071439
188	0x3c484bbf	0.0122250905
189	0x3b93eaf7	0.004514094
190	0x3c061832	0.00818448
191	0x3ace4fae	0.0015740299
192	0xbb9888ea	-0.0046549933
193	0xbadb9da1	-0.0016755351
194	0xbcc1e25e	-0.02366751
195	0x3c89bae3	0.016812747
196	0xbdb17433	-0.08664741
197	0xbd2c5035	-0.04206868
198	0x3c526d84	0.012843493
199	0x3cb5eebc	0.022208564
200	0xbc419d17	-0.011817238
201	0xbc592be8	-0.013255097
202	0xbcdffbff	-0.02734184
203	0x3b713a56	0.0036808453
204	0x3c48d02b	0.012256662
205	0x3cbd5a0c	0.023114227
206	0xbc93b263	-0.018029397
207	0x3d13d44e	0.03609114
208	0xbb99ff70	-0.00469964
209	0xbc478729	-0.012178221
210	0x3c8ab713	0.016933
211	0xbd386fdb	-0.04502855
212	0x3c3e7e06	0.011626726
213	0x3b700849	0.0036626032
214	0xbda981ea	-0.08276732
215	0x3ca5d68a	0.020243902
216	0x3ccebd02	0.02523661
217	0x3ce6574a	0.028117795
218	0xbb7c6ea0	-0.0038518086
219	0x3cd24650	0.025668293
220	0xbbb39147	-0.005479965
221	0x3cc54144	0.024078973
222	0xbd6c5b41	-0.057704214
223	0x3d23d671	0.03999943
224	0xbc8f9bc1	-0.017530324
225	0x3cc285d7	0.02374546
226	0x3c812fdc	0.015769891
227	0xbc7cb7e8	-0.015424706
228	0xbb9ad149	-0.0047246558
229	0x3c020679	0.0079361135
230	0xbc42cdc0	-0.011889875
231	0xbc036e43	-0.008021894
232	0xbd45198c	-0.048120067
233	0xbcc3f66f	-0.02392122
234	0x3c584a41	0.013201297
235	0xbd4cbdd0	-0.049985707
236	0x3c060e10	0.008182064
237	0x3cda51da	0.026650358
238	0xbd961f0d	-0.07330141
239	0x3c7507cb	0.014955471
240	0xbc76f3a9	-0.015072742
241	0x3d254e86	0.04035809
242	0x3bd799fd	0.006579636
243	0x3c67490d	0.014116538
244	0x3bad84cb	0.005295371
245	0xbba261af	-0.0049554924
246	0x3c4eccf8	0.012622111
247	0x3bdb1c45	0.0066867196
248	0x3bace765	0.005276608
249	0x3ab2d423	0.0013643544
250	0xbc9e0d6d	-0.019293511
251	0x3cb23289	0.021752613
252	0x3c7e19be	0.015509067
253	0xbce56c4f	-0.028005747
254	0xbaf9913d	-0.0019040477
255	0xbb30d650	-0.002698321

action_model._discrete_distribution.branches.0.bias f4 [3]
0	0x3a05e0a1	0.00051070197
1	0xbb430f83	-0.0029763884
2	0x3c269b6c	0.010168891

action_model._discrete_distribution.branches.1.weight f4 [2, 128]
0	0xbc7f5a85	-0.015585546
1	0x3c1a246e	0.0094081
2	0x3d010a1a	0.031503774
3	0x3cb0f263	0.021599954
4	0xbca04637	-0.019564731
5	0x3cc8a6c9	0.024493592
6	0xbcd367df	-0.025806366
7	0xbc428d5e	-0.011874525
8	0x3cc56226	0.024094652
9	0xbc7b5ed6	-0.015342435
10	0x3d6408a6	0.05567231
11	0x3d67708e	0.056503825
12	0x3bb453c6	0.0055031506
13	0xbd8066f1	-0.062696345
14	0xbb2aac4f	-0.0026042645
15	0x3cc96dfb	0.024588576
16	0xbcab8f85	-0.020942459
17	0x3bc36456	0.0059628887
18	0x3b800ce4	0.0039077867
19	0x3cb980fc	0.022644512
20	0x3da58ba1	0.08083273
21	0xbcf2ec1a	-0.029653598
22	0x3cbd14c6	0.023081195
23	0x3c22cd4e	0.009936644
24	0xbc641ccd	-0.013922882
25	0x3cfd5cf3	0.03092811
26	0x3cbb32c7	0.022851361
27	0xbc42afa7	-0.011882699
28	0xbcb04adc	-0.02152007
29	0xbd1028ac	-0.035195038
30	0xbc7433f2	-0.014904963
31	0xbcaf1585	-0.021372566
32	0xbba82ff0	-0.0051326677
33	0x3cfe6818	0.031055495
34	0x3bb5a2f5	0.0055431076
35	0xbc540d43	-0.012942615
36	0xbce65eea	-0.02812143
37	0xbc804455	-0.015657583
38	0xbbf1e1eb	-0.007381668
39	0x3be915ac	0.007113179
40	0xbcd6ef2b	-0.026237091
41	0x3b122e01	0.0022305252
42	0x3c8aad38	0.0169283
43	0xbbd7f0da	-0.006589991
44	0xbc85a200	-0.0163126
45	0x3ca78261	0.020447912
46	0xbccca807	-0.024982465
47	0x3dba9893	0.091111325
48	0x3c0eb10d	0.008709204
49	0x3b6557ce	0.0034994963
50	0x3d556d27	0.05210605
51	0x3c833de8	0.01602073
52	0x3c873468	0.016504481
53	0x3d6ff9ea	0.058587946
54	0xbb0a317b	-0.0021086622
55	0xbc194d51	-0.009356813
56	0xbcff1fac	-0.031143032
57	0x3bf6d30b	0.0075324825
58	0xbcac3d7d	-0.021025414
59	0x3c921002	0.017829899
60	0xbcd87968	-0.026425079
61	0x3a58d7c5	0.0008271898
62	0x3d231ec6	0.03982427
63	0x3a067bf1	0.0005130163
64	0x3b98377f	0.0046452875
65	0xbc91644d	-0.017748022
66	0x3d02d7b8	0.031944007
67	0x3b3988bd	0.0028310262
68	0xbc334ece	-0.0109440815
69	0x3c68b1ec	0.014202576
70	0x3c992697	0.018695159
71	0x3d9f8803	0.07789614
72	0x3db08f58	0.08621091
73	0xbd043fb5	-0.03228732
74	0xbbd07105	-0.006361129
75	0x3c099e58	0.0083995685
76	0xbcc81495	-0.024423877
77	0x3c304567	0.010758734
78	0x3c4c2ea5	0.012462293
79	0xbc6ecb40	-0.014574826
80	0xbc8d8849	-0.0172769
81	0xbaf48d76	-0.0018657881
82	0x3ae7f1f7	0.0017696013
83	0x3cd8e21c	0.026475005
84	0xbc219333	-0.009861755
85	0x3a20a467	0.00061280135
86	0x3e35c508	0.17750943
87	0x3dfeabfc	0.12435147
88	0xbc7391ae	-0.014866276
89	0x3c1370c7	0.008999056
90	0xbc2d6f36	-0.010585597
91	0x3c7ea63e	0.015542565
92	0x3ddc18a3	0.107468866
93	0xbc3133b7	-0.010815552
94	0xbd0c04e1	-0.03418434
95	0x3cee915c	0.029122047
96	0x3d3e43e7	0.046451475
97	0xbcbcfff0	-0.02307126
98	0x3d20862f	0.039190467
99	0xbc8f334a	-0.017480511
100	0x3d1c5547	0.038167264
101	0xbbfc4eab	-0.0076998076
102	0xbc9b58a2	-0.018963162
103	0xbae9b172	-0.0017829372
104	0x3c8518bd	0.016247148
105	0x3dbd8702	0.09254266
106	0xbcb57eae	-0.022155132
107	0x3d1c5299	0.03816471
108	0x3c844dca	0.016150374
109	0xbc6a3667	-0.014295197
110	0xbc94e147	-0.018173827
111	0xbcae630a	-0.02128746
112	0xbb9341b3	-0.004493916
113	0xbc1cea80	-0.0095773935
114	0xbb8839bd	-0.0041572736
115	0x3d160496	0.036625467
116	0xbc55c607	-0.013047702
117	0xbc59af2b	-0.013286392
118	0xbc44dbe7	-0.012015319
119	0xbc4ba340	-0.012429059
120	0xb9720b2a	-0.00023083077
121	0xbc1e05c9	-0.009644934
122	0x3cb5ac0d	0.022176767
123	0x3b80bade	0.0039285263
124	0x3a405fa6	0.00073384715
125	0x3d14a45e	0.036289565
126	0x3c392d04	0.0113022365
127	0xbc3b6bc3	-0.011439267
128	0x3ce49da2	0.027907196
129	0x3c266c23	0.010157618
130	0xbd650c92	-0.05592019
131	0xbc2a28c1	-0.010385693
132	0x3cde2b8e	0.027120378
133	0xbb4b0830	-0.0030980222
134	0x3c2b4bbb	0.010455067
135	0x3bc0706e	0.0058727777
136	0xbcab6d1f	-0.020926056
137	0xbc191cf4	-0.009345282
138	0xbd69bded	-0.057065893
139	0xbd3a492a	-0.04547993
140	0xbc90e554	-0.017687477
141	0x3d4f43a0	0.0506016
142	0x3c1f5110	0.009723917
143	0xbccf2715	-0.02528719
144	0xbc544127	-0.012954987
145	0xbc24a6ea	-0.010049561
146	0xbb69b05a	-0.0035658092
147	0xbcdf8ed0	-0.027289778
148	0xbda72c58	-0.08162755
149	0x3d056688	0.032568485
150	0xbcfcaddb	-0.03084462
151	0xbc19b44e	-0.009381367
152	0x3c7dc6a5	0.015489255
153	0xbc7c2908	-0.015390642
154	0xbcfc4139	-0.03079282
155	0xbb9f402b	-0.0048599443
156	0x3cfc8f8b	0.030830165
157	0x3c26af9b	0.010173704
158	0x3c791f99	0.015205287
159	0x3ce094eb	0.02741476
160	0xbc1a4fba	-0.009418422
161	0xbd08364b	-0.033254903
162	0xbb847f18	-0.004043471
163	0x39711369	0.00022990782
164	0x3c942513	0.018084085
165	0x3c20b2e9	0.0098082805
166	0x3c6c047e	0.014405368
167	0xbc4f35a6	-0.012647068
168	0x3ce09a23	0.027417248
169	0xbca45621	-0.0200606
170	0xbce0060a	-0.02734663
171	0x3c65a612	0.014016645
172	0x3c295946	0.010336226
173	0xbb61687f	-0.003439456
174	0x3d0bb789	0.03411058
175	0xbd946357	-0.0724551
176	0xbaa712e5	-0.001274672
177	0xbccecc40	-0.025243878
178	0xbd8f6bc5	-0.07002977
179	0xbd39edc2	-0.04539276
180	0xbc844d81	-0.016150238
181	0xbda5a512	-0.08088125
182	0xbbcad1e9	-0.006189574
183	0x3cfa2e52	0.030539665
184	0x3cda24d6	0.026628893
185	0xbb9cb2e7	-0.004782069
186	0x3d23990c	0.03994088
187	0xbc0b8ccd	-0.008517456
188	0x3d2376ff	0.039908405
189	0x3ca743b1	0.02041802
190	0xbd1bddfc	-0.038053498
191	0xbc0dea0c	-0.008661758
192	0x39f52d87	0.00046763962
193	0x3c53b49f	0.012921481
194	0xbbf2aa27	-0.0074055376
195	0x3c8908a5	0.016727755
196	0x3b9cd97a	0.0047866674
197	0xbcd543f5	-0.026033381
198	0xbbcca3a8	-0.0062450953
199	0xbdb7acd6	-0.08968513
200	0xbdcb6e81	-0.09933186
201	0x3c905636	0.017619234
202	0xbc11c700	-0.008897543
203	0x3ba9480a	0.0051660584
204	0x3c56c839	0.01310926
205	0xbbabaf22	-0.0052393833
206	0xbcab5de5	-0.020918796
207	0x3cc3188d	0.023815418
208	0xbbc94b8b	-0.0061430386
209	0xbc3dfa89	-0.011595377
210	0xbca2e91c	-0.019886546
211	0xbbe3bc16	-0.006949912
212	0xbb2261f5	-0.0024777625
213	0x3b1896a4	0.0023283148
214	0xbe40f532	-0.18843535
215	0xbde3ba18	-0.11119479
216	0x3c682f82	0.014171483
217	0xbcaadd59	-0.0208575
218	0x3c933ef6	0.017974358
219	0xbc5e0347	-0.013550586
220	0xbde6c92b	-0.112688385
221	0x3ca123e7	0.01967044
222	0x3c1a0ddc	0.009402718
223	0xbcd7c1c9	-0.026337521
224	0xbd0da953	-0.03458531
225	0x3bd7a6f6	0.0065811826
226	0xbd288a4a	-0.041147508
227	0xbaffdafe	-0.0019520221
228	0xbcb23713	-0.021754777
229	0x3ca845ef	0.02054116
230	0x3c8138a1	0.015774073
231	0xbb2b16f0	-0.00261062
232	0xbd22356b	-0.039601725
233	0xbddb0d79	-0.10695929
234	0x3ba04610	0.0048911646
235	0xbcf6e3f9	-0.030138003
236	0xbcadbdea	-0.021208722
237	0x3c93b3fe	0.018030163
238	0x3cfdaef3	0.030967211
239	0x3ccf1d76	0.025282603
240	0x3c0af4ab	0.008481185
241	0x3b8212a6	0.003969508
242	0xbba070b9	-0.00489625
243	0xbcecf41b	-0.028924992
244	0x3c4e5c85	0.012595301
245	0xbb219aa1	-0.0024658816
246	0xbbf4156e	-0.0074488437
247	0x3cdd5d6b	0.027022084
248	0x3b700351	0.003662307
249	0x3c7da02a	0.015480081
250	0xbcd084ef	-0.025454013
251	0xbb66899b	-0.0035177234
252	0xbc4c0491	-0.012452261
253	0xbc8fe0a3	-0.01756317
254	0xbcf2f5b9	-0.029658185
255	0x3bafe192	0.0053674662

action_model._discrete_distribution.branches.1.bias f4 [2]
0	0x3bae7027	0.005323428
1	0xbbae700e	-0.0053234166
