results/Player3/MoveAgent2D/MoveAgent2D-750064.onnx (onnx, 78886 bytes, 9 tensors)

discrete_act_size_vector f4 [1, 2]
3.0 2.0
00000000: 0000 4040 0000 0040

network_body._body_endoder.seq_layers.0.weight f4 [128, 5]
-0.015273259 0.17619513 -1.426748 -0.0774425 0.46896172 0.08619286 0.087292366 0.7814634
0.25778958 -0.42282745 0.17425771 0.45892048 -0.058205932 0.2962596 0.06169882 0.5381132
0.90613556 -0.57535636 -0.49809435 -0.06391033 0.22684143 0.24564916 0.14105114 -0.94116086
-0.31499386 -0.1692227 0.39098155 -0.54909045 -0.41158926 -0.19715758 -0.76302123 0.35895115
-0.6700545 0.18966688 0.14345373 0.5548431 0.5631847 0.15818013 0.5703995 -0.53604466
-0.13363202 0.22905923 -0.19793095 -0.12328789 -0.014555725 -0.197252 0.31202886 1.3647488
-0.52690566 0.612118 0.19553544 -0.36075565 0.008792589 0.12537746 -0.73125273 -0.04579034
-0.14989446 0.7311721 0.26635644 -0.3156414 -0.3148905 -0.8197976 -0.119736165 0.6761896
-0.3950864 0.040764075 0.35835528 0.5478857 0.33698118 -0.38811904 0.10181788 -0.030340055
-0.35376382 -0.3808953 -0.08477538 0.23596658 0.68122977 -0.41370782 -0.3908954 -0.11428349
-1.0159612 0.03791011 -0.13570336 0.5317971 0.047019802 0.42179322 -0.6285808 -0.9278843
-0.5424345 0.29715145 -0.17554493 0.32668978 -0.023955883 0.3768497 0.4999991 -0.1586462
-0.47791457 -0.4232898 -0.36386055 -0.32982126 0.058249835 -0.14129287 0.81295216 0.35538262
-0.18861023 -0.037573688 0.3065934 -0.023367705 0.23560834 -0.35809976 -0.30146855 -0.20788473
-1.8068178 0.67114156 0.7852289 -0.2646379 -0.27925023 0.50772184 0.25363418 0.22859208
0.08145521 0.31761917 -0.536271 0.3727407 0.3493333 0.22643456 0.3471735 0.6128427
-0.37006932 -0.045258228 0.37030762 0.20920528 0.30408415 0.044778347 0.701774 0.20735061
0.25006 -0.050921414 0.018443262 0.07807479 -0.71115994 -0.04784527 -0.99728274 -0.019024983
0.009421358 0.24546444 0.58443034 0.11077128 0.6002218 0.073526844 -0.31014398 -0.10197394
-0.30855268 -0.45150104 0.3064057 -0.21372153 -0.21682416 -0.35785872 -0.45326895 0.0059258044
-0.31338218 -0.22784197 -0.1920697 1.0104109 -0.03655115 0.17799053 -0.22740182 0.2326037
-0.75339466 0.04258903 -0.09218198 0.09545061 0.20420823 -0.5592341 -0.10828847 0.10816478
0.056631945 0.24199171 0.04091875 -0.1262413 -0.032775596 -0.41351193 -1.4065456 -0.30582678
-0.191463 0.32860902 -0.427738 0.9059285 -0.08222431 0.677583 -0.1188887 0.04862452
-0.23239248 -0.33361787 -0.5552844 0.40891466 -0.037100308 -0.33936477 0.587777 0.56857723
-0.2169717 -0.21591303 -0.27522624 0.10785473 -0.674297 0.1661867 0.791392 -0.9576023
0.052398495 0.35283345 0.5893301 0.48651102 0.043654196 -0.3208561 -0.6053127 0.0077429335
-0.08267155 0.052160658 0.20965536 -0.12431836 -0.24723843 -0.31334484 0.9314216 -0.023195252
-0.52857757 0.5158723 -0.10318954 -0.23769388 0.27207774 0.53547865 -0.5185609 -0.28533283
-0.061321378 -0.65719885 0.65344155 -0.49284142 -0.26708576 0.029489966 0.22640048 -0.46052718
-0.49956697 0.010086403 0.92386013 0.08944429 -0.008910176 0.35407868 -0.6098436 0.1913239
-0.5854932 0.26054585 1.0209178 -0.23735677 -0.4367757 -0.38637194 0.41240817 -0.53246194
00000000: b13c 7abc 7f6c 343e ae9f b6bf 2c9a 9ebd
00000010: c01b f03e e285 b03d 57c6 b23d fc0d 483f
00000020: fffc 833e d77c d8be 9d70 323e a0f7 ea3e
00000030: 5869 6ebd 57af 973e e7b7 7c3d c9c1 093f
00000040: 80f8 673f 8e4a 13bf 3906 ffbe 6be3 82bd
00000050: 1f49 683e 748b 7b3e b66f 103e ebef 70bf
00000060: e046 a1be b748 2dbe bc2e c83e 3191 0cbf
00000070: d4bb d2be ade3 49be 5c55 43bf 72c8 b73e
00000080: b188 2bbf 0938 423e 89e5 123e 330a 0e3f
00000090: df2c 103f f9f9 213e b405 123f 393a 09bf
000000a0: d5d6 08be 818e 6a3e 69ae 4abe 5c7e fcbd
000000b0: 237b 6ebc 6efc 49be 3fc2 9f3e 17b0 ae3f
000000c0: 4ae3 06bf c4b3 1c3f 713a 483e f7b4 b8be
000000d0: cb0e 103c f362 003e 6133 3bbf a78e 3bbd
000000e0: ef7d 19be 182e 3b3f df5f 883e c09b a1be
000000f0: 5439 a1be 41de 51bf 3c38 f5bd c31a 2d3f
00000100: c448 cabe 3bf8 263d 587a b73e 3d42 0c3f
00000110: cc88 ac3e 8ab7 c6be e585 d03d b58b f8bc
00000120: 8820 b5be b504 c3be b79e adbd 39a1 713e
00000130: 1365 2e3f 83d1 d3be 7123 c8be 760d eabd
00000140: 040b 82bf a247 1b3d d2f5 0abe db23 083f
00000150: d697 403d 48f5 d73e acea 20bf d389 6dbf
00000160: fddc 0abf 3c24 983e 0dc2 33be e243 a73e
00000170: 213f c4bc 72f2 c03e e2ff ff3e 2674 22be
00000180: 38b1 f4be 71b9 d8be ee4b babe 55de a8be
00000190: 6197 6e3d 14af 10be a21d 503f b6f4 b53e
000001a0: 0a23 41be dee6 19bd cff9 9c3e a16d bfbc
000001b0: 5043 713e da58 b7be 165a 9abe bcdf 54be
000001c0: ce45 e7bf efcf 2b3f c304 493f 9e7e 87be
000001d0: e3f9 8ebe 0ffa 013f 57dc 813e 0b14 6a3e
000001e0: fdd1 a63d fb9e a23e 0e49 09bf ded7 be3e
000001f0: d0db b23e 76de 673e bac0 b13e 42e3 1c3f
00000200: ba79 bdbe b160 39bd f698 bd3e e939 563e
00000210: ebb0 9b3e 8069 373d 76a7 333f b853 543e
00000220: dd07 803e f992 50bd 5316 973c ade5 9f3d
00000230: 940e 36bf 67f9 43bd ec4d 7fbf 48da 9bbc
00000240: 0a5c 1a3c 085b 7b3e 3a9d 153f 0edc e23d
00000250: 23a8 193f 3e95 963d 31cb 9ebe b7d7 d0bd
00000260: 9efa 9dbe 252b e7be 35e1 9c3e d1d9 5abe
00000270: 2707 5ebe 4239 b7be de12 e8be 402d c23b
00000280: a173 a0be 684f 69be ebad 44be 2555 813f
00000290: a9b6 15bd 2643 363e 06dc 68be aa2f 6e3e
000002a0: 79de 40bf d671 2e3d e8c9 bcbd 9c7b c33d
000002b0: f61b 513e f729 0fbf 58c6 ddbd 7f85 dd3d
000002c0: e6f6 673d adcc 773e 6b9a 273d 6645 01be
000002d0: b43f 06bd d6b7 d3be b009 b4bf 5495 9cbe
000002e0: e00e 44be 713f a83e 7a00 dbbe eeea 673f
000002f0: 3865 a8bd 1476 2d3f eb7b f3bd 812a 473d
00000300: 4bf8 6dbe f6cf aabe 1e27 0ebf 435d d13e
00000310: 7ef6 17bd 38c1 adbe 8e78 163f 478e 113f
00000320: d42d 5ebe 4e18 5dbe 74ea 8cbe f1e2 dc3d
00000330: ba9e 2cbf d92c 2a3e ab98 4a3f 6d25 75bf
00000340: ce9f 563d 96a6 b43e 56de 163f f917 f93e
00000350: bece 323d 4047 a4be c6f5 1abf 6fb8 fd3b
00000360: b44f a9bd 6aa6 553d e5af 563e a09a febd
00000370: 122c 7dbe bc6e a0be a571 6e3f f803 bebc
00000380: dc50 07bf 3510 043f 0a55 d3bd 0666 73be
00000390: c64d 8b3e 2115 093f 68c0 04bf 2517 92be
000003a0: 202c 7bbd 2f3e 28bf f247 273f b655 fcbe
000003b0: 77bf 88be f194 f13c 87d5 673e 38ca ebbe
000003c0: 3ec7 ffbe 7141 253c 1982 6c3f 912e b73d
000003d0: fdfb 11bc cd49 b53e b61e 1cbf 6aea 433e
000003e0: e2e2 15bf 4466 853e 6fad 823f a70d 73be
000003f0: 11a1 dfbe 8bd2 c5be 2a27 d33e 6d4f 08bf

network_body._body_endoder.seq_layers.0.bias f4 [128]
0.056081798 -0.016815174 -0.004818704 0.015651753 -0.016381804 0.034068946 -0.027994575 -0.005954585
-0.003091854 -0.0056361146 0.013271116 0.0036460587 -0.0015103247 -0.007095462 -0.01629982 0.08417572
-0.03155197 0.011519264 0.022188596 0.005625773 -0.0050968025 -0.0075493422 0.03283952 0.012758601
0.022815516 0.03291759 0.01905677 -0.017107297 0.071467906 0.014687534 0.021300256 -0.015917486
-0.021049725 -0.0065332837 -0.00038693444 -0.021450127 -0.031750966 0.052764207 -0.009245477 -0.0006918561
-0.028996315 -0.009267625 -0.044616003 -0.015824523 0.012242875 0.010790153 -0.0059389016 -9.251724e-05
0.011050402 -0.022728153 -0.005633367 0.056115262 0.03702086 -0.015956502 0.04801857 0.014012987
-0.0023762814 0.014323635 0.10984653 0.039400492 -0.06688115 0.001480206 -0.035387024 -0.0013644714
-0.019140137 0.009575071 -0.04544923 0.011489106 0.0078767175 0.006887463 0.005108659 -0.009588881
-0.028053623 0.010207142 0.035911478 0.003616095 -0.0064587453 -0.026826764 -0.016185256 -0.028415872
-0.0074655414 0.026348963 0.011964972 0.02598957 0.0033171598 -0.017197391 0.057668533 0.008597251
0.0019616745 -0.024327084 0.050498698 -0.012925763 0.028098723 0.046475615 -0.034229327 -0.08672634
-0.03563471 -0.016365843 0.02547346 -0.006357615 -0.047100287 -0.006184724 -0.046044927 -0.04935734
0.012017727 -0.019118309 0.018401638 0.0056270654 -0.0058414945 0.0007890277 -0.016763672 0.0019722385
-0.016346077 -0.037506115 -0.0027593551 0.0042789252 0.036892466 0.053693913 -0.0041999435 0.020308558
-0.006010042 0.02144604 -0.008541948 0.0012306733 -0.005528725 0.033870175 0.0036427202 0.05812694
00000000: 07b6 653d fabf 89bc 38e6 9dbb 1b38 803c
00000010: 2233 86bc e18b 0b3d e154 e5bc ae1e c3bb
00000020: b4a0 4abb 28af b8bb 186f 593c b7f2 6e3b
00000030: 16f6 c5ba 0d81 e8bb 3387 85bc 5264 ac3d
00000040: a33c 01bd 4cbb 3c3c dcc4 b53c 6858 b83b
00000050: 1403 a7bb 7960 f7bb bc82 063d 7409 513c
00000060: 9be7 ba3c 98d4 063d f11c 9c3c 9a24 8cbc
00000070: c45d 923d fca3 703c e07d ae3c 6365 82bc
00000080: 7970 acbc 2815 d6bb 76dd cab9 2db8 afbc
00000090: 4d0d 02bd 481f 583d 577a 17bc ad5d 35ba
000000a0: ae89 edbc 3dd7 17bc 45bf 36bd 6ea2 81bc
000000b0: 5796 483c 2fc9 303c 1e9b c2bb d105 c2b8
000000c0: bf0c 353c 6430 babc 1c98 b8bb 1ed9 653d
000000d0: 2fa3 173d 36b7 82bc 1faf 443d ba96 653c
000000e0: 63bb 1bbb aead 6a3c 38f7 e03d 6962 213d
000000f0: fcf8 88bd 7903 c23a fcf1 10bd 10d8 b2ba
00000100: c7cb 9cbc c2e0 1c3c f928 3abd ce3c 3c3c
00000110: 590d 013c 3ab0 e13b 8a66 a73b af1a 1dbc
00000120: b6d0 e5bc db3b 273c ea17 133d 02fc 6c3b
00000130: e2a3 d3bb cdc3 dbbc f196 84bc 67c8 e8bc
00000140: 80a1 f4bb c8d9 d73c bb08 443c 14e8 d43c
00000150: b564 593b 8be1 8cbc d735 6c3d 7cdb 0c3c
00000160: 708f 003b 9849 c7bc b9d7 4e3d 94c6 53bc
00000170: 4b2f e63c 375d 3e3d 0d34 0cbd 949d b1bd
00000180: b4f5 11bd a911 86bc b8ad d03c 8a53 d0bb
00000190: 3bec 40bd 3aa9 cabb 9b99 3cbd ec2a 4abd
000001a0: 00e6 443c 009e 9cbc 08bf 963c 3f63 b83b
000001b0: 026a bfbb c1d6 4e3a f853 89bc ac40 013b
000001c0: 35e8 85bc 03a0 19bd 4cd6 34bb 3a36 8c3b
000001d0: 8e1c 173d 26ee 5b3d ae9f 89bb 225e a63c
000001e0: e3ef c4bb 9baf af3c 87f3 0bbc 8b4e a13a
000001f0: 4f2a b5bb 74bb 0a3d b4ba 6e3b 8416 6e3d

network_body._body_endoder.seq_layers.2.weight f4 [128, 128]
0.12917055 -0.022865806 0.2627886 0.15638825 -0.12649192 -0.11464352 0.1427134 -0.04130484
-0.023417346 -0.10601443 0.025887761 -0.054372948 0.06726049 -0.11989973 -0.04677849 -0.0014267251
-0.13050862 -0.09511099 0.03835292 0.081392854 0.072188586 -0.047716573 0.11258159 -0.0649676
0.0076114093 -0.08919177 0.05333325 -0.07836392 -0.023224387 0.004265256 -0.06274738 -0.08970593
0.11195635 0.015955377 -0.038496915 0.0366444 0.013916133 -0.19076419 -0.13406247 -0.02816477
-0.06437652 -0.09732731 -0.10217944 0.09995891 -0.037729464 -0.00467295 -0.036696427 -0.0539798
0.049192928 -0.079128414 -0.10890519 0.061037775 -0.1165824 -0.103935264 0.016199378 -0.21421334
-0.17313685 0.07079982 -0.0031753848 0.093178436 0.03022473 -0.027552573 0.04118575 0.026998734
-0.073448196 0.115170434 0.01969944 0.14475489 -0.008169037 0.049611926 0.00056865613 -0.07509948
-0.031746432 -0.036631975 0.04120215 0.12710024 0.068567775 -0.06585866 -0.10086162 0.09085081
0.02687603 0.029563906 0.025944164 -0.019068368 0.05753299 0.18441802 0.04828145 -0.07799541
-0.029955445 -0.08371608 0.039638586 -0.07113175 0.0025130657 0.13381402 0.16865297 -0.01584306
-0.00392473 -0.03171266 -0.042980917 0.09516409 0.020703873 -0.04318667 0.0021840746 0.037431236
-0.24897878 -0.18763544 0.073256046 -0.04617674 -0.073547944 -0.051930506 0.008321738 -0.22063296
-0.14064041 0.11752034 -0.00800746 -0.10577525 0.0060342317 0.018320506 0.020395717 0.07305289
0.029200116 0.09575846 0.024090368 -0.06716034 -0.092057034 -0.11114303 -0.070779674 -0.03636831
-0.1285105 -0.006177019 0.0041372157 0.011365814 -0.009564786 -0.025687898 -0.013317383 0.244636
-0.1141538 -0.18375617 -0.21578915 -0.10729247 0.046680585 -0.01392978 -0.060903933 0.053578027
-0.089797065 -0.086917266 0.07788139 -0.08262794 -0.0020767106 0.1719574 0.19475482 0.107417844
-0.055386823 -0.06851036 -0.062047224 0.15420294 0.027923064 0.01104172 0.024523813 0.09375159
-0.13334374 0.04517915 0.00819167 -0.06958698 -0.14360408 -0.11949818 -0.024338555 -0.03483611
0.005959613 -0.0012307984 0.00043564386 0.022962624 -0.20956618 -0.05062863 -0.017030122 0.12751085
-0.07610594 0.0016316101 -0.029475855 0.16730167 -0.05528875 0.115997955 -0.04533201 -0.08038255
-0.11973331 -0.053270854 0.16577727 0.011044264 -0.04668493 -0.06327731 -0.13912795 -0.14601225
0.05681721 0.07760199 0.19045852 0.10977786 0.10836962 -0.07275746 -0.045927677 -0.09562098
0.16013207 -0.0800051 -0.038768135 0.08022081 -0.08819098 0.014178663 -0.08357495 0.0720883
0.038840998 0.10715422 0.01921809 -0.049349524 0.030009618 -0.022737 -0.040821236 0.011163193
0.07878033 -0.053539194 -0.123145595 -0.07408813 -0.015815526 0.018894104 0.0523043 0.12677664
0.16368435 0.14173041 0.04065795 0.00036218934 0.09064265 -0.14211224 -0.06222992 -0.069794536
0.037566155 -0.07791116 0.06908999 -0.04556663 0.056565557 -0.11047793 0.009634114 -0.09138917
-0.108130254 0.028268464 -0.078057356 0.05462921 -0.096390225 -0.056215428 0.010350188 -0.11035206
0.12485561 0.15474643 -0.12225818 -0.14689086 -0.022972701 -0.11720394 -0.021337483 0.00096108293
00000000: 4945 043e 1251 bbbc 3a8c 863e 3e24 203e
00000010: 1987 01be 39ca eabd 7623 123e 442f 29bd
00000020: bcd5 bfbc 181e d9bd 9212 d43c 2bb6 5ebd
00000030: debf 893d fd8d f5bd cd9a 3fbd f300 bbba
00000040: 0da4 05be 8dc9 c2bd f417 1d3d 4cb1 a63d
00000050: 9cd7 933d 7472 43bd 2d91 e63d bc0d 85bd
00000060: 2169 f93b 2daa b6bd f773 5a3d 437d a0bd
00000070: 1241 bebc 90c3 8b3b b381 80bd beb7 b7bd
00000080: 5f49 e53d dab4 823c f1ae 1dbd 7018 163d
00000090: 7e00 643c b057 43be ac47 09be ceb9 e6bc
000000a0: d6d7 83bd 8a53 c7bd 7443 d1bd 42b7 cc3d
000000b0: 368a 1abd 8c1f 99bb fe4e 16bd ec19 5dbd
000000c0: 867e 493d 140e a2bd af09 dfbd bf02 7a3d
000000d0: c1c2 eebd 03dc d4bd 8fb4 843c be5a 5bbe
000000e0: c94a 31be 7fff 903d 1e1a 50bb 56d4 be3d
000000f0: da99 f73c efb5 e1bc 64b2 283d 732c dd3c
00000100: 026c 96bd 7ade eb3d b860 a13c a03a 143e
00000110: 6dd7 05bc e035 4b3d de11 153a c2cd 99bd
00000120: 8c08 02bd 690b 16bd 96c3 283d 9126 023e
00000130: 436d 8c3d e8e0 86bd 8990 cebd fd0f ba3d
00000140: 1f2b dc3c 0130 f23c db88 d43c 4435 9cbc
00000150: b6a7 6b3d 14d8 3c3e c5c2 453d 0fbc 9fbd
00000160: 1f65 f5bc 5673 abbd 125c 223d 86ad 91bd
00000170: 3fb2 243b 8b06 093e 5db3 2c3e 4ec9 81bc
00000180: 059b 80bb 22e5 01bd c20c 30bd 64e5 c23d
00000190: 2b9b a93c 81e4 30bd b122 0f3b 7f51 193d
000001a0: 4bf4 7ebe 8123 40be 4407 963d d223 3dbd
000001b0: 4ea0 96bd 15b5 54bd e657 083c 9bed 61be
000001c0: 0a04 10be 81ae f03d b931 03bc b2a0 d8bd
000001d0: ceba c53b e314 963c eb14 a73c c19c 953d
000001e0: 1535 ef3c 031d c43d 2a59 c53c 5c8b 89bd
000001f0: 6688 bcbd f59e e3bd eff4 90bd f0f6 14bd
00000200: 4298 03be 9768 cabb 7b91 873b ae37 3a3c
00000210: 9fb5 1cbc 6d6f d2bc 2731 5abc dc81 7a3e
00000220: 78c9 e9bd 942a 3cbe d5f7 5cbe 28bc dbbd
00000230: 2434 3f3d bb39 64bc 6776 79bd a274 5b3d
00000240: 86e7 b7bd ae01 b2bd 4780 9f3d d638 a9bd
00000250: 6c19 08bb 9a15 303e cf6d 473e e3fd db3d
00000260: 4bdd 62bd 294f 8cbd 3b25 7ebd 60e7 1d3e
00000270: e9be e43c 55e8 343c 2ae6 c83c d500 c03d
00000280: 438b 08be c60d 393d 5b36 063c 9e83 8ebd
00000290: f30c 13be 76bb f4bd a661 c7bc 4fb0 0ebd
000002a0: db48 c33b be52 a1ba 2167 e439 1d1c bc3c
000002b0: 8498 56be f75f 4fbd c182 8bbc 3492 023e
000002c0: 6edd 9bbd c0db d53a 5977 f1bc 2151 2b3e
000002d0: 7576 62bd 5690 ed3d 0fae 39bd 9b9f a4bd
000002e0: bd36 f5bd 8a32 5abd 84c1 293e 00f3 343c
000002f0: b238 3fbd 8997 81bd 8f77 0ebe 3c84 15be
00000300: 2ab9 683d cbed 9e3d 8f07 433e 37d3 e03d
00000310: e4f0 dd3d dd01 95bd a91e 3cbd efd4 c3bd
00000320: a9f9 233e b7d9 a3bd 56cb 1ebd cf4a a43d
00000330: 799d b4bd 9f4d 683c 5829 abbd 08a3 933d
00000340: bd17 1f3d ac73 db3d 426f 9d3c ba22 4abd
00000350: bbd6 f53c f242 babc 2b34 27bd d3e5 363c
00000360: 9557 a13d ea4b 5bbd c233 fcbd 84bb 97bd
00000370: 908f 81bc cfc7 9a3c 093d 563d bcd1 013e
00000380: df9c 273e c721 113e f388 263d 3be4 bd39
00000390: dba2 b93d df85 11be cde4 7ebd 70f0 8ebd
000003a0: f8de 193d e38f 9fbd 0d7f 8d3d 13a4 3abd
000003b0: 49b1 673d 4142 e2bd 67d8 1d3c 3f2a bbbd
000003c0: 6573 ddbd 4493 e73c 89dc 9fbd e1c2 5f3d
000003d0: 3d68 c5bd 2642 66bd d693 293c 4300 e2bd
000003e0: 4cb4 ff3d d975 1e3e 7f62 fabd 8f6a 16be
000003f0: 3f31 bcbc 9f08 f0bd f2cb aebc 2ff1 7b3a

network_body._body_endoder.seq_layers.2.bias f4 [128]
0.003919224 0.0030491608 0.009603858 0.00573066 0.0008909506 0.011173334 0.05226315 -0.015708266
-0.008179568 0.0034432975 0.008397494 0.0059157307 0.012502658 -0.000937272 -0.021780616 -0.016901921
-0.0006045267 -0.006310791 0.0030454402 0.008806448 -0.027307853 0.008280998 -0.007523309 0.00030981662
-0.004386566 -0.003023492 0.002329444 -0.0031122847 0.018892718 -0.008546798 0.0069013317 0.020746397
0.004053274 0.011329169 -0.014826121 -0.004780627 -0.0027105664 -0.0085588945 -0.012236326 0.0056573055
0.007974527 -0.006717893 -0.008742093 0.008568402 0.001739909 -0.015057108 0.045451257 0.031615715
0.007178554 -0.015457494 0.06210726 0.0018176736 -0.00052081 0.023310399 -0.00061881373 -0.003603551
0.0068173795 0.0037654366 0.019055847 0.0063240267 -0.010987764 0.0053463755 0.0019939647 -0.0012277828
-0.030676167 -0.016103717 -0.007109779 0.012176102 0.028170008 -0.00021720986 -0.012628596 0.013030987
0.009469305 0.00772742 0.012471545 -0.012565414 0.013466816 -0.01609882 0.01288765 0.0028776529
0.0034561397 -0.003982687 0.0041750404 0.025979808 0.004617847 -0.011322421 0.005338496 0.011078828
0.006011523 0.01939345 0.01737391 0.0133771505 -0.0007956992 -0.0027177243 0.025317542 0.020505132
0.008618994 -0.007900189 0.011932177 -0.019194616 -0.008919485 -0.0042573973 -0.004040866 -0.005478534
0.0101854745 0.008426735 -0.0015139452 -0.0023392872 -0.0021843952 0.003127899 0.020156443 -0.023623794
0.012696391 -0.005855322 -0.01809072 0.010215576 -0.012468146 -0.015365174 -0.018204238 -0.011630168
-0.006381937 -0.022013221 0.00068754057 0.02421623 -0.01934702 -0.024706695 -0.0010883026 -0.006053311
00000000: d56c 803b 6ed4 473b 8059 1d3c 43c8 bb3b
00000010: af8e 693a 5c10 373c e311 563d 9fae 80bc
00000020: 9803 06bc f2a8 613b a595 093c bfd8 c13b
00000030: f3d7 4c3c 42b3 75ba 436d b2bc e675 8abc
00000040: 1a79 1eba c0ca cebb 0296 473b ec48 103c
00000050: b8b4 dfbc 06ad 073c 1786 f6bb e26e a239
00000060: 2fbd 8fbb c725 46bb 96a9 183b 79f7 4bbb
00000070: e7c4 9a3c de07 0cbc 9124 e23b 59f4 a93c
00000080: 54d1 843b fb9d 393c 42e9 72bc cea6 9cbb
00000090: c2a3 31bb 9b3a 0cbc df7a 48bc eb60 b93b
000000a0: 97a7 023c c521 dcbb ff3a 0fbc 7c62 0c3c
000000b0: a90d e43a 17b2 76bc 192b 3a3d 7b7f 013d
000000c0: 133a eb3b 6e41 7dbc 2f64 7e3d 013f ee3a
000000d0: f886 08ba 73f5 be3c e337 22ba 8e29 6cbb
000000e0: 5364 df3b 8bc5 763b 021b 9c3c c839 cf3b
000000f0: 0606 34bc a630 af3b 2dad 023b 8eed a0ba
00000100: 964c fbbc f1eb 83bc 26f9 e8bb 467e 473c
00000110: cac4 e63c d4c2 63b9 2ce8 4ebc ec7f 553c
00000120: 2525 1b3c 4c36 fd3b 7355 4c3c 2bdf 4dbc
00000130: eca3 5c3c ace1 83bc b926 533c 0197 3c3b
00000140: 6780 623b 3381 82bb c7ce 883b 9bd3 d43c
00000150: 4f51 973b ad81 39bc 8dee ae3b f983 353c
00000160: 4ffc c43b 03df 9e3c bb53 8e3c d62b 5b3c
00000170: 7896 50ba d91b 32bb bc66 cf3c 61fa a73c
00000180: ae36 0d3c cb6f 01bc 2d7f 433c 073e 9dbc
00000190: 0823 12bc a381 8bbb 3e69 84bb 4685 b3bb
000001a0: fae0 263c 4a10 0a3c 926f c6ba ba4e 19bb
000001b0: 1228 0fbb 70fd 4c3b 201f a53c b086 c1bc
000001c0: 8604 503c 00de bfbb fd32 94bc 3b5f 273c
000001d0: 3247 4cbc 36be 7bbc 0e21 95bc 768c 3ebc
000001e0: 911f d1bb 1255 b4bc 113c 343a 1d61 c63c
000001f0: a47d 9ebc b265 cabc 60a5 8eba da5a c6bb

action_model._discrete_distribution.branches.0.weight f4 [3, 128]
-0.021964842 -0.029585926 -0.036312412 -0.016215008 -0.014962505 -0.033434946 0.05048166 -0.0006483292
-0.008417072 -0.019807948 -0.011947711 0.087451465 -0.025273852 -0.051922824 -0.009279303 -0.010442637
0.002485395 -0.04920613 0.004090888 0.12012749 0.022788223 -0.035996493 -0.007211634 0.031281833
0.017665355 -0.0009583316 0.026257109 -0.028824596 0.05571541 0.005287136 -0.019549396 0.019079065
-0.011873023 -0.03561078 0.005947804 -0.0032465803 0.015842373 -0.0078360215 -0.014116721 -0.0135151325
-0.00717508 -0.005597181 -0.035008647 0.022138996 -0.03957272 -0.019277358 0.014361626 0.0021700535
-0.007144445 -0.011668609 0.03406495 -0.022811266 0.008211518 -0.034058258 -0.009610161 -0.03305504
-0.030990666 0.0028703401 -0.016614899 -0.00868123 0.00084069476 -0.019162398 0.011498436 -0.02656615
-0.001897091 -0.018173873 0.0022965218 -0.0060652005 -0.012938399 0.017353645 0.02547387 0.0070495345
0.0021188618 -0.01602005 -0.1265481 -0.025330292 -0.05456115 -0.0038747436 0.05230894 -0.004929336
0.0038407266 0.022307971 -0.035463784 -0.08004594 0.002933129 -0.0075932355 -0.026293011 -0.014861975
-0.001479316 -0.020223191 -0.08964819 -0.018870443 -0.005456186 -0.018897466 -0.005060098 -0.002305746
0.010932496 0.0045108227 0.033892673 -0.0020811176 0.0075861625 0.030866714 -0.002565743 -0.017743561
0.029308211 0.039510474 -0.018615613 0.05823556 -0.009514922 0.0007985926 -0.043349694 -0.0002696702
-0.000906121 -0.03075103 -0.0038644911 0.000586583 -0.012198931 -0.0029222644 -0.016510816 -0.011483505
0.0030707917 -0.004556553 -0.010037907 0.015914403 -0.017726688 -0.0017431576 -0.01909397 -0.011887172
-0.010463274 -0.01778091 0.0050941003 0.023447871 -0.0028385508 0.041242674 -0.04281716 -0.0144319665
-0.019693866 0.017636282 -0.017224351 -0.07280027 0.036411952 0.05271266 0.005549275 -0.0121177295
0.021361606 -0.013577937 0.027855942 -0.07272547 0.00071755936 -0.011804258 0.0013077661 0.012647439
0.023333265 -0.006916384 -0.031166295 0.014501157 -0.0035547165 -0.008978757 0.016059501 -0.023454027
0.0050738235 -0.0029850928 0.018278714 0.017189058 -0.004385866 0.010786068 0.00451022 -0.018541584
0.028615154 0.015226992 0.024900451 0.02553395 0.003577705 0.020712703 -0.040773142 -0.06276364
0.04402981 0.0065196967 0.03707871 0.015772874 -0.014199446 0.065835565 0.0022393218 0.025270157
0.011408395 -0.02242347 0.015134001 0.03319829 0.018792732 0.0046263193 0.012653537 0.0014426347
0.00245544 -0.00028193597 -0.016910234 0.020961536 -0.08374752 -0.039346315 0.011944927 0.0227546
-0.02011065 -0.018074254 -0.029455211 0.0073232977 0.01748472 0.02875028 -0.019067373 0.040180106
-0.0030622797 -0.006005628 0.019169204 -0.047811057 0.011354594 -0.004981218 -0.076715246 0.029697
0.032572474 0.035047777 -0.00563849 0.03451344 -0.0066682105 0.026648438 -0.062269505 0.04097641
-0.012163605 0.021396352 0.017806599 -0.019206155 -0.009971405 0.0106077185 -0.007975472 -0.011115354
-0.041887768 -0.016812576 0.013536518 -0.05453062 0.007835912 0.03277151 -0.07286614 0.009114911
-0.018252589 0.03961147 0.0053052343 0.01675896 0.007880011 -0.0023953498 0.012863825 0.0014424158
0.01438298 0.0019252483 -0.026162632 0.023477692 0.015340153 -0.02640987 -0.0011313619 -0.005412755
00000000: 9def b3bc 2f5e f2bc 53bc 14bd 56d5 84bc
00000010: 4b25 75bc 15f3 08bd dbc5 4e3d a3f4 29ba
00000020: c2e7 09bc 4744 a2bc 55c0 43bc c119 b33d
00000030: 1c0b cfbc 07ad 54bd 3808 18bc 9817 2bbc
00000040: 02e2 223b 5e8c 49bd db0c 863b 6705 f63d
00000050: 5eae ba3c 0f71 13bd 924f ecbb 6121 003d
00000060: efb6 903c 8c38 7bba 2619 d73c 8f21 ecbc
00000070: d735 643d b63f ad3b 0e26 a0bc b34b 9c3c
00000080: 1187 42bc 9cdc 11bd cce5 c23b 94c4 54bb
00000090: ddc7 813c a862 00bc d249 67bc 936e 5dbc
000000a0: ef1c ebbb 8f68 b7bb 3a65 0fbd d75c b53c
000000b0: 0117 22bd 8deb 9dbc 064d 6b3c 7537 0e3b
000000c0: f31b eabb b22d 3fbc b087 0b3d b1de babc
000000d0: 9a89 063c ac80 0bbd f073 1dbc b964 07bd
000000e0: 23e0 fdbc 511c 3c3b f81b 88bc b83b 0ebc
000000f0: 1262 5c3a 76fa 9cbc f063 3c3c 41a1 d9bc
00000100: d0a7 f8ba 60e1 94bc 3e81 163b 97be c6bb
00000110: 94fb 53bc 3b29 8e3c 94ae d03c c8ff e63b
00000120: 9adc 0a3b 7b3c 83bc d395 01be 7981 cfbc
00000130: 837b 5fbd 69ef 7dbb e641 563d 4486 a1bb
00000140: b3b4 7b3b 35bf b63c 7942 11bd 20ef a3bd
00000150: bd39 403b add0 f8bb 7164 d7bc a47f 73bc
00000160: 9ce5 c1ba 1bab a5bc 7899 b7bd 3096 9abc
00000170: cec9 b2bb dcce 9abc 2ecf a5bb 001c 17bb
00000180: 361e 333c 86cf 933b 0bd3 0a3d 5c63 08bb
00000190: 5895 f83b 31dc fc3c 0626 28bb f25a 91bc
000001a0: c617 f03c bcd5 213d c57f 98bc 6988 6e3d
000001b0: 7ae4 1bbc a458 513a 738f 31bd 8662 8db9
000001c0: c088 6dba 96e9 fbbc 6743 7dbb ebc4 193a
000001d0: 06de 47bc 7683 3fbb b141 87bc 5025 3cbc
000001e0: 563f 493b 234f 95bb 0976 24bc ec5e 823c
000001f0: 8f37 91bc aa7a e4ba f56a 9cbc 6ac2 42bc
00000200: 276e 2bbc 45a9 91bc 69ec a63b c015 c03c
00000210: fb06 3abb 14ee 283d 0c61 2fbd 0e74 6cbc
00000220: 0855 a1bc f779 903c 151a 8dbc 4f18 95bd
00000230: b324 153d 3be9 573d b1d6 b53b 7189 46bc
00000240: 89fe ae3c ff75 5ebc 2532 e43c 17f1 94bd
00000250: 981a 3c3a a666 41bc 5969 ab3a 3437 4f3c
00000260: 6725 bf3c d6a2 e2bb 7550 ffbc 4396 6d3c
00000270: 3ff6 68bb a31b 13bc 378f 833c a922 c0bc
00000280: 5142 a63b 8ca1 43bb 3ebd 953c 11d0 8c3c
00000290: 50b7 8fbb 0cb8 303c 78ca 933b 85e4 97bc
000002a0: 546a ea3c a27a 793c 08fc cb3c 932c d13c
000002b0: ee77 6a3b b0ad a93c bd01 27bd 398a 80bd
000002c0: 9a58 343d 2ea3 d53b d8df 173d 1d36 813c
000002d0: cba4 68bc ccd4 863d 96c1 123b 5c03 cf3c
000002e0: 47ea 3a3c 6db1 b7bc 9af4 773c eefa 073d
000002f0: 37f3 993c 6198 973b c850 4f3c ca16 bd3a
00000300: 72eb 203b ced0 93b9 5587 8abc 87b7 ab3c
00000310: d283 abbd 9a29 21bd a8b4 433c db67 ba3c
00000320: 17bf a4bc 7510 94bc 0e4c f1bc 46f8 ef3b
00000330: 1e3c 8f3c b585 eb3c 2e33 9cbc e593 243d
00000340: 87b0 48bb dcca c4bb bc08 9d3c 87d5 43bd
00000350: 9e08 3a3c 7c39 a3bb e21c 9dbd 1f47 f33c
00000360: b76a 053d 428e 0f3d 15c3 b8bb f75d 0d3d
00000370: 0181 dabb d34d da3c 4f0e 7fbd e1d6 273d
00000380: db49 47bc 6747 af3c 25df 913c 3a56 9dbc
00000390: 1b5f 23bc ffcb 2d3c 8eab 02bc 2c1d 36bc
000003a0: 8292 2bbd 87ba 89bc 46c8 5d3c 805b 5fbd
000003b0: 3262 003c 6b3b 063d d83a 95bd b556 153c
000003c0: 7486 95bc a33f 223d 88d7 ad3b 164a 893c
000003d0: 291b 013c 4dfb 1cbb cbc2 523c 710f bd3a
000003e0: 97a6 6b3c 9d58 fc3a 0453 d6bc 4a54 c03c
000003f0: 4455 7b3c 8359 d8bc 354a 94ba 7b5d b1bb

action_model._discrete_distribution.branches.0.bias f4 [3]
-0.003756372 0.0017628525 0.009937174
00000000: 772d 76bb 840f e73a 87cf 223c

action_model._discrete_distribution.branches.1.weight f4 [2, 128]
-0.015248902 0.01005524 0.031453203 0.020187154 -0.021109497 0.026810529 -0.026819536 -0.012400233
0.025265455 -0.014874378 0.058150835 0.0533241 0.006450092 -0.06232459 -0.0055020456 0.020744834
-0.02115125 0.0032283207 0.0033951444 0.021637151 0.08697395 -0.028250689 0.023422109 0.009971463
-0.017097576 0.032505296 0.015213671 -0.012320456 -0.023616899 -0.035532985 -0.013754553 -0.023555242
-0.0025351783 0.03121041 0.0023259695 -0.012507792 -0.028827544 -0.0154489195 -0.009836521 0.0073878877
-0.03179615 0.003534747 0.018672325 -0.007962338 -0.015781466 0.02058752 -0.024985911 0.09477553
0.010058904 0.0020944518 0.060335997 0.01812135 0.017742544 0.060794488 -0.0004194922 -0.009076368
-0.03146564 0.007183935 -0.023654759 0.01789556 -0.024721187 0.0012376494 0.03754882 0.0007382544
0.0035894113 -0.018575767 0.032992117 0.004282524 -0.012652077 0.014884856 0.014874832 0.082109615
0.09586778 -0.03430551 -0.012638075 0.006134486 -0.02925471 0.010100014 0.014760336 -0.015114071
-0.018082138 -0.0050565754 0.00338401 0.022425579 -0.012438444 -0.003932641 0.18202326 0.12852831
-0.014752014 0.009605831 -0.014658125 0.015828898 0.10943879 -0.010003225 -0.03581909 0.028870413
0.056977242 -0.022909053 0.046678234 -0.017384594 0.038563468 -0.0056314357 -0.018916102 -0.0030456127
0.015696423 0.09686332 -0.022166388 0.043736853 0.014619013 -0.014294835 -0.018366683 -0.021397345
-0.0052044387 -0.010456476 -0.0056200013 0.037616502 -0.012010713 -0.011423545 -0.012373934 -0.011060628
-0.0011647647 -0.013411391 0.02322778 0.004244511 0.00053962786 0.035698675 0.009523973 -0.012995338
0.027570538 0.00951048 -0.055869613 -0.008972911 0.028665144 -0.005414952 0.011468267 0.0063985093
-0.022096857 -0.009813341 -0.059544414 -0.042300206 -0.018634427 0.050229963 0.012621718 -0.021443449
-0.012746198 -0.0073149907 -0.0030531653 -0.026282417 -0.08776878 0.031165676 -0.031185534 -0.009416187
0.018663948 -0.016967801 -0.023155099 -0.0044221757 0.032927014 0.010511681 0.014054879 0.02959743
-0.012015868 -0.033409722 -0.0008263356 -0.00020493797 0.0187902 0.009599593 0.016860237 -0.012921764
0.032976296 -0.021364838 -0.029090652 0.015389026 0.009805096 -0.0035789788 0.03411405 -0.0761193
-0.0026243732 -0.023838852 -0.07825978 -0.047493495 -0.017388303 -0.08308749 -0.007878729 0.030259252
0.026951462 -0.0044335173 0.042570166 -0.008583029 0.038204525 0.020007504 -0.035778053 -0.008886976
0.0015235167 0.0137492465 -0.0084536355 0.0152762495 0.0064946758 -0.026715579 -0.0024247554 -0.093898594
-0.10898874 0.019637419 -0.0026205676 0.0074311346 0.017940108 -0.0045806537 -0.023216926 0.024354681
-0.005337786 -0.00840457 -0.021500973 -0.0029004847 9.892315e-05 0.006873748 -0.19294918 -0.1153712
0.014057223 -0.021464277 0.022046987 -0.013836928 -0.11465832 0.01885806 0.011037467 -0.026085887
-0.04511108 0.006419015 -0.048635274 -0.0020479239 -0.022151018 0.018472793 0.015727006 -0.0013479448
-0.03905099 -0.11127995 0.00490242 -0.03571017 -0.01967738 0.01802986 0.031160051 0.025392488
0.009191711 0.0048486157 -0.0034335076 -0.029916031 0.011558313 -0.0043287277 -0.007090227 0.025653677
0.004596241 0.019246606 -0.026505025 -0.0038337111 -0.012258047 -0.0169723 -0.027879931 0.0069235405
00000000: 88d6 79bc bcbe 243c 13d5 003d 885f a53c
00000010: d3ed acbc c1a1 db3c a5b4 dbbc 592a 4bbc
00000020: 80f9 ce3c aab3 73bc 922f 6e3d 5f6a 5a3d
00000030: 4b5b d33b 1248 7fbd 814a b4bb 12f1 a93c
00000040: 6345 adbc 3c92 533b 1281 5e3b 6540 b13c
00000050: 661f b23d fd6d e7bc b9df bf3c 595f 233c
00000060: 3710 8cbc 4624 053d c342 793c bddb 49bc
00000070: 3a78 c1bc 098b 11bd c75a 61bc ecf6 c0bc
00000080: 3c25 26bb f9ac ff3c 4b6f 183b 7bed 4cbc
00000090: be27 ecbc 771d 7dbc 5c29 21bc 1816 f23b
000000a0: ae3c 02bd 37a7 673b b4f6 983c 7774 02bc
000000b0: 2248 81bc 29a7 a83c 41af ccbc ac19 c23d
000000c0: 1ace 243c 1243 093b e122 773d 3a73 943c
000000d0: d058 913c a403 793d 4aef dbb9 0cb5 14bc
000000e0: 1de2 00bd 3767 eb3b a0c7 c1bc b699 923c
000000f0: 1684 cabc 9f38 a23a cbcc 193d 6a87 413a
00000100: 543c 6b3b 352c 98bc be22 073d 6a54 8c3b
00000110: a84a 4fbc 9cdf 733c 91b5 733c 1629 a83d
00000120: 5456 c43d ef83 0cbd ee0f 4fbc cc03 c93b
00000130: 93a7 efbc 877a 253c 56d5 713c 02a1 77bc
00000140: fe20 94bc a1b1 a5bb 44c6 5d3b d9b5 b73c
00000150: 9eca 4bbc 62dd 80bb 4e64 3a3e ed9c 033e
00000160: 6eb2 71bc c661 1d3c a228 70bc 9bab 813c
00000170: 7221 e03d 91e4 23bc 0ab7 12bd a581 ec3c
00000180: f860 693d c4ab bbbc ad31 3f3d 236a 8ebc
00000190: baf4 1d3d e887 b8bb f1f5 9abc e798 47bb
000001a0: c995 803c 4760 c63d 4996 b5bc 6a25 333d
000001b0: 9684 6f3c e234 6abc ba75 96bc 7c49 afbc
000001c0: ff89 aabb a451 2bbc fd27 b8bb c313 1a3d
000001d0: 95c8 44bc d229 3bbc 0abc 4abc a337 35bc
000001e0: 05ab 98ba 73bb 5bbc 2f48 be3c 8a15 8b3b
000001f0: d075 0d3a c638 123d 700a 1c3c 66ea 54bc
00000200: 9cdb e13c d8d1 1b3c 89d7 64bd 1e03 13bc
00000210: 2ad3 ea3c e96f b1bb 66e5 3b3c 96aa d13b
00000220: 7804 b5bc 23c8 20bc d8e4 73bd fb42 2dbd
00000230: 3aa7 98bc efbd 4d3d 53cb 4e3c 2caa afbc
00000240: 6ed5 50bc 97b2 efbb 9d17 48bb 394e d7bc
00000250: 1ec0 b3bd 294f ff3c ce78 ffbc 5a46 1abc
00000260: 23e5 983c 0f00 8bbc c3af bdbc e6e7 90bb
00000270: 7ade 063d 3039 2c3c 6f46 663c 4f76 f23c
00000280: 34de 44bc a2d8 08bd 729e 58ba 9ee4 56b9
00000290: e8ed 993c 9c47 1d3c 7b1e 8a3c ceb5 53bc
000002a0: 2712 073d 5005 afbc 854f eebc 4122 7c3c
000002b0: 8ea5 203c 4d8d 6abb 2dbb 0b3d 70e4 9bbd
000002c0: adfd 2bbb b249 c3bc aa46 a0bd 8a88 42bd
000002d0: ea71 8ebc c629 aabd c915 01bc 40e2 f73c
000002e0: 50c9 dc3c 0a47 91bb 0e5e 2e3d d59f 0cbc
000002f0: 597c 1c3d c7e6 a33c 028c 12bd ae9a 11bc
00000300: bdb0 c73a 8544 613c 1e81 0abc 3c49 7a3c
00000310: 4ad1 d43b a1da dabc a5e8 1ebb e84d c0bd
00000320: 7d35 dfbd a7de a03c d4bd 2bbb e080 f33b
00000330: 22f7 923c 4f19 96bb 6c31 bebc 7883 c73c
00000340: 98e8 aebb 52b3 09bc cf22 b0bc 0f16 3ebb
00000350: f674 cf38 2d3d e13b 7894 45be bc47 ecbd
00000360: 4450 663c dad5 afbc e29b b43c 48b4 62bc
00000370: fbd1 eabd 387c 9a3c 7ed6 343c 12b2 d5bc
00000380: 65c6 38bd 9a56 d23b c835 47bd 7636 06bb
00000390: 0d76 b5bc 4154 973c ecd5 803c 86ad b0ba
000003a0: eef3 1fbd bee6 e3bd 7ba4 a03b d444 12bd
000003b0: 7532 a1bc 5bb3 933c 5d43 ff3c e803 d03c
000003c0: d598 163c 23e1 9e3b b304 61bb 7712 f5bc
000003d0: 145f 3d3c 00d8 8dbb 2355 e8bb a927 d23c
000003e0: 109c 963b 0fab 9d3c 1121 d9bc 003f 7bbb
000003f0: fad5 48bc 7e09 8bbc 7464 e4bc dede e23b

action_model._discrete_distribution.branches.1.bias f4 [2]
0.004051324 -0.0040513114
00000000: f8c0 843b ddc0 84bb
