results/Player3/MoveAgent2D/MoveAgent2D-587107.onnx (onnx, 78886 bytes, 9 tensors)

discrete_act_size_vector f4 [1, 2]
3.0 2.0
00000000: 0000 4040 0000 0040

network_body._body_endoder.seq_layers.0.weight f4 [128, 5]
-0.014892091 0.17519337 -1.4317058 -0.07754774 0.46950492 0.08666388 0.08704339 0.78285855
0.25733176 -0.42330226 0.17430362 0.45932975 -0.057303715 0.2948864 0.06256251 0.5407663
0.9068054 -0.5751507 -0.49733022 -0.061472412 0.22893333 0.24702887 0.14134717 -0.93967414
-0.31640705 -0.16940849 0.3892098 -0.5516564 -0.41215155 -0.19578454 -0.7622765 0.357395
-0.6739183 0.18952708 0.14292943 0.5532756 0.5650293 0.15959635 0.57141745 -0.53532046
-0.13337173 0.22635093 -0.19802754 -0.12521097 -0.012444915 -0.197484 0.31244466 1.3697369
-0.52800083 0.61296123 0.19458508 -0.36214802 0.013276615 0.1268004 -0.72984207 -0.046504546
-0.1507651 0.73268986 0.2661459 -0.3154388 -0.31066573 -0.8205504 -0.11820728 0.6763183
-0.3947649 0.041768387 0.35833624 0.5485993 0.33545843 -0.38957122 0.104599 -0.03361306
-0.3546122 -0.38076115 -0.08316204 0.23765472 0.67980283 -0.4122284 -0.39263633 -0.11304954
-1.0163335 0.037120774 -0.13757719 0.53222686 0.04647768 0.42097786 -0.63105834 -0.9311585
-0.5419917 0.29700473 -0.17476207 0.32661983 -0.023428263 0.37470832 0.4984332 -0.15861292
-0.47838753 -0.4219841 -0.36180654 -0.33146062 0.057573196 -0.14253277 0.81475693 0.35563454
-0.18837109 -0.036698345 0.30716556 -0.021194587 0.23517895 -0.35891175 -0.30090353 -0.20708054
-1.812017 0.6724329 0.78325194 -0.264043 -0.27858502 0.5109136 0.25282145 0.22857551
0.082420446 0.31848577 -0.53848094 0.37207058 0.34922415 0.2268563 0.34950903 0.6141399
-0.36831003 -0.04637068 0.36728132 0.20593947 0.30723417 0.04196475 0.70302725 0.2078521
0.246686 -0.046607926 0.017517306 0.08013111 -0.7115321 -0.048490115 -1.0017015 -0.019408604
0.0072050127 0.24380237 0.58611286 0.10763902 0.596965 0.07457424 -0.31104192 -0.103378765
-0.31435257 -0.4487512 0.30539572 -0.21345034 -0.21656483 -0.3630009 -0.45260498 0.0047161593
-0.31180945 -0.22845076 -0.19260642 1.0098984 -0.03891475 0.17705573 -0.2267016 0.23342353
-0.75167114 0.042056926 -0.091964155 0.096385874 0.20597419 -0.5581734 -0.109394506 0.10831974
0.054887794 0.24468835 0.03990643 -0.12490978 -0.032847904 -0.41424248 -1.411754 -0.3052998
-0.1926992 0.33084673 -0.42627773 0.9087352 -0.08014684 0.67622787 -0.11954959 0.04657119
-0.23659799 -0.33334517 -0.55505836 0.4106747 -0.036213573 -0.3401276 0.5874953 0.57011425
-0.21925914 -0.21765354 -0.2746843 0.10678685 -0.6717337 0.16648221 0.7910412 -0.96126
0.054660097 0.35057732 0.5901089 0.4866828 0.04393591 -0.32237735 -0.60302866 0.007324737
-0.08229403 0.054169584 0.2101819 -0.123556994 -0.24659176 -0.31338722 0.9378983 -0.023233544
-0.5275558 0.5150022 -0.10588708 -0.23711629 0.27112806 0.5373865 -0.5185712 -0.28473595
-0.06448019 -0.6575334 0.6526789 -0.49238557 -0.26513076 0.033665363 0.22749393 -0.46164298
-0.49874443 0.011964685 0.9291275 0.09079047 -0.009356243 0.35390702 -0.6116288 0.19039112
-0.58482534 0.25752908 1.0194647 -0.23815489 -0.43918878 -0.38644946 0.41245562 -0.5303671
00000000: f5fd 73bc e465 333e 2342 b7bf 59d1 9ebd
00000010: f362 f03e d57c b13d ce43 b23d 6b69 483f
00000020: fdc0 833e 13bb d8be a67c 323e 452d eb3e
00000030: 4db7 6abd 5afb 963e c620 803d a96f 0a3f
00000040: 6624 683f 143d 13bf 11a2 febe 7fca 7bbd
00000050: 806d 6a3e 23f5 7c3e 50bd 103e 7c8e 70bf
00000060: 1b00 a2be 6b79 2dbe 8246 c73e 5b39 0dbf
00000070: 8705 d3be be7b 48be 8d24 43bf 7afc b63e
00000080: e985 2cbf 6313 423e 185c 123e 78a3 0d3f
00000090: c3a5 103f 3a6d 233e 6a48 123f c30a 09bf
000000a0: 9992 08be 8ac8 673e bbc7 4abe 4e37 00be
000000b0: c2e5 4bbc 3f39 4abe bff8 9f3e 8a53 af3f
000000c0: 102b 07bf 07eb 1c3f 5041 473e 776b b9be
000000d0: 2986 593c f7d7 013e eed6 3abf 8d7b 3ebd
000000e0: 2b62 1abe 9091 3b3f 4744 883e 3281 a1be
000000f0: 940f 9fbe 970f 52bf a916 f2bd 3223 2d3f
00000100: a01e cabe 5415 2b3d d977 b73e 0171 0c3f
00000110: 35c1 ab3e e175 c7be 0038 d63d d9ad 09bd
00000120: bb8f b5be 20f3 c2be dc50 aabd c25b 733e
00000130: 8f07 2e3f 9a0f d3be a107 c9be 8486 e7bd
00000140: 3717 82bf f40b 183d 09e1 0cbe 0540 083f
00000150: 615f 3e3d 698a d73e 0a8d 21bf 6760 6ebf
00000160: f8bf 0abf 0111 983e d4f4 32be b73a a73e
00000170: a1ec bfbc c5d9 bf3e a332 ff3e 6d6b 22be
00000180: 36ef f4be 4d0e d8be b53e b9be 35b5 a9be
00000190: dfd1 6b3d 1cf4 11be e993 503f bb15 b63e
000001a0: 5ae4 40be 0151 16bd ce44 9d3e 45a0 adbc
000001b0: c0d2 703e 48c3 b7be 0710 9abe ec0c 54be
000001c0: 2cf0 e7bf 9024 2c3f 3383 483f a530 87be
000001d0: b2a2 8ebe 3ccb 023f d071 813e b30f 6a3e
000001e0: 0dcc a83d 9110 a33e e3d9 09bf 0980 be3e
000001f0: 82cd b23e 054d 683e d9f2 b23e 4638 1d3f
00000200: 2293 bcbe 2fef 3dbd 4c0c bc3e cce1 523e
00000210: cc4d 9d3e 3be3 2b3d 98f9 333f 2ed7 543e
00000220: 419b 7c3e f4e7 3ebd 7480 8f3c c81b a43d
00000230: f826 36bf 929d 46bd c137 80bf cbfe 9ebc
00000240: 0718 ec3b 54a7 793e 7e0b 163f d971 dc3d
00000250: b3d2 183f 61ba 983d e340 9fbe 3fb8 d3bd
00000260: d2f2 a0be b8c2 e5be d45c 9c3e ba92 5abe
00000270: 2cc3 5dbe 41db b9be d7bb e7be 038a 9a3b
00000280: 7da5 9fbe ffee 69be 9e3a 45be 5a44 813f
00000290: 1365 1fbd 194e 353e 7724 68be 9406 6f3e
000002a0: 856d 40bf e243 2c3d b457 bcbd f565 c53d
000002b0: e6ea 523e 74e4 0ebf 3a0a e0bd bdd6 dd3d
000002c0: 06d2 603d 958f 7a3e ed74 233d b3d0 ffbd
000002d0: 868b 06bd 9717 d4be 5bb4 b4bf 4150 9cbe
000002e0: f052 45be be64 a93e 1341 dabe dfa2 683f
000002f0: 0724 a4bd 451d 2d3f 6ad6 f4bd 6fc1 3e3d
00000300: be46 72be 38ac aabe 4e18 0ebf f443 d23e
00000310: af54 14bd 3425 aebe 1866 163f 02f3 113f
00000320: 7885 60be 92e0 5ebe 6ca3 8cbe 10b3 da3d
00000330: bdf6 2bbf 507a 2a3e ad81 4a3f 2315 76bf
00000340: 44e3 5f3d df7e b33e 6011 173f 7d2e f93e
00000350: 24f6 333d a50e a5be 1660 1abf 5904 f03b
00000360: c689 a8bd ede0 5d3d ed39 573e 730b fdbd
00000370: 8d82 7cbe 4a74 a0be 1a1a 703f 4654 bebc
00000380: e60d 07bf 2fd7 033f 53db d8bd 9dce 72be
00000390: 4cd1 8a3e 2992 093f 15c1 04bf e9c8 91be
000003a0: 310e 84bd 1c54 28bf f715 273f f619 fcbe
000003b0: 38bf 87be b1e4 093d 2bf4 683e 785c ecbe
000003c0: 6e5b ffbe 8707 443c 4ddb 6d3f 5bf0 b93d
000003d0: ed4a 19bc 4d33 b53e b493 1cbf e4f5 423e
000003e0: 1db7 15bf dada 833e d27d 823f e0de 73be
000003f0: 5add e0be b4dc c5be 622d d33e 23c6 07bf

network_body._body_endoder.seq_layers.0.bias f4 [128]
0.056781802 -0.017283501 -0.004670373 0.017273674 -0.01787904 0.035208378 -0.028243817 -0.005086806
-0.00084351376 -0.0047369488 0.016443184 0.0036946207 -0.0011519517 -0.008581129 -0.015127845 0.08461559
-0.031233206 0.011253123 0.020372676 0.0037909322 -0.0048508723 -0.008335089 0.03103325 0.01265577
0.022484435 0.031939752 0.020597795 -0.01614033 0.069859974 0.015054128 0.019966738 -0.016988046
-0.022738302 -0.0074431035 -0.0015302226 -0.020938236 -0.032775488 0.051920105 -0.009194534 0.00019141276
-0.026762962 -0.011361808 -0.04346597 -0.015091413 0.0130486945 0.012689308 -0.006442054 -0.0013019604
0.010537099 -0.025094913 -0.0054201377 0.05405438 0.036670573 -0.016436135 0.046894755 0.013704939
-0.002846479 0.013935915 0.1111515 0.039082248 -0.06497022 0.0008221001 -0.0352201 -0.0020393627
-0.019704437 0.007765817 -0.045054123 0.012428079 0.006222318 0.0062143533 0.005315354 -0.009658087
-0.02803851 0.009230877 0.035528712 0.0060539553 -0.007826969 -0.027699897 -0.015836643 -0.02782637
-0.008419248 0.026525667 0.01110302 0.02503451 0.003358516 -0.017518327 0.05798348 0.008270666
0.0008800037 -0.024724565 0.04912385 -0.012944338 0.02980896 0.046749867 -0.03616304 -0.08681767
-0.03552032 -0.018027097 0.020324647 -0.0056434134 -0.047802757 -0.008105104 -0.046610627 -0.04684266
0.012163924 -0.018631216 0.018360373 0.0051752543 -0.006272218 0.0012573343 -0.016205683 0.0023593598
-0.017531954 -0.03710198 -0.004580772 0.004073593 0.03779277 0.0525741 -0.007344912 0.019258512
-0.006794442 0.020338375 -0.008441985 0.0008693156 -0.0049854913 0.034807637 0.0036747397 0.058313392
00000000: 0994 683d 2196 8dbc ee09 99bb 8581 8d3c
00000010: 1177 92bc a936 103d 945f e7bc 39af a6bb
00000020: 401f 5dba 6838 9bbb dbb3 863c 7321 723b
00000030: 16fd 96ba dd97 0cbc c8da 77bc f04a ad3d
00000040: c8dc ffbc 055f 383c 99e4 a63c 4a71 783b
00000050: 11f4 9ebb e68f 08bc 7139 fe3c 265a 4f3c
00000060: 4731 b83c 42d3 023d b5bc a83c ba38 84bc
00000070: bf12 8f3d 97a5 763c 4991 a33c 842a 8bbc
00000080: ad45 babc 47e5 f3bb c091 c8ba aa86 abbc
00000090: 973f 06bd 2daa 543d aca4 16bc f9b5 4839
000000a0: 003e dbbc e026 3abc 5f09 32bd f941 77bc
000000b0: 31ca 553c d1e6 4f3c de17 d3bb 8ba6 aaba
000000c0: cca3 2c3c d993 cdbc 699b b1bb 2068 5d3d
000000d0: e233 163d 13a5 86bc b714 403d ae8a 603c
000000e0: fe8b 3abb 7753 643c 66a3 e33d b514 203d
000000f0: 1b0f 85bd 3482 573a f442 10bd d4a6 05bb
00000100: 336b a1bc 6578 fe3b ac8a 38bd 249f 4b3c
00000110: 96e4 cb3b c6a1 cb3b 6c2c ae3b f43c 1ebc
00000120: 04b1 e5bc 1b3d 173c 8e86 113d 4260 c63b
00000130: b03c 00bc e5ea e2bc d9bb 81bc 21f4 e3bc
00000140: e3f0 09bc 5b4c d93c 71e9 353c 2c15 cd3c
00000150: 8c1a 5c3b 9882 8fbc 1680 6d3d b081 073c
00000160: 0cb0 663a 2c8b cabc 1736 493d 7d14 54bc
00000170: ec31 f43c ca7c 3f3d b21f 14bd 76cd b1bd
00000180: c17d 11bd 90ad 93bc e07f a63c 62ec b8bb
00000190: d3cc 43bd 45cb 04bc c9ea 3ebd 17de 3fbd
000001a0: 324b 473c 7ea0 98bc 7e68 963c 2e95 a93b
000001b0: 2e87 cdbb 23cd a43a c8c1 84bc 7d9f 1a3b
000001c0: 2c9f 8fbc 3ff8 17bd 4d1a 96bb c67b 853b
000001d0: 97cc 1a3d f157 573d 96ad f0bb 07c4 9d3c
000001e0: e9a3 debb aa9c a63c 4050 0abc c8e2 633a
000001f0: 555d a3bb 7492 0e3d e7d3 703b 06da 6e3d

network_body._body_endoder.seq_layers.2.weight f4 [128, 128]
0.13002925 -0.022892231 0.26289484 0.1564409 -0.1285197 -0.11571127 0.14122109 -0.041167814
-0.026837746 -0.107530594 0.024841659 -0.05492862 0.06522254 -0.1198656 -0.04884752 -0.0016862039
-0.13207851 -0.09616297 0.038290855 0.084692664 0.07199164 -0.04766175 0.11237324 -0.06707767
0.007669182 -0.09369883 0.0535018 -0.078108124 -0.025436562 0.0043337387 -0.06331287 -0.08990047
0.11171248 0.013802716 -0.040062606 0.036829706 0.015969139 -0.19293107 -0.13340114 -0.028119981
-0.06391842 -0.09711796 -0.10284282 0.09976973 -0.037812863 -0.0045084907 -0.037201628 -0.056642495
0.046429217 -0.08010434 -0.1104963 0.060693532 -0.118349284 -0.10583337 0.0138476705 -0.21618529
-0.17325713 0.07054171 -0.005576103 0.09077244 0.029244168 -0.029082265 0.039439555 0.025255943
-0.07385366 0.115108676 0.018478692 0.14463133 -0.008331056 0.049769573 -0.00016669332 -0.07604836
-0.032967594 -0.03893352 0.041197672 0.12723742 0.070432864 -0.065961994 -0.101673186 0.09095435
0.026346948 0.029721124 0.026093248 -0.018876294 0.057659544 0.18520996 0.048497736 -0.08022135
-0.029591968 -0.081508994 0.03969968 -0.071222186 0.0023725552 0.13369063 0.16856448 -0.01569341
-0.005952769 -0.03078586 -0.043494593 0.09516097 0.018749364 -0.045735635 0.0011164224 0.03698371
-0.2492021 -0.18918243 0.07304417 -0.04628567 -0.07366819 -0.051729295 0.00685382 -0.22352321
-0.13985826 0.118325084 -0.007969392 -0.107083164 0.0041464684 0.016208144 0.021889532 0.0740825
0.029290061 0.0961147 0.02218599 -0.06793305 -0.092220604 -0.11241631 -0.07139076 -0.036114518
-0.12813151 -0.0075548277 0.0027970714 0.01176143 -0.0087137595 -0.024661092 -0.013392682 0.24332567
-0.11419349 -0.18250993 -0.21667442 -0.10862528 0.045620408 -0.015411984 -0.06026159 0.053338237
-0.089652486 -0.08695981 0.07634942 -0.07806907 -0.0034212887 0.17038341 0.19339044 0.106826544
-0.056827407 -0.06803065 -0.06328819 0.15307128 0.027774122 0.0096279485 0.022912566 0.09313558
-0.134738 0.045760624 0.009215547 -0.07072534 -0.15093939 -0.120414115 -0.023333834 -0.03613594
0.006235571 -0.0023413384 0.00077122153 0.021611791 -0.20938537 -0.051889136 -0.017850889 0.1277674
-0.07607006 0.0013026153 -0.030078165 0.16714028 -0.056376487 0.11632624 -0.044954076 -0.07960878
-0.11812388 -0.054099847 0.16710849 0.011212761 -0.045331977 -0.060384113 -0.14012478 -0.14491628
0.061536163 0.07605015 0.19039218 0.108387925 0.10710477 -0.073979385 -0.045298867 -0.09472078
0.16443714 -0.08064535 -0.038285915 0.07891753 -0.08936886 0.012712854 -0.08108066 0.07075434
0.03871653 0.10590814 0.01797868 -0.05057988 0.028714787 -0.023592113 -0.041822296 0.01162604
0.078346625 -0.05434227 -0.12447537 -0.07557372 -0.017292494 0.017691359 0.05255776 0.12562098
0.16346446 0.1383546 0.039429095 -0.0011596709 0.09147969 -0.14293689 -0.061793875 -0.071088046
0.036970276 -0.078158714 0.06905295 -0.045727797 0.055063568 -0.111699305 0.009660858 -0.09130493
-0.10796699 0.027912702 -0.079390645 0.055346213 -0.09559908 -0.05602511 0.009855094 -0.11081529
0.12345902 0.15460916 -0.12137354 -0.14790206 -0.023699569 -0.11825898 -0.02183812 0.00013963827
00000000: 6326 053e 7d88 bbbc 279a 863e 0b32 203e
00000010: ab9a 03be 08fa ecbd 439c 103e 959f 28bd
00000020: d5da dbbc 0039 dcbd bc80 cb3c d5fc 60bd
00000030: 6593 853d 187c f5bd 5614 48bd 9d03 ddba
00000040: 973f 07be 17f1 c4bd dfd6 1c3d 5973 ad3d
00000050: 5a70 933d f838 43bd f123 e63d 0460 89bd
00000060: c34d fb3b 2ce5 bfbd b424 5b3d 27f7 9fbd
00000070: 5660 d0bc 0902 8e3b 2eaa 81bd bd1d b8bd
00000080: 83c9 e43d c924 623c b018 24bd bfda 163d
00000090: b6d1 823c b98f 45be 4f9a 08be e05b e6bc
000000a0: a9e7 82bd c8e5 c6bd 429f d2bd 1254 cc3d
000000b0: a9e1 1abd f6bb 93bb bc60 18bd f601 68bd
000000c0: 902c 3e3d bf0d a4bd e24b e2bd c899 783d
000000d0: 1c61 f2bd 2abf d8bd 57e1 623c ad5f 5dbe
000000e0: 516a 31be 2c78 903d beb7 b6bb e7e6 b93d
000000f0: 7791 ef3c ee3d eebc 5f8b 213d 8de5 ce3c
00000100: 9640 97bd 19be eb3d a060 973c 3c1a 143e
00000110: fb7e 08bc 2edb 4b3d 66ca 2eb9 3ebf 9bbd
00000120: 0709 07bd c178 1fbd e4be 283d 874a 023e
00000130: 1b3f 903d 1517 87bd 083a d0bd 4646 ba3d
00000140: 8ed5 d73c b779 f33c 82c1 d53c 75a2 9abc
00000150: 6a2c 6c3d aea7 3d3e 90a5 463d 174b a4bd
00000160: db6a f2bc 30ee a6bd 229c 223d f0dc 91bd
00000170: df7c 1b3b 32e6 083e 2b9c 2c3e 778f 80bc
00000180: 720f c3bb a132 fcbc 6327 32bd c1e3 c23d
00000190: 4498 993c 4a55 3bbd eb54 923a 3b7c 173d
000001a0: d62e 7fbe 0ab9 41be 2f98 953d 0b96 3dbd
000001b0: 59df 96bd 19e2 53bd 0296 e03b 45e3 64be
000001c0: 0137 0fbe 6c54 f23d 0e92 02bc 6b4e dbbd
000001d0: 19df 873b f1c6 843c ad51 b33c 91b8 973d
000001e0: b6f1 ef3c c9d7 c43d 65bf b53c 7c20 8bbd
000001f0: 28de bcbd 863a e6bd 5235 92bd d1ec 13bd
00000200: e834 03be 7d8e f7bb 124f 373b 03b3 403c
00000210: 28c4 0ebc 0f06 cabc fb6c 5bbc 5d2a 793e
00000220: 47de e9bd e2e3 3abe e6df 5dbe ee76 debd
00000230: 77dc 3a3d 8c82 7cbc dbd4 76bd 3279 5a3d
00000240: b99b b7bd fc17 b2bd 165d 9c3d ade2 9fbd
00000250: b337 60bb fd78 2e3e 2508 463e e0c7 da3d
00000260: dbc3 68bd a753 8bbd 3d9d 81bd b8be 1c3e
00000270: 8e86 e33c 8bbe 1d3c 22b3 bb3c debd be3d
00000280: c2f8 09be 7e6f 3b3d cefc 163c 72d8 90bd
00000290: db8f 1abe ad9b f6bd 9926 bfbc 4803 14bd
000002a0: c353 cc3b 2471 19bb cd2b 4a3a 360b b13c
000002b0: 1e69 56be b489 54bd 073c 92bc 75d5 023e
000002c0: 9fca 9bbd 84bc aa3a 7c66 f6bc d226 2b3e
000002d0: 08eb 66bd 743c ee3d c421 38bd ee09 a3bd
000002e0: efea f1bd cd97 5dbd 7d1e 2b3e bab5 373c
000002f0: 06ae 39bd 5555 77bd df7c 0fbe ef64 14be
00000300: 580d 7c3d 2ec0 9b3d 2bf6 423e 7dfa dd3d
00000310: bf59 db3d 8182 97bd 4e8b 39bd f8fc c1bd
00000320: 3662 283e 6429 a5bd b1d1 1cbd 849f a13d
00000330: 0507 b7bd 9349 503c 9e0d a6bd a7e7 903d
00000340: 3995 1e3d 5ee6 d83d 0648 933c d92c 4fbd
00000350: 463b eb3c 3f44 c1bc db4d 2bbd 257b 3e3c
00000360: 3274 a03d 0096 5ebd f1ec febd 65c6 9abd
00000370: fda8 8dbc 78ed 903c ce46 573d c9a2 003e
00000380: 3a63 273e d4ac 0d3e 6780 213d 1900 98ba
00000390: b459 bb3d 0c5e 12be 931b 7dbd 9c96 91bd
000003a0: 256e 173d ad11 a0bd a26b 8d3d 124d 3bbd
000003b0: 568a 613d 9bc2 e4bd 9348 1e3c 14fe babd
000003c0: cc1d ddbd 2ea9 e43c 9097 a2bd b6b2 623d
000003d0: 73c9 c3bd 967a 65bd 4377 213c 20f3 e2bd
000003e0: 15d8 fc3d dd51 1e3e b192 f8bd a373 17be
000003f0: 9925 c2bc c431 f2bd dbe5 b2bc dd6b 1239

network_body._body_endoder.seq_layers.2.bias f4 [128]
0.0038062632 0.0016339298 0.009266465 0.0046947324 0.0005272547 0.012477296 0.053130683 -0.01584874
-0.008880837 0.0018629251 0.008348738 0.007455027 0.0108756 -0.0016212845 -0.022275433 -0.014460381
-0.0028717802 -0.005241876 0.0012390371 0.010772007 -0.029103013 0.0075417478 -0.007360101 -0.00012462573
-0.0031486552 -0.0039481567 0.0027455078 -0.005375612 0.019713946 -0.008253063 0.006835291 0.020577112
0.0060295993 0.010544318 -0.015145173 -0.0064413156 -0.0030409775 -0.009494927 -0.0124704605 0.004623934
0.00809157 -0.0070173885 -0.009709075 0.009269171 0.0011050217 -0.014685935 0.04493306 0.032356795
0.008887355 -0.015689136 0.06272843 0.0018724572 -5.355444e-05 0.022969402 -0.00031111427 -0.0030882992
0.005815327 0.0042110686 0.01856919 0.0051672785 -0.011204941 0.004684615 0.0023120875 -0.0036117972
-0.030674173 -0.016703533 -0.0065518753 0.010415228 0.02893527 -0.00043913888 -0.011040488 0.01547315
0.008462525 0.007277977 0.013502239 -0.012233429 0.012970775 -0.016679898 0.012964091 0.0022979178
0.0033638913 -0.001935513 0.0036146233 0.027108444 0.0021150229 -0.011682373 0.0040929355 0.010703966
0.0050047482 0.017748483 0.017406048 0.011802518 -0.0006555371 -0.0035219486 0.02460722 0.020164676
0.007923749 -0.006481194 0.011210932 -0.02023029 -0.008700249 -0.0022086788 -0.004076742 -0.007838413
0.012549519 0.007524908 -0.0021599599 -0.00348371 -0.00080713327 0.0015593609 0.019205889 -0.019247433
0.011941836 -0.004703132 -0.01585954 0.010061976 -0.013445844 -0.015150827 -0.020073252 -0.011737364
-0.006826453 -0.021941397 3.823812e-06 0.022699997 -0.019862343 -0.024649702 -0.0006117991 -0.006509573
00000000: 8072 793b 9629 d63a 5fd2 173c 45d6 993b
00000010: 7737 0a3a 936d 4c3c 8f9f 593d 37d5 81bc
00000020: ee80 11bc 652d f43a 25c9 083c 4d49 f43b
00000030: 932f 323c 4881 d4ba f87a b6bc 3ceb 6cbc
00000040: 7a34 3cbb 0bc4 abbb 3067 a23a 127d 303c
00000050: 7169 eebc c420 f73b 012d f1bb f7ad 02b9
00000060: ab59 4ebb 8a5f 81bb faed 333b e725 b0bb
00000070: 247f a13c db37 07bc 94fa df3b 5591 a83c
00000080: f293 c53b 13c2 2c3c 7623 78bc ac11 d3bb
00000090: 234b 47bb 9c90 1bbc e750 4cbc 5f84 973b
000000a0: 8192 043c 1ff2 e5bb d012 1fbc b9dd 173c
000000b0: 60d6 903a 479d 70bc ba0b 383d 8f88 043d
000000c0: 459c 113c 8186 80bc c377 803d 3d6d f53a
000000d0: a49f 60b8 542a bc3c 0d1d a3b9 1065 4abb
000000e0: 808e be3b 01fd 893b 6a1e 983c 4652 a93b
000000f0: ee94 37bc 6681 993b 6486 173b e7b3 6cbb
00000100: 6748 fbbc d9d5 88bc 1db1 d6bb a2a4 2a3c
00000110: a909 ed3c 393c e6b9 2ae3 34bc 1883 7d3c
00000120: 67a6 0a3c 197c ee3b 7f38 5d3c b86e 48bc
00000130: 6083 543c 48a4 88bc 5767 543c aa98 163b
00000140: bb74 5c3b 0ab1 fdba 51e3 6c3b 8712 de3c
00000150: 329c 0a3b 6c67 3fbc 081e 863b b05f 2f3c
00000160: dffe a33b 4465 913c 2197 8e3c 595f 413c
00000170: 5ad8 2bba 7ed0 66bb 1595 c93c 6430 a53c
00000180: 9dd2 013c 3260 d4bb 0fae 373c feb9 a5bc
00000190: 7d8b 0ebc 7bbf 10bb 3196 85bb b06c 00bc
000001a0: 7f9c 4d3c 8193 f63b 1d8e 0dbb f54e 64bb
000001b0: cc95 53ba 7863 cc3a ab55 9d3c cbac 9dbc
000001c0: b1a7 433c bb1c 9abb deeb 81bc fcda 243c
000001d0: f54b 5cbc 2d3b 78bc a970 a4bc 134e 40bc
000001e0: 70b0 dfbb 72be b3bc 4c4e 8036 58f5 b93c
000001f0: 5ab6 a2bc 2cee c9bc 2561 20ba 424e d5bb

action_model._discrete_distribution.branches.0.weight f4 [3, 128]
-0.020497164 -0.027037092 -0.035815217 -0.013743973 -0.014383446 -0.035173353 0.051432364 -0.001195069
-0.008192889 -0.018550308 -0.012939361 0.088489115 -0.02262532 -0.05328285 -0.006754318 -0.013024889
0.0037953889 -0.047736652 0.005218493 0.1211923 0.02480801 -0.03479892 -0.005618507 0.028748795
0.018580021 -0.0019439464 0.026833951 -0.026401123 0.056665786 0.007678487 -0.018049646 0.019866418
-0.013138526 -0.033928674 0.006289945 -0.0016005302 0.016040683 -0.0058818418 -0.011647652 -0.014350876
-0.00404889 -0.0036277964 -0.032997463 0.024384648 -0.036427222 -0.020908076 0.012691646 0.002876741
-0.007702857 -0.00971758 0.036974896 -0.022208007 0.008127997 -0.033700418 -0.008059717 -0.03174208
-0.029206365 0.004145508 -0.016139634 -0.0067874338 0.0016117141 -0.017408978 0.011524037 -0.02481257
-0.0010336874 -0.01815266 0.0037061612 -0.004732772 -0.01125692 0.016348897 0.026492609 0.006853101
0.0018038178 -0.016985416 -0.12694652 -0.0240609 -0.055343874 -0.0021423297 0.051071737 -0.0031962686
0.004352859 0.022563245 -0.037139688 -0.08042932 -0.00028141838 -0.0063804802 -0.024214443 -0.013343683
-0.00033610122 -0.016956266 -0.09028063 -0.01603513 -0.0041334718 -0.017093847 -0.0056347377 -7.887044e-05
0.0108531155 0.0054662293 0.033842918 -0.0014864365 0.006018918 0.030908095 -0.0027192596 -0.015938539
0.031179722 0.039597537 -0.017085932 0.059977375 -0.009331408 0.0017995678 -0.04195162 -0.0004435244
-0.0019781566 -0.03145997 -0.0026327742 0.00053461746 -0.012019059 -0.0042392593 -0.014405331 -0.010711791
0.005180712 -0.0048034852 -0.00948354 0.017494887 -0.016791778 0.00013526573 -0.01922428 -0.010635095
-0.011171171 -0.01845912 0.009108641 0.020938078 -0.0016353949 0.04654334 -0.046543773 -0.014504884
-0.012767693 0.017851511 -0.016839169 -0.073324114 0.03617059 0.051664215 0.0019937884 -0.012433422
0.017901437 -0.014638798 0.026010709 -0.073197916 -0.002264485 -0.010126755 -0.0012845141 0.013037805
0.025412528 -0.0066071483 -0.030369971 0.013199198 -0.00064093363 -0.006198285 0.015197723 -0.026593478
0.0045277993 0.00046979717 0.01588302 0.01491 -0.0069385967 0.01074992 0.0031369408 -0.015977995
0.02494394 0.012665682 0.026792994 0.021650434 0.0026443766 0.025233645 -0.03498927 -0.059015196
0.048901662 0.004201743 0.032870878 0.0152130285 -0.013060961 0.069077596 0.0030047924 0.02560204
0.017771363 -0.024074933 0.014341145 0.029620333 0.017126512 0.005968348 0.010100504 0.0022493955
-0.0014038917 -0.0014964212 -0.020583125 0.018281328 -0.08434267 -0.040736295 0.011933218 0.022999594
-0.013093282 -0.014948583 -0.028306192 0.006774708 0.016657922 0.02580023 -0.014401319 0.038332272
-0.0031734472 -0.008764561 0.020852348 -0.04647865 0.0104168095 -0.0018512026 -0.08032515 0.026174746
0.028630547 0.031040965 -0.005327455 0.029791653 -0.006052708 0.025829265 -0.058604848 0.042876426
-0.01629112 0.024739949 0.017720569 -0.018290395 -0.0038424912 0.0113370875 -0.009956595 -0.0070508043
-0.04415628 -0.020753615 0.014013378 -0.053208582 0.0076611093 0.02961837 -0.07341723 0.011566482
-0.015088232 0.040539313 0.006223393 0.015636524 0.0059706657 -0.0036380223 0.013240828 0.0051194364
0.009574592 0.0016029399 -0.01953275 0.02295425 0.016494077 -0.027305566 -0.0017792573 -0.0045888256
00000000: abe9 a7bc e47c ddbc fab2 12bd 672e 61bc
00000010: 8ca8 6bbc ef11 10bd beaa 523d dda3 9cba
00000020: 783b 06bc d1f6 97bc 9dff 53bc c839 b53d
00000030: bc58 b9bc 1e3f 5abd 5353 ddbb 5866 55bc
00000040: 0fbc 783b 8287 43bd e4ff aa3b ab33 f83d
00000050: 2b3a cb3c 5089 0ebd 741b b8bb 9882 eb3c
00000060: 2135 983c 04cc feba e0d2 db3c 2b47 d8bc
00000070: 621a 683d d19b fb3b dadc 93bc e6be a23c
00000080: f942 57bc cbf8 0abd e21b ce3b e2c8 d1ba
00000090: c067 833c 77bc c0bb cbd5 3ebc f01f 6bbc
000000a0: 8dac 84bb 53c0 6dbb 5928 07bd 50c2 c73c
000000b0: b634 15bd 6a47 abbc 9ff0 4f3c b587 3c3b
000000c0: 3f68 fcbb 7c36 1fbc fd72 173d 91ed b5bc
000000d0: 4a2b 053c 7309 0abd e70c 04bc fc03 02bd
000000e0: 3042 efbc 0bd7 873b 4437 84bc 1f69 debb
000000f0: 2740 d33a 469d 8ebc 51cf 3c3c bb43 cbbc
00000100: cb7c 87ba e3b4 94bc 11e3 723b 5e15 9bbb
00000110: f26e 38bc 1fee 853c 0707 d93c fa8f e03b
00000120: 156e ec3a 0025 8bbc 45fe 01be 5d1b c5bc
00000130: 42b0 62bd 5466 0cbb 9930 513d 7d78 51bb
00000140: 6ea2 8e3b 8ed6 b83c c91f 18bd 21b8 a4bd
00000150: 568b 93b9 5913 d1bb 5e5d c6bc 779f 5abc
00000160: be36 b0b9 dee7 8abc 0de5 b8bd 1b5c 83bc
00000170: 1372 87bb 6508 8cbc 9ba3 b8bb 3f67 a5b8
00000180: 44d1 313c 0e1e b33b df9e 0a3d 88d4 c2ba
00000190: 583a c53b f932 fd3c 9b35 32bb 8a91 82bc
000001a0: 9e6c ff3c 0731 223d ccf7 8bbc d6aa 753d
000001b0: c3e2 18bc 7adf eb3a 76d5 2bbd d688 e8b9
000001c0: f6a3 01bb 2bdc 00bd 9f8a 2cbb 9225 0c3a
000001d0: 96eb 44bc 7ce9 8abb 5604 6cbc 8280 2fbc
000001e0: f6c2 a93b 8e66 9dbb da60 1bbc 7051 8f3c
000001f0: e98e 89bc 1ed6 0d39 3d7c 9dbc d23e 2ebc
00000200: 4a07 37bc 9537 97bc 693c 153c 5586 ab3c
00000210: bf5a d6ba 3ba4 3e3d afa4 3ebd e5a5 6dbc
00000220: 962f 51bc 553d 923c 4cf2 89bc f42a 96bd
00000230: 9d27 143d db9d 533d 38aa 023b 8db5 4bbc
00000240: 09a6 923c 92d7 6fbc 6914 d53c cae8 95bd
00000250: c167 14bb b0ea 25bc 245d a8ba 859c 553c
00000260: ef2d d03c c780 d8bb 72ca f8bc 7341 583c
00000270: 5404 28ba fc1a cbbb dfff 783c 91da d9bc
00000280: ef5d 943b 1c4f f639 1b1d 823c 1349 743c
00000290: 2b5d e3bb 6f20 303c 2295 4d3b 49e4 82bc
000002a0: 3c57 cc3c b883 4f3c fb7c db3c 405c b13c
000002b0: 474d 2d3b cab6 ce3c e950 0fbd ebb9 71bd
000002c0: 1c4d 483d c6ae 893b 9da3 063d 1140 793c
000002d0: a4fd 55bc 8e78 8d3d 0dec 443b 5fbb d13c
000002e0: 4095 913c cb38 c5bc 1ff7 6a3c 57a6 f23c
000002f0: e64c 8c3c 2292 c33b 967c 253c 986a 133b
00000300: ca02 b8ba 9023 c4ba f19d a8bc b9c2 953c
00000310: dabb acbd 1adb 26bd 8b83 433c a569 bc3c
00000320: 3485 56bc e7ea 74bc 63e2 e7bc 5ffe dd3b
00000330: 3276 883c 015b d33c 83f3 6bbc 4d02 1d3d
00000340: 9cf9 4fbb 3c99 0fbc 8bd2 aa3c 6660 3ebd
00000350: 44ab 2a3c 0da4 f2ba 8381 a4bd 6c6c d63c
00000360: 9c8a ea3c 9f49 fe3c ee91 aebb a00d f43c
00000370: cb55 c6bb e597 d33c a30b 70bd 319f 2f3d
00000380: f474 85bc 6fab ca3c ba2a 913c bdd5 95bc
00000390: 4ed2 7bbb 31bf 393c fc20 23bc 6f0a e7bb
000003a0: 37dd 34bd 7c03 aabc 5e98 653c 3ef1 59bd
000003b0: 0b0a fb3b 39a2 f23c c65b 96bd 5781 3d3c
000003c0: a234 77bc 8d0c 263d 9bed cb3b 2b18 803c
000003d0: 93a5 c33b e36b 6ebb 0ff0 583c f2c0 a73b
000003e0: c0de 1c3c bd19 d23a 2503 a0bc 8d0a bc3c
000003f0: 961e 873c ecaf dfbc f835 e9ba dc5d 96bb

action_model._discrete_distribution.branches.0.bias f4 [3]
-0.0017865115 0.00014110692 0.009471167
00000000: 6129 eaba 1af6 1339 f42c 1b3c

action_model._discrete_distribution.branches.1.weight f4 [2, 128]
-0.01607291 0.009544081 0.031000772 0.02017569 -0.020745585 0.025770808 -0.026381819 -0.0125501705
0.024654083 -0.015201487 0.056825176 0.05304041 0.005942971 -0.062476665 -0.004127954 0.022030745
-0.021209441 0.0040017865 0.0034364497 0.02164594 0.08269605 -0.02931694 0.022757238 0.009042515
-0.01654113 0.03148228 0.01780687 -0.012300657 -0.02350068 -0.035357907 -0.014600804 -0.022553392
-0.003892678 0.030882975 0.0031889258 -0.012846636 -0.028487088 -0.016111681 -0.0076945843 0.00694494
-0.029683882 0.0026423966 0.017219985 -0.0075306757 -0.01626679 0.01999949 -0.024605736 0.09469708
0.009384937 0.0029281531 0.0574388 0.017341876 0.017069217 0.05985235 -0.0011723372 -0.008920942
-0.03135787 0.007064278 -0.022068748 0.017456397 -0.025107414 0.0006668815 0.038421713 0.00033200698
0.0040423595 -0.018147627 0.032426927 0.0038335004 -0.012351232 0.014616743 0.014833005 0.082429625
0.091380835 -0.033720367 -0.010188927 0.007073936 -0.026524913 0.0100886775 0.014378214 -0.015171693
-0.018051242 -0.0040373886 0.0033034768 0.02386249 -0.011099491 -0.0023397193 0.1806802 0.12734333
-0.014794579 0.00928244 -0.012434333 0.01532591 0.10836468 -0.010280022 -0.03519759 0.028849645
0.052823406 -0.0232598 0.043905508 -0.017716637 0.03743276 -0.0060207006 -0.019245207 -0.002922287
0.015384612 0.0949211 -0.02256744 0.04005768 0.014992037 -0.014205954 -0.018880723 -0.021753388
-0.0051551955 -0.010340003 -0.005353663 0.03680404 -0.012447821 -0.012447452 -0.012493183 -0.011819939
-0.0013435748 -0.011673948 0.022634568 0.003840752 0.00038896268 0.03556894 0.009798665 -0.013250112
0.02839456 0.010021638 -0.05541721 -0.008961441 0.028301233 -0.0043752445 0.01103049 0.006548436
-0.021485485 -0.009486232 -0.058218755 -0.042016517 -0.018127274 0.050381936 0.011247604 -0.02272936
-0.012688003 -0.008088449 -0.0030944701 -0.026291206 -0.08349087 0.032231905 -0.030520663 -0.0084872395
0.018107504 -0.015944751 -0.02574833 -0.004441967 0.03281081 0.010336585 0.014901129 0.028595584
-0.0106583955 -0.03308236 -0.0016892886 0.0001339232 0.018449742 0.010262388 0.014718278 -0.012478821
0.03086404 -0.020472491 -0.027638316 0.014957345 0.010290421 -0.002990995 0.033733826 -0.07604086
-0.0019504102 -0.024672547 -0.07536265 -0.046713945 -0.016714973 -0.08214552 -0.0071258964 0.030103829
0.02684368 -0.004313862 0.040984213 -0.008143897 0.03859074 0.020578314 -0.03665094 -0.008480736
0.0010705711 0.01332107 -0.007888432 0.015725303 0.0061938213 -0.026447533 -0.0023829434 -0.094218604
-0.10450179 0.019052252 -0.0050697266 0.0064916853 0.015210296 -0.004569317 -0.022834726 0.024412261
-0.0053686732 -0.009423772 -0.021420427 -0.0043373816 -0.0012400224 0.0052808323 -0.19160612 -0.11418656
0.014099786 -0.021140879 0.019823138 -0.013333931 -0.1135842 0.019134864 0.010415994 -0.026065119
-0.040957242 0.0067697363 -0.045862544 -0.0017158554 -0.021020327 0.018862065 0.01605611 -0.0014712714
-0.038739197 -0.109337725 0.005303496 -0.032031 -0.020050367 0.017940944 0.03167409 0.025748532
0.009142474 0.0047321306 -0.003699861 -0.029103579 0.011995421 -0.0033048152 -0.0069709723 0.026412979
0.004775049 0.01750909 -0.025911814 -0.003429949 -0.012107381 -0.016842596 -0.028154638 0.0071783005
00000000: 56ab 83bc c75e 1c3c 55f5 fd3c 7d47 a53c
00000010: a5f2 a9bc 4d1d d33c af1e d8bc 3b9f 4dbc
00000020: 5cf7 c93c a80f 79bc 84c1 683d e740 593d
00000030: 41bd c23b 88e7 7fbd ca43 87bb d279 b43c
00000040: 6cbf adbc 6b21 833b 0f36 613b d452 b13c
00000050: 8c5c a93d 142a f0bc 636d ba3c 0f27 143c
00000060: 4481 87bc 90f3 003d b7df 913c b288 49bc
00000070: 8084 c0bc 74d3 10bd 3638 6fbc e4c1 b8bc
00000080: 4d1c 7fbb 4bfe fc3c 4cfd 503b b27a 52bc
00000090: c15d e9bc a5fc 83bc da22 fcbb 6192 e33b
000000a0: 9d2b f3bc 0f2c 2d3b ed10 8d3c e3c3 f6bb
000000b0: ee41 85bc f8d5 a33c f891 c9bc 8bf0 c13d
000000c0: 47c3 193c 42e6 3f3b f244 6b3d 8d10 8e3c
000000d0: bed4 8b3c bd27 753d 1ca9 99ba 2529 12bc
000000e0: 1c71 00bd 757b e73b 85c9 b4bc b800 8f3c
000000f0: 10ae cdbc a9d1 2e3a 1660 1d3d 3911 ae39
00000100: c575 843b 55aa 94bc 19d2 043d 773b 7b3b
00000110: d25c 4abc 107b 6f3c 2206 733c ddd0 a83d
00000120: e025 bb3d 5e1e 0abd 75ef 26bc 7acc e73b
00000130: c64a d9bc fb4a 253c 9a92 6b3c b192 78bc
00000140: 33e0 93bc 124c 84bb 257f 583b 457b c33c
00000150: a4da 35bc fa55 19bb 3b04 393e 4a66 023e
00000160: f664 72bc 6015 183c 5fb9 4bbc 8719 7b3c
00000170: 4dee dd3d 8a6d 28bc 592b 10bd 1756 ec3c
00000180: 5b5d 583d 568b bebc 43d6 333d 7b22 91bc
00000190: 1853 193d 4c49 c5bb 20a8 9dbc d783 3fbb
000001a0: bd0f 7c3c fe65 c23d 5adf b8bc 8613 243d
000001b0: 29a1 753c 17c0 68bc bfab 9abc 2934 b2bc
000001c0: eaec a8bb 1e69 29bc c86d afbb d5bf 163d
000001d0: f2f1 4bbc 66f0 4bbc 35b0 4cbc 6ba8 41bc
000001e0: e41a b0ba 1644 3fbc 216c b93c 20b5 7b3b
000001f0: b0ed cb39 bdb0 113d 948a 203c ff16 59bc
00000200: b59b e83c cc31 243c 28fd 62bd 02d3 12bc
00000210: fdd7 e73c 365e 8fbb 3ab9 343c 4394 d63b
00000220: 5402 b0bc 246c 1bbc ca76 6ebd 8319 2cbd
00000230: a67f 94bc 4a5d 4e3d df47 383c ec32 babc
00000240: 57e1 4fbc 6a85 04bc 98cc 4abb a860 d7bc
00000250: 43fd aabd 9a05 043d 7806 fabc 100e 0bbc
00000260: 3056 943c 919e 82bc 29ee d2bc eb8d 91bb
00000270: a164 063d c85a 293c dd23 743c 4941 ea3c
00000280: 8da0 2ebc 5e81 07bd 1f6b ddba bc6d 0c39
00000290: ea23 973c 9323 283c ef24 713c f873 4cbc
000002a0: 95d6 fc3c edb5 a7bc c069 e2bc a70f 753c
000002b0: 2799 283c 9204 44bb 7b2c 0a3d 4fbb 9bbd
000002c0: e8a4 ffba 151e cabc bc57 9abd 1f57 3fbd
000002d0: d7ed 88bc e93b a8bd 5a80 e9bb 4e9c f63c
000002e0: 47e7 db3c 4c5b 8dbb 10df 273d fb6d 05bc
000002f0: 5311 1e3d da93 a83c 4c1f 16bd c9f2 0abc
00000300: 6852 8c3a 9e40 5a3c 7b3e 01bc 5ad2 803c
00000310: 8af5 ca3b 7fa8 d8bc 282b 1cbb aff5 c0bd
00000320: 0905 d6bd 7813 9c3c f31f a6bb 34b8 d43b
00000330: 9b34 793c 36ba 95bb e40f bbbc 39fc c73c
00000340: b2eb afbb 2a66 1abc e479 afbc 9820 8ebb
00000350: 3f88 a2ba d50a ad3b 6534 44be a5da e9bd
00000360: ca02 673c a32f adbc 2264 a23c 8f76 5abc
00000370: d59e e8bd b8c0 9c3c d8a7 2a3c 8486 d5bc
00000380: c8c2 27bd aad4 dd3b 5dda 3bbd 8ee6 e0ba
00000390: d232 acbc 9e84 9a3c 1a88 833c add7 c0ba
000003a0: feac 1ebd 75ec dfbd f3c8 ad3b f032 03bd
000003b0: ab40 a4bc e3f8 923c b1bc 013d 96ee d23c
000003c0: 51ca 153c fd0f 9b3b 5e79 72bb a16a eebc
000003d0: 7188 443c 9995 58bb c16c e4bb 0860 d83c
000003e0: 0478 9c3b 396f 8f3c 0345 d4bc ffc8 60bb
000003f0: 095e 46bc 7cf9 89bc 8ea4 e6bc f337 eb3b

action_model._discrete_distribution.branches.1.bias f4 [2]
0.004160031 -0.0041600186
00000000: df50 883b c450 88bb
