results/Player3/MoveAgent2D/MoveAgent2D-332027.onnx (onnx, 78886 bytes, 9 tensors)

discrete_act_size_vector f4 [1, 2]
3.0 2.0
00000000: 0000 4040 0000 0040

network_body._body_endoder.seq_layers.0.weight f4 [128, 5]
-0.01469426 0.1720379 -1.4590222 -0.07835929 0.47101492 0.08827746 0.08705113 0.7893715
0.25778797 -0.4231669 0.17025708 0.4589554 -0.06341367 0.28921542 0.06417851 0.5457255
0.9035256 -0.57758486 -0.49569604 -0.056461804 0.22825538 0.24439593 0.14999218 -0.9369579
-0.31568092 -0.1686413 0.3861476 -0.5622534 -0.41405183 -0.19287437 -0.75965935 0.35266706
-0.7030078 0.19194902 0.13626584 0.5525083 0.5648739 0.15901276 0.5633277 -0.5357464
-0.13140784 0.21657342 -0.20648785 -0.12935846 -0.012539959 -0.20030792 0.31351882 1.4009883
-0.5322029 0.6166384 0.19752565 -0.35131696 0.013374884 0.13189717 -0.73463124 -0.050242014
-0.15478949 0.7417622 0.2613405 -0.31687844 -0.30507365 -0.8231127 -0.09501096 0.6748379
-0.39172515 0.044213414 0.35969716 0.557377 0.33640248 -0.3884114 0.10728515 -0.030760104
-0.3631386 -0.38026518 -0.0834445 0.2432232 0.6668247 -0.40782544 -0.39695093 -0.108420365
-1.0156819 0.04037738 -0.15495725 0.5330297 0.044152953 0.41846153 -0.6332757 -0.94835246
-0.5380791 0.29256794 -0.18061046 0.32476395 -0.013824918 0.37139335 0.501244 -0.1627334
-0.48437485 -0.4142158 -0.3577515 -0.33096856 0.06103029 -0.14430545 0.82256055 0.35431635
-0.18883446 -0.040799066 0.30132064 -0.029098453 0.22422978 -0.36366966 -0.29622647 -0.20277952
-1.8556895 0.6786156 0.7751517 -0.2576316 -0.27511576 0.5302671 0.25568876 0.22540618
0.08162781 0.31799713 -0.5528647 0.37272817 0.34829453 0.22645591 0.3586978 0.62694675
-0.36334214 -0.04430196 0.35427576 0.1975276 0.32380924 0.03477021 0.7055375 0.21276169
0.23983285 -0.038086366 0.018262269 0.084756695 -0.7075793 -0.042224273 -1.0414779 -0.013051823
-0.011046717 0.24297456 0.5815442 0.0970596 0.6024874 0.071186535 -0.31697893 -0.10716618
-0.33122355 -0.4422169 0.30308917 -0.20837681 -0.2155627 -0.3952528 -0.45007882 0.00095668633
-0.30910254 -0.23160483 -0.19142608 1.0088984 -0.0426219 0.17148075 -0.22832727 0.2537036
-0.75340855 0.045486722 -0.09727179 0.094215706 0.22903673 -0.5588446 -0.10512312 0.107810065
0.049235694 0.253928 0.03578886 -0.12018788 -0.031830866 -0.41292033 -1.4400915 -0.3036393
-0.19567224 0.33263096 -0.4274949 0.9295996 -0.07596342 0.6785899 -0.12180644 0.04478844
-0.2656372 -0.33323172 -0.5553227 0.40812567 -0.037466712 -0.34488073 0.5869007 0.5733929
-0.22344871 -0.2209435 -0.28399342 0.10495878 -0.6636845 0.16485173 0.7871818 -0.97760206
0.05976401 0.34231573 0.5946577 0.48875964 0.04264485 -0.3249654 -0.59600663 0.00675108
-0.08315122 0.05787544 0.20720333 -0.12400987 -0.24698152 -0.31486735 0.9703818 -0.027664872
-0.5228537 0.50747514 -0.1080722 -0.23066396 0.2719279 0.536916 -0.51481384 -0.28246102
-0.08017415 -0.6573676 0.6519138 -0.4897494 -0.2617473 0.06155361 0.22663732 -0.46168804
-0.49659637 0.00982466 0.96758914 0.088527896 -0.003884471 0.35572642 -0.60588044 0.1786291
-0.58027625 0.24805745 1.0154346 -0.24552208 -0.4457542 -0.38546598 0.41445574 -0.5305408
00000000: 32c0 70bc b42a 303e 3dc1 babf d67a a0bd
00000010: de28 f13e d0ca b43d dd47 b23d 4014 4a3f
00000020: c9fc 833e 55a9 d8be df57 2e3e 34fc ea3e
00000030: 07df 81bd 0b14 943e 0670 833d abb4 0b3f
00000040: 744d 673f 9adc 13bf dfcb fdbe 7e44 67bd
00000050: c7bb 693e ed42 7a3e 8d97 193e 79dc 6fbf
00000060: eea0 a1be 4eb0 2cbe 23b5 c53e d7ef 0fbf
00000070: 9afe d3be dc80 45be 0979 42bf c790 b43e
00000080: 52f8 33bf 498e 443e 4689 0b3e 2f71 0d3f
00000090: 939b 103f 3ed4 223e 3f36 103f ad26 09bf
000000a0: c78f 06be 6cc5 5d3e 8d71 53be 8b76 04be
000000b0: 6674 4dbc 851d 4dbe 8a85 a03e 9653 b33f
000000c0: 733e 08bf 04dc 1d3f 2a44 4a3e d1df b3be
000000d0: 5422 5b3c 0d10 073e cb10 3cbf 92ca 4dbd
000000e0: 2381 1ebe 21e4 3d3f 6cce 853e e43d a2be
000000f0: 9d32 9cbe 84b7 52bf 1b95 c2bd 2dc2 2c3f
00000100: 3390 c8be 2019 353d 3a2a b83e 42b0 0e3f
00000110: f23c ac3e dcdd c6be 51b8 db3d 9dfc fbbc
00000120: 4ded b9be 1eb2 c2be f3e4 aabd 810f 793e
00000130: 06b5 2a3f 7fce d0be 273d cbbe 7f0b debd
00000140: dd01 82bf c062 253d 1dad 1ebe a274 083f
00000150: bad9 343d 9740 d63e 5b1e 22bf 3ac7 72bf
00000160: 8dbf 09bf 77cb 953e f3f1 38be 7647 a63e
00000170: e981 62bc 4527 be3e 8751 003f 96a3 26be
00000180: fbff f7be 1814 d4be 342b b7be b674 a9be
00000190: e6fa 793d cfc4 13be 5493 523f f468 b53e
000001a0: d25d 41be ec1c 27bd b346 9a3e e15f eebc
000001b0: 7e9c 653e e932 babe ffaa 97be 6fa5 4fbe
000001c0: 3c87 edbf c1b9 2d3f 5870 463f 4ae8 83be
000001d0: f9db 8cbe 96bf 073f a3e9 823e e1d0 663e
000001e0: 7b2c a73d 85d0 a23e 8a88 0dbf 3ad6 be3e
000001f0: a953 b23e 0fe4 673e 3da7 b73e 957f 203f
00000200: fb07 babe f975 35bd a263 b53e ad44 4a3e
00000210: 53ca a53e 356b 0e3d 1b9e 343f 33de 593e
00000220: be96 753e 7300 1cbd c19a 953c eb94 ad3d
00000230: eb23 35bf 5cf3 2cbd 264f 85bf 50d7 55bc
00000240: 4afd 34bc 53ce 783e 15e0 143f 2fc7 c63d
00000250: 9d3c 1a3f 3fca 913d 104b a2be f179 dbbd
00000260: 2296 a9be 416a e2be 812e 9b3e bb60 55be
00000270: 78bc 5cbe 935e cabe bb70 e6be 22ca 7a3a
00000280: b042 9ebe d129 6dbe 3305 44be 9523 813f
00000290: 4d94 2ebd a698 2f3e a0ce 69be 70e5 813e
000002a0: 62df 40bf 4950 3a3d 6f36 c7bd 2af4 c03d
000002b0: 9b88 6a3e 7110 0fbf ca4a d7bd 86cb dc3d
000002c0: 5eab 493d da02 823e 5797 123d 1025 f6bd
000002d0: 1561 02bd 4b6a d3be eb54 b8bf 9c76 9bbe
000002e0: 4e5e 48be 9b4e aa3e 9de0 dabe 3dfa 6d3f
000002f0: b692 9bbd 11b8 2d3f a875 f9bd 1574 373d
00000300: 9901 88be 599d aabe a129 0ebf d9f5 d03e
00000310: b276 19bd 3594 b0be 203f 163f e1c9 123f
00000320: bdcf 64be 033f 62be 9667 91be a1f4 d63d
00000330: 3ae7 29bf e4ce 283e bf84 493f 2144 7abf
00000340: 1bcb 743d 0244 af3e 7d3b 183f b43e fa3e
00000350: 5eac 2e3d dd61 a6be e493 18bf 2a38 dd3b
00000360: 304b aabd cc0e 6d3d 1c2d 543e e3f8 fdbd
00000370: b9e8 7cbe 4b36 a1be f16a 783f 71a1 e2bc
00000380: bdd9 05bf e4e9 013f f554 ddbd 2c33 6cbe
00000390: 223a 8b3e 5473 093f d7ca 03bf bb9e 90be
000003a0: 5832 a4bd 3e49 28bf d3e3 263f 6fc0 fabe
000003b0: be03 86be a31f 7c3d 9d13 683e 6062 ecbe
000003c0: e141 febe 9cf7 203c ecb3 773f 1d4e b53d
000003d0: 9c92 7ebb c621 b63e fb1a 1bbf 8cea 363e
000003e0: fc8c 14bf c602 7e3e c3f9 813f 246a 7bbe
000003f0: e539 e4be cc5b c5be 8b33 d43e 86d1 07bf

network_body._body_endoder.seq_layers.0.bias f4 [128]
0.059130035 -0.017014973 -0.005605442 0.022571534 -0.018416634 0.037932564 -0.03408504 -0.007921982
0.0008513643 -0.0011411817 0.018190213 0.0012128699 0.0016305351 -0.007524917 -0.015313233 0.08772757
-0.033737414 0.0064809043 0.021845797 0.0030443938 -0.005656321 -0.015764095 0.023414657 0.009549034
0.021495285 0.033674255 0.023294957 -0.011512361 0.054216348 0.0125426985 0.016854834 -0.02054293
-0.025429364 -0.0043696794 0.0017097972 -0.017884932 -0.035451625 0.05522974 -0.0094562685 0.0017696535
-0.021249183 -0.01894722 -0.0372967 -0.016248133 0.016574474 0.013099321 -0.0063455193 -0.0020878348
0.014537842 -0.033732895 -0.002216491 0.04536932 0.03801608 -0.016197912 0.03393099 0.012721653
-0.005862818 0.007301243 0.11617029 0.057253532 -0.061961778 -0.00399494 -0.038432207 -0.0023496824
-0.020855002 0.012814558 -0.04937682 0.012945464 0.0021476888 0.0030473133 0.009790493 -0.015303797
-0.0294456 0.0041943723 0.03878706 0.0037263855 -0.01125756 -0.02836426 -0.017586915 -0.027571725
-0.014173289 0.03149282 0.015876226 0.02101464 0.00022698243 -0.0138130495 0.056203246 0.0094148135
-0.00063443644 -0.022153294 0.048046272 -0.006140441 0.035654344 0.046712134 -0.030196797 -0.085736915
-0.030418145 -0.019799879 0.001037978 -0.004325371 -0.04968733 -0.013093289 -0.044843182 -0.043825854
0.011961286 -0.023421304 0.019949684 0.0019350573 -0.0022547736 -0.008205695 -0.017567363 0.009553513
-0.022455482 -0.033578217 -0.004415215 0.006658878 0.042841967 0.048610657 -0.015280852 0.022957843
-0.0091956835 0.018685073 -0.00255731 -0.0027655507 0.0008731345 0.03243654 0.0031785844 0.06448507
00000000: 5632 723d fc62 8bbc dbad b7bb f0e7 b83c
00000010: 7bde 96bc 2d5f 1b3d c19c 0bbd 33cb 01bc
00000020: 172e 5f3a b493 95ba a403 953c 29f9 9e3a
00000030: aeb7 d53a 9493 f6bb 5be4 7abc 83aa b33d
00000040: 3e30 0abd c45d d43b f5f5 b23c 7484 473b
00000050: a958 b9bb b423 81bc 18d0 bf3c 8d73 1c3c
00000060: e116 b03c 04ee 093d 11d5 be3c 579e 3cbc
00000070: f611 5e3d e47f 4d3c 2613 8a3c a649 a8bc
00000080: 3e51 d0bc 872f 8fbb 461b e03a 6c83 92bc
00000090: b935 11bd 9438 623d 77ee 1abc b8f3 e73a
000000a0: c412 aebc 3337 9bbc 6dc4 18bd ce1a 85bc
000000b0: 31c7 873c 899e 563c 13ee cfbb 0ed4 08bb
000000c0: 2130 6e3c 812b 0abd 8c42 11bb 2ed5 393d
000000d0: c0b6 1b3d 7cb1 84bc 39fb 0a3d 7b6e 503c
000000e0: e21c c0bb 443f ef3b b0ea ed3d ae82 6a3d
000000f0: a2cb 7dbd fce7 82bb 176b 1dbd 21fd 19bb
00000100: 1cd8 aabc 27f4 513c 593f 4abd 3619 543c
00000110: 3dc0 0c3b 6fb5 473b 4e68 203c c7bc 7abc
00000120: e637 f1bc f270 893b 2edf 1e3d 6036 743b
00000130: a171 38bc 2a5c e8bc 6f12 90bc 19de e1bc
00000140: 1537 68bc 9dfe 003d dc0e 823c e526 ac3c
00000150: 2202 6e39 2150 62bc 6035 663d 9740 1a3c
00000160: 4f50 26ba d37a b5bc 2bcc 443d c135 c9bb
00000170: 4a0a 123d 3955 3f3d 465f f7bc d696 afbd
00000180: 792f f9bc 5b33 a2bc c30c 883a d7bb 8dbb
00000190: f184 4bbd 3c85 56bc 7cad 37bd bd82 33bd
000001a0: 45f9 433c 09de bfbc 856d a33c c0a1 fd3a
000001b0: d3c4 13bb 2e71 06bc 6ee9 8fbc 5686 1c3c
000001c0: 8ff4 b7bc 5089 09bd 82ad 90bb b832 da3b
000001d0: 0f7b 2f3d f81b 473d 8a5c 7abc 1612 bc3c
000001e0: 7ea9 16bc 7011 993c 8b98 27bb 3e3e 35bb
000001f0: 10e3 643a 2ddc 043d cc4f 503b c010 843d

network_body._body_endoder.seq_layers.2.weight f4 [128, 128]
0.13639012 -0.024601536 0.26267087 0.153603 -0.13506764 -0.12254479 0.14202942 -0.041751925
-0.022346955 -0.11411986 0.028580204 -0.059655905 0.056491207 -0.12043118 -0.05534337 -0.005782586
-0.13467114 -0.08420124 0.03768576 0.082243025 0.068843946 -0.04749554 0.11075186 -0.0749985
0.0071550794 -0.10623126 0.052751314 -0.07791331 -0.021801442 0.0037267054 -0.06781606 -0.09027972
0.109521106 0.007222927 -0.046253007 0.035848815 0.011333752 -0.19431166 -0.12876989 -0.029732235
-0.073665 -0.095629595 -0.1064056 0.096959755 -0.026412534 -0.0062395134 -0.04117945 -0.064660065
0.042321607 -0.071845375 -0.11325017 0.060585923 -0.12871535 -0.10974022 0.0072302846 -0.22260337
-0.17237237 0.0664614 0.0011393096 0.08558656 0.023350487 -0.023044515 0.033616975 0.018871041
-0.076065205 0.114625156 0.019211708 0.14258413 -0.011742952 0.050591264 -0.012738432 -0.081803404
-0.021727474 -0.041788887 0.03809363 0.12661248 0.06597587 -0.06733456 -0.095519766 0.09024793
0.032146424 0.0275834 0.023757951 -0.018963668 0.057571836 0.18752518 0.049452573 -0.08681698
-0.020736566 -0.0834151 0.03866416 -0.07231546 0.0013598867 0.12959965 0.17519666 -0.01631317
-0.0046664155 -0.021807652 -0.0470587 0.094613485 0.012320834 -0.040312886 0.008726638 0.033311114
-0.24385852 -0.18721808 0.0726358 -0.040451955 -0.074554175 -0.05157804 0.0061773364 -0.22998829
-0.13569233 0.122638814 -0.009396523 -0.113118574 -0.0023558266 0.013038607 0.025936846 0.08470848
0.029348098 0.09640259 0.01570681 -0.0717362 -0.091875404 -0.118982784 -0.07625176 -0.0363412
-0.12719864 -0.014112087 -0.0034750944 0.010493716 -0.012999503 -0.023943372 -0.016250543 0.2382199
-0.10393467 -0.17768556 -0.21927261 -0.116352454 0.038676083 -0.02265566 -0.06224513 0.049438287
-0.0951069 -0.08500064 0.067414865 -0.084138975 -0.010181416 0.16199866 0.1852884 0.09730947
-0.06362168 -0.07061345 -0.06677626 0.15077478 0.0320969 0.0031370514 0.032247666 0.08873073
-0.14282237 0.043312114 0.009480822 -0.073110156 -0.15032417 -0.12171368 -0.025250932 -0.04189935
0.010142519 -0.0067874333 0.0004715337 0.014636641 -0.19809085 -0.056102153 -0.009463842 0.12437983
-0.079658486 -0.0011789686 -0.030969607 0.15892342 -0.06282677 0.113533095 -0.05070788 -0.07924809
-0.123810165 -0.04853941 0.16880369 0.011328165 -0.035609756 -0.05299049 -0.14505668 -0.14726527
0.056973044 0.06672372 0.1861396 0.10126806 0.10096007 -0.07951346 -0.05149423 -0.099375516
0.17296265 -0.081360765 -0.0395656 0.073937625 -0.08256973 0.004779633 -0.07331389 0.06490818
0.03720022 0.101619996 0.013665548 -0.05414133 0.023290109 -0.0143956505 -0.044717733 0.0067403624
0.08872775 -0.046296015 -0.13035186 -0.08381963 -0.026776832 0.011915342 0.05158843 0.12345511
0.16145173 0.14041445 0.032085907 -0.0091168275 0.08829708 -0.13603373 -0.061482508 -0.078525916
0.03223644 -0.080481485 0.06573719 -0.04082661 0.045634836 -0.11532177 0.00524855 -0.09602207
-0.11582249 0.024813097 -0.08537888 0.051169667 -0.09633334 -0.060171116 0.01405506 -0.10216761
0.11643646 0.15206309 -0.123780176 -0.15685797 -0.032666516 -0.12354346 -0.015880872 -0.0017370748
00000000: daa9 0b3e 2989 c9bc cc7c 863e 1b4a 1d3e
00000010: 2c4f 0abe c3f8 fabd 2970 113e 1104 2bbd
00000020: f610 b7bc acb7 e9bd 0821 ea3c c059 74bd
00000030: 5363 673d 9fa4 f6bd bbaf 62bd d97b bdbb
00000040: 3be7 09be b371 acbd 625c 1a3d 086f a83d
00000050: 0efe 8c3d af8a 42bd dfd1 e23d d098 99bd
00000060: 2875 ea3b c68f d9bd c311 583d 0391 9fbd
00000070: f098 b2bc be3b 743b 25e3 8abd 93e4 b8bd
00000080: 9a4c e03d 4eae ec3b cb73 3dbd 35d6 123d
00000090: 34b1 393c a3f9 46be 41dc 03be 0491 f3bc
000000a0: addd 96bd 73d9 c3bd 2eeb d9bd d692 c63d
000000b0: 195f d8bc d574 ccbb c8ab 28bd 7f6c 84bd
000000c0: 6c59 2d3d ab23 93bd b5ef e7bd f228 783d
000000d0: f5cd 03be 7bbf e0bd 06ec ec3b 23f2 63be
000000e0: 6282 30be ea1c 883d e354 953a 0248 af3d
000000f0: 8549 bf3c dac7 bcbc f4b1 093d 7197 9a3c
00000100: 13c8 9bbd 98c0 ea3d df61 9d3c 9301 123e
00000110: 8365 40bc c938 4f3d dbb4 50bc 8b88 a7bd
00000120: d1fd b1bc d32a 2bbd 1108 1c3d b4a6 013e
00000130: 5b1e 873d b4e6 89bd de9f c3bd e8d3 b83d
00000140: f8ab 033d 95f6 e13c 09a0 c23c b259 9bbc
00000150: 72d0 6b3d 9a06 403e c88e 4a3d 1acd b1bd
00000160: bbdf a9bc 89d5 aabd 4f5e 1e3d 211a 94bd
00000170: 3a3e b23a c5b5 043e c166 333e 32a3 85bc
00000180: bbe8 98bb f6a5 b2bc a0c0 40bd b7c4 c13d
00000190: 53dd 493c 201f 25bd 2cfa 0e3c 3c71 083d
000001a0: 0cb6 79be 19b6 3fbe 14c2 943d f3b0 25bd
000001b0: dcaf 98bd 7f43 53bd 416b ca3b 0d82 6bbe
000001c0: eef2 0abe 0f2a fb3d e0f3 19bc b6aa e7bd
000001d0: 3664 1abb e29f 553c 8279 d43c a47b ad3d
000001e0: 6c6b f03c b96e c53d 91ab 803c 6eea 92bd
000001f0: 2c29 bcbd 3fad f3bd e229 9cbd 83da 14bd
00000200: 5c40 02be 6236 67bc 69be 63bb d6ed 2b3c
00000210: defb 54bc e424 c4bc dc1f 85bc ebef 733e
00000220: b3db d4bd 34f3 35be 0089 60be 324a eebd
00000230: d06a 1e3d 5d98 b9bc c0f4 7ebd cd7f 4a3d
00000240: 68c7 c2bd d114 aebd ce10 8a3d 0e51 acbd
00000250: f4cf 26bc fae2 253e 3ebc 3d3e 304a c73d
00000260: 154c 82bd c99d 90bd fec1 88bd b464 1a3e
00000270: 0a78 033d fd96 4d3b 2116 043d 75b8 b53d
00000280: 0740 12be 0b68 313d 7355 1b3c c7ba 95bd
00000290: 94ee 19be 0645 f9bd 0bdb cebc a79e 2bbd
000002a0: cf2c 263c 1e69 debb 2f38 f739 86ce 6f3c
000002b0: 54d8 4abe 5fcb 65bd 3b0e 1bbc daba fe3d
000002c0: fd23 a3bd 9f87 9aba f9b3 fdbc d2bc 223e
000002d0: 52ab 80bd 0a84 e83d 11b3 4fbd d34c a2bd
000002e0: 2f90 fdbd 43d1 46bd e0da 2c3e c599 393c
000002f0: 89db 11bd 8e0c 59bd bd89 14be b5cc 16be
00000300: 915c 693d 72a6 883d 619b 3e3e a165 cf3d
00000310: 27c4 ce3d f4d7 a2bd 9deb 52bd 6485 cbbd
00000320: 1f1d 313e 79a0 a6bd 8a0f 22bd 9c6c 973d
00000330: 521a a9bd 789e 9c3b 9825 96bd 94ee 843d
00000340: 425f 183d 251e d03d 76e5 5f3c 4dc3 5dbd
00000350: e6ca be3c bcdb 6bbc f129 37bd 42de dc3b
00000360: e5b6 b53d e4a0 3dbd f57a 05be a0a9 abbd
00000370: 165b dbbc 9138 433c 644e 533d 08d6 fc3d
00000380: 9a53 253e cec8 0f3e 836c 033d bf5e 15bc
00000390: 19d5 b43d 6d4c 0bbe 15d5 7bbd 32d2 a0bd
000003a0: 5b0a 043d 7ad3 a4bd 38a1 863d ce39 27bd
000003b0: 98eb 3a3d d22d ecbd 07fc ab3b 38a7 c4bd
000003c0: 5734 edbd d644 cb3c 1fdb aebd 4997 513d
000003d0: 6a4a c5bd fd75 76bd 3247 663c 403d d1bd
000003e0: 3d76 ee3d 6db6 1b3e 7680 fdbd 609f 20be
000003f0: 53cd 05bd 5b04 fdbd 9a18 82bc 8fae e3ba

network_body._body_endoder.seq_layers.2.bias f4 [128]
0.0020238168 -0.0055604195 0.011168516 0.0061450605 -0.0049212123 0.01829944 0.054711424 -0.01668755
-0.0069314335 -0.0035539437 0.013585057 0.009717864 0.009678356 -0.003673445 -0.022571076 -0.011081908
-0.006994211 0.003524566 0.0005473065 0.010658086 -0.027403908 0.0038803392 -0.0034303768 -0.005800117
-0.0008209627 -0.0011227811 0.00841321 -0.009822161 0.021828849 -0.0031562597 0.0053417264 0.021293694
0.0063671055 0.010219263 -0.014714492 -0.011007019 -0.004956342 -0.01626242 -0.018274779 0.0037642985
0.0062572407 -0.0051108515 -0.011070001 0.009450353 -0.002912218 -0.012055317 0.039845385 0.030728567
0.01412321 -0.015136391 0.06102448 -0.0028490166 0.0028293976 0.022505676 0.0036293 -0.0032043208
0.004083992 0.008467877 0.020736853 0.004854829 -0.008382522 3.9305392e-05 0.0055211335 -0.007225128
-0.025138054 -0.021216176 -0.0030540589 0.005582544 0.032168504 0.004020693 -0.0071385833 0.019054342
0.005432817 0.0011794803 0.010239727 -0.012320582 0.0027740728 -0.016567387 0.011302168 -0.0023893842
0.0040152897 0.005975285 -0.002195413 0.027725626 -0.0023463755 -0.0074687186 0.003782562 0.00988898
0.0014683615 0.011267553 0.010792142 0.009520351 0.001774926 -0.008668483 0.020484988 0.020842226
0.005294495 -0.005459366 0.0104852365 -0.02343151 -0.004026976 -0.0021922737 -0.008693135 -0.008552201
0.024230003 0.007315203 -0.005867798 -0.005036847 0.0044565033 -0.004361188 0.016192777 -0.014555025
0.0058723525 0.005320508 -0.010537482 0.01291178 -0.016222114 -0.01827901 -0.02629774 -0.015094307
-0.0043589105 -0.021946624 -0.0015396157 0.023852045 -0.020770442 -0.022675067 0.0012701015 -0.0094350055
00000000: 03a2 043b 2e34 b6bb 27fc 363c 815c c93b
00000010: 1f42 a1bb b5e8 953c 1619 603d 54b4 88bc
00000020: 1421 e3bb 48e9 68bb dc93 5e3c ad37 1f3c
00000030: f891 1e3c 2ebe 70bb fae6 b8bc e490 35bc
00000040: b22f e5bb 68fc 663b 1e79 0f3a 419f 2e3c
00000050: 297e e0bc 4a4d 7e3b 2cd0 60bb e80e bebb
00000060: e035 57ba 482a 93ba 8fd7 093c 21ed 20bc
00000070: 6ad2 b23c 40d9 4ebb a609 af3b 1d70 ae3c
00000080: 27a3 d03b b26e 273c 0d15 71bc c956 34bc
00000090: cf68 a2bb c438 85bc fdb4 95bc 73b2 763b
000000a0: 8a09 cd3b ee78 a7bb f35e 35bc a7d5 1a3c
000000b0: e9da 3ebb aa83 45bc ea34 233d 7aba fb3c
000000c0: 0965 673c a0fe 77bc cef4 793d 91b6 3abb
000000d0: 6a6d 393b d35d b83c 8dd9 6d3b 95ff 51bb
000000e0: 02d3 853b dabc 0a3c 55e0 a93c 4215 9f3b
000000f0: d856 09bc d8db 2438 a0ea b43b c4c0 ecbb
00000100: 52ee cdbc 8ccd adbc 9b26 48bb c6ed b63b
00000110: 1fc3 033d 04c0 833b c7ea e9bb da17 9c3c
00000120: c605 b23b cb98 9a3a 87c4 273c 44dc 49bc
00000130: 38cd 353b 54b8 87bc ba2c 393c 3797 1cbb
00000140: b192 833b 53cc c33b ebe0 0fbb da20 e33c
00000150: a6c5 19bb 27bc f4bb dce4 773b 6305 223c
00000160: 0976 c03a 8b9b 383c 86d1 303c 3ffb 1b3c
00000170: a2a4 e83a 4106 0ebc 22d0 a73c 51bd aa3c
00000180: 717d ad3b 7be4 b2bb 45ca 2b3c 70f3 bfbc
00000190: b9f4 83bb 40ac 0fbb a76d 0ebc 881e 0cbc
000001a0: 007e c63c 5fb4 ef3b a846 c0bb 230c a5bb
000001b0: dc07 923b 4ce8 8ebb b7a6 843c 3378 6ebc
000001c0: dd6c c03b a857 ae3b 67a5 2cbc ee8b 533c
000001d0: 3de4 84bc ddbd 95bc 5c6e d7bc 1d4e 77bc
000001e0: 31d5 8ebb 68c9 b3bc eecc c9ba 5d65 c33c
000001f0: c626 aabc 10c1 b9bc 8979 a63a 4895 1abc

action_model._discrete_distribution.branches.0.weight f4 [3, 128]
-0.017452415 -0.01963574 -0.02757735 -0.0108340895 -0.013263469 -0.038525324 0.051474523 0.0014497576
-0.0035042819 -0.011778953 -0.012644665 0.0879542 -0.014764181 -0.05859913 -0.005677448 -0.019067308
0.005728393 -0.052036636 0.009294429 0.12085324 0.021121157 -0.03298003 -0.004187467 0.010634931
0.018123806 -0.0042659855 0.034151275 -0.01723242 0.05674677 0.011364241 -0.015486218 0.017775612
-0.015557937 -0.024988875 0.004735858 0.0006602286 0.015204914 -0.0033718818 -0.0062756534 -0.011263429
-0.0019167471 -0.0015148441 -0.026802788 0.02492316 -0.03140031 -0.022672331 0.014056744 0.00048489688
-0.012585003 -0.011641883 0.037909366 -0.018908527 0.0016136535 -0.03819092 -0.004489944 -0.02989461
-0.018904412 0.0023482242 -0.019806486 -0.0045539415 -0.0039022535 -0.014350978 0.011187942 -0.017781
-0.0017040293 -0.014774504 0.003196686 -0.002380207 -0.010202355 0.015623691 0.028330775 0.0091638975
0.0033517352 -0.01393087 -0.119584665 -0.020953598 -0.05014706 -0.0016922291 0.040924255 -0.0013513698
0.0046601556 0.024387019 -0.029344944 -0.07204202 -0.0045263916 -0.0062673767 -0.034873948 -0.028873261
-0.0011439822 -0.012951177 -0.08131826 -0.014692371 -0.00027566717 -0.01630241 -0.008196479 0.0072481637
0.0025581769 0.005842107 0.024350906 0.0054148324 0.0066757877 0.028372532 -0.004962958 -0.013211391
0.036101922 0.032161403 -0.017171782 0.06686608 -0.0069015706 0.0040088873 -0.039492365 -0.00913913
0.0063163154 -0.0382266 0.001123935 0.0010713295 -0.010393671 -0.0057442253 -0.012446939 -0.010835185
0.007703563 -0.00094254024 -0.004872007 0.025521608 -0.008757351 -0.006177194 -0.013894389 -0.00995186
-0.010879766 -0.011586321 0.0071842875 0.016676761 -0.0007593789 0.042699397 -0.054656755 -0.016570054
-0.009456967 0.014401667 -0.016892152 -0.07222843 0.035558525 0.05067105 -0.0029082124 -0.013921312
0.011165446 -0.016201692 0.023997677 -0.071841985 -0.0027946483 -0.007886836 -0.008701321 0.011135357
0.027100733 -0.009385564 -0.026796766 0.013125112 0.0017874459 -0.006821 0.01426253 -0.03486949
0.0029603976 0.004664619 0.011539347 0.014994609 -0.01334484 0.011852269 -0.0046493905 -0.013053305
0.019505255 0.005388795 0.026798284 0.014005329 0.0044927592 0.023572834 -0.03702953 -0.04921282
0.047257226 0.0047662295 0.02287927 0.0129666 -0.005496712 0.06941431 0.002281552 0.021853952
0.017315444 -0.028897962 0.016207946 0.02219438 0.008925305 0.003493958 0.0046598795 0.0025539473
-0.0071966695 -0.0060305703 -0.026059587 0.012927999 -0.08846918 -0.04369967 0.011846725 0.023262901
-0.008016375 -0.013155279 -0.023184624 0.0032656705 0.012375495 0.02095023 -0.021238027 0.03380691
-0.0068893647 -0.014266035 0.016839996 -0.043905575 0.011609847 0.0023194884 -0.08203216 0.021503529
0.022186054 0.024169516 0.0027458451 0.021950606 -0.008762716 0.020931855 -0.059227798 0.034334242
-0.01902213 0.02412397 0.014755905 -0.015075521 -0.0046421434 -0.0002835609 -0.014708987 -0.007941178
-0.051720113 -0.028503872 0.013078414 -0.04587872 0.0060630636 0.022157934 -0.0720161 0.020369742
-0.013142604 0.046622712 0.007895811 0.010893634 0.0016460035 -0.008410422 0.011485089 0.007485631
0.002721562 0.0011496734 -0.017013995 0.01823432 0.012622572 -0.027288524 -0.0024174177 -0.00038019556
00000000: 5ef8 8ebc 22db a0bc e5e9 e1bc 7781 31bc
00000010: 054f 59bc bbcc 1dbd f3d6 523d cb05 be3a
00000020: 18a8 65bb 82fc 40bc 922b 4fbc 5521 b43d
00000030: 77e5 71bc a405 70bd e309 babb 0b33 9cbc
00000040: 3eb5 bb3b 5e24 55bd a947 183c e781 f73d
00000050: 4706 ad3c 1116 07bd 0537 89bb 223e 2e3c
00000060: 6078 943c aec9 8bbb 35e2 0b3d 012b 8dbc
00000070: 4d6f 683d 1531 3a3c e8b9 7dbc 299e 913c
00000080: b8e6 7ebc 78b5 ccbc 422f 9b3b 3113 2d3a
00000090: 081e 793c cafa 5cbb ffa3 cdbb 3f8a 38bc
000000a0: 5c3b fbba bc8d c6ba 8591 dbbc a82b cc3c
000000b0: 9d9d 00bd 53bb b9bc 424e 663c c239 fe39
000000c0: 5431 4ebc 99bd 3ebc da46 1b3d 0ee6 9abc
000000d0: 3a81 d33a 156e 1cbd 6120 93bb 8be5 f4bc
000000e0: 6ddd 9abc aae4 193b 3641 a2bc 3b39 95bb
000000f0: f3bc 7fbb 5d20 6bbc a14d 373c 76a9 91bc
00000100: bc59 dfba c310 72bc 7e7f 513b 3ffd 1bbb
00000110: c727 27bc 82fa 7f3c f115 e83c 2c24 163c
00000120: c9a8 5b3b 4e3e 64bc cee8 f4bd e1a6 abbc
00000130: 0167 4dbd c9cd ddba 31a0 273d 7220 b1ba
00000140: 38b4 983b 49c7 c73c cf64 f0bc c48a 93bd
00000150: 2052 94bb 915e cdbb fcd7 0ebd 9e87 ecbc
00000160: acf1 95ba 2c31 54bc 308a a6bd 45b8 70bc
00000170: 6c87 90b9 a28c 85bc 864a 06bc 0182 ed3b
00000180: 16a7 273b 256f bf3b 8d7b c73c e86e b13b
00000190: 91c0 da3b 836d e83c 4fa0 a2bb 9774 58bc
000001a0: 9cdf 133d adbb 033d d6ab 8cbc 15f1 883d
000001b0: 9226 e2bb fc5c 833b bfc2 21bd 4abc 15bc
000001c0: 18f9 ce3b 7f93 1cbd 0051 933a da6b 8c3a
000001d0: 374a 2abc 0e3a bcbb 3fee 4bbc 0f86 31bc
000001e0: 2c6e fc3b ce14 77ba 5ba5 9fbb b112 d13c
000001f0: fe7a 0fbc 0f6a cabb 4ba5 63bc 200d 23bc
00000200: 0c41 32bc 8dd4 3dbc 2c6a eb3b b49d 883c
00000210: 0e11 47ba 90e5 2e3d c3df 5fbd ecbd 87bc
00000220: 65f1 1abc f8f4 6b3c 6961 8abc 80ec 93bd
00000230: d1a5 113d 728c 4f3d b597 3ebb 3716 64bc
00000240: 46ef 363c 69b9 84bc c796 c43c e421 93bd
00000250: 6b26 37bb ca37 01bc fc8f 0ebc 1371 363c
00000260: 5b02 de3c e9c5 19bc e484 dbbc b60a 573c
00000270: bb48 ea3a b282 dfbb 63ad 693c 4fd3 0ebd
00000280: 3b03 423b a9d9 983b 870f 3d3c f3ab 753c
00000290: 51a4 5abc 0530 423c ea59 98bb 88dd 55bc
000002a0: 7cc9 9f3c 7d94 b03b 1388 db3c 9c76 653c
000002b0: ff37 933b d11b c13c 47ac 17bd 6293 49bd
000002c0: cb90 413d 082e 9c3b 4f6d bb3c dd71 543c
000002d0: c31d b4bb 1729 8e3d 1786 153b 0f07 b33c
000002e0: 1ed9 8d3c 6bbb ecbc 87c6 843c fdd0 b53c
000002f0: 713b 123c e3fa 643b e7b1 983b 2060 273b
00000300: 0ad2 ebbb 179c c5bb ea7a d5bc f5cf 533c
00000310: 542f b5bd 6dfe 32bd c418 423c d791 be3c
00000320: 1d57 03bc 3d89 57bc aeed bdbc dc04 563b
00000330: 97c2 4a3c d19f ab3c 5ffb adbc 1d79 0a3d
00000340: 2ec0 e1bb 16bc 69bc 08f4 893c 55d6 33bd
00000350: 3a37 3e3c 8f02 183b 7a00 a8bd 2b28 b03c
00000360: 87bf b53c 26ff c53c a3f3 333b c2d1 b33c
00000370: 7f91 0fbc 4879 ab3c d998 72bd 10a2 0c3d
00000380: 4cd4 9bbc a29f c53c c0c2 713c 51ff 76bc
00000390: 1f1d 98bb e6aa 94b9 f7fd 70bc b71b 02bc
000003a0: 78d8 53bd f480 e9bc d846 563c 53eb 3bbd
000003b0: aaac c63b 8e84 b53c 2d7d 93bd 72de a63c
000003c0: 1454 57bc 75f7 3e3d 6f5d 013c 367b 323c
000003d0: b6be d73a decb 09bc f42b 3c3c 064a f53b
000003e0: 3c5c 323b a3b0 963a ef60 8bbc 2460 953c
000003f0: e7ce 4e3c 2f8c dfbc 8a6d 1ebb fc54 c7b9

action_model._discrete_distribution.branches.0.bias f4 [3]
0.0031467127 -0.0055093067 0.009500052
00000000: 1439 4e3b 6a87 b4bb 1ba6 1b3c

action_model._discrete_distribution.branches.1.weight f4 [2, 128]
-0.016286619 0.009170902 0.032838397 0.023740951 -0.018611241 0.024315821 -0.025134066 -0.011108344
0.025191437 -0.014335994 0.05849833 0.05163077 0.007439912 -0.06183445 0.0003553712 0.026633225
-0.019507352 0.007360878 0.0057108565 0.016448736 0.07860733 -0.031883765 0.026794216 0.0043541254
-0.013706586 0.0323973 0.029786777 -0.011823665 -0.021577634 -0.039620146 -0.015801514 -0.021301886
-0.002428468 0.032732558 0.0055473004 -0.011507398 -0.030164346 -0.014889158 -0.0010521831 0.0074667064
-0.021969885 0.0043417155 0.019963894 -0.008857744 -0.017896278 0.018421609 -0.0254429 0.07774455
0.009484714 0.006946465 0.03732531 0.008989329 0.020168731 0.061695598 -0.00037796484 -0.009144979
-0.033168186 0.008915781 -0.018480847 0.01798015 -0.024362197 -4.9318256e-05 0.04662557 0.0013144105
0.005767334 -0.015905427 0.03130637 0.003064941 -0.010131968 0.016997678 0.01217175 0.06866704
0.07833811 -0.033298712 -0.004425348 0.011871857 -0.026839593 0.012111437 0.012346413 -0.014555788
-0.016151736 0.0009895248 0.0027925593 0.027091734 -0.0031885745 0.0002999427 0.17887 0.12510979
-0.014699309 0.006405715 -0.0065618204 0.017378585 0.106507875 -0.011452822 -0.03396989 0.027966648
0.036974553 -0.023996312 0.037402466 -0.016175877 0.03593944 -0.003949325 -0.017770147 0.000173898
0.019424397 0.08320321 -0.024265572 0.027380629 0.019845415 -0.015564372 -0.018953241 -0.02482913
-0.0042936415 -0.012316953 -0.0024983739 0.038829733 -0.012323644 -0.01176561 -0.012054542 -0.012558238
-0.0025715658 -0.005623607 0.022173686 0.004844182 0.0026879427 0.036793407 0.014339911 -0.010987329
0.028608259 0.010394813 -0.057254814 -0.012526675 0.02616689 -0.0029202418 0.009782776 0.0051066177
-0.022022841 -0.010351727 -0.059891917 -0.040606875 -0.019624263 0.0497397 0.00676429 -0.027331842
-0.014390064 -0.011447566 -0.005368881 -0.021093998 -0.07940216 0.034798704 -0.03455758 -0.0037988494
0.015272958 -0.016859878 -0.03772829 -0.004918964 0.030887727 0.014598846 0.016101832 0.027344078
-0.0121226385 -0.034931958 -0.0040476643 -0.0012053307 0.020126995 0.00903988 0.008075879 -0.013000588
0.023150042 -0.022171782 -0.030382223 0.016284423 0.011919908 -0.00141315 0.034571096 -0.05908831
-0.0020501472 -0.028690808 -0.055249058 -0.038361344 -0.019814486 -0.08398913 -0.00792028 0.030327851
0.028654017 -0.006165374 0.03739626 -0.008667695 0.037845492 0.021294566 -0.044854805 -0.009463159
-0.0006543967 0.011078892 -0.0067679575 0.016493816 0.0039745406 -0.02882847 0.00027833108 -0.080456026
-0.091459066 0.018630652 -0.010833317 0.0016937638 0.015525018 -0.0065920986 -0.0208029 0.0237964
-0.0072682295 -0.014450688 -0.020909492 -0.007566666 -0.009150947 0.0026411687 -0.18979591 -0.1119531
0.014004515 -0.018264167 0.013950508 -0.015386589 -0.111727394 0.020307733 0.009188244 -0.025182122
-0.02510835 0.0075062476 -0.03935951 -0.0032566052 -0.01952702 0.01679066 0.014581061 -0.004567461
-0.04277902 -0.097619854 0.007001579 -0.019353827 -0.024903761 0.019299317 0.031746622 0.028824275
0.008280905 0.0067090997 -0.006555149 -0.031129235 0.011871239 -0.0039866553 -0.0074096 0.027151281
0.006003038 0.01145877 -0.025450934 -0.0044333753 -0.014406366 -0.018066974 -0.03269587 0.0049155625
00000000: 846b 85bc 8d41 163c 8e81 063d 627c c23c
00000010: 9a76 98bc f931 c73c f5e5 cdbc c6ff 35bc
00000020: 465e ce3c 84e1 6abc f29b 6f3d c97a 533d
00000030: 81ca f33b 1f46 7dbd 1d51 ba39 ec2d da3c
00000040: e2cd 9fbc 8533 f13b 2322 bb3b 80bf 863c
00000050: e1fc a03d 8d98 02bd 8b7f db3c 0dad 8e3b
00000060: 9791 60bc 08b3 043d 6603 f43c 0cb8 41bc
00000070: 94c3 b0bc bc48 22bd 2d72 81bc 4b81 aebc
00000080: ef26 1fbb 9312 063d 21c6 b53b 8789 3cbc
00000090: 381b f7bc a8f1 73bc 68e9 89ba 46ab f43b
000000a0: 30fa b3bc f344 8e3b 528b a33c 1220 11bc
000000b0: 379b 92bc eae8 963c a16d d0bc 8938 9f3d
000000c0: c665 1b3c 2c9f e33b 6de2 183d fb47 133c
000000d0: e538 a53c 86b4 7c3d 9529 c6b9 d2d4 15bc
000000e0: 5ddb 07bd 7f13 123c 2565 97bc 1c4b 933c
000000f0: 3b93 c7bc 13db 4eb8 74fa 3e3d 4c48 ac3a
00000100: e7fb bc3b 194c 82bc 1c3b 003d 2ddd 483b
00000110: 8e00 26bc b73e 8b3c 056c 473c 4ea1 8c3d
00000120: bb6f a03d 3b64 08bd 8202 91bb 2d82 423c
00000130: b5de dbbc 0c6f 463c 9c48 4a3c 667b 6ebc
00000140: a550 84bc f1b2 813a 5f03 373b 7cef dd3c
00000150: 67f7 50bb a141 9d39 b329 373e c81c 003e
00000160: 5fd5 70bc 08e7 d13b 8a04 d7bb 895d 8e3c
00000170: cd20 da3d 9ea4 3bbc 0324 0bbd 501a e53c
00000180: a172 173d ea93 c4bc 5433 193d 4683 84bc
00000190: 3c35 133d 5769 81bb b392 91bc 6458 3639
000001a0: ea1f 9f3c 7266 aa3d 98c8 c6bc 574d e03c
000001b0: da92 a23c b501 7fbc d443 9bbc 7666 cbbc
000001c0: adb1 8cbb 0ccd 49bc c2bb 23bb ed0b 1f3d
000001d0: 1ce9 49bc 8cc4 40bc 6a80 45bc 11c1 4dbc
000001e0: b787 28bb 3c46 b8bb 97a5 b53c f2bb 9e3b
000001f0: 3228 303b afb4 163d f2f1 6a3c 3304 34bc
00000200: de5b ea3c 014f 2a3c 0684 6abd af3c 4dbc
00000210: f25b d63c 8761 3fbb f047 203c 6a55 a73b
00000220: 3f69 b4bc 4a9a 29bc 3a51 75bd 6553 26bd
00000230: 10c3 a0bc dbbb 4b3d faa6 dd3b 07e7 dfbc
00000240: 4ec4 6bbc 928e 3bbc 70ed afbb 52cd acbc
00000250: 9a9d a2bd 1689 0e3d 408c 0dbd 1ef6 78bb
00000260: 6e3b 7a3c ba1d 8abc fb88 1abd 432f a1bb
00000270: 4208 fd3c 0030 6f3c fde7 833c b000 e03c
00000280: 089e 46bc d014 0fbd 45a2 84bb 30fc 9dba
00000290: 5ee1 a43c 011c 143c b150 043c 6b00 55bc
000002a0: 28a5 bd3c 99a1 b5bc 24e4 f8bc e966 853c
000002b0: b84b 433c 7239 b9ba 6c9a 0d3d 9506 72bd
000002c0: c35b 06bb fc08 ebbc d64c 62bd c920 1dbd
000002d0: fd51 a2bc 7e02 acbd 10c4 01bc 1d72 f83c
000002e0: d4bb ea3c e806 cabb d22c 193d f302 0ebc
000002f0: e003 1b3d f171 ae3c acb9 37bd 5e0b 1bbc
00000300: d28b 2bba 3e84 353c bec5 ddbb 0a1e 873c
00000310: dd3c 823b af29 ecbc f7ec 9139 21c6 a4bd
00000320: e44e bbbd 4f9f 983c 3a7e 31bc 4801 de3a
00000330: a55c 7e3c 8802 d8bb d86a aabc abf0 c23c
00000340: 542a eebb 94c2 6cbc 624a abbc ccf1 f7bb
00000350: dbed 15bc 7517 2d3b dc59 42be ab47 e5bd
00000360: 3173 653c bc9e 95bc ac90 643c 0818 7cbc
00000370: 55d1 e4bd 675c a63c 4a8a 163c bd4a cebc
00000380: 07b0 cdbc f8f6 f53b 7037 21bd c56c 55bb
00000390: 21f7 9fbc 918c 893c 67e5 6e3c a4aa 95bb
000003a0: 0e39 2fbd ebec c7bd 806d e53b eb8b 9ebc
000003b0: f902 ccbc 9a19 9e3c bf08 023d e320 ec3c
000003c0: a2ac 073c 02d8 db3b 93cc d6bb bd02 ffbc
000003d0: 967f 423c 7da2 82bb 3bcc f2bb 5d6c de3c
000003e0: 22b5 c43b 91bd 3b3c 7a7e d0bc d945 91bb
000003f0: ae08 6cbc 3101 94bc 1bec 05bd ba12 a13b

action_model._discrete_distribution.branches.1.bias f4 [2]
0.00728803 -0.0072880187
00000000: 6dd0 ee3b 55d0 eebb
