results/Player1z/MoveAgent2D/MoveAgent2D-609578.pt (torch, 457082 bytes, 40 tensors)

discrete_act_size_vector f4 [1, 2]
000000 00 00 40 40 00 00 00 40
       3.0 2.0

network_body._body_endoder.seq_layers.0.weight f4 [128, 9]
000000 d8 af 7a be f4 5b b5 be 48 26 22 bb ad ea 60 3e
       -0.24481142 -0.35421717 -0.0024742056 0.21964522
000010 2d 49 37 3f 05 44 d1 3d 03 a5 92 3e 35 a0 07 be
       0.7159603 0.10218052 0.2864152 -0.13244708
000020 52 06 b5 bd 22 a1 02 bd d8 30 fd 3b e9 b8 91 3e
       -0.08839096 -0.03189195 0.00772677 0.28461388
000030 c1 c2 32 be 9c c8 bd be ee 53 d9 be 34 38 d7 be
       -0.17457105 -0.37067115 -0.42446846 -0.42035067
000040 f1 1b 10 3f a9 ef d6 be 41 54 f9 3e c9 c9 3c be
       0.56292635 -0.4197972 0.48697093 -0.1843635
000050 af 71 f9 3d 9c 77 62 3d e4 e2 e5 3d 2b ba e9 be
       0.121798865 0.05528985 0.112249166 -0.45649847
000060 b9 4e a2 be 5f 95 83 3e 84 d9 d4 3c 93 f3 29 bf
       -0.31700686 0.256999 0.025982626 -0.6638729
000070 83 36 a6 3e cc 6b 2b be 92 b0 ad 3e 0e 0f 35 bf
       0.32463464 -0.1674034 0.33923775 -0.70726097
000080 95 f6 80 3b 0f c4 cf 3e b4 1e c9 be 3d 92 d8 3e
       0.003935645 0.40579268 -0.39281237 0.4229907
000090 50 e0 8d 3c 89 66 27 3f d1 fa 2d be b3 56 87 3e
       0.017318875 0.6539083 -0.1699021 0.26433334
0000a0 7c e6 0b 3f 9d 38 22 3e ac 36 1e be b0 83 48 bc
       0.54648566 0.15841909 -0.15450543 -0.012238428
0000b0 f2 31 2f bf 36 32 46 3c d6 ef c4 be 84 9b 0b be
       -0.68435585 0.012096932 -0.3846423 -0.13633543
0000c0 2b cf 00 be 32 7b 34 3e c1 55 17 be 5c 8a 3a be
       -0.12579028 0.1762512 -0.14778806 -0.18216842
0000d0 b2 63 b2 3d fc 8a 14 be 42 af 4e 3e 34 a6 86 be
       0.087104216 -0.14506143 0.20184043 -0.26298678
0000e0 f2 bc 5f be 78 ca 47 3d 50 b5 9b bc 7b 6f 8b 3e
       -0.2184942 0.048777074 -0.019007355 0.2723349
0000f0 5e 30 1d bf 31 0f 58 be 1d b3 66 3e c9 ea d5 be
       -0.6140193 -0.21099545 0.22529264 -0.4178069
000100 7f ff 85 bd 12 89 dc 3c 1d e8 02 bd 4d 6f 8e be
       -0.06542873 0.026920829 -0.03195964 -0.2781929
000110 c1 b6 27 3f a9 97 7f 3e 62 09 92 3e 03 f8 be bb
       0.65513235 0.24960198 0.28522784 -0.005827905
000120 a0 08 46 be f7 4c 1e bb 46 5a 0d bf 16 36 b1 bd
       -0.19339228 -0.0024154761 -0.5521587 -0.08652894
000130 0f ad 94 be 27 e8 f6 3e 43 37 cb 3e 28 76 32 3e
       -0.29038283 0.48223993 0.396906 0.17427886
000140 d7 94 84 3d 0e 28 f2 3d fd 34 ad be 77 d3 dd 3d
       0.064737014 0.11824046 -0.3382949 0.10831349
000150 57 5e 93 be 40 88 f9 3e 61 79 c0 be 28 4e c1 3d
       -0.28782913 0.48736763 -0.37592605 0.09438735
000160 60 03 9d 3e 48 16 7f 3e 85 33 78 be f4 65 d8 3e
       0.30666637 0.24910843 -0.24238403 0.42265284
000170 44 d0 be 3d f4 3c 84 3d b0 85 b7 3d 5d 05 c7 3e
       0.09317067 0.064569384 0.08961046 0.3887128
000180 a8 dd 48 be 9e 6a 6c bc 78 39 e1 3e c9 a1 29 bd
       -0.19615805 -0.014429716 0.43989158 -0.041414056
000190 9a 61 a1 be 70 b9 22 be c9 e3 61 bd 3f 6f ac be
       -0.31519777 -0.15891051 -0.055148873 -0.33678624
0001a0 d2 18 3d be 9d cd 79 be 05 e8 1b 3f ae e0 df 3e
       -0.184665 -0.24394841 0.6090091 0.43726104
0001b0 ea 15 90 be 16 83 1d be b8 a2 e0 3e d0 94 e9 3e
       -0.2814172 -0.15382037 0.43874145 0.45621347
0001c0 ae 37 31 3d c6 24 a0 be bf 68 2f bf 0c 30 99 be
       0.04326599 -0.31278056 -0.68519205 -0.2991947
0001d0 3d 4e c1 3e 25 0b 64 3e 18 73 c8 3e 82 1c f1 be
       0.37755004 0.22269876 0.3915031 -0.47092062
0001e0 db a8 27 3f d7 3f ae 3e ca b9 fd 3c 4f 1f 82 be
       0.6549203 0.3403308 0.03097238 -0.25414512
0001f0 c0 dc aa bd 1d 20 e3 be 70 60 77 bd 4d 64 e9 bd
       -0.08342886 -0.44360438 -0.060394704 -0.11396084
000200 74 7d 8f 3e bc 9e bf 3e 13 24 97 be d8 fd 1d 3d
       0.280254 0.37425792 -0.2951971 0.038572162
000210 53 f2 68 3f 61 b5 02 3d 57 5d 58 3e e6 94 46 be
       0.9099476 0.031911258 0.21129356 -0.19392738
000220 0d ce 46 bf 07 a1 23 be 84 c4 12 bf f5 ec 57 be
       -0.7765816 -0.15979396 -0.5733111 -0.21086486
000230 3d b1 ba 3e f5 56 10 3e 37 92 0a 3f 36 7c 11 3f
       0.36463347 0.14095671 0.54129356 0.56830156
000240 e4 c5 cb be 1e 9d 9f be 30 83 82 3e bd 21 8e be
       -0.39799416 -0.31174558 0.25490713 -0.27760115
000250 89 93 0b bf 05 bc f2 3e 4b ac 99 be 2e 1a a7 3e
       -0.54521996 0.47409073 -0.30014262 0.3263716
000260 9a fb db be 6f 3f 29 be ad 91 8e be 92 09 03 bf
       -0.42965394 -0.16528104 -0.27845517 -0.5118648
000270 6f bd d5 3e a7 f0 aa 3d ed 79 12 3f a2 ee 39 3d
       0.4174609 0.08346682 0.57217294 0.045393594
000280 d6 6e 92 3e d8 0a d3 3e 8a c4 b1 be 69 f5 55 be
       0.28600186 0.4121921 -0.3472026 -0.20894398
000290 20 86 19 bd ea 17 d5 be 7f 68 4b 3d 76 d2 3a 3e
       -0.037481427 -0.41619807 0.049660202 0.18244347
0002a0 81 82 a1 be 9e a5 e0 3b 21 2c 08 bf 90 aa 14 be
       -0.3154488 0.0068556806 -0.53192335 -0.1451819
0002b0 5d c6 6d 3e 89 90 f7 3c b4 91 a7 3e 5e ef 97 bd
       0.23220201 0.030220287 0.3272835 -0.074187025
0002c0 79 3c 23 be 4b 7c eb bb 76 2f 3e 3d d4 a3 52 bd
       -0.15941037 -0.0071864477 0.04643198 -0.05142577
0002d0 1f d8 1e 3f 63 2a 27 3c 1a bc a9 3d dc 90 6d be
       0.62048525 0.010202977 0.08287831 -0.2319979
0002e0 9c de 04 3f 78 49 96 3e 97 54 4c 3e 65 89 8c 3e
       0.51902175 0.29352927 0.19954143 0.27448574
0002f0 ad 56 b1 3d 36 85 91 be 9f c2 34 bd b4 be fc be
       0.0865911 -0.28421944 -0.044130918 -0.49364245
000300 44 b3 47 3d 27 26 a1 bb 86 a3 93 be dd bc 83 be
       0.048754945 -0.004917878 -0.28835696 -0.2573003
000310 15 52 15 bf a9 87 06 be 22 d2 11 bd fe 0e 80 3e
       -0.5832837 -0.13137688 -0.03560079 0.25011438
000320 d3 e1 40 be 62 a6 55 be d6 41 82 3d be c6 ec 3e
       -0.18836145 -0.20864251 0.063602135 0.46245378
000330 28 01 94 3e ba 1f 96 3e 2e f4 2b 3e 63 2c 0d bf
       0.28907132 0.2932108 0.16792366 -0.55145854
000340 e8 b7 19 bf 33 03 b5 3d 20 5d b2 3e 4e 6c 23 3e
       -0.60046244 0.08838501 0.34836674 0.15959284
000350 a6 05 24 3f 69 c6 bf 3d 60 5d 84 3d 46 7f 57 3f
       0.6407112 0.093640156 0.06463122 0.8417858
000360 21 21 3e 3b 72 ba f5 bd c1 f8 59 3e 11 17 4c be
       0.0029011446 -0.11998452 0.21286298 -0.19930674
000370 bb 90 8d 3e 83 ac c2 bd 96 fb 55 be 7d 34 bf bd
       0.27649483 -0.0950556 -0.20896754 -0.09336183
000380 1c d3 fc 3d fb ac 8d 3b 63 a3 d0 3d 5d 28 60 be
       0.123449534 0.0043235994 0.101874135 -0.21890397
000390 8a a4 66 3f cb bf 32 be 36 7c 2b 3e 3f f9 81 bd
       0.90094817 -0.17455976 0.16746601 -0.06346368
0003a0 36 71 ee bc 65 fc bd 3e 52 48 e6 bb d4 5d 89 be
       -0.029106718 0.37106624 -0.007027664 -0.26829398
0003b0 7b 0d 39 be 93 f4 98 3d c8 da 32 bf 1f 79 9d 3d
       -0.18071549 0.07468524 -0.69865084 0.07689118
0003c0 f7 cc 2a 3f ec 77 b1 be 07 1d 80 3e 9e 8d bd be
       0.66719 -0.34661806 0.25022146 -0.37022108
0003d0 2a ab 4d be d7 4d 0a 3e 6f 42 a0 be f9 dd 3a be
       -0.20084825 0.13506256 -0.31300685 -0.18248738
0003e0 f9 99 cf bc 9f 88 9e 3d bd 92 43 3d 9e ca ec 3e
       -0.025341975 0.07740902 0.047747362 0.46248335
0003f0 6e 03 d5 3d 42 11 5b 3e bd 2e c0 be 14 9b a4 be
       0.10401045 0.21393302 -0.37535658 -0.32149565

network_body._body_endoder.seq_layers.0.bias f4 [128]
000000 60 b3 18 bc 44 17 d0 bb cf fe b3 bb f2 22 29 3c
       -0.00932011 -0.0063504297 -0.005493022 0.010323273
000010 23 0b 59 bb cd 3f 34 38 de 2d 99 3b 21 1e 0c bc
       -0.003311821 4.2974763e-05 0.0046746572 -0.008552105
000020 95 99 e8 3a 14 18 36 bb 66 11 24 bc 30 bf b1 3b
       0.0017745966 -0.0027785348 -0.010013914 0.0054244027
000030 0d a8 53 bb 9d fe b6 b9 12 b5 e2 3b 25 7e b3 bb
       -0.003229621 -0.00034903447 0.006918558 -0.005477684
000040 34 36 db bb 30 5b de bb b9 02 19 bb e9 35 28 bb
       -0.006689811 -0.0067857727 -0.002334757 -0.0025666899
000050 e4 e1 4f ba a6 ec f7 bb 11 90 5d bb aa d1 ac bb
       -0.00079300837 -0.0075660525 -0.0033807794 -0.0052740173
000060 8f c6 a8 bb ec 31 87 bb bc 8b 0b bb a2 28 52 3c
       -0.005150623 -0.004125824 -0.0021293005 0.01282707
000070 7e 1d b8 3a 88 96 9d bc 98 03 36 3b 8a 3d 0b bc
       0.0014046875 -0.019236818 0.0027773138 -0.008498559
000080 51 e2 66 3b 13 e7 ad bb 3a 80 89 bc a2 cd 57 ba
       0.003523011 -0.005307087 -0.016784776 -0.0008232241
000090 9d d6 46 bc ca c8 67 bb 5c 29 5f bc 0d d2 f3 bb
       -0.012136129 -0.0035367482 -0.013620701 -0.0074408115
0000a0 74 76 03 bb 4b 63 bb 3a 54 05 b9 3b 46 6e 1c 3c
       -0.0020059617 0.0014296559 0.005646387 0.009547776
0000b0 a4 0d a5 ba af c9 74 bb 03 d7 c3 3b 61 38 f6 3c
       -0.0012592566 -0.0037351658 0.005976559 0.03005618
0000c0 99 33 c5 bb 51 2c fc ba 5f 53 68 bb fe 3b ce bb
       -0.006018114 -0.0019239282 -0.0035450084 -0.0062937727
0000d0 9e 1b 8f bb 04 ce 8c bb 61 74 91 bb 2b d9 21 bb
       -0.004367306 -0.00429702 -0.0044389223 -0.0024696093
0000e0 4c dc 89 ba b4 80 4b bb 64 26 18 3c 61 18 81 3b
       -0.0010517924 -0.0031052055 0.009286497 0.003939674
0000f0 ce 43 b8 bb 50 f5 32 bb bd fe 12 bb 45 58 88 bc
       -0.0056233173 -0.0027306862 -0.0022429668 -0.016643653
000100 d1 35 8b bc 12 82 c8 3b b5 16 19 3a 22 41 08 3c
       -0.016993435 0.006119021 0.00058398704 0.00831631
000110 ad ec 8f bc 4c 7d 0a 3a 25 94 e4 bb d7 38 ed bb
       -0.01756891 0.0005282953 -0.006975668 -0.007239442
000120 b4 fa f1 bb 92 15 8f 3a 69 78 0d bc b6 ee 5f ba
       -0.0073846225 0.0010916463 -0.008634665 -0.00085423456
000130 87 33 95 bb 59 0a bf bb 0f fc ff bb 31 19 6b 3b
       -0.0045532617 -0.005830091 -0.00781203 0.003587317
000140 27 c4 8e bb e9 20 11 bc 7b 89 2e 3c d2 f9 dc ba
       -0.0043568793 -0.008857944 0.010652895 -0.001685912
000150 ff db 30 bc 00 c5 1c bc 98 01 04 bc 52 ba 44 ba
       -0.010794639 -0.009568453 -0.008057021 -0.00075045705
000160 bf 0c 45 bc 72 ae 15 bb a4 bf f4 bb f1 bc 8c bb
       -0.012026965 -0.0022839573 -0.0074691344 -0.0042949845
000170 7b c8 05 3b b0 6c b6 3a 4c 8e 9a bb 88 a3 ce 3c
       0.0020413685 0.001391789 -0.00471667 0.025224462
000180 d5 e4 92 b9 6f 3a 64 bc 3f f5 08 3a 89 45 f1 ba
       -0.00028017783 -0.013929947 0.0005224533 -0.0018407564
000190 3c 47 35 ba f1 1b 71 3b fa 20 2f bc 91 bc b1 bb
       -0.0006915217 0.0036790336 -0.010689015 -0.00542409
0001a0 6a d3 35 bc 02 06 d8 b9 a9 7a 9f bb 90 5a 77 ba
       -0.011097768 -0.00041203207 -0.004866917 -0.0009435797
0001b0 e3 46 50 ba 7d 1f da 39 16 11 09 bc aa 98 5d bb
       -0.0007945133 0.0004160366 -0.00836589 -0.0033812919
0001c0 4f f7 42 bc f5 c0 d6 3b 32 3e 1c 3b b4 cf 49 bc
       -0.011899783 0.006553764 0.0023840782 -0.012317587
0001d0 58 ba 87 bb f4 3d b2 3b 24 7e 8a bb 8f c9 43 3c
       -0.004142087 0.0054395143 -0.004226463 0.011949911
0001e0 6a 1f 83 3c b4 05 5e ba a0 a6 a6 bb c4 6e c7 bb
       0.01600619 -0.0008469478 -0.005085781 -0.0060862023
0001f0 2a 24 ec 3a d2 d1 fc 3b c5 eb 00 bc e2 8f 89 ba
       0.0018016149 0.007715442 -0.007868712 -0.0010495151

network_body._body_endoder.seq_layers.2.weight f4 [128, 128]
000000 25 66 68 3d 8d db be 3c be 9e 18 be 58 9e 97 3d
       0.056738038 0.02329805 -0.14904305 0.074032485
000010 90 f1 85 3d 56 d8 50 bd 61 f7 01 be c8 43 2a be
       0.06540215 -0.050987564 -0.12692024 -0.16627419
000020 f8 ae f5 3d 9d 8a eb 3c 1d 0b d9 3c 06 d7 20 bd
       0.11996263 0.02875262 0.026494557 -0.039267562
000030 db bb 43 be 6e 93 f7 3d 0a da bf 3d 25 65 b2 3c
       -0.1911463 0.12088667 0.093677595 0.021776745
000040 0c 16 6e bd df 67 a7 3d ba 5d 99 3d f0 34 e8 bc
       -0.058126494 0.08174109 0.0748858 -0.028345555
000050 d1 80 b1 bd bf a4 36 3d 6c 2c 6c bc f4 b0 2d bb
       -0.08667148 0.044590708 -0.014414888 -0.0026503177
000060 e2 7d cf 3c 9a a2 72 3d d6 97 60 3d 37 08 3d 3d
       0.02532858 0.0592371 0.054832302 0.046150412
000070 60 87 72 3d e1 3a 3c 3d e5 6f 01 3e 08 55 c5 bd
       0.059211135 0.04595459 0.1264034 -0.09635359
000080 ff 1e a5 bd 1b 01 71 bd 7b 27 0a 3d 4d 07 29 bd
       -0.08062553 -0.058838945 0.033729058 -0.04126673
000090 10 82 04 be a6 b8 34 bd ff a6 89 bd e4 18 4b bb
       -0.1294024 -0.044121407 -0.06721305 -0.0030990178
0000a0 11 6a bd bd 82 1b c9 bc 39 79 00 3e c0 0a 79 bd
       -0.09248746 -0.02454925 0.12546243 -0.060801268
0000b0 b3 00 08 3e 9e 6d 1a 3e 77 ff da 3d 46 f7 75 3b
       0.13281517 0.15080878 0.10693257 0.003753142
0000c0 ac 60 17 bd 48 94 a1 bd 70 86 99 bd 54 58 5d 3b
       -0.036957428 -0.078896105 -0.07496345 0.0033774571
0000d0 9e 7f 0a be 62 d2 e9 bb d7 80 f6 3c a4 7c 95 bd
       -0.13525245 -0.0071356753 0.030090732 -0.07299164
0000e0 8e 7f da 3d d5 21 ff bd 06 f0 cc bc fa 51 0a 3d
       0.106688604 -0.12457625 -0.025016796 0.033769585
0000f0 87 fe 4a bc 1e 4e 5d 3c 44 34 95 bd fb f4 92 3d
       -0.012389786 0.013507394 -0.072853595 0.071756326
000100 62 ec 2f 3e e4 cb 16 3e 4c c0 f0 3d 80 d1 98 bd
       0.17180017 0.14726216 0.11755428 -0.07461834
000110 51 79 84 be 0d df 87 3d c7 52 ef bb 83 cd a7 bb
       -0.25873807 0.066343404 -0.007303569 -0.0051209345
000120 af 3f c3 3c 1e 72 5b 3e 03 7d b0 3d b3 5b ef bd
       0.023834078 0.21430251 0.08617594 -0.11687412
000130 d3 8e 85 bc de b9 5a 3d 28 42 5e 3d 8e 43 19 3e
       -0.016303455 0.053399913 0.05426231 0.14967176
000140 23 54 25 be cf 21 62 bd dc c4 c2 bc ee 33 62 3d
       -0.16145377 -0.055208024 -0.02377551 0.055225305
000150 70 5b 2b be 51 06 75 bd 45 6c cc 3c f1 47 1d 3d
       -0.167341 -0.059820477 0.02495397 0.038398687
000160 a2 46 0f bc 51 9c b5 bb df f4 26 bd c4 7d e6 bd
       -0.0087448675 -0.005542316 -0.04076087 -0.11254457
000170 78 34 7e 3d c0 95 eb 3d 69 04 99 3c 1b 4c 7f 3d
       0.062061757 0.11503172 0.01867886 0.06232844
000180 ec 6e bd bc 79 90 06 be 8a da 07 3e 56 ad 05 3e
       -0.02312418 -0.1314105 0.1326696 0.13054404
000190 fc 5f 38 be 42 91 2d 3c 4d cb cf 3d 7f 6a 15 3d
       -0.18005365 0.010593714 0.101461984 0.036478516
0001a0 4f 47 72 3d e2 b3 3a 3d 9b 33 a7 bc c9 1e 26 bd
       0.059150036 0.045581706 -0.02041035 -0.040556703
0001b0 a1 47 17 3e eb 2d 02 be 64 bd c4 3d ec a8 f1 3b
       0.14773418 -0.12712829 0.09606436 0.0073748734
0001c0 9b 63 1c be 1e 8c 8a 3c e9 00 1a bd 84 5a 02 3e
       -0.15272371 0.016912516 -0.037598524 0.12729841
0001d0 1a 2a 74 be 2b 6a 9a 3d df da b0 bd 33 a0 2d bc
       -0.23844185 0.07539781 -0.08635496 -0.0105972765
0001e0 4d d9 22 be 6b 7f aa bd 35 ea 82 3d af 9a dd 3c
       -0.15903206 -0.08325084 0.06392328 0.027051298
0001f0 77 6a 6b 3e e0 40 16 be 18 de 06 3d c9 9e 1e bc
       0.22989832 -0.14673185 0.03292665 -0.009681412
000200 ed 3f ce bb 41 6d cb 3d e4 d3 33 3d e4 0b 89 3d
       -0.0062942416 0.09932948 0.043903247 0.06691721
000210 7e d7 1b 3e 0f 3e b2 bd 31 36 5c 3d b0 dd b7 3d
       0.15218922 -0.08703243 0.05376262 0.089778304
000220 47 35 fa bc 1f 4f 9c 3b 94 99 74 3d 0c 01 9b 3d
       -0.030542983 0.004770174 0.059716776 0.07568559
000230 4c 50 76 3d b2 f1 19 3e 36 66 4e bd 61 22 d6 bc
       0.06013517 0.15033606 -0.050390445 -0.02613944
000240 e0 73 32 3e 33 cc d1 3d db af a3 bd c2 88 09 be
       0.17427015 0.10244026 -0.07992526 -0.13431075
000250 97 20 ef 3b 0a d1 30 bc 4b b5 2d be 8e 55 95 3d
       0.007297586 -0.010792026 -0.16963689 0.07291709
000260 79 10 85 3d 4d a9 46 3d c2 0a ab bb 0d 1a da bc
       0.064972825 0.0485013 -0.0052197883 -0.02662375
000270 62 6f d3 3c 8b 40 1a 3e d1 d3 ec 3c 14 f1 b0 3c
       0.025809947 0.15063684 0.028909596 0.02159933
000280 8c 6c f8 3d 3e 88 f0 bd a6 92 ef 3d c6 fc 01 3e
       0.12130079 -0.11744736 0.11697893 0.12694082
000290 cd 8f 12 be d4 70 36 3e 8f 9e bc bd 3c f5 78 bd
       -0.14312668 0.17816478 -0.0920993 -0.06078075
0002a0 66 cc c6 3c 77 ce 99 3d 5c 80 28 3b bf 02 cf bd
       0.024267387 0.07510083 0.0025711274 -0.10107946
0002b0 6b 43 54 3d 98 47 90 3d 15 34 94 3c 6f 36 6c be
       0.051822107 0.070449054 0.01809124 -0.2306764
0002c0 a9 7d 4a 3e bc 5d ca bc c7 df be bd ec b7 64 3e
       0.19774498 -0.0247029 -0.09320026 0.22335786
0002d0 a9 bc 1d 3e 19 97 be bd 76 92 a7 bd 97 7d 31 bd
       0.15404 -0.09306163 -0.08182232 -0.043332662
0002e0 54 bd 9e bd ac e5 7e bc 2e f5 70 3d 32 96 e5 bc
       -0.07750955 -0.015557688 0.05882757 -0.02802572
0002f0 01 68 cd bd 8c 41 ac 3b 0b df 68 3d 03 97 8b bd
       -0.10029603 0.0052568372 0.056853335 -0.068159126
000300 e5 01 c1 3b 68 4e 2e 3e e1 ce 91 3d 2a 1a b7 3d
       0.0058901184 0.17022097 0.07119537 0.08940537
000310 ce 0e 15 be ab 68 b5 bc 51 61 6c bd e6 26 fb bd
       -0.14556429 -0.022144636 -0.057709996 -0.12263279
000320 66 1e da 3d b6 7c f2 bd 7e 90 53 3d d1 c0 55 bd
       0.10650329 -0.11840193 0.05165147 -0.052185837
000330 c5 8f 9e bd 92 d1 2b bd 0c d3 85 3d a1 74 a9 3d
       -0.077422656 -0.04194791 0.065343946 0.08274198
000340 b8 93 99 3d 3d e8 80 bd 4b 3b 28 bc 65 95 76 bd
       0.07498878 -0.06294296 -0.010268043 -0.060201067
000350 c9 31 d1 bc 2d 6d ad bd 62 00 59 bd d2 5c 93 3d
       -0.025536435 -0.08468089 -0.05297888 0.071954384
000360 5f dc 6f 3c 1f d3 a8 3d b9 3a 0c be 71 1f 7d bc
       0.014639943 0.08243393 -0.13694276 -0.015449391
000370 40 4a 6e bd 85 bc 16 bd 60 8c 56 bd c7 8d c1 3d
       -0.05817628 -0.03680088 -0.052379966 0.0945087
000380 9d 5e bd bc c4 c8 c7 3c 68 0b 81 3d 98 01 a8 3d
       -0.023116404 0.024387725 0.06301004 0.08203429
000390 30 42 10 bc 54 1f 96 3e 1f 1e 67 3c 75 18 d4 bd
       -0.008804843 0.29320776 0.0141063025 -0.10356227
0003a0 59 58 26 3d 10 4d 14 be 18 0a 89 bd 3c 7a 36 be
       0.0406116 -0.14482522 -0.06691378 -0.17820066
0003b0 42 24 ac 3d 38 64 6c bd 6f 1f 3c be 1b cf 22 bd
       0.08405353 -0.057712764 -0.18371366 -0.039748292
0003c0 2a dd 5f bd fb 06 10 be 17 4e 45 bd e5 26 a7 bd
       -0.054654278 -0.14065163 -0.048170175 -0.081617154
0003d0 15 3a 0d bd e6 84 a1 3d 56 84 22 3e da 85 3d bd
       -0.03447922 0.078866765 0.15870795 -0.04627023
0003e0 0b 63 87 3c 37 83 d9 bd f4 b1 39 bd 6a 11 36 3e
       0.01652672 -0.1062073 -0.045335725 0.1778008
0003f0 0b 8b de 3c 8d f6 bc 3c b4 6a 75 bc 6a d5 fa bd
       0.02716591 0.023066783 -0.014979053 -0.12247737

network_body._body_endoder.seq_layers.2.bias f4 [128]
000000 e9 1a 1f 3b df 71 43 bb a1 db 0e bb 2f 03 01 3b
       0.0024277514 -0.002982251 -0.002179839 0.0019685735
000010 e1 15 81 bb 5a f8 66 bb 1c 9d fa ba 8f 82 1b bb
       -0.0039393757 -0.0035243244 -0.0019120309 -0.0023728942
000020 da c1 7a bb 90 2a 4f 3b 0f 24 82 bb 9e aa 58 bb
       -0.0038262517 0.0031611063 -0.0039715837 -0.003306068
000030 d3 b8 4b bc d0 21 09 ba d4 6a 6e bb dd 46 b2 bb
       -0.012434202 -0.0005231174 -0.0036379592 -0.0054405765
000040 18 ac 1c bc 4a 33 25 bb 8e 10 d0 bb 00 83 b2 bb
       -0.009562515 -0.0025207573 -0.0063496297 -0.0054477453
000050 f3 8c 63 bb 09 38 86 3c 51 6f 1b bb 0a 71 8a bb
       -0.0034721463 0.016384142 -0.0023717473 -0.004224901
000060 88 ab 61 bb 2d 3f 4b bb 61 34 81 bb b5 a2 a8 bb
       -0.0034434516 -0.0031012997 -0.0039430116 -0.0051463493
000070 c3 f7 7a bb 83 04 02 bc 3e 53 af bb c9 81 d0 3b
       -0.003829465 -0.007935646 -0.0053504994 0.006363128
000080 05 5d a9 bb e3 b6 67 ba 82 5b e1 ba 82 3c 00 bc
       -0.0051685595 -0.0008839203 -0.0017193409 -0.007826926
000090 02 9d 37 3a 02 b4 75 bb 49 57 04 3a 80 91 aa bb
       0.0007004292 -0.0037491326 0.0005048407 -0.0052053332
0000a0 40 d6 35 3a 45 d3 1d ba 4e 1a 71 3c d3 d2 32 b9
       0.0006936528 -0.00060205563 0.014715744 -0.00017053941
0000b0 3b 3d ed bb 3f d5 94 bb c5 a7 30 bb 9d f2 03 bb
       -0.0072399653 -0.0045420225 -0.0026955467 -0.0020133622
0000c0 5c 64 32 ba 46 ee 01 3b 16 e7 14 ba 82 5f 9b ba
       -0.0006805116 0.001982586 -0.00056801864 -0.0011854025
0000d0 f2 02 9b bb 00 07 3d bb 1c 31 bc bb 00 7c 1b bc
       -0.0047305757 -0.0028843284 -0.005743159 -0.009490013
0000e0 d4 1e da ba 54 21 bd bb e6 04 ec 3a 10 18 fb ba
       -0.0016641268 -0.0057717953 0.0018006831 -0.0019156951
0000f0 a6 c9 71 bb 3e 3e 17 bb 56 f8 34 bb 07 ab a1 ba
       -0.0036893873 -0.002307787 -0.002761384 -0.0012334295
000100 6c 2e 1e bc 96 3f 8b bb f7 66 c0 b8 30 e8 47 bb
       -0.0096546225 -0.0042495234 -9.174452e-05 -0.0030503385
000110 2f 6b 7a bb 3a 64 7a ba 6a ec 6f 3a 20 06 6d bb
       -0.003821086 -0.0009551678 0.0009152355 -0.003616698
000120 f6 40 d4 39 b7 9d 85 bb 7b 43 b0 3b 25 a0 82 bb
       0.0004048419 -0.004077639 0.005379138 -0.003986376
000130 b6 b6 41 bb ab fc 42 bb 9c 1f 5f bb 0c 04 27 bb
       -0.0029558367 -0.0029752653 -0.003404594 -0.002548459
000140 5e 2d 16 bb 49 a3 d6 3b 02 a0 8e bb 89 3a 4e bc
       -0.0022915225 0.006550227 -0.0043525705 -0.012587198
000150 c3 67 f9 3b 4c 39 66 ba 80 ad 0e bc 9e 42 64 bc
       0.0076112463 -0.00087823416 -0.008708358 -0.013931898
000160 17 e3 32 bc 2b 53 8a b9 69 3a f8 ba 3e 5e 2f ba
       -0.0109184 -0.00026383376 -0.0018938306 -0.00066897634
000170 4d d0 bf bb 79 a9 ea bb d7 1e c4 bb 26 74 9e bb
       -0.005853689 -0.007161316 -0.0059851217 -0.0048356233
000180 9f 00 dc 3b 43 b9 a2 bb 89 1b 1d bc d4 b1 c1 ba
       0.006713941 -0.0049659326 -0.009589084 -0.0014777728
000190 1a 7c 2a bb f0 71 b0 bb c4 42 37 bb 10 b8 6c ba
       -0.0026013912 -0.005384676 -0.002796338 -0.0009030113
0001a0 54 a1 19 ba 16 bf 68 bb c5 48 0f ba 6c 91 7d bb
       -0.00058605266 -0.0035514287 -0.00054658606 -0.0038691415
0001b0 c8 00 9e 3a f5 83 c3 bb 7e 29 c5 ba 4f ca 7b bb
       0.0012054676 -0.0059666582 -0.0015042273 -0.0038420146
0001c0 26 b7 17 bc fd d8 25 ba 59 8d c4 bb 2c e6 99 37
       -0.009259975 -0.0006326584 -0.0059982953 1.8346203e-05
0001d0 43 2a 1b bb 20 40 0a 3b b8 57 c8 bb 5b ce 31 bb
       -0.0023676313 0.002109535 -0.0061139725 -0.0027131054
0001e0 a9 94 86 bb 8e 46 96 3a 90 4c 03 3b bb bc 84 bb
       -0.004107077 0.0011465119 0.0020034648 -0.0040508187
0001f0 0c 17 22 bc fd cd 5d bb b6 a3 b0 bb a0 2e 8f b6
       -0.00989319 -0.0033844702 -0.0053906096 -4.26716e-06

action_model._discrete_distribution.branches.0.weight f4 [3, 128]
000000 3a 84 25 3b 9e 5c ea b6 c5 b6 8e 3c 40 b1 33 3c
       0.0025255815 -6.9845255e-06 0.017421136 0.010967553
000010 31 24 3d 3c a5 37 90 ba 2e 81 8d 3a a5 df 4f bb
       0.011544273 -0.0011002911 0.0010795945 -0.0031718996
000020 55 33 74 3c 26 4c 44 3b a8 b5 f3 bb 9b ab 96 3b
       0.014904817 0.0029952615 -0.0074374266 0.0045980937
000030 ca 0a 86 3a c3 73 3f bc 22 8b e9 b9 7c 86 c4 3b
       0.0010226604 -0.011685315 -0.00044544885 0.005997477
000040 89 e4 ef 3b 60 17 11 bc 56 0e f4 b8 ad 8a 38 3b
       0.0073209447 -0.008855671 -0.00011637497 0.002815883
000050 9d c4 d3 bb 0d 74 70 3a 54 35 f9 bb a8 7c 02 bc
       -0.006462647 0.00091725664 -0.007605234 -0.007964291
000060 42 34 c8 ba 23 a1 1e bc e1 dc 01 3c fa 82 8f bb
       -0.0015274363 -0.009681973 0.007926197 -0.0043796273
000070 bf 48 01 bb 28 ca 49 3c 5d 2d 2c 3b a9 ff 82 bc
       -0.0019727198 0.012316264 0.0026272156 -0.015991049
000080 cb 83 11 3c a8 14 ed bb b5 1c 1f 3c da 7d a4 3a
       0.00888152 -0.0072351284 0.009711434 0.0012549714
000090 b0 92 46 bc 26 8c 8d 3c ff 40 bd bb 1d 59 00 bb
       -0.012119934 0.017278742 -0.0057755704 -0.0019584366
0000a0 a2 aa 26 bc fe df 9b 3b 97 ad 23 3b eb b5 16 bb
       -0.010172518 0.0047569266 0.0024975294 -0.0022996615
0000b0 30 54 2f 3c 99 fa f5 bb c9 e7 e0 ba 15 c1 97 bb
       0.010701224 -0.00750668 -0.0017158921 -0.0046311715
0000c0 47 fe 4d bc 54 6a 2f bc 16 21 c0 3a a1 25 c3 3c
       -0.0125728315 -0.010706503 0.0014658298 0.023821654
0000d0 6d e7 b7 38 34 31 45 3c 7d 7d db 3b 34 c9 8a 3b
       8.7692264e-05 0.012035657 0.006698309 0.004235411
0000e0 0c a2 5c bc 79 f8 14 3c 0e 68 92 bb 9e c3 dd bb
       -0.013466369 0.009092444 -0.0044679707 -0.006767704
0000f0 3d 15 e3 bb e3 8a aa 3b 11 de e0 bb af d8 34 3b
       -0.006930022 0.005204545 -0.00686241 0.0027594974
000100 08 1c ca 3b 58 49 cf 3b 8a 3a 71 bb d4 f2 23 bc
       0.0061678924 0.006325882 -0.0036808574 -0.010006625
000110 15 2c f8 3a b0 c5 a3 b9 bd 58 d6 bb bf 97 5f 3a
       0.0018934036 -0.0003123707 -0.00654134 0.0008529387
000120 89 2b 7c bc 92 40 c9 3b 51 25 2f 3b e4 94 ad bb
       -0.015391239 0.0061417306 0.0026725123 -0.00529729
000130 2b 07 86 bb 5a e1 14 bc 77 cd 90 3b fb 70 80 3c
       -0.00409021 -0.009086931 0.0044190246 0.015678873
000140 17 b2 4b bc 0a b0 b4 bc 2e 96 d2 bc 40 01 36 3c
       -0.012432597 -0.022056598 -0.025706377 0.011108696
000150 41 53 48 ba ab 23 8e bc 9c 51 04 3b fb d9 ec ba
       -0.00076418003 -0.017350992 0.0020190245 -0.0018070334
000160 5f d8 09 bb 14 c5 26 ba 43 fe 83 3b 27 ea 3d bc
       -0.0021033508 -0.00063617644 0.004028113 -0.011591471
000170 9e fe 07 3b 64 24 0b 3c c0 ef 82 3b f8 5f 01 bc
       0.002075113 0.008492563 0.0039958656 -0.007896416
000180 d2 93 f9 3b 26 f7 89 bb 60 f4 d5 bb d6 cb b8 3b
       0.0076164985 -0.0042103706 -0.006529376 0.0056395335
000190 af bc ba 3a dc 1a 3d bb 7a eb 84 3b 62 ec 33 3c
       0.0014246906 -0.002885512 0.0040563913 0.010981651
0001a0 08 c2 91 3b 87 12 f5 bb 1a a8 f6 3b b3 3f 62 bb
       0.004448179 -0.0074790153 0.0075273635 -0.003452283
0001b0 c2 01 15 3c 1a fd 79 3b 52 f8 86 bc 32 51 50 3b
       0.009094657 0.0038145245 -0.01647583 0.0031786677
0001c0 c1 20 86 bb c9 c3 27 bc 29 b8 b5 bb b1 d5 b1 3c
       -0.00409326 -0.01023955 -0.0055456352 0.021708341
0001d0 f6 55 e2 bc ae f1 12 bb f1 2c 3c bc 8e ff 8b bb
       -0.02762888 -0.0022421884 -0.011485324 -0.004272408
0001e0 21 b4 c5 3c cd 79 4e 3b 24 55 1a 3c 71 e0 4c 3c
       0.024133744 0.0031505704 0.009419713 0.012504683
0001f0 95 34 97 3b 51 eb db bb 11 39 39 3c 05 13 e7 3b
       0.0046144226 -0.0067114015 0.01130511 0.007051828
000200 26 87 bf bb 46 78 fa 3b fd 79 fe bb 53 42 99 39
       -0.0058449684 0.0076437322 -0.007766007 0.0002923185
000210 91 a5 94 bc e8 43 5f bc 46 54 aa 3b dc 14 45 bb
       -0.018145354 -0.01362703 0.0051980345 -0.0030072248
000220 1f 38 86 3c 4a bc 83 ba 2d 63 0a 3c a4 c5 35 bb
       0.016384182 -0.0010050621 0.008446497 -0.0027736211
000230 75 7b c8 bb f3 23 f7 bb 69 77 02 3c dd 65 93 bb
       -0.006118233 -0.0075421273 0.00796304 -0.004498227
000240 30 1f 96 bb ea 55 c2 bb 3b 7a db bb 35 eb 34 3b
       -0.0045813546 -0.005930652 -0.0066979206 0.0027606015
000250 5b da c4 bb db 7d 10 bd af 19 84 3b 41 f3 4d 3a
       -0.0060074753 -0.035276275 0.004031382 0.0007856377
000260 20 04 81 bb 1c 6d fd ba 54 6d b2 3b 30 97 8b bb
       -0.0039372593 -0.0019334885 0.005445162 -0.0042599663
000270 1a e9 0f bb 03 3f b0 bb 91 ff cd bb cc 18 93 3c
       -0.0021959008 -0.0053786053 -0.0062865694 0.01795616
000280 43 fd 53 bc 31 3a 23 3c af 79 58 3b 18 86 ac 3a
       -0.0129388 0.009962604 0.0033031513 0.0013162522
000290 67 8e 5a bb d5 05 8b bc ac e5 ca 3b d7 1e 57 bc
       -0.0033349039 -0.016970554 0.00619193 -0.013129911
0002a0 10 34 21 3c 39 69 28 3c 48 19 98 3d f7 b0 16 3c
       0.009839073 0.010278993 0.07426697 0.009197465
0002b0 5d ac c2 ba c0 34 83 bb da 70 13 3c d1 af 1e 3c
       -0.0014852394 -0.004004091 0.008999074 0.009685473
0002c0 1d 75 29 3c 9c 02 21 3c 90 02 32 3c b3 42 57 3a
       0.010342863 0.009827282 0.010864869 0.0008211538
0002d0 d4 b2 3e 3c 49 89 04 bc e9 5f b8 3a 5d 72 15 bb
       0.011639316 -0.008089372 0.0014066669 -0.0022803762
0002e0 24 9b 4d 3c d0 4b ab 3b 0d ff e5 3b 30 1f 75 3c
       0.012549195 0.0052275434 0.00701893 0.014961049
0002f0 0c 79 bf b9 f7 1f 8b bc 6d 6d 5b bc 79 c6 e4 3b
       -0.00036520546 -0.016983015 -0.013392788 0.0069816676
000300 8b 94 7b bc 45 da 2b bc d3 a5 5e bc fc af 51 bc
       -0.01535524 -0.010489051 -0.01358934 -0.012798306
000310 65 99 4c 3b 10 5f 65 bc 1c a6 70 3c 07 ed 25 bc
       0.003121936 -0.013999715 0.014688041 -0.0101273125
000320 6a b5 43 3a 06 21 de 3a b1 1e 91 3c ce 97 14 bb
       0.00074656925 0.0016947098 0.01771483 -0.002267349
000330 31 0a 83 3b 0b 0d 61 bc 19 4e 3d 3c c0 82 6a bb
       0.0039990176 -0.01373602 0.011554264 -0.00357835
000340 6d 97 b6 bc 29 f0 8f 3c 33 59 a2 bc 50 ca a7 3b
       -0.022289002 0.017570572 -0.019817924 0.005120553
000350 cc c6 d2 bc e3 af 24 bd 47 7a a2 39 f6 05 d0 bb
       -0.02572956 -0.0402068 0.00030990152 -0.006348367
000360 dd dd ac bb af 84 87 bb 04 90 cf 3b 31 f9 7f 3a
       -0.0052754716 -0.00413569 0.0063343067 0.00097646104
000370 49 f6 0e bc 17 ac 32 bc 5f 71 1c 3c 1a b1 da bb
       -0.008725711 -0.010905287 0.009548514 -0.006673944
000380 a6 4f 34 bd 95 a9 9d b9 f7 b7 18 3c e4 d6 16 bc
       -0.04402127 -0.00030071722 0.009321204 -0.009206507
000390 aa b6 1a 3c 89 ee 4f bc 0c 8b ca bb 1d 89 5b 3b
       0.009442965 -0.012691149 -0.0061811265 0.0033498474
0003a0 e9 f5 48 3c 3f aa a8 3b 6c b4 ac 3b 38 93 30 3c
       0.012265661 0.005147248 0.0052705314 0.010777287
0003b0 eb 88 50 3b 11 aa cf 39 66 67 c3 bb fd d3 c5 3b
       0.003181989 0.00039608826 -0.005963254 0.006037234
0003c0 0c 88 31 bb b4 a5 f4 3b 1d 6e 02 bc c5 1b a9 3c
       -0.0027089147 0.0074660424 -0.007960823 0.020643124
0003d0 fe 19 8a 3c 54 6a 19 3c 06 35 90 bc 47 14 da 3b
       0.016858097 0.0093637295 -0.017603409 0.0066552493
0003e0 ba 3c 3d 3b cc fd 40 bc c5 2c d8 bb d2 02 82 3c
       0.0028875307 -0.01177926 -0.006597134 0.015870485
0003f0 ba df 54 bb 1b 76 15 bb 24 a7 10 3b 28 62 8e 3c
       -0.0032481984 -0.0022805992 0.002207228 0.017380789

action_model._discrete_distribution.branches.0.bias f4 [3]
000000 2a d5 d6 ba 9b 0e 0a 3b 6b 49 b7 b9
       -0.0016390432 0.0021065834 -0.0003495918

action_model._discrete_distribution.branches.1.weight f4 [2, 128]
000000 ab 1e c0 bb e7 bc 86 bc af 23 00 bc 05 2c 33 3c
       -0.005863031 -0.016447498 -0.007821008 0.010935788
000010 48 f0 65 bc c7 d1 4f 3a 7e 6d 28 3c b3 43 97 bb
       -0.014034338 0.00079276826 0.010280011 -0.0046162247
000020 c9 e8 e8 3b 0a 7b 5a bc 89 69 df 3b f8 14 ff ba
       0.0071078283 -0.013334999 0.0068180007 -0.0019461205
000030 7e 71 26 bc df 3e 16 3c 5c a3 18 3c 5e ca 1a bb
       -0.010158895 0.009170263 0.009316292 -0.0023619155
000040 c1 c5 5b bc ed 4f 5f bb ff e6 d0 3b 60 91 41 3b
       -0.013413847 -0.003407474 0.006375193 0.0029536113
000050 09 f3 c5 bb c1 98 0e bb 9d cc 32 bc 37 ec e9 bb
       -0.006040935 -0.002175853 -0.010913041 -0.0071387547
000060 1e a0 cb bb f6 41 4d 3c 2b ef 07 3b d9 bc ce bb
       -0.006214156 0.012527933 0.002074192 -0.0063091335
000070 9a c5 47 bb a9 e7 69 ba 8f c2 cf 3a 7e 7b 58 3c
       -0.003048277 -0.00089227647 0.001585083 0.013213037
000080 cf 10 f8 3b 07 f7 4c 3b 3a ef 55 bc ba 9b 35 3c
       0.007570363 0.003127517 -0.013057524 0.011084491
000090 23 4f 7f bc 1f 2b f3 bb 95 ff cc bc 4f 24 8f bb
       -0.0155828325 -0.007420912 -0.025024215 -0.004368342
0000a0 21 fc 6a bc 0d cf 13 bc ae 5f 92 bc 56 6f 41 3c
       -0.014342339 -0.009021533 -0.01786789 0.01180633
0000b0 03 18 a4 38 c7 9f b4 b9 9d 7a 6b 3b 44 19 54 3c
       7.824602e-05 -0.0003445132 0.0035931238 0.012945477
0000c0 b1 66 c3 3b 21 7f 68 bc 52 64 86 bb 3a dc ad 3b
       0.0059631695 -0.014190466 -0.0041013146 0.005305794
0000d0 bb f0 7a 3b c0 36 9b bb 10 41 68 3b 80 ee 18 3a
       0.003829046 -0.0047367513 0.003543917 0.0005833879
0000e0 c8 8c a4 bb c1 41 11 bb 4e 89 39 bb e2 a7 aa 3a
       -0.0050216652 -0.0022164437 -0.00283106 0.0013020004
0000f0 f8 50 f0 bb b4 db 27 bc e9 07 40 bc 16 eb ab 3b
       -0.007333871 -0.010245252 -0.011720636 0.0052465303
000100 02 ed c1 3a 4c e3 46 3c 80 c7 b3 bb 53 82 7a 3c
       0.0014795365 0.012139153 -0.0054864287 0.015289861
000110 ce ec 0d 3c c0 ef 94 3b f3 c2 99 bc d4 24 d3 3b
       0.008662416 0.004545182 -0.018769717 0.0064435992
000120 02 5c b5 3a 67 dd 69 bb 97 a3 1e 3c a9 a0 4d 3c
       0.0013836625 -0.0035684945 0.009682558 0.012550511
000130 86 27 0b 3c 58 1d a2 3c f5 0a 98 bc 44 8b 1f 3c
       0.00849331 0.019789383 -0.018559912 0.009737793
000140 39 d7 a7 3b 55 d6 d2 3c ac 19 e9 3b e2 f4 d0 bb
       0.005122092 0.025736967 0.007113656 -0.0063768486
000150 9c ae 11 bc 9f d5 1e 3c 89 dc 42 3b 0b 73 3a bb
       -0.008891728 0.009694486 0.00297335 -0.0028449919
000160 92 b0 3a 3a 23 75 ea bb 34 f6 2c bb a0 36 ce bb
       0.0007121648 -0.007155077 -0.0026391866 -0.006293133
000170 5a 34 4d 3c e0 dc fe ba b2 1f 52 bb 75 6d 0f bc
       0.012524689 -0.0019444488 -0.003206235 -0.008754124
000180 1c 22 50 3b 0f 5d 3e 3c 85 f8 c0 39 e7 8b a9 bb
       0.0031758612 0.011618867 0.00036806255 -0.0051741484
000190 3b e9 7a bb 81 af e8 ba ed b2 91 3c fd e2 8a bb
       -0.003828599 -0.00177525 0.017785514 -0.004238485
0001a0 6a ed 8e 3a f7 b4 00 bb 77 32 5b 3c 39 bf 7d bc
       0.0010904495 -0.0019639113 0.013378731 -0.015487486
0001b0 e6 b5 7e 3b b6 76 8e 3a 8e 46 f9 bb 1a c3 c2 bb
       0.0038865744 0.0010869119 -0.0076072877 -0.005943668
0001c0 33 07 14 bc 50 e4 40 bb a3 dc 52 ba 1a 53 03 bc
       -0.00903492 -0.002943296 -0.00080437417 -0.008015418
0001d0 93 8c ec 3c e6 44 cc 3a 30 e9 e9 bc c1 5c 72 3c
       0.028875625 0.0015584498 -0.028553575 0.014792622
0001e0 ca e2 8b bc 73 fe 9d 3b 25 05 c7 3c 99 c1 e5 ba
       -0.017075915 0.0048215925 0.024294445 -0.001752901
0001f0 10 bc c3 3b 66 44 9a ba f1 67 7c 3c b1 0f 9b bb
       0.0059733465 -0.0011769652 0.015405641 -0.004732095
000200 e5 a3 24 bc 1a 0b 52 bb e6 31 84 bc 7e 54 25 bc
       -0.010048841 -0.0032050074 -0.016137075 -0.010090945
000210 75 44 1e bc 31 67 49 ba 8a b0 b2 3b d9 b8 8e 3b
       -0.009659876 -0.0007682918 0.005453174 0.0043555317
000220 5a 02 6f 3a 6e 32 fe 3a 3d d1 5b bb 5f 0b 6b bc
       0.0009117477 0.0019393691 -0.0033541464 -0.014345973
000230 40 dd cf bb db ae 56 bc b7 fd 5b 3a 30 8c ba ba
       -0.0063435137 -0.013103212 0.00083919935 -0.0014232453
000240 24 18 87 ba 69 df dd 3b f8 95 42 bb 22 2d e8 3a
       -0.0010306877 0.0067710173 -0.002969144 0.0017713646
000250 e9 54 bf bb 6f ba 81 3b bf d5 1c bc 61 09 25 3c
       -0.0058389795 0.003958992 -0.009572445 0.010073037
000260 90 2d 57 bc db 19 fb bb be ca 74 3a 5f f5 f2 bb
       -0.013133422 -0.0076629943 0.0009338072 -0.0074145044
000270 17 c5 9f 3b c4 88 02 bc 2d d5 88 3b e7 b7 12 3b
       0.00487579 -0.007967178 0.004175803 0.0022387446
000280 a1 35 8a 3b ab ac 96 3a 05 24 c5 ba 39 c3 20 3c
       0.004217819 0.0011495551 -0.0015040642 0.00981217
000290 6d 8a 92 3b f6 fe 1e bc 2a 9e 19 3b 90 73 91 bb
       0.004472068 -0.009704342 0.002344022 -0.004438825
0002a0 aa 7c 3d 3b ee 18 40 bc 00 63 19 3b e8 5d 8e 3c
       0.0028913417 -0.011724694 0.0023404956 0.017378762
0002b0 c2 a2 24 3b cd 39 22 bc 05 4a ca 3b 08 2c 00 3c
       0.0025121425 -0.009901476 0.0061733746 0.007822998
0002c0 61 7f 99 b9 7a 0b 2b bb 7e 6f d7 ba 2e 68 15 3c
       -0.0002927734 -0.002609937 -0.0016436426 0.009119077
0002d0 bc d3 41 3b 7b 4d cc 3b 0d d4 98 b9 02 6c 8d 3b
       0.0029575666 0.0062348223 -0.0002914969 0.004315854
0002e0 09 db fc ba 4c 5d 42 3b 4c b3 bb bb d6 0e 9e 3b
       -0.0019291352 0.002965766 -0.005728161 0.004823546
0002f0 81 02 29 3c ec f5 3e b9 20 7c e1 3a f1 69 ca ba
       0.010315538 -0.00018211425 0.001720313 -0.001544295
000300 43 91 eb ba a2 b8 23 3c de ec 08 3b 3a c1 82 3b
       -0.0017972369 0.00999275 0.0020893137 0.0039903196
000310 89 83 e1 3a 7d 4c 9f bc 47 87 dc 3a 2f aa 37 bc
       0.0017205338 -0.019445652 0.0016824984 -0.0112100085
000320 8b 40 fb bb ca ed cc 3a 5d 3f d0 3a e6 02 47 bc
       -0.007667606 0.0015634832 0.0015888024 -0.012146687
000330 01 86 55 38 81 75 d4 bb 12 e3 31 3c a5 73 87 bc
       5.090796e-05 -0.006483734 0.01085736 -0.016534636
000340 9d a0 91 ba fb ad 89 bb 54 eb bb 3a bd 9f ad bb
       -0.0011110489 -0.0042016483 0.0014337101 -0.0052985833
000350 ba 29 69 3a fb 28 90 bc 0a 96 92 3b 66 57 ab ba
       0.00088944624 -0.017597666 0.0044734525 -0.0013072311
000360 1a fe 7a 3b 42 a6 6e 3c 57 1e 29 ba bf 2c 83 3b
       0.003829843 0.014566006 -0.00064513594 0.004003137
000370 81 bb 91 3a 43 fe 2f bb c0 8a 17 bb c7 87 e3 3b
       0.0011118503 -0.0026854433 -0.0023123473 0.006943676
000380 c3 ec 6f 3c b8 02 40 bb 54 bb 1b bb 78 ee 70 3b
       0.014643851 -0.0029298496 -0.002376278 0.0036763232
000390 d2 c1 de 3b a1 0f aa 3c 2f 63 0b bb 40 b2 b4 bb
       0.0067980075 0.020759406 -0.0021268835 -0.005514413
0003a0 56 7f bd bb 94 07 30 3b 16 51 39 3c 25 58 ae 3c
       -0.005783002 0.0026859986 0.011310836 0.021282265
0003b0 bc f2 54 3c f8 75 05 3a cf bd 31 3c 0c c3 0b ba
       0.0129973255 0.0005091126 0.010848477 -0.00053314934
0003c0 f2 57 a2 bb e6 ed f5 3b 7b b3 16 bc c2 19 d8 bb
       -0.0049543316 0.0075051663 -0.009198065 -0.0065948674
0003d0 01 11 99 bc f7 42 38 ba 31 8b a9 3c 05 b1 b5 3c
       -0.018684866 -0.00070290215 0.020696254 0.022179136
0003e0 a0 f7 8e 3b 33 3e ad 3c 84 28 8d bb 79 35 82 bb
       0.0043630153 0.021147823 -0.0043078084 -0.0039736596
0003f0 c5 2a 71 3b 13 ab 6e bc 72 4d b2 bb 67 7a 07 3c
       0.0036799174 -0.014567154 -0.005441361 0.008268929

action_model._discrete_distribution.branches.1.bias f4 [2]
000000 4a 77 89 ba 42 77 89 3a
       -0.0010487821 0.0010487812

exp_avg f4 [128, 9]
000000 9f 11 81 39 44 f1 59 b9 0e 40 7c b6 8a 93 c1 b9
       0.00024617926 -0.00020784611 -3.758821e-06 -0.00036921754
000010 63 9a d7 b8 bb 0a 07 ba 89 06 e9 b8 8d 22 f8 b9
       -0.00010280756 -0.000515144 -0.00011111523 -0.00047327988
000020 56 90 97 b8 7c 98 b4 b9 b8 8f fa 38 47 77 21 b7
       -7.227126e-05 -0.00034445885 0.00011947699 -9.624119e-06
000030 60 f8 c0 ba 3f 20 ac 3a fc 70 97 ba 87 a5 a1 3a
       -0.0014722459 0.0013132169 -0.0011554058 0.0012332656
000040 7c 9c 62 ba 96 38 bb 3a 21 44 b7 38 08 fd 2d b8
       -0.0008644534 0.0014283832 8.73881e-05 -4.1482068e-05
000050 e0 4d fa 36 b2 5a 91 3a d9 8f 81 ba 62 0a 86 3a
       7.4596464e-06 0.0011089651 -0.0009884789 0.0010226483
000060 d4 83 5d ba bd 17 03 3a 9f be 89 ba 6e ba 52 b8
       -0.0008450125 0.00050007907 -0.001050908 -5.0241528e-05
000070 d8 65 e2 b6 80 41 28 36 ea 35 49 39 ce f6 11 b9
       -6.747181e-06 2.5072077e-06 0.00019188938 -0.0001392022
000080 e0 5d 79 38 6e 30 fa b8 7c ef 3e 39 53 39 e9 b8
       5.9453654e-05 -0.0001192995 0.00018209027 -0.00011120983
000090 f0 d3 aa b7 72 f6 02 39 62 b6 11 36 8f 33 62 3a
       -2.036427e-05 0.00012489574 2.1712845e-06 0.00086288986
0000a0 c8 c5 2e b9 20 27 80 3a 5c 31 1b b9 0d 04 33 3a
       -0.00016667612 0.0009777285 -0.0001480034 0.0006828912
0000b0 30 84 71 b9 4f 2e 20 b9 12 65 06 3a c6 4b 3d b6
       -0.00023032795 -0.0001527604 0.0005126755 -2.82073e-06
0000c0 d0 3b 1d b9 a8 5c 42 b8 cc bb d3 37 04 b0 80 38
       -0.00014994969 -4.6339497e-05 2.524061e-05 6.136301e-05
0000d0 d8 b6 bc b9 c0 f3 93 b7 f8 f8 cf 38 33 12 b5 b9
       -0.00035994384 -1.763727e-05 9.916903e-05 -0.0003453657
0000e0 7e 64 7e 36 64 8c 53 3b 76 ac f0 ba 14 bc 25 3b
       3.7907444e-06 0.0032279724 -0.0018361944 0.0025289105
0000f0 fb 5d cf ba 8a a9 c5 3a 5d 16 f1 ba 60 7a bc b9
       -0.0015820855 0.0015080434 -0.0018393506 -0.0003594933
000100 b0 45 d4 b6 6a 58 b7 b6 07 10 25 bb c0 d6 dc 3a
       -6.326205e-06 -5.4641177e-06 -0.0025186555 0.0016848668
000110 f8 0c 02 bb 67 45 da 3a 37 54 e9 ba 10 7c f4 3a
       -0.0019844156 0.0016652764 -0.0017801587 0.0018652696
000120 ca b7 90 b9 8a 1c e8 38 46 95 17 37 fc 9a c6 ba
       -0.00027602754 0.00011067938 9.035057e-06 -0.001515239
000130 d3 ad b5 3a 0e e5 33 ba 34 ca b1 3a 43 dd 60 ba
       0.0013861008 -0.000686244 0.001356429 -0.00085778924
000140 77 6d b8 3a 07 f3 04 39 4a b3 96 b8 3e 6e 1c 36
       0.0014070709 0.00012679036 -7.1859526e-05 2.330998e-06
000150 7c 28 f4 36 34 ec d6 38 fb 6e 47 39 92 76 d6 38
       7.2764797e-06 0.000102483114 0.00019019462 0.000102264006
000160 b0 86 60 38 61 9a 99 38 ea 60 3f 3a 45 35 b1 b9
       5.35312e-05 7.324364e-05 0.0007300513 -0.0003379976
000170 3e 25 28 37 28 86 25 3b 4c 71 ce ba ec 24 16 3b
       1.0022251e-05 0.0025256965 -0.0015750318 0.002291019
000180 4c d0 cb ba b6 a5 df 3a 32 09 ee ba 09 29 5d 39
       -0.0015549748 0.0017062936 -0.0018160699 0.00021091489
000190 66 f9 ca b9 ff b7 cf 36 e7 aa 9a 3a 08 af 2a ba
       -0.0003871426 6.1905007e-06 0.00118002 -0.0006511067
0001a0 b0 ea 87 3a 02 3c 1c ba d6 31 2d 3a c3 e8 3b ba
       0.0010369625 -0.00059598696 0.00066068524 -0.0007168168
0001b0 f8 93 89 37 71 b4 6c b9 b9 09 c1 37 83 10 d5 39
       1.6400576e-05 -0.00022573934 2.301192e-05 0.00040638828
0001c0 63 23 46 ba 08 38 23 3a 03 e6 0a ba 68 6c 06 b9
       -0.00075583736 0.0006226306 -0.00052985566 -0.0001281962
0001d0 54 1f 4d ba 98 2d 1e b9 e6 cf 3e 38 e6 35 31 37
       -0.00078247976 -0.00015085039 4.549315e-05 1.0562571e-05
0001e0 ba 13 74 ba 63 ed 08 3a 71 cd d3 b9 ff 69 17 3a
       -0.0009310801 0.00052233617 -0.00040398122 0.00057759875
0001f0 e4 4e 31 ba 70 62 0b 3a 9e e0 c7 36 20 60 56 38
       -0.000676377 0.00053170975 5.956811e-06 5.11111e-05
000200 de 0e 40 34 40 f4 4d b9 e1 3a c2 b8 49 9c d9 b9
       1.7886802e-07 -0.00019641314 -9.261608e-05 -0.00041505907
000210 48 b9 d9 b8 11 4e 91 b9 63 05 75 b8 6c ac b4 38
       -0.00010381878 -0.0002771472 -5.841757e-05 8.615185e-05
000220 fa 71 99 b8 73 b9 80 36 2c 96 25 b8 37 49 04 3a
       -7.316838e-05 3.8362864e-06 -3.9478924e-05 0.000504631
000230 52 9b 43 3a 15 c0 01 3a 48 80 1c 39 13 e1 c5 39
       0.0007461804 0.0004949582 0.00014925108 0.0003774246
000240 22 2e 8e b8 78 dc da 39 ba 89 a9 36 bc 2c 8e 3a
       -6.7796806e-05 0.00041744462 5.052626e-06 0.0010847072
000250 b9 dc 83 ba 62 14 51 3a c1 f1 5e ba 10 e8 0d 3a
       -0.0010060287 0.00079757546 -0.0008504652 0.0005413303
000260 af 4c 85 ba 8a 1a cf b9 c0 4b 13 39 b2 d3 1b 35
       -0.0010169948 -0.0003950189 0.00014047232 5.8050057e-07
000270 c1 e1 92 ba d3 16 76 3a 1e e5 33 ba e1 87 76 3a
       -0.0011206196 0.00093875563 -0.0006862449 0.0009404403
000280 d4 02 1f ba be df 84 3a 91 b6 c3 b9 ce 19 a1 39
       -0.000606579 0.0010137481 -0.0003732932 0.0003072754
000290 4b 95 ce b6 5c f9 5a bb 28 0e 1e 3b d4 99 31 bb
       -6.1566584e-06 -0.003341279 0.0024117325 -0.0027099745
0002a0 8b 7b 11 3b 00 1a 01 bb 65 3b 29 3b 57 46 53 b9
       0.0022198881 -0.0019699335 0.0025822755 -0.00020148732
0002b0 cb 4b 12 b8 16 98 97 b6 c0 1b d4 ba b0 b5 b5 3a
       -3.48797e-05 -4.517856e-06 -0.0016182587 0.0013863351
0002c0 5a ca 9c ba 1f 72 b3 3a 1e dc cb ba b0 ce c9 3a
       -0.0011962161 0.0013690627 -0.0015553271 0.0015396681
0002d0 6f af 82 b9 c8 0f 6f 39 64 f6 f6 b5 ae bc 8f 39
       -0.0002492624 0.00022798695 -1.8400137e-06 0.00027415663
0002e0 a4 be 12 b9 64 81 2c b8 ea fa 0e b9 fa 16 84 39
       -0.00013994664 -4.11285e-05 -0.00013635648 0.0002519412
0002f0 3d 54 cc b8 00 b2 0d 34 e0 33 a0 b8 c4 ab 1c b5
       -9.7431686e-05 1.3196404e-07 -7.639057e-05 -5.836448e-07
000300 98 77 78 36 a8 1a 80 38 b8 14 6f 37 98 68 7d 38
       3.7024492e-06 6.108481e-05 1.4250334e-05 6.041731e-05
000310 34 a8 41 b7 18 ab 8f 38 b6 ed 37 39 a2 ce 87 b9
       -1.1542859e-05 6.85064e-05 0.00017540794 -0.0002590316
000320 08 5d a5 36 f2 d2 84 ba d1 d1 30 3a 70 83 e2 b9
       4.9282135e-06 -0.0010133667 0.0006745132 -0.00043204008
000330 0a 1e 2a 3a 36 12 4a ba 80 a2 29 3a 1c a6 88 b8
       0.00064894615 -0.0007708402 0.0006471053 -6.5159256e-05
000340 d4 60 84 b7 28 55 cc 35 2b f7 a5 ba b1 82 8a 3a
       -1.5780715e-05 1.5223968e-06 -0.0012662163 0.0010567514
000350 66 10 14 ba 23 54 87 3a 88 99 4e ba 31 28 8b 3a
       -0.00056481955 0.0010324757 -0.00078811543 0.0010616836
000360 3a 2f 01 b6 a8 c6 2a 37 b3 41 e8 32 fc 8a cd b5
       -1.9249987e-06 1.0179043e-05 2.7038231e-08 -1.531414e-06
000370 8c 55 a4 b7 c9 40 1a b8 6e 50 a3 b7 d3 c6 33 b7
       -1.959016e-05 -3.6776797e-05 -1.9468567e-05 -1.0715524e-05
000380 e3 ab 68 b7 e1 40 78 39 14 8e 2f b9 6c e9 2b b5
       -1.3868298e-05 0.00023675292 -0.00016742229 -6.404214e-07
000390 01 4f 21 3b 8c 95 ac ba 4f 1c 0e 3b 6a 27 ab ba
       0.002461374 -0.0013167127 0.0021684354 -0.0013058011
0003a0 2b f2 02 3b 24 1d c6 ba 5b 1b c1 b8 21 4e 3c 39
       0.001998077 -0.0015114886 -9.2080525e-05 0.00017958182
0003b0 2d 2d f2 b6 a6 74 aa b7 13 26 95 b9 c6 7e 0a ba
       -7.217421e-06 -2.0319898e-05 -0.00028447862 -0.0005283173
0003c0 28 cb 94 b9 44 40 1c b9 d1 11 55 b9 d0 d2 58 38
       -0.00028380123 -0.0001490126 -0.000203199 5.1694748e-05
0003d0 67 ed 57 b8 17 89 91 35 d7 16 85 b6 de f1 68 b8
       -5.1481093e-05 1.084324e-06 -3.966368e-06 -5.5538367e-05
0003e0 e4 4d d8 b8 d8 63 68 b8 a2 07 f4 b7 a8 63 26 b8
       -0.00010314191 -5.5406097e-05 -2.9090621e-05 -3.9670296e-05
0003f0 a2 5a ed 37 0c e5 63 39 93 91 01 36 f4 d9 db 36
       2.8294806e-05 0.00021733734 1.9307233e-06 6.5520817e-06
