results/Player1z/MoveAgent2D/MoveAgent2D-499990.onnx (onnx, 80934 bytes, 9 tensors)

discrete_act_size_vector f4 [1, 2]
000000 00 00 40 40 00 00 00 40
       3.0 2.0

network_body._body_endoder.seq_layers.0.weight f4 [128, 9]
000000 55 e4 77 be 66 a7 b3 be 58 c3 16 bb 3f f3 60 3e
       -0.24208196 -0.35088652 -0.0023004618 0.21967791
000010 c8 11 37 3f da d4 d0 3d f6 37 92 3e 21 a6 07 be
       0.7151151 0.10196848 0.2855832 -0.13246967
000020 a7 52 b6 bd 07 11 fb bc 11 4a bf 3b b7 7f 90 3e
       -0.089024834 -0.030647768 0.005837687 0.2822244
000030 24 3f 33 be 7e 5e be be c0 b2 d9 be c4 cf d7 be
       -0.17504555 -0.37181467 -0.42519188 -0.421507
000040 84 17 10 3f b5 96 d7 be e2 40 f9 3e fd ac 3e be
       0.5628588 -0.42107168 0.48682314 -0.18620677
000050 d4 ca fc 3d 58 b6 60 3d 48 4c e5 3d 6c 51 ea be
       0.12343374 0.054861397 0.1119619 -0.45765245
000060 f1 8c a2 be cb e9 83 3e 48 eb d1 3c 98 3c 2a bf
       -0.31748155 0.25764307 0.025624886 -0.6649871
000070 b6 fd a4 3e e4 ac 25 be 03 1e ae 3e 83 43 35 bf
       0.32224816 -0.16179234 0.34007272 -0.7080614
000080 1a f6 99 3b ad 69 cf 3e fa 75 c8 be ed 36 d8 3e
       0.004698527 0.40510312 -0.3915251 0.42229405
000090 e6 83 8d 3c 9d 27 27 3f 51 0b 32 be 7b 4b 87 3e
       0.017274808 0.6529482 -0.1738713 0.26424775
0000a0 f4 cf 0b 3f c8 ef 21 3e 37 ad 1e be e9 80 42 bc
       0.54614186 0.15814126 -0.15495764 -0.011871555
0000b0 99 4d 2f bf 6c 5a 5e 3c f7 2f c4 be 44 f9 09 be
       -0.6847778 0.013571363 -0.38317844 -0.13473994
0000c0 e0 12 fa bd 42 ee 32 3e eb 99 1a be 9f b9 3c be
       -0.12210631 0.174737 -0.15097778 -0.18430184
0000d0 67 e0 c0 3d 24 46 16 be 6b 5f 4d 3e 48 b2 88 be
       0.09417801 -0.14675194 0.2005593 -0.26698518
0000e0 17 98 5b be 61 7d 46 3d 6b 4f 9a bc 94 40 8b 3e
       -0.21444736 0.048459414 -0.018836698 0.27197707
0000f0 f5 29 1d bf 3c 08 58 be a9 d6 66 3e eb 6b d4 be
       -0.61392146 -0.21096891 0.22542824 -0.41488585
000100 0d 4d 86 bd f7 90 e9 3c 32 37 03 bd 51 58 8e be
       -0.06557665 0.028511507 -0.03203506 -0.27801755
000110 67 af 27 3f bd d7 7f 3e 27 e6 91 3e cb 98 b5 bb
       0.6550202 0.24984641 0.28495905 -0.005541896
000120 d8 35 46 be 42 d5 c0 bb c5 42 0d bf 0c 07 b0 bd
       -0.19356477 -0.0058847973 -0.5518001 -0.08595094
000130 b6 46 95 be 31 f7 f6 3e 4b a9 ca 3e 1b 0c 33 3e
       -0.2915551 0.48235467 0.39582285 0.17485087
000140 3d 8e 82 3d 57 d0 f8 3d 9b 7c ab be 8c 07 e0 3d
       0.06374786 0.12149113 -0.33493504 0.109389395
000150 3d 62 93 be f5 3c f9 3e 06 c8 c0 be 57 4c c0 3d
       -0.28785887 0.4867932 -0.37652606 0.09389561
000160 08 e9 9c 3e 74 b7 7e 3e 18 7c 75 be da 08 d9 3e
       0.3064654 0.2487467 -0.2397312 0.42389566
000170 ae 03 c2 3d b2 95 86 3d 73 62 b4 3d 5f 86 c7 3e
       0.09473358 0.06571521 0.0880784 0.38969705
000180 38 5f 4a be 13 ad 5d bc 54 62 e0 3e 35 95 2a bd
       -0.19762886 -0.013530034 0.43825018 -0.0416462
000190 66 e9 a3 be fd 7c 22 be 21 31 64 bd ca 57 ac be
       -0.32014006 -0.15867992 -0.055710915 -0.33660728
0001a0 18 5c 3d be 86 76 79 be 51 9f 1b 3f 06 f9 df 3e
       -0.18492162 -0.2436162 0.6078997 0.43744677
0001b0 e6 f0 8f be 5b ba 20 be 57 4c e2 3e 04 25 e9 3e
       -0.28113478 -0.15696089 0.44198868 0.45536053
0001c0 3f 37 33 3d 80 a8 a0 be ea 4f 2f bf 57 78 99 be
       0.04375386 -0.31378555 -0.68481314 -0.29974625
0001d0 9c 8c c1 3e 2e ba 64 3e 5e 67 c7 3e bb de ef be
       0.3780259 0.22336647 0.3894605 -0.46849617
0001e0 6e 77 27 3f 12 5b ae 3e 39 46 f7 3c 9c 12 82 be
       0.6541661 0.34053856 0.030184852 -0.25404823
0001f0 9a 4a ab bd bf 0c e3 be 40 79 7b bd 0d 51 ed bd
       -0.083638385 -0.44345662 -0.06139493 -0.11587725
000200 ef d7 8e 3e 2b c9 bf 3e d6 f7 97 be b4 c9 1c 3d
       0.2789912 0.37458166 -0.2968127 0.038278297
000210 46 79 68 3f c0 d6 03 3d 1b 0e 57 3e c4 2f 46 be
       0.9081005 0.032187223 0.21001475 -0.19354159
000220 03 b1 46 bf 87 89 24 be 70 e2 12 bf a9 d2 57 be
       -0.7761385 -0.16068088 -0.57376766 -0.21076454
000230 e7 57 ba 3e f5 4d 10 3e 73 63 0a 3f 1e 89 11 3f
       0.3639519 0.14092238 0.54058 0.5684985
000240 78 f1 cb be 64 e2 9f be fd 65 83 3e 3d f8 8d be
       -0.39832664 -0.3122741 0.25663748 -0.27728453
000250 27 8b 0b bf 15 cf f2 3e 4f b0 99 be fb 82 a7 3e
       -0.54509205 0.47423616 -0.30017325 0.32717118
000260 f2 ef db be d7 d6 2a be c7 13 90 be 88 ae 03 bf
       -0.429565 -0.16683517 -0.2814009 -0.5143819
000270 40 4c d6 3e a8 09 a8 3d 3e a7 12 3f 22 be 34 3d
       0.4185505 0.08204967 0.5728644 0.044126637
000280 01 12 93 3e 9d 5f d2 3e 5a 8b b0 be 1b 19 55 be
       0.28724673 0.41088572 -0.34481317 -0.20810358
000290 1a 4a 24 bd 5e ef d4 be 6a f1 4c 3d 0c 24 3b 3e
       -0.04010973 -0.41588873 0.050034918 0.1827547
0002a0 7d 55 a1 be ac 31 e4 3b 28 11 08 bf 94 8a 12 be
       -0.31510535 0.006963929 -0.5315118 -0.14310676
0002b0 31 5c 6a 3e 09 75 f9 3c ec 23 a7 3e 80 a6 98 bd
       0.2288673 0.030451315 0.32644594 -0.07453632
0002c0 fb 60 24 be ac 21 fc bb f4 b4 3c 3d 3f 7d 54 bd
       -0.1605262 -0.0076944437 0.046071008 -0.051877256
0002d0 e6 76 1e 3f 33 3b 18 3c fb 6f a6 3d 08 b1 6d be
       0.61900175 0.009291458 0.08126827 -0.23212063
0002e0 d0 2a 05 3f b2 86 96 3e 6e 91 4d 3e 3d 8a 8c 3e
       0.5201845 0.2939964 0.20075008 0.27449217
0002f0 61 83 b3 3d 85 50 91 be c4 ae 35 bd a0 96 fc be
       0.08765293 -0.28381744 -0.044356123 -0.49333668
000300 22 fe 43 3d 75 c2 e6 bb 0b d5 94 be f5 df 84 be
       0.04784978 -0.007042224 -0.2906879 -0.25952116
000310 76 d6 14 bf 51 d4 08 be ba 63 0b bd 3e 41 80 3e
       -0.5813974 -0.13362242 -0.034030654 0.25049776
000320 43 ce 3d be 37 c6 55 be db a6 82 3d 87 9f ec 3e
       -0.18535714 -0.20876394 0.063794814 0.4621546
000330 49 25 94 3e 58 1a 96 3e 13 70 2c 3e 8d fa 0c bf
       0.28934696 0.29316974 0.16839628 -0.5506981
000340 4d 97 19 bf aa c1 b4 3d 62 dc b1 3e 0e 8b 25 3e
       -0.5999649 0.08826001 0.3473845 0.16166326
000350 75 ea 23 3f b3 a5 c3 3d b3 b6 82 3d 8d ff 57 3f
       0.6402963 0.09553089 0.06382503 0.84374315
000360 cd f6 14 3b 76 d7 f6 bd 21 53 5a 3e 29 f0 4b be
       0.0022730113 -0.12052815 0.21320774 -0.19915833
000370 4d 21 8e 3e e6 43 c0 bd 08 0d 55 be 20 e4 bd bd
       0.2775978 -0.093879506 -0.20805752 -0.09272027
000380 8d 43 fe 3d 71 41 c7 3a 1b 4b cb 3d 47 83 61 be
       0.12415228 0.0015201998 0.099264346 -0.22022735
000390 3c c5 66 3f 3c 7f 33 be 2a f3 2b 3e 83 48 83 bd
       0.90144706 -0.17529005 0.16791978 -0.06410315
0003a0 bf 72 ec bc 75 99 bd 3e 00 7f 10 bc 55 4b 89 be
       -0.028863309 0.3703114 -0.008819342 -0.26815286
0003b0 48 bd 36 be fa 2d 99 3d 7f 9e 32 bf c5 79 9f 3d
       -0.17845643 0.074794725 -0.69773096 0.077868976
0003c0 83 02 2b 3f b3 1a b1 be 95 6e 80 3e 31 ef ba be
       0.6680071 -0.34590682 0.25084367 -0.36510614
0003d0 a6 cc 4d be c8 e8 0d 3e ca fb a0 be ad 6a 3f be
       -0.20097598 0.1385833 -0.314421 -0.18693037
0003e0 d2 a4 f4 bc 64 cb 95 3d 7a 90 32 3d 06 d3 ea 3e
       -0.029863749 0.07314184 0.043594815 0.45864123
0003f0 c0 4e d4 3d 94 44 5b 3e 0d 9f be be 9a a6 a4 be
       0.10366583 0.21412879 -0.3723072 -0.32158357

network_body._body_endoder.seq_layers.0.bias f4 [128]
000000 39 c8 26 bc e7 5d a9 bb 65 af 88 bb 28 ed 2d 3c
       -0.010179573 -0.0051686647 -0.0041712993 0.0106156245
000010 0d ff 0f bb 71 a2 85 3b c1 4e aa 3b 8e f8 1c bc
       -0.002197209 0.0040782024 0.0051973765 -0.009580744
000020 0a 1f 6d 3a 7b 17 58 bb c2 0c 11 bc c6 8a 8f 3b
       0.00090454577 -0.003297298 -0.008853139 0.0043805568
000030 c2 6e 50 bb a1 d3 2a 3a 13 35 a7 3b 54 6f d6 bb
       -0.0031804298 0.00065165205 0.0051027625 -0.006544033
000040 0d 01 b4 bb 0e 39 e0 bb 06 84 35 bb 8b 42 c9 ba
       -0.0054932893 -0.006842739 -0.00276971 -0.0015354914
000050 1f d9 02 3a 66 3a ac bb 55 b6 8c bb a9 2e a0 bb
       0.000499146 -0.005255985 -0.0042941966 -0.004888375
000060 6f 5d 89 bb 8b 02 82 bb 30 2b a5 ba 83 cc 0a 3c
       -0.0041920464 -0.0039675883 -0.0012601372 0.008471611
000070 f1 e6 8e 3a 14 67 5a bc 85 16 a7 3b e7 12 ec bb
       0.0010902566 -0.01333024 0.00509912 -0.007204402
000080 c8 fa 3b 3b 89 a3 b6 bb 5f 56 85 bc e3 e8 ef ba
       0.0028683413 -0.005573694 -0.016276537 -0.0018303659
000090 31 7f 02 bc 68 5d c7 bb 5f ba 39 bc 73 99 e4 bb
       -0.007964895 -0.006084133 -0.011335938 -0.0069763004
0000a0 16 e6 b9 3a 06 d1 80 3a c7 69 8f 3a a0 e1 f7 3b
       0.0014182951 0.0009827919 0.0010941558 0.0075647384
0000b0 8d 6c 88 b9 42 7e 1a bb 7c 19 c4 3b 4b 42 f6 3c
       -0.00026020818 -0.002357379 0.0059844833 0.030060908
0000c0 67 ca a5 bb 06 3c aa ba 79 be 3b bb e4 98 47 bc
       -0.0050595286 -0.0012987859 -0.0028647466 -0.012182448
0000d0 b2 1c a5 bb 02 c0 b4 bb ac 04 9e bb 35 f2 92 ba
       -0.005038821 -0.005516053 -0.0048223343 -0.0011211099
0000e0 ba 34 37 bb 52 cd 1a bb 57 5d 78 3b fe 33 04 39
       -0.0027955011 -0.0023620916 0.0037897432 0.0001260787
0000f0 7f 86 91 bb e2 9e 82 bb 98 cf ed bb f2 18 6f bc
       -0.004441082 -0.0039862255 -0.007257413 -0.01459335
000100 ac 00 59 bc 52 70 af 3b 9f 22 19 3a 95 3b fc 3b
       -0.013244789 0.005353966 0.0005841646 0.0076975324
000110 22 43 91 bc e7 c3 c4 ba a5 c0 e0 bb 33 12 e2 bb
       -0.017732207 -0.0015011997 -0.0068589025 -0.006899142
000120 29 3c fe bb f6 32 72 3b db 45 11 bc bd 9f 71 ba
       -0.0077586365 0.0036956645 -0.0088667525 -0.0009217223
000130 8c c2 9f bb f8 ec 98 bb 94 6e dd bb 54 8f 1e 3b
       -0.0048754867 -0.0046669208 -0.0067575667 0.0024194317
000140 93 86 a5 bb 02 36 05 bc 39 f2 40 3c b0 88 1b bb
       -0.005051443 -0.008130552 0.0117765 -0.0023732595
000150 ab 8b 2f bc 59 c1 0e bc 0a 73 17 bc 34 f8 08 3a
       -0.010714452 -0.00871309 -0.009243736 0.00052249734
000160 aa ea 1a bc 5a 2f 48 bb b9 63 b0 bb 3e 76 7e bb
       -0.009455362 -0.0030545802 -0.0053829816 -0.0038827802
000170 22 19 d3 3a cf 9d fd 3a 8d 9a a9 bb 5c 23 c7 3c
       0.0016105513 0.0019349399 -0.0051758946 0.024308853
000180 4c 9c 73 ba ed 02 68 bc 12 1f 2c 3a b0 5c 5d bb
       -0.00092930044 -0.014160854 0.0006565909 -0.003377717
000190 2f ce 9d ba 42 74 19 3b d9 32 2d bc 19 80 b3 bb
       -0.0012039597 0.0023415242 -0.010571205 -0.005477917
0001a0 14 e0 1b bc ba 4a ad 39 98 e9 93 bb b7 68 52 bb
       -0.009513874 0.00033052807 -0.0045139305 -0.0032105872
0001b0 e2 a1 3a 3a 0a 14 cd b8 91 58 1b bc ba 0a fd ba
       0.00071194593 -9.778894e-05 -0.009481565 -0.0019305565
0001c0 1e ff 3c bc 6b fd d2 3b 34 f4 49 3a 7f f4 57 bc
       -0.011535434 0.006438901 0.00077039306 -0.013180851
0001d0 37 5f b0 bb 72 87 c4 3b 42 7f a5 bb 4d 46 2a 3c
       -0.0053824442 0.0059975917 -0.0050505707 0.010392738
0001e0 09 e7 87 3c 40 f3 f8 b8 27 f3 a8 bb 12 c8 a0 bb
       0.016589658 -0.000118708704 -0.005155939 -0.0049066627
0001f0 ab c8 f5 39 9a ae 0d 3c c5 eb 00 bc bc 9d b1 ba
       0.0004687955 0.008647585 -0.007868712 -0.0013551037

network_body._body_endoder.seq_layers.2.weight f4 [128, 128]
000000 9a 11 70 3d 0a 32 c4 3c 24 5c 17 be f4 c1 97 3d
       0.058610536 0.023949642 -0.14781243 0.074100405
000010 15 d4 86 3d a5 05 4f bd 9f 04 01 be f2 41 2a be
       0.0658342 -0.050542492 -0.12599419 -0.16626719
000020 5b 8b f5 3d ec 09 f1 3c 0a 0a d3 3c 58 8c 22 bd
       0.119894706 0.029423676 0.025761623 -0.039684623
000030 db 27 44 be c3 a3 f8 3d ca 39 bf 3d cb 9d ac 3c
       -0.19155829 0.1214061 0.09337194 0.021071335
000040 b6 24 6c bd b0 ab a7 3d a3 b7 9a 3d 0b 22 e9 bc
       -0.057652198 0.08187044 0.07554557 -0.028458616
000050 0e 4e b0 bd 6b 9f 3b 3d 28 6d 72 bc 10 82 47 bb
       -0.08608638 0.04580633 -0.014796533 -0.0030442514
000060 14 f7 cf 3c 19 7b 73 3d a5 21 63 3d bf 54 40 3d
       0.02538637 0.059443567 0.055452008 0.04695582
000070 54 c3 72 3d 1c 92 3b 3d 6b 7c 02 3e e7 c9 c3 bd
       0.05926831 0.045793638 0.12742774 -0.09559994
000080 51 99 a3 bd 90 8d 72 bd 8d e5 0c 3d cf 02 29 bd
       -0.07988227 -0.059217036 0.034398604 -0.041262444
000090 cc 8f 04 be fb fd 38 bd 85 6d 89 bd 00 9e 0a bb
       -0.12945479 -0.04516409 -0.06710342 -0.0021151304
0000a0 47 67 bc bd 58 11 c7 bc f6 db 00 3e f4 eb 73 bd
       -0.09199386 -0.024300262 0.12583908 -0.059551194
0000b0 f1 96 07 3e 20 8f 1b 3e 7f 3c dc 3d 39 97 13 3a
       0.13241173 0.15191317 0.10753726 0.0005630139
0000c0 68 78 12 bd 58 ab a0 bd 7c f9 96 bd 07 30 67 3b
       -0.03575936 -0.07845181 -0.07371804 0.003527643
0000d0 d3 c2 0a be f2 80 d4 bb a5 29 f8 3c a3 b8 95 bd
       -0.13550882 -0.006485098 0.030293295 -0.07310607
0000e0 f7 0f db 3d 01 7f fe bd 3a d2 cd bc a3 11 01 3d
       0.106964044 -0.12426568 -0.025124658 0.03151096
0000f0 ac 21 42 bc f1 84 6e 3c b4 93 93 bd b7 df 89 3d
       -0.011848848 0.014558063 -0.072059065 0.06732123
000100 e9 bf 27 3e 6e 57 17 3e 4c c0 f0 3d e8 88 97 bd
       0.16381802 0.14779446 0.11755428 -0.0739916
000110 9d 62 84 be 9f 9e 88 3d 39 bc dc bb 2c 85 a7 bb
       -0.25856486 0.066708796 -0.006736305 -0.005112311
000120 c2 87 c2 3c 06 dd 5b 3e 8e 0e b2 3d 10 80 ec bd
       0.023746375 0.21471033 0.08694182 -0.115478635
000130 fd a2 82 bc 56 1a 5c 3d ac 76 60 3d 71 ae 19 3e
       -0.01594686 0.053736053 0.054800674 0.1500795
000140 3e e7 23 be a7 44 61 bd 94 03 c3 bc e2 4a 64 3d
       -0.1600618 -0.054997113 -0.023805417 0.055735476
000150 aa c6 2a be 1a 78 70 bd da 44 c5 3c ba e7 21 3d
       -0.16677347 -0.058708288 0.024080683 0.039527632
000160 d3 73 0a bc e6 e5 be bb ee 66 26 bd 42 94 e5 bd
       -0.008450466 -0.005825746 -0.040625505 -0.112099186
000170 d0 a7 80 3d fc 97 ee 3d 5c d7 a3 3c 8a cb 73 3d
       0.06282008 0.116500825 0.020000152 0.05952028
000180 3f 58 b4 bc 96 be 05 be 42 cd 07 3e 6f c4 05 3e
       -0.022014735 -0.13060984 0.13261893 0.13063215
000190 63 7a 37 be f6 40 36 3c f8 85 d1 3d 0c 1e 18 3d
       -0.1791778 0.011123886 0.10230631 0.03713803
0001a0 f0 d3 72 3d a2 f4 32 3d 4a 56 a4 bc 65 07 21 bd
       0.05928415 0.04369033 -0.020060677 -0.039313693
0001b0 39 22 17 3e 55 6f 01 be b3 be c5 3d 70 61 e8 3b
       0.14759149 -0.12640126 0.096555136 0.0070916936
0001c0 a9 64 1b be 97 ba 8e 3c e2 0b 16 bd ec 46 03 3e
       -0.15175118 0.017422957 -0.036632426 0.12820023
0001d0 a4 3f 73 be 86 e0 9c 3d 4d 21 ae bd 73 5e 32 bc
       -0.23754746 0.07660012 -0.08502445 -0.010886776
0001e0 32 ca 21 be ab da aa bd 10 02 83 3d af 8f e7 3c
       -0.15799788 -0.08342489 0.06396878 0.028266756
0001f0 ff 43 6b 3e 1d 6f 15 be 18 de 06 3d aa 4a 21 bc
       0.22975157 -0.14593168 0.03292665 -0.009844461
000200 66 eb ce bb 85 98 cb 3d 4d 5b 35 3d e1 9d 88 3d
       -0.006314683 0.099412 0.044276524 0.06670738
000210 18 80 1b 3e e1 37 b0 bd ff b2 5a 3d 5e 6d b7 3d
       0.15185583 -0.08604408 0.05339336 0.08956407
000220 2e 7f fb bc ab 51 9c 3b c7 b7 75 3d 02 be 9c 3d
       -0.030700292 0.004770478 0.059989717 0.076534286
000230 61 74 78 3d 0b a5 19 3e 06 ca 4d bd 73 4e ce bc
       0.060657863 0.15004365 -0.050241493 -0.025183892
000240 d3 56 32 3e a5 43 d1 3d 9c d5 a3 bd ad 82 09 be
       0.17415933 0.1021798 -0.07999727 -0.13428755
000250 24 01 ef 3b b8 56 3a bc e9 8f 2d be 5e bf 95 3d
       0.007293837 -0.011373214 -0.16949429 0.07311891
000260 e5 0d 85 3d a8 6c 45 3d 85 09 ab bb 8d 1c da bc
       0.06496791 0.048199326 -0.0052196407 -0.026624942
000270 f5 e3 d2 3c 60 40 1a 3e c2 29 e7 3c fc 14 b1 3c
       0.025743464 0.1506362 0.028218154 0.021616451
000280 e8 99 f8 3d 1b 85 f0 bd e6 90 ef 3d c6 fc 01 3e
       0.1213873 -0.11744138 0.11697559 0.12694082
000290 b1 7a 12 be e9 a5 38 3e 2a 85 bc bd 9d 04 79 bd
       -0.14304616 0.1803204 -0.092050865 -0.060795415
0002a0 94 03 ce 3c e8 3a 99 3d 6a 7d 28 3b e2 46 ce bd
       0.02514819 0.074819386 0.0025709518 -0.100721136
0002b0 b3 70 54 3d ba f4 8e 3d 1e d0 97 3c 86 8e 68 be
       0.05186529 0.06980272 0.018531855 -0.22710618
0002c0 97 6e 4a 3e 51 b4 cd bc 1d d3 bf bd 60 b7 64 3e
       0.19768749 -0.025110396 -0.093664385 0.22335577
0002d0 e9 a9 1d 3e 95 81 bf bd b7 fd a6 bd c6 23 31 bd
       0.15396847 -0.09350888 -0.08153861 -0.043247007
0002e0 d6 65 9f bd 6e a4 81 bc 2a f5 70 3d 98 43 db bc
       -0.077830955 -0.015825476 0.058827557 -0.02676563
0002f0 12 57 ce bd 4b 8e a0 3b 4f 61 6a 3d ad 0a 7e bd
       -0.10075201 0.004899775 0.057221707 -0.0620219
000300 c4 7e 67 3c 74 df 2d 3e e1 ce 91 3d d0 18 b7 3d
       0.014129344 0.16979772 0.07119537 0.089402795
000310 c2 1d 15 be 32 64 aa bc f4 1f 6d bd 76 27 fb bd
       -0.14562133 -0.02079973 -0.0578918 -0.12263386
000320 b7 bd db 3d c9 fe f2 bd 04 00 53 3d 68 50 59 bd
       0.107295446 -0.11865003 0.051513687 -0.053055197
000330 fd c4 9e bd d2 45 2d bd d3 d2 85 3d 8f b9 a9 3d
       -0.07752416 -0.042302914 0.06534352 0.082873456
000340 bb 3c 98 3d 6a 03 81 bd c4 02 2b bc a2 0c 77 bd
       0.074334584 -0.06299479 -0.010437671 -0.060314782
000350 f7 eb d0 bc 44 e4 ad bd 8d 15 57 bd c5 c7 92 3d
       -0.025503142 -0.08490804 -0.052510787 0.07167009
000360 cc 9d 73 3c 43 29 a9 3d 80 49 0c be a7 fa 80 bc
       0.014869165 0.08259823 -0.13699913 -0.01574452
000370 d1 f1 6e bd f1 53 19 bd 19 4c 58 bd d4 5e c7 3d
       -0.058336083 -0.03743357 -0.052806947 0.09734884
000380 ef 18 c0 bc 33 c5 c7 3c 64 69 82 3d 79 de a7 3d
       -0.02344939 0.024386024 0.06367758 0.0819673
000390 a1 de 14 bc 33 fd 95 3e fa 44 63 3c a0 e1 d4 bd
       -0.009086282 0.29294738 0.013871426 -0.10394597
0003a0 17 f8 24 3d c3 57 12 be bf d9 89 bd 3d d3 36 be
       0.04027566 -0.14291291 -0.06730985 -0.17854019
0003b0 50 c6 ac 3d ca c5 6d bd bf 1f 3c be e5 d8 22 bd
       0.084362626 -0.058049954 -0.18371485 -0.039757628
0003c0 17 ad 61 bd 5b 9d 0f be 12 e1 46 bd cb 85 a7 bd
       -0.055096712 -0.1402487 -0.048554488 -0.08179816
0003d0 da 73 0e bd a0 69 a0 3d 39 1e 22 3e 13 87 3d bd
       -0.034778453 0.07832646 0.15831842 -0.046271395
0003e0 c2 a1 89 3c 87 59 d9 bd 45 bd 3a bd 50 7e 35 3e
       0.016800765 -0.10612779 -0.045590658 0.17723966
0003f0 fc 8a de 3c 51 41 b8 3c b4 6a 75 bc a8 00 fb bd
       0.027165882 0.022492083 -0.014979053 -0.122559845

network_body._body_endoder.seq_layers.2.bias f4 [128]
000000 52 6e 26 3b 79 e8 1d bb 2f 60 0b bb 01 12 3c 3b
       0.0025395346 -0.0024094863 -0.0021267047 0.0028697255
000010 13 90 2a bb 27 6c 65 bb b8 1a fa ba a7 3e d8 ba
       -0.0026025816 -0.003500709 -0.0019081449 -0.0016498164
000020 e2 ab 86 bb 2c 72 28 3b 08 2f 70 bb a4 cf 66 bb
       -0.0041098455 0.0025702817 -0.0036649127 -0.0035218978
000030 eb d9 2a bc 91 4a 38 3a 35 65 a5 bb 12 8a a2 bb
       -0.010427932 0.0007030154 -0.005047465 -0.004960307
000040 6e 2b 04 bc 8d b8 2e bb 14 65 cc bb 5a cf bd bb
       -0.008066995 -0.0026660294 -0.0062376354 -0.0057925405
000050 f3 8c 63 bb 56 9a 58 3c f4 a2 14 bb 25 28 80 bb
       -0.0034721463 0.01322039 -0.0022680135 -0.0039110356
000060 db 33 9c bb ab 39 9c bb fe 37 5f bb fa d5 ba bb
       -0.004766924 -0.0047676167 -0.0034060474 -0.0057017775
000070 d0 61 73 bb 4a ee c3 bb b7 cb a4 bb e5 32 df 3a
       -0.0037137158 -0.005979334 -0.0050291675 0.0017028718
000080 eb 8a 99 bb 08 ea ac b8 61 30 2e 3a 25 24 00 bc
       -0.0046857498 -8.245191e-05 0.0006644782 -0.0078211175
000090 2f c9 b4 3a d3 e3 72 bb 22 74 7c 3a 05 bc 9f bb
       0.0013792868 -0.0037062063 0.0009630342 -0.0048747086
0000a0 6f d3 b0 3a 89 e1 e5 ba 56 65 80 3c b3 1c e0 b9
       0.0013490746 -0.0017538528 0.01567332 -0.00042745992
0000b0 31 b8 ee bb ac 66 8f bb 3d 0c 3d bb 9e 9c 56 bb
       -0.007285141 -0.004376253 -0.0028846406 -0.003274716
0000c0 72 98 e5 ba 06 f0 fd 3a a9 8c 49 ba a8 14 0e bb
       -0.0017516746 0.0019373901 -0.00076885015 -0.0021679793
0000d0 60 50 cb bb ec 59 81 bb bd d4 bd bb 20 0f 18 bc
       -0.00620465 -0.003947487 -0.0057931826 -0.00928095
0000e0 56 04 d2 ba ac 3f bd bb 7f 31 05 3a 64 cf fa ba
       -0.0016023021 -0.0057754125 0.0005080923 -0.0019135294
0000f0 a6 c9 71 bb 41 58 88 ba 50 ae 34 bb c9 82 44 bb
       -0.0036893873 -0.0010402278 -0.0027569719 -0.002998518
000100 19 2d 0a bc f2 12 2b bb 68 01 35 b9 80 1b 48 bb
       -0.008433604 -0.0026103822 -0.00017262029 -0.003053397
000110 0a 76 8e bb ae 07 77 ba 6b 3a db 3a 10 a7 81 bb
       -0.0043475674 -0.00094234466 0.0016725784 -0.003956683
000120 98 d0 dd b9 43 5f 2e bb 14 5f 8a 3b 26 c6 9c bb
       -0.0004230782 -0.0026607073 0.00422276 -0.0047843633
000130 58 ea 76 bb fa a7 68 bb bf 9c 39 bb c3 e7 1f bb
       -0.00376763 -0.0035500512 -0.0028322188 -0.0024399615
000140 a7 a7 07 bb 5f dd c7 3b 53 17 a4 bb 0b b0 29 bc
       -0.0020699294 0.0060993875 -0.0050076633 -0.010356913
000150 62 85 98 3b 7c e0 f4 ba da 87 bc bb 43 ff 60 bc
       0.0046545723 -0.0018682624 -0.0057534995 -0.013732734
000160 51 94 2e bc de ed f4 39 60 8f af ba b6 6a 32 ba
       -0.010655479 0.00046716532 -0.001339417 -0.00068060623
000170 a9 ad b9 bb af 58 c4 bb 79 95 b2 bb 6d 49 8b bb
       -0.005666454 -0.005992017 -0.0054499474 -0.0042506964
000180 4a 20 83 3b 43 b9 a2 bb 0a 05 23 bc 87 ac ac 3a
       0.004001652 -0.0049659326 -0.009949932 0.0013173976
000190 f9 e2 17 bb 89 2b ac bb 53 44 34 bb 10 b8 6c ba
       -0.0023176058 -0.005254213 -0.0027506545 -0.0009030113
0001a0 79 5e 1f ba 9f ff 7d bb ac 03 0f ba f5 1f 8b bb
       -0.0006079446 -0.0038757098 -0.0005455564 -0.004245753
0001b0 2f 9a 32 3b 67 29 ca bb d0 30 c5 ba 4c d4 53 bb
       0.0027252545 -0.0061694863 -0.0015044454 -0.0032322584
0001c0 17 48 03 bc f4 84 2b ba c6 09 ce bb a3 6f 02 3a
       -0.008012793 -0.0006542944 -0.006287786 0.00049757416
0001d0 16 f7 2d bb 8b ac 7c b9 16 77 c3 bb 31 42 21 bb
       -0.002654498 -0.0002409687 -0.005965124 -0.0024606104
0001e0 42 da 34 bb c1 fc 46 3b 6c 79 03 3b 2a 3f 84 bb
       -0.0027595912 0.0030363055 0.0020061387 -0.00403585
0001f0 7f 25 0b bc 5d 07 8d bb 29 ad b9 bb 1a 23 0f 3a
       -0.0084928265 -0.0043038563 -0.0056663943 0.00054602476

action_model._discrete_distribution.branches.0.weight f4 [3, 128]
000000 70 95 45 3b 89 2d a9 38 00 47 8d 3c 38 6e 54 3c
       0.0030148886 8.0670296e-05 0.01724577 0.012965731
000010 d9 fd 3b 3c ee 56 24 b8 69 52 8d 3a 2a 55 3a bb
       0.011474096 -3.9181607e-05 0.0010782006 -0.002843211
000020 b8 7c 62 3c 94 1d 46 3b 6b a2 01 bc 2e 8d a1 3b
       0.013823681 0.0030230032 -0.007912259 0.00493016
000030 42 52 ad 3a 12 79 4f bc da 63 ce b9 89 bf c8 3b
       0.0013223367 -0.012663143 -0.00039365777 0.0061263484
000040 0e 37 d6 3b ee b1 0d bc b8 e7 29 b9 2c 7f 72 3b
       0.0065373247 -0.008648379 -0.00016203418 0.003700207
000050 9d c4 d3 bb b8 5a 6b 3b a5 e8 05 bc 10 d5 11 bc
       -0.006462647 0.0035912227 -0.008173143 -0.008900896
000060 22 81 1a ba 61 33 26 bc 4d b4 e0 3b 5b 01 8a bb
       -0.0005893876 -0.010144086 0.006857431 -0.0042115874
000070 6a 10 01 bb 53 4a 6f 3c 2c d4 e4 3a 7b aa 63 bc
       -0.0019693621 0.014605123 0.0017458252 -0.013895626
000080 e2 f5 0b 3c a8 84 ff bb 8c b3 2a 3c bf ee b5 3a
       0.00854251 -0.0077977963 0.010418784 0.0013880356
000090 97 0a 49 bc a0 86 8d 3c e7 13 bb bb c0 72 fc ba
       -0.012270591 0.017276108 -0.0057091597 -0.0019260272
0000a0 cf d7 21 bc 3a d5 86 3b ea 53 00 3b ac 80 13 bb
       -0.009878113 0.004114774 0.0019581267 -0.0022507114
0000b0 a2 59 30 3c e4 54 06 bc 6c 1b cf ba 12 88 86 bb
       0.010763558 -0.00819895 -0.0015801019 -0.0041055763
0000c0 26 84 51 bc a7 e8 29 bc ab 72 91 3a 29 42 b9 3c
       -0.012787854 -0.01037041 0.0011096796 0.022614555
0000d0 21 47 c9 37 8d 8b 43 3c 88 6f d5 3b a7 29 88 3b
       2.399419e-05 0.011935127 0.0065135397 0.004155356
0000e0 fb 94 5c bc ac ee 14 3c 6e 09 a0 bb 48 9d dd bb
       -0.013463254 0.009090107 -0.0048839366 -0.006763134
0000f0 3d 15 e3 bb aa 7d 9b 3b 1c 61 df bb 05 28 01 3b
       -0.006930022 0.004745205 -0.0068169963 0.0019707691
000100 c2 52 ed 3b 1f 50 cb 3b 5e 74 5c bb fc 96 24 bc
       0.0072425315 0.0062046195 -0.0033638696 -0.010045763
000110 07 ce 0f 3b d8 7f e6 b9 04 6f d1 bb 31 4a a3 3a
       0.002194287 -0.0004396427 -0.006391408 0.0012458024
000120 04 eb 74 bc d8 70 d0 3b db 54 0f 3b 05 05 ab bb
       -0.01494861 0.0063611083 0.0021870646 -0.0052191042
000130 82 95 76 bb 94 d8 14 bc aa 0e cb 3b 60 3f 7d 3c
       -0.0037625735 -0.009084839 0.0061968165 0.015457004
000140 06 5e 4f bc 54 4a bc bc 43 d2 d0 bc bd be 33 3c
       -0.012656694 -0.022984661 -0.025490886 0.0109707685
000150 32 39 5b ba 31 67 4d bc 16 23 0d 3b 6d 41 30 bb
       -0.000836271 -0.01253681 0.0021535805 -0.0026894466
000160 47 3c b0 ba 40 16 19 ba 94 23 80 3b 28 37 4c bc
       -0.0013445698 -0.00058398023 0.0039104912 -0.012464322
000170 6e 2b ee 3a ee 49 0a 3c 7e 8d 80 3b 9a 3e 02 bc
       0.0018170902 0.008440478 0.003923117 -0.007949496
000180 c6 2a aa 3b 26 f7 89 bb d7 5d 28 bb 84 c7 dc 3b
       0.0051930873 -0.0042103706 -0.0025690699 0.0067376513
000190 fd 01 b3 3a 93 66 3d bb 0d 2b 85 3b 62 ec 33 3c
       0.0013657209 -0.002890025 0.00406397 0.010981651
0001a0 65 f0 8e 3b 54 cf 0a bc dd 99 f6 3b 81 8b 12 bb
       0.0043621534 -0.008472282 0.007525666 -0.0022360983
0001b0 b3 ff 36 3c fe c5 6b 3b 38 f8 86 bc bf 49 96 3b
       0.011169362 0.0035976167 -0.016475782 0.004586428
0001c0 fd 9a 6a bb 6f bf 31 bc 12 0c b0 bb 29 b4 ab 3c
       -0.0035797947 -0.010848864 -0.0053725326 0.02095993
0001d0 15 48 e0 bc 89 d4 22 ba e3 30 3c bc 54 a5 7f bb
       -0.027378121 -0.000621148 -0.011486265 -0.0039008455
0001e0 e0 4e c7 3c 0c c4 43 3b 02 31 1a 3c 38 76 4a 3c
       0.024329603 0.0029871492 0.009411098 0.012357287
0001f0 a4 01 d1 3b bf 1a e7 bb 25 3b 3c 3c ca 98 fe 3b
       0.0063783694 -0.007052749 0.0114887105 0.0077696787
000200 68 24 c4 bb 21 b3 e4 3b dd f9 ff bb d6 f3 83 3a
       -0.0059857853 0.0069793616 -0.0078117684 0.0010067176
000210 4e b6 99 bc 6f 27 5d bc 24 57 aa 3b 55 b3 3a bb
       -0.018763687 -0.013498171 0.0051983763 -0.0028488238
000220 d1 67 83 3c ba 80 05 ba fa 59 0f 3c 7a e6 38 bb
       0.016040714 -0.0005092729 0.008749479 -0.0028213547
000230 a4 ea d1 bb 9f 5a 03 bc fc c9 ec 3b 0c 27 99 bb
       -0.006406145 -0.008017211 0.007226227 -0.004673844
000240 a9 d5 9a bb 33 8c bc bb f5 81 d5 bb ad f2 3e 3b
       -0.0047251773 -0.0057540177 -0.006515736 0.0029136345
000250 5b da c4 bb e1 d5 0a bd 4b 80 6f 3b 58 7d 5a 3a
       -0.0060074753 -0.033895377 0.0036544974 0.0008334718
000260 1c 81 68 bb ae 5a 47 bb b8 99 a2 3b 76 93 85 bb
       -0.0035477346 -0.003041904 0.0049621724 -0.0040764166
000270 76 a2 11 bb 16 91 d4 bb 83 93 b9 bb dc f3 96 3c
       -0.0022222078 -0.006487022 -0.0056633367 0.018426828
000280 d0 dc 3f bc 22 07 24 3c 4b 8b 67 3b df 99 aa 3a
       -0.011710361 0.010011466 0.0035330828 0.0013015828
000290 2b c4 6c bb ef 13 8b bc 46 9f ba 3b fb 72 59 bc
       -0.0036127667 -0.016977279 0.0056952564 -0.013272042
0002a0 e5 a1 26 3c e9 4b 24 3c 94 74 96 3d af f4 18 3c
       0.010170435 0.010027864 0.07346454 0.009335681
0002b0 ac ef b0 ba ab 20 8f bb d1 50 0e 3c 7e a9 0b 3c
       -0.0013499162 -0.004367908 0.00868626 0.008524297
0002c0 75 72 27 3c bb 1a 1d 3c 97 dc 27 3c 91 f8 1b 3a
       0.01022016 0.009588893 0.010245464 0.000594982
0002d0 b0 be 45 3c 64 9c 07 bc c0 e5 ce 3a 0f c5 17 bb
       0.012069389 -0.0082770325 0.0015785024 -0.0023158228
0002e0 84 cc 4d 3c fd 3f ab 3b 94 20 d3 3b e2 28 75 3c
       0.012560967 0.005226134 0.0064430926 0.0149633605
0002f0 0c 79 bf b9 13 cc 8f bc 46 62 56 bc bd 12 e0 3b
       -0.00036520546 -0.017553365 -0.013084954 0.0068381713
000300 5a 93 84 bc a2 94 41 bc f8 bf 5a bc 70 13 52 bc
       -0.016183544 -0.011815222 -0.013351433 -0.012822017
000310 91 f1 52 3b 07 d7 7f bc a1 46 76 3c 55 c8 28 bc
       0.0032187442 -0.015615231 0.015031488 -0.010301669
000320 f1 27 4c 3a c7 98 b9 3a a9 02 90 3c 6b 3a 5e bb
       0.0007787934 0.0014159911 0.017579393 -0.0033909332
000330 c5 71 7d 3b fb 4e 5f bc 62 f7 2c 3c 8d 2f 75 bb
       0.0038672548 -0.01362967 0.0105570275 -0.0037412376
000340 1d de b3 bc 20 ea 90 3c da a5 a0 bc d6 98 a1 3b
       -0.021956498 0.017689764 -0.019610334 0.0049315495
000350 e8 e9 b4 bc 9f d6 12 bd be b0 07 3a 8b e2 cf bb
       -0.022084191 -0.03584921 0.0005176178 -0.0063441447
000360 20 6d 4a bb 09 d3 80 bb 45 ba ca 3b d0 25 a7 39
       -0.0030887797 -0.0039314074 0.006186756 0.00031880895
000370 ce f0 0d bc 78 ea 39 bc c1 3e 12 3c 38 e9 d8 bb
       -0.008663369 -0.011347406 0.0089260945 -0.0066195987
000380 5a 5c 24 bd 9d a9 9d b9 b1 13 cf 3b b8 14 17 bc
       -0.040127136 -0.00030071745 0.006319486 -0.009221248
000390 88 19 1d 3c b8 d2 4f bc 40 ce cd bb 1d 89 5b 3b
       0.009588607 -0.012684517 -0.0062806904 0.0033498474
0003a0 1a 5b 4a 3c 9d 40 a7 3b 06 d2 ac 3b cd a6 39 3c
       0.012350822 0.005104138 0.00527406 0.011331272
0003b0 61 ce 02 3a 00 52 db b9 eb 66 c3 bb af 18 bb 3b
       0.00049898593 -0.0004183203 -0.0059631965 0.0057097296
0003c0 24 0d 36 bb 66 30 e3 3b e3 0a 02 bc f0 93 a1 3c
       -0.0027778829 0.00693326 -0.007937166 0.019723862
0003d0 33 ca 8c 3c f7 73 0c 3c be 9a 90 bc f4 c6 d8 3b
       0.01718626 0.00857257 -0.017651912 0.006615514
0003e0 da 0f 16 3b 03 c6 3f bc 35 2c d8 bb 62 8d 83 3c
       0.0022897632 -0.0117049245 -0.0065970668 0.016058628
0003f0 77 e4 84 bb b1 2e 39 bb 90 14 ff 3a 0e 00 8b 3c
       -0.0040555554 -0.002825659 0.0019461084 0.0169678

action_model._discrete_distribution.branches.0.bias f4 [3]
000000 e4 2c 28 ba d2 32 b9 3a b4 17 2a ba
       -0.00064153806 0.0014129526 -0.00064885174

action_model._discrete_distribution.branches.1.weight f4 [2, 128]
000000 1e b4 a4 bb cf a2 87 bc 70 f3 01 bc 3b f4 31 3c
       -0.0050263545 -0.016557125 -0.007931575 0.010861452
000010 a3 01 64 bc ec 6f c6 39 e0 6e 28 3c 77 f3 a5 bb
       -0.013916406 0.0003784889 0.010280341 -0.0050644237
000020 f4 1e fa 3b 62 26 5d bc 0b b3 02 3c b1 b1 0b bb
       0.0076330844 -0.013497921 0.0079772575 -0.002131563
000030 a2 26 21 bc a0 70 1e 3c 93 c0 10 3c c1 a0 1b bb
       -0.009835871 0.009670407 0.008834976 -0.002374694
000040 21 2f 61 bc 88 72 41 bb c2 f1 d2 3b bc ec b3 3a
       -0.013744147 -0.0029517729 0.006437511 0.0013727169
000050 09 f3 c5 bb 74 f8 2b bb 0e e4 30 bc d5 6d df bb
       -0.006040935 -0.002624062 -0.01079656 -0.006818513
000060 9b 34 ca bb 67 1b 4e 3c 77 0a 9c 3a a3 10 d2 bb
       -0.006170822 0.012579775 0.0011904974 -0.0064106747
000070 11 f4 47 bb 0a a9 c5 ba 94 02 ec 3a 8c cd 23 3c
       -0.0030510465 -0.0015080285 0.001800614 0.009997737
000080 65 6f ef 3b 27 15 11 3b df c2 66 bc 7d 3f 35 3c
       0.0073069804 0.0022137852 -0.014084547 0.0110625
000090 2f 66 81 bc 69 be f1 bb 30 d7 cb bc 55 2d 95 bb
       -0.015795795 -0.007377435 -0.024882883 -0.004552523
0000a0 03 67 67 bc c0 5f 19 bc 71 2b a1 bc 28 6e 41 3c
       -0.014123681 -0.0093612075 -0.019674035 0.011806048
0000b0 e0 60 de b8 a8 75 4f 38 c7 39 65 3b d8 d8 58 3c
       -0.00010603829 4.946222e-05 0.0034977065 0.013235293
0000c0 4b 08 c2 3b e1 84 6a bc db e4 96 bb e4 58 af 3b
       0.0059213988 -0.014313907 -0.0046049184 0.0053511728
0000d0 92 36 69 3b f4 3e a4 bb 3e 05 77 3b 47 40 85 3a
       0.0035585505 -0.0050123874 0.0037692334 0.0010166251
0000e0 87 78 a4 bb 8b 44 11 bb 1e 5e 38 bb d2 29 aa 3a
       -0.005019251 -0.00221661 -0.002813227 0.0012982434
0000f0 f8 50 f0 bb 31 9f 23 bc a7 32 3d bc 04 a0 90 3b
       -0.007333871 -0.009986685 -0.011547721 0.0044136066
000100 4c 20 d3 3a f8 46 2c 3c c7 7b b4 bb c3 3a 70 3c
       0.0016107648 0.010514967 -0.0055079195 0.014662447
000110 a8 1c 0f 3c a4 fa a6 3b 2b 37 99 bc d7 b9 db 3b
       0.0087348595 0.0050957967 -0.018703064 0.0067055034
000120 be ac b1 3a d2 c6 4e bb 10 8e 1f 3c fc a3 53 3c
       0.001355551 -0.0031551612 0.00973846 0.012917515
000130 8f 2d 06 3c 56 a0 a2 3c 29 e9 9b bc be 1b 1e 3c
       0.008189573 0.019851845 -0.019032078 0.009650169
000140 c2 a6 b1 3b bd bc ce 3c b0 34 eb 3b d7 17 ce bb
       0.0054214904 0.025236482 0.0071779117 -0.006289463
000150 5f 2f 0e bc ab f0 24 3c a3 91 37 3b 13 50 19 bb
       -0.008678286 0.010067145 0.002801039 -0.0023393675
000160 3d 18 62 3a 0b ee f0 bb ce 0b 1f bb 20 d8 ca bb
       0.00086248276 -0.0073525957 -0.002426851 -0.006190315
000170 ab 3b 53 3c 61 df 00 bb 2c 5f 61 bb fd 03 10 bc
       0.012892644 -0.0019664394 -0.0034389002 -0.008790013
000180 7e ed 28 3b 0f 5d 3e 3c a7 4c b6 ba 24 3f a6 bb
       0.0025776322 0.011618867 -0.0013908342 -0.005073445
000190 89 2d 7d bb 77 3f e9 ba 61 1e 91 3c fd e2 8a bb
       -0.0038631877 -0.0017795403 0.017714681 -0.004238485
0001a0 fe 87 a4 3a f1 b0 d8 ba ea 34 5b 3c b5 b2 80 bc
       0.0012552736 -0.0016532225 0.013379315 -0.015710214
0001b0 90 25 5e 3b 41 60 6d 3a 85 46 f9 bb 42 fe c4 bb
       0.00338969 0.00090551755 -0.0076072835 -0.006011755
0001c0 bc 50 0f bc 12 90 32 bb 81 62 46 ba 00 1c 07 bc
       -0.008747276 -0.0027246517 -0.0007567779 -0.008246422
0001d0 50 41 e4 3c 10 14 03 3a 0d 28 ea bc 32 06 76 3c
       0.027863175 0.0005000243 -0.02858355 0.0150161255
0001e0 35 c7 8c bc 42 e7 80 3b b4 0b c7 3c 64 00 c6 ba
       -0.017184833 0.003933818 0.024297573 -0.0015106318
0001f0 32 c6 e3 3b 26 9f 99 ba 5c eb 7e 3c bb 3f c2 bb
       0.006951117 -0.0011720404 0.015559044 -0.0059280074
000200 26 59 32 bc 2e dc 4a bb 0c 4a 83 bc b9 1c 24 bc
       -0.010885512 -0.0030953991 -0.01602652 -0.010016614
000210 1b 33 20 bc ca 9a b9 b9 c5 ad b2 3b 9d 68 9d 3b
       -0.0097778095 -0.00035401277 0.005452844 0.0048037306
000220 c8 a1 ca 39 6b c6 09 3b 34 e5 93 bb 90 01 68 bc
       0.0003864898 0.0021022807 -0.004513407 -0.014160529
000230 09 73 da bb 9c e0 5e bc 2c 15 ad 3a 7b df b8 ba
       -0.0066665453 -0.013603356 0.0013205162 -0.0014104688
000240 41 9a 37 ba b6 f0 ce 3b 87 ab 46 bb 8b b1 5b 3b
       -0.00070038816 0.006315316 -0.003031464 0.0033522572
000250 e9 54 bf bb 49 6a 90 3b 4e be 1e bc 3d ca 1f 3c
       -0.0058389795 0.0044072014 -0.009688927 0.009752807
000260 53 e3 57 bc bc cc fc bb 38 39 ee 3a 98 a1 ef bb
       -0.013176757 -0.007714836 0.0018175012 -0.0073129646
000270 48 dc 9f 3b 32 e4 f0 bb 2c c5 81 3b cb b7 b2 3b
       0.0048785545 -0.0073514218 0.0039602723 0.0054540387
000280 08 d7 92 3b 40 38 07 3b 64 1c fa b9 76 1f 21 3c
       0.0044812 0.0020632893 -0.00047704868 0.009834161
000290 cc 84 99 3b 52 b5 1f bc 12 5b 10 3b 8b 6a 8b bb
       0.00468502 -0.00974782 0.0022026938 -0.0042546443
0002a0 29 28 2f 3b 3b 88 3a bc 65 e0 87 3b 7d 5e 8e 3c
       0.0026726818 -0.011385019 0.004146623 0.01737904
0002b0 89 b6 30 3b 43 ae 28 bc 63 6a cd 3b f7 d8 f6 3b
       0.0026964268 -0.0102954535 0.006268786 0.0075331884
0002c0 f5 98 83 b9 7b f4 22 bb 5e 6d 95 ba de a9 14 3c
       -0.0002510023 -0.002486496 -0.0011400392 0.009073703
0002d0 e8 8d 53 3b b0 55 d5 3b c8 7a 07 ba 7a 73 7e 3b
       0.0032280628 0.006510459 -0.0005168137 0.0038826154
0002e0 04 2c fd ba 16 60 42 3b e5 48 bc bb 5f 2e 9e 3b
       -0.0019315486 0.0029659322 -0.0057459944 0.004827305
0002f0 81 02 29 3c 80 0b e7 b9 3a d2 ca 3a 50 7b 3a ba
       0.010315538 -0.00044068322 0.0015474029 -0.0007113712
000300 8e c4 fc ba f5 54 3e 3c 72 55 0a 3b 4a 50 97 3b
       -0.0019284652 0.011616935 0.0021108058 0.0046177255
000310 aa 04 d8 3a 38 cf a3 bc 58 ca d3 3a b1 f4 3b bc
       0.0016480882 -0.01999627 0.0016158326 -0.011471913
000320 bf 54 fa bb a6 c0 96 3a b9 eb c8 3a 3a 06 4d bc
       -0.007639497 0.0011501506 0.001532904 -0.012513692
000330 58 ef b9 39 7c 81 d6 bb 91 9f 39 3c dd bb 86 bc
       0.00035464275 -0.0065461975 0.0113295475 -0.016447002
000340 8c de b8 ba 56 8f 72 bb 6f 7f b3 3a c9 7c b0 bb
       -0.001410441 -0.0037011704 0.0013694594 -0.0053859693
000350 be 35 31 3a 7e 36 93 bc 77 3b 98 3b 5c 9d ed ba
       0.00067600224 -0.01797032 0.0046457606 -0.0018128562
000360 24 24 71 3b b0 e2 71 3c f7 c7 60 ba 86 9c 7f 3b
       0.0036795223 0.014763519 -0.0008574719 0.0039003207
000370 49 02 43 3a 49 8d 2e bb 4c 4b 08 bb d9 b4 e4 3b
       0.0007439 -0.0026634505 -0.0020796834 0.0069795665
000380 f1 b9 79 3c b8 02 40 bb ca d7 21 ba f3 54 6a 3b
       0.015242086 -0.0029298496 -0.00061738177 0.00357562
000390 01 e4 df 3b a3 18 aa 3c 00 bf 06 bb 40 b2 b4 bb
       0.0068326 0.0207637 -0.0020560622 -0.005514413
0003a0 f7 e5 c2 bb 16 ab 1b 3b a3 4e 39 3c 43 2b b0 3c
       -0.005947824 0.0023753098 0.011310252 0.021505004
0003b0 cd 16 5d 3c 25 03 35 3a c9 bd 31 3c c9 d3 f3 b9
       0.013494206 0.00069050706 0.010848471 -0.00046506364
0003c0 e3 c4 ab bb c4 c3 ee 3b 17 7b 17 bc 02 88 d0 bb
       -0.0052419766 0.0072865207 -0.0092456555 -0.0063638696
0003d0 be c5 90 bc 8e 65 ba 39 0e ca a9 3c 56 dc b3 3c
       -0.017672416 0.0003555235 0.02072623 0.02195565
0003e0 5b 89 92 3b 07 84 b4 3c b2 42 8d bb c9 25 8a bb
       0.0044719405 0.022035612 -0.004310929 -0.00421593
0003f0 90 16 31 3b b7 bf 6e bc 44 54 b7 bb 69 12 1b 3c
       0.0027021505 -0.014572076 -0.005594762 0.009464839

action_model._discrete_distribution.branches.1.bias f4 [2]
000000 d5 c6 ec ba cd c6 ec 3a
       -0.0018064628 0.0018064618
