results/Player1z/MoveAgent2D/MoveAgent2D-35364.onnx (onnx, 80934 bytes, 9 tensors)

discrete_act_size_vector f4 [1, 2]
0	0x40400000	3.0
1	0x40000000	2.0

network_body._body_endoder.seq_layers.0.weight f4 [128, 9]
0	0xbe761907	-0.24032985
1	0xbeb2f900	-0.34955597
2	0x3c17e0e8	0.00926993
3	0x3e6954d7	0.2278627
4	0x3f33ed52	0.70284
5	0x3ddedf15	0.10882393
6	0x3e8c3821	0.27386573
7	0xbdfcb363	-0.12338903
8	0xbdd1e27e	-0.10248278
9	0xbcaabbeb	-0.02084156
10	0x3c906266	0.017625045
11	0x3e948933	0.29010925
12	0xbe33cdfe	-0.17559049
13	0xbec1d74c	-0.3785957
14	0xbed6503a	-0.41858083
15	0xbedb4229	-0.42823914
16	0x3f103c41	0.5634194
17	0xbedb2b55	-0.42806497
18	0x3efd75fb	0.49504074
19	0xbe335793	-0.17513876
20	0x3df9bc8a	0.12194164
21	0x3d5bc00f	0.05364996
22	0x3dd80d2d	0.10549388
23	0xbee933e6	-0.45547408
24	0xbea5e01b	-0.3239754
25	0x3e84522c	0.25843942
26	0x3c99aa00	0.01875782
27	0xbf26099b	-0.64858407
28	0x3e9e2fd7	0.30895874
29	0xbe2f85bd	-0.17140861
30	0x3eac84f2	0.3369518
31	0xbf36b1ae	-0.7136487
32	0xbad7f064	-0.001647484
33	0x3ecc5fc1	0.39916804
34	0xbecb660d	-0.39726296
35	0x3ed54aac	0.41658533
36	0x3c9509b0	0.018193096
37	0x3f29b1ef	0.6628713
38	0xbe30b20c	-0.1725542
39	0x3e87b7fd	0.2650756
40	0x3f0b00ff	0.54298395
41	0x3e25120d	0.16120167
42	0xbe218acb	-0.15775602
43	0xbc73336f	-0.014843806
44	0xbf300810	-0.687623
45	0x3be852b2	0.007089936
46	0xbec2c08f	-0.38037536
47	0xbe0a52c2	-0.13508132
48	0xbdf694b8	-0.120400846
49	0x3e32e6d7	0.17470871
50	0xbe13bca6	-0.14427432
51	0xbe3c7073	-0.18402271
52	0x3dbe3024	0.09286526
53	0xbe170028	-0.14746153
54	0x3e47a096	0.19494852
55	0xbe8a62eb	-0.27028593
56	0xbe69a734	-0.22817689
57	0x3d485fde	0.04891955
58	0xbc999384	-0.018747099
59	0x3e8acea8	0.2711079
60	0xbf1d4db7	-0.6144671
61	0xbe56fc36	-0.20994648
62	0x3e661759	0.22469844
63	0xbecdc37d	-0.40188208
64	0xbd7ae58b	-0.061254065
65	0x3cac33e7	0.021020843
66	0xbcef0280	-0.029175997
67	0xbe924b51	-0.28573087
68	0x3f287041	0.65796286
69	0x3e77c043	0.24194436
70	0x3e91eb6a	0.2849992
71	0xbc4cb1e4	-0.012493584
72	0xbe42168d	-0.18953915
73	0xbc646468	-0.013939954
74	0xbf1010a2	-0.5627538
75	0xbdae97be	-0.08525036
76	0xbe96a45a	-0.29422265
77	0x3ef75eed	0.4831461
78	0x3ec8fe34	0.39256442
79	0x3e313bcf	0.17307971
80	0x3d7887b6	0.0606763
81	0x3e0ad2af	0.13556932
82	0xbeac299b	-0.33625492
83	0x3db9973a	0.09062047
84	0xbe92ded8	-0.2868564
85	0x3ef9f924	0.48822892
86	0xbebff05d	-0.3748807
87	0x3dc2016a	0.09472926
88	0x3e9d4da8	0.3072331
89	0x3e7ea665	0.24868162
90	0xbe79ea60	-0.24405813
91	0x3ed5d83d	0.4176654
92	0x3dd536a9	0.10410816
93	0x3d92c259	0.07165975
94	0x3da488f0	0.08033931
95	0x3ecafaf6	0.39644593
96	0xbe52a707	-0.20571528
97	0xbc15296c	-0.009104114
98	0x3edbcd4f	0.42930076
99	0xbd3d109d	-0.04615842
100	0xbea2567f	-0.31706616
101	0xbe2ba98d	-0.16763897
102	0xbd5daf4e	-0.05412226
103	0xbeaca595	-0.3372008
104	0xbe3acc63	-0.1824203
105	0xbe7a33b3	-0.24433784
106	0x3f1bad4c	0.60811305
107	0x3edfc71d	0.437066
108	0xbe8d2a35	-0.27571264
109	0xbe225b2f	-0.15855096
110	0x3edd5d19	0.4323509
111	0x3eea8d55	0.45810953
112	0x3d282971	0.041055147
113	0xbe9f788a	-0.31146652
114	0xbf300fa1	-0.6877385
115	0xbe980cf5	-0.29697385
116	0x3ec0035e	0.3750257
117	0x3e6e6dc9	0.23284067
118	0x3ec3274c	0.3811592
119	0xbef3ef07	-0.476433
120	0x3f28d677	0.6595225
121	0x3eac089a	0.33600312
122	0x3d13011e	0.035889737
123	0xbe846de6	-0.25865096
124	0xbda84508	-0.08216292
125	0xbee59613	-0.4484106
126	0xbd7f4fe8	-0.062332064
127	0xbdffee54	-0.12496629
128	0x3e84d1c4	0.25941288
129	0x3ebe915e	0.3722028
130	0xbe94c072	-0.29053074
131	0x3d1738c2	0.036919363
132	0x3f6a63b6	0.91558397
133	0x3ce926bb	0.028460851
134	0x3e5f63d7	0.2181543
135	0xbe47e55b	-0.19521086
136	0xbf466175	-0.7749246
137	0xbe16bbdd	-0.14720102
138	0xbf11b10e	-0.5691079
139	0xbe6186e6	-0.22024116
140	0x3ebc0ef1	0.3673015
141	0x3e06a393	0.13148336
142	0x3f0b3f9f	0.54393953
143	0x3f0ef8fe	0.5584868
144	0xbecc3960	-0.39887524
145	0xbe9da3c2	-0.30789
146	0x3e7da20e	0.2476885
147	0xbe8d0b80	-0.27547836
148	0xbf0c98de	-0.54920757
149	0x3ef47356	0.47744244
150	0xbe9c0f2f	-0.30480334
151	0x3ea81dd2	0.3283525
152	0xbede60ab	-0.43433127
153	0xbe2da79b	-0.16958468
154	0xbe92f4fa	-0.28702527
155	0xbf02043a	-0.507877
156	0x3eda9f99	0.42699888
157	0x3d8f3a37	0.069935255
158	0x3f142876	0.5787424
159	0x3cfef3ea	0.031122167
160	0x3e96a46a	0.29422313
161	0x3ecbc3a2	0.39797693
162	0xbeaacbcc	-0.3335861
163	0xbe58f2d3	-0.2118638
164	0xbd2942e6	-0.041323565
165	0xbed62ff6	-0.41833466
166	0x3d4565b3	0.04819269
167	0x3e3ac9af	0.18240999
168	0xbea25ed0	-0.3171296
169	0x3c05430c	0.008133661
170	0xbf08aa16	-0.5338453
171	0xbe0640f6	-0.13110718
172	0x3e7d3849	0.24728502
173	0x3d371c7a	0.04470489
174	0x3ea73692	0.3265882
175	0xbd98a3fb	-0.07453152
176	0xbe22f655	-0.1591428
177	0xbbda5388	-0.0066627897
178	0x3d436a17	0.047708597
179	0xbd54a771	-0.051917497
180	0x3f1c1558	0.6097007
181	0x3c987035	0.018608192
182	0x3da410bd	0.08011005
183	0xbe702238	-0.23450553
184	0x3f05f48e	0.52326286
185	0x3e960657	0.29301712
186	0x3e51170a	0.20418945
187	0x3e8bb596	0.27286977
188	0x3dbcb619	0.0921442
189	0xbe8cb74f	-0.27483603
190	0xbd1a18fe	-0.03762149
191	0xbef53291	-0.47890142
192	0x3d28955b	0.04115806
193	0xbc6e2341	-0.014534772
194	0xbe959855	-0.29217783
195	0xbe887627	-0.26652643
196	0xbf166e81	-0.58762366
197	0xbe106665	-0.1410156
198	0xbcff45ec	-0.031161271
199	0x3e7ae634	0.24501878
200	0xbe3ac77d	-0.18240161
201	0xbe52cf96	-0.20587
202	0x3d8e3ccd	0.069451906
203	0x3eef600f	0.46752974
204	0x3e96f633	0.2948471
205	0x3e98fc01	0.29879764
206	0x3e2fd7b9	0.17172135
207	0xbf0ef5c6	-0.5584377
208	0xbf1db7a5	-0.61608344
209	0x3dc79ad2	0.097463265
210	0x3eb3b469	0.3509858
211	0x3e299ffb	0.16564934
212	0x3f251cf6	0.64497316
213	0x3dcbfa24	0.0995982
214	0x3d8cec2a	0.06880982
215	0x3f590cc4	0.84785104
216	0x3a0a944e	0.00052863813
217	0xbe008c27	-0.12553464
218	0x3e4a790d	0.1977274
219	0xbe4653ff	-0.1936798
220	0x3e902e16	0.2816016
221	0xbdb773ba	-0.0895762
222	0xbe523277	-0.20527063
223	0xbdbdb3e2	-0.092628255
224	0x3dfc6218	0.123233974
225	0xbb8c359f	-0.004278853
226	0x3dc56b7f	0.09639644
227	0xbe66ccb7	-0.2253903
228	0x3f68fd5a	0.91011584
229	0xbe3def23	-0.18548255
230	0x3e31a2fe	0.17347333
231	0xbd9ab1fc	-0.07553479
232	0xbcd0b520	-0.025476992
233	0x3eb85a6c	0.36006486
234	0xbc514904	-0.012773756
235	0xbe8b9423	-0.27261457
236	0xbe2edc01	-0.17076112
237	0x3d8b697a	0.068072274
238	0xbf31fbea	-0.69525015
239	0x3d9e722b	0.077366196
240	0x3f2bc7cb	0.67101735
241	0xbeaf9307	-0.3429186
242	0x3e844141	0.25831035
243	0xbeb1649b	-0.34647068
244	0xbe557138	-0.20843971
245	0x3dde44dd	0.108529784
246	0xbe9eea17	-0.3103797
247	0xbe49c80b	-0.19705217
248	0xbd2af2b3	-0.041735362
249	0x3d7d964c	0.061910912
250	0x3d1876ea	0.03722278
251	0x3ee54a4f	0.44783255
252	0x3dd44574	0.1036481
253	0x3e51f0f8	0.20502079
254	0xbebcaea9	-0.36852005
255	0xbea52e3d	-0.3226184

network_body._body_endoder.seq_layers.0.bias f4 [128]
0	0xb782975e	-1.5567693e-05
1	0xba84e135	-0.0010137918
2	0xb8b7ab6e	-8.758051e-05
3	0xb92e6f23	-0.00016635335
4	0x396df560	0.0002269349
5	0x3ac0f8ab	0.0014722546
6	0x3a19c2b4	0.00058655
7	0x383658c4	4.347485e-05
8	0x3a2f5989	0.0006689062
9	0xbb01699a	-0.0019746781
10	0xba9b2528	-0.0011836635
11	0xb9b46a89	-0.0003441165
12	0x38041796	3.149322e-05
13	0x3af50451	0.0018693303
14	0xbabb2a07	-0.0014279493
15	0x38906f04	6.887133e-05
16	0xba6f41ff	-0.00091269606
17	0xba5a9708	-0.00083385454
18	0xbb1b2cfe	-0.002367794
19	0xb8dbb8f0	-0.00010477181
20	0x3959d6a8	0.00020774698
21	0xba175709	-0.0005773162
22	0xbac8bd91	-0.0015315284
23	0xba9486f0	-0.0011331718
24	0xba3ee102	-0.00072814536
25	0xb9089315	-0.00013024763
26	0xb9d0916d	-0.00039781202
27	0xbb411c29	-0.0029466248
28	0xba89e53f	-0.0010520591
29	0x3b606b65	0.00342437
30	0xba5b1b3f	-0.0008358247
31	0xbaa0529d	-0.0012231652
32	0xbaa06693	-0.0012237601
33	0xbab5da74	-0.0013874308
34	0x37f9bd6a	2.9771316e-05
35	0xbad50ec6	-0.0016255013
36	0xb9c298bc	-0.0003711636
37	0xbaae6a24	-0.0013306779
38	0xba3f55c0	-0.00072988495
39	0xbb1776aa	-0.00231115
40	0xb7091c40	-8.172414e-06
41	0xbad53f3a	-0.0016269453
42	0x39981b77	0.00029012162
43	0x3b6d26fc	0.0036186567
44	0x38e036f9	0.00010691392
45	0xba01b9ec	-0.0004948664
46	0xb7a5ce24	-1.9765524e-05
47	0x3badb19e	0.0053007146
48	0x391bb8d1	0.00014850801
49	0x3a58b2a6	0.0008266367
50	0xbb40762d	-0.0029367313
51	0x3b25b0c6	0.0025282367
52	0xbab54c09	-0.0013831864
53	0xb91b092e	-0.00014785372
54	0xba332353	-0.0006833572
55	0xb99b921c	-0.00029672764
56	0x3a37001c	0.00069809123
57	0xba3bf4f4	-0.0007169985
58	0xb9e387a4	-0.00043397874
59	0x39d740a7	0.00041056165
60	0xbb1c1f9c	-0.0023822552
61	0x3a346190	0.0006880993
62	0xba8ca04c	-0.0010728925
63	0xbb32eaab	-0.0027300518
64	0x3a4a10dd	0.00077082013
65	0xba16cc14	-0.0005752456
66	0x3a7e2db4	0.00096961414
67	0x3a232e75	0.0006224879
68	0xbabaf1c0	-0.0014262721
69	0xbb8fb037	-0.00438502
70	0xb9a429e0	-0.00031311717
71	0xbaf449f2	-0.001863776
72	0xbae38782	-0.001735911
73	0x3a6f868b	0.0009137175
74	0xbb595e32	-0.0033167717
75	0xba21a746	-0.0006166588
76	0x3a345b4b	0.0006880059
77	0xba6b8f77	-0.00089859165
78	0xb800d0ed	-3.0712155e-05
79	0x3a013c5c	0.0004929954
80	0xb9e83a27	-0.00044293815
81	0xbaee3211	-0.001817288
82	0x3b097cd1	0.0020978937
83	0xba36eaba	-0.0006977726
84	0xb9d5f9e4	-0.0004081271
85	0xb7b918d6	-2.2065284e-05
86	0xba2480a6	-0.00062752736
87	0x3997c16c	0.00028945075
88	0xbb02ebe3	-0.0019977025
89	0x3ad694ff	0.0016371309
90	0x3861e2de	5.3855467e-05
91	0xba8e04f7	-0.001083522
92	0x3a282738	0.00064145355
93	0x3ab477ab	0.0013768574
94	0xba4037f6	-0.00073325576
95	0x3b6f0f26	0.0036477535
96	0xba3da962	-0.0007235018
97	0xbb104acc	-0.0022017239
98	0xba8c843a	-0.0010720559
99	0xba94864b	-0.0011331526
100	0xbb0d30c6	-0.0021543964
101	0x3a0b7dd9	0.0005321182
102	0xba540f63	-0.0008089451
103	0xba4461dc	-0.0007491389
104	0xba7690c7	-0.0009405729
105	0x3ad453fd	0.0016199347
106	0x37353890	1.080161e-05
107	0x3aca24f3	0.0015422389
108	0xba3aaf3d	-0.00071214495
109	0xbb0d84b5	-0.0021593992
110	0x39001428	0.0001221454
111	0xbaafb2b7	-0.0013404702
112	0xbb5425cb	-0.003237116
113	0x3a86653c	0.0010253559
114	0x3984ad72	0.0002530623
115	0xba426a61	-0.00074163644
116	0xb8b90ec8	-8.824241e-05
117	0x3a19ef6a	0.00058721623
118	0xba7219b2	-0.0009235396
119	0xba0931b7	-0.00052335433
120	0xba457129	-0.0007531816
121	0x3a5ade96	0.0008349208
122	0xbb4e3801	-0.0031466486
123	0xba44f274	-0.0007512935
124	0xbb9e9355	-0.0048393407
125	0xba221ecd	-0.0006184399
126	0xba8dc98b	-0.0010817511
127	0x3a034cd0	0.00050086994

network_body._body_endoder.seq_layers.2.weight f4 [128, 128]
0	0x3d83c06a	0.064331844
1	0x3ccc91da	0.024971891
2	0xbe1142fc	-0.14185709
3	0x3d9252f6	0.0714473
4	0x3d8657fa	0.06559749
5	0xbd4900b7	-0.049072947
6	0xbe00566b	-0.12532966
7	0xbe2bb4bd	-0.16768165
8	0x3df623e4	0.12018564
9	0x3d0136b2	0.031546302
10	0x3cd909d1	0.026493939
11	0xbd2324e8	-0.03983012
12	0xbe47e81d	-0.19522138
13	0x3df883a4	0.121344835
14	0x3dc4e471	0.09613884
15	0x3cf55b4c	0.02995076
16	0xbd6b24f8	-0.057408303
17	0x3dac41ea	0.084110096
18	0x3d9bbde7	0.076045804
19	0xbcf587b3	-0.029971933
20	0xbda4ace2	-0.08040787
21	0x3d46e301	0.04855633
22	0xbbb46ddd	-0.005506261
23	0x3adad7b5	0.0016696366
24	0x3ce9de47	0.028548373
25	0x3d77bce6	0.060482882
26	0x3d7454f3	0.059651326
27	0x3d2f12fd	0.042742718
28	0x3d828cbf	0.063745014
29	0x3d37980d	0.04482274
30	0x3e08032a	0.13282457
31	0xbdc31a51	-0.09526504
32	0xbda1e66e	-0.07905279
33	0xbd689cd7	-0.0567902
34	0x3d2a5cde	0.04159247
35	0xbd23f66f	-0.04002994
36	0xbe038dec	-0.12847108
37	0xbd401099	-0.04689083
38	0xbd72bd57	-0.0592626
39	0x390cb27c	0.00013417931
40	0xbdb5f8bd	-0.08885334
41	0xbce09e97	-0.027419372
42	0x3e00ec90	0.12590241
43	0xbd6bd7c7	-0.05757883
44	0x3e1546c3	0.14577775
45	0x3e1d1422	0.15339711
46	0x3de382a1	0.111089
47	0xbd0b43d0	-0.034000218
48	0xbd096754	-0.033545807
49	0xbd9de985	-0.07710556
50	0xbd909bbb	-0.07060953
51	0xbb80e351	-0.003933348
52	0xbe082e7c	-0.13298982
53	0xbbb736d4	-0.005591253
54	0x3cf7e169	0.030258851
55	0xbd96959e	-0.07352756
56	0x3dd9deda	0.10638209
57	0xbe001dff	-0.12511443
58	0xbcca7b99	-0.02471714
59	0x3d26d66a	0.040731825
60	0xbc2e9985	-0.010656719
61	0x3c91dd00	0.017805576
62	0xbd8b6c9c	-0.06807825
63	0x3d8a153e	0.06742333
64	0x3e192baa	0.14958063
65	0x3e17ddf1	0.14830758
66	0x3df2da57	0.11858051
67	0xbd8f3408	-0.06992346
68	0xbe848e42	-0.25889784
69	0x3d8d146d	0.068886615
70	0xbc0e20ee	-0.008674843
71	0xbab89609	-0.00140828
72	0x3cba49a6	0.022740196
73	0x3e5c035e	0.2148566
74	0x3db4b321	0.088232286
75	0xbde84312	-0.11340918
76	0xbc820d03	-0.015875345
77	0x3d66445e	0.056217544
78	0x3d6a1b49	0.057154927
79	0x3e1ad143	0.1511889
80	0xbe212ae4	-0.15739018
81	0xbd546997	-0.05185851
82	0xbccdbf3d	-0.025115604
83	0x3d64a4f5	0.055821378
84	0xbe2a4dbd	-0.16631217
85	0xbd5c1292	-0.053728648
86	0x3ce0e421	0.02745253
87	0x3d2991e5	0.0413989
88	0xbc0124a1	-0.007882268
89	0xbb38dcf0	-0.002820786
90	0xbd25b373	-0.04045434
91	0xbde4e02e	-0.111755714
92	0x3d82cee9	0.06387121
93	0x3df7a2ff	0.12091636
94	0x3cc665b9	0.024218427
95	0x3d55135c	0.052020416
96	0xbc9d7aba	-0.01922356
97	0xbe0452de	-0.12922236
98	0x3e05b16a	0.1305596
99	0x3e052479	0.13002194
100	0xbe36d337	-0.1785401
101	0x3c42a634	0.011880446
102	0x3dd4c205	0.10388569
103	0x3d198d10	0.037488043
104	0x3d6fb140	0.05851865
105	0x3d3f357c	0.046681866
106	0xbc93491f	-0.017979203
107	0xbd218bdf	-0.039440032
108	0x3e16044a	0.14650074
109	0xbdfcb038	-0.123382986
110	0x3dc476cd	0.09592972
111	0x3c3b71f5	0.011440744
112	0xbe18868a	-0.14895073
113	0x3c907987	0.017636074
114	0xbd075e49	-0.0330489
115	0x3e0497b2	0.12948492
116	0xbe71db21	-0.23618747
117	0x3d9ffbb1	0.07811678
118	0xbda398f9	-0.079881616
119	0xbc4fdd2f	-0.012687012
120	0xbe1b591d	-0.15170713
121	0xbd9dcfab	-0.07705625
122	0x3d84975c	0.06474182
123	0x3d06f071	0.032944147
124	0x3e6b9cf4	0.23009092
125	0xbe14fa1c	-0.14548534
126	0x3d05f382	0.03270293
127	0xbc3b30b6	-0.011425188
128	0xbb6c67f6	-0.0036072708
129	0x3dd3572d	0.10319362
130	0x3d327c57	0.04357561
131	0x3d888c5e	0.06667398
132	0x3e21d74b	0.15804784
133	0xbdaf052d	-0.08545909
134	0x3d69538d	0.056964446
135	0x3dc128bf	0.094316
136	0xbcde6fda	-0.027152944
137	0x3ba66553	0.0050779968
138	0x3d7d2c0f	0.061809596
139	0x3da14ca5	0.07875947
140	0x3d87b535	0.066263594
141	0x3e1f3e91	0.15551211
142	0xbd58b168	-0.052903563
143	0xbce12f6a	-0.02748843
144	0x3e36aeb1	0.17840077
145	0x3dd79760	0.10526919
146	0xbd9cf664	-0.07664183
147	0xbe035975	-0.12827094
148	0x3b9472f7	0.0045303064
149	0xbc10d6f1	-0.0088403085
150	0xbe31e566	-0.17372665
151	0x3d91a88a	0.071122244
152	0x3d85c1f2	0.06531133
153	0x3d551f1e	0.05203163
154	0xbbb9e2de	-0.0056727966
155	0xbc583e42	-0.013198437
156	0x3cd998a5	0.026562044
157	0x3e1bb7c2	0.15206817
158	0x3cec8521	0.028872075
159	0x3cdb889b	0.026798537
160	0x3dff52db	0.12466975
161	0xbdeead8e	-0.11654197
162	0x3e0585fe	0.13039395
163	0x3e01a85e	0.12661883
164	0xbe126e35	-0.14299853
165	0x3e39dcb4	0.18150598
166	0xbdc19812	-0.09452833
167	0xbd70e5b5	-0.058812816
168	0x3cdcb66c	0.026942454
169	0x3da41115	0.08011071
170	0x3b82f82d	0.00399687
171	0xbdcae975	-0.0990781
172	0x3d48d4c9	0.049031053
173	0x3d95b088	0.07309061
174	0x3ca85db2	0.02055249
175	0xbe52ed4c	-0.20598334
176	0x3e4b4254	0.19849521
177	0xbcb647d5	-0.022251049
178	0xbdb9b818	-0.09068316
179	0x3e6ced0f	0.23137306
180	0x3e1f7d92	0.15575245
181	0xbdba4ba6	-0.0909646
182	0xbda28b43	-0.07936718
183	0xbd1f876a	-0.0389475
184	0xbd964427	-0.07337218
185	0xbc74c47f	-0.014939426
186	0x3d72c2f6	0.05926796
187	0xbd074ec9	-0.03303412
188	0xbdc81b26	-0.09770803
189	0x3beb9d0c	0.0071903523
190	0x3d677826	0.056511067
191	0xbd85ff15	-0.06542794
192	0x3c055037	0.0081368005
193	0x3e31ac34	0.17350847
194	0x3d90ab35	0.07063905
195	0x3dcc0823	0.099624895
196	0xbe100a06	-0.14066324
197	0xbcbc8726	-0.023013663
198	0xbd644079	-0.05572555
199	0xbdfed58d	-0.12443075
200	0x3de41dad	0.11138473
201	0xbdea8ceb	-0.11452659
202	0x3d600388	0.054690868
203	0xbd4bdca2	-0.04977096
204	0xbd94ee54	-0.0727202
205	0xbd21caab	-0.03949992
206	0x3d85f8d3	0.065416
207	0x3db161b0	0.086612105
208	0x3d9c5ac7	0.07634502
209	0xbd82c2c5	-0.063848056
210	0xbbb77034	-0.0055980925
211	0xbd63a111	-0.055573527
212	0xbcb857aa	-0.022502739
213	0xbdafd7f9	-0.085861154
214	0xbd59c07a	-0.053162076
215	0x3d98b1bc	0.07455775
216	0x3c9ec0d7	0.019379063
217	0x3da620dc	0.08111736
218	0xbe0909a2	-0.13382581
219	0xbc3504cf	-0.01104851
220	0xbd5dab24	-0.05411829
221	0xbd1149a3	-0.035470616
222	0xbd507b64	-0.050898924
223	0x3dc907cb	0.098159395
224	0xbcacd947	-0.0210997
225	0x3cdcec99	0.026968287
226	0x3d8d5188	0.069003165
227	0x3da987e4	0.08277872
228	0xbbb1e41a	-0.005428803
229	0x3e97a8c8	0.29620957
230	0x3c904bf6	0.017614346
231	0xbdceb232	-0.10092582
232	0x3d3bdfdb	0.045867782
233	0xbe1995e0	-0.14998579
234	0xbd838e0e	-0.06423579
235	0xbe348dd2	-0.17632225
236	0x3db88e42	0.090115085
237	0xbd647b8d	-0.05578189
238	0xbe37b389	-0.17939581
239	0xbd21ee5b	-0.039533954
240	0xbd5d2fdc	-0.05400072
241	0xbe0ee03b	-0.13952725
242	0xbd3eb63a	-0.046560504
243	0xbda1a4e9	-0.07892782
244	0xbd0dbaae	-0.03460186
245	0x3da919ba	0.0825686
246	0x3e2216f1	0.15829064
247	0xbd349dc8	-0.044095784
248	0x3c69cab1	0.014269517
249	0xbdddf3da	-0.108375266
250	0xbd2a6797	-0.041602697
251	0x3e36d3db	0.17854254
252	0x3ce0e88a	0.027454633
253	0x3cdc74b9	0.026911126
254	0xbc71f1a2	-0.014767082
255	0xbdf3267e	-0.11872576

network_body._body_endoder.seq_layers.2.bias f4 [128]
0	0x3a3b108d	0.000713595
1	0x39a4f21f	0.00031460912
2	0xb9f6a672	-0.00047044788
3	0xb9d0eb60	-0.0003984822
4	0xb9fd95b6	-0.00048367464
5	0xba9ef2f9	-0.0012126855
6	0xbaa70e56	-0.0012745361
7	0xb8f90628	-0.00011874392
8	0xba2dcade	-0.0006629656
9	0xbaa2ea99	-0.0012429535
10	0x39e34f29	0.00043355793
11	0x3920a65f	0.00015320767
12	0xba974d53	-0.001154343
13	0x3a3a2665	0.0007101058
14	0xba7ada91	-0.0009569312
15	0xb998c0d0	-0.00029135356
16	0x390187fd	0.00012353058
17	0xba13196e	-0.00056113943
18	0xba35334d	-0.00069122465
19	0xbac7db97	-0.0015247938
20	0xba2e76a4	-0.0006655252
21	0x3b1159b4	0.0022178711
22	0xba65de8e	-0.000876882
23	0x381739e7	3.605513e-05
24	0xba9e63db	-0.0012084203
25	0xb8d4f1d4	-0.00010153992
26	0xba8a4f2a	-0.0010552157
27	0xba867516	-0.0010258283
28	0xbafc593c	-0.0019252668
29	0xb92454a1	-0.00015671786
30	0xbaba8de5	-0.0014232962
31	0x394b787a	0.0001940447
32	0xba73042a	-0.0009270335
33	0xb8a15c88	-7.6943135e-05
34	0x385a579f	5.2056854e-05
35	0xba91e800	-0.0011131763
36	0xb9a45afb	-0.00031348303
37	0xba424598	-0.0007410883
38	0xba132840	-0.00056136027
39	0xba08418c	-0.00051977555
40	0xb9173b6f	-0.00014422623
41	0xb98c2425	-0.0002672981
42	0xbb0f4a0c	-0.0021864204
43	0x38a206db	7.726039e-05
44	0xb9e1e181	-0.00043083358
45	0xb9f1a64f	-0.00046091012
46	0xba88f9cb	-0.0010450421
47	0xbb112a37	-0.0022150406
48	0xb9f395eb	-0.0004646027
49	0xb9fe5432	-0.00048509386
50	0xba010860	-0.00049222074
51	0xba8ac4f4	-0.0010587261
52	0xba03bd0a	-0.00050254224
53	0x3a27ce60	0.00064012967
54	0xb98eca45	-0.00027235053
55	0xba3ce8ee	-0.000720634
56	0x3a74d6bc	0.0009339859
57	0xbb02faca	-0.0019985908
58	0x39729c7f	0.00023137218
59	0x39cfec70	0.00039658276
60	0xbb0bbd3d	-0.0021322512
61	0x3ac6fdb7	0.0015181814
62	0xb9c165cb	-0.0003688767
63	0xb8a62302	-7.9220175e-05
64	0xbab47897	-0.0013768849
65	0xba81dcfd	-0.0009907779
66	0xb9d5f3fd	-0.0004080831
67	0xb98392e7	-0.00025095718
68	0x38a7449f	7.975962e-05
69	0xba1ff53a	-0.000610191
70	0xbaa644d1	-0.0012685304
71	0xb627b5fc	-2.4990868e-06
72	0x3900bb32	0.00012276767
73	0xb7fdc86e	-3.0253283e-05
74	0x380ee587	3.4069202e-05
75	0xb83a4d5a	-4.4417895e-05
76	0x392b16aa	0.00016316274
77	0xb971618d	-0.00023019892
78	0x3aa4c3d0	0.0012570564
79	0xb9f61264	-0.00046934478
80	0x3abfddd9	0.0014638259
81	0x3990cf78	0.00027620397
82	0xb9e4421b	-0.000435368
83	0xbb302dbf	-0.0026882736
84	0x3a802913	0.0009777866
85	0xbb81e235	-0.0039637336
86	0xba1dce2d	-0.00060197973
87	0xbbba858f	-0.005692191
88	0xbac38cb7	-0.0014919256
89	0x39346cc9	0.00017206663
90	0x389ffa90	7.628382e-05
91	0xb9dadcb4	-0.00041744637
92	0xb8484129	-4.77444e-05
93	0xba16c874	-0.0005751916
94	0xbab97c88	-0.0014151493
95	0xba506285	-0.0007949251
96	0x3ae50242	0.0017471986
97	0xbb648a0d	-0.0034872324
98	0x37d2f32f	2.5147192e-05
99	0x3894f7af	7.1033246e-05
100	0xba3f9177	-0.0007307748
101	0xba16f525	-0.0005758575
102	0xba2791e1	-0.0006392282
103	0xb8df6df2	-0.000106539475
104	0x39348205	0.00017214574
105	0xba28f1cc	-0.0006444722
106	0xba874eae	-0.0010323131
107	0x3a7d836b	0.0009670767
108	0xb93db1e0	-0.00018090708
109	0xbaa555f8	-0.0012614122
110	0x3897da92	7.240953e-05
111	0xba3e6ede	-0.00072644453
112	0xba8f5177	-0.0010934313
113	0xba06620e	-0.00051263056
114	0xba2bd90e	-0.0006555476
115	0x3a13f114	0.00056435284
116	0xba0657ed	-0.00051247963
117	0xb9b11ad8	-0.0003378007
118	0xb9ad1c3f	-0.00033018176
119	0xbae7c778	-0.0017683348
120	0xb9bdb750	-0.00036185468
121	0x39c282a1	0.0003709989
122	0xba4c3f1a	-0.0007791385
123	0xba73fbc7	-0.0009307232
124	0xbb530a6f	-0.0032202264
125	0xba85d203	-0.0010209683
126	0xb9b581f6	-0.0003461984
127	0x38aaeec6	8.150707e-05

action_model._discrete_distribution.branches.0.weight f4 [3, 128]
0	0x3abf0025	0.0014572187
1	0xb9a80072	-0.0003204379
2	0x3c773eab	0.015090625
3	0xbbaa8b58	-0.0052045994
4	0x3c41f3de	0.011837928
5	0x39e4f94d	0.00043673292
6	0xb9c2e0d6	-0.0003717008
7	0xbb3cf167	-0.002883041
8	0x3c6cf299	0.014462137
9	0x3b3af84c	0.0028529344
10	0xbc1d3647	-0.00959546
11	0x3ba142f4	0.0049213115
12	0x3ad037cb	0.0015885768
13	0xbc50a515	-0.012734671
14	0xbb1286b0	-0.0022358112
15	0x3bdd0b61	0.0067457412
16	0xba8f1063	-0.0010914918
17	0xbc045aac	-0.0080782585
18	0xb9f1b907	-0.00046104958
19	0xba74b2fa	-0.0009334531
20	0xbbaa6e8c	-0.0052011665
21	0xbb42ffac	-0.0029754443
22	0xbc1e7c0e	-0.009673132
23	0xbc1d7672	-0.009610759
24	0xbad7f6cb	-0.0016476748
25	0xbc4b6c2f	-0.01241593
26	0x3bee3668	0.0072696693
27	0xbb7448f9	-0.003727494
28	0xb919e67c	-0.00014677079
29	0x3c7822e5	0.015145038
30	0x3bb0bfc9	0.0053939563
31	0xbc42bbc9	-0.011885592
32	0x3c0bd535	0.008534719
33	0xbc4d13cc	-0.012516927
34	0x3c346672	0.011010753
35	0x3b876222	0.0041315714
36	0xbc6ac5e0	-0.014329404
37	0x3c96fbe5	0.01843066
38	0xbbd628ce	-0.006535626
39	0xbaf8ce9c	-0.0018982473
40	0xbc3381ce	-0.010956241
41	0x3ba55fff	0.005046844
42	0xb9afe67a	-0.0003355032
43	0xbb385664	-0.0028127665
44	0x3c297e4b	0.010345052
45	0xbc28b039	-0.010295921
46	0xbae3fb2c	-0.0017393581
47	0xbbd4941a	-0.0064873816
48	0xbc67613c	-0.014122304
49	0xbc259baa	-0.010107914
50	0x3baf4f50	0.005350031
51	0x3cce4cc6	0.025183093
52	0xbb0b2d71	-0.0021236802
53	0x3c3f56b6	0.011678388
54	0x3c06f03b	0.008235986
55	0x3b1c27e1	0.002382748
56	0xbc7b38bf	-0.015333354
57	0x3b3be1f9	0.0028668626
58	0xbbfebd53	-0.007774034
59	0xbb6ca863	-0.0036111108
60	0xbbdb06c6	-0.006684157
61	0x3baa1121	0.00519003
62	0xbbfdd180	-0.0077459216
63	0x39242f89	0.00015657967
64	0x3c01a89c	0.007913735
65	0x3bd4acd0	0.0064903274
66	0xbb784510	-0.0037882961
67	0xbc515f7b	-0.012779112
68	0x3a8336bd	0.001001082
69	0x3a5bf3f2	0.00083905377
70	0xbaa4e13a	-0.001257933
71	0x3b1c6895	0.0023866047
72	0xbc7c91b7	-0.0154156005
73	0x3becc50a	0.0072256373
74	0x3ae7f25c	0.001769613
75	0xbbb5631c	-0.0055354964
76	0xbb7aa10e	-0.0038242969
77	0xbc139c9c	-0.009009507
78	0x3b845578	0.004038509
79	0x3c49ff13	0.012328881
80	0xbc03e901	-0.008051158
81	0xbc512025	-0.0127640115
82	0xbcd9af72	-0.026572917
83	0x3c26e7d9	0.010187113
84	0x3a983733	0.001161313
85	0xbcdfaa4c	-0.027302884
86	0x3aa2934a	0.0012403515
87	0xbae0046a	-0.0017091159
88	0x3b0f84fa	0.0021899329
89	0xba0e59d5	-0.0005430256
90	0x3b6cb84e	0.0036120596
91	0xbc567462	-0.013089271
92	0x3b656575	0.00350031
93	0x3c1b8078	0.009491079
94	0x3b89cbe3	0.0042052134
95	0xbc0c7c16	-0.008574506
96	0x3bed6a3c	0.00724533
97	0xbb1f9113	-0.0024347946
98	0x3b0c0625	0.0021365967
99	0x3c1f57f4	0.0097255595
100	0x3bf2adf5	0.007405991
101	0xb9db19af	-0.0004179007
102	0xba52c7b3	-0.0008040622
103	0x3c3a342b	0.011364977
104	0x3b971298	0.004610371
105	0xbc0c0bc9	-0.008547732
106	0x3bc08b27	0.0058759633
107	0xbbc34117	-0.005958687
108	0x3c47607d	0.012169001
109	0x3bf21c52	0.00738863
110	0xbc86b725	-0.016444752
111	0x3bf5daf2	0.007502907
112	0xbb85794c	-0.0040732976
113	0xbc3703c6	-0.011170333
114	0xbba9335a	-0.0051635923
115	0x3cd231c6	0.0256585
116	0xbc64c273	-0.013962376
117	0xbb5329b3	-0.00322209
118	0x3af3bf61	0.0018596464
119	0xbb9a6980	-0.0047122836
120	0x3ccc2bab	0.024923166
121	0x3b2d215a	0.0026417584
122	0x3a314f34	0.00067638163
123	0x3c4e208b	0.012581001
124	0x3c08fc6f	0.008360966
125	0xbbd69a23	-0.0065491362
126	0x3c43b92c	0.011946004
127	0x3bf9f73b	0.007628349
128	0xbb00bee1	-0.0019645023
129	0x3c10d003	0.008838656
130	0xbb5f5a4e	-0.0034080925
131	0x3c8cd401	0.017190935
132	0xbca2367d	-0.019801373
133	0xbbfca5c6	-0.0077101914
134	0x3bb54948	0.0055324174
135	0xba014a97	-0.0004932074
136	0x3c5b5362	0.013386579
137	0x3b669b2d	0.0035187707
138	0x3bcb8c99	0.006211829
139	0xbb314034	-0.0027046325
140	0xbba19e3a	-0.004932192
141	0xbc1f7474	-0.009732354
142	0x3c1469da	0.00905844
143	0xbba57561	-0.005049393
144	0x3ba9200f	0.0051612924
145	0xbbb4bf32	-0.0055159563
146	0xbc1ad795	-0.009450813
147	0x3c5ff27c	0.013668653
148	0xbc1ba7b8	-0.0095004365
149	0xbc5fcebf	-0.013660132
150	0x3b325423	0.0027210794
151	0xbb1b8010	-0.0023727454
152	0x361e0cac	2.355121e-06
153	0xbbd88c55	-0.0066085258
154	0x3baf2967	0.0053455117
155	0xbb923ce7	-0.0044628265
156	0xbbfb94d7	-0.007677655
157	0xbbbd46e3	-0.0057762726
158	0xbb90109c	-0.0043965112
159	0x3c0d1fa6	0.008613503
160	0xbbeeeedc	-0.007291658
161	0x3c85ae96	0.0163186
162	0x3b410909	0.0029454848
163	0xba9e2e97	-0.0012068328
164	0xbba61c87	-0.0050693187
165	0xbc8d38bb	-0.017238965
166	0x3bd1ff30	0.0064085945
167	0xbc56363b	-0.013074453
168	0x3c7f79fc	0.015593048
169	0x3c04ad92	0.008098023
170	0x3c58fa76	0.013243308
171	0x3bc6bd61	0.006065056
172	0xbb0ed9ee	-0.0021797377
173	0xbbb8ef66	-0.005643773
174	0x3bf902ab	0.007599195
175	0x3bfa14b2	0.0076318616
176	0x3c18a9e7	0.009317852
177	0x3c405193	0.011738199
178	0xba265107	-0.00063444715
179	0xb9c1156f	-0.00036827798
180	0x3c876505	0.016527662
181	0xbc1b822f	-0.009491487
182	0x3aaac457	0.0013028485
183	0xbae8ac11	-0.0017751475
184	0x3c161e80	0.009162545
185	0x3bc121cc	0.0058939215
186	0x3b8be191	0.004268833
187	0x3c67552a	0.014119426
188	0x39d10d65	0.00039873566
189	0xbc9c289b	-0.019062331
190	0xbc3bd23e	-0.0114637
191	0x3c2b5d6c	0.010459285
192	0xbc6efc8f	-0.014586582
193	0xbc4a713b	-0.012356098
194	0xbc49d942	-0.012319865
195	0xbc4339e5	-0.011915659
196	0xbafe143a	-0.001938469
197	0xbcc64e70	-0.024207324
198	0x3ab0003c	0.0013427804
199	0xbc3fa103	-0.011696103
200	0x3a8b0ae7	0.0010608108
201	0x3b0184a1	0.001976289
202	0x3c8a3c34	0.01687441
203	0xbbd4c588	-0.006493274
204	0x39506b3e	0.00019876377
205	0xbc5bb188	-0.013409026
206	0x3bb5ee1a	0.0055520656
207	0xbad7d5c5	-0.0016466907
208	0xbced9b40	-0.029004693
209	0xbac8dc55	-0.0015324453
210	0xbc73abed	-0.014872533
211	0x3ba60299	0.0050662276
212	0xbc4b533c	-0.012409981
213	0xbc0163a8	-0.007897295
214	0x3b042989	0.0020166358
215	0xbb93298e	-0.0044910377
216	0x388fc365	6.8551664e-05
217	0xbb3e14f4	-0.0029004188
218	0x3bf8b2be	0.007589667
219	0xbb4d06aa	-0.003128449
220	0xbc3b1f29	-0.011421003
221	0xbc5a2010	-0.013313308
222	0x3c1eb347	0.009686298
223	0xbbe8ad6a	-0.0071007507
224	0xbcc84e63	-0.02445144
225	0xbbe45207	-0.0069677862
226	0x3c4427d0	0.011972383
227	0xbc3c17d2	-0.011480289
228	0xba74eba3	-0.0009342974
229	0xbc8613f2	-0.016366933
230	0x3a931bc8	0.001122349
231	0x3b48ffcb	0.0030670043
232	0x3c430c98	0.011904858
233	0x3afff4ad	0.0019527875
234	0x3bab97a7	0.005236584
235	0x3c933234	0.017968275
236	0xbb91747d	-0.0044389353
237	0xbb2d4737	-0.0026440152
238	0xbc0b57c0	-0.008504808
239	0x3ad1ecfc	0.0016016061
240	0x3a81caea	0.0009902392
241	0x3b7ade5d	0.0038279512
242	0xbbff0c1d	-0.0077834264
243	0x3c06fdfb	0.008239265
244	0xbb7097d8	-0.00367116
245	0x3c58584b	0.013204644
246	0x3ad41d5f	0.001618307
247	0x3c27a4ab	0.010232131
248	0x3b85ddcb	0.0040852777
249	0xbc1c3047	-0.009532995
250	0xbbf294c8	-0.00740299
251	0x3c8fb07b	0.017540207
252	0xbb9ec5c9	-0.004845355
253	0xbba9631f	-0.005169287
254	0x3a1274e8	0.00055868784
255	0x3c76eef4	0.015071619

action_model._discrete_distribution.branches.0.bias f4 [3]
0	0x398f122e	0.0002728863
1	0xb9f593aa	-0.0004684006
2	0xb98e61c7	-0.000271572

action_model._discrete_distribution.branches.1.weight f4 [2, 128]
0	0xbb35f541	-0.002776459
1	0xbc9612f8	-0.018319592
2	0xbba0d6f4	-0.004908437
3	0xbb4f9655	-0.0031675298
4	0xbc71549e	-0.014729647
5	0x3bce887a	0.0063028904
6	0x3c202d52	0.00977643
7	0xbb68b7a2	-0.0035509844
8	0x3bf11ba3	0.007358031
9	0xbc326bfc	-0.010890003
10	0x3c1a0d91	0.009402649
11	0x3a43f2c5	0.0007474835
12	0xbc1894c4	-0.009312812
13	0x3c2b83f0	0.010468468
14	0x3c1a5a66	0.009420967
15	0xbae39f96	-0.0017366286
16	0xbc1fe873	-0.00976001
17	0xbb8aaf6e	-0.0042323386
18	0x3bb260fe	0.0054436913
19	0x3bae48c3	0.0053187325
20	0xbbc9eced	-0.006162277
21	0xbb3c17dc	-0.0028700745
22	0xbc2b7096	-0.010463854
23	0xbc2ba0b8	-0.01047533
24	0xbae38dec	-0.0017361022
25	0x3c4fd8fb	0.0126860095
26	0x3b2419d3	0.0025039806
27	0xbbb7ff2c	-0.0056151357
28	0xbba45b69	-0.0050157798
29	0xbaa23a36	-0.0012376967
30	0x3b01eb9a	0.0019824267
31	0x3c65515e	0.01399645
32	0x3c31131a	0.010807777
33	0x3b7e702b	0.0038824182
34	0xbc797aeb	-0.01522706
35	0x3c4f23b8	0.012642793
36	0xbc88b7b8	-0.016689166
37	0xbb9cd65d	-0.0047862963
38	0xbcd50855	-0.02600495
39	0xbb6781f1	-0.0035325254
40	0xbc2754ab	-0.0102130575
41	0xbc26a76a	-0.010171751
42	0xbc1199c5	-0.008886759
43	0x3c5af940	0.01336509
44	0x3b92dd20	0.0044819266
45	0xb7442fa8	-1.1693606e-05
46	0x3b4307a6	0.0029759197
47	0x3c4898ce	0.012243463
48	0x3bb3dcae	0.0054889536
49	0xbc65a00e	-0.014015211
50	0x3b77e1b5	0.003782374
51	0x3b7434f3	0.0037263006
52	0x3a66996a	0.0008796664
53	0xb9e5dd66	-0.00043843238
54	0x3b97dcf8	0.004634496
55	0x3ba993a6	0.005175072
56	0xbb3380cc	-0.0027390001
57	0xbbf51893	-0.007479736
58	0xbb6170f4	-0.00343996
59	0x3b8f6838	0.0043764375
60	0xbbe9d243	-0.007135661
61	0xbc3a3119	-0.011364245
62	0xbc4adfe3	-0.01238248
63	0x391dae25	0.0001503756
64	0x3a70707d	0.00091720355
65	0x3c41ef30	0.011836812
66	0x3a838426	0.001003389
67	0x3c8965cb	0.016772171
68	0x3c1eb728	0.009687223
69	0x3b802aa3	0.0039113327
70	0xbc9407fe	-0.018070217
71	0x3bee6cf6	0.0072761727
72	0x3b8549d3	0.0040676384
73	0xbb730758	-0.0037083235
74	0x3c26989f	0.010168224
75	0x3c57579b	0.013143445
76	0x3be67b77	0.007033761
77	0x3cb2e019	0.021835374
78	0xbadcb483	-0.0016838465
79	0x3b7168d5	0.0036836166
80	0xb9a3e4e1	-0.0003126031
81	0x3cc1c1c9	0.023651974
82	0x3c218bee	0.009860022
83	0xbbac08da	-0.0052500786
84	0xbb9f1515	-0.004854808
85	0xbc3f7990	-0.011686698
86	0x3b37eb3b	0.0028063792
87	0xbb25af45	-0.002528147
88	0xbb92af2a	-0.0044764476
89	0xbb23facf	-0.002502132
90	0xbb40ee79	-0.0029439016
91	0xbbf0b190	-0.007345386
92	0x3c616ef4	0.013759363
93	0xbb1ad670	-0.002362635
94	0xbb64d302	-0.003491581
95	0xbbd1385a	-0.0063848915
96	0x3bf9633f	0.007610708
97	0x3c35ef0d	0.011104357
98	0x3aa83f7b	0.0012836301
99	0xbbb58e95	-0.0055406787
100	0xbb9fca2e	-0.0048763966
101	0xbb0b63b9	-0.0021269156
102	0x3c3bc33c	0.011460122
103	0xbb31c69a	-0.0027126432
104	0x3b24b2ed	0.0025131062
105	0xbb2c04e4	-0.0026248032
106	0x3c6256ee	0.013814671
107	0xbc2deed5	-0.010616024
108	0x3b7b4bc9	0.0038344732
109	0xbb1287c9	-0.0022358766
110	0xbbf3ccb9	-0.0074401763
111	0xbc0e36a8	-0.008680023
112	0xbc02440c	-0.007950794
113	0xbbc27ec6	-0.0059355227
114	0x3ab5f5a0	0.0013882406
115	0xbc271199	-0.010197067
116	0x3cad5f75	0.021163682
117	0x3a5079dc	0.0007952729
118	0xbb8f0530	-0.004364632
119	0x3c8aad5f	0.016928373
120	0xbc9550a5	-0.01822693
121	0x3c2e0ff7	0.0106239235
122	0x3c570d80	0.013125777
123	0xba7bcb83	-0.0009605216
124	0x3b8307dc	0.0039987396
125	0x392d249c	0.00016512204
126	0x3c8c2b0b	0.017110368
127	0xbbff3754	-0.007788578
128	0xbc5735ea	-0.013135413
129	0xbaaeb568	-0.001332921
130	0xbc9c0e17	-0.019049687
131	0x3b837a25	0.0040123635
132	0xbc12e021	-0.008964569
133	0xbbcdbb3e	-0.0062784245
134	0x3bc330f3	0.005956763
135	0x3b57a1ce	0.003290284
136	0x3a2d6bb1	0.00066154735
137	0xba048cf3	-0.00050564035
138	0xbbc29a34	-0.0059387926
139	0xbc8b9698	-0.017039582
140	0xbbeb96d8	-0.007189613
141	0xbc6bf3e8	-0.0144014135
142	0x3a408cc8	0.0007345197
143	0xbb0640f8	-0.0020485502
144	0xbb99818b	-0.004684632
145	0x3bf8e6c8	0.0075958706
146	0xbb058a23	-0.0020376525
147	0xba1ba68a	-0.0005937597
148	0xbbbb5b07	-0.0057176384
149	0x3b987a03	0.004653217
150	0xbc2431c5	-0.010021632
151	0x3c5bb418	0.013409637
152	0xbc904600	-0.017611504
153	0xbc0023f5	-0.007821073
154	0x3a042012	0.0005040179
155	0xbc04d9a8	-0.008108534
156	0x3be03db3	0.0068432926
157	0xbbf9bfe7	-0.0076217535
158	0x3b779ffc	0.0037784567
159	0x3abec008	0.0014553079
160	0x3a8080a2	0.000980396
161	0x39cee957	0.00039465234
162	0x3a2e72fd	0.0006654708
163	0x3c073b3a	0.008253867
164	0x3bb6ca74	0.0055783335
165	0xbc4a2964	-0.01233897
166	0x3b59e424	0.0033247555
167	0xbbacd704	-0.0052746553
168	0xbaa24261	-0.0012379402
169	0xbc2d4096	-0.0105744805
170	0xbbd999eb	-0.006640663
171	0x3c8198dd	0.015819961
172	0xbaf7ee3a	-0.0018915602
173	0xbc27adcb	-0.010234307
174	0x3bde836b	0.0067905686
175	0x3c0bac87	0.00852502
176	0x393e3f52	0.000181434
177	0xbb3687ff	-0.0027852056
178	0xbc1c188a	-0.009527335
179	0x3c2f4916	0.010698577
180	0x3bc18eff	0.005906939
181	0x3afdd24a	0.0019365039
182	0xbab526d1	-0.0013820772
183	0xb9909fd6	-0.00027584907
184	0xbb8a030f	-0.0042117904
185	0x3c06d32a	0.008229056
186	0xbba7bf6f	-0.005119256
187	0x3ae54282	0.0017491134
188	0x3c25c324	0.010117326
189	0x3a759839	0.0009368691
190	0x3b1c1df8	0.0023821574
191	0x3b68c631	0.0035518522
192	0xbaa1dc77	-0.0012349029
193	0x3c28acb3	0.010295081
194	0xbb90322e	-0.004400513
195	0x3b245d4b	0.002508002
196	0x3a366250	0.0006957399
197	0xbc9a1b3c	-0.018811814
198	0x3a80d7e1	0.0009829962
199	0xbc454e58	-0.012042604
200	0xbc299996	-0.010351559
201	0x3adf4176	0.0017033059
202	0x3a9096f3	0.0011031314
203	0xbc50b9db	-0.012739624
204	0x3ac5f9d4	0.0015104362
205	0xbc0bc06f	-0.008529766
206	0xbbc5389e	-0.006018712
207	0xbc2bb649	-0.010480472
208	0x3b8dad8d	0.0043236674
209	0xbb0ab9ea	-0.0021167942
210	0xbaac0cc4	-0.0013126363
211	0xbbd28bd1	-0.006425359
212	0xbb4e45dc	-0.0031474745
213	0x3b77f546	0.0037835403
214	0x3b980e57	0.0046403813
215	0xbad4ded4	-0.0016240724
216	0x3c13c224	0.009018455
217	0x3c226a41	0.009913028
218	0xb9b27bc8	-0.0003404303
219	0x3ba5a7b4	0.005055392
220	0xb900cade	-0.00012282605
221	0xbb149652	-0.0022672606
222	0xbb04d77d	-0.0020270043
223	0x3b95e52a	0.0045744376
224	0x3c2743b6	0.010209015
225	0xbb1e4ae5	-0.0024153527
226	0xbb57bc0a	-0.0032918476
227	0x3b8479cf	0.004042841
228	0x3c008bb5	0.007845809
229	0x3cacf114	0.021111049
230	0x3b899384	0.0041984934
231	0xbbe6b1ed	-0.0070402534
232	0xbbec1d87	-0.0072056684
233	0x3b5b5791	0.0033468942
234	0x3c322ca0	0.010874897
235	0x3c86700a	0.016410846
236	0x3c55cd4c	0.013049435
237	0x3b7b209e	0.0038319002
238	0x3c2f00f5	0.0106813805
239	0x3b10639e	0.0022032033
240	0xbbc5de42	-0.006038458
241	0x3c2bfd37	0.010497383
242	0xbc3a9fe8	-0.011390664
243	0xbb909cfa	-0.0044132443
244	0xbc33c74d	-0.01097281
245	0x387ccb93	6.0271075e-05
246	0xbb64e54e	-0.0034926715
247	0x3ca43204	0.02004338
248	0x3bb4af0e	0.005514032
249	0x3c7b6bb7	0.015345505
250	0x3be0d104	0.006860854
251	0xbb9c2c84	-0.004766049
252	0x3bb9499e	0.005654528
253	0xbc825419	-0.015909242
254	0xbbea2a40	-0.00714615
255	0x3c398e24	0.011325393

action_model._discrete_distribution.branches.1.bias f4 [2]
0	0x3844b12d	4.689505e-05
1	0xb844aff1	-4.68939e-05
