results/Player1z/MoveAgent2D/MoveAgent2D-55924.pt (torch, 457015 bytes, 40 tensors)

discrete_act_size_vector f4 [1, 2]
000000 00 00 40 40 00 00 00 40
       3.0 2.0

network_body._body_endoder.seq_layers.0.weight f4 [128, 9]
000000 ca c1 75 be 8d 9d b3 be 4e dc 20 3c 12 73 69 3e
       -0.23999706 -0.3508114 0.00981815 0.22797802
000010 64 c6 33 3f 93 81 df 3d 23 50 8c 3e 6c 47 fd bd
       0.70224595 0.10913386 0.2740489 -0.12367138
000020 bc 65 d1 bd 69 0e b1 bc 79 37 89 3c 0f 27 96 3e
       -0.102244824 -0.021613317 0.016750084 0.29326674
000030 ba 83 33 be ec 10 c1 be 91 66 d7 be 85 6c da be
       -0.17530718 -0.37708223 -0.4207044 -0.4266092
000040 0e 3c 10 3f 8c 5b da be e0 76 fd 3e 89 87 34 be
       0.56341636 -0.4264797 0.49504757 -0.17629828
000050 4c 81 f7 3d c8 d8 5d 3d 71 da d8 3d a0 1d e9 be
       0.12085208 0.054161817 0.105885394 -0.45530415
000060 04 9b a5 be 63 4b 84 3e c5 45 9d 3c db cc 26 bf
       -0.3234483 0.25838766 0.019198308 -0.65156335
000070 80 6b 9f 3e 9a 5c 30 be 59 ff ab 3e e0 a8 36 bf
       0.31136703 -0.17222825 0.33593252 -0.7135143
000080 f1 90 5e bb cf 54 cc 3e b7 ee cb be 64 70 d5 3e
       -0.0033960904 0.39908454 -0.39830562 0.4168731
000090 46 84 96 3c f5 43 29 3f da 74 33 be 33 b0 87 3e
       0.01837362 0.6611932 -0.17525044 0.26501617
0000a0 d5 0e 0b 3f ac cc 24 3e de 74 21 be 64 d2 64 bc
       0.54319507 0.16093701 -0.15767238 -0.013966177
0000b0 3e fc 2f bf f4 ab f2 3b aa 01 c3 be 76 59 0a be
       -0.68744266 0.0074057523 -0.38087207 -0.13510689
0000c0 30 21 fa bd 04 31 33 3e 0c 58 14 be 96 03 3c be
       -0.12213361 0.17499167 -0.14486712 -0.18360743
0000d0 5f e5 bc 3d 3c 49 16 be a3 9c 48 3e b3 a7 8a be
       0.092234366 -0.14676374 0.19591002 -0.2708107
0000e0 67 0c 6d be db 7b 48 3d d0 89 99 bc 06 d7 8a 3e
       -0.23149262 0.048946243 -0.018742472 0.27117175
0000f0 62 4e 1d bf 9f 7f 57 be 09 05 66 3e 38 7f cd be
       -0.6144773 -0.21044777 0.22462858 -0.40136123
000100 b4 6f 77 bd 8d 4d a7 3c e1 d5 ed bc cc 45 92 be
       -0.060409263 0.020422721 -0.02903265 -0.28568876
000110 dc 73 28 3f cb 8b 77 3e 65 f9 91 3e 10 49 4f bc
       0.6580179 0.2417442 0.28510585 -0.012651697
000120 7b 88 42 be 9a 3e 55 bc db 1f 10 bf fb 31 ae bd
       -0.18997376 -0.013015414 -0.5629861 -0.08505627
000130 96 45 96 be 97 54 f7 3e ff 3c c9 3e 7f 84 31 3e
       -0.29349965 0.48306724 0.3930435 0.173357
000140 95 bf 7a 3d fc 4f 0a 3e 3a e8 ab be d5 9c b8 3d
       0.061217863 0.13507074 -0.33575612 0.09014288
000150 d6 ee 92 be 7c d6 f9 3e 81 e0 bf be 1d f9 c0 3d
       -0.28697842 0.4879645 -0.3747597 0.094225146
000160 93 73 9d 3e 04 6f 7e 3e 14 55 79 be a1 24 d5 3e
       0.3075224 0.24847037 -0.24348861 0.41629508
000170 0f d4 d3 3d 12 a7 92 3d 8a 49 aa 3d a8 ce ca 3e
       0.10343181 0.071607724 0.08314808 0.3961079
000180 bf f7 4f be 25 45 0f bc 16 7d dd 3e fc 49 3d bd
       -0.20309351 -0.008744513 0.43259495 -0.046213135
000190 35 75 a2 be 15 43 2b be a8 85 5a bd 06 87 ac be
       -0.31730047 -0.16724809 -0.05335012 -0.33696765
0001a0 f5 32 3b be d8 0b 7a be 1f b5 1b 3f b9 cd df 3e
       -0.18281157 -0.2441858 0.60823244 0.4371164
0001b0 96 f1 8c be 2f 85 24 be 14 c0 da 3e 76 38 ea 3e
       -0.27528065 -0.1606643 0.4272467 0.457462
0001c0 38 ca 28 3d 2f 83 9f be 2e 09 30 bf de 3a 98 be
       0.041208476 -0.31154773 -0.6876401 -0.29732412
0001d0 39 1f c0 3e c6 c2 6d 3e 72 66 c2 3e 2c ca f5 be
       0.3752382 0.23218831 0.37968785 -0.48005807
0001e0 74 ab 28 3f 69 1a ad 3e 60 a3 0f 3d 6f 5a 83 be
       0.65886617 0.33809212 0.035067916 -0.25654933
0001f0 f9 76 a5 bd 7c 5a e4 be 8f 16 81 bd b2 fa fe bd
       -0.08079333 -0.44600284 -0.06303131 -0.1245016
000200 fd dc 84 3e 76 8d be 3e 07 13 95 be 96 db 16 3d
       0.2594985 0.372173 -0.2911608 0.036830507
000210 c6 10 6a 3f 9d 6f ea 3c 9a 56 5e 3e 69 b1 47 be
       0.91431844 0.028617674 0.21712723 -0.1950127
000220 5e 7c 46 bf 3e 9f 16 be 46 be 11 bf 72 74 61 be
       -0.7753352 -0.14709184 -0.5693096 -0.22017077
000230 e0 f4 bb 3e 98 d1 06 3e 34 32 0b 3f 91 09 0f 3f
       0.36710262 0.13165891 0.5437348 0.5587397
000240 d3 b2 cc be e7 b7 9c be 2c 70 7d 3e f4 16 8d be
       -0.39980182 -0.30609056 0.24749821 -0.27556574
000250 72 7b 0c bf 90 85 f4 3e c0 da 9b be be 38 a8 3e
       -0.5487586 0.4775815 -0.3044033 0.3285579
000260 5a 1e de be 2b 15 2d be 67 b3 93 be d1 45 02 bf
       -0.4338253 -0.16902606 -0.2884781 -0.5088778
000270 0d 27 da 3e 68 31 91 3d 74 e7 13 3f 25 54 04 3d
       0.42607918 0.070895016 0.57775044 0.03230681
000280 ab 07 96 3e f7 a6 cc 3e 17 2e ac be eb dc 52 be
       0.29302725 0.39971134 -0.33628914 -0.20592086
000290 8d 93 1c bd 25 32 d6 be be 33 4a 3d c0 fd 39 3e
       -0.038226653 -0.41835132 0.04936575 0.18163204
0002a0 62 ac a1 be 13 ab 0b 3c 27 49 08 bf e8 2b 05 be
       -0.3157683 0.008524674 -0.5323662 -0.1300503
0002b0 0d 69 7b 3e a7 6b 38 3d 0b 38 a7 3e 1c 9c 99 bd
       0.24551792 0.04502454 0.32659945 -0.075004786
0002c0 ec f7 22 be 65 ba f1 bb 22 29 44 3d d2 b5 55 bd
       -0.15914887 -0.0073769563 0.04789079 -0.05217535
0002d0 97 27 1c 3f 63 96 9c 3c e7 96 a6 3d fd e4 6f be
       0.6099791 0.019114679 0.08134251 -0.23427196
0002e0 b7 e0 05 3f ac 50 96 3e 33 d6 50 3e bd d3 8b 3e
       0.5229601 0.29358423 0.2039421 0.2730998
0002f0 f5 e1 bb 3d b9 1f 8d be 45 2a 14 bd 64 93 f5 be
       0.09173957 -0.27563265 -0.036173124 -0.47964013
000300 5d 1c 26 3d 79 cc 5c bc 42 5e 96 be 1a 04 88 be
       0.040554393 -0.013476484 -0.29368788 -0.2656563
000310 7e eb 15 bf bd 4f 0f be 0f 3d fe bc c7 d9 7a 3e
       -0.5856246 -0.13995261 -0.031034974 0.24497138
000320 3b cf 3a be 13 c2 52 be f0 a8 8e 3d 7d 5b ef 3e
       -0.18243115 -0.20581846 0.06965816 0.46749488
000330 c3 01 97 3e 7c 04 99 3e 8d 1c 30 3e e7 29 0f bf
       0.29493532 0.29886234 0.17198391 -0.5592331
000340 c9 69 1d bf a4 92 c7 3d 64 d8 b3 3e 30 0c 29 3e
       -0.6148954 0.09744766 0.3512603 0.16508555
000350 f1 37 25 3f 84 bb ca 3d ff 64 8d 3d 09 e8 58 3f
       0.64538485 0.09899047 0.06904029 0.8472906
000360 40 65 b9 b8 8c 0f 00 be a6 b7 49 3e 3a 5b 47 be
       -8.840347e-05 -0.1250593 0.19698963 -0.19468394
000370 dd ec 8f 3e bc 04 b7 bd 2a ec 52 be 93 0f bc bd
       0.281104 -0.0893645 -0.20597902 -0.09182658
000380 2d 86 fb 3d 2d 54 c7 bb f6 42 c7 3d b9 9a 67 be
       0.122814514 -0.0060830326 0.09729569 -0.22617616
000390 b8 ea 68 3f ab 03 3d be 6a d6 31 3e 5f 96 98 bd
       0.9098315 -0.1845843 0.17366949 -0.07450556
0003a0 f3 d3 d3 bc 88 cf b8 3e c9 97 62 bc a5 fc 8a be
       -0.025857901 0.36095834 -0.013830134 -0.27145877
0003b0 f7 74 31 be 02 10 8c 3d 0f fe 31 bf 15 90 9e 3d
       -0.17329775 0.06838991 -0.6952829 0.07742325
0003c0 71 cd 2b 3f db ae af be 5c 37 84 3e 00 30 b1 be
       0.67110354 -0.34313092 0.25823486 -0.34606934
0003d0 c0 c7 55 be ff cf dd 3d 9e 18 9f be a0 19 4a be
       -0.2087698 0.10830688 -0.3107347 -0.19736338
0003e0 a5 df 29 bd c5 31 7c 3d 3e e0 19 3d 1a 21 e5 3e
       -0.04147305 0.0615709 0.03756737 0.44751817
0003f0 84 51 d3 3d 99 9b 50 3e cd cb bc be e0 ed a4 be
       0.10318282 0.20371856 -0.36874238 -0.32212734

network_body._body_endoder.seq_layers.0.bias f4 [128]
000000 5b af d9 39 3d f0 04 bb 27 f7 85 38 58 3a bd ba
       0.00041520115 -0.0020284795 6.38797e-05 -0.0014436943
000010 3c 75 2e ba 6b 21 d2 3a 63 34 38 3a 78 75 9d b8
       -0.00066550425 0.0016031688 0.0007026849 -7.508224e-05
000020 86 23 c2 39 8f fb 1f bb fa bc 3a bb 18 4e df b9
       0.0003702903 -0.0024411415 -0.0028493986 -0.0004259206
000030 7e a8 2f ba a2 21 c8 b9 96 7b f4 ba 00 6e 68 38
       -0.00067008275 -0.0003817203 -0.0018652554 5.5415556e-05
000040 53 98 a7 ba 78 f1 ec ba 64 86 5c bb 8a a0 d4 b9
       -0.0012786485 -0.0018077334 -0.003364944 -0.00040555402
000050 80 f9 42 3a 4c 99 f6 ba 51 0a cf ba 54 d3 99 ba
       0.0007437691 -0.0018813997 -0.0015795921 -0.0011735954
000060 f5 3d b5 ba d0 6a fb b9 63 74 8f b9 9f 42 4e bb
       -0.0013827669 -0.00047954032 -0.000273618 -0.0031472815
000070 31 9a a9 ba c6 3f 06 3b c3 14 15 3b 6f 5b 9c ba
       -0.0012939629 0.002048479 0.002274797 -0.0011929105
000080 43 54 ae ba 40 3a 05 bb 07 0d 8b b9 33 c0 ed ba
       -0.0013300258 -0.002032891 -0.00026521852 -0.0018138945
000090 58 1e 45 ba b3 c6 dc ba bd ec 96 b8 c4 1d 04 bb
       -0.0007519475 -0.0016843885 -7.196653e-05 -0.0020159343
0000a0 94 f5 9c 39 dc 5f d1 ba c5 37 a3 ba c4 98 92 3b
       0.0002993761 -0.0015974003 -0.0012452534 0.0044737775
0000b0 dc f0 c0 39 20 a8 20 ba 6a f6 b6 39 2a 49 f1 3b
       0.00036800548 -0.0006128568 0.00034897338 0.007363458
0000c0 e4 0d d0 39 a9 3c a7 3a 42 34 93 bb ed be 1f 3b
       0.000396832 0.0012759167 -0.0044923136 0.0024375275
0000d0 a8 9d 80 ba 8c 68 07 39 ea b7 9d ba dd a4 b2 b9
       -0.000981261 0.0001291355 -0.001203296 -0.00034073638
0000e0 f2 e7 f7 b8 1c 15 53 b9 08 b4 4a 37 33 8e 13 3a
       -0.00011821081 -0.00020130392 1.2082055e-05 0.00056287943
0000f0 8b a4 6a bb 6d 2d 0e ba 1f f5 e2 ba 1a fb 5e bb
       -0.0035803642 -0.0005423639 -0.0017315483 -0.003402418
000100 70 eb 30 3a 50 5b 3d b8 52 9d 5e 3a 30 1e 9b 3a
       0.000674895 -4.5146153e-05 0.00084920705 0.0011834558
000110 99 16 ef ba 09 de 99 bb 62 02 af ba 29 5e 41 bb
       -0.0018240988 -0.004695658 -0.001335215 -0.0029505587
000120 ed f8 fd ba e0 5f 8f 3a b4 b3 93 bb 97 ea f5 b9
       -0.0019376554 0.0010938607 -0.0045075063 -0.00046904825
000130 a9 ae 0b 3a 9a 0a ba ba ef 27 9e ba 6d 71 3b 3a
       0.00053284556 -0.0014193833 -0.0012066344 0.00071503856
000140 9b 3e 78 ba e5 73 f3 ba bc 08 39 3b 8c 87 93 ba
       -0.0009469778 -0.0018573968 0.0028233966 -0.0011255606
000150 14 65 af ba 4e 4b 07 ba eb 42 a3 ba 08 31 40 3a
       -0.0013381564 -0.00051610626 -0.0012455856 0.0007331525
000160 c0 de e9 ba 20 87 ec 3a d6 49 86 3a 76 19 6e ba
       -0.0017842874 0.0018045641 0.0010245393 -0.00090827735
000170 c8 8c 2e 3a cc 4d bd 3a 43 81 b7 ba 32 59 8a 3b
       0.0006658551 0.0014442741 -0.0014000315 0.0042220587
000180 65 63 05 bb d9 be 80 bb 8e be 11 ba 02 d5 43 bb
       -0.0020353433 -0.003929001 -0.0005559706 -0.0029881601
000190 5e e0 3d bb 60 5b a9 38 4f 64 e4 ba ca 64 08 ba
       -0.0028972845 8.075568e-05 -0.0017424914 -0.0005203007
0001a0 97 19 b5 ba 59 24 fa 3a e3 c9 0f ba 84 d8 e1 39
       -0.001381683 0.0019084319 -0.00054851006 0.0004307666
0001b0 d1 2f 9a ba d0 6c ab ba 47 e8 b2 37 90 13 a6 b9
       -0.0011763518 -0.0013078693 2.1327416e-05 -0.00031676563
0001c0 01 86 93 bb 0c 50 74 3a 02 60 1e 3a 25 05 bf ba
       -0.0045020585 0.0009319789 0.0006041528 -0.0014573677
0001d0 0c 5d 14 ba 50 a6 51 b9 0f ba 98 ba f0 f3 4f ba
       -0.0005659617 -0.0001999375 -0.001165213 -0.0007932773
0001e0 7b 21 20 ba 19 fa 42 3a ec c0 a2 bb dd 04 5a ba
       -0.00061085046 0.000743778 -0.0049668457 -0.0008316765
0001f0 fe 70 a8 bb ac 35 09 bb 0a 83 05 bb ce 93 a2 38
       -0.005140423 -0.0020936532 -0.0020372295 7.752293e-05

network_body._body_endoder.seq_layers.2.weight f4 [128, 128]
000000 97 dc 7a 3d 21 bf c9 3c 09 94 11 be 81 8e 91 3d
       0.061245527 0.02462727 -0.14216627 0.071072586
000010 e3 3d 85 3d d1 a6 49 bd 79 f3 00 be fe 3a 2c be
       0.065059446 -0.049231354 -0.12592877 -0.16819379
000020 4f 97 f4 3d fc 7b 00 3d 8b 3c d1 3c 99 38 26 bd
       0.11942922 0.03136824 0.025541564 -0.04058132
000030 74 45 47 be 33 d0 f7 3d 56 0e c1 3d 0e 83 e5 3c
       -0.19460088 0.12100258 0.094265625 0.028016593
000040 28 d4 6d bd b0 d1 aa 3d 4b a5 9a 3d 12 4d f4 bc
       -0.058063656 0.08340776 0.075510584 -0.029821906
000050 ac cb aa bd 35 23 47 3d c8 aa e8 bb 6f 3d 36 3a
       -0.083396286 0.04861756 -0.007100437 0.00069519033
000060 79 37 e9 3c 7b b2 75 3d 94 95 6c 3d 3b 03 2f 3d
       0.028468834 0.059984665 0.057759836 0.04272769
000070 c1 90 80 3d dc d8 34 3d 11 7f 08 3e 4f de c1 bd
       0.062776096 0.044152126 0.13329722 -0.0946623
000080 ba d8 a2 bd ac 48 6c bd eb 7e 2e 3d 19 a4 27 bd
       -0.079514936 -0.057686493 0.042601507 -0.04092798
000090 86 91 04 be 98 39 43 bd d6 eb 7d bd 99 f4 da b9
       -0.12946138 -0.047662348 -0.06199249 -0.0004176244
0000a0 b4 80 b3 bd f4 f9 e3 bc 95 aa ff 3d 2b 8b 69 bd
       -0.087647825 -0.027829148 0.12483708 -0.057017487
0000b0 6c 0a 11 3e fe 7f 1c 3e 65 73 e4 3d 6e 1b 0f bd
       0.14164132 0.152832 0.11154822 -0.03493827
0000c0 fb 43 0e bd 62 44 a0 bd 31 83 91 bd 2a 7d 85 bb
       -0.0347328 -0.07825543 -0.07105101 -0.0040737586
0000d0 30 1b 09 be 75 61 e8 bb 6a d6 f0 3c d4 4b 97 bd
       -0.13389277 -0.007091696 0.029399116 -0.0738751
0000e0 42 0b d9 3d ca fe fe bd 6c aa d1 bc b6 af 1e 3d
       0.105978504 -0.12450941 -0.025593959 0.03874179
0000f0 82 bf 3e bc 71 e8 8d 3c 8a 5f 8d bd 82 da 8a 3d
       -0.011642339 0.01732275 -0.06902988 0.06779958
000100 37 22 17 3e 8d 56 17 3e e3 3d f1 3d b0 3b 95 bd
       0.14759146 0.1477911 0.11779382 -0.07286775
000110 8a d2 84 be 30 c7 8a 3d c5 00 29 bc a9 04 56 bb
       -0.2594188 0.06776273 -0.010315125 -0.0032656586
000120 77 53 bd 3c 50 2d 5b 3e fb 26 b3 3d af cf e6 bd
       0.023111088 0.21404004 0.08747669 -0.11270081
000130 ee cd 82 bc b3 cc 5e 3d e7 64 65 3d dc 0b 1a 3e
       -0.015967336 0.054394435 0.05600443 0.15043586
000140 bf e2 21 be a7 15 58 bd 30 cb d0 bc e2 f0 62 3d
       -0.15809153 -0.052755024 -0.025487512 0.055405505
000150 74 cf 2a be 56 53 5f bd 88 b3 d9 3c ca 70 27 3d
       -0.166807 -0.054522835 0.026574865 0.04087905
000160 bb 0c 0e bc 95 c7 99 bb 78 2e 29 bd 36 6c e6 bd
       -0.008670027 -0.0046929815 -0.04130408 -0.11251108
000170 4e e2 81 3d 09 0b f7 3d 9f ec c3 3c 47 96 50 3d
       0.06341992 0.12062652 0.02391654 0.050924566
000180 02 c5 a2 bc d9 cf 05 be 0b d2 06 3e ab 8e 05 3e
       -0.019869331 -0.13067569 0.13166063 0.13042705
000190 ff 9f 37 be 78 60 33 3c 8b db d4 3d aa bb 13 3d
       -0.17932127 0.010948293 0.10393437 0.036067642
0001a0 71 85 6d 3d 62 58 3a 3d 8a cf 99 bc 8e 71 1e bd
       0.057988588 0.045494445 -0.01877572 -0.038682513
0001b0 ab 95 15 3e a2 9e fc bd cb 3a c3 3d 6f 2e 2b 3c
       0.14607875 -0.12334944 0.09532698 0.010448082
0001c0 5b 45 19 be 79 11 89 3c c8 0a 09 bd da 00 04 3e
       -0.14967863 0.016731964 -0.033457547 0.1289095
0001d0 8b 87 72 be 98 77 9f 3d 12 31 a5 bd 1f e5 5a bc
       -0.23684518 0.077864826 -0.08066 -0.013360291
0001e0 53 ce 1b be 89 95 a0 bd 9f 4b 83 3d dc 9b 03 3d
       -0.15215425 -0.078410216 0.06410908 0.03213106
0001f0 29 ee 6a 3e 53 68 15 be 46 7f 05 3d 04 79 41 bc
       0.22942413 -0.14590578 0.03259208 -0.0118086375
000200 1d 7f 43 bb ce 82 d2 3d e1 ec 31 3d 26 fa 88 3d
       -0.0029830404 0.10278855 0.043438796 0.06688337
000210 5d 3d 21 3e 97 a4 af bd e5 bd 68 3d 58 63 c0 3d
       0.15746064 -0.08576315 0.056821723 0.09393948
000220 08 8e df bc fb 57 ad 3b 86 a2 7d 3d 3a 11 a1 3d
       -0.027289405 0.005290029 0.061922573 0.07864614
000230 dc ff 85 3d 60 a6 1e 3e a1 b9 56 bd 41 9b e1 bc
       0.06542942 0.15493155 -0.052423123 -0.027539851
000240 af 68 36 3e 6b 54 d7 3d b8 6e 9d bd 14 29 04 be
       0.17813371 0.10514148 -0.076871336 -0.12906295
000250 23 80 c1 3b 9c 32 1b bc e6 d7 31 be ab dc 91 3d
       0.0059051677 -0.009472515 -0.17367515 0.07122167
000260 cb 01 86 3d fe 49 54 3d 96 b3 94 bb 92 27 58 bc
       0.06543311 0.051828377 -0.00453801 -0.013193028
000270 d3 a1 da 3c 87 00 1c 3e 9e cb e4 3c 78 01 d3 3c
       0.026688492 0.15234576 0.027929123 0.025757536
000280 dc 91 fe 3d 05 d9 ee bd d9 43 05 3e aa 06 02 3e
       0.12430164 -0.11662487 0.13014163 0.12697855
000290 81 3a 12 be 36 19 3a 3e f6 2c c1 bd d5 c5 71 bd
       -0.1428013 0.1817368 -0.09432404 -0.059026558
0002a0 b0 3f d6 3c cd 9d a3 3d 8c 81 8f 3b 55 9d cb bd
       0.026153415 0.079890825 0.004379457 -0.09942118
0002b0 82 ef 49 3d a9 60 95 3d 62 7a a4 3c d4 59 52 be
       0.049300678 0.07293827 0.020077888 -0.20542079
0002c0 02 3d 4b 3e f8 b8 b5 bc 32 6c ba bd fe f0 6c 3e
       0.19847491 -0.022182927 -0.09102668 0.23138806
0002d0 56 58 1f 3e d4 cf b9 bd f5 13 a3 bd 76 34 20 bd
       0.15561041 -0.09072843 -0.07962791 -0.03911253
0002e0 15 1a 97 bd 44 fb 7d bc 53 71 74 3d 0d 6b 09 bd
       -0.07378022 -0.015501801 0.059678387 -0.033549357
0002f0 9e 30 c8 bd 34 8c e2 3b 54 16 68 3d 86 71 86 bd
       -0.09774898 0.006913686 0.05666192 -0.065646216
000300 9b 6b 2a 3c 3d 8b 31 3e 59 a8 91 3d 83 da d0 3d
       0.010401632 0.17338271 0.07112188 0.10197928
000310 86 71 10 be 82 6d ba bc d4 30 63 bd db 43 fd bd
       -0.14105806 -0.022757296 -0.055466488 -0.12366458
000320 03 84 e2 3d 66 f2 ea bd 33 3e 5f 3d 27 fb 4e bd
       0.110603355 -0.11472015 0.054502677 -0.050532486
000330 30 17 96 bd c2 ea 1e bd 83 88 87 3d 29 db b0 3d
       -0.073286414 -0.0387981 0.066178344 0.086355515
000340 64 45 9c 3d c0 4a 82 bd 51 06 c5 bb 0d 84 65 bd
       0.07630423 -0.06361914 -0.006012716 -0.056034137
000350 f5 83 ba bc c5 7b af bd d3 60 5a bd 8d 32 98 3d
       -0.022768 -0.08568529 -0.053314995 0.07431517
000360 22 e6 9b 3c 25 8b a6 3d 99 2c 09 be 53 3a 3a bc
       0.019030634 0.081320085 -0.13395919 -0.011366445
000370 47 78 5f bd 02 a2 12 bd ea 8e 51 bd ac 4d c9 3d
       -0.054558065 -0.035799034 -0.051161684 0.09829268
000380 18 2a ae bc 39 c7 e2 3c 5a e8 8a 3d ae 77 a8 3d
       -0.021260306 0.027682887 0.06782599 0.08225952
000390 2f c6 b5 bb d0 a8 97 3e d0 e9 8a 3c 6c a2 ce bd
       -0.005547307 0.2962098 0.016957194 -0.10089573
0003a0 3e 4d 3a 3d da ef 18 be 6b 78 83 bd 9c 08 35 be
       0.04548382 -0.14935246 -0.06419452 -0.17679065
0003b0 88 9e b7 3d e3 fc 66 bd cc 74 37 be fc 1c 22 bd
       0.08965784 -0.056393515 -0.17915648 -0.039578423
0003c0 67 6b 5d bd 4f a6 0e be a0 97 3f bd 92 04 a2 bd
       -0.054057505 -0.13930629 -0.04677546 -0.07911028
0003d0 34 fd 0d bd 52 3b a8 3d 35 0e 22 3e c2 30 34 bd
       -0.0346653 0.082144395 0.15825732 -0.04399181
0003e0 5b 17 6a 3c 5f ea dd bd cb 1a 2b bd 19 cf 36 3e
       0.014287795 -0.10835718 -0.0417736 0.17852439
0003f0 b6 c9 e2 3c d4 31 da 3c 67 06 70 bc bd 22 f4 bd
       0.027684074 0.026635088 -0.014649964 -0.11920688

network_body._body_endoder.seq_layers.2.bias f4 [128]
000000 5f db 74 b8 1e 2a 3b 39 64 b8 3d 39 2c c5 3e ba
       -5.837844e-05 0.000178494 0.00018093135 -0.00072773057
000010 a4 ab 9b b8 43 30 de ba 0c f3 0c bb 44 66 39 b9
       -7.4229465e-05 -0.0016951639 -0.0021507172 -0.00017681072
000020 68 43 7b ba 4b 5a b6 ba e3 fe 10 3a dd 96 af 38
       -0.00095849345 -0.0013912407 0.0005531145 8.372751e-05
000030 6b 1b ca ba db a7 d2 39 ef 8b ea ba cf d5 f2 b8
       -0.0015419548 0.00040179383 -0.0017894487 -0.00011579284
000040 ec dd ca ba 8b 20 83 ba 74 ac 40 ba 41 cf 18 bb
       -0.0015477515 -0.0010004205 -0.0007349916 -0.0023316892
000050 78 0d 08 bb f6 75 e7 3a fa c8 f9 ba 80 d9 19 ba
       -0.002075998 0.0017659056 -0.0019057088 -0.0005868897
000060 12 c9 df ba 24 b0 6f b9 e6 5f 80 ba 7c da fd ba
       -0.0017073473 -0.00022858434 -0.0009794205 -0.0019367482
000070 40 fc 3d bb 30 eb a0 b9 a6 18 7e ba 8a ee 97 b9
       -0.0028989464 -0.00030692806 -0.0009693004 -0.0002897869
000080 69 3c c2 ba aa d7 3e b9 e8 c9 32 3a 4d c2 5a bb
       -0.0014819029 -0.00018200153 0.00068202475 -0.0033379972
000090 18 61 d9 b9 5f 03 1e ba 5e fa ce b9 ce 80 36 ba
       -0.00041461806 -0.0006027724 -0.0003947792 -0.00069619424
0000a0 48 51 c3 b8 27 56 fa b9 c1 75 0b bb c8 1c b2 38
       -9.3134644e-05 -0.00047747904 -0.0021279904 8.493062e-05
0000b0 49 17 0a b9 6b 9e 26 ba 7d 84 8f ba 2a 88 1c bb
       -0.0001316938 -0.00063560036 -0.0010949519 -0.002388487
0000c0 f1 3d 83 ba 28 ca 86 ba 40 94 be b9 ef b3 bd ba
       -0.0010012967 -0.0010283636 -0.0003635008 -0.001447318
0000d0 16 50 ec ba 19 65 3b 3a c5 c0 cc b9 c9 c2 f1 ba
       -0.0018029239 0.00071485486 -0.00039053537 -0.0018444891
0000e0 fd 72 24 bb 56 d3 2b bb a7 1d 9f b9 ac 9b 19 3a
       -0.0025092952 -0.0026218495 -0.00030348936 0.0005859684
0000f0 6b 40 59 bb 69 c5 d4 3a 10 58 fa b9 a2 c2 f2 37
       -0.0033149968 0.0016233149 -0.00047749327 2.8939281e-05
000100 17 d0 d1 ba 08 33 82 b9 f6 a2 3e ba f4 b4 50 ba
       -0.001600745 -0.00024833553 -0.0007272208 -0.00079615344
000110 f5 ea 70 ba 75 4b b9 ba 90 2a 2c bb 90 85 55 b9
       -0.0009190285 -0.0014136868 -0.0026270486 -0.00020363019
000120 79 f5 92 b9 87 70 5d b8 a5 ed 05 ba 39 ac 3b ba
       -0.0002803018 -5.2795305e-05 -0.0005108959 -0.0007159147
000130 9a 11 9c b8 e5 ab 24 ba e7 81 8a b9 12 a6 86 3a
       -7.441938e-05 -0.0006281718 -0.00026418196 0.0010272881
000140 6a ee 8c 39 18 de 7a 36 19 e8 9d ba 5f 1f 81 bb
       0.00026880513 3.7382179e-06 -0.001204732 -0.0039405073
000150 f1 c9 92 3a 98 2e aa bb e1 89 b4 b9 25 c1 b0 bb
       0.0011199099 -0.0051935427 -0.00034435003 -0.0053941184
000160 67 18 da ba e5 2a fb 39 31 7f 63 38 f0 26 63 ba
       -0.0016639353 0.0004790641 5.4239474e-05 -0.0008665165
000170 71 2c 84 b9 c2 81 0c ba 03 21 16 bb 20 d4 7a ba
       -0.00025210113 -0.00053599116 -0.002290786 -0.0009568352
000180 4d c7 5a 3b ae 05 92 bb 72 d0 7b bb 4e 57 87 39
       0.0033382953 -0.0044562435 -0.0038423804 0.00025814254
000190 f1 7c be ba 06 42 01 ba ec 22 14 b7 bd 5e 45 ba
       -0.0014533085 -0.0004930798 -8.829618e-06 -0.0007529071
0001a0 c2 bc 91 39 58 5e 72 ba c1 c4 57 ba 79 3d 19 bb
       0.0002779719 -0.00092456257 -0.0008230918 -0.0023382588
0001b0 c6 00 a3 b9 9e a6 83 bb 8a de 99 ba 5e 4c 01 bb
       -0.0003109036 -0.004017665 -0.0011739295 -0.0019729356
0001c0 1b aa 07 bb 13 b0 37 ba 91 04 b1 ba 5c 2b 78 b9
       -0.0020700756 -0.0007007133 -0.0013505389 -0.00023667276
0001d0 ab 55 c6 b9 bc 0c 74 ba fa 14 eb 3a b9 79 30 bb
       -0.0003782933 -0.0009309759 0.0017935329 -0.002692802
0001e0 26 df b5 b8 cc df fb 39 bb f4 ec ba ce 62 ab ba
       -8.672317e-05 0.00048041192 -0.0018078306 -0.0013075711
0001f0 fa 83 56 bb 74 bf db ba 6e 00 47 ba fa 54 d6 39
       -0.0032732473 -0.0016765432 -0.00075913116 0.00040880573

action_model._discrete_distribution.branches.0.weight f4 [3, 128]
000000 e3 67 46 3b 26 59 65 b9 e9 47 81 3c 5f 25 28 bb
       0.0030274324 -0.00021872352 0.01578136 -0.002565704
000010 cb 6f 42 3c 4a a5 a3 3a 1e dd a8 3a ed a3 54 bb
       0.011867474 0.0012485173 0.0012883281 -0.003244634
000020 a3 5e 5f 3c 0c f0 41 3b d0 95 19 bc 54 86 8f 3b
       0.013633403 0.0029592542 -0.009374097 0.004380027
000030 17 e6 c8 3a 53 e6 5c bc 20 86 fe ba f2 e1 cf 3b
       0.0015327361 -0.013482648 -0.0019418634 0.0063440735
000040 83 db e1 b9 ce 1a 0d bc ca 22 a1 b9 ce 4c ab 3a
       -0.00043078893 -0.008612348 -0.00030734233 0.0013069154
000050 19 7e d6 bb 6f ad 65 bb 20 ae 20 bc 96 86 1f bc
       -0.0065457937 -0.0035046001 -0.00980714 -0.009736678
000060 b5 f1 8f ba 98 27 4c bc e5 8d fc 3b c5 c5 7d bb
       -0.0010982068 -0.012460612 0.007707345 -0.0038722616
000070 c9 10 0d bb 47 d4 76 3c 89 6d c0 3b ce b3 3c bc
       -0.0021524897 0.015065259 0.0058724326 -0.011517478
000080 93 09 e8 3b 89 0d 46 bc 77 f9 38 3c 3f eb 50 3b
       0.0070812195 -0.012088188 0.011289946 0.00318785
000090 23 2f 69 bc bf ec 96 3c 39 1a d7 bb 8e 5d 0e bb
       -0.01423243 0.018423436 -0.0065644053 -0.0021723243
0000a0 a4 0f 33 bc 5f ef 9e 3b 67 ee eb b9 87 fc 3d bb
       -0.010929022 0.0048503126 -0.00045000316 -0.002898963
0000b0 38 d6 27 3c e7 c6 24 bc c8 7d ea ba ad 77 e2 bb
       0.010243945 -0.010057188 -0.0017890269 -0.006911239
0000c0 4a 7b 6a bc fd f4 2e bc 82 21 ba 3b aa 9e c5 3c
       -0.014311621 -0.010678527 0.005680264 0.024123508
0000d0 b3 29 f5 ba da 2b 3f 3c 36 2c f3 3b 79 b3 1f 3b
       -0.0018704444 0.01166817 0.007421042 0.0024368449
0000e0 84 f9 6e bc 4f f4 cc 3b 0d 2b f2 bb 3b b1 87 bb
       -0.014585856 0.00625471 -0.007390386 -0.0041410006
0000f0 37 e2 e0 bb 51 4f 95 3b 82 b7 01 bc e4 ec ed b7
       -0.0068629044 0.0045565744 -0.007917287 -2.8362912e-05
000100 3d e2 00 3c 79 84 dd 3b f3 c7 81 bb da 0d 45 bc
       0.007866439 0.0067601767 -0.0039606034 -0.012027228
000110 42 01 ec 3a 87 a3 78 ba d3 de 38 bb 47 bb 11 3b
       0.0018005746 -0.00094848167 -0.0028208985 0.002223687
000120 b2 3a 7e bc ec 59 e6 3b f9 a1 95 3a 1c 03 be bb
       -0.015516924 0.0070297625 0.001141607 -0.0057987105
000130 19 9a 72 bb 6a b8 16 bc e7 e4 98 3b 26 3b 61 3c
       -0.003701812 -0.009199241 0.004665959 0.013747012
000140 2c 6f 04 bc 1b fa 44 bc c7 de d4 bc 8d 2e 22 3c
       -0.008083146 -0.01202252 -0.025985135 0.009898794
000150 4a e0 89 3a 85 9d d5 bc 88 9f dc 3a d7 0d cc ba
       0.0010519114 -0.026076088 0.0016832212 -0.001556809
000160 5e ac 0a 3b 9e 21 72 ba 9a f2 60 3b c1 2c 60 bc
       0.0021159868 -0.0009236577 0.003432429 -0.013682545
000170 ce 85 54 3b 3d 36 1b 3c 55 06 89 3b c2 ae 0d bc
       0.0032428387 0.009473381 0.004181663 -0.008647623
000180 1e 75 ec 3b 7c 14 91 bb 72 d7 bd b9 d9 db 17 3c
       0.00721611 -0.0044274908 -0.00036209408 0.009268724
000190 8d 57 c2 3b 7e 55 36 ba 32 12 81 3b c1 a9 36 3c
       0.005930847 -0.00069554884 0.0039389366 0.011148871
0001a0 b7 15 96 3b ac 56 17 bc 47 59 01 3c 66 8e 94 bb
       0.0045802253 -0.009236973 0.0078948205 -0.004533577
0001b0 93 58 40 3c ae d1 aa 3b 51 35 84 bc 32 3e df 3b
       0.011739868 0.005212984 -0.016138704 0.006812834
0001c0 18 c3 84 bb 18 74 3e bc b9 96 ad bb 18 ee c6 3c
       -0.0040515773 -0.011624359 -0.0052975086 0.024283454
0001d0 d8 e8 85 bc cb f4 31 bb 6f e7 b1 bb e1 c2 8a bb
       -0.01634638 -0.0027153965 -0.0054292004 -0.004234657
0001e0 1a 98 c9 3c 18 b0 42 3b 1c 8c e0 38 f7 ca 48 3c
       0.02460866 0.002970701 0.0001070725 0.012255422
0001f0 f6 87 12 3c 99 ff d5 bb d4 3f 42 3c 61 af ff 3b
       0.008943548 -0.0065307138 0.011856038 0.007802889
000200 7b 19 33 bb 11 52 0f 3c 74 5f 78 bb cd 83 79 3c
       -0.002732842 0.0087475935 -0.0037898691 0.015229178
000210 ed 74 a1 bc fc 6c 1c bc 66 d4 b0 3b 18 f1 c5 b9
       -0.019709075 -0.009547468 0.0053964136 -0.00037754397
000220 78 92 7e 3c 04 99 61 3b 73 b2 16 3c 7f 27 22 bb
       0.015537851 0.003442348 0.009197819 -0.002474278
000230 18 6a a0 bb 34 a9 e8 bb 63 a4 03 3c ef 2f a1 bb
       -0.00489546 -0.0071002487 0.008034798 -0.004919044
000240 f7 c6 96 3b 9f 47 a8 bb e7 d2 27 bc f4 02 34 3c
       0.004601355 -0.005135491 -0.010243154 0.010987032
000250 cc c3 b5 bb e4 19 35 bc cd 41 3f 3b 7a 23 07 bb
       -0.0055470224 -0.011053536 0.0029183507 -0.002062051
000260 9e c3 2e b7 d1 c2 e4 bb 85 c3 98 3b 13 77 8d bb
       -1.0416754e-05 -0.0069812317 0.0046619796 -0.0043171733
000270 ef 13 23 bb 75 e7 c0 bb 49 8f 8b bb 3e 31 02 3c
       -0.0024883708 -0.005886967 -0.0042590243 0.007946311
000280 f9 18 ca bb f6 91 7a 3c b5 75 27 3b f2 de c4 3a
       -0.0061675278 0.015293589 0.0025552337 0.0015020056
000290 f3 b0 a5 bb c2 dd 8f bc c7 bd d0 3b be 61 55 bc
       -0.0050564944 -0.017561797 0.0063702795 -0.013023792
0002a0 6e 83 7f 3c cd 31 04 3c 6e 96 5a 3c 04 ba e9 3b
       0.0155953 0.008068514 0.013341529 0.0071327705
0002b0 ad 06 07 bb 48 e6 bf bb 33 60 fa 3b 9c 1e 0f 3c
       -0.0020603344 -0.005856309 0.0076408624 0.008735325
0002c0 5b 83 1b 3c ae da 43 3c 03 81 77 ba 3e 22 76 b9
       0.009491767 0.011953993 -0.00094415265 -0.00023473144
0002d0 bb 26 85 3c 89 a4 18 bc ef e7 da 3a 5f 92 e2 ba
       0.01625382 -0.009316572 0.0016701202 -0.0017286054
0002e0 a7 85 3c 3c c9 40 2d 3b 88 56 90 3b 9f cc 6a 3c
       0.011506475 0.002643632 0.0044048466 0.014331012
0002f0 b0 9c 7c 39 e4 57 94 bc 66 81 36 bc 3a 3d 2c 3c
       0.00024090963 -0.018108316 -0.011139249 0.010512644
000300 48 02 7f bc 89 5b 4d bc bf d9 49 bc 93 ab 3e bc
       -0.015564509 -0.012534031 -0.012319981 -0.011637586
000310 3f df 7b ba 17 8d a6 bc 1e c8 f7 3a a8 65 3e bc
       -0.00096081564 -0.020330949 0.0018904244 -0.011620916
000320 06 c3 8e 3a 4c 45 10 3b f7 da 8b 3c 15 6b d5 bb
       0.0010891862 0.002201396 0.017072184 -0.0065130093
000330 5f b7 82 39 fd c7 59 bc 6e 23 81 3b 2d 65 dd b9
       0.00024932154 -0.01329231 0.003940991 -0.00042227787
000340 b5 af eb bc 36 7e 26 bb 8d d1 6f bc ce 27 a4 3b
       -0.028770307 -0.0025404817 -0.014637363 0.005009628
000350 9e b9 48 bc c9 e5 ef bb fa 0c df 3a 94 6d a4 bb
       -0.012251286 -0.0073210937 0.0017017417 -0.0050179455
000360 dd 4a 68 b8 07 6b 35 bb f7 da f7 3b b6 fe de b9
       -5.5382832e-05 -0.0027682201 0.0075639444 -0.00042532914
000370 72 b6 38 bc 38 77 59 bc 6c e2 1e 3c 07 b7 e5 bb
       -0.011273967 -0.013273053 0.009697538 -0.007010344
000380 12 81 d7 bc 47 52 20 ba c9 42 ed 3b 98 ca 38 bc
       -0.026306663 -0.0006115776 0.0072406274 -0.011278771
000390 4e b0 6a 3b 0c e7 84 bc 92 7b b1 3b 32 9a 3c 3b
       0.0035810652 -0.016223453 0.005416342 0.002877843
0003a0 5a d3 44 3c 92 d0 a2 3b 3f b9 9d 3b 35 f2 8f 3c
       0.012013281 0.004968711 0.004813343 0.017571548
0003b0 61 53 9a bb 5b 17 7b 3a 4c fa 08 bc d9 e5 6e 3b
       -0.0047096466 0.00095783704 -0.008360457 0.0036452918
0003c0 c9 39 65 3a 52 89 86 3b 0b b4 fc bb f1 32 28 3c
       0.00087442674 0.0041057253 -0.0077118925 0.010266052
0003d0 9c ba b4 39 a0 11 48 3c ad 4a 0d 3b f8 24 23 3c
       0.0003447131 0.012211233 0.0021559403 0.0099575445
0003e0 fa e3 82 3b da cf 15 bc 9b cd d8 bb 66 38 91 3c
       0.003994462 -0.009143794 -0.006616307 0.017727088
0003f0 58 84 c1 bb fe 01 a0 bb 68 0d 1d 3a 6a 0a 75 3c
       -0.005905669 -0.00488305 0.00059910724 0.014956096

action_model._discrete_distribution.branches.0.bias f4 [3]
000000 c8 a0 2c 3a 48 2b 42 ba e0 1e e2 b9
       0.00065852376 -0.0007406962 -0.00043129083

action_model._discrete_distribution.branches.1.weight f4 [2, 128]
000000 fa 3a 4c bb cf 9f 95 bc 6e 41 96 bb b7 db da bb
       -0.0031163082 -0.01826468 -0.0045854365 -0.006679024
000010 41 8b 73 bc d9 6e c4 3b d1 9b 23 3c 99 3b 89 bb
       -0.014864744 0.0059946594 0.00998588 -0.004188013
000020 1b ea f2 3b 0e 76 28 bc 59 5c 19 3c 89 6d 11 3a
       0.0074131615 -0.010282053 0.009360396 0.0005547633
000030 2e d7 18 bc 37 7a 2a 3c a6 54 19 3c 6f a5 df ba
       -0.009328647 0.010405115 0.009358561 -0.0017062853
000040 11 95 1f bc f1 3f 79 bb 6c 8d b3 3b e9 b7 b1 3b
       -0.00974013 -0.0038032497 0.0054795053 0.005423535
000050 28 64 c0 bb 39 64 4d bb 30 b5 2e bc 69 9d 30 bc
       -0.0058713146 -0.0031340255 -0.010663316 -0.010779717
000060 a3 72 ce ba c3 db 49 3c 60 47 1e 3b dc 6a ab bb
       -0.0015750717 0.012320462 0.002415143 -0.0052312445
000070 15 35 90 bb 4c 87 cc ba 28 da 0a 3b 60 11 58 3c
       -0.004400859 -0.0015604286 0.002118716 0.013187736
000080 3c 31 22 3c 28 6e 69 3b fe 40 80 bc 31 ca 46 3c
       0.009899434 0.0035618637 -0.01565599 0.012133167
000090 79 4b 8c bc 7f a8 35 bb d2 30 d6 bc 2f 8a 6a bb
       -0.017125832 -0.002771884 -0.026146326 -0.003578793
0000a0 e0 f8 17 bc fe aa 2c bc d9 b7 10 bc 38 e5 52 3c
       -0.009275645 -0.010538815 -0.008832895 0.012872033
0000b0 c1 d3 7d 3b 56 68 40 ba e7 a1 30 3b f1 d7 47 3c
       0.0038730951 -0.0007339766 0.002695197 0.012197481
0000c0 2d d1 ad 3b cb 24 5d bc 0c e2 4d 3b ab 77 84 3b
       0.0053044767 -0.013497542 0.0031415252 0.004042586
0000d0 96 56 20 3b 38 ca cb ba dd 03 8d 3b 16 bc 89 3b
       0.0024465672 -0.0015547937 0.004303439 0.00420333
0000e0 17 b7 75 bb 3f bf fb bb 89 5e 7b bb 40 2e a4 3b
       -0.0037493163 -0.0076827104 -0.0038355908 0.0050103962
0000f0 83 cd fc bb 51 25 38 bc f8 98 42 bc b1 b0 4b b9
       -0.0077149286 -0.011239366 -0.011877291 -0.00019425411
000100 29 17 83 3a bc 55 3c 3c 86 9f b7 3a e0 6c 91 3c
       0.0010001409 0.01149505 0.0014009334 0.017752111
000110 c4 bc 22 3c a5 ae 81 3b 8d e4 88 bc db 59 e7 3b
       0.009932701 0.003957587 -0.016710544 0.007060272
000120 7e 69 a1 3b 1b 4a 67 bb 52 f2 25 3c 22 94 50 3c
       0.0049259057 -0.0035291973 0.010128574 0.01273063
000130 ad 9d d7 3b 3d f8 b1 3c 43 18 21 bb 18 4d a5 3b
       0.0065800757 0.021724815 -0.0024581112 0.0050445907
000140 86 12 d6 ba 15 08 c1 3c d7 22 1e 3c 1f f5 af bb
       -0.0016332425 0.023563424 0.009651861 -0.005369797
000150 aa 5a c0 bb 2e 15 3c bc f8 1b 90 3b aa 19 33 bb
       -0.005870183 -0.011479659 0.0043978654 -0.002732853
000160 f6 a4 86 bb 89 bd 3b bb 5a 52 43 bb 3c a1 e4 bb
       -0.0041090203 -0.0028646907 -0.0029803724 -0.0069772284
000170 c4 13 5b 3c b4 12 29 bb 8f 56 62 bb 6a 03 d3 bb
       0.013371412 -0.0025798501 -0.0034536456 -0.006439616
000180 f1 02 df 3b ad 77 39 3c 36 db 26 3b c3 22 a4 bb
       0.0068057706 0.011320037 0.002546025 -0.0050090267
000190 61 2d 9d bb 4d 30 0b bb 47 7d 70 3c 10 10 7a bb
       -0.0047966694 -0.0021238506 0.014678306 -0.0038156547
0001a0 82 9c 13 3b a1 d4 18 bb b4 cf 6a 3c 1d 7a 2e bc
       0.0022523706 -0.0023320096 0.014331747 -0.010649231
0001b0 1d 28 93 3b 46 84 20 b9 48 9a f4 bb 2b 94 f4 bb
       0.004490866 -0.00015308065 -0.007464681 -0.007463952
0001c0 83 d1 fe bb 72 87 c2 bb f0 24 93 3a 3d 3f 28 bc
       -0.0077764406 -0.0059365565 0.0011226218 -0.010268983
0001d0 8e e6 b6 3c e1 46 bd 39 e6 be ba bb 87 f6 8a 3c
       0.022326734 0.00036101698 -0.0056990264 0.016963257
0001e0 bc aa 94 bc a8 98 0a 3c ea ba 9c 3c 6f ff 2f ba
       -0.018147819 0.008459248 0.019132096 -0.0006713783
0001f0 43 e5 9d 3b 40 d0 0e b9 dd 11 89 3c 16 e0 05 bc
       0.00481859 -0.00013619754 0.01673215 -0.008171102
000200 7d a4 51 bc b4 e7 b5 ba 79 b3 9e bc b2 8a f6 3b
       -0.012795565 -0.0013878257 -0.019372689 0.007523858
000210 7f a9 10 bc a0 a1 c3 bb ed 53 bc 3b 97 b0 80 3b
       -0.0088294735 -0.005970195 0.0057473094 0.003927301
000220 f1 f7 1e 3a f2 f5 91 ba b7 37 c1 bb 70 02 8a bc
       0.0006064168 -0.001113592 -0.0058965343 -0.016846865
000230 0a 12 eb bb 2f ea 6a bc f4 e8 50 3a 11 3e 08 bb
       -0.0071737813 -0.01433806 0.0007969283 -0.0020788948
000240 5b 28 9a bb 4c d7 ea 3b ff e2 07 bb b1 1f 37 ba
       -0.004704518 0.0071667787 -0.0020734665 -0.00069856184
000250 ca e3 c4 bb 33 20 a1 3b 2c ed 20 bc c1 b0 60 3c
       -0.0060086 0.0049171685 -0.009822171 0.013714016
000260 b8 97 91 bc 7a 4d f4 bb e3 69 1b 3a d4 23 0b bc
       -0.01777254 -0.007455525 0.0005928559 -0.008492429
000270 60 17 cc 3b a4 2c ef bb 6a b1 6e 3b f7 5f 14 3b
       0.0062283725 -0.0072990227 0.0036421665 0.0022640207
000280 8f 8f f7 3a b9 7c 3b 3a c3 71 8f 3a c1 94 0f 3c
       0.0018887388 0.0007152069 0.0010943938 0.008763493
000290 6f 19 c5 3b 71 2a 6b bc 1e 28 63 3b e5 52 ab bb
       0.006014995 -0.014353381 0.0034661363 -0.0052283877
0002a0 77 90 0e bb 02 3d 27 bc b1 5d db bb e2 a2 85 3c
       -0.0021753588 -0.0102074165 -0.0066945185 0.01631302
0002b0 ab 21 a8 ba 4f d8 1b bc 4a b6 e7 3b 64 6d 0c 3c
       -0.0012827417 -0.009512021 0.007071291 0.008571003
0002c0 8a d7 bf 39 12 75 58 bb a2 98 11 bc 7b 1a 2a 3c
       0.00036590948 -0.0033028764 -0.008886488 0.01038229
0002d0 de 36 8e 3b 92 12 48 3b 61 c2 89 ba 1f 6c 36 3a
       0.004340037 0.0030528647 -0.00105102 0.00069588603
0002e0 cb cf 51 bb 81 26 0a 3c a1 c8 9a bb 69 2a 92 3a
       -0.0032014723 0.008432032 -0.004723624 0.0011151555
0002f0 c5 40 2f 3c af db 54 3a a2 04 f6 3a 16 5c 7f 3b
       0.010696595 0.00081198936 0.0018769691 0.00389648
000300 57 bb ac ba 27 46 2e 3c 31 39 9d bb ba 48 c8 3a
       -0.001317839 0.010636843 -0.0047980775 0.0015280463
000310 c2 11 ec 39 3a 7c 9a bc ac 7d c5 b9 c8 c4 41 bc
       0.00045026658 -0.018858064 -0.000376684 -0.011826701
000320 75 a9 37 bc f0 c6 c7 3a 35 c9 95 3a 61 f6 49 bc
       -0.011209835 0.0015241783 0.0011427762 -0.012326808
000330 79 b8 00 3b b2 f0 09 bc a0 d9 ab bb 9b 02 42 bc
       0.0019641204 -0.008419203 -0.005244449 -0.0118414415
000340 de f3 b8 3b 8a ec 04 bb 1a c4 90 ba 8d 9f ce bb
       0.0056443056 -0.002028259 -0.0011044771 -0.006305641
000350 b1 ba 0b bb c1 63 6a 3b a5 cf 47 3b 17 0a ba ba
       -0.0021320994 0.0035765024 0.0030488756 -0.0014193681
000360 0c bd 0d 3c eb 5a 28 3c ec 5c 9f b9 60 97 99 3b
       0.008651029 0.010275583 -0.00030396075 0.0046872348
000370 38 00 8b 39 0b 5a 06 bb f0 53 07 bb 20 b0 97 3b
       0.0002651231 -0.0020500447 -0.0020649396 0.00462915
000380 dd 73 34 3c 60 6d 2c bb c3 3b 95 bb f4 1b 66 3b
       0.011013952 -0.002631031 -0.0045542433 0.0035111876
000390 9e 7a fe 3b a4 ea ac 3c c1 7d 80 3a 35 8d c2 bb
       0.007766082 0.02110798 0.0009803103 -0.0059372433
0003a0 53 92 e3 bb 51 27 48 3b da b3 29 3c a9 b5 86 3c
       -0.0069449334 0.0030541013 0.010357821 0.016444044
0003b0 30 0c 4b 3c 3a 42 e5 3a bb 67 2f 3c aa 62 81 3a
       0.012393042 0.001749105 0.010705884 0.0009871323
0003c0 d9 94 cb bb 92 01 2c 3c d6 45 36 bc ad 41 8e bb
       -0.0062128124 0.010498421 -0.011125049 -0.0043413253
0003d0 9b d5 46 bc 1d a3 01 3a e5 71 0d bb dd e8 a3 3c
       -0.012135888 0.0004945265 -0.002158278 0.020008499
0003e0 6f 17 b2 3b 7e 71 8f 3c 09 03 60 3a 0b a6 a5 bb
       0.0054349224 0.017510172 0.0008545374 -0.0050551943
0003f0 35 6c 9e 3b 64 b8 7f bc 7a c5 dd bb 8e d2 3f 3c
       0.0048346766 -0.015607927 -0.006767926 0.011707915

action_model._discrete_distribution.branches.1.bias f4 [2]
000000 3b 8a 5d b9 71 8a 5d 39
       -0.00021127697 0.00021127776

exp_avg f4 [128, 9]
000000 9c ff 8c 38 38 8d 94 b7 90 86 c1 b6 cd 9e 1b ba
       6.723331e-05 -1.7708735e-05 -5.7675134e-06 -0.0005936444
000010 4a 2f 47 38 32 57 0d ba 6e bb c1 b8 86 28 09 b9
       4.748934e-05 -0.0005391716 -9.237869e-05 -0.00013080434
000020 24 57 84 37 80 60 0d b7 72 c5 9f 37 5c 82 fb b6
       1.5776204e-05 -8.426723e-06 1.904622e-05 -7.4955587e-06
000030 7b 09 96 b7 68 92 0c 3a f8 6e d8 37 91 9c 06 3a
       -1.7885808e-05 0.00053623924 2.580088e-05 0.00051350245
000040 91 18 83 39 d5 e2 05 3a 3f 23 00 ba 17 a2 98 39
       0.0002500457 0.0005107348 -0.00048880646 0.00029112466
000050 47 a1 de b6 92 22 9d b9 fa 92 1b 3a 2f c3 1f ba
       -6.6348907e-06 -0.0002997113 0.0005934682 -0.0006094453
000060 da 66 f1 39 d3 62 c8 39 79 d8 22 3a 44 62 0a 39
       0.00046043732 0.00038220602 0.00062120665 0.00013197312
000070 92 57 c3 b8 80 37 3f 33 05 23 43 b8 d6 20 ed b9
       -9.314636e-05 4.452113e-08 -4.6524237e-05 -0.00045228627
000080 9e e1 32 39 a6 9c e6 b9 ae 42 84 b9 72 90 e1 b9
       0.00017059452 -0.0004398573 -0.00025226682 -0.00043022964
000090 16 29 56 ba 03 0c 80 38 18 db 05 34 8f 98 12 b8
       -0.00081695744 6.105753e-05 1.2466296e-07 -3.4951194e-05
0000a0 5e f3 94 3a 48 09 72 b9 64 c1 97 3a c9 b3 e8 39
       0.0011364033 -0.00023082376 0.0011578021 0.0004438444
0000b0 0c 05 96 3a 97 32 16 39 35 13 41 38 7b f1 42 36
       0.0011445596 0.00014323961 4.6032674e-05 2.9048813e-06
0000c0 19 7b d0 39 b4 96 1c ba e8 80 67 39 92 a3 18 ba
       0.00039764566 -0.0005973384 0.00022077898 -0.0005822714
0000d0 42 f6 92 39 b3 86 27 ba af e3 27 ba 72 94 6b 38
       0.00028030766 -0.0006390616 -0.0006404472 5.6166617e-05
0000e0 1c 8f a1 b4 08 84 1c 39 c0 a3 4b 37 98 17 05 b8
       -3.0092713e-07 0.00014926505 1.2137869e-05 -3.1731644e-05
0000f0 c0 9a ec b7 99 f1 09 3a 00 5c 4a 37 eb b1 b9 b8
       -2.8205453e-05 0.0005262136 1.2061559e-05 -8.854627e-05
000100 28 c7 ba b7 06 92 52 36 aa 85 73 39 f6 a8 11 ba
       -2.2265667e-05 3.1377435e-06 0.0002322408 -0.0005556488
000110 b8 10 d5 39 3d 86 05 ba 8e c6 18 39 7c 5a 0e ba
       0.00040638982 -0.00050935504 0.00014569817 -0.00054303533
000120 77 e3 b0 b8 69 63 51 b7 b4 a5 94 36 5e 69 a5 39
       -8.4347026e-05 -1.24805165e-05 4.430034e-06 0.00031549757
000130 1a 8c 9d b9 d6 c8 f4 39 8f cc 64 b9 2b b6 32 39
       -0.00030049757 0.0004668894 -0.00021819978 0.00017043266
000140 05 e5 79 b9 8e 36 5c 39 54 11 e5 b8 e0 35 9e 35
       -0.00023831807 0.00021001158 -0.000109227985 1.1787597e-06
000150 d6 69 fc 38 7d c3 63 38 a5 7f 10 37 68 c1 04 39
       0.0001203601 5.430308e-05 8.612788e-06 0.0001266055
000160 80 2c 44 b9 e6 4d fd 37 78 41 07 b9 1b 2d ab 37
       -0.00018708594 3.0196225e-05 -0.00012898992 2.0405792e-05
000170 94 c9 59 35 f4 e0 3b b9 99 88 1e ba 5b e5 d2 38
       8.1132134e-07 -0.00017917511 -0.00060475763 0.00010056301
000180 c8 ce 19 ba 41 14 63 b9 e4 5d 0e ba 38 46 2f b9
       -0.00058672996 -0.00021655952 -0.0005430861 -0.00016715459
000190 a2 2b 84 b8 7c d4 dc b5 b1 03 65 b9 69 93 6f 39
       -6.302378e-05 -1.6453118e-06 -0.00021840517 0.0002284773
0001a0 fa 42 3c 39 f4 54 77 39 2d a6 03 b9 48 b5 8e 39
       0.00017954028 0.00023587403 -0.00012555039 0.00027219416
0001b0 f6 b9 64 ba 00 b0 e0 b4 62 34 31 37 69 a4 5a 39
       -0.000872522 -4.1851308e-07 1.0562218e-05 0.00020851348
0001c0 b3 40 35 ba d8 d9 09 3a b2 9c 2e ba 88 da 82 37
       -0.0006914243 0.00052585965 -0.00066609227 1.559897e-05
0001d0 c3 d1 2c ba 1a 80 1b b8 48 1e 94 37 7a ed 1e 36
       -0.0006592536 -3.7074184e-05 1.7657076e-05 2.3682064e-06
0001e0 74 0a 96 37 04 b5 70 ba c2 93 d7 38 29 a4 78 ba
       1.7886261e-05 -0.0009182247 0.00010279521 -0.0009484911
0001f0 c0 ba 17 b9 b0 a6 62 ba e9 9b 09 b8 88 8c cb b7
       -0.00014470052 -0.0008646054 -3.2808548e-05 -2.4264926e-05
000200 78 aa df 35 02 ef 81 b8 92 03 5b 37 87 e6 3c 38
       1.6664408e-06 -6.195718e-05 1.30542485e-05 4.503739e-05
000210 6b 42 8e 37 5b 88 37 38 0f d0 67 38 78 45 a1 37
       1.6958647e-05 4.375759e-05 5.526846e-05 1.9225045e-05
000220 d7 1e 6c 37 02 97 1e b5 96 53 c7 b8 e9 ce cb 36
       1.4073877e-05 -5.907933e-07 -9.5046285e-05 6.073959e-06
000230 14 19 fc b8 b3 4e b6 b6 ac 88 cd b8 55 d0 89 b6
       -0.000120209676 -5.4331845e-06 -9.800619e-05 -4.107171e-06
000240 8a 6c d5 39 ee e1 82 b9 26 32 e4 37 9f ba 5a 3a
       0.00040707394 -0.00024963863 2.720307e-05 0.0008343849
000250 1d af 47 bb 4c ed 91 3a 62 67 43 bb 04 e5 c5 b9
       -0.0030469366 0.0011133342 -0.002981626 -0.00037745398
000260 86 58 42 bb ec 4f 11 38 c4 39 25 b7 81 17 e6 35
       -0.0029654815 3.4645127e-05 -9.848216e-06 1.7143176e-06
000270 39 f3 7c 39 64 61 10 b9 f4 c5 28 39 22 86 11 b9
       0.000241232 -0.00013769191 0.00016095472 -0.00013878246
000280 e4 28 a0 39 3e e1 3d b9 71 5e 9a 39 71 08 91 b8
       0.00030548044 -0.00018108354 0.00029443533 -6.915711e-05
000290 20 7e 03 35 44 a6 30 b9 80 c1 d3 b8 48 6d 6f 38
       4.898484e-07 -0.00016846607 -0.00010097306 5.7083817e-05
0002a0 d8 69 1f b9 6a 5d a5 b9 a0 e5 cb b8 f3 5d e7 b9
       -0.00015202852 -0.0003154085 -9.722565e-05 -0.0004412975
0002b0 58 40 bc b8 06 3f 7e b7 96 d5 0f ba b9 f1 26 3b
       -8.9765235e-05 -1.5154254e-05 -0.0005486844 0.0025473668
0002c0 13 0a 5c ba 26 19 1e 3b b8 98 7d 3a 49 29 25 3b
       -0.0008393835 0.0024123876 0.0009673941 0.002520161
0002d0 8c 28 3f b9 3c 91 26 38 a4 e0 ee b5 18 eb 13 b9
       -0.00018230284 3.9712744e-05 -1.7797761e-06 -0.00014106592
0002e0 be b0 b5 b7 58 a9 bf b7 e8 5f 97 b8 28 75 19 39
       -2.1659183e-05 -2.2847831e-05 -7.218105e-05 0.00014634861
0002f0 58 04 65 37 a0 2a 97 39 27 53 ca b9 68 d0 49 b7
       1.3650475e-05 0.00028832722 -0.00038590396 -1.2029057e-05
000300 eb a4 29 b9 ca 37 61 3a 45 83 04 b8 5b b9 60 3a
       -0.00016178533 0.0008591382 -3.1593507e-05 0.0008572542
000310 66 e9 70 39 85 aa 5e 3a a8 6c d1 35 40 81 48 b3
       0.00022975131 0.00084940373 1.5603337e-06 -4.668368e-08
000320 31 02 c9 b5 01 55 48 b9 b1 06 5b 38 dc 3b f5 b8
       -1.4976305e-06 -0.00019105153 5.22199e-05 -0.0001169366
000330 0a d6 83 38 d2 3c 4f b9 70 7b c3 38 cc 65 cd 36
       6.286435e-05 -0.00019763716 9.3213166e-05 6.121327e-06
000340 b0 d8 c0 b8 65 4f 3a b6 97 94 db b9 e8 86 c1 36
       -9.1956346e-05 -2.7762374e-06 -0.00041881643 5.7675534e-06
000350 e7 6c 96 b9 2e 60 91 b8 38 cc 67 b8 1e 03 1e 38
       -0.00028691368 -6.932054e-05 -5.5264885e-05 3.767304e-05
000360 27 e0 34 38 d6 ce ef b7 9c 45 03 35 87 12 14 38
       4.3124102e-05 -2.8587336e-05 4.89026e-07 3.5303205e-05
000370 46 e6 85 37 80 a3 1f 36 b7 ad 1b 38 07 ae 65 b8
       1.5962065e-05 2.3788016e-06 3.7116664e-05 -5.475993e-05
000380 45 39 15 37 19 f5 78 3a bb 1d 9c 38 e4 00 3f 37
       8.894426e-06 0.00094969716 7.4441974e-05 1.13846945e-05
000390 62 8d 57 3a 99 e2 cc ba 6d 4c 85 39 22 9e c1 ba
       0.0008222667 -0.0015631496 0.00025424678 -0.0014771859
0003a0 e0 8a 0f 38 44 33 d4 ba 34 a4 9c 38 10 b5 d9 37
       3.4223194e-05 -0.0016189595 7.469245e-05 2.595273e-05
0003b0 e8 87 37 36 bc a8 92 38 07 50 fa 37 c8 e2 d0 36
       2.7348233e-06 6.993252e-05 2.9839588e-05 6.225284e-06
0003c0 2e ba 96 38 11 55 e5 b8 cd 8e 85 37 52 1b ca b2
       7.187236e-05 -0.00010935416 1.5921332e-05 -2.3528319e-08
0003d0 c9 26 01 b5 53 fb 50 30 7a 68 ba 34 16 c1 38 34
       -4.8112685e-07 7.602711e-10 3.4721216e-07 1.720658e-07
0003e0 b8 af d0 2f c6 11 c8 34 cc ac 10 b5 69 69 d5 33
       3.7959835e-10 3.7265835e-07 -5.3895633e-07 9.9377594e-08
0003f0 56 c4 1a 3a f2 e8 b0 38 56 49 ed b6 20 c2 a1 38
       0.000590389 8.4357234e-05 -7.071688e-06 7.713237e-05
