Assets/Onx/MoveAgent2D-800029.onnx (onnx, 78886 bytes, 9 tensors)

discrete_act_size_vector f4 [1, 2]
3.0 2.0
00000000: 0000 4040 0000 0040

network_body._body_endoder.seq_layers.0.weight f4 [128, 5]
-0.67099744 -0.79846513 -0.014938551 -0.16208656 0.75387377 -0.018027475 -0.38492012 -0.75874895
0.2603156 0.7196863 -0.6304027 0.20423451 0.06742148 -0.27514267 0.45852464 -0.32500312
0.66112816 -0.28078872 0.04887698 0.5876977 0.20127024 0.21414763 -0.5726437 -0.06788204
0.31498998 0.22826211 0.14945084 0.7095618 0.29915667 0.4640579 0.2974434 0.45770162
0.089124314 -0.3969034 -0.23943645 -0.00404144 -0.27499014 -0.11221801 -0.52149963 -0.032374337
-0.2149397 0.549968 -0.21915102 0.31944212 -0.49403265 0.95592886 -0.78473675 -0.77071494
0.1410601 0.018876432 -0.23591389 -0.292353 -0.6722306 -0.11402085 0.420029 -0.3510582
0.031335752 0.20599161 -0.20220616 0.44310686 -0.33148113 0.48617294 -0.18359335 0.032751314
-0.15138136 -0.06170259 0.80121434 0.32972574 -0.043697283 0.053728435 0.065842174 -0.0023149943
-0.775311 0.21295112 0.03956707 0.7266858 0.18864626 -0.03165996 -0.03088154 0.107657716
0.3307837 -0.6762475 -0.2654704 -0.36283833 0.015356215 0.016833609 0.49524546 -0.83367574
0.029379738 -0.05948685 -0.07363917 -0.5180033 -0.6992597 0.33682048 -0.13801375 0.8284383
0.66041994 0.60677123 0.55513066 -0.1835217 0.081665225 -0.6304038 -0.11786748 0.03867454
0.47195828 0.5309527 -0.645151 0.51439506 0.35409912 -0.70506877 -0.45595953 0.8042822
0.007072193 -0.96449196 -0.26736206 -0.28483957 -0.06732848 -0.2542466 0.67048526 0.28790846
0.16493705 0.82727754 -0.16819957 -0.3903081 -1.4746871 0.28379056 -1.3359946 0.8170709
-0.10649626 0.24089737 0.03449739 -0.2700354 0.008957735 -0.72379375 0.21730348 -0.033905353
-0.6206002 -0.21294 -0.06145457 -0.43236494 -0.5829126 -0.2151028 -0.33833438 -0.8638451
0.92419076 0.019118475 -0.49364248 0.6527272 -0.63927424 0.5680149 0.08134501 0.09669571
0.1926254 0.7533512 0.2439605 -0.14041467 -0.05003582 0.7929273 -0.365434 -0.25654316
0.96541333 0.32384574 -1.0805031 0.49006 0.41916952 0.5452283 -0.028429305 -0.1541857
-0.20513676 -0.54798144 0.9618758 0.43978423 -0.5660696 -0.22109632 -0.3970095 -0.45457506
-0.64348173 -0.10971768 0.74523723 -0.07268464 -0.44592476 0.065334044 0.6067725 0.007669024
-0.11045637 -0.07640344 -0.224499 0.37614313 -0.10660443 -0.13166732 -0.076325215 0.22619763
0.58292156 0.13411224 -0.091223784 0.29615566 -0.14864802 0.6368629 -0.35244533 -0.15347509
0.33676732 -0.4954369 -0.14751297 0.106211714 -0.3422692 0.74191636 0.0485767 0.0012826108
0.75462407 -0.6943108 0.4089158 0.15026188 0.4052739 0.087850735 -0.42846662 0.16966468
-0.20474221 -0.48706332 -0.1488196 0.23812433 0.5223333 -0.22859968 -0.68078166 0.4052679
-0.038603377 0.087271385 -0.15384689 0.15648706 0.022426352 0.20834412 0.60395175 0.6964872
0.28440613 0.5343379 -0.5961542 0.09182879 0.22676249 -0.5529983 0.10600834 -0.47587994
-0.31042576 -0.064463265 -0.0018362504 -0.78321594 0.1502004 -0.23385766 -0.36381403 -0.09628275
0.62771195 0.09935551 -0.49181184 -0.35668793 -0.11677064 0.30033886 -0.07914782 0.131217
00000000: 7dc6 2bbf 3668 4cbf d3c0 74bc 05fa 25be
00000010: dffd 403f 5bae 93bc 4014 c5be 5f3d 42bf
00000020: 1648 853e 5d3d 383f 1262 21bf da22 513e
00000030: 4614 8a3d 80df 8cbe bec3 ea3e cf66 a6be
00000040: b23f 293f 8ac3 8fbe 3a33 483d 5b73 163f
00000050: c919 4e3e 8449 5b3e c798 12bf bd05 8bbd
00000060: 5e46 a13e 8bbd 693e a409 193e d8a5 353f
00000070: 102b 993e ff98 ed3e 804a 983e de57 ea3e
00000080: cf86 b63d ec36 cbbe d42e 75be 0e6e 84bb
00000090: 82cb 8cbe 8ed2 e5bd 0081 05bf f49a 04bd
000000a0: 2719 5cbe b4ca 0c3f 2069 60be eb8d a33e
000000b0: d9f1 fcbe c1b7 743f 82e4 48bf 934d 45bf
000000c0: 0f72 103e bfa2 9a3c 6993 71be 4baf 95be
000000d0: 4e17 2cbf c383 e9bd 0b0e d73e e6bd b3be
000000e0: eb59 003d 77ef 523e 220f 4fbe e7de e23e
000000f0: e5b7 a9be a9eb f83e e5ff 3bbe 3e26 063d
00000100: b703 1bbe dbbb 7cbd 621c 4d3f d0d1 a83e
00000110: ecfb 32bd 5912 5c3d 43d8 863d 29b7 17bb
00000120: c87a 46bf dc0f 5a3e 1411 223d 1508 3a3f
00000130: 7c2c 413e e0ad 01bd 49fb fcbc a67b dc3d
00000140: 7b5c a93e 8e1e 2dbf bceb 87be f2c5 b9be
00000150: a298 7b3c a3e6 893c d090 fd3e c66b 55bf
00000160: c7ad f03c 7ca8 73bd 22d0 96bd dd9b 04bf
00000170: af02 33bf bc73 ac3e 7a53 0dbe 8814 543f
00000180: 4811 293f 5c55 1b3f 0b1d 0e3f 1ded 3bbe
00000190: 1940 a73d 2562 21bf 8164 f1bd 3269 1e3d
000001a0: 84a4 f13e 84ec 073f 9e28 25bf 65af 033f
000001b0: 7b4c b53e 637f 34bf 8773 e9be 70e5 4d3f
000001c0: dbbd e73b f2e8 76bf aee3 88be 7ed6 91be
000001d0: 84e3 89bd 9c2c 82be eca4 2b3f bd68 933e
000001e0: 42e5 283e 76c8 533f 823c 2cbe 77d6 c7be
000001f0: 8cc2 bcbf ff4c 913e df01 abbf 8f2b 513f
00000200: b61a dabd cdad 763e 234d 0d3d 1442 8abe
00000210: 77c3 123c 8c4a 39bf ce84 5e3e 57e0 0abd
00000220: a8df 1ebf f20c 5abe cab7 7bbd f05e ddbe
00000230: c339 15bf e943 5cbe 2a3a adbe f424 5dbf
00000240: c497 6c3f 599e 9c3c b5be fcbe 2119 273f
00000250: 7aa7 23bf 6d69 113f 3698 a63d 6708 c63d
00000260: 983f 453e a0db 403f c8d0 793e ddc8 0fbe
00000270: 5cf2 4cbd 49fd 4a3f 2a1a bbbe a059 83be
00000280: 5425 773f 1ccf a53e ed4d 8abf 25e9 fa3e
00000290: 639d d63e 1594 0b3f 93e4 e8bc dbe2 1dbe
000002a0: 5f0f 52be 8348 0cbf 7e3d 763f 662b e13e
000002b0: f0e9 10bf 1367 62be d444 cbbe 10be e8be
000002c0: 38bb 24bf aab3 e0bd dec7 3e3f afdb 94bd
000002d0: 4050 e4be dbcd 853d 7155 1b3f 704c fb3b
000002e0: f336 e2bd 6879 9cbd 11e3 65be d595 c03e
000002f0: 6c53 dabd ccd3 06be 6550 9cbd 5aa0 673e
00000300: 593a 153f b854 093e 89d3 babd b7a1 973e
00000310: 3037 18be 7209 233f b773 b4be 9328 1dbe
00000320: c46c ac3e e8a9 fdbe a40d 17be 8785 d93d
00000330: e93d afbe 3bee 3d3f 5df8 463d 471d a83a
00000340: 0b2f 413f 5abe 31bf 695d d13e 40de 193e
00000350: 1080 cf3e 16eb b33d fa5f dbbe 94bc 2d3e
00000360: f1a7 51be 5d60 f9be 2a64 18be ddd6 733e
00000370: a3b7 053f 0916 6abe b547 2ebf 467f cf3e
00000380: 931e 1ebd 57bb b23d 0a8a 1dbe 253e 203e
00000390: 78b7 b73c 2958 553e 959c 1a3f fc4c 323f
000003a0: ae9d 913e 5eca 083f 909d 18bf bc10 bc3d
000003b0: 6d34 683e 4c91 0dbf e71a d93d 89a6 f3be
000003c0: 20f0 9ebe 5105 84bd 57ae f0ba d780 48bf
000003d0: 22ce 193e 6278 6fbe d545 babe e42f c5bd
000003e0: bbb1 203f e77a cb3d c3ce fbbe cd9f b6be
000003f0: 7225 efbd 04c6 993e 4118 a2bd c05d 063e

network_body._body_endoder.seq_layers.0.bias f4 [128]
0.043308638 0.0637172 0.025509372 0.038192634 0.0080242865 -0.020723794 -0.036538955 0.01208066
0.037575897 -0.011089616 -0.03887364 -0.017512958 0.08026453 -0.00790816 -0.0099325115 -0.010377279
-0.026524957 -0.013907304 0.05842166 0.006196149 0.039953608 -0.0030137966 0.0066630924 0.03752621
0.0522007 0.022247422 0.016835459 -0.008913363 0.0027074302 0.018394677 0.0006907529 0.030734325
0.0048947814 -0.013920186 -0.011194721 0.057330158 0.00026297136 -0.0025300751 0.038682334 0.057298586
0.016249135 -0.02161792 0.0049804007 0.061520707 0.009934503 -0.03709014 -0.011731318 -0.0134854615
-0.043605827 0.015025744 0.00016614524 -0.045921464 -0.007819757 0.023202281 0.023459213 -0.008707239
-0.0023683077 -0.013577636 -0.006587404 -0.04685973 0.024194878 0.038031835 0.04932057 -0.023710033
-0.029177075 -0.034675207 0.03276604 -0.0016752835 -0.015588302 -0.021636263 -0.016941868 0.00732766
-0.007123208 -0.0523558 -0.025232952 0.025824198 0.021575246 0.008279054 0.016664743 -0.014263438
0.009385788 -0.06330625 0.018326657 0.010834191 0.014010645 0.001372136 -0.0036872786 0.017931653
0.008549738 0.018586991 0.06609898 0.036656823 0.057737295 0.038545746 0.037985295 0.029902076
-0.033518754 0.013429052 0.049463715 0.017302489 0.0046726204 -0.01905283 0.012361159 0.025256895
0.033251435 0.028364044 0.024923421 -0.05185759 0.046542916 0.035166625 0.039100077 -0.006624713
-0.014162095 0.031281866 -0.00781674 -0.047280096 0.009889207 0.005592602 0.0032621007 -0.00926583
-0.00058331643 0.010121038 0.040888395 -0.0016941059 0.019211594 -0.0104048075 0.012855567 0.059318446
00000000: 6664 313d 2a7e 823d 08f9 d03c e16f 1c3d
00000010: 4c78 033c f2c4 a9bc dfa9 15bd f6ed 453c
00000020: 2fe9 193d 39b1 35bc f739 1fbd 5677 8fbc
00000030: bb61 a43d 3a91 01bc f9bb 22bc 7605 2abc
00000040: de4a d9bc 76db 63bc 8d4b 6f3d 1109 cb3b
00000050: 65a6 233d 1e83 45bb 1256 da3b 15b5 193d
00000060: 67d0 553d 3a40 b63c 84ea 893c 5b09 12bc
00000070: 246f 313b 6fb0 963c a413 353a 8dc6 fb3c
00000080: 6764 a03b 7e11 64bc 106a 37bc 07d3 6a3d
00000090: 6bdf 8939 9ecf 25bb 5e71 1e3d ecb1 6a3d
000000a0: e81c 853c 1018 b1bc a132 a33b 23fd 7b3d
000000b0: 53c4 223c d5eb 17bd b734 40bc 20f2 5cbc
000000c0: 069c 32bd 8a2e 763c 4637 2e39 2518 3cbd
000000d0: 701e 00bc b612 be3c 892d c03c cfa8 0ebc
000000e0: 9c35 1bbb bc74 5ebc 26db d7bb fdef 3fbd
000000f0: 5634 c63c 45c7 1b3d 5e04 4a3d 8b3b c2bc
00000100: c304 efbc 9707 0ebd af35 063d 3095 dbba
00000110: 1466 7fbc 883e b1bc acc9 8abc de1c f03b
00000120: cd69 e9bb 0973 56bd 56b5 cebc 458d d33c
00000130: 92be b03c dfa4 073c 8084 883c 32b1 69bc
00000140: d9c6 193c b5a6 81bd c921 963c e481 313c
00000150: e88c 653c 3ed9 b33a 45a6 71bb 67e5 923c
00000160: 3314 0c3c bf43 983c e75e 873d 7725 163d
00000170: f17d 6c3d 25e2 1d3d 7896 1b3d 33f5 f43c
00000180: f64a 09bd 8705 5c3c 779a 4a3d f3bd 8d3c
00000190: c81c 993b ae14 9cbc 7586 4a3c 8ce7 ce3c
000001a0: a832 083d b65b e83c 342c cc3c a068 54bd
000001b0: c9a3 3e3d e10a 103d 6727 203d 1f14 d9bb
000001c0: 2208 68bc 6a21 003d c911 00bc c6a8 41bd
000001d0: 5706 223c 2542 b73b f8c8 553b b5cf 17bc
000001e0: b4e9 18ba b6d2 253c 977a 273d c30c deba
000001f0: a261 9d3c ed78 2abc 28a0 523c e6f7 723d

network_body._body_endoder.seq_layers.2.weight f4 [128, 128]
-0.04635504 -0.034780707 -0.07112373 -0.030733276 -0.000932393 0.020562923 0.023342937 0.0013116222
-0.020758085 0.056618582 -0.11080301 0.115341365 -0.08223049 -0.069336124 0.021133589 0.05305853
-0.032261048 0.12766081 -0.014346611 0.0030470295 0.017136427 -0.07874407 -0.018820366 -0.10866181
0.0019820463 0.055172633 0.05502378 0.052996337 -0.0055790837 -0.024532272 0.0030635826 -0.029693656
0.036573127 -0.05096684 -0.09050079 -0.04305602 -0.07112818 -0.13123828 0.020701045 0.11087555
0.09663481 0.09425448 0.12912118 0.004346371 0.24561425 0.027276685 -0.17479329 0.0038537327
0.10250493 0.087793805 0.02696692 0.07226246 0.019406525 0.03829977 -0.052624367 -0.16286905
-0.11469267 0.13796854 0.009305923 0.123757385 0.0066566267 -0.26564476 0.0074744388 0.07255105
0.107944906 0.063122794 0.0034488717 -0.042999282 0.04445358 -0.20765814 0.10783135 0.12266165
0.047431644 0.036862273 0.255986 -0.11878599 0.07624593 0.017900031 -0.1714252 0.029888809
0.11694922 0.071554996 -0.0505424 0.09621526 0.007680409 0.039220247 -0.0057762945 0.19392732
0.09177776 -0.043076485 -0.00623171 -0.005792858 0.101038255 -0.077050045 -0.01153651 -0.1852269
-0.11658559 0.058258433 0.1513537 0.0775913 -0.024860619 -0.13963513 -0.07692761 -0.11742889
0.015716728 0.04093457 0.051123463 -0.1539163 0.12065305 -0.09640673 -0.07133503 0.13311295
0.09041414 -0.0038440956 -0.08423718 -0.09748689 -0.06140753 0.035372846 -0.042077016 0.08125087
-0.057466608 -0.06871268 0.05987906 0.054490242 0.1104342 0.18272385 0.07270286 -0.18360654
-0.013543917 -0.13107242 0.08878306 -0.10266643 -0.085801676 -0.07597623 0.03666514 -0.09984347
-0.05968869 -0.020253414 0.034004614 -0.03189923 0.029914094 -0.113410175 0.04884407 0.0032521624
-0.09209363 -0.09929907 0.01956676 -0.011374945 -0.03873103 -0.015475372 -0.0005304571 0.068043806
0.018848073 0.14965099 -0.024060622 -0.023993004 -0.12266189 -0.02454622 0.003722868 -0.033838153
-0.10426241 0.19407031 -0.0119552 -0.008144939 -0.027710615 0.05703154 -0.05910953 0.043375712
0.08081891 0.052184373 -0.08407262 -0.07016899 0.034522135 -0.046180084 0.050014243 0.16919515
0.033067957 0.0030127526 0.037371166 0.005368889 0.17095414 0.011251037 0.08874252 -0.15444677
-0.022115378 0.020661732 -0.030004954 0.10763624 -0.09668742 0.036833644 0.015856061 -0.084801555
-0.025505655 0.018954631 0.041044306 0.06545766 -0.09591855 0.0868931 0.063021235 0.26010877
-0.057527754 -0.12144459 -0.11265316 -0.10298307 -0.026223283 -0.0151699735 -0.008295054 -0.019936226
0.091518074 -0.08288145 0.03888343 0.10726501 -0.03728071 -0.093624406 -0.051246174 -0.08012053
0.05103925 -0.03790461 -0.019827237 -0.04628953 -0.05496827 -0.002534231 -0.12546399 -0.13914426
0.13080826 -0.088553935 -0.008613492 0.0051995628 -0.16647062 -0.12197419 0.1438755 -0.03627869
-0.08638426 0.10056772 -0.0901117 -0.021833366 -0.11740207 -0.06016351 -0.02678103 0.16555445
0.05734107 0.029592995 0.15598848 -0.033861365 -0.0054060044 -0.02149774 -0.043191254 -0.19477072
0.16685475 0.11871683 0.06642546 0.011618881 -0.008280452 -0.12576436 0.04310421 0.050769515
00000000: c8de 3dbd 3776 0ebd 51a9 91bd 5ac4 fbbc
00000010: d66b 74ba 9373 a83c b039 bf3c bdea ab3a
00000020: dc0c aabc e3e8 673d b0ec e2bd 1838 ec3d
00000030: 7668 a8bd 1900 8ebd 5920 ad3c e753 593d
00000040: 2924 04bd 84b9 023e 0c0e 6bbc acb0 473b
00000050: b161 8c3c 9244 a1bd 2b2d 9abc 158a debd
00000060: 38e5 013b b3fc 613d 9d60 613d b012 593d
00000070: bfd0 b6bb e7f7 c8bc 63c6 483b 1c40 f3bc
00000080: b4cd 153d 9bc2 50bd 7a58 b9bd 825b 30bd
00000090: a7ab 91bd 5463 06be 3d95 a93c b812 e33d
000000a0: 79e8 c53d 7e08 c13d 5838 043e 016c 8e3b
000000b0: 4d82 7b3e 5b73 df3c 03fd 32be e88e 7c3b
000000c0: 1bee d13d 3dcd b33d bbe9 dc3c 57fe 933d
000000d0: 6ffa 9e3c 38e0 1c3d a68c 57bd 25c7 26be
000000e0: fee3 eabd a047 0d3e df77 183c 8374 fd3d
000000f0: d51f da3b 9702 88be 23ec f43b a595 943d
00000100: 3812 dd3d 8646 813d 7706 623b 0420 30bd
00000110: f514 363d 56a4 54be afd6 dc3d 0836 fb3d
00000120: af47 423d e5fc 163d 9910 833e 1246 f3bd
00000130: d326 9c3d 16a3 923c 168a 2fbe 60d9 f43c
00000140: 1383 ef3d 6d8b 923d 8c05 4fbd 820c c53d
00000150: f1ab fb3b 69a5 203d 1247 bdbb e294 463e
00000160: faf5 bb3d f870 30bd 5f33 ccbb 04d2 bdbb
00000170: 25ed ce3d 6acc 9dbd a103 3dbc 1fac 3dbe
00000180: 6dc4 eebd 65a0 6e3d 77fc 1a3e 30e8 9e3d
00000190: 7fa8 cbbc 83fc 0ebe 398c 9dbd 8f7e f0bd
000001a0: 5ec0 803c 02ab 273d d666 513d 3c9c 1dbe
000001b0: f218 f73d e470 c5bd 1a18 92bd c34e 083e
000001c0: 0c2b b93d 39ed 7bbb 8b84 acbd 35a7 c7bd
000001d0: 7686 7bbd 1ee3 103d f358 2cbd db66 a63d
000001e0: 1b62 6bbd 3cb9 8cbd bf43 753d 2931 5f3d
000001f0: 532b e23d f61b 3b3e 3de5 943d 5a03 3cbe
00000200: 4ee7 5dbc d937 06be e5d3 b53d c742 d2bd
00000210: cab8 afbd 6d99 9bbd 302e 163d bc7a ccbd
00000220: 217c 74bd 7dea a5bc 6c48 0b3d c4a8 02bd
00000230: 670e f53c 9843 e8bd b810 483d 3b22 553b
00000240: 969b bcbd 505d cbbd 784a a03c fa5d 3abc
00000250: 6ea4 1ebd 6a8c 7dbc 600e 0bba 8d5a 8b3d
00000260: 4667 9a3c 1c3e 193e c81a c5bc fa8c c4bc
00000270: 2836 fbbd 2815 c9bc 5cfb 733b e099 0abd
00000280: 8887 d5bd 5eba 463e bedf 43bc 5a72 05bc
00000290: 5f01 e3bc e799 693d d61c 72bd bbaa 313d
000002a0: 6284 a53d 48bf 553d 442e acbd c2b4 8fbd
000002b0: 1567 0d3d 5427 3dbd bcdb 4c3d 7e41 2d3e
000002c0: 4472 073d 9a71 453b 8212 193d 81ed af3b
000002d0: 9a0e 2f3e 4556 383c a3be b53d 4b27 1ebe
000002e0: 4f2b b5bc cb42 a93c f3cc f5bc 6470 dc3d
000002f0: 0e04 c6bd e0de 163d 92e4 813c 70ac adbd
00000300: 3cf1 d0bc be46 9b3c 131e 283d aa0e 863d
00000310: f270 c4bd 02f5 b13d 4711 813d fa2c 853e
00000320: 39a2 6bbd f1b7 f8bd b3b6 e6bd cae8 d2bd
00000330: 36d2 d6bc 7b8b 78bc fae7 07bc 4c51 a3bc
00000340: d46d bb3d c0bd a9bd 3b44 1f3d c2ad db3d
00000350: a8b3 18bd 27be bfbd 82e7 51bd 3c16 a4bd
00000360: 880e 513d dd41 1bbd bb6c a2bc 179a 3dbd
00000370: 6926 61bd 5715 26bb a279 00be d57b 0ebe
00000380: 9af2 053e c45b b5bd 9b1f 0dbc 1861 aa3b
00000390: 4677 2abe 9bcd f9bd 1954 133e f798 14bd
000003a0: 3bea b0bd 73f6 cd3d 7c8c b8bd e3db b2bc
000003b0: 7f70 f0bd 036e 76bd e463 dbbc 1b87 293e
000003c0: 78de 6a3d 026d f23c 72bb 1f3e 37b2 0abd
000003d0: da24 b1bb 071c b0bc 50e9 30bd fa71 47be
000003e0: f9db 2a3e cf21 f33d 120a 883d 1e5d 3e3c
000003f0: bcaa 07bc 5fc8 00be 0a8e 303d b2f3 4f3d

network_body._body_endoder.seq_layers.2.bias f4 [128]
-0.027724778 -0.0058631683 0.006006405 -0.0505172 0.041225303 0.03487789 0.024697293 0.044263523
0.030486874 -0.0444392 -0.0035346036 0.02682924 -0.0068774526 0.012719818 -0.01589748 0.013695311
0.02393888 -2.1565269e-05 0.009133111 0.012500707 -0.033382475 -0.02889448 -0.001974988 -0.017448084
-0.014061714 0.03660457 -0.015714373 0.002929184 0.0021447025 0.014642596 -0.010189421 0.026104841
0.010800844 -0.04350611 0.032806184 -0.0028747646 -0.002606395 0.010549336 0.032899518 0.007106185
-0.02211004 -0.018716699 0.036599737 0.004762692 0.04329193 0.0041523203 -0.013152317 -0.034086306
-0.011761138 -0.0005506306 0.005576768 0.016729733 -0.012774977 -0.0134727955 0.01857502 0.017115358
-0.02841599 0.00179289 0.01311331 0.034753434 -0.0311661 -0.019910425 0.06497637 -0.0012175307
-0.0056121596 -0.01713928 0.0015402826 0.007906496 -0.010045711 0.008375289 -0.015316874 -0.0050407453
-0.019019963 0.026633382 -0.00031450813 -0.010749417 -0.048511058 0.00952205 -0.03686577 -0.024221163
-0.00017459008 0.019472709 -0.0037964 0.028786108 -0.001695559 -0.0085626235 0.018671643 -0.0007939276
0.00032163947 -0.019104507 -0.013955894 -0.014866844 0.008532553 -0.010360156 0.0055738627 0.010722949
0.026084952 -0.011869262 -0.03584227 -0.0015951754 0.055774327 0.008647298 0.053190563 -0.006121106
-0.014476216 0.00092087995 -0.016714353 0.017132744 0.04760853 0.013725332 -0.024720652 0.008627688
0.03388736 0.03392681 0.049558803 0.02466853 -0.01101593 -0.010635294 -0.0012998705 0.017901892
0.00540195 0.01517862 0.017152091 -0.03373358 0.0062276963 -0.026713377 -0.0070757545 0.016032455
00000000: 131f e3bc d21f c0bb 61d1 c43b 20eb 4ebd
00000010: dddb 283d 1edc 0e3d fa51 ca3c ab4d 353d
00000020: 9cbf f93c e105 36bd cfa4 67bb ffc8 db3c
00000030: 415c e1bb c966 503c 6f3b 82bc 4c62 603c
00000040: 781b c43c 10e7 b4b7 0ba3 153c c4cf 4c3c
00000050: 10bc 08bd 1eb4 ecbc cd6e 01bb 49ef 8ebc
00000060: 1a63 66bc acee 153d 6ebb 80bc 8df7 3f3b
00000070: 238e 0c3b 80e7 6f3c 87f1 26bc d2d9 d53c
00000080: 06f6 303c 7633 32bd c75f 063d 8c66 3cbb
00000090: 0dd0 2abb 1fd7 2c3c a5c1 063d 00db e83b
000000a0: 1d20 b5bc c353 99bc 9be9 153d 5b10 9c3b
000000b0: e152 313d 3010 883b d17c 57bc 159e 0bbd
000000c0: cab1 40bc 3258 10ba 52bd b63b cb0c 893c
000000d0: 234e 51bc 00bd 5cbc a42a 983c 8235 8c3c
000000e0: a6c8 e8bc 68ff ea3a 35d9 563c 9e59 0e3d
000000f0: 0d50 ffbc 301b a3bc 5512 853d 8d95 9fba
00000100: 35e6 b7bb ad67 8cbc 4fe3 c93a 3f8a 013c
00000110: c496 24bc 8238 093c a0f3 7abc d62c a5bb
00000120: c1cf 9bbc 402e da3c 91e4 a4b9 531e 30bc
00000130: 88b3 46bd 5f02 1c3c 9000 17bd 766b c6bc
00000140: 2b12 37b9 3b85 9f3c 06cd 78bb d8d0 eb3c
00000150: 853d deba 3f4a 0cbc 46f5 983c 941f 50ba
00000160: b8a1 a839 0e81 9cbc 43a7 64bc 1094 73bc
00000170: 1fcc 0b3c a5bd 29bc f3a4 b63b 4faf 2f3c
00000180: 1cb0 d53c 4b77 42bc 58cf 12bd 3415 d1ba
00000190: 9f73 643d 66ad 0d3c 59de 593d 8f93 c8bb
000001a0: a72d 6dbc 3567 713a 8aec 88bc f859 8c3c
000001b0: 2901 433d 37e0 603c f782 cabc 255b 0d3c
000001c0: 79cd 0a3d d7f6 0a3d 2cfe 4a3d a815 ca3c
000001d0: 297c 34bc a83f 2ebc 6b60 aaba fda6 923c
000001e0: d702 b13b bfaf 783c 8b82 8c3c 392c 0abd
000001f0: b411 cc3b 03d6 dabc bbdb e7bb 7f56 833c

action_model._discrete_distribution.branches.0.weight f4 [3, 128]
-0.008225939 0.029547252 0.0043314532 -0.0048183505 -0.0115846945 -0.018740322 0.014523132 0.04339504
0.04204 -0.017773788 -0.01351535 0.011108252 -0.038038578 0.05517967 -0.025235582 -0.007927151
0.005784491 0.00088948786 -0.002177483 -0.010035548 -0.010060802 -0.005231397 0.0031076907 -0.017772276
-0.013074207 -0.013364032 0.005553953 0.005736786 0.01976287 0.020104747 -0.017321173 -0.015290271
0.0013769018 -0.004950986 0.019624358 -0.009547183 0.009956008 -0.00026352567 0.0072726044 -0.0027066516
0.006256166 0.015092664 0.0021874344 0.002796273 -0.03349707 -0.0203138 0.0042125694 0.016328737
0.027002217 -0.023853142 0.029848274 -0.009516426 0.0069600902 -0.019659746 -0.0043986435 -0.07288264
0.005118762 -0.056660328 -0.01330572 -0.038499232 -0.014175053 0.0061840536 0.04916834 0.02393238
0.0180525 0.01633905 -0.0096058315 -0.020578366 0.03475773 -0.011969683 -0.020322984 -0.02191205
-0.0036040822 -0.01353416 -0.013575238 -0.041472495 -0.053493995 0.012578989 -0.03813352 0.0027046832
-0.020551363 -0.0062996973 0.009338231 0.0008668379 -0.00246278 0.017858386 -0.035255693 -0.0035452517
0.01974772 -0.00037414813 -0.013771373 0.017926836 0.008775848 0.0033771747 -0.00073367247 -0.0002717353
-0.008547591 0.0032301662 -0.0085199615 -0.027511727 -0.0013329434 -0.01782078 -0.0046240506 0.00062665966
-0.021438235 0.023196453 0.010260844 0.0077840583 0.037177507 0.00012712835 -0.008519261 -0.008299395
0.015748698 0.013855637 0.035446636 -0.02273101 -0.011045704 -0.0037798395 0.013836303 0.025554908
-0.003310115 -0.0024594509 -0.0035080002 -0.010820986 -0.06730197 -0.00073170045 -0.00919994 -0.023925886
0.012705865 -0.0052247318 0.03683245 -0.008539625 0.012013623 0.00597883 0.02128083 -0.07006155
0.0039356337 0.018063918 0.015564579 0.0014484678 0.030909706 0.009453751 -4.9567207e-05 -0.020146957
0.028507689 -0.03319267 0.022463879 0.021000294 -0.01678567 0.0050884355 0.0028288271 0.004134512
-0.013064327 -0.017455284 -0.013243193 0.0008868359 -0.038314 -0.023660393 0.019753005 -0.021018462
0.04199315 -0.012061888 0.0040468653 0.010950832 -0.021275373 -0.0035863828 0.014600542 -0.03635464
-0.004059628 -0.007319433 -0.006209899 -0.027955774 -0.07166268 -0.024027884 0.009808887 0.003099242
-0.013957509 0.028279759 -0.014124562 0.011405072 0.0026291276 0.004546984 0.02178556 -0.0808156
0.006015023 -0.0009292439 -0.0364803 0.02595664 -0.023190074 -0.00015810647 -0.07415382 -0.022567637
-0.013126463 0.006881413 0.0045831613 0.021056032 -0.014128002 -0.0050351373 0.019477338 0.02051646
-0.0054342244 -0.0034783413 -0.0029387157 0.06429344 0.008448105 -0.040597342 0.00078645104 -0.010383192
0.032955196 0.014130753 -0.038930967 0.022821475 0.0044444194 -0.033002265 0.03866491 -0.037202176
-0.0020458628 -2.9272058e-05 0.028685471 0.0032549226 0.00031751624 0.0167037 -0.015143426 -0.020402806
0.012768964 0.003144831 -0.0044789957 0.004946898 0.0352372 0.014277569 -0.038187746 0.021371853
0.019540297 0.005347793 -0.006019232 0.026404629 -0.023346938 -0.0016833676 -0.002044797 0.0021162892
0.01175451 -0.004634494 -0.019031323 -0.0071166763 -0.015296737 -0.012753637 -0.032387715 -0.062244717
0.017832266 0.019220944 0.0047638137 -0.008157697 0.005438647 0.007004664 0.01479223 0.015229595
00000000: 17c6 06bc 140d f23c ddee 8d3b 41e3 9dbb
00000010: bbcd 3dbc 4e85 99bc 6ef2 6d3c ffbe 313d
00000020: 2332 2c3d 569a 91bc 7d6f 5dbc 63ff 353c
00000030: 57ce 1bbd 1404 623d daba cebc e2e0 01bc
00000040: d48b bd3b 852c 693a 1ab4 0ebb 246c 24bc
00000050: 10d6 24bc 246c abbb 66aa 4b3b 2a97 91bc
00000060: 3335 56bc d0f4 5abc effd b53b a6fb bb3b
00000070: bee5 a13c b6b2 a43c 22e5 8dbc 0b84 7abc
00000080: 2879 b43a e13b a2bb 43c3 a03c ca6b 1cbc
00000090: 861e 233c d129 8ab9 074f ee3b 1462 31bb
000000a0: 8600 cd3b 3947 773c 0f5b 0f3b ad41 373b
000000b0: 3934 09bd 2069 a6bc 9809 8a3b d8c3 853c
000000c0: c133 dd3c aa67 c3bc 5e84 f43c c9ea 1bbc
000000d0: 7811 e43b 7a0d a1bc 7f22 90bb 7e43 95bd
000000e0: 4abb a73b a914 68bd 3c00 5abc 5fb1 1dbd
000000f0: 7b3e 68bc 9aa3 ca3b be64 493d d70d c43c
00000100: d6e2 933c 79d9 853c c761 1dbc f693 a8bc
00000110: 1f5e 0e3d 7d1c 44bc 637c a6bc e680 b3bc
00000120: 7732 6cbb 62be 5dbc ad6a 5ebc 10df 29bd
00000130: 851c 5bbd 1b18 4e3c e531 1cbd 0e41 313b
00000140: 555b a8bc b16d cebb 61ff 183c 823c 633a
00000150: 9866 21bb c04b 923c 4668 10bd 7457 68bb
00000160: f8c5 a13c 5029 c4b9 53a1 61bc 4ddb 923c
00000170: 93c8 0f3c 9753 5d3b ed53 40ba b277 8eb9
00000180: 320b 0cbc 32b1 533b 4f97 0bbc 4660 e1bc
00000190: 29b6 aeba e2fc 91bc 5985 97bb 6b46 243a
000001a0: 3d9f afbc 7d06 be3c 191d 283c 6a11 ff3b
000001b0: 7147 183d c24d 0539 5f94 0bbc 30fa 07bc
000001c0: 6a03 813c c102 633c 7e30 113d 6236 babc
000001d0: 0af9 34bc 2fb7 77bb a9b1 623c 8758 d13c
000001e0: 84ee 58bb bd2e 21bb 7ae6 65bb 814a 31bc
000001f0: 9ed5 89bd 96cf 3fba 58bb 16bc 3800 c4bc
00000200: 432c 503c 3a34 abbb a0dd 163d c9e9 0bbc
00000210: c9d4 443c 10ea c33b 2355 ae3c 6e7c 8fbd
00000220: 7df6 803b c8fa 933c 9302 7f3c 84da bd3a
00000230: 5a36 fd3c e8e3 1a3c 62e6 4fb8 3b0b a5bc
00000240: f588 e93c 0af5 07bd 2b06 b83c cf08 ac3c
00000250: 1a82 89bc e4bc a63b d863 393b cd7a 873b
00000260: c20b 56bc 62fe 8ebc faf9 58bc 8d7a 683a
00000270: 24ef 1cbd 71d3 c1bc 0ed1 a13c e92e acbc
00000280: 0201 2c3d 3a9f 45bc 919b 843b 1e6b 333c
00000290: b149 aebc 8509 6bbb 1d37 6f3c 9ae8 14bd
000002a0: a106 85bb dbd7 efbb 697c cbbb 8203 e5bc
000002b0: e2c3 92bd 20d6 c4bc 74b5 203c a71c 4b3b
000002c0: 09ae 64bc f4aa e73c b56a 67bc 57dc 3a3c
000002d0: 714d 2c3b defe 943b a177 b23c a682 a5bd
000002e0: ac19 c53b 8198 73ba 5e6c 15bd 05a3 d43c
000002f0: 1cf9 bdbc 62c9 25b9 f5dd 97bd c4df b8bc
00000300: 6010 57bc 7a7d e13b 582e 963b b37d ac3c
00000310: 2379 67bc cbfd a4bb f08e 9f3c 2312 a83c
00000320: 9411 b2bb e2f4 63bb 7897 40bb 47ac 833d
00000330: ec69 0a3c 6649 26bd d629 4e3a 441e 2abc
00000340: 07fc 063d ad84 673c 1476 1fbd 1af4 ba3c
00000350: 7ea2 913b 622d 07bd 195f 1e3d 4f61 18bd
00000360: e213 06bb 448d f5b7 cbfd ea3c 8a50 553b
00000370: 4f78 a639 33d6 883c 221c 78bc c923 a7bc
00000380: eb34 513c 8219 4e3b 8ac4 92bb 9719 a23b
00000390: e254 103d 77ec 693c c16a 1cbd 0614 af3c
000003a0: f912 a03c 8a3c af3b fa3c c5bb 854e d83c
000003b0: 1442 bfbc 72a4 dcba 0002 06bb 71b1 0a3b
000003c0: fd95 403c f4dc 97bb 94e7 9bbc 0233 e9bb
000003d0: 2a9f 7abc a1f4 50bc fba8 04bd 51f4 7ebd
000003e0: f914 923c 3e75 9d3c c419 9c3b dca7 05bc
000003f0: ad36 b23b 6187 e53b 1c5b 723c 8d85 793c

action_model._discrete_distribution.branches.0.bias f4 [3]
-0.00080869463 0.017025588 -0.022824211
00000000: 94fe 53ba 3f79 8b3c d7f9 babc

action_model._discrete_distribution.branches.1.weight f4 [2, 128]
-0.0033333767 -0.0050233523 -0.010689632 -0.023495624 0.037996944 0.0016613817 0.0057588313 0.035828095
0.020600129 -0.022122018 0.005815144 0.006025004 -0.01087244 -0.041273363 0.023247888 -0.010260832
0.02517667 -0.003848893 0.002987115 0.003315676 -0.0045925356 -0.02118477 0.007834683 -0.0121815335
-0.015553963 0.008768575 0.0059214416 0.026248649 -0.019573972 0.022422083 -0.0025928575 0.016616918
0.000907582 0.0017747985 0.017109973 0.0027797227 -0.003406231 0.024056502 0.09323112 0.005379886
-0.030148586 -0.010215566 0.012232331 0.0081469435 0.0009736643 -0.004388576 -0.04360055 -0.021491691
0.008834742 -0.004791592 -0.021127952 0.011619736 -0.009982711 -0.028928269 0.0013836506 0.074411586
0.0047508273 -0.009877087 0.026930576 -0.016958885 -0.012222006 0.0068437774 0.037396114 -0.03149839
-0.01180267 -0.031166341 -0.02315154 0.007382972 -0.008555041 -0.039010517 -0.0015932011 -0.007789296
-0.023684725 0.014042725 0.0066452934 -0.08075364 -0.011085135 0.0026345265 -0.021741925 0.0047516213
-0.035358936 0.00035267364 -0.014809559 0.011476021 0.0020485797 -0.016517367 0.019280773 -0.012768248
0.036661718 -0.0011614205 -0.0004684854 -0.007563015 0.0019938943 -0.011629014 -0.020132821 -0.002853511
-0.0037572235 -0.0070864107 0.008110846 0.04483394 -0.0032769716 0.009414582 -0.0814354 -0.08644481
-0.0029829235 -0.016484965 -0.015552038 0.009137483 0.045143794 0.0051523177 -0.0059506185 0.01354062
0.014413013 0.02455353 0.03529697 0.021991292 -0.032804117 -0.011108625 -0.01485654 -0.036003336
-0.002600477 0.012139305 -0.0011898034 -0.04394031 0.017496485 0.00054718024 0.0016460404 -0.0007481961
0.030096414 -0.0007066251 -0.0040941257 0.02421233 -0.018108606 -0.011770874 -0.0066827163 -0.03763627
-0.016948342 0.007906501 -0.011500865 0.007850593 -0.008865579 0.04016766 0.0031463588 -0.0062779672
0.0014620647 -0.0003449315 0.0076743746 -0.013064556 0.0014713139 0.033666566 0.0032417849 0.0015080264
-0.010009713 -0.014667637 0.012338751 0.0007577796 0.02547029 -0.018755427 -0.005764743 -0.012108282
0.017008657 -0.0045378637 -0.028272672 0.000807077 0.009396169 -0.014133998 -0.08128545 -0.0068286066
-0.0036071225 -0.0039166785 -0.008194931 -0.008162049 -0.012841693 -0.023971507 0.034223776 0.042171817
0.008877157 0.009268093 0.036893647 -0.0061461935 -0.0014344385 0.023194373 0.0054259803 -0.07431382
-0.009431837 0.014429855 -0.017923826 -0.0019179479 0.0009973256 0.023301024 -0.03463226 0.051764883
0.021215783 0.019095445 0.00967379 0.0012471854 -0.004309186 0.042409174 0.00940923 -0.016603997
0.021684537 -0.026747396 -0.00034383716 0.07108303 0.043932576 -0.0013612407 0.022026578 0.0015596397
0.018890385 -0.018933544 0.006311128 -0.0064332737 0.006354899 0.019465666 -0.018676916 -0.0019342721
-0.027309982 0.0034625654 0.017796999 0.025332578 -0.009556142 0.0052861157 -0.0022261487 -0.0005090644
-0.005380979 0.012428446 0.028798044 -0.029236333 0.0003501873 0.005434661 0.09775218 0.07875346
0.02390787 0.010218463 -0.00022573484 -0.007208749 -0.013355991 -0.0035602164 0.0075433264 0.0005643403
-0.003971526 -0.020608261 -0.03627335 -0.030900808 0.03835462 -0.0015779531 -0.010300735 0.030579645
0.002279212 -0.009438238 -0.0019996867 0.03910658 -0.013191174 -0.014664176 0.011249167 -0.011264749
00000000: c874 5abb ef9a a4bb 9123 2fbc e579 c0bc
00000010: afa2 1b3d b8c2 d93a 94b4 bc3b 7bc0 123d
00000020: 9ac1 a83c 3c39 b5bc f78c be3b 666d c53b
00000030: 5222 32bc 420e 29bd 5b72 be3c 0c1d 28bc
00000040: 4e3f ce3c b63d 7cbb 79c3 433b d04b 593b
00000050: fb7c 96bb af8b adbc 0b5d 003c 0e95 47bc
00000060: 0dd6 7ebc 12aa 0f3c a708 c23b 6807 d73c
00000070: 9859 a0bc 84ae b73c eeec 29bb 3420 883c
00000080: ccea 6d3a 5ba0 e83a 372a 8c3c 022c 363b
00000090: 133b 5fbb 2412 c53c f5ef be3d c149 b03b
000000a0: 2bfa f6bc 305f 27bc 1d6a 483c c27a 053c
000000b0: 813d 7f3a 0bce 8fbb 7e96 32bd 580f b0bc
000000c0: 98bf 103c c902 9dbb 8714 adbc b560 3e3c
000000d0: 868e 23bc fafa ecbc 9c5b b53a 1a65 983d
000000e0: d4ac 9b3b 81d3 21bc 839d dc3c 5ced 8abc
000000f0: cf3e 48bc c441 e03b ab2c 193d 7504 01bd
00000100: fc5f 41bc 8e50 ffbc 4ca8 bdbc dcec f13b
00000110: 712a 0cbc 7ec9 1fbd f5d2 d0ba 5a3d ffbb
00000120: 7806 c2bc 7513 663c c3c0 d93b 2a62 a5bd
00000130: 6d9e 35bc 05a8 2c3b 1f1c b2bc 7db3 9b3b
00000140: 88d4 10bd 0ee7 b839 cba3 72bc ec05 3c3c
00000150: 7741 063b 6e4f 87bc b6f2 9d3c ea31 51bc
00000160: 992a 163d ce3a 98ba 0c9f f5b9 2bd3 f7bb
00000170: ffab 023b 9f87 3ebc 96ed a4bc f801 3bbb
00000180: c03b 76bb 1f35 e8bb 5be3 043c cba3 373d
00000190: 76c2 56bb 9e3f 1a3c 9ac7 a6bd fa09 b1bd
000001a0: 277d 43bb 7a0b 87bc facd 7ebc 62b5 153c
000001b0: b3e8 383d c6d4 a83b 68fd c2bb 7ad9 5d3c
000001c0: 8f24 6c3c 7c24 c93c 8e93 103d 1527 b43c
000001d0: 9c5d 06bd f300 36bc d868 73bc 3c78 13bd
000001e0: c46c 2abb efe3 463c 2df3 9bba c1fa 33bd
000001f0: ca54 8f3c a570 0f3a f3bf d73a 9722 44ba
00000200: c18c f63c cf3c 39ba 0428 86bb f058 c63c
00000210: 8058 94bc a0da 40bc b0fa dabb 7d28 1abd
00000220: 40d7 8abc 458a 013c 206e 3cbc c69f 003c
00000230: ef40 11bc d886 243d 2433 4e3b 68b7 cdbb
00000240: c0a2 bf3a ecd7 b4b9 5279 fb3b b80c 56bc
00000250: 1ad9 c03a f4e5 093d 2074 543b f8a8 c53a
00000260: c7ff 23bc 8750 70bc 7928 4a3c baa5 463a
00000270: 12a7 d03c fba4 99bc 2be6 bcbb d161 46bc
00000280: bd55 8b3c 5cb2 94bb 179c e7bc 0592 533a
00000290: 64f2 193c 4992 67bc fc78 a6bd 81c2 dfbb
000002a0: 7965 6cbb 7b57 80bb 0844 06bc 1dba 05bc
000002b0: f765 52bc e55f c4bc 3b2e 0c3d 5bbc 2c3d
000002c0: 7f71 113c 33d9 173c cb1d 173d 0266 c9bb
000002d0: c503 bcba 2002 be3c 6ccc b13b d831 98bd
000002e0: fe87 1abc 336b 6c3c fdd4 92bc a763 fbba
000002f0: b2b8 823a cae1 be3c 8fda 0dbd 6a07 543d
00000300: b9cc ad3c 0d6e 9c3c d17e 1e3c 9978 a33a
00000310: 1234 8dbb 3eb5 2d3d 2c29 1a3c 1b05 88bc
00000320: c5a3 b13c 5b1d dbbc 0b45 b4b9 fb93 913d
00000330: a5f2 333d a96b b2ba 1571 b43c d36c cc3a
00000340: 02c0 9a3c 851a 9bbc 94cd ce3b 36ce d2bb
00000350: c23c d03b 7676 9f3c 5500 99bc 6787 fdba
00000360: 2fb9 dfbc 35ec 623b 03cb 913c 4486 cf3c
00000370: 5d91 1cbc 2737 ad3b 94e4 11bb bc72 05ba
00000380: ec52 b0bb aea0 4b3c e0e9 eb3c 0981 efbc
00000390: 5899 b739 3e15 b23b 4c32 c83d 7e49 a13d
000003a0: 70da c33c 576b 273c 3cb3 6cb9 5f37 ecbb
000003b0: 16d3 5abc 8552 69bb 022e f73b 3df0 133a
000003c0: 9323 82bb a8d2 a8bc 5d93 14bd b123 fdbc
000003d0: bc19 1d3d 52d3 ceba 6ac4 28bc 2a82 fa3c
000003e0: d55e 153b d7a2 1abc 2d0d 03bb 392e 203d
000003f0: cb1f 58bc 0342 70bc 6d4e 383c c88f 38bc

action_model._discrete_distribution.branches.1.bias f4 [2]
0.019807043 -0.019807054
00000000: 6142 a23c 6742 a2bc
