Assets/Onx/MoveAgent2D-130M_2DGround.onnx (onnx, 416259 bytes, 13 tensors)

discrete_act_size_vector f4 [1, 4]
000000 00 00 40 40 00 00 00 40 00 00 00 40 00 00 00 40
       3.0 2.0 2.0 2.0

network_body._body_endoder.seq_layers.0.weight f4 [256, 128]
000000 99 92 54 be 5b ba ac 3d 8f f9 09 be a8 e1 22 3f
       -0.20759048 0.08433982 -0.13474105 0.63625574
000010 ea 76 43 3e 8f 98 46 3d 9d 68 d0 be d6 16 1d bf
       0.19088331 0.048485335 -0.40704814 -0.6136297
000020 87 0e dc bd 02 b8 75 3d 87 bb 97 bd 92 58 1f 3e
       -0.10744958 0.059989937 -0.07408815 0.1556113
000030 2c 39 d5 be 57 5d 62 3e 9a 9d 5a 3e 80 87 b8 3e
       -0.4164518 0.22105919 0.21349183 0.36040878
000040 a6 2c 3f be f5 94 0e bf 85 db f3 3e b0 23 a0 3d
       -0.18669376 -0.5569604 0.47628418 0.07819307
000050 c0 33 1b bd ee dd 9f be a4 f3 a4 3d 30 d7 cf 3d
       -0.03789115 -0.31224006 0.08054283 0.10148466
000060 3d 62 0b 3c be de 57 be 0c d8 32 be df af 44 3d
       0.008507309 -0.21081063 -0.17465228 0.048019286
000070 02 12 c5 bc 6f 9b d7 be 6e b2 d5 3d 97 1c 1c 3e
       -0.024056438 -0.42110774 0.104344234 0.15245281
000080 62 fe b6 3d b6 42 a9 3e 03 fb d2 bd c9 ae 3b bd
       0.089352384 0.3305871 -0.10301783 -0.045820985
000090 dc b0 88 bd 78 8d f9 3b 81 16 22 be 77 58 6b 3d
       -0.06674358 0.0076157413 -0.15828897 0.057457414
0000a0 80 54 cc 3d 2e bf 83 3f 19 49 22 be 2f 5e a8 bd
       0.099770546 1.0292718 -0.15848197 -0.08221089
0000b0 18 4d e8 3d d1 30 c9 be 43 0d 16 3e d5 3d 80 bd
       0.113428295 -0.39295056 0.14653496 -0.062617935
0000c0 a4 e2 40 3c 33 bc c7 3e 8a 3b 0c be 22 7b 3c 3c
       0.011772785 0.39010772 -0.13694587 0.0115039665
0000d0 a5 14 aa bc e5 10 bf 3e 99 4e c4 be 1b cd 4a be
       -0.020761797 0.37317577 -0.38341215 -0.19804804
0000e0 d5 15 73 bd db b7 74 3e c0 17 00 be c8 11 40 bb
       -0.059346993 0.2389826 -0.1250906 -0.0029307473
0000f0 b9 33 ea bd 2f 7f c7 3b 16 cc b1 3c 60 f4 b4 3c
       -0.114356466 0.0060881595 0.021703761 0.022089183
000100 66 0c 29 3e ab 34 d1 bb 5c 1b b4 3c 8f 59 91 3d
       0.16508636 -0.0063844523 0.021985702 0.0709716
000110 d4 b9 26 3e 34 69 89 3e 93 36 13 be b6 81 1e 3b
       0.16281825 0.26838076 -0.14376287 0.00241862
000120 44 60 64 bd ac 75 47 3e 5a f8 0b be 80 5b 38 bd
       -0.05575587 0.19478482 -0.13668957 -0.045009136
000130 65 82 d1 bc 46 da 59 3f c5 43 63 bd c3 87 4c bd
       -0.025574872 0.85098684 -0.055484552 -0.04993416
000140 d2 cc 3b 3c 42 97 b3 3d 53 68 5e 3e 44 78 08 bd
       0.011462407 0.087690845 0.21719484 -0.03331782
000150 17 92 5d 3b 19 4c 9b 3e 6e f8 dc 3d f0 bc 82 bd
       0.0033809 0.30331495 0.10789572 -0.06383693
000160 14 ab 9d 3d 1c e6 82 bc fe 1f 79 be 14 80 bb bd
       0.07698646 -0.015978865 -0.2432861 -0.09155288
000170 22 9d f2 3d 9d 51 5a 3d 53 70 1c bd c7 52 99 bd
       0.11846377 0.05330049 -0.03819306 -0.07486492
000180 d3 4e ec 3c 13 28 b6 3d 14 87 e5 bd b7 19 21 be
       0.02884618 0.08894362 -0.11207405 -0.15732466
000190 a9 54 27 bd 10 b4 a3 3d 33 30 2d be 7c 49 79 be
       -0.040852223 0.079933286 -0.16912918 -0.24344438
0001a0 87 4b b0 3d d9 dc 8a 3e e4 e4 60 be 99 d3 1b bd
       0.08608156 0.27121618 -0.21962315 -0.038043592
0001b0 5c 17 58 3d a5 42 ee bd 7f 74 10 be 96 83 a6 bd
       0.052756652 -0.11633805 -0.1410694 -0.08130567
0001c0 00 07 d3 3c a1 9e 4d 3e d9 33 75 bd 36 46 1d bd
       0.025760174 0.20080043 -0.0598639 -0.038397036
0001d0 f2 f7 2a bd 67 8c 4a 3e d7 82 30 be e0 c7 64 be
       -0.041740365 0.19780122 -0.17237411 -0.22341871
0001e0 c8 79 8d bd 6f 17 35 3e b0 d3 4d be b5 ec 39 be
       -0.069079936 0.1768472 -0.20100284 -0.18156703
0001f0 db e8 2e 3d 9d cb 2e be 10 6f e4 3c ba ac 51 bd
       0.042702537 -0.1706986 0.02788499 -0.051190116
000200 81 e7 c1 bd c8 22 f7 3c 16 18 2c bf bd a3 0b be
       -0.09467984 0.030167952 -0.6722425 -0.1363668
000210 cb 76 1c bd 58 1f 45 3c 8f 22 4f be c2 ee a1 3c
       -0.038199227 0.012031399 -0.20228027 0.019767169
000220 8f 62 9f be 25 17 71 bd 77 a4 23 bc c9 0a 1e 3e
       -0.31129882 -0.058859963 -0.009987942 0.15433802
000230 9f 51 a4 3e b2 f9 03 bc 2c 56 b9 bd fa 55 cf bd
       0.32093522 -0.0080551375 -0.09049639 -0.101238206
000240 7a 42 85 bf f1 4f ec 3c 8a 0d 99 bf 0d 70 d7 bc
       -1.0410912 0.028846713 -1.1957257 -0.026298547
000250 65 26 29 3e 60 99 4e 3f 62 ea 7e bd 2b 3a 85 bd
       0.16518553 0.8070278 -0.062235244 -0.06505235
000260 00 b1 e3 bd f9 b5 05 3f 59 d0 1f 3e 2e e2 1d be
       -0.111177444 0.52230793 0.15606822 -0.15418312
000270 02 59 76 3d 95 67 bf 3e 7c fa 3d ba 06 0e 28 bd
       0.06014348 0.37383714 -0.0007247103 -0.041029
000280 0b 4a dd bd e4 26 01 3f 02 1f 84 3d c3 5a 11 3d
       -0.10805138 0.5044997 0.06451227 0.035486948
000290 99 43 3b 3b e8 19 8c 3e a2 ff ab 3d bc 2b 6d bd
       0.0028574227 0.27363515 0.083983675 -0.057903036
0002a0 25 8d 02 bd 75 5f 6a 3f d4 3f d2 3d 35 79 c5 3c
       -0.031872887 0.91551906 0.102660805 0.024105648
0002b0 bc bf 5e bd 1c 3a e2 bd a3 da ff bb 0e 6d 8e 3e
       -0.05438207 -0.1104624 -0.007808046 0.27817577
0002c0 e9 07 8c bc 27 3b 7e 3e 19 b6 b6 3d 59 af 96 3d
       -0.017093616 0.24827252 0.08921451 0.07357664
0002d0 88 35 c1 bb 94 9f ad 3e 07 64 51 3e 4e 1e e2 3d
       -0.005896274 0.3391081 0.20448314 0.110409364
0002e0 0f 2c d7 bc f5 49 80 3f 91 fe 62 be ed 6d ef bd
       -0.026266126 1.002257 -0.22167422 -0.116908886
0002f0 56 8f 2f be f0 7f 9f 3f 91 01 02 be 60 18 75 be
       -0.17144522 1.2460918 -0.1269591 -0.2393508
000300 31 a2 a2 3b 5f 6d 35 3f 92 2b 80 bd a2 68 76 be
       0.0049631824 0.7087001 -0.062583104 -0.24063352
000310 99 5c 79 bc e6 3b 68 3f ca 16 1d ba 5b 93 67 be
       -0.015219831 0.907164 -0.00059924705 -0.22614805
000320 53 c1 eb bb a4 9c 40 3f 3c 55 80 be 4e d0 9e be
       -0.007194677 0.75239015 -0.2506503 -0.310183
000330 55 ff 53 3d cf 72 93 3f ce 07 3d be 0a 8e 37 bc
       0.051757175 1.1519412 -0.18460009 -0.011203298
000340 03 e1 c0 3b e1 fd 15 3f 54 69 13 be a0 c4 43 be
       0.0058861985 0.58590513 -0.14395648 -0.19117975
000350 9e e3 1e bd 62 58 44 3f 8b ae b3 bb db 99 65 bd
       -0.03879129 0.7669736 -0.0054834536 -0.05605493
000360 bd 58 a0 bd 3c bb 4d 3f 32 c3 76 be f5 95 ad be
       -0.078294255 0.8036382 -0.24097899 -0.3390347
000370 f0 a9 86 3d f9 d7 8c be 80 44 6d 3e 08 05 21 3e
       0.06575382 -0.27508524 0.23170662 0.15724576
000380 c3 75 93 3c 10 e3 83 be d7 02 06 3e a9 67 47 3e
       0.01800049 -0.25759172 0.13087021 0.19473137
000390 aa 40 b1 3d 92 34 a9 bd 31 8a 36 3d 07 f0 18 3e
       0.08654912 -0.0826198 0.044565383 0.14935313
0003a0 5f 75 a8 3d 53 6b 22 3c 71 1c 6f 3c 80 4b bf bd
       0.08225512 0.009913283 0.014594183 -0.09340572
0003b0 79 c6 89 3d ae 42 00 3e de d1 f6 bd 7f 6d 6c 3e
       0.06727309 0.12525436 -0.12051748 0.23088644
0003c0 20 79 31 3d ba 39 d3 3e 97 45 ec 3d 7d 4b 10 3d
       0.043328404 0.4125498 0.11536711 0.03522824
0003d0 27 13 af 3d c0 79 96 be e4 48 fc 3d 21 da f7 3d
       0.08548575 -0.29389763 0.1231859 0.12102152
0003e0 f8 4a 39 be e8 93 35 bd bc 83 b7 3c d4 3b 0e 3e
       -0.18095005 -0.044330508 0.022401683 0.1389001
0003f0 26 9a 39 3d b3 49 b2 be 70 66 0d 3e 5c 45 8b 3e
       0.045313023 -0.34821853 0.13808608 0.27201355

network_body._body_endoder.seq_layers.0.bias f4 [256]
000000 6c a6 ac bd e5 e7 52 3d a3 13 ea bd fc 8f 03 3c
       -0.0843018 0.051490683 -0.11429527 0.008029934
000010 34 5a a5 bd d5 2f 84 be 04 15 9c bc 85 b5 ff bd
       -0.080738455 -0.25817743 -0.01905299 -0.12485794
000020 08 8c 45 be 07 89 bd bd ad 0b 77 be ff e6 1b be
       -0.19291699 -0.092546515 -0.24125548 -0.15224837
000030 a1 4a 02 be a7 23 53 3d ce f8 c4 bd 10 2f 06 be
       -0.12723781 0.051547673 -0.09617768 -0.1310389
000040 aa 10 57 be dd 56 30 be 12 d9 09 be 80 82 19 be
       -0.2100245 -0.17220636 -0.13461712 -0.14991188
000050 86 21 11 be bc 15 fc bd b9 fc 72 3d 2f 1b 07 be
       -0.14172944 -0.12308833 0.059323046 -0.13193963
000060 fe 81 0b be 51 f5 ef bd b2 c4 73 bd 5c ad 4e be
       -0.13623807 -0.11716712 -0.059513755 -0.20183319
000070 cb fd 7e be 27 da af bd 91 29 a7 bd 59 b2 b7 3d
       -0.24901502 -0.08586531 -0.08162225 0.08969564
000080 1e 68 2a bd 16 97 6f be 33 8f 48 3d b6 86 94 bd
       -0.0416032 -0.23397478 0.04896469 -0.072522566
000090 5a 68 73 be be 95 37 be c3 06 e9 bd a0 db 83 bd
       -0.23770276 -0.17928216 -0.11378243 -0.064383745
0000a0 0d c8 2c be e9 34 f5 bc 33 98 81 bd eb a5 30 be
       -0.16873188 -0.029932456 -0.06327858 -0.17250793
0000b0 c2 76 9b bc 25 c5 14 be 60 25 08 be d9 fa ab bd
       -0.018977527 -0.1452833 -0.13295507 -0.08397455
0000c0 e0 1b 7a bd f8 cf 31 bd 4c a8 06 3d aa 3c 4e 3d
       -0.06106174 -0.043411225 0.032875344 0.050350823
0000d0 74 aa 75 bc a8 62 f5 bd fe 20 74 be 61 5e a9 bd
       -0.0149942525 -0.11981708 -0.2384071 -0.082699545
0000e0 6d 72 5e be 92 ed 0f be 95 cb e0 3c c9 c7 14 3e
       -0.21723337 -0.1405547 0.027440825 0.14529337
0000f0 c4 86 3e be fb 06 c0 3c 6d 07 25 bd cb d4 2a be
       -0.18606097 0.023440829 -0.040290285 -0.16682737
000100 9b 55 aa bd 21 b8 f6 bd 85 22 8b bd fa d9 17 be
       -0.08317109 -0.120468386 -0.067936935 -0.14829245
000110 bb 4d f6 3b dd 9b 42 be 51 75 8f bd 33 3a b8 bd
       0.0075165904 -0.1900477 -0.07004798 -0.089954756
000120 e8 e0 c4 bc 1a 66 a2 3c 8c da 12 be 1a 57 8f bb
       -0.024033025 0.019824076 -0.14341182 -0.004374397
000130 6f 7e e2 bd 87 02 a3 bd 11 91 2a be e4 ef 51 be
       -0.110592715 -0.079594664 -0.16656901 -0.20501667
000140 5d 1e 31 3e 6f ea a4 bd 56 55 93 be 1c 3e 75 be
       0.17296739 -0.08052527 -0.28776044 -0.23949474
000150 08 8b 39 3c a3 ca 67 bd 4f f3 b4 bd 4b 10 4f be
       0.011324652 -0.056589734 -0.0883547 -0.20221059
000160 94 3e 0d be 2c f2 41 be cb 35 8f bd 03 80 4b 3d
       -0.13793403 -0.18940037 -0.06992682 0.04968263
000170 85 8d 1a be f6 8f 94 bb 3d 1d 7e be fb 22 dc bd
       -0.15093048 -0.004533763 -0.24815841 -0.107488595
000180 4a f3 a0 bd a8 7f 97 be 2e 62 08 be 3b 07 26 bd
       -0.07858904 -0.2958958 -0.13318703 -0.04053424
000190 d9 c2 67 bd ee 73 31 bd 06 84 8e bc 6f a3 b9 3c
       -0.056582306 -0.04332345 -0.017396938 0.022660939
0001a0 78 82 2c be 69 9d f1 bd 31 10 fb bc e6 20 2d be
       -0.16846645 -0.11797602 -0.03064737 -0.16907081
0001b0 c3 f2 53 be 88 ed 2b bc 5d 31 12 3e 2a b4 80 bd
       -0.20698075 -0.010493644 0.14276643 -0.062843636
0001c0 e4 86 ff bd 07 9b e4 bc 58 83 1d be df 73 8d 3c
       -0.124769 -0.027905954 -0.15382135 0.017267166
0001d0 fe c5 a8 bd 0d c7 0b bd 29 8b 41 bc d1 5d af bd
       -0.08240889 -0.034125376 -0.0118129635 -0.08562816
0001e0 af 9c c1 bc 32 d0 68 bd 6a 03 14 be 6a 77 a0 bd
       -0.023634283 -0.056839176 -0.14454427 -0.078352764
0001f0 5c 34 e6 bc 5a 6d b0 3b b7 34 40 3e c8 6e 28 3e
       -0.028101139 0.0053841295 0.18770109 0.1644851
000200 0d 9c 31 be 26 ab c6 bd 9a 73 1d be bb 75 15 3e
       -0.17344685 -0.09700613 -0.1537613 0.14595692
000210 6b 7f 9a be 4a f4 d7 bd fb b8 44 be 80 50 01 bd
       -0.30175337 -0.10544641 -0.1921119 -0.03157091
000220 74 68 1e 3e d8 c6 44 be 63 5d 07 3c ae e3 13 3c
       0.15469533 -0.19216478 0.008262011 0.009026451
000230 10 ae a7 bd e3 40 61 bd d0 4e 9b 3d 0e 78 d3 bd
       -0.08187497 -0.05499352 0.07583392 -0.10325633
000240 1c 6c 31 be 3e e1 34 be 58 4a 34 be 09 3a d8 bd
       -0.17326397 -0.17664048 -0.17606485 -0.10557944
000250 ee 9d 6b bd b5 cc 66 be 04 ec 18 be 4d f5 18 3d
       -0.05752366 -0.22539027 -0.14933783 0.037343312
000260 fe 1c f5 bd 23 40 16 be b3 82 15 be 50 cd cc bd
       -0.119684204 -0.14672904 -0.14600639 -0.10000098
000270 e9 29 65 bd 58 bd 29 be 0c 5a 1e be 74 64 ff bd
       -0.05594817 -0.16576135 -0.15464038 -0.12470332
000280 4e 94 6e bd 82 2b b0 bd 03 30 28 3d 0f 57 16 be
       -0.058246903 -0.086020485 0.041061413 -0.14681648
000290 d5 65 a5 bd e9 dd e1 3d f2 83 29 be 16 61 79 be
       -0.080760635 0.11028654 -0.1655424 -0.24353442
0002a0 cd ec 20 bd 63 50 96 bd 95 e6 d9 bc 52 59 1d be
       -0.03928833 -0.07339551 -0.026599208 -0.15366104
0002b0 40 f1 55 be 0f 01 f0 bd 99 58 49 3d e1 0d 1f be
       -0.20892811 -0.11718952 0.04915676 -0.15532638
0002c0 84 61 34 be be 4d ce bd 6b c1 20 be 23 8f 6b bd
       -0.17615324 -0.10073422 -0.15698783 -0.057509553
0002d0 7c 9b a0 bd 35 d6 6e be b2 bf 2c be d0 ca f4 bd
       -0.07842156 -0.23323901 -0.16870001 -0.11952746
0002e0 1b 88 03 bf 1a 10 02 be b2 c5 0b be fb eb e5 bd
       -0.51379555 -0.12701455 -0.13649634 -0.1122665
0002f0 21 75 70 be 9f e1 4d be d1 f2 02 3d 92 cf 52 be
       -0.23482181 -0.20105599 0.03196985 -0.20586994
000300 a7 57 0f bc 30 2b 09 be f3 dd 8d bd c5 5e 24 be
       -0.008748925 -0.13395381 -0.06927099 -0.16051777
000310 7d 1c 1f bb 78 39 7f 3c 65 d0 49 3c 6a b2 9b be
       -0.0024278455 0.015577666 0.0123177515 -0.30409557
000320 17 cf 04 3e 20 68 58 be fb 50 3e bd 85 0e 61 bd
       0.12969624 -0.2113347 -0.046463948 -0.054945488
000330 cc 69 b4 bd b4 e6 e8 3d b8 43 50 be b3 8c 22 be
       -0.08809242 0.11372128 -0.20338333 -0.15873985
000340 ba aa c6 bc 80 70 d3 3d 58 48 08 be 42 67 eb bd
       -0.02425133 0.10324192 -0.13308847 -0.11494304
000350 63 c4 5b be 2e 73 4a be 76 68 21 be 43 81 c7 3d
       -0.21461634 -0.197705 -0.15762505 0.097414516
000360 5a e4 9b 3d e4 6e 08 be e8 aa 27 3d 20 99 12 bd
       0.07611914 -0.13323551 0.040934473 -0.035790563
000370 ff 73 93 be 11 22 42 be b4 92 34 bd 89 46 9a be
       -0.28799435 -0.18958308 -0.04408522 -0.3013194
000380 2c a7 99 bd 57 08 26 be cc 6b 4c 3c 4c 9c b2 bd
       -0.07502589 -0.16214119 0.012476873 -0.087212175
000390 7f 42 29 be 78 ad 01 be 4b 34 1b bb 04 36 94 3d
       -0.16529272 -0.1266383 -0.0023682292 0.07236865
0003a0 fb 8a 8d 3d c7 48 bc 3c a1 8c fb 3d 66 44 68 be
       0.06911274 0.022983922 0.12282682 -0.22682342
0003b0 03 65 88 bd 89 23 06 bd 72 75 fd bd 77 fe 38 be
       -0.066598915 -0.032748733 -0.123759165 -0.1806582
0003c0 64 3e 05 bd 49 a7 df bd 8b 50 28 be 9d 1b 06 be
       -0.032530203 -0.10920579 -0.16436975 -0.13096471
0003d0 12 6a 28 be 7c 95 d3 bd 88 cd 43 3c 6b d7 64 be
       -0.16446713 -0.10331246 0.011950858 -0.223478
0003e0 85 6a c4 bc 7e 2d 22 be 6c b0 f7 bd e2 59 58 3d
       -0.023976574 -0.15837666 -0.12094197 0.052820094
0003f0 d4 58 f9 bb 25 73 8c bd 22 b4 e7 3c 0d 6a 56 bd
       -0.007609466 -0.068578996 0.028284136 -0.05234723

network_body._body_endoder.seq_layers.2.weight f4 [256, 256]
000000 ff e1 a9 3e 38 35 1e bf cb f4 0b 3e 58 87 cc 3d
       0.33180234 -0.61799955 0.136676 0.09986752
000010 54 80 42 3e 95 30 97 be 43 f5 81 3e 12 74 0d 3e
       0.18994266 -0.29529253 0.25382432 0.13813809
000020 17 cf df 3d 68 9a 2b be 11 b5 7f 3e a3 07 ea 3d
       0.10928171 -0.1675812 0.24971415 0.11427238
000030 dc d4 3b bd ee f3 8f 3e e1 a4 a2 be 14 28 82 3e
       -0.045857295 0.2811579 -0.31766418 0.25421202
000040 65 73 0a 3e 02 cc c8 3e 7e 89 1c 3e 35 ae 77 3d
       0.13520582 0.39218146 0.15286824 0.06046887
000050 1d 2a 40 3e ae d4 5b 3e ba df 93 3e 77 ee d9 be
       0.18766065 0.2146785 0.28881627 -0.42564747
000060 f9 8d 28 bf 73 63 21 3f 2a e3 5b 3e b3 f1 a6 be
       -0.65841633 0.6304237 0.21473375 -0.32606277
000070 ae cc 0a be 32 5d 02 3e d5 5a d9 bd ab 7b 44 bd
       -0.13554642 0.12730864 -0.10613028 -0.0479695
000080 37 a1 02 bd ad ec 59 3d 01 2c 44 3e 23 ed 30 be
       -0.031892028 0.053204227 0.19157411 -0.1727796
000090 8f 70 88 be b8 87 b4 3e d7 2f e1 3e cb 2f 2f bf
       -0.26648375 0.35259795 0.4398181 -0.684323
0000a0 46 77 ac 3e 0a ef 8d be 78 5e 1c be 2a 70 25 3d
       0.33684748 -0.27721435 -0.15270412 0.04039017
0000b0 bc 1f 23 be 37 17 4c bf 15 2c 2c bf 21 fd 16 3e
       -0.15930074 -0.79722923 -0.67254764 0.14744999
0000c0 a8 42 42 3d 70 1b 1e bf 96 af a1 3e 31 72 b4 be
       0.04742685 -0.61760616 0.31579274 -0.3524337
0000d0 c7 21 6c be bc d1 1e bf a6 70 1f be c8 d1 9c be
       -0.2305976 -0.6203878 -0.15570316 -0.306288
0000e0 f1 be 5a 3e 04 b5 24 be 7d 82 e2 be bb e8 71 be
       0.21361901 -0.16084677 -0.4424018 -0.23623936
0000f0 72 13 a6 be fd b2 12 3e a3 b0 1b bf 99 d4 8c be
       -0.3243671 0.14326091 -0.608164 -0.2750595
000100 01 28 30 3d be c5 c4 bd ee 60 41 be b5 b1 65 be
       0.0430069 -0.09608029 -0.18884632 -0.22431071
000110 70 9c ba 3e 1b 24 ca bb 06 06 10 bf 02 55 37 3e
       0.36447477 -0.006168855 -0.5625919 0.17903522
000120 af d5 6f be 66 8a 6d be 41 ea 5d be f7 ac 06 bf
       -0.23421358 -0.23197326 -0.21671392 -0.52607673
000130 33 a5 a2 3d 70 b9 cc 3d 99 21 0a bf 3e ed b0 3e
       0.079416655 0.09996307 -0.53957516 0.34556
000140 f4 2a 31 3e 22 7a ac bd ff 1c 9c 3e 61 c5 a2 3e
       0.17301542 -0.084217325 0.30490872 0.31791213
000150 5c 72 7d 3e 64 17 05 bf 70 a2 53 bf a5 11 06 3e
       0.24750656 -0.51988816 -0.82669735 0.13092668
000160 c9 51 cc be 3b 6c cf bd 5e 19 28 3f e3 4f 0d be
       -0.39906147 -0.10128065 0.6566371 -0.13800006
000170 c8 97 b1 3d b8 81 c5 bd 8a b0 f3 3d 56 68 50 bd
       0.08671528 -0.096438825 0.118989065 -0.050880753
000180 f7 1a 9b 3e b0 1d 90 3e 37 a2 b0 3e fd 95 9c be
       0.3029401 0.2814765 0.3449876 -0.30583182
000190 f8 0c e8 be 2e 03 9c 3e 13 a2 88 be 3a 09 cb 3e
       -0.45322394 0.30471176 -0.26686153 0.39655477
0001a0 ae 15 13 3e d8 e8 bc be 6d 6f e3 bd 4d 08 51 3d
       0.14363739 -0.36896396 -0.11105237 0.051033307
0001b0 bc 25 a8 bd d6 fe 9a 3e ab 8c 16 3e a8 43 32 3b
       -0.08210322 0.3027255 0.14702098 0.002720097
0001c0 f4 b2 e1 be fe eb 31 3e c1 59 77 be 6a ca 66 3e
       -0.44081843 0.1737518 -0.24155332 0.22538152
0001d0 95 73 47 be fb 49 81 3e 7b 8a 29 3f 87 b3 c1 be
       -0.19477685 0.25251755 0.6622693 -0.3783228
0001e0 5c 03 f6 3c a0 29 11 3e a7 9a fc bc 9a ef 63 bd
       0.030030899 0.14176035 -0.030835463 -0.055648424
0001f0 aa 8d de 3e e1 37 c2 3d a4 de 5e be df ac f2 be
       0.43467456 0.09483314 -0.21764618 -0.47397515
000200 40 02 41 be f8 14 33 3e 17 1a 79 be 1e 4b df bd
       -0.18848515 0.17488468 -0.24326359 -0.10902999
000210 00 86 eb 3e c7 3b 38 3e 14 9f c2 be 78 3a a5 bd
       0.4600067 0.17991553 -0.38011992 -0.08067793
000220 ad b6 76 be a4 91 3a 3e f9 c3 66 bf ba cc 2f be
       -0.24093123 0.1821962 -0.9014278 -0.1716794
000230 6f 55 15 3f 28 6a 2b be a5 c4 2f be 80 90 25 3c
       0.58333486 -0.16739714 -0.17164858 0.010105252
000240 df f7 ec be 0b 3f b9 3e 7c b8 7a 3d 86 2d 34 3e
       -0.4628286 0.3618091 0.061211094 0.17595491
000250 9f 41 87 3d 72 1c da bc dc 7a 34 be 94 53 fa 3d
       0.06604313 -0.026624892 -0.17624992 0.122229725
000260 b7 c7 bb bd 7e 52 1f 3d 6f 1a 09 be e0 1e 94 be
       -0.09168952 0.03889703 -0.1338899 -0.28929806
000270 23 eb 88 3e a3 48 97 3d 8d a4 41 3e a3 ea 64 be
       0.26741895 0.07386901 0.18910427 -0.22355132
000280 da 83 0d be 98 cb ab be 01 47 7a be 08 e2 9f be
       -0.13819829 -0.33553767 -0.24441148 -0.31227136
000290 a3 d5 c4 3d 3c 87 21 bf 54 83 c4 be 04 de bd be
       0.096110605 -0.63096976 -0.38381445 -0.37083447
0002a0 dc 84 22 be 87 2e 0d bf b1 c0 35 3e b0 1a 07 3e
       -0.15870994 -0.5514912 0.17749287 0.13193774
0002b0 a8 92 92 bd 50 15 8d 3e 50 34 a9 3e 0f 2d 70 be
       -0.07156879 0.27555323 0.33047724 -0.23454688
0002c0 3d 18 a0 be 48 64 76 be 6c 40 cc 3e 35 54 82 3e
       -0.31268492 -0.24061692 0.398929 0.2545487
0002d0 ab 18 b5 be 59 14 13 bd d7 fe 26 3e 9e ca 2d be
       -0.35370383 -0.035908077 0.16308151 -0.16971824
0002e0 3a 91 49 bd 8c 11 2d be 01 63 fb 3e b2 38 b6 3d
       -0.049210764 -0.16901225 0.4909897 0.088975325
0002f0 c6 e5 40 be 56 b2 9f be 3c a8 76 bc fc b1 7b bf
       -0.18837652 -0.31190747 -0.015054759 -0.9831846
000300 f2 30 ba 3e d0 3c 37 bf f7 11 1c 3e 0e ec 4c be
       0.36365467 -0.7157717 0.15241228 -0.20011923
000310 90 e4 6a be cf ef 86 3d 93 c4 f9 3e ea d1 00 3f
       -0.22938752 0.065887086 0.48782787 0.50320303
000320 7f cf bc 3e 1e b2 9c 3e fc 46 5b bc db b8 0e be
       0.36877057 0.30604643 -0.013383623 -0.13937704
000330 38 15 01 bf 35 f3 c0 bd 90 34 eb 3e e5 d4 1f be
       -0.50423 -0.09421388 0.4593854 -0.15608557
000340 04 a0 c6 bd 45 50 c1 be 47 bc 42 be 79 70 fb be
       -0.09698489 -0.37756553 -0.19017135 -0.49109247
000350 b1 96 17 3f d1 3b 7b bc 9e a2 4e be 8d 97 be bc
       0.5921431 -0.015334086 -0.20179221 -0.023265624
000360 f4 c4 3c bd 1c 6f b0 3c 4d ff 47 be fb 6e c1 3e
       -0.046086267 0.021537356 -0.19530983 0.37779984
000370 34 66 81 bd 3d 35 28 3f eb 23 b0 be 50 78 f7 bd
       -0.06318322 0.65706235 -0.34402403 -0.12083495
000380 a3 14 3f be af 6d 7f be b1 42 bd be 92 fa 46 3f
       -0.18660216 -0.24944185 -0.36964944 0.7772609
000390 fc 2e 82 be 57 23 0d bd 71 da 89 be 80 3c 15 be
       -0.2542647 -0.03445753 -0.2692447 -0.1457386
0003a0 1b fe 70 3e f3 dd cf 3b cb 3c a3 3c aa 0a 12 bd
       0.23534434 0.006343597 0.01992645 -0.0356547
0003b0 09 2a 60 be 2f ff e0 3e fd a7 e9 be f6 ed 79 3e
       -0.21891035 0.4394469 -0.45635977 0.24407181
0003c0 f2 3e fb be 84 5d 5f 3d 62 28 75 bb 35 ae 9d 3c
       -0.4907146 0.054532543 -0.0037408103 0.019248107
0003d0 ba 98 ab 3e 12 d6 23 be f1 45 ed 3d 15 79 dc 3e
       0.3351496 -0.1599963 0.11585606 0.43061128
0003e0 88 1c bd 3e 3a ab 06 3e 37 5d 69 3e d0 eb 2e 3e
       0.3693583 0.13151255 0.22789465 0.17082143
0003f0 b9 54 92 be b5 60 cb 3d 97 67 cc be 34 43 36 be
       -0.28580263 0.09930555 -0.39922783 -0.17799073

network_body._body_endoder.seq_layers.2.bias f4 [256]
000000 b6 28 e3 bd 72 f3 82 be cf d2 3b be a6 ac 97 be
       -0.11091749 -0.2557636 -0.18342136 -0.29623908
000010 61 30 9a be cc ab 94 be 56 87 cc bd 85 1c 1e be
       -0.30115035 -0.2903732 -0.09986751 -0.15440567
000020 b1 9c d8 bd 68 34 38 3d 65 49 8e be f0 5e 27 3e
       -0.105767615 0.044971853 -0.2779037 0.1634481
000030 36 2b 84 be 8d 91 c1 bd 25 8f 18 be ad 5c ac be
       -0.25814217 -0.0945159 -0.14898355 -0.33664456
000040 02 ef 39 bd 07 1b 74 be 73 f6 71 be 48 5a 49 be
       -0.04539395 -0.23838435 -0.23629169 -0.19663346
000050 9a 5d ca bd 6b c4 1d be 83 bc 34 3d ca 76 77 bd
       -0.09881134 -0.15406959 0.04412509 -0.06041602
000060 4b a6 a5 bd 32 37 d8 bd 58 8c 01 be 5c 88 09 be
       -0.080883585 -0.10557403 -0.12651193 -0.13430923
000070 8d 94 9c be cc bd a0 be 06 b4 0d bf 3d 0e 7d be
       -0.30582085 -0.31394804 -0.5535282 -0.24712463
000080 28 97 5d be c3 ba 19 be 88 0f 66 bd 3f 5c e7 bd
       -0.21639693 -0.1501265 -0.056167156 -0.112968914
000090 fa ac 08 be 8b 8d 95 be b1 d9 33 be 3f af 82 bd
       -0.13347235 -0.2920955 -0.17563511 -0.06381082
0000a0 7e 26 5b be c7 b9 0a be f3 33 5d be 0f b0 52 be
       -0.21401402 -0.13547431 -0.21601848 -0.20574974
0000b0 bf b8 a1 be c8 21 02 be a9 4c 29 be 57 db 12 be
       -0.31586263 -0.12708199 -0.1653315 -0.14341484
0000c0 d2 c9 5b be be 9d c3 bd 54 c4 b1 be 0d 4b 1a be
       -0.21463707 -0.09551571 -0.347201 -0.15067692
0000d0 28 ba b4 be 52 48 4b be 33 93 24 be c8 ea bb be
       -0.35298276 -0.19851807 -0.16071777 -0.3670256
0000e0 18 42 77 bd ee 59 aa be 74 7b a1 bb 2f 4b c3 3e
       -0.060365766 -0.33271736 -0.004928047 0.38143298
0000f0 86 ac 30 be 67 57 8c 3d 40 d0 82 be 2c 2c 9e be
       -0.17253312 0.06852608 -0.25549507 -0.30893075
000100 a5 35 ad be 1e a9 07 be c9 cd 34 3c ef a6 c0 bd
       -0.3382999 -0.13248107 0.011035391 -0.0940684
000110 11 63 c4 be 75 e3 31 be 4b 55 0b be 0b 45 25 be
       -0.38356832 -0.17371924 -0.13606755 -0.16139619
000120 6f 0a 0f be 2f 3c 78 3d 42 49 62 bd 14 3b c4 be
       -0.13968824 0.06060427 -0.055245645 -0.38326323
000130 91 8c 17 be ba e4 be 3d de 04 95 be 6a d0 b8 be
       -0.14799716 0.0932097 -0.29105276 -0.36096507
000140 c1 20 71 be e0 0a 96 be ba 67 c9 bc e3 e9 48 be
       -0.23547651 -0.29305172 -0.024585593 -0.1962047
000150 87 d8 4c be fc 03 b5 be 3f 5d 89 be bc 03 9a bd
       -0.20004474 -0.35354602 -0.26828954 -0.075202435
000160 aa 60 26 be 5a 86 d9 bd 19 18 8a be 7b 0a 1c be
       -0.16247812 -0.10621329 -0.2697151 -0.15238373
000170 bb af 6f be 82 28 86 be 2e 76 99 be c4 15 50 be
       -0.2340688 -0.2620278 -0.29972976 -0.20320803
000180 5a 93 b8 be 55 d1 a3 be 24 4f 20 3c 23 8a 5c be
       -0.3604992 -0.31995645 0.009784494 -0.2153707
000190 6a 62 5b be 8e 28 2b be 85 b5 b9 bd ef 1c 18 be
       -0.2142426 -0.16714689 -0.09067825 -0.14854787
0001a0 b1 fb 8b 3d 72 88 9c bd 06 6e 5b be 3a fb 55 be
       0.06835116 -0.076432124 -0.2142869 -0.20896617
0001b0 b0 06 39 3d 52 0d 56 be 4d 52 63 be 98 ad 3f bd
       0.045172393 -0.20903519 -0.22199364 -0.04679641
0001c0 fe 9b 17 be b6 e6 c1 bd de 5d 94 bd dd c8 d5 bd
       -0.148056 -0.09467833 -0.07244466 -0.10438702
0001d0 a0 53 84 3c 5b b6 c6 bd 32 3f 79 be 3c b4 22 be
       0.016153157 -0.0970275 -0.24340513 -0.15889066
0001e0 16 00 3c be 73 ac 85 bd 28 56 6d 3e 2e ac 96 be
       -0.18359408 -0.06527033 0.23177397 -0.29428238
0001f0 25 d5 ab be 0e 61 28 be c8 48 d2 be d6 eb a7 be
       -0.33561054 -0.16443273 -0.41071153 -0.32797116
000200 79 63 0b be f0 fc a8 be d3 5b 81 be 4d 5b 8c be
       -0.13612165 -0.33005476 -0.2526537 -0.27413407
000210 bc 22 4a bc 25 fd f5 bd 6a 03 2d 3d bf f0 1b 3e
       -0.012337383 -0.12011174 0.042239584 0.15228556
000220 9b c2 3a be 62 24 3f be 04 13 a1 be 5a 50 9e be
       -0.18238299 -0.18666223 -0.3145982 -0.30920678
000230 a1 16 ed bd 9f e8 a0 be 96 4d c5 be c2 1d 0d be
       -0.11576582 -0.31427476 -0.38535756 -0.13780883
000240 91 29 5f be 04 f2 bd bd e5 e0 0d be dc 04 d5 be
       -0.217932 -0.092746764 -0.13855322 -0.4160527
000250 c2 96 86 be 09 67 23 be 1b d0 33 be 95 0c 58 be
       -0.26286894 -0.15957274 -0.17559855 -0.2109855
000260 40 17 1c be 3c 2d 3a be 73 0b 81 3d cd 36 b0 bd
       -0.15243244 -0.18181318 0.06301012 -0.086042024
000270 fa 71 05 be b4 e0 59 3c c8 cf be be f1 34 79 be
       -0.1303176 0.013298202 -0.372679 -0.24336602
000280 45 04 a1 be 60 6f 15 bc 06 1e 3a be c9 91 08 be
       -0.3144857 -0.009120792 -0.18175516 -0.13336863
000290 f8 43 e8 be 19 07 d8 be 29 40 23 be e0 c8 e7 be
       -0.45364356 -0.42192915 -0.15942444 -0.45270443
0002a0 2f a8 32 bd 3b 95 57 3d f4 d1 8a be 8a 40 8e bd
       -0.043617424 0.05263255 -0.27113307 -0.069459036
0002b0 fc 0b 97 be 4c 1f 8c be 35 d6 d8 be 82 46 bf be
       -0.2950133 -0.27367628 -0.42350927 -0.3735848
0002c0 07 79 24 be 18 e7 05 be cd 08 7c be 1a cf 51 be
       -0.16061793 -0.13076437 -0.24612732 -0.20489159
0002d0 63 54 fa bc 52 27 73 be 4c 77 7e be b9 fc 8c be
       -0.030557817 -0.23745468 -0.24850196 -0.27536562
0002e0 30 91 89 be fc 15 7d be f3 5d 00 bf 0c 34 04 bf
       -0.26868582 -0.24715418 -0.50143355 -0.5164192
0002f0 c3 6c 40 be 2a c3 9a be 11 c6 0a bf 85 88 1a bd
       -0.1879149 -0.30227023 -0.54208475 -0.03772785
000300 07 ea 9b be 51 f7 0c 3e 2e 9d ae be 00 05 a1 be
       -0.30451986 0.13766219 -0.34104294 -0.31449127
000310 7e f6 c5 3d 27 fd 50 be 93 9b d4 be cd 1e a7 bd
       0.09666155 -0.2040907 -0.41524944 -0.08160172
000320 2b dc 82 bd 52 79 07 be c0 d5 11 bd 89 e8 50 be
       -0.0638965 -0.13229874 -0.03560424 -0.20401205
000330 1a 77 e4 be 42 5f 09 be 9d 41 0a bd 6e e7 cb 3c
       -0.44622117 -0.13415244 -0.03375398 0.024890628
000340 8c 76 b9 bd c8 69 9f be ff 2a 39 be a6 f0 b4 be
       -0.09055814 -0.31135392 -0.18082808 -0.3533985
000350 72 cb 64 be d4 87 71 be 4b 8f 1c be 5a b4 0e be
       -0.22343233 -0.2358697 -0.15289037 -0.13935986
000360 aa ab 58 be d7 d2 2f 3e 6b 85 6c 3e 41 0f a2 be
       -0.21159235 0.17170273 0.2309777 -0.31652263
000370 b9 f8 81 be f2 d9 52 be 19 0b 5b be 7c 67 e1 3d
       -0.25385073 -0.20590952 -0.21390952 0.11006066
000380 06 4c 8a be f0 55 40 be 71 1b 5a be 4d 0e 4f be
       -0.27011126 -0.18782783 -0.2129953 -0.20220299
000390 f4 d4 91 be 38 11 ab bd ac ee 55 be 70 fe 35 be
       -0.28482783 -0.083528936 -0.20891827 -0.17772841
0003a0 c7 c0 ec bd bf 8b b5 bd 2f c5 b4 bd b6 53 08 be
       -0.11560207 -0.08864545 -0.08826672 -0.13313183
0003b0 93 a6 bc 3c bc df de be 8e 6e 54 be 24 8b 88 be
       0.023028648 -0.4353007 -0.20745298 -0.26668656
0003c0 6c c8 8d be 33 ae 83 bd 38 1b bf be db 95 55 3d
       -0.27691972 -0.0642971 -0.37325454 0.052144866
0003d0 63 86 c2 bd 29 8b de bc 93 54 72 be da 46 fb bd
       -0.094982885 -0.027165966 -0.23665075 -0.12269373
0003e0 aa 92 39 3d 64 ce 15 be 9d 98 15 be bb a8 19 be
       0.045305885 -0.14629513 -0.14608999 -0.15005772
0003f0 fe ba 26 be 5b 9a 5b be ae ba fe bb 7a fb 90 be
       -0.1628227 -0.214456 -0.007773719 -0.2831686

action_model._discrete_distribution.branches.0.weight f4 [3, 256]
000000 a3 ae ef 3a 99 36 ec 3d 78 dd 6a 3e 17 20 42 3c
       0.0018286299 0.11533851 0.22936046 0.011848471
000010 c9 b7 e5 bd 72 d2 ad 3d 6c e5 cd 3d a2 55 f4 be
       -0.11216695 0.08487405 0.100535244 -0.47721583
000020 cf 89 fe 3d a6 ac a0 38 dc 1b 77 3e 90 ec 13 3e
       0.12428629 7.661553e-05 0.24131721 0.1444571
000030 4c fc f1 3d e2 97 54 3e a3 96 0a 3c 9e eb 00 bd
       0.118157 0.20761064 0.008458766 -0.031474702
000040 ac 22 07 bf 8d aa 02 3e a7 33 f3 3c 33 f1 72 be
       -0.5278728 0.12760372 0.029687716 -0.23724823
000050 a2 78 a0 3d 0c 39 18 3e 6b 1e 21 3e c3 75 e7 3d
       0.07835509 0.14865512 0.1573426 0.11301758
000060 5b 21 57 bd fc 80 45 bc b0 dd 22 bd a4 9a 22 bd
       -0.052522045 -0.012054678 -0.0397622 -0.039698258
000070 c4 8a 7d 3e 59 7a 83 3e fc ba 8c be 2a 55 2b 3c
       0.24759966 0.2567928 -0.27486408 0.010457316
000080 ed 73 15 bd 03 77 88 3e 78 a9 02 3e a0 c2 f1 3d
       -0.03648751 0.266533 0.1275996 0.118047
000090 4e ce 0d 3e 1c 06 f3 bc 2e 42 d2 3d e7 6d 90 3d
       0.1384823 -0.029666 0.10266529 0.07052212
0000a0 1a 80 4a be ad c6 3c bd 5b b8 75 be da 9f 78 3d
       -0.1977543 -0.04608791 -0.23996107 0.06069932
0000b0 fc 64 af bd bd 57 f6 3d fc 7a 05 3e a6 ac 0b be
       -0.08564183 0.120284535 0.13035196 -0.13640079
0000c0 5b 60 e7 3c b2 0c ae 3d 40 17 25 3d da 25 c0 ba
       0.028244188 0.08498515 0.040305376 -0.0014659718
0000d0 30 6b 14 bd 18 4a a2 bb f4 82 50 3c 12 3e 23 bd
       -0.036235034 -0.0049526803 0.012726534 -0.039854117
0000e0 40 13 3c bd 35 62 09 3e a6 13 0b 3e e9 db 33 3c
       -0.045916796 0.1341637 0.13581714 0.010977724
0000f0 08 a4 1b 3e a9 e5 40 3d a3 98 51 3e 28 78 24 3e
       0.15199292 0.04709402 0.20468383 0.16061461
000100 79 6b e6 3e 58 9a b3 bd 1e 2d 8e 3d 7d 9f 44 3d
       0.4500387 -0.08769673 0.06942199 0.048003662
000110 c0 51 4a 3d ca ef 9c 3d 54 e6 66 3c 2d 37 9c 3c
       0.04939437 0.07662924 0.014093 0.019069279
000120 62 9a e2 3d a9 d3 44 3e 86 c5 65 bb 8f 20 31 3e
       0.110646024 0.19221367 -0.003506036 0.17297576
000130 85 9a 18 3d 9c e1 fa bc 9e 73 94 bd 8c a0 b1 3d
       0.037256736 -0.030625157 -0.07248615 0.086732
000140 bb 82 ce 3a 5b 40 60 3e 66 08 a9 3c 5f d4 b9 3d
       0.0015755513 0.2189955 0.020633887 0.0907371
000150 d7 be 39 3e 5a ac 00 3e c8 fa 9f 3e 4e 10 af 3d
       0.18139206 0.12565747 0.31246018 0.08548032
000160 fb 04 15 3e 10 3f 7d bd 83 01 1f bc f6 83 8c be
       0.14552681 -0.06182772 -0.00970495 -0.27444428
000170 fc 88 47 3d b5 19 3b bd 1e 5e 4d 3e 6d 59 03 3e
       0.048714623 -0.045678813 0.20055434 0.12827082
000180 e9 83 a8 3c 9f db 07 3e 4b 89 5e ba 4b f9 73 3d
       0.020570712 0.13267373 -0.0008489086 0.059563916
000190 83 b6 5b 3d 89 63 0f 3d 7e 78 0d 3e 81 16 6a bd
       0.053640854 0.035007033 0.13815495 -0.057150368
0001a0 c8 52 c5 bd 81 05 3d be 82 0a 01 3d 92 29 1c 3e
       -0.0963493 -0.18459131 0.03150416 0.15250233
0001b0 16 79 57 3d d8 3f 0a bd 67 d6 f6 bd 60 56 01 3e
       0.05260571 -0.033752292 -0.12052613 0.12630606
0001c0 ed 6c 93 bd 6d b9 71 3d 24 ea 90 3d a5 2b 83 3e
       -0.0719851 0.059014726 0.07075909 0.25619236
0001d0 6b a3 f3 bd 3e fa 32 3e fe 81 7f be 03 dd d2 bc
       -0.11896404 0.17478272 -0.24951932 -0.025740152
0001e0 9a b1 ee bc 0f de d5 3d a6 2b 14 bd 1e fc 8d 3d
       -0.029137421 0.10442745 -0.03617444 0.06932853
0001f0 63 cf 09 3e de 4f 64 3e d1 52 a5 3d 4c 38 2b 3e
       0.13458018 0.22296092 0.080724366 0.16720694
000200 10 53 0c bd 70 d4 3b be a5 fd 1e 3e c9 0c 2f be
       -0.034258902 -0.18342757 0.15526445 -0.17094721
000210 0e 05 93 bd 88 93 88 3b af 90 f1 3d c9 60 01 3e
       -0.071786985 0.0041679777 0.11795174 0.12634577
000220 58 1e 18 be 8b 46 41 3c 31 85 bf 3e 4b 0f 74 3d
       -0.14855325 0.011796604 0.37406304 0.059584897
000230 43 3d 61 bd b9 6c a1 3e 0e 3c c1 bd 55 1f 11 be
       -0.054990064 0.3152826 -0.09435283 -0.14172108
000240 91 a2 bf bd 01 9b 45 bd b7 e5 29 3e 04 0d 8e bd
       -0.09357179 -0.048243526 0.16591536 -0.06936076
000250 f7 39 0d 3e 55 25 94 3e bc e5 fd 3d 94 19 7e 3c
       0.13791643 0.28934732 0.12397334 0.015509028
000260 a2 63 ea 3d 12 c3 3c bc 18 5e 3e 3e 8c fa 8f 3d
       0.11444785 -0.011521118 0.18590581 0.0703021
000270 c3 16 5d 3d 41 4e f6 39 49 1c a8 bb ff 85 b2 3d
       0.053976785 0.0004697908 -0.005130325 0.08716964
000280 bf 3d ac bd 9d cf e4 3c 1c 60 27 3e 2f df e7 bd
       -0.08410215 0.027931029 0.16345257 -0.11321866
000290 69 58 27 3c e4 b9 ba bd e7 2d ca 3d e8 e0 f2 3d
       0.01021395 -0.09117487 0.098720364 0.11859304
0002a0 17 60 97 3e 2e 1f 28 3c 3a a3 27 bd 89 09 bb bc
       0.29565498 0.01026134 -0.04092715 -0.022831695
0002b0 92 50 65 3e 2f 3a d0 3d b9 96 36 bd b0 b0 53 3e
       0.22394016 0.10167348 -0.044577334 0.2067287
0002c0 6c 10 61 3c 10 5a 55 3e 7e 30 2b 3d 47 29 bb bd
       0.013736825 0.20835137 0.041794293 -0.091387324
0002d0 d5 fb 95 3d dd 7b d0 3c be bd 58 3e 61 6b 68 bd
       0.07323424 0.025449688 0.21166131 -0.05674303
0002e0 c2 61 bd be e2 54 38 be da 7e 81 3d 38 d6 b1 3e
       -0.36988646 -0.1800113 0.06323023 0.34733748
0002f0 db 1c 98 3d d5 51 c5 3d 25 5b de bd 1e f3 4f 3d
       0.07427379 0.09634749 -0.10857228 0.050768964
000300 08 76 7f bd 05 b2 76 3e cd 69 2e 3e b4 1f dd 3d
       -0.062368423 0.24091347 0.17032547 0.107970625
000310 5a bd eb 3d 6f b5 1c bb c8 6b 0c 3e c6 69 5c bc
       0.11510725 -0.0023911854 0.1371299 -0.013452953
000320 7a c8 08 3e 09 a8 8e ba 18 b1 ad 3e b6 a3 ed 3d
       0.13357726 -0.0010883819 0.33924174 0.11603491
000330 01 c3 e7 3c 64 48 54 be 98 5d fd 3d 67 66 d4 3d
       0.028291227 -0.2073074 0.12371367 0.10371094
000340 27 5c ed bd b1 28 72 3e 41 40 fe 3d 9e d1 93 bb
       -0.11589842 0.23648335 0.12414599 -0.0045110723
000350 fa 07 37 3d c3 4a d3 bd 15 c4 24 be 5d f6 fa bc
       0.04468534 -0.10316994 -0.16090424 -0.030635053
000360 0f ac b5 bc bb 34 52 bc 8c b4 b0 3c 01 ab 85 3e
       -0.02217677 -0.012829955 0.021570466 0.26107028
000370 56 3e 8c 3d 03 56 0c 3c 0c f0 2a be 02 41 30 3e
       0.06847827 0.008565429 -0.16693133 0.17212299
000380 98 16 84 be 00 cc 05 3e ce 5d a1 3a 4f 9b 4d 3d
       -0.25798488 0.13066101 0.0012311281 0.050196942
000390 ee 28 25 3e b2 1f df 3d 4b a0 31 bc f5 97 90 3e
       0.16128895 0.10894717 -0.0108414395 0.28240934
0003a0 10 e2 1e 3e 2d 0e 16 3e d1 92 70 3d 4f b6 d8 3c
       0.15515924 0.14653845 0.058733765 0.026454119
0003b0 60 4d 84 bd f0 a5 86 3d dd c7 69 be 8c c2 01 3e
       -0.064600706 0.06574619 -0.22830148 0.1267187
0003c0 a1 40 4b bd 90 17 b0 3e 88 d7 55 3e ec a6 56 3c
       -0.04962218 0.34392977 0.20883 0.013101321
0003d0 fe a4 ab 3d 15 ba b1 3d 36 84 60 3d 36 c5 cf 3c
       0.08381079 0.086780705 0.054813586 0.025362592
0003e0 b3 10 43 3d c9 61 b8 3e d3 58 8a bd 1b f8 c0 3d
       0.047623347 0.36012104 -0.06755223 0.09422322
0003f0 50 83 a6 3d 88 56 b2 bc 2a a1 15 3e cc 78 96 3e
       0.081305146 -0.021769777 0.1461226 0.29389036

action_model._discrete_distribution.branches.0.bias f4 [3]
000000 20 0a 13 be fd d1 cc 3d e3 29 aa 3d
       -0.14359331 0.100009896 0.083087705

action_model._discrete_distribution.branches.1.weight f4 [2, 256]
000000 0d c3 78 3d 13 97 23 3e df 1e b6 3e 0a 9c 06 be
       0.06073289 0.15975599 0.35570428 -0.13145462
000010 f1 02 2d 3e af 30 00 bb 53 17 aa 3c c3 3f 6d bd
       0.16895653 -0.0019560268 0.020763075 -0.057922136
000020 15 a4 f6 bd 37 5c 80 3c d2 46 b7 3d 21 3a 36 3d
       -0.12043015 0.015668971 0.08949055 0.04448903
000030 f1 db 77 3e 4d d1 99 bd 96 b5 91 be 94 59 ab 3e
       0.24204995 -0.07510624 -0.28458852 0.3346678
000040 82 e0 a2 3d 29 3c 26 bd 23 11 a1 bd eb 60 be be
       0.07952978 -0.040584717 -0.07864597 -0.37183318
000050 8f 04 48 3e fb b0 47 3d 92 f2 0a bd 5c 58 80 bd
       0.19532989 0.048752766 -0.03392274 -0.06266853
000060 05 49 8b be da c7 8a be 06 3e 2f 3e 46 0e cd bd
       -0.27204147 -0.271056 0.17113504 -0.10012488
000070 81 69 24 be 75 ae 8f be f5 55 85 be e9 57 f3 3a
       -0.16055872 -0.28062788 -0.26042143 0.0018565628
000080 65 09 99 3c f9 be 40 be 2b 96 48 3d 25 20 98 3e
       0.018681237 -0.1882285 0.048971336 0.29712024
000090 13 ab 06 bc 52 7a 3c 3d a0 54 9c be c0 2e e9 3d
       -0.008219498 0.04601509 -0.30533314 0.1138587
0000a0 95 8a ad 3d a6 4f 4b be 66 56 38 be 14 74 24 be
       0.08473698 -0.19854602 -0.18001708 -0.16059905
0000b0 d8 fa 28 3d ff 1c 48 3e c4 cd 0a be e9 ab 35 be
       0.04125485 0.19542311 -0.13555056 -0.1774136
0000c0 a5 6b 48 be 17 6b 2d 3e a0 27 fa bc 25 fe be bd
       -0.19572313 0.16935383 -0.030536473 -0.09325818
0000d0 b8 c3 04 3e 66 e4 15 be 0e d6 03 bd 82 f7 07 3e
       0.12965286 -0.14637908 -0.03218656 0.1327801
0000e0 0d db 0e be 4d 9f df 3e 93 9e 5b bc f1 36 4e bc
       -0.13950749 0.43676224 -0.013404506 -0.012586341
0000f0 ca 09 d9 3d c6 5a 39 3e cf 9b c9 bc 14 85 4a be
       0.1059757 0.18101034 -0.024610428 -0.19777328
000100 41 90 95 3e 64 22 2b 3e 1e 3f 08 3c 18 78 87 bb
       0.2921162 0.16712338 0.00831583 -0.0041341893
000110 a8 f1 3e 3e 6b e1 11 3d 25 77 34 3c 99 81 88 be
       0.18646872 0.035615366 0.011014734 -0.26661375
000120 55 93 65 bc 7d 60 18 3e b7 a4 a9 3d 15 38 fc 3d
       -0.0140121775 0.14880557 0.0828337 0.12315384
000130 0f 80 88 3d 04 f3 de bc 4d 12 a4 3d 64 e0 da bc
       0.0666505 -0.027215488 0.08011303 -0.026718326
000140 08 99 21 bc 1c c7 15 3e 7f 31 0b 3d 0f 8e 4c 3e
       -0.009863146 0.14626735 0.03398275 0.19976066
000150 51 f6 75 ba 23 7d 3c 3e 3d 58 cf be ec e0 60 be
       -0.00093827123 0.18407111 -0.40497008 -0.21960801
000160 e4 9c ac bd 64 f2 48 3d 79 cf 67 3d e9 f9 11 bd
       -0.08428362 0.049059287 0.056594346 -0.035638724
000170 ac 1b a9 be 05 c3 10 be 2a 41 04 bd 5e bb fa 3d
       -0.33028924 -0.14136894 -0.032288708 0.12242769
000180 80 d5 e3 3d c9 66 04 be 86 60 81 3c 72 97 f1 bd
       0.11124706 -0.12929834 0.015793096 -0.11796464
000190 fd 5e 5e 3d 26 45 30 bd 62 72 07 3d 6c e7 8e 3e
       0.054289807 -0.043034695 0.03306807 0.27910936
0001a0 b3 d5 c5 3d ed 2e e6 3e 54 88 94 3d 74 b8 c0 3c
       0.096599005 0.44957677 0.07252565 0.023525454
0001b0 ea 53 02 be 55 10 14 be 59 71 25 3d 46 32 c3 bd
       -0.12727323 -0.14459355 0.0403913 -0.09531073
0001c0 b7 f3 aa 3d 56 48 ba bc b4 ab 91 bd 9b db 17 be
       0.08347266 -0.02273957 -0.07112828 -0.14829867
0001d0 ea 2e 24 3d bb 87 bd 3d 18 4d 54 3e d5 40 d8 bd
       0.040083803 0.09254404 0.20732534 -0.10559241
0001e0 3c aa 0c be 9b de 19 3c f2 2e 82 3c 31 d7 69 3e
       -0.13736814 0.009391452 0.015891526 0.22835995
0001f0 aa 78 69 bc 62 ac 4b bd ee f3 c0 3d 14 aa bc be
       -0.01424996 -0.049724944 0.09421526 -0.3684851
000200 75 ae 76 bc 00 3f c7 be 21 33 35 be 50 36 c2 3c
       -0.015056242 -0.38915253 -0.17695285 0.023707539
000210 8e 7a e7 bd 71 96 d0 3c 8d b9 a3 bb 0c 71 a3 bc
       -0.11302672 0.025462361 -0.0049964846 -0.019951366
000220 38 2f fc bc 07 eb 0f 3c 51 6b 53 3d 94 e4 75 bc
       -0.030784234 0.008784062 0.051616017 -0.015008111
000230 ea ca 4c 3c ba 16 0c 3e 25 38 a9 bc b6 c2 cb bc
       0.01249955 0.13680544 -0.020656655 -0.024873119
000240 45 4c 05 be a3 1b ab bd a0 e8 24 be 8d 3d f9 3b
       -0.13017376 -0.08354881 -0.16104364 0.0076062144
000250 14 d9 3c be 42 80 3f bf f4 54 58 be c1 90 1e bd
       -0.18442184 -0.7480508 -0.21126157 -0.038712267
000260 ce dc 89 bd 76 0c 53 3e 5c 42 d6 3c ae 90 55 be
       -0.06731568 0.20610222 0.02615469 -0.20855972
000270 14 8a bf bd bc 21 3f 3e 11 76 c0 3d 8d 25 86 3d
       -0.09352508 0.18665212 0.093975194 0.06550131
000280 3b 5e 85 bd 95 95 3b 3c 9c 8f 41 3d b9 07 a8 be
       -0.06512114 0.011449237 0.047256097 -0.32818392
000290 01 40 50 3e e1 ae e5 3b fa 63 0a be 2a 02 3e 3e
       0.20336916 0.0070093726 -0.135147 0.18555513
0002a0 dd dc 22 bd 43 26 a5 3b 08 7b 86 3c ff 6b 1f 3d
       -0.039761413 0.0050399615 0.016416088 0.038921352
0002b0 ce 24 15 3e 0e f8 7e 3e 4f 18 c6 bb f9 b6 a0 bc
       0.14564821 0.24899313 -0.0060453783 -0.019618498
0002c0 97 d4 2e 3d 32 54 4c 3e 14 0c bc 3c fe 16 34 bd
       0.04268321 0.19953993 0.022954978 -0.04396724
0002d0 30 ed 64 be 16 fe 01 3d 39 ac 95 3d d4 fb 47 3d
       -0.22356105 0.031736456 0.073082395 0.048824146
0002e0 c9 db 36 3c 20 74 dc bd 68 99 80 3e 4d 64 9c bc
       0.011160799 -0.107643366 0.2511704 -0.019090796
0002f0 8d f4 29 be c4 8f 0a bd ed 86 8e be 37 4f 87 3e
       -0.16597195 -0.03382851 -0.27837315 0.26427624
000300 7d 9a 16 3e 42 38 68 be 51 6e 73 bd c5 f9 8f 3c
       0.1470737 -0.2267771 -0.059431378 0.017575154
000310 2a 3f 20 3d f9 bc a1 3c d8 ae e1 3d ef 36 ca 3c
       0.039122738 0.01974343 0.11019677 0.024684398
000320 41 e5 9a 3e 28 d7 65 3d c1 af c6 3e 81 33 f7 bb
       0.30253032 0.056113392 0.38805965 -0.0075439815
000330 a2 4a 72 be 69 b9 1c bd 36 25 d3 bd 58 a6 93 bd
       -0.23661283 -0.03826276 -0.10309832 -0.07209462
000340 fd 5e 57 3e c4 ca ca 3c f4 01 9c bb d0 d7 03 bd
       0.21032329 0.02475489 -0.004760975 -0.032188237
000350 b1 0b 13 be f3 9c 5a bd 28 30 7d bc a5 ef c5 3d
       -0.14359929 -0.053372335 -0.015453376 0.09664849
000360 70 a7 d1 bd d8 db 8e bd 40 5b 23 bd f9 bf 55 bc
       -0.10237014 -0.069755256 -0.039881945 -0.013046258
000370 85 42 3f bd 79 ac 62 3e c5 ac a8 3e be 03 04 bd
       -0.046694297 0.22136106 0.32944313 -0.03223013
000380 64 38 75 3c f5 da 4c 3d 1d b7 b8 3e cf 7f a3 3d
       0.014967058 0.0500135 0.36077204 0.07983362
000390 2f 27 12 bf 39 91 9b 3b b7 d1 00 3e f1 9c 60 3e
       -0.5709104 0.0047475365 0.1258 0.21934868
0003a0 31 21 d5 bc cb a8 d2 bb f4 0f 4c 3e 94 bf ff 3c
       -0.026016803 -0.006428813 0.1992796 0.031219281
0003b0 c6 8b 10 bd 0f bd 5b 3e 9c 98 88 be 49 93 8b 3d
       -0.03528955 0.21458839 -0.26678932 0.06815202
0003c0 0e c6 96 be d4 d5 d2 be 7a 60 00 bd 0e 92 17 be
       -0.2944798 -0.41178763 -0.031342007 -0.14801809
0003d0 cc 4c 0c be 45 2f af 3d bd f0 06 bd d9 09 d9 be
       -0.1370117 0.08553938 -0.03294443 -0.42390326
0003e0 2d 97 b5 bc cf 4b 82 3e 56 64 a0 3b a3 c4 50 bd
       -0.022166813 0.25448462 0.0048947735 -0.050968777
0003f0 99 45 af bd f2 2c cb 3d d8 39 23 3d aa 4f bb bd
       -0.085581966 0.09920682 0.039850086 -0.09146054

action_model._discrete_distribution.branches.1.bias f4 [2]
000000 ae 55 82 3b fe 55 82 bb
       0.003977499 -0.003977536

action_model._discrete_distribution.branches.2.weight f4 [2, 256]
000000 7f 46 73 3c c4 66 da 3c 60 5f 9f bd f1 63 f6 3d
       0.014848351 0.02666033 -0.07781863 0.12030781
000010 5a 22 10 3c b1 f0 d3 bd bf 7e 52 3d a9 80 26 3e
       0.008797253 -0.103486426 0.051390406 0.16260017
000020 ec 8b 4e 3e 12 bf 54 3d 3d 20 cb 3b 75 4c 23 3d
       0.20170563 0.05194003 0.0061989115 0.039867837
000030 a0 29 75 be 61 15 b9 bb 49 02 3e ba 75 77 8a 3d
       -0.2394166 -0.0056483005 -0.00072482653 0.06761066
000040 93 b9 c9 be 24 21 1f 3d 7c 3a 3b 3c df 8b ab bd
       -0.39399394 0.038849965 0.011427518 -0.08376288
000050 57 40 65 3e 3e 0f 88 bd 63 8d 74 bc a1 b6 12 3d
       0.22387825 -0.06643532 -0.014926287 0.0358187
000060 f0 71 29 3d 1b 7b c2 bd e9 d0 87 bd 04 64 ca bd
       0.041368425 -0.09496137 -0.06631643 -0.09882358
000070 99 30 46 3d 36 cd 8a 3e e5 ad bc 3d 0b 6b af 3d
       0.04838619 0.2710969 0.09212855 0.08565339
000080 82 e1 9e 3b 6d 38 e3 3e 9e 20 b4 3d 29 d5 9b bd
       0.00484866 0.44378987 0.08795284 -0.076090164
000090 48 8f 0d be 8d 47 10 3e fa c1 ae bd db 4f 95 bc
       -0.13824189 0.14089794 -0.08533092 -0.018226555
0000a0 39 53 f8 bd ed 93 e5 3d 03 4d 4d bd 06 41 39 3d
       -0.121252485 0.11209855 -0.050122272 0.045228027
0000b0 d2 30 00 3d 75 ce 35 bd ea a7 97 bd 44 2a 12 3e
       0.03129656 -0.044386346 -0.07405074 0.14273936
0000c0 83 bb 39 be 30 be 1d bd 6c a8 26 3d fa 65 b6 3d
       -0.18137936 -0.038511455 0.040687963 0.08906169
0000d0 90 75 96 be a0 38 4b be 03 cd 88 bd fe 4c 2a be
       -0.29386568 -0.1984582 -0.06679728 -0.16630933
0000e0 8d fb d5 3c f2 84 ec 3d 2e 8d c4 be d8 35 92 3e
       0.026120925 0.11548795 -0.38388962 0.28556705
0000f0 ed 80 ec 3c 97 7b 13 3e 72 e4 f3 bd 94 95 c7 bc
       0.02887007 0.14402615 -0.11908807 -0.024363317
000100 89 b2 3a 3e 87 3c 7b 3e 39 88 44 bb ab d6 8f 3e
       0.18232168 0.24534808 -0.0029988422 0.28093466
000110 39 81 7a 3d c5 d7 0e bd a0 79 89 3e ff c5 87 3e
       0.061158393 -0.034873743 0.26850605 0.26518247
000120 e9 ae e8 bd 8c 02 85 bd cb ac 79 bc 18 ba 26 be
       -0.113614865 -0.064946264 -0.015238951 -0.16281927
000130 38 47 29 be 12 34 de 3c ce 1c 05 3e 31 ae 05 be
       -0.16531074 0.027124438 0.1299927 -0.1305473
000140 fd 27 2c 3c 78 c7 f0 3d 77 2a d5 3c 4b 8f 87 bc
       0.010507581 0.11756796 0.026021225 -0.01654782
000150 2a f3 14 be 1b ad 23 bd 26 ae ea bc 05 41 80 be
       -0.14545885 -0.039960008 -0.028647494 -0.25049606
000160 79 58 fa 3c e8 a9 8d 3c 4b fe 93 bc bd 33 79 3c
       0.030559765 0.017292932 -0.018065592 0.015210089
000170 1f 07 7f be b5 cb 9f bc 32 60 ce bd 3b 89 d6 bd
       -0.2490506 -0.019506315 -0.100769415 -0.104753934
000180 03 4b 11 be 6d 70 50 be 82 83 84 3e f6 1b 24 3e
       -0.14188771 -0.20355387 0.25881582 0.16026291
000190 ef 54 14 be f4 13 00 be 6e 34 ac bb 94 d4 aa bd
       -0.14485525 -0.12507612 -0.0052552735 -0.08341327
0001a0 2a 75 3a 3e fc d3 96 be f5 44 00 3e 7e 32 ee bc
       0.18208757 -0.29458606 0.12526305 -0.02907681
0001b0 4e 59 d5 3e 44 54 93 3c d7 a9 e1 3d 90 69 80 bd
       0.41669697 0.017984517 0.110187225 -0.062701344
0001c0 73 08 d9 3d 99 dd 91 bc ea 84 a5 3d 1a d2 b3 bd
       0.10597315 -0.017805861 0.08081992 -0.08780308
0001d0 11 7f 04 be 65 aa 91 bd 99 14 0f bc 20 bf ce bd
       -0.12939097 -0.07112578 -0.008732938 -0.10095048
0001e0 be 81 5b 3c 19 d0 5b bc 8a 69 a4 3b 3d b2 a8 bd
       0.013397632 -0.013416314 0.005017464 -0.08237121
0001f0 62 33 d2 3d aa 18 b9 3d 76 77 a3 38 74 68 b5 3b
       0.10263707 0.090379074 7.794697e-05 0.0055361334
000200 77 fd 2f 3d f0 cf 22 3e bb 90 94 bc ee d7 32 bd
       0.042966332 0.15899634 -0.01813542 -0.043662958
000210 85 7c 03 be 97 b6 4a bd 62 c0 f5 3d 06 a0 98 bc
       -0.12840469 -0.049490537 0.11999585 -0.018630993
000220 8c a0 48 bb 38 37 88 bc 64 94 b8 bd 9b 6e 8d 3c
       -0.0030613272 -0.016627893 -0.09012678 0.017264655
000230 d5 e0 4d 3c d5 4a 5f be a2 45 ac be 00 ba 33 be
       0.012565811 -0.2180589 -0.33646876 -0.17551422
000240 ab 17 27 3e be ce 3b bc 23 5d 82 bb 8a 48 ec 3d
       0.16317622 -0.011462865 -0.003978388 0.11537273
000250 00 ec 62 be e8 04 a7 bd 66 31 fd 3c 9b bd 48 bd
       -0.2216034 -0.08155233 0.030907344 -0.049008947
000260 fb 94 49 bd ce db 91 3d 00 ee ac ba 76 cf 6e be
       -0.049214344 0.071220025 -0.0013193488 -0.23321328
000270 f3 16 92 bd 6f 5e ca bd 69 8e 87 3d 1a 68 8a bd
       -0.071332835 -0.09881293 0.066189595 -0.06758137
000280 91 89 07 3c 50 81 da be 93 77 ec 3b 1b 0b 91 be
       0.0082725445 -0.42676783 0.007216403 -0.28328785
000290 70 d4 25 bd 9e e0 d7 bd 1c f5 12 bf 92 ec a3 3c
       -0.0404858 -0.10540889 -0.5740526 0.020010266
0002a0 81 89 a1 bc 3e b8 b2 bd aa 03 9a 3c 77 85 a7 3d
       -0.019718887 -0.08726548 0.018800575 0.08179753
0002b0 d7 f5 8e be 56 8a e6 3e 8c 2d 32 bd 48 d9 fd bc
       -0.27921936 0.45027417 -0.043500468 -0.030987397
0002c0 3b 29 bb 3e 43 30 04 3e 24 58 b2 bd 21 5e 84 3d
       0.36554894 0.12909035 -0.08708218 0.06463266
0002d0 3c 51 8d 3e 8f 15 b2 bd 62 f7 93 3d 64 7b a7 3c
       0.2760104 -0.08695518 0.07224919 0.02044458
0002e0 c7 e6 0a 3f ad ba dd bc 23 73 ce 3d f1 6f b2 3c
       0.5425839 -0.027066553 0.10080554 0.021781893
0002f0 84 bc 57 bd 88 31 25 bc 41 ec 0b 3e 91 01 72 be
       -0.052670017 -0.01008261 0.13664342 -0.2363341
000300 37 62 74 bd 34 52 62 be b9 59 dc be af d1 c2 3b
       -0.059663977 -0.2210167 -0.43037203 0.0059454064
000310 c4 74 2b be fd c8 f1 bc cb e4 53 bd ae a1 0d 3e
       -0.16743761 -0.029514784 -0.051731866 0.13831207
000320 2c 65 21 3d a4 9b 9f bd 62 4a 06 be 34 a2 96 3e
       0.039403126 -0.07793358 -0.13114312 0.29420626
000330 7a 41 11 bd 54 44 34 bd b7 84 70 bd 14 37 2d 3e
       -0.035462834 -0.044010475 -0.058720317 0.16915542
000340 66 51 2f bc fa f7 0d bf e1 3c 7f 3d 78 4d c9 3d
       -0.010700559 -0.5545651 0.062313918 0.09829229
000350 3d 3c bf bd a3 cf 85 3d 3e d1 f2 3d 03 0b 94 3d
       -0.093376614 0.06533744 0.11856316 0.07228663
000360 54 9c 49 3d 9f 63 1e 3e 58 8c af 3e fb 25 ef bd
       0.04922135 0.1546769 0.3428676 -0.11677166
000370 39 98 8a 3c 20 a9 6a bc 59 9f 53 be b3 ce 2d bc
       0.016918289 -0.014322549 -0.20666255 -0.010608363
000380 12 d3 b0 be 26 c1 8e 3c 15 58 59 be 07 13 db bc
       -0.34536034 0.017426085 -0.21225007 -0.026742471
000390 a0 9c a1 3b b6 f4 0f 3c a2 33 74 3b 50 6d 36 bd
       0.0049320012 0.008786371 0.003726222 -0.044537842
0003a0 17 5e 72 3e ae 90 7e 3c 82 78 30 be 69 3c 09 3e
       0.23668705 0.015537424 -0.1723347 0.13401951
0003b0 a2 c0 44 bd c9 3b 20 be 35 f4 01 3b 27 82 a5 3d
       -0.04803527 -0.15647806 0.0019829397 0.08081465
0003c0 7f ee 9e be 91 34 ba be e2 89 32 bc 3d 68 bb 3d
       -0.31041333 -0.3636823 -0.010897132 0.09150741
0003d0 bd 6e a4 3c 8f 74 86 bc 97 34 06 3e 9d bf b5 bd
       0.020072335 -0.016413001 0.13105999 -0.08874438
0003e0 21 e5 db 3c 4b e8 6c be 8a d7 9f 3c 3c ce fd be
       0.026842656 -0.23135488 0.019511957 -0.49571407
0003f0 27 0c db be c2 8b b3 3c d9 71 2e bf df f9 25 be
       -0.4278271 0.021917228 -0.6814247 -0.162086

action_model._discrete_distribution.branches.2.bias f4 [2]
000000 be 16 bb 3d d1 16 bb bd
       0.09135197 -0.09135211
