Assets/Onx/MoveAgent2D-13800031.onnx (onnx, 102003 bytes, 9 tensors)

discrete_act_size_vector f4 [1, 2]
00000000: 0000 4040 0000 0040
3.0 2.0

network_body._body_endoder.seq_layers.0.weight f4 [128, 50]
00000000: 1628 dcbe f0e0 b0bc ba67 92be d101 5e3e
00000010: 2fdf 393d 5e9c 76be 1b34 dd3e 02b6 6ebe
00000020: fd3f 7abe ab30 4c3f 6db6 dfbe 53cf 33bf
00000030: fe5b 95be 257f 9fbe 8fbc d0be 56fc 603d
00000040: 8f9a dabd 243e 69be 52c0 4fbf 149b 0a3d
00000050: cc95 843d b55a d3be a109 e73c 9554 98bd
00000060: f83c ad3e 98ab 78be c0d0 dbbe b176 c9be
00000070: c652 c4be ac09 6cbe c5c2 85be 1676 82be
00000080: 2550 85bd 16be c2bd 09b0 b4be 8e16 abbe
00000090: 26a7 763f b48c 0fbe bc28 d5be 9003 8a3e
000000a0: 8fc5 b7be dda9 a4be 8124 e63e 7baf 5cbd
000000b0: 93dc fbbd 74b4 13be a220 45be ad27 b5bd
000000c0: 5dbd a53c 1c80 0a3e e5f4 b93e b257 77bd
000000d0: f430 cebd 6d71 0c3e f538 86be d4d9 21be
000000e0: d80a 3dbc 3d60 91bc 6e06 81bd 62de f93c
000000f0: 997c 2f3e a088 d3bd 0b1f 183f a2b7 b6be
00000100: 94b7 0fbe 9176 f9be 03ec 8a3d 6dc1 f83d
00000110: 9153 c13e 42b4 8fbe 0b89 993c a6bd 33bf
00000120: 2494 c93d 822a a43e 34b4 2cbe b1b4 b8bd
00000130: cf1d df3d 3362 17bf 41ae e23d 0003 7d3e
00000140: 1773 61be ede8 8d3c 32d4 d5bd 9102 30be
00000150: a6ed 933d 041d 253d 4a0f 89be dd89 ad3e
00000160: 5321 b13e ad4d a93e c9a4 47be 850f d6be
00000170: c6f4 343e e3c5 5dbe 9d9a a33b 7695 cdbd
00000180: beb5 aebd 3921 e53d b1b9 8bbe ea57 c33d
00000190: a8c5 31be dd57 9cbe a63c 3bbe cd98 1fbe
000001a0: 5143 b8bd 8d8b 5abe 5297 ed3e f879 a8be
000001b0: c6bc 95be f638 0a3d 0760 1fbe 23cc e0bd
000001c0: f3ce 863e c46a 38be 2a66 6abe bf38 86be
000001d0: 4584 8fbd ced3 95bd 0bf2 62bc a435 75be
000001e0: a40c 8bbe 1e57 9fbe 3ce1 73bd 917a a8bd
000001f0: c223 453f 2dfb 2dbe 0ec5 83be 7bae a9be
00000200: e471 60be cabd fb3c 0bf0 413f b1a9 36bf
00000210: bbd7 96be 7b23 6c3e e820 1cbe 5a05 c1be
00000220: 0d8a 2fbe 722b 933c 0c6a a8be f15a 9dbe
00000230: 40c8 47bc e09c 73be 93f2 bb3d a495 543e
00000240: a76f 5cbd 9da4 943d 3c60 9bbf 811e 67bd
00000250: 6c71 16be 1d12 6d3d 974a a9be cfcc 36be
00000260: e054 353e a2a6 22bd a2ef e63d 8874 91bd
00000270: 6340 2fbf 09de 8f3d 61ec f33d 4bca 4abf
00000280: 48b2 f53c 1373 593e cee3 31bf 7333 7ebe
00000290: 7e15 d8bd 69c4 c9be 2391 63be 9a6d 70be
000002a0: feb8 c53e 907e 7fbe 1c02 20be 23b2 063f
000002b0: 629a f5be 0a2a 98be 8a86 6cbe ea39 2cbe
000002c0: 43c6 3ebe ff91 923f 5358 eabe d311 fabe
000002d0: e08e 7cbe 10f2 36be cb6f c1be 18a7 c8be
000002e0: 9a73 a4bd f6d0 aa3e c5a6 a3bf 003c a0bd
000002f0: 7ffc 823e 25fa 01bf d3cc 19be 77a7 5b3d
00000300: c95d 25be fb48 973c ec7c 29bd 9f60 42bd
00000310: 3572 2d3f e027 2e3e c0dd 1e3e ab33 ff3d
00000320: f710 103f 4254 debd 6b22 32be abf1 0d3e
00000330: 7d23 103d 8122 4e3d c85e 133d 165f 9ebc
00000340: 4789 953e 7c51 823e af3b e53d 1736 fe3d
00000350: 2135 813d 9673 b53d df31 32be 73c5 bfbd
00000360: 5532 ac3d b30b 183e 4397 6d3e 8d74 0a3e
00000370: 9827 0abe 9ec4 d43e cc68 5c3e 6ac6 1bbe
00000380: acaf a53e 1be1 4abd c645 7e3c 3cc7 7f3e
00000390: 4543 f73c d7b4 3fbe 7990 5f3e 476d 903b
000003a0: 1dab df3c 0e0a 2c3f 2958 0dbf e582 b2be
000003b0: 73cd 973e 2537 943d 1e3c 163e eee1 3c3f
000003c0: 071a 87be 2156 6cbe 9497 863c 5bec 4dbe
000003d0: df8c 5a3e aebb a13e 7142 bd3d 28ba 9d3d
000003e0: ef0d b4be cf88 78be d342 a3bd cd25 57bd
000003f0: 5454 68be e372 a4be 527c 3abd 38e5 023f
-0.42999333 -0.021591634 -0.28594762 0.2168038 0.04537886 -0.24083087 0.43203816 -0.23311618
-0.24438472 0.7976176 -0.43693867 -0.70238227 -0.29171747 -0.3115169 -0.4076886 0.054928146
-0.10674011 -0.22777611 -0.8115283 0.0338393 0.06473884 -0.4128014 0.028202834 -0.07438008
0.33835578 -0.24284208 -0.429327 -0.39348367 -0.383444 -0.23050565 -0.2612516 -0.25480717
-0.06509427 -0.09508912 -0.35290554 -0.33415645 0.963488 -0.14018518 -0.4163264 0.26955843
-0.35892913 -0.32160845 0.44949725 -0.05387829 -0.122979306 -0.14424306 -0.1925073 -0.08845458
0.020231897 0.13525432 0.36319652 -0.060386367 -0.10067931 0.13715144 -0.2621533 -0.15805751
-0.01153823 -0.017746085 -0.063000545 0.030501548 0.17137374 -0.103287935 0.5942237 -0.35686976
-0.14034873 -0.4872327 0.06783297 0.12146268 0.3775907 -0.28067213 0.018742105 -0.70211256
0.09842709 0.3206368 -0.16865617 -0.09018839 0.108943574 -0.59134215 0.110683925 0.24708176
-0.2201656 0.017322982 -0.10440864 -0.17188479 0.07223062 0.040310875 -0.26769477 0.33894244
0.34595737 0.33067074 -0.19496454 -0.41808715 0.17671499 -0.21657519 0.0049927966 -0.10038273
-0.08530758 0.11187977 -0.2729011 0.09538253 -0.17360556 -0.30535784 -0.18284854 -0.15585633
-0.089972146 -0.21342297 0.4640451 -0.32905555 -0.29245585 0.03374573 -0.15563975 -0.10976436
0.26329765 -0.18009478 -0.22890535 -0.2621517 -0.0700765 -0.07315789 -0.013851653 -0.23946244
-0.27158082 -0.31121153 -0.059540972 -0.08226503 0.7700769 -0.16990347 -0.25736278 -0.3314093
-0.21918446 0.030730147 0.757569 -0.7135268 -0.29461464 0.2306041 -0.15246928 -0.37699395
-0.17142506 0.017965052 -0.32893407 -0.30733445 -0.012193739 -0.23790312 0.09177127 0.20760208
-0.053817417 0.0725796 -1.2138743 -0.056425575 -0.14691705 0.057878602 -0.3306472 -0.17851566
0.17708158 -0.039709695 0.11276175 -0.07102305 -0.6845762 0.07024772 0.1191032 -0.79214925
0.029992238 0.21235304 -0.6948823 -0.24824314 -0.10550974 -0.39407662 -0.22223334 -0.2347931
0.386177 -0.24950624 -0.15625805 0.52615565 -0.47969347 -0.29719573 -0.23098198 -0.16818967
-0.18630318 1.1450804 -0.4577051 -0.48841724 -0.24663877 -0.17865777 -0.37780604 -0.39189982
-0.08029862 0.3336255 -1.2785269 -0.07823944 0.25583264 -0.50772315 -0.1501954 0.053626504
-0.16149057 0.018467417 -0.0413789 -0.047455426 0.6775239 0.17007399 0.15514278 0.12461027
0.56275886 -0.10855915 -0.17395942 0.1386172 0.035190094 0.050325874 0.035979062 -0.01933245
0.29206297 0.25452793 0.11193024 0.124126606 0.06308962 0.08859937 -0.17401837 -0.09363832
0.084080376 0.14848213 0.23202233 0.13521023 -0.13491666 0.41556257 0.21524352 -0.15212408
0.3236059 -0.049531084 0.015519565 0.24978346 0.030183444 -0.18721329 0.21832456 0.004407558
0.027303273 0.6720284 -0.55212647 -0.3486549 0.29648933 0.072370805 0.1467137 0.7378224
-0.26387045 -0.2307973 0.0164297 -0.20109694 0.213428 0.315885 0.09241188 0.07701522
-0.3516688 -0.24270938 -0.0797173 -0.052526284 -0.22688419 -0.32118902 -0.045528717 0.5113101

network_body._body_endoder.seq_layers.0.bias f4 [128]
00000000: 6bb2 55be eaea 24bd bfa2 2dbe ae05 33be
00000010: 6903 74ba 7175 c1bd eabf 1dbe dce0 4fbe
00000020: 32b0 d0bd 608f 633c 06e0 30bd b61e 15be
00000030: c95a e73c c04d 42be bed3 15bc ddd0 17bc
00000040: 4797 3abe 8d8e f5bd 027b 41bd 5410 e4bd
00000050: a99d 32be a4ca 07be d82b 44be 319b 03bc
00000060: 9797 1bbe 13b6 c4bd 86af 77be ffb0 54be
00000070: 4b53 0dbe 9e21 24be e453 39be d741 8bbe
00000080: 6b94 20be 659d febd 25e8 8b3c a5e6 2cbe
00000090: fd26 22be d02b 3abe 4c6a 603d d7c5 213d
000000a0: 7cf9 823d 1bb0 aebd 1f4c 943d d1b0 be3c
000000b0: 1ee6 c93b 1a1b 97bd b66b 1ebd 5a1f 56be
000000c0: 55ea e6bd 6c28 dcbc 79a1 023d 3658 dbbd
000000d0: efcf ff3c b4ea 08be 7af4 e1bd 99bf 20bd
000000e0: 826d 3c3d 7580 41be 09ed cfbd c309 35be
000000f0: 0713 46be 6c8a 3e3d 00f8 e3bd aa90 2a3d
00000100: d1a3 af3c daf2 45be c228 ccbd 8512 2cbe
00000110: e7a9 32be 850e 3ebe 994d 763c 56ce 35be
00000120: c03f c6bc 995a 72be 1cd9 17bd acdf 5fbd
00000130: d503 8cbd 7e85 5bbe 691e 09be 8434 f53c
00000140: fed0 06be 068c 6dbd 04ce 00bc c702 423c
00000150: 43d1 53bc dfb1 dcbd 8d5f 0bbe af3b a0bd
00000160: c3c9 04be ad62 1d3d 5de9 8cbe 0a11 0e3d
00000170: e4ba f6bd 0070 13be 833e 79be a4a4 10be
00000180: c44f 01be 51a9 c8bd d37a 72bd 37db febd
00000190: 4466 edbd 9f05 18bd 981e f0bd ba1e 97bd
000001a0: 3139 d2bd 6cfd 6cbd c22f 1a3d 5836 41be
000001b0: 7100 44be 8a58 6ebe 0746 76bd a27a abbd
000001c0: 4216 e0bb e1c4 15be da42 96bd 7c74 50bc
000001d0: a1b8 40bd 5edf 843d 4431 b0bd 0d0e 90be
000001e0: 9703 d5bc 2456 2a3c 2889 22be e5ad c8bd
000001f0: 7421 22be ccfe febd b876 8dbe 1c5d dcbd
-0.20868842 -0.040263094 -0.16956614 -0.17482635 -0.00093083695 -0.09446228 -0.1540524 -0.20300621
-0.101898566 0.013889164 -0.043182395 -0.14562497 0.028241532 -0.18974972 -0.009144722 -0.0092661055
-0.1822177 -0.1199008 -0.04723645 -0.11135927 -0.17442955 -0.13260895 -0.1915735 -0.008032606
-0.15194546 -0.096050404 -0.2418805 -0.20770644 -0.13801305 -0.16028449 -0.18098408 -0.2719867
-0.15681617 -0.124323644 0.017078469 -0.16884859 -0.15835185 -0.18180776 0.054788873 0.039495315
0.063952416 -0.08529683 0.072410814 0.023277672 0.0061614653 -0.07378216 -0.03867694 -0.20910397
-0.11275164 -0.026874743 0.031892274 -0.10710184 0.03122708 -0.13370782 -0.11032958 -0.03924522
0.046002872 -0.18896659 -0.10152633 -0.17679505 -0.19343196 0.046518728 -0.111312866 0.04164187
0.021440418 -0.19330922 -0.099687114 -0.1680394 -0.17447625 -0.18560226 0.015033149 -0.17754492
-0.02420032 -0.23667373 -0.037072286 -0.05465667 -0.068366684 -0.21437642 -0.13390507 0.029932268
-0.13165662 -0.057994865 -0.007861618 0.0118414825 -0.01292831 -0.10776114 -0.13610668 -0.07823884
-0.12967591 0.038424183 -0.27521792 0.03468422 -0.12047365 -0.14398193 -0.24340253 -0.14125305
-0.12628084 -0.097979195 -0.059199166 -0.12444156 -0.11591771 -0.037114736 -0.11724585 -0.073789075
-0.10264815 -0.05785887 0.0376432 -0.18868387 -0.19140793 -0.23275962 -0.060125377 -0.08373
-0.006838591 -0.14625885 -0.0733697 -0.012723085 -0.047051076 0.064879164 -0.08603147 -0.2813572
-0.026002688 0.010396514 -0.15872633 -0.09798793 -0.15833074 -0.124509424 -0.27629638 -0.10759947

network_body._body_endoder.seq_layers.2.weight f4 [128, 128]
00000000: b9d6 bdbd b603 79be e181 6f3e aab4 1ebe
00000010: bbb2 1fbe 3e3a 8abe 9926 ab3e 7bb9 1fbe
00000020: 8112 3f3d e1ce 01be d338 5a3e 358f 5dbe
00000030: 363c fa3c c9b9 cfbc 0a81 b8bd bdd0 aabe
00000040: 396c 8d3d 84c7 51be 2591 80bd 7dcc cebd
00000050: abca acbe c9f4 04be 2237 eabc bdd7 c4be
00000060: d480 813d 0f6b b2be a49b 16bd cf38 4a3e
00000070: 714d bbbd be92 e3be d6c3 ccbd f2af 733d
00000080: 84d7 85bd 8d92 8abd ca72 f43c fc96 ad3c
00000090: 64ff e93d c066 923e 43df bcbe 22e6 5cbe
000000a0: 33fe 79be 2ab7 32be a6a9 9dbd b4a9 babc
000000b0: 4c82 f1be 7265 7b3d 55b5 5a3d 403d 29bd
000000c0: 3c5b 61be 8a35 d9be 1bd5 05be 8aed b1be
000000d0: 585c 0bbe b33b c8bc c7c6 b33e aa73 7ebe
000000e0: b4bc 0a3e f878 333e 7a29 3dbe f590 c13b
000000f0: 7ec7 1f3e a980 46be dff3 1b3d 44c8 0bbe
00000100: e22b 88bd fa0e a83e 6790 193d d150 3bbe
00000110: 7a02 973e 6fbb 8f3d ecdc 67be f012 6fbe
00000120: c7c0 96be b264 e33d 1d7f 96bb 387e ea3d
00000130: 59d3 33be a994 c8be 22b2 f2bd ddb9 ecbd
00000140: 3e2b 0ebe 8346 183e 04dd debe b1ff 3ebe
00000150: b81c 47be 5bcb 7e3e 430e af3c f0a5 10bf
00000160: dd18 14be f544 13be 745a 69bd 60d2 bebe
00000170: 9be8 f8bd 5814 143e 5a97 343b 0658 33bd
00000180: 02a8 03bd d8c5 95bb e8c1 e6be f0ea 343e
00000190: 0e03 fa3d 6395 9cbe 9f79 86be 1eda 16be
000001a0: a68f 6ebe b30c f73d 570a 3e3e f974 00bd
000001b0: 0216 243e 9ea6 bc3c 30a4 3bbd ca95 34be
000001c0: 088e 5bbd 590e 5a3d d6ae a8be 0c84 b8be
000001d0: 41e9 4dbe 1f14 86be 2d01 0abe fb63 6c3c
000001e0: f553 433e ed1c ebbd 76cf cdbe 0339 083e
000001f0: 6cfb da3d 7265 1dbd 65ec 54be e57a 823d
00000200: b088 f53d d07d 84bd ea71 b1bd 04a9 ecbc
00000210: e438 c23d a3a2 e6bd 52d6 b73b 9cd8 21be
00000220: 0faa 9dbe 1c44 70bd 6ac9 46be 3e46 bcbe
00000230: 40c6 51be 116b 813e 0580 2cbe aa7b c93d
00000240: 733e 8c3d f264 54be 9dbd ff3d 3769 ddbd
00000250: d47d 6ebe c165 dabe 7ad9 5dbd 98fb 02bc
00000260: ad03 17be ab3f 813e bcf3 51ba a434 aebe
00000270: 396f b13d 5f85 73be 3f8a 8e3e c4df 303e
00000280: de9b 1e3e 75d4 27be 4fa3 9abc 598e 01bd
00000290: 637c 22be 7ea4 ebbc 9f33 b5bd a391 4fbe
000002a0: 49ad 273b 6bcf b3bd 2670 763d eb12 513e
000002b0: d519 7f3d 295c 383e bc79 8fbd 9efc eb3d
000002c0: f6eb ac3e c577 093e 252d b5be 4d85 7c3c
000002d0: 295d 83be 38e4 513d 9938 96be f9f4 b5bd
000002e0: f709 2bbe 9058 cabd 5f82 bd3d 86c2 26bd
000002f0: 9b2c 9dbd 26a5 b1bb 1409 a8bd a92f 9ebd
00000300: eb80 1fbe 7628 d53d 3c18 02be 8848 aa3d
00000310: 38c2 473e 444a 95be 40ba 96bb 4501 fcbe
00000320: e519 db3c 579a 843e 142d 86be 18e5 b8be
00000330: ff17 86bb 3d97 823e f367 a5be 7a8c c0bd
00000340: 6878 48bc 10a0 253e 8414 bebe 1bf2 83be
00000350: e02e 5abd 7c48 193d 5d3a a8be 8595 1bbe
00000360: 5c57 d13c 3234 8fbe b4ab 82be a5a9 96be
00000370: 2ea6 df3c 2d2a db3c ac26 12be 5f92 b5be
00000380: 7b56 0dbc 0513 afbe 073c 9a3e efdf eabd
00000390: 47ea 2ebe c84f 02be 812e c7bc 3c7a c93d
000003a0: f468 d53d fdf0 d5bc 25c3 1ebf fb12 8dba
000003b0: 7072 cf3d bc71 c5bd c79d 90bd b219 5ebe
000003c0: 3860 b2bd de33 cc3a d79c 63be d752 c0bd
000003d0: 7c5c eabb 9f60 8dbd cc58 263e f517 74be
000003e0: 52fa 873d 387a 503e b811 d83d 2f70 053e
000003f0: 1ba7 7d3d 2139 c53d 74e3 c1bd c65f 84bd
-0.09269471 -0.24317822 0.23389389 -0.15498605 -0.15595524 -0.2699756 0.33427885 -0.15598099
0.046648506 -0.12676574 0.21310739 -0.2163666 0.030546289 -0.025357144 -0.09008987 -0.3336238
0.069054075 -0.20486265 -0.06277684 -0.10097597 -0.33748373 -0.12984003 -0.028590742 -0.38445845
0.063234 -0.34847304 -0.036769524 0.19748233 -0.0914563 -0.44447893 -0.0999829 0.059493966
-0.06535247 -0.067662336 0.029839892 0.021190159 0.11425665 0.28594017 -0.36889085 -0.21572164
-0.24413376 -0.17452684 -0.076983735 -0.022785999 -0.4716972 0.061376043 0.053395588 -0.04131818
-0.2200746 -0.4242366 -0.13069575 -0.3475154 -0.13609445 -0.02444253 0.35112593 -0.2484881
0.13548547 0.17526615 -0.18472853 0.005907173 0.15603444 -0.19385017 0.03807437 -0.13650614
-0.06648995 0.32823926 0.03749123 -0.18292548 0.29494077 0.07018172 -0.22642869 -0.23347068
-0.29443952 0.111031905 -0.00459279 0.114498556 -0.17561091 -0.3917592 -0.118503824 -0.11558888
-0.13883683 0.14870648 -0.43527997 -0.18652226 -0.19444549 0.24882261 0.021369105 -0.565032
-0.1446261 -0.14381774 -0.05697103 -0.37269878 -0.12153741 0.14460886 0.0027556033 -0.043785118
-0.032142647 -0.004570704 -0.45069814 0.17667747 0.12207614 -0.30582723 -0.26264665 -0.14731643
-0.23296985 0.12062969 0.18558632 -0.031361554 0.1602402 0.023028668 -0.04581088 -0.17635265
-0.05360225 0.05323634 -0.3294589 -0.36038244 -0.2010851 -0.26187226 -0.13477011 0.014428134
0.19074996 -0.114801265 -0.40197343 0.13302998 0.10692486 -0.038426824 -0.20793302 0.063710965
0.11988962 -0.06469309 -0.086643055 -0.028889187 0.09483507 -0.11261489 0.005610266 -0.15805286
-0.30793807 -0.058658704 -0.19412771 -0.3677234 -0.20485783 0.25276998 -0.1684571 0.0983804
0.06847849 -0.20741633 0.12487338 -0.10811084 -0.23290187 -0.42655757 -0.05416248 -0.007994555
-0.14747496 0.25243887 -0.00080090365 -0.34024537 0.08663792 -0.23781346 0.27839848 0.1727286
0.15489146 -0.1638964 -0.0188767 -0.031629894 -0.15867762 -0.02876496 -0.088477366 -0.202704
0.0025585464 -0.08779796 0.060165547 0.20417373 0.062280495 0.18003906 -0.07005641 0.11522792
0.33773774 0.13424595 -0.35386005 0.015412641 -0.25657013 0.051243037 -0.29340056 -0.088846155
-0.1670302 -0.09880173 0.09253382 -0.040712856 -0.076745234 -0.0054212986 -0.082048565 -0.07723934
-0.15576522 0.10408108 -0.12704557 0.083146155 0.19507682 -0.29158223 -0.0045998394 -0.4921972
0.026745746 0.25899002 -0.26206267 -0.36112285 -0.004092216 0.2550601 -0.3230587 -0.09401794
-0.012235738 0.1617434 -0.37125027 -0.2577065 -0.05326736 0.037422642 -0.32857028 -0.15193756
0.025554352 -0.2796951 -0.25521624 -0.29426304 0.02730092 0.02675351 -0.14272565 -0.35463235
-0.008626576 -0.34194198 0.30123922 -0.11468493 -0.17081557 -0.12725747 -0.024314167 0.098377675
0.10420409 -0.026115889 -0.62016517 -0.0010763103 0.10129249 -0.09640834 -0.07061344 -0.2168949
-0.087097585 0.0015579422 -0.22227798 -0.093908004 -0.0071521383 -0.06903195 0.16244811 -0.23837264
0.06639542 0.20359123 0.105502546 0.13031076 0.061926942 0.09630037 -0.09467211 -0.0646358

network_body._body_endoder.seq_layers.2.bias f4 [128]
00000000: f124 6bbe 1bc5 aabc 171d abbc 6280 78be
00000010: a593 05be 047e 5e3c fcce 0fbd 6522 21be
00000020: f428 84be 45b9 7f3c 889b 7bbe 5d09 4ebd
00000030: 3756 823d de18 f1bd 3d65 973d 4dcb dfbc
00000040: b5fd e83d d5f7 b6bb 4851 08be 4bed 37be
00000050: b578 29be 2463 35be 77c7 803d 9665 7ebd
00000060: 4c81 543b d87d 4d3d 9cd1 913e 0cf9 a5bd
00000070: 3c83 7d3d ce43 a2bd 55d6 15be dad6 76bd
00000080: 533e 0fbd 0bdf 4bbd d54a 6dbe b102 80be
00000090: 17fb 263e 8dea 913d 6c8f 69bd 8117 21be
000000a0: b28e aabd 2759 c0bb 1a44 0dbe b5be 42be
000000b0: edba d43d 228c 873b 6bd3 5abe c4ce 013c
000000c0: 0557 debd feb9 97be 481f 1fbe 7510 5abe
000000d0: f495 46bc df2f 6fbb 6678 563d af5c 08be
000000e0: 8864 243d 7656 8fbe 1900 94be 5550 30be
000000f0: 8d25 23bc 07d2 45be 401b edbd a069 11bd
00000100: 9973 ebbe e418 59be 4b6f 8abc 0acc 043e
00000110: 59fa 8cbe c5eb 3bbe 5bb7 79be 0186 4cbd
00000120: 0505 abbd 23ee 6abd 2adc b0be 9ea9 f63d
00000130: ef55 cf3c 48f3 dfbd 9d6b 08be 7bd1 bbbe
00000140: de4f a6bd d72d a6be e7af 3bbc 1527 25bd
00000150: 02d2 8d3d 9f71 bc3c 334d 3cbe 53c6 003e
00000160: d007 3f3e ed66 083c f9ef 67be 34ae ffbc
00000170: 8847 d0bc 92a8 86bd 2263 80bd 25af 43bd
00000180: 9b44 c8bd 2a66 cbbe ceeb 2abd 41b5 00bd
00000190: d6c7 20bd d08e efbd 431f 75be bf51 bb3b
000001a0: f25e fe3d 6f2e b7be 8e96 2bbe 6c36 0b3c
000001b0: 815b 27bd c7dd 0f3e 1e30 e6bd b2af 96be
000001c0: 8b23 d3bd 8f8e 7bbe 0a14 b3be d6d0 0dbe
000001d0: 1c2d d1bd 714f 12bb fcd4 8dbe 6523 413e
000001e0: 001d 80be c28b 24bb 0c01 35be 2142 28be
000001f0: 381b 89bc fd34 5dbe b652 8cbe cdfa acbd
-0.22963311 -0.02084594 -0.020887895 -0.24267724 -0.13044603 0.013579849 -0.035109505 -0.15735777
-0.25812495 0.015608137 -0.24571049 -0.0503019 0.063641004 -0.11772321 0.073923565 -0.027318621
0.11376516 -0.005583743 -0.13312256 -0.17961614 -0.16549952 -0.177136 0.06288045 -0.0621086
0.00324257 0.050168842 0.28480232 -0.081041425 0.061892733 -0.07923089 -0.14632542 -0.060263492
-0.034971546 -0.049773257 -0.23173077 -0.25002053 0.1630672 0.07124815 -0.057021543 -0.15731622
-0.08327998 -0.005870003 -0.1379551 -0.19018061 0.10387216 0.004136578 -0.21369712 0.007922832
-0.108564414 -0.29634088 -0.15539277 -0.2129534 -0.012120713 -0.003649704 0.052360915 -0.13316606
0.040134937 -0.27995652 -0.28906325 -0.17218144 -0.009957683 -0.193184 -0.11577463 -0.035501122
-0.45986632 -0.21200901 -0.016898772 0.1296846 -0.2753475 -0.18351658 -0.24386351 -0.049932484
-0.08350567 -0.05735601 -0.34542972 0.12044071 0.025309531 -0.10935074 -0.13322301 -0.36683258
-0.08120702 -0.32456848 -0.011455513 -0.040320475 0.069248214 0.023003398 -0.18388824 0.12575655
0.18655324 0.008325321 -0.22650136 -0.031210996 -0.025424734 -0.06575121 -0.06268908 -0.047774453
-0.097787105 -0.39726382 -0.041728787 -0.031422857 -0.03925308 -0.11697161 -0.23937707 0.005716532
0.12420453 -0.35777614 -0.16756651 0.008496862 -0.04085875 0.14049445 -0.112396464 -0.2943092
-0.10309514 -0.245661 -0.34976226 -0.13849196 -0.10213682 -0.0022325183 -0.27701557 0.18861158
-0.25022125 -0.0025107716 -0.1767618 -0.16431476 -0.016736612 -0.21602245 -0.27406853 -0.08446274

action_model._discrete_distribution.branches.0.weight f4 [3, 128]
00000000: 5988 0bbe 3330 ad3b 1240 013e 3dcf 00bd
00000010: fdbe ed3d de58 78be 48e0 2abe b942 2abd
00000020: d32c 6abd c3c8 a03e 66b1 45be 8c8a b03d
00000030: 6e92 dcbd b21f 30be 6857 58bd e8e2 223e
00000040: 129b b5be 9be6 a1be 63e5 82be 43e6 e5bd
00000050: f2e0 d4bc f3a6 e63a ba60 86be ec78 23be
00000060: c5d0 10bf f79f 813e 5e8c cd3d df67 8cbe
00000070: fc95 203e 89de dcbd 9d36 7cbe 3ffc 3e3d
00000080: a2c4 03bc 5c45 39be 9495 4d3d 530e a7bd
00000090: 2635 d8bd 09ac 973d 686e 703e ae4c 25bd
000000a0: 362b 4b3e aff4 e6bc 83c9 083c 1f75 ee3d
000000b0: 08dd 173e ef75 f3be ff7c c33d 9672 803d
000000c0: 9bba 253e 7f98 273c 2bc8 fe3d b306 29be
000000d0: dbec 253e 59bb 763e dd9f ac3e 77eb ea3d
000000e0: e163 af3d f4cc 323e b3d7 c8be 3d81 d63c
000000f0: 24f7 9bbe 1264 92bc acdf 24be 1059 253e
00000100: 3667 233e 57b9 9bbd 1e8f a8bd 96e1 10be
00000110: a474 57bd 9f5f 17be ca75 30bb f66c 853b
00000120: 54ae 663c 96de 9ebd 1d69 863d 5224 9bbd
00000130: c394 e13e 7d32 c73d 19b0 15bf a0ce b7bb
00000140: 74e1 03bf b3ac 49be 8723 3c3e ccb3 6fbe
00000150: 9032 1f3e 54dd db3d b5fe a53e b1f5 c43d
00000160: b799 07bd f4b6 923e 2712 f9bd 0bd7 37be
00000170: de8e 85bd 8e5d 953d d931 b83e cee4 c6bd
00000180: e9c5 6dbd 0c08 76bd dfba 6ebe 2fa1 293d
00000190: ab7a 903d f2eb f4bd 5a0b 913e fc57 bebe
000001a0: 18c7 ae3d fe82 0abc cc2f 013e 8737 393e
000001b0: cc9b 82bd 33f0 d13e e453 50bc 1109 433e
000001c0: 7acb be3d ad73 813e b935 b5bc 102f 4dbe
000001d0: 8864 2a3e d7fa 903e 9fa1 0a3e 5b81 ed3c
000001e0: 3d4c 093d 5992 4abd 002f e6bd 0741 3ebd
000001f0: b384 a1be 7148 0f3e 5e95 c03d 2b88 c0bc
00000200: 9702 a43d aeb9 653c 60a1 40be 0145 393d
00000210: e121 083d 61cc 09be d2c7 d33e eeb3 b0be
00000220: a50f 01be f775 1bbe aec6 6c3e de38 013e
00000230: 5993 003e 33c5 5fbe 0803 b33e a12f 83be
00000240: 6406 893d af6b 1ebe 318b be3d 1522 5e3d
00000250: a8a7 903d 6345 97be 5d0a 8e3d ddaa 6cbe
00000260: 3c12 d0bd 61f6 eb3d bbb2 dcbe a746 41bd
00000270: 75ab b13e 10ac 83be 6034 e23e df92 533e
00000280: 932b b63e 3fd9 d7bd 017d 2a3e 8583 4b3e
00000290: 0a51 0b3e 4676 4a3e 4927 52be 3193 793e
000002a0: fc61 f3be 8905 cebe 5d87 343e 1415 6b3e
000002b0: d236 cd3b b845 a33e 9c7c 15bc cacd ce3d
000002c0: a9cd 7abe 0ff1 b8bd 8916 2f3e 1e93 7f3e
000002d0: 990c d2be 3e68 483e cd36 a4be ee4b f6bd
000002e0: 2553 b6bd b45b f4bd 9998 c4be 5423 7ebe
000002f0: 31de c43d cf96 0c3f 0fe2 703e beec 8d3e
00000300: 2996 ab3d 7e4d 413d 2b7f e3bc 6d5b f83e
00000310: e327 803e 7f22 6e3e 6683 2a3e 7c75 ebbd
00000320: 1d54 733e d9bc 383e 08a5 51bd cffb 26be
00000330: 1ceb 31bd 4e44 5e3e 14ab 153f 50cb 503e
00000340: f591 33bb 716f 34bd d65f b0be c2c6 adbe
00000350: 7a07 1f3f 9c85 c13b 03e1 e1be 3e04 da3d
00000360: b570 ca3e 5dc4 01be ff6f 5b3e b6eb d13e
00000370: dba7 b53c da50 0d3e 54f8 eebd 503c 8b3d
00000380: 2321 00bf 310b 143e ff3d cf3e b22e 7e3d
00000390: a708 efbd 3a0f 813e 0c8c 723e 1f4c d23d
000003a0: f1ad 3f3e 71c3 023e d23e 003f 9db7 963e
000003b0: acc9 01be 7714 8dbd b4df 31be aba8 803d
000003c0: 02e7 463e 878c e6bd 4189 dc3c 2a6f eebd
000003d0: 88fd 7e3c 2f58 3f3e c227 5cbe da25 a83e
000003e0: 4675 d3bd 94e8 4c3e ddae b3be d91c 2f3e
000003f0: 57f3 dc3d 90d9 adbe 47c5 b63d 2cfc eebb
-0.13626231 0.005285287 0.12622097 -0.031447638 0.11608694 -0.2425265 -0.16687119 -0.041567538
-0.057171654 0.3140317 -0.19305953 0.08620176 -0.10770117 -0.17199591 -0.052817732 0.1590687
-0.35469872 -0.3162125 -0.25565633 -0.112255596 -0.025986169 0.0017597362 -0.26245672 -0.15964097
-0.5656856 0.25317356 0.100365385 -0.27422997 0.15682214 -0.10784633 -0.24630208 0.04662728
-0.008042486 -0.18092865 0.050191477 -0.08157029 -0.10557012 0.0740586 0.23479617 -0.04035633
0.19840702 -0.028192846 0.008348825 0.11643433 0.1483041 -0.47550914 0.095453255 0.062718555
0.16184466 0.010229229 0.12440523 -0.16506462 0.16203634 0.24094905 0.33715716 0.114706926
0.08563972 0.17460996 -0.39227065 0.026184672 -0.3046199 -0.017869983 -0.16100949 0.16147256
0.1595734 -0.0760371 -0.082304224 -0.14148554 -0.05260147 -0.1478257 -0.0026925677 0.004071827
0.014079649 -0.07757299 0.065630175 -0.07575287 0.4405881 0.09726427 -0.5847183 -0.0056093484
-0.5151589 -0.19694786 0.18372928 -0.23408431 0.15546632 0.10735574 0.3242089 0.096171744
-0.03310558 0.28655207 -0.121616654 -0.17953126 -0.065213904 0.07293235 0.3597553 -0.0971161
-0.05805007 -0.060066268 -0.23313473 0.041413482 0.07054647 -0.119590655 0.28328973 -0.37176502
0.08534068 -0.0084540825 0.1261589 0.18087588 -0.06377372 0.4100357 -0.012715314 0.19046427
0.09316154 0.25283566 -0.022120344 -0.20037484 0.16639912 0.28316376 0.13538216 0.028992346
0.033519972 -0.049455974 -0.11239433 -0.046448734 -0.31546554 0.13992478 0.094034895 -0.02350243
0.080083065 0.01402132 -0.1881156 0.045231823 0.033235434 -0.1345687 0.41363388 -0.34512275
-0.12603624 -0.15181719 0.23122665 0.1261935 0.12556209 -0.2185257 0.3496325 -0.25622275
0.06690672 -0.15470766 0.093038924 0.054231722 0.07063228 -0.29545125 0.069355704 -0.23112054
-0.10159728 0.115216024 -0.4310511 -0.04718652 0.34701124 -0.2571721 0.44180584 0.20661496
0.3558012 -0.10539483 0.16649248 0.1987439 0.13605133 0.1977168 -0.20522799 0.24372555
-0.47535694 -0.40238598 0.17629762 0.2295726 0.0062626386 0.3188913 -0.0091239475 0.10097845
-0.24492516 -0.09030353 0.1709844 0.24958465 -0.41025236 0.19571015 -0.3207306 -0.12026201
-0.08902577 -0.119315535 -0.38397673 -0.24818164 0.09612692 0.54917616 0.23523735 0.27719682
0.0837825 0.047193043 -0.0277706 0.48507252 0.2503043 0.23255347 0.16651687 -0.11497018
0.23762555 0.1804079 -0.051182777 -0.16306995 -0.04343711 0.21705744 0.5846417 0.20390058
-0.002740023 -0.04405159 -0.34448117 -0.33940703 0.62120783 0.00590582 -0.44116983 0.106453404
0.39539114 -0.12672563 0.21429442 0.41000146 0.022174766 0.13800374 -0.116684586 0.06798613
-0.5005056 0.14457394 0.40476987 0.06205625 -0.11671572 0.2520693 0.23686236 0.10268425
0.18718697 0.12769867 0.50095856 0.2943696 -0.12674588 -0.06888669 -0.17370492 0.06282171
0.1942406 -0.11257272 0.026920917 -0.116422966 0.015563376 0.18685983 -0.21499541 0.32841378
-0.103251025 0.20010597 -0.35094348 0.17100848 0.10788601 -0.3395505 0.089243464 -0.007293245

action_model._discrete_distribution.branches.0.bias f4 [3]
00000000: c6cf 323d 5a2e 10be 1171 883d
0.04365518 -0.14080182 0.06662191

action_model._discrete_distribution.branches.1.weight f4 [2, 128]
00000000: a5b5 c9bd 1712 4cbe 1af9 64be bd5c 58be
00000010: e748 9ebd de63 7d3e 5515 553c 90f7 77bc
00000020: 96ff 44be 7821 d23d 763a 9a3d d555 5bbe
00000030: 2770 b93e cb32 613e b443 b4be adea 033e
00000040: 7686 f1bd aaff c1bc 6b44 b0be 3046 85be
00000050: a63a 4f3e 0591 bebd 4d3e c43d 49bd 083e
00000060: 3ddf 65be 3e92 803e 9fcf 8bbd 31b4 c7bd
00000070: 9be0 ba3d 161a c7bb 26c7 d03d 6c2f 0fbe
00000080: 3c32 72be 6d46 f13c 0551 963d 168c 833d
00000090: 56bb e63e e505 663e 0493 95be 0286 99bd
000000a0: e64f efbd 0d90 273e d274 363d e1fd 23be
000000b0: 21b9 903d a537 603d 5171 f2bd 0d75 673e
000000c0: 3070 9a3d 245c 453c 005e 83be fe3f 6f3b
000000d0: e484 543d a5a3 eabe 6383 203e 758a 23be
000000e0: 858f 83be c29f 993e d1a4 3d3e 4fb8 233d
000000f0: a685 c93e 1cd3 2e3e f558 0a3d 333f 093f
00000100: caa2 373e 425e 91be b6a2 5c3e e821 063d
00000110: e86f 523e c133 8dbe 244a 3bbe 32bc 823e
00000120: d1b2 ab3e 873c 79bc b78c 65bc 6a96 553e
00000130: d2dc 29be 4059 96be 2568 1b3c 6fe1 e6be
00000140: fc17 20bd c04c 833d be64 c63b bc7a 64bc
00000150: 1254 c9be 2728 55be 9ab3 f13c cff9 e13d
00000160: 0dd1 e63c e97b a43c 8087 0abe 8d1f 153e
00000170: 417e 653e cb73 113f 8439 64bd 7cf4 26be
00000180: ec99 01be 1ed4 603e d6cc bc3d 1302 0bbf
00000190: 8d38 3ebe 6250 d8be b73a 4ebe 74a6 bdbe
000001a0: f4d6 debd 833e 9d3e 7754 33bc 23c6 0fbf
000001b0: ea86 b93e ab5d e2bd 6f5f cc3e 37fb 4d3e
000001c0: 98e3 bb3d aa7a dcbd 6c77 8a3e b7c6 debd
000001d0: 880b d0be 446b 28bd 5982 623d 0c40 723d
000001e0: a3ee 333e 24ca ccbe 5771 8d3e 5089 e73d
000001f0: bd4c 353e 620b a7bb fe05 893e b431 2bbe
00000200: fcba f53d 965a 343e 5cf3 6b3e 378c 503e
00000210: a6f8 a23d d199 80be afb9 afbc 5864 503d
00000220: 374b 4d3e 08e6 e7bd 66a2 97bd 97a2 573e
00000230: 505f a9be 0071 55be 43ce bf3e faf9 febd
00000240: 9eae e33d 9e98 a33c 2782 ad3e 280c 8e3e
00000250: ff83 55be 93c2 e03d 0a55 bdbd 705e 12be
00000260: 4840 633e 2797 85be 0053 a43d 0354 be3d
00000270: f699 b8bd ba18 483c 7d58 d4bd 8d76 0f3e
00000280: 00d4 623e d699 32bd 38c7 95bd ae77 4bbd
00000290: 35e3 e3be 4ebc 6ebe 07ab 8b3e b34f a63d
000002a0: ba5d e73d e1f3 24be 28cf f6bc 400a 143e
000002b0: a416 7ebd e2d7 8cbd 7ca9 0c3e 141b 63be
000002c0: 6a66 bdbd 2ea4 d2bb 81ab 853e 9ce8 753b
000002d0: 843f 8abd 0118 f43e 0465 1bbe 5441 253e
000002e0: 15d0 6f3e 4ba1 9dbe c751 4cbe 3a61 28bd
000002f0: bcf0 c0be 9350 43be 90a4 c8bc e509 07bf
00000300: e1f2 34be f3a2 923e b49d 59be b0c7 cdbb
00000310: 30fb 5abe d4c2 8b3e 4f9b 3f3e 6ad1 7dbe
00000320: 471a b2be 0455 9b3c 1d4e 713c 906d 3cbe
00000330: ded4 393e 4b2d 943e f51b 8abc 8965 d83e
00000340: c206 433d cc73 24bd 1163 8ebc d3ca 6d3c
00000350: 767a cc3e 3017 493e e431 bdbc 227d d2bd
00000360: 028c 9abc 9468 ab3b 99eb 073e 8ecd 09be
00000370: e093 57be d2d5 13bf e398 9d3d 9786 1f3e
00000380: 9442 1e3e c0dc 57be ed5c 69bd cd1d 0a3f
00000390: 737d 4a3e f5cd c73e 8d7f 4d3e 3529 cb3e
000003a0: d1e0 d83d 5f7e 9cbe 2fd3 9fbb 4f2f 103f
000003b0: f1c3 c0be a7c9 d93d 69f6 c2be dd3e 4bbe
000003c0: ee6d bebd 790c 023e 704a 82be 3939 d03d
000003d0: 1219 ca3e 6044 733d 4676 34bd f6e3 43bd
000003e0: a00c 3dbe 9b34 d23e 26f6 91be e884 f6bd
000003f0: 2397 2cbe 9a3d 003c 987e 8bbe 4981 3b3e
-0.09849099 -0.19928776 -0.2236065 -0.21129127 -0.07728749 0.24745128 0.013005574 -0.015134707
-0.19238123 0.1026029 0.07530682 -0.21419461 0.36218378 0.21992032 -0.35207903 0.1288249
-0.117932245 -0.02368148 -0.344272 -0.2603011 0.20237216 -0.09305004 0.095821954 0.13353457
-0.2244844 0.25111574 -0.0682671 -0.09751166 0.09124871 -0.0060761077 0.101942345 -0.13982934
-0.23651975 0.029452527 0.07339672 0.06423204 0.450648 0.22463186 -0.29213727 -0.07496263
-0.11685161 0.16363545 0.044545002 -0.16014816 0.070665605 0.054740567 -0.1183802 0.22603245
0.07540929 0.012045894 -0.25657654 0.0036506648 0.051884547 -0.45827976 0.1567512 -0.15970786
-0.25695434 0.30004698 0.18519904 0.039970692 0.39359778 0.1707272 0.033776242 0.5361206
0.17933193 -0.28392226 0.21546444 0.03274718 0.20550501 -0.27578548 -0.18290001 0.25534207
0.33534864 -0.015212185 -0.0140106 0.2085816 -0.16588143 -0.29364967 0.009485279 -0.45093867
-0.039085373 0.06411123 0.00605449 -0.013945278 -0.39321953 -0.20816098 0.029504586 0.11033975
0.028175855 0.020078616 -0.13528252 0.14562817 0.22411443 0.5681731 -0.055718914 -0.16304201
-0.12656373 0.21955916 0.09218757 -0.5430004 -0.1857626 -0.42248827 -0.20139585 -0.37041056
-0.10880843 0.30711755 -0.010945431 -0.5616171 0.36235744 -0.11053022 0.3991656 0.20115362
0.091742694 -0.10765584 0.27044237 -0.108777456 -0.40633798 -0.04111792 0.05530009 0.05914311
0.17571501 -0.3999797 0.27625534 0.11305487 0.17705055 -0.0050977925 0.26762384 -0.16718179
0.11998555 0.17612681 0.23042053 0.20365988 0.07957582 -0.25117353 -0.021450846 0.050876945
0.20048223 -0.11323172 -0.07404022 0.21058117 -0.3308053 -0.20843887 0.37462053 -0.12450023
0.1111729 0.019970234 0.3388836 0.2774365 -0.20851134 0.10974612 -0.092447355 -0.14293838
0.2219249 -0.26091883 0.080236435 0.09293368 -0.09013741 0.0122129265 -0.1036844 0.14010067
0.22151184 -0.04360374 -0.073133886 -0.049674682 -0.44509283 -0.2331402 0.2727892 0.0812067
0.11297174 -0.16108657 -0.030128077 0.14457035 -0.06203331 -0.06877114 0.13736528 -0.22178298
-0.092480496 -0.006428263 0.2610741 0.003752268 -0.06750396 0.47674564 -0.15175253 0.16138202
0.23419221 -0.3078712 -0.1995307 -0.041108347 -0.37683666 -0.19073705 -0.024492532 -0.5274947
-0.17670776 0.28639945 -0.21251565 -0.006279908 -0.21384883 0.2729708 0.1871159 -0.24786916
-0.34785673 0.018961437 0.014728096 -0.1840117 0.18147609 0.28940806 -0.016859034 0.42264965
0.047613867 -0.040149495 -0.017381223 0.014513689 0.3993718 0.19637752 -0.023095079 -0.102777734
-0.018865589 0.0052309725 0.13273467 -0.13457319 -0.21052504 -0.5774814 0.076951765 0.15578686
0.15455085 -0.21080303 -0.056973387 0.5395172 0.19774418 0.3902432 0.20068188 0.39679876
0.10589755 -0.30565163 -0.00487747 0.5632219 -0.3764949 0.10634165 -0.3807862 -0.19848199
-0.09298311 0.1270007 -0.25447416 0.10167164 0.39472252 0.05939138 -0.044058107 -0.047824822
-0.18461847 0.4105576 -0.2850811 -0.120370686 -0.16854529 0.007827187 -0.2724502 0.18311037

action_model._discrete_distribution.branches.1.bias f4 [2]
00000000: 464d 3e3a 6cf3 3dba
0.00072594394 -0.00072460505
