Assets/Onx/MoveAgent2D-100M_2DGround.onnx (onnx, 416259 bytes, 13 tensors)

discrete_act_size_vector f4 [1, 4]
00000000: 0000 4040 0000 0040 0000 0040 0000 0040
3.0 2.0 2.0 2.0

network_body._body_endoder.seq_layers.0.weight f4 [256, 128]
00000000: cd65 68be a811 9a3d e269 05be fdc3 1a3f
00000010: f341 353e c085 be3c 0b0b d8be 0375 1abf
00000020: 130c 01be 02b8 753d 4bf6 ccbd 5955 223e
00000030: f9a5 dabe 4ace 623e 37f9 4e3e 38e0 a43e
00000040: 7b75 47be 6b58 10bf 090b dd3e b023 a03d
00000050: c033 1bbd 15a0 92be 19d3 793d 35a8 a83d
00000060: 3d62 0b3c 2615 93be bc6f 3abe f3ed 163d
00000070: 0212 c5bc 4f9d bbbe 04e7 993d 69d2 043e
00000080: 62fe b63d 01b0 6e3e a61f d9bd 90cb 4bbd
00000090: dcb0 88bd 06ac 2f3a 6166 2fbe 0042 3a3d
000000a0: 8054 cc3d fe06 6a3f 8c10 22be ef47 a9bd
000000b0: 184d e83d 65e6 c3be d990 013e 314c 9dbd
000000c0: a4e2 403c 69d5 df3e 5bdb 1bbe ff40 43bb
000000d0: a514 aabc 1bfa db3e 45d1 d9be 6f70 6cbe
000000e0: d515 73bd 4881 a93e 3be7 28be e487 1dbd
000000f0: b933 eabd a102 eabd 237b e33c fb4c cb3c
00000100: 660c 293e 882b 16bd baf2 a53c ec94 893d
00000110: d4b9 263e 6fdc 2e3e 3b47 14be f992 3838
00000120: 4460 64bd 1494 fb3d fb73 f8bd eaf7 01bd
00000130: 6582 d1bc ca36 2c3f b364 56bd b455 43bd
00000140: d2cc 3b3c 58b3 e93d 22d7 433e 217a 53bd
00000150: 1792 5d3b 2715 723e f3b5 d03d 566b 8dbd
00000160: 14ab 9d3d 99b9 6b3d d74c 93be 01fb 01be
00000170: 229d f23d f95f d93d ab9c 69bd 1c11 c3bd
00000180: d34e ec3c 376e 093c acea d1bd 6fd4 1bbe
00000190: a954 27bd 77a8 053e 2766 46be c596 87be
000001a0: 874b b03d b85c 763e 1b53 60be 3a72 22bd
000001b0: 5c17 583d 9016 27be 234f 01be deda 8ebd
000001c0: 0007 d33c 57b7 253e dfc9 76bd 069a 21bd
000001d0: f2f7 2abd aa5d 233e 3b33 1fbe 1c08 51be
000001e0: c879 8dbd 691b 4d3e aa14 51be 82f7 3bbe
000001f0: dbe8 2e3d 0e35 1cbe 61a1 9b3c 27df 5fbd
00000200: 4860 e0bd 9fc8 0e3d 1b8d 2bbf 73e1 14be
00000210: b73e dcbc 29c1 ca3c e415 56be bb86 efbc
00000220: c493 8bbe 2517 71bd baec 19bd fcdf 283e
00000230: 303a a33e 4fb2 f83c 568d b5bd 245d 99bd
00000240: 0d69 7dbf d981 07bd 2800 93bf 0d70 d7bc
00000250: 6526 293e ba55 623f 2943 b0bd 6ada 96bd
00000260: 00b1 e3bd f540 fb3e 8192 2c3e 4565 16be
00000270: 0259 763d 6a3d b93e ab10 e63b 94f6 16bd
00000280: 0b4a ddbd ede2 003f 5646 8b3d 5fc9 3a3d
00000290: 9943 3b3b 2d36 933e 26d3 a83d 8289 6bbd
000002a0: 258d 02bd 599d 363f dd12 003e 9396 393d
000002b0: bcbf 5ebd 27a3 16be 30c4 eb3b ec48 963e
000002c0: e907 8cbc 8249 763e acdf c13d 691b a33d
000002d0: 8835 c1bb 937b c53e 5ad6 453e ac52 d13d
000002e0: 0f2c d7bc fcc8 853f 3047 7abe 9810 06be
000002f0: 568f 2fbe b4f9 943f 3165 e7bd 1a06 6ebe
00000300: 31a2 a23b 24ea 313f 09cf 8abd 7a85 7cbe
00000310: 995c 79bc c86b 6f3f 7483 62bc 19c4 6abe
00000320: 53c1 ebbb 6e6b 333f 3527 72be 259d 98be
00000330: 55ff 533d da71 883f 7b65 3dbe a9ce 36bc
00000340: 03e1 c03b c0eb 223f 23f6 2cbe e527 56be
00000350: 9ee3 1ebd 9551 2c3f e04d 81bb 3c5c 65bd
00000360: bd58 a0bd cc89 3c3f 2d97 6abe 43a3 a6be
00000370: f0a9 863d 82e8 83be 44ec 5b3e bcfc 103e
00000380: c375 933c bae9 99be 12f7 053e c8f8 433e
00000390: aa40 b13d 121b 7fbd 0649 cb3c 253e 073e
000003a0: 5f75 a83d cca4 ad3d d453 03bc 9148 dabd
000003b0: 79c6 893d d4e9 4e3d 198b d3bd 03d4 773e
000003c0: 2079 313d 8988 a63e ad65 e53d 8233 073d
000003d0: 2713 af3d 88f7 72be f73b c03d d7d8 c73d
000003e0: f84a 39be 6f7f 25be 818b bd3c c131 0e3e
000003f0: 269a 393d f2f2 c9be 3560 143e 430a 8e3e
-0.22695084 0.07522899 -0.13028672 0.60455304 0.17700939 0.023257136 -0.42195925 -0.60334796
-0.12602262 0.059989937 -0.10007914 0.1585287 -0.42704752 0.22149006 0.20212255 0.32202315
-0.19478409 -0.56384915 0.43172482 0.07819307 -0.03789115 -0.28637758 0.060992334 0.08235208
0.008507309 -0.28727072 -0.18206686 0.03684802 -0.024056438 -0.36643454 0.07514766 0.1297089
0.089352384 0.23309328 -0.106017396 -0.04975468 -0.06674358 0.00067013537 -0.17128898 0.0454731
0.099770546 0.9141692 -0.15826625 -0.08265673 0.113428295 -0.38261715 0.12652911 -0.07680548
0.011772785 0.43717507 -0.15220396 -0.002979338 -0.020761797 0.42964253 -0.42542472 -0.23089765
-0.059346993 0.33106446 -0.16494457 -0.038459674 -0.114356466 -0.11426283 0.027768677 0.02481698
0.16508636 -0.03666261 0.020257343 0.06717858 0.16281825 0.17076276 -0.14480297 4.4005898e-05
-0.05575587 0.12284103 -0.121314965 -0.03173057 -0.025574872 0.672711 -0.052342128 -0.047689155
0.011462407 0.1141116 0.19125035 -0.051630143 0.0033809 0.23640881 0.10190954 -0.06905238
0.07698646 0.057550047 -0.28769562 -0.12693407 0.11846377 0.106140085 -0.057034176 -0.09524748
0.02884618 0.008388094 -0.10249838 -0.15217756 -0.040852223 0.13052545 -0.19374906 -0.26482216
0.08608156 0.24058807 -0.21906702 -0.039659716 0.052756652 -0.163172 -0.12627845 -0.06975339
0.025760174 0.1618322 -0.060251113 -0.03945353 -0.041740365 0.15953699 -0.15546887 -0.2041325
-0.069079936 0.20029987 -0.20418039 -0.18356135 0.042702537 -0.15254614 0.01899785 -0.054656174
-0.10955864 0.034859296 -0.67012185 -0.14539127 -0.026885374 0.024750309 -0.20906788 -0.02923905
-0.27261174 -0.058859963 -0.037579276 0.16491693 0.3188033 0.030358462 -0.08864848 -0.07488468
-0.9898842 -0.033082817 -1.1484423 -0.026298547 0.16518553 0.8841206 -0.0860656 -0.07365878
-0.111177444 0.49072996 0.16852762 -0.14687069 0.06014348 0.36179668 0.00702103 -0.03685625
-0.10805138 0.5034626 0.06800525 0.0456022 0.0028574227 0.2875227 0.08243398 -0.057504185
-0.031872887 0.71333843 0.12507196 0.045309614 -0.05438207 -0.14710675 0.007195018 0.2935251
-0.017093616 0.24051479 0.0946649 0.079642124 -0.005896274 0.38570842 0.1932005 0.102208465
-0.026266126 1.045196 -0.24441218 -0.13092268 -0.17144522 1.1638703 -0.112985976 -0.23244515
0.0049631824 0.69497895 -0.0677777 -0.24660292 -0.015219831 0.93523836 -0.013825286 -0.22926368
-0.007194677 0.700858 -0.23647769 -0.29807392 0.051757175 1.0659745 -0.18495743 -0.01115767
0.0058861985 0.63640976 -0.16890769 -0.20913656 -0.03879129 0.67311984 -0.003946051 -0.055996165
-0.078294255 0.7364776 -0.22909231 -0.32546434 0.06575382 -0.25763327 0.21476847 0.1415891
0.01800049 -0.30061132 0.13082531 0.19137871 0.08654912 -0.062281676 0.024815094 0.132073
0.08225512 0.08478698 -0.008015592 -0.10658372 0.06727309 0.050515965 -0.10329265 0.2420197
0.043328404 0.32526043 0.11201034 0.033008106 0.08548575 -0.23727238 0.093864374 0.09758156
-0.18095005 -0.16161893 0.02313781 0.13886167 0.045313023 -0.39443165 0.14489825 0.27742204

network_body._body_endoder.seq_layers.0.bias f4 [256]
00000000: d593 afbd b3ff 1f3d 1213 dbbd 2483 d5b9
00000010: 2dd2 97bd 57ea 85be 27cb 00bd 1ae1 ffbd
00000020: 1d7f 4cbe 0a98 c7bd 094b 5fbe 16b6 26be
00000030: 86c2 0bbe ee7c 983d d972 c0bd bbe3 29be
00000040: 6fa1 4cbe 4b7e 27be 7645 11be 5ab4 13be
00000050: 66f9 01be 6f87 f8bd 85e4 813d 5cd8 08be
00000060: 128c 03be c7b6 d2bd b9d7 7fbd ec3f 4dbe
00000070: fa65 73be 3426 b7bd ed85 99bd cbae bf3d
00000080: ef5f 40bd ae11 76be e1a6 723d bb24 95bd
00000090: 32c5 71be 25cc 4bbe b6c7 ecbd dd8d 79bd
000000a0: e088 1cbe 4696 babc 3ebd 6ebd 49df 29be
000000b0: 2870 7dbc 3395 35be 351c f2bd bcf5 8fbd
000000c0: 997e 14bd 5a3f 04bd 8c09 d73b c7e8 503d
000000d0: 98ef aebc 5091 a8bd c649 5ebe d4df 75bd
000000e0: 7d65 58be dc57 14be da00 553d b817 083e
000000f0: 5a66 3ebe 990e 4a3c e443 56bd 7c61 2abe
00000100: ff6a 84bd 58a9 f0bd 7e28 9dbd 660b 06be
00000110: 51dc a73c 10e8 2ebe 9f71 86bd 3895 e8bd
00000120: 2a12 97bc 6335 af3c 7d0c f4bd f335 ccbb
00000130: 6a70 fcbd 44b8 94bd ea69 1cbe 2015 67be
00000140: dd30 333e 6f7b b7bd b3ac 95be a524 71be
00000150: ad58 c93c b597 67bd 5903 b4bd e7d8 4cbe
00000160: b245 fcbd 72aa 5abe ec33 9fbd 04dd 303d
00000170: 8152 10be d48a b6ba 9294 7bbe 890f a5bd
00000180: 9254 91bd 1d6f 8ebe d182 f9bd 3d8d 5cbd
00000190: 481e 48bd 7b40 11bd 7b57 04bd a4e0 cd3c
000001a0: f2d4 2ebe 41c3 d6bd c1ac a6bc b936 3dbe
000001b0: 8351 3bbe 040f f1bc caad 013e 5ea2 e7bc
000001c0: 1fe8 f3bd 5bf1 98bc 6520 04be aca2 213c
000001d0: 3aa5 9bbd 6e3b 66bd ad69 a3bc 0ca1 94bd
000001e0: 3f3c 23bd 8e2e 68bd 2eb2 1fbe 91fd bbbd
000001f0: d171 febc fba3 b23c 1f79 4b3e b376 2f3e
00000200: 2cae 31be 645e a9bd 24bf 27be 83a1 103e
00000210: 7a9a 91be b560 b4bd 9c79 3dbe d873 10bd
00000220: f313 263e 7b1e 45be bf91 163c 77b2 ea3c
00000230: 6a73 a5bd 6fa5 28bd b5ee 873d 254a c9bd
00000240: c07c 24be 0a8f 41be e9ed 2bbe 4328 e0bd
00000250: a300 5fbd ef02 6cbe a17f 27be 8fad 963c
00000260: a5d8 bfbd 3900 12be 3cc9 0fbe dacb c6bd
00000270: 4370 83bd fad2 38be 79e6 34be bdbc 14be
00000280: d770 59bd 63ca 28bd 79e2 2d3d 1fa8 1ebe
00000290: a2cb aebd c911 d43d df65 1fbe 9018 79be
000002a0: d702 13bd 8f61 b4bd ac82 d5bc f2d0 22be
000002b0: 0e54 62be 756c e2bd 44e3 f43c b1a5 23be
000002c0: 4397 30be 95cf dabd bb61 25be 2137 90bd
000002d0: 0ced afbd fee0 79be 9449 ffbd ea26 ebbd
000002e0: 8175 febe 98db e5bd 8115 0dbe 8a41 d8bd
000002f0: 2b11 56be 945a 6dbe e9bc 143d c0c3 4dbe
00000300: 9806 2cbc d3a8 fcbd 7a36 88bd f63a 1dbe
00000310: ca6f cf3c 9058 343c 8d66 763b 2808 43be
00000320: 2fa6 f63d 47e4 52be 7e57 a7bc 37d7 82bd
00000330: 8686 8dbd ed18 ea3d 15c9 38be f01c 1bbe
00000340: c9b2 09bc 9415 c63d 3396 04be d03f f7bd
00000350: 3afc 63be 5ff0 3bbe 95b2 2fbe a32b c33d
00000360: 675f 723d 4cd0 21be 3627 1b3d 1e7b 16bd
00000370: acad 76be 7c65 2fbe 11b0 45bc 4403 98be
00000380: ccc5 84bd d53c 32be 9316 f43c 8038 5cbd
00000390: 9769 23be e058 ecbd 9d6b 18bc 1833 983d
000003a0: c71d 973d fa7d 5c3c 38f9 e73d 9a8a 6bbe
000003b0: 3637 8ebd b647 11bd aa7f f7bd 2509 26be
000003c0: f740 56bc 34ca f6bd c767 2cbe ed7f fabd
000003d0: 6ed4 2bbe 59ed 00be e5a9 5c3b 2094 6abe
000003e0: d05d eabc fee1 11be 6bf9 c9bd 6299 033d
000003f0: 4d99 c3bc 29d8 75bd e210 f93c f1d5 76bd
-0.085731186 0.039062213 -0.10696997 -0.00040724233 -0.07413135 -0.2615535 -0.03144374 -0.124941066
-0.19970365 -0.09745796 -0.21805967 -0.16280398 -0.13648424 0.074457034 -0.093969055 -0.16590779
-0.19983457 -0.1635677 -0.14186653 -0.14424267 -0.12692794 -0.12135207 0.06342415 -0.13363785
-0.12846401 -0.10288768 -0.06246159 -0.20043916 -0.2376937 -0.089428335 -0.074962474 0.09359511
-0.04696649 -0.24030182 0.05924118 -0.072823964 -0.2361038 -0.19902094 -0.11561529 -0.060926307
-0.15286589 -0.022776734 -0.058285944 -0.16589083 -0.015468635 -0.17732696 -0.11821786 -0.07029292
-0.036253545 -0.03228698 0.0065624174 0.051003244 -0.021354482 -0.08230841 -0.2170783 -0.060027912
-0.21132465 -0.1448664 0.052002765 0.13290298 -0.18593732 0.012332582 -0.05231084 -0.1663875
-0.064657204 -0.1175105 -0.07673739 -0.13090286 0.020490797 -0.17080712 -0.0656464 -0.11356586
-0.018441278 0.021387761 -0.119164445 -0.006232017 -0.12326129 -0.072617084 -0.15274778 -0.22566652
0.17499109 -0.0895909 -0.29233322 -0.23549135 0.024578417 -0.056541163 -0.08789701 -0.20004617
-0.12317981 -0.21354082 -0.07773575 0.043179527 -0.14093973 -0.0013926872 -0.24568394 -0.08059604
-0.07096209 -0.27819148 -0.121831544 -0.053845633 -0.048857003 -0.035461884 -0.03230999 0.025131531
-0.1707342 -0.104864605 -0.020346047 -0.18477906 -0.18292813 -0.029426105 0.12663952 -0.028275665
-0.11909508 -0.018669775 -0.12902983 0.009865444 -0.07599874 -0.05620902 -0.019947851 -0.0725728
-0.039852377 -0.056685023 -0.15595314 -0.09179223 -0.031060131 0.021806708 0.19870423 0.17135124
-0.17351598 -0.08269957 -0.16381508 0.14124112 -0.2843817 -0.08807508 -0.18503422 -0.035266727
0.16218548 -0.19249909 0.009190022 0.028649552 -0.08078654 -0.041173395 0.06637327 -0.09828595
-0.16063213 -0.18902221 -0.16789974 -0.10945179 -0.054443967 -0.23047994 -0.1635728 0.018393306
-0.093674935 -0.14257897 -0.14041609 -0.0970685 -0.064178966 -0.18049231 -0.17666043 -0.14525123
-0.053086128 -0.041208636 0.04245231 -0.1549382 -0.085349336 0.10354955 -0.15566204 -0.24325776
-0.03589138 -0.0880767 -0.026063286 -0.15900019 -0.22102377 -0.11055843 0.029893525 -0.15981175
-0.17245202 -0.106841244 -0.16150562 -0.07041765 -0.08590135 -0.24402234 -0.12465206 -0.11482032
-0.49699023 -0.11223525 -0.13777734 -0.105593756 -0.20904987 -0.23179084 0.03631297 -0.20094204
-0.010499619 -0.12336888 -0.066510156 -0.15354523 0.02532186 0.011007443 0.0037597746 -0.1904608
0.12043416 -0.20594893 -0.020427462 -0.06388705 -0.06910424 0.114305355 -0.18045457 -0.15147758
-0.008404442 0.096720845 -0.12947921 -0.12072718 -0.22264186 -0.18353413 -0.17157967 0.095298074
0.059173014 -0.15802115 0.03787919 -0.036738507 -0.24089688 -0.17128557 -0.012065903 -0.2968999
-0.06483039 -0.17406018 0.02979592 -0.05376482 -0.15958248 -0.11540389 -0.009303001 0.0743162
0.073787265 0.0134577695 0.113268316 -0.23002091 -0.069441244 -0.03546878 -0.12084897 -0.16214426
-0.013077012 -0.12050286 -0.16836463 -0.12231431 -0.16780254 -0.12590541 0.00336706 -0.22908068
-0.028609186 -0.14246365 -0.09862026 0.0321287 -0.02387681 -0.0600206 0.030403558 -0.060262624

network_body._body_endoder.seq_layers.2.weight f4 [256, 256]
00000000: 7515 b33e e2c5 22bf 4ecd d73d f261 e23d
00000010: 0286 4f3e 0091 9cbe 4504 803e d7ff 423e
00000020: 05bb 0c3d ebb7 2fbe e919 273e 1cd8 0d3e
00000030: c666 e2bc 0be2 833e 0832 a8be 8331 5c3e
00000040: fc78 013e fb49 d53e d414 4d3e c6d7 663d
00000050: 78a4 423e 6756 813e 1e28 963e 0625 c1be
00000060: 85d6 34bf d596 293f 942f 933d 2bd5 9dbe
00000070: 9202 d6bd b611 6f3d b03e 15be aef4 8dbd
00000080: 707d 9bbd 9130 413c c5b0 093e aabd 11be
00000090: 820a 93be bc2c 8d3e cb66 f33e 4ed3 11bf
000000a0: 4063 b83e 5f09 7cbe 4803 05be 9544 2ebd
000000b0: a5c4 4bbe 3107 4abf a168 44bf adb9 a13d
000000c0: 6997 dc3c 937f 1cbf f73d 893e 8eed 95be
000000d0: 059b 78bd 20e2 35bf c9ec 20be 7522 71be
000000e0: 5624 393e d270 bdbd 9f1e e3be c5ca 81be
000000f0: cf7b 9ebe 3ad0 db3d d25c 10bf f9e6 8bbe
00000100: 628b c53d de1c 8dbd 5415 84be d318 89be
00000110: b583 b13e b64f 2cbc e84f dbbe f50b 233e
00000120: c2de 55be 3859 d2bd f035 a2be 8ecf dbbe
00000130: 1812 b33d 01c1 863d 1e3c 1abf c548 a33e
00000140: ac27 5f3e 25a5 c1bd d039 bd3e 8698 8d3e
00000150: 257b 8e3e 4a69 ebbe 684c 4dbf 0325 113e
00000160: 91d9 91be 13f3 17bd f7d4 243f cd86 82bd
00000170: a585 883c 98ce 09be 80a3 923d 0afc 403d
00000180: ca5c af3e 3113 7d3e e265 663e f3be bcbe
00000190: 29b5 c3be de56 873e b02a 75be 4e9b c83e
000001a0: 4b54 043e c362 c9be 130e 61bd f075 4a3d
000001b0: b5f2 aebd e5a8 b43e 4b31 ee3d eb07 dabc
000001c0: 2853 03bf cdf5 763e 1d1e 3fbe 1aa7 9a3e
000001d0: 99f9 febd 1a85 6b3e aa79 433f 8b1a bfbe
000001e0: 4d1a 6cbd ac32 2d3e 2ef0 d4bd 6dce a3bd
000001f0: e6e9 de3e c752 9d3d d5aa a7be 59d1 04bf
00000200: d4c3 2fbe b8d3 303e 0f1b 8cbe f7ca 51bd
00000210: 0e57 c43e c588 3c3e 28e5 92be 76d1 31bd
00000220: 69bb 75be 73ea 1d3e 2188 5ebf f593 c5bd
00000230: 2627 113f 8a56 80be ef7b 6dbe 1658 c33d
00000240: 7e86 efbe f683 a03e 294c 39bb dc5a 133e
00000250: 7ff0 863d 8dbe 1cbd a799 20be b8c9 613d
00000260: a14b 74bd 8061 edbc 94e9 74be 4fb9 9fbe
00000270: 3a53 913e 0179 4f3d 00e3 8c3e c5d4 49be
00000280: aac0 c7bd 246c cfbe 2587 95be 6ec6 92be
00000290: b455 9f3c 48a8 1bbf 6f03 b7be 6ed1 acbe
000002a0: bf11 2bbe dbf6 12bf e1f8 343e 1750 c23d
000002b0: c359 923d 5772 883e 616e b63e 2a0d d0be
000002c0: df97 94be 294e 67be 8d26 8f3e f081 913e
000002d0: ef92 b8be d9a1 f1bc 6621 bd3d 9401 34be
000002e0: 1d31 a1bd 26ac 0cbe 6b4e d53e ff62 003e
000002f0: 1bb0 3fbe 1125 87be 3222 6f3c 15ca 80bf
00000300: ca46 c63e 83fe 3abf fb3c 8c3d 0553 2abe
00000310: 0107 e0bd 7cb9 8a3d ed2f e93e 45a2 073f
00000320: 45df d03e 99b1 a03e 4239 9bbb d0c5 d8bd
00000330: a9b8 0bbf f199 00be 3e96 df3e 3a27 11be
00000340: 6bb9 57bd 5789 e0be 332e 56be 02b7 e4be
00000350: 0252 163f 76e8 a9bd dcab 47be 6c96 6d3d
00000360: 5ee4 04bd c692 ce3c a27b 90be 64e0 cf3e
00000370: 8317 823b def7 253f 25d8 abbe 89e3 1bbe
00000380: f4ea 7fbe 9be2 94be 8764 bfbe eaa4 253f
00000390: 656a 78be f206 243c 0162 67be eec9 08be
000003a0: e74b 703e 081a 503d 40a9 60bb 3a72 f9bb
000003b0: 9948 9fbe 3866 de3e 8af3 fabe 8211 5e3e
000003c0: 1ab1 abbe c3f4 ca3d 88ad 6fbd c774 723d
000003d0: 3190 c93e f1b3 b7bd b2b4 003e 8408 d63e
000003e0: 2626 a73e 35ee 043c 7f68 473e 5180 673e
000003f0: e832 9bbe eed9 e33d 67ac e1be 907f 20be
0.34977308 -0.63583195 0.10537206 0.11053838 0.20265964 -0.30579376 0.25003257 0.19042908
0.034358043 -0.17160003 0.16318478 0.1385197 -0.027636897 0.25758395 -0.3285067 0.21503262
0.12643808 0.41658005 0.20027477 0.05635812 0.19008052 0.25261232 0.29327482 -0.3772356
-0.7063983 0.66245776 0.07186809 -0.30826697 -0.10449709 0.0583665 -0.14574695 -0.069314346
-0.07592285 0.011791364 0.13446338 -0.14232507 -0.28718954 0.27573192 0.47539362 -0.5696305
0.36013222 -0.2461295 -0.12989533 -0.042545874 -0.19899233 -0.78917223 -0.7672215 0.07896743
0.026927667 -0.6113216 0.26805088 -0.29282802 -0.060694713 -0.71048164 -0.15715326 -0.235483
0.18080267 -0.092500344 -0.443593 -0.25350013 -0.30953833 0.107330754 -0.5639163 -0.27324656
0.09645726 -0.068902716 -0.25797522 -0.26776752 0.34670797 -0.010517051 -0.428344 0.1592253
-0.20885757 -0.102709234 -0.31681776 -0.4293179 0.087436855 0.06579781 -0.6024798 0.31891456
0.21792477 -0.09455327 0.3695817 0.2765543 0.27828327 -0.45978767 -0.8019471 0.14174275
-0.28486302 -0.037097048 0.6438746 -0.063733675 0.01666529 -0.13457716 0.071600914 0.047115363
0.3425048 0.24714352 0.22499803 -0.36864433 -0.38224152 0.26433462 -0.23942065 0.39180988
0.1292278 -0.39333162 -0.054945063 0.04942888 -0.085423864 0.35285106 0.11630496 -0.026615104
-0.5129876 0.24117203 -0.18663831 0.30205613 -0.12449951 0.22999993 0.7635752 -0.37324938
-0.05764227 0.16913861 -0.10397373 -0.07998357 0.43537825 0.07681804 -0.32747522 -0.5188194
-0.17164546 0.17268264 -0.27364394 -0.051218953 0.38347667 0.18411548 -0.28690457 -0.04341265
-0.23997273 0.15421467 -0.86926466 -0.09647361 0.5670036 -0.25066024 -0.23191808 0.095382854
-0.46782297 0.31350678 -0.0028274155 0.14390129 0.0658884 -0.03826766 -0.15683614 0.055124015
-0.059642438 -0.028977156 -0.23917228 -0.31196067 0.2838381 0.050652508 0.27516937 -0.19710071
-0.09753545 -0.40512192 -0.2920467 -0.28667015 0.019450046 -0.6080365 -0.35744807 -0.33753532
-0.16705988 -0.5740792 0.17673065 0.09487932 0.07146027 0.26649734 0.35631087 -0.40635043
-0.29022118 -0.2258841 0.279591 0.28419447 -0.360496 -0.02949612 0.09234886 -0.17578727
-0.07870696 -0.13737544 0.4166139 0.12537764 -0.18719523 -0.26395467 0.014595555 -1.006167
0.38725883 -0.73044604 0.068475686 -0.16633232 -0.10938836 0.067736596 0.45544377 0.5298198
0.4079534 0.31385496 -0.0047370503 -0.10584605 -0.54578644 -0.12558724 0.43669313 -0.1417512
-0.052667063 -0.43854782 -0.20916061 -0.44670874 0.58718884 -0.082962915 -0.19499153 0.05800478
-0.03244435 0.025216471 -0.28219324 0.40600884 0.003970088 0.6483134 -0.33563343 -0.15223517
-0.24991971 -0.29079136 -0.37381384 0.64704764 -0.24259336 0.0100114215 -0.2259598 -0.1335828
0.23466454 0.050806075 -0.0034280568 -0.007612494 -0.31110075 0.43437362 -0.4901393 0.21686366
-0.33533555 0.09909966 -0.0585151 0.0591934 0.39367822 -0.08969868 0.1256893 0.41803372
0.32646292 0.008113434 0.19473456 0.22607543 -0.30312276 0.11125551 -0.44076845 -0.15673661

network_body._body_endoder.seq_layers.2.bias f4 [256]
00000000: 4f1d 9ebd 9a06 6ebe d3b3 4bbe 799a 6ebe
00000010: 538d 8abe c0aa 95be 3afb f3bd efa1 33be
00000020: 87f6 cfbd dd17 5b3c beea 9bbe da8c 373e
00000030: 0e41 37be 4d19 9cbd c9fe 11be c6e6 c2be
00000040: 7c03 fdbc 3067 64be fee0 81be b03c 45be
00000050: 44a5 c7bd 6a48 1dbe 4d6e 9c3d 448f 6ebd
00000060: 040c efbd b41c a9bd 6312 14be cfa2 aebd
00000070: 8b97 91be ed68 babe abe8 08bf 7784 3abe
00000080: ce37 4bbe 71e3 4abe 9a9a 3bbd 56dc d2bd
00000090: 57c4 0fbe 970e 91be 7425 29be 4d1d 2fbd
000000a0: 740a 81be d897 2ebe 30a6 45be 1a9a 51be
000000b0: caaa 9cbe 70e4 edbd 974a 29be 0677 0dbe
000000c0: 9c16 3dbe f4f1 c0bd abf3 b5be 2596 14be
000000d0: c2db a3be 307b 60be da63 1fbe 234b b4be
000000e0: 5fb6 b7bd 0bbd abbe 5d10 afba 3a19 b33e
000000f0: 6492 30be db85 603d 8bd8 76be b5d6 a2be
00000100: 4af7 adbe d5b4 02be 5df3 333c 9136 8cbd
00000110: 4a20 b9be 2622 40be 9293 27be c466 ebbd
00000120: f2a2 0fbe 946a 513d 00cd b4bd 7aed adbe
00000130: 9354 24be 1437 c03d e268 8bbe 727e a7be
00000140: f646 8dbe 21ca 97be dcef 66bd 7f0c 81be
00000150: e520 22be 9d87 c1be c969 7abe a7a2 8bbd
00000160: e7c4 f8bd 2436 f6bd 2fad 90be 4a09 24be
00000170: 149b 80be b03c a0be c81c a3be dab5 37be
00000180: 4588 cfbe 1d16 a7be 816e a63c 741a 70be
00000190: 66db 7dbe 0a3b 0cbe 5ee0 07be dcd8 22be
000001a0: bc51 833d 91ef 6bbd b18c 4ebe 9e5e 49be
000001b0: e130 f63c f564 51be c07a 66be 62e7 7bbd
000001c0: 4809 2ebe 6490 d5bd 8764 9fbd 6ff2 ebbd
000001d0: dad1 0fbd 736e d9bd e863 8ebe de6f 07be
000001e0: 2cc1 4abe 5d17 a7bd b1fa 443e 568a 8ebe
000001f0: f610 a0be 9c4c 27be 10d0 b8be 52fb a6be
00000200: 44dd 10be 4032 bbbe d9e6 91be 6357 78be
00000210: 863d 50bd 9470 dfbd fbf7 0f3d b235 123e
00000220: e4ac 3bbe cba7 50be 4782 83be fb80 9fbe
00000230: b1e9 02be fc89 97be 73d5 c2be 920e cbbd
00000240: 1f11 7abe fbda e2bd ebfd 8bbd 4770 cbbe
00000250: 6602 8cbe 3697 0ebe 96e2 50be 55eb 46be
00000260: 7495 1fbe d962 4dbe 762a 523d c6be 8ebd
00000270: 4caf 14be ed10 e73c 18b1 babe 1107 3dbe
00000280: c5e0 9ebe 5534 a2bc 7f77 1abe c80f 01be
00000290: f279 e5be c2bb f6be f58a 23be 928c fbbe
000002a0: 40cb 8bbc f7d5 3c3d 4431 7cbe a3d0 74bd
000002b0: d3cc 8fbe 5e84 95be 46bf e5be 7f9e a2be
000002c0: 42b1 23be 1100 3abe 6b46 53be 4430 4ebe
000002d0: ab3e 703b ffc6 5cbe 1dd1 64be 0f63 90be
000002e0: 3890 93be 84be 78be 1521 febe e050 09bf
000002f0: 8d35 0ebe c9fe 8ebe db60 0ebf 417e 66bd
00000300: bf9b 99be 9b35 093e bc73 9cbe 5c3b adbe
00000310: 9700 123e 19e5 67be 1e8f d3be 6984 fbbd
00000320: bb1d 07be c617 17be 43fe 67bc db5f 64be
00000330: 7fa1 dabe 471d 00be a1ef 6cbd f0f8 42ba
00000340: 5d62 6ebd 9ee5 99be d917 3bbe 62ee b2be
00000350: 75ca 50be a5d3 62be 0882 16be cd87 01be
00000360: 0a97 60be 5dfe 033e f6e1 843e 6c77 9ebe
00000370: 1c30 5bbe 9ba4 4fbe 0015 6fbe c82f df3d
00000380: fc1d 9bbe 6370 2abe f019 5ebe ca83 66be
00000390: 6210 8cbe b339 c3bd 3086 57be a758 36be
000003a0: b6e6 aabd ea87 83bd 280e 83bd ce26 0fbe
000003b0: 0fc7 963c 4dda dcbe 799c 4bbe 1d74 84be
000003c0: aed6 a0be 571a e0bd bbcf bebe 1e6b 033d
000003d0: 0c3b c2bd 0cc8 73bd 1581 7ebe 8e69 18be
000003e0: 176e c23c bcd0 1ebe 14ff 1ebe 55ab 18be
000003f0: a12b ccbd 5fe4 66be 40dd 6fbc 37d9 7bbe
-0.07720434 -0.23244706 -0.19892816 -0.23301114 -0.27060947 -0.29231834 -0.11913152 -0.17542242
-0.10154443 0.013372389 -0.30452532 0.17924824 -0.1789591 -0.07622013 -0.14257349 -0.3806669
-0.03088545 -0.22304988 -0.25366968 -0.19261432 -0.09748319 -0.15359655 0.07638226 -0.058242097
-0.11672214 -0.08257428 -0.14460139 -0.08527147 -0.2843593 -0.36408177 -0.53480023 -0.18214594
-0.19845507 -0.19813325 -0.045801736 -0.10295932 -0.14039741 -0.28331444 -0.16518193 -0.042752553
-0.25203288 -0.17050111 -0.19301677 -0.20468941 -0.30599052 -0.116158366 -0.1653236 -0.13814935
-0.18465656 -0.09421149 -0.35537466 -0.145104 -0.320036 -0.21921992 -0.15565434 -0.35213575
-0.089703314 -0.33542666 -0.0013356317 0.34980184 -0.17243344 0.054815155 -0.24106042 -0.31804433
-0.3397773 -0.12764294 0.010983315 -0.06846345 -0.36157447 -0.18763027 -0.16364887 -0.1149421
-0.14027002 0.05112703 -0.08828163 -0.33970243 -0.16047888 0.09385505 -0.27228457 -0.32713658
-0.275932 -0.296464 -0.05638109 -0.25204846 -0.15832861 -0.37798777 -0.24454416 -0.06818133
-0.12146931 -0.12022045 -0.2825713 -0.16019168 -0.25118315 -0.312963 -0.31857896 -0.17940465
-0.40533653 -0.3263406 0.020316364 -0.23447591 -0.24790725 -0.13694397 -0.13269183 -0.15903038
0.06412074 -0.057601515 -0.20170857 -0.19665 0.030052604 -0.20448668 -0.22507763 -0.06149996
-0.16995728 -0.10427931 -0.07782846 -0.1152085 -0.03511224 -0.1061677 -0.27810597 -0.13226268
-0.19800252 -0.08158753 0.19236256 -0.27839917 -0.3126294 -0.16337818 -0.3609624 -0.32613617
-0.14146906 -0.36561775 -0.28496435 -0.24252085 -0.050839923 -0.109101444 0.035148602 0.14278296
-0.18327671 -0.20376508 -0.2568533 -0.31153092 -0.12784459 -0.2959746 -0.38053474 -0.099148884
-0.24420594 -0.110769235 -0.068355404 -0.39734098 -0.2734558 -0.1392487 -0.20398936 -0.1942571
-0.15584356 -0.20057239 0.051310025 -0.06969981 -0.14519995 0.028206313 -0.36463237 -0.18459727
-0.3103086 -0.019800344 -0.15084647 -0.12603676 -0.448196 -0.48190123 -0.15970977 -0.49130684
-0.01706469 0.04610249 -0.24628168 -0.059769284 -0.28085956 -0.2920255 -0.44872493 -0.31761548
-0.15985587 -0.18164088 -0.20632331 -0.201356 0.0036658447 -0.21560286 -0.22345395 -0.28200576
-0.28820968 -0.24291426 -0.49634615 -0.5363903 -0.13887616 -0.2792876 -0.5561654 -0.05627275
-0.30001637 0.13399355 -0.30557048 -0.3383435 0.14258038 -0.22645988 -0.41320127 -0.122811146
-0.13194935 -0.14755163 -0.014159742 -0.22302191 -0.42701337 -0.12511168 -0.057845715 -0.0007437607
-0.058199275 -0.30057997 -0.18270816 -0.34947497 -0.20389731 -0.22151048 -0.1469804 -0.1264946
-0.21932617 0.1289 0.25953645 -0.30950487 -0.21405071 -0.20277636 -0.23347855 0.108977854
-0.30296314 -0.16644435 -0.21689582 -0.22511211 -0.2735625 -0.0953249 -0.21047282 -0.17807256
-0.08344786 -0.06422408 -0.063991845 -0.13979647 0.018405465 -0.431353 -0.19883908 -0.25869837
-0.31413788 -0.10942524 -0.3726786 0.032084577 -0.094839185 -0.05951695 -0.24853928 -0.14884016
0.023734136 -0.15509313 -0.15526992 -0.14909108 -0.09969259 -0.22548054 -0.014640152 -0.2459458

action_model._discrete_distribution.branches.0.weight f4 [3, 256]
00000000: 6b41 52ba a8ad 1f3e dafd 963e 65b8 cb3c
00000010: f14a b0bd 7dae 173e 7ed1 ea3d f92d 03bf
00000020: 34d2 bc3d 9166 06bb 548c 323e e0a6 e83d
00000030: 41a9 e73d 6061 783e c3bb d1bd b84d 98bc
00000040: 758e 13bf ec08 023e f2b4 9c3d 067f a2be
00000050: 7011 e73d 8dc9 1b3e a7ff 713e 9d96 ee3d
00000060: 9aa6 33bd 386d 3d3d 7148 cfbd 765f 17bd
00000070: ff3e 4d3e ea78 5d3e 4735 b9be a1d6 7f3c
00000080: b5df 8fbd 1d12 7f3e 8843 5e3d 037b ce3c
00000090: 753f 3d3e 24e0 68bd eeff bb3d bb7b 5d3d
000000a0: f193 39be 654b 47bd ff0b 5dbe 7da8 c23c
000000b0: 5311 93bd 76f5 1c3e 7d9f aa3d 6f3a 63be
000000c0: 8d16 153d 95cf 963d f529 04bb 5aff 9dbd
000000d0: 139d ddbc 5ffc 723a 6f3d 463c 99ee 36bd
000000e0: 9635 26bd 890a fe3d b9a6 063e ab25 1ebd
000000f0: 2b6e 093e e82c 08bd 3a58 363e c7f0 523e
00000100: 5a2f b93e 7642 87be 8910 ad3d 63cb 853d
00000110: cdce 6d3d 1189 953d e623 b13c 9559 ed3d
00000120: ef74 d03c 5c96 513e 5800 693b 479d 123e
00000130: db55 5a3d 2b52 04bd 1461 c5bc c751 fbbc
00000140: 0980 01bd 3a70 7d3e 13af c43d b1f7 39ba
00000150: 9f42 c73d 82b6 ee3d 3694 973e eb6e 123d
00000160: 0389 903d 426f 62bd ab76 883c dd77 71be
00000170: 5697 c93c edd8 75bd 34a9 803e 421a 6f3d
00000180: 8fd7 fa3c edc1 fc3d 2897 993c 9363 903d
00000190: 1af9 803d 2e7e a93c f765 a13d d09d 94bd
000001a0: 226e babd ab78 8fbe 684f 973c 74e0 033e
000001b0: b5f2 983d 8e76 60bc 15ef 20be aa69 243e
000001c0: eb8f 4b3c da23 373d 1184 933c 2ddb 653e
000001d0: 3ffd 25be 2092 ef3d 7e58 84be 5cec be3c
000001e0: 52a8 cebc fbb8 dd3d 2ff1 f8bc a7bf abbb
000001f0: 1762 223e fef6 193e 4e45 35bc 5b2f 353e
00000200: 7950 683c b711 b3be 567b 1f3e 6505 09be
00000210: c6f4 76bd 658a 5e3b d511 ad3d dcac 9c3d
00000220: 87c4 25be d924 943c fcc3 a53e 92f7 513d
00000230: 62c7 adbc bf59 833e 9115 16be 36bb 0bbe
00000240: 2bb0 b8bd 1d43 9abd e5af 183e db28 12bd
00000250: 1111 bb3c 99bb c63e f458 843d d90b d5bc
00000260: a03c 8d3d 7d1a 9bba 898b 2f3e 6b29 0a3d
00000270: e83d d63d 9939 8ebd 606c d0bc 942b 99bc
00000280: 6ead 21be 303c e33b 4193 573e 07d5 11be
00000290: 47e5 7bbd b03f 67bd c38e 9b3d 6914 0b3e
000002a0: d0e8 a83e 2996 1fbd 83c9 30bc bfbd 43bd
000002b0: a3ca 343e c6c9 e03d 934d 253d 549e 353e
000002c0: da97 b5ba d979 0e3e a1b5 7a3d c9b8 c2bd
000002d0: 5cf5 a33d c5d2 dc3c 0ad8 283e ea47 8cbd
000002e0: 94c8 d0be eaca 0fbe 7ef5 0fbd 5bbc 9a3e
000002f0: 63b6 ba3d e815 e23d ac7c 23be 1db3 b23d
00000300: 29aa 2bbd ba94 6b3e 0a6d e23d e5bf 063e
00000310: 3d22 0a3e b077 323c 61d7 0d3e d08b 56bc
00000320: c81e 043e ca2d d43b 8e8c bf3e 9feb 923d
00000330: ac4b fb3d b4b6 5bbe ea6c 053e 4c08 3e3d
00000340: 485d 0dbe aff8 993e 673b 0d3e c40d 0a3c
00000350: 1d37 813c 4964 3d3b 5a7c 16be 424b bbbc
00000360: 5fa9 05bc b72e 9bbb a5c7 103c 2348 423e
00000370: e7d1 4d3d 0045 a33c 97e2 11be 6153 273e
00000380: 0fce 89be 15bb 1b3e 1f26 703b 2ba4 9c3c
00000390: abae 553e bbec 003e 381b f3bc 2579 8c3e
000003a0: f8a3 173e 4708 0b3e c1ce bf3c eed0 0d3d
000003b0: 4e82 a5bd 0e70 4d3d 80e3 79be cd27 043e
000003c0: 33e1 863d 753e 493e 2c2f 273e 20bb 6f3d
000003d0: e583 6b3d b8d4 05bd 4bb7 973d 2d23 453c
000003e0: b082 f33c e9c4 5c3e f765 61bd 8157 263e
000003f0: c3b8 833e dba1 06bc ecbc d63d afa9 603e
-0.00080206123 0.15593588 0.29490548 0.0248682 -0.08608044 0.14812656 0.11465739 -0.51242024
0.092197806 -0.0020507912 0.17436343 0.11359954 0.113115795 0.24255896 -0.10240891 -0.018591747
-0.5763925 0.12698716 0.076517 -0.31737536 0.11282623 0.15213604 0.2363268 0.11649821
-0.043860056 0.046246737 -0.10121239 -0.036956273 0.20043562 0.21628156 -0.3617346 0.015615136
-0.070250906 0.24909253 0.05426362 0.025205141 0.18481238 -0.056854382 0.09179674 0.054073077
-0.18122841 -0.048655886 -0.21586607 0.023761982 -0.07181039 0.15328011 0.08331201 -0.2219026
0.03639846 0.07363812 -0.002016661 -0.0771472 -0.027052438 0.00092691736 0.012099608 -0.04466114
-0.040578447 0.12404353 0.13149537 -0.03861014 0.13420932 -0.03324595 0.17807093 0.20599662
0.3616894 -0.26417893 0.084504195 0.065329336 0.05805855 0.07301534 0.021623563 0.11589352
0.025446383 0.20467514 0.0035553183 0.14317809 0.053304534 -0.032304924 -0.024094142 -0.030678643
-0.031616244 0.24749842 0.09603705 -0.0007094099 0.09729504 0.11655904 0.29605263 0.03575031
0.07057383 -0.055281885 0.016658148 -0.2358088 0.024608295 -0.06002133 0.25129092 0.05837465
0.030620364 0.12341676 0.018748835 0.07050242 0.06297512 0.02069005 0.078807764 -0.07256663
-0.091030374 -0.2802175 0.018470481 0.12878591 0.07468168 -0.013700141 -0.15716203 0.16055933
0.012424449 0.044711925 0.01800731 0.2244689 -0.16209887 0.11697793 -0.25848764 0.023306064
-0.025226746 0.10826298 -0.030388443 -0.0052413526 0.15857731 0.15035626 -0.011063887 0.17693846
0.014179342 -0.34974453 0.15574393 -0.13380964 -0.060292028 0.0033957001 0.08450667 0.07650158
-0.1618825 0.018083977 0.32376087 0.051261492 -0.021213237 0.25654408 -0.14656664 -0.13645634
-0.090179764 -0.07532332 0.14910848 -0.035683494 0.022835286 0.38815 0.06462279 -0.026006626
0.06896329 -0.0011833456 0.17143072 0.033730906 0.104610264 -0.0694458 -0.025442302 -0.018697537
-0.15788814 0.006934665 0.21052267 -0.1424142 -0.061497953 -0.05645722 0.07595589 0.13582005
0.32990122 -0.038961563 -0.010790232 -0.047788378 0.17655425 0.10975985 0.040357184 0.17736179
-0.0013854459 0.13913669 0.06120837 -0.09507901 0.08005783 0.026955971 0.16488662 -0.06849654
-0.4077803 -0.1404225 -0.03514623 0.3022183 0.09116819 0.110393345 -0.15965527 0.087255694
-0.041910324 0.23005953 0.11055954 0.1315914 0.13489623 0.010892794 0.13851692 -0.013094857
0.12902367 0.006475185 0.37411922 0.071738474 0.12270293 -0.21456414 0.13029829 0.04639463
-0.13805115 0.30072543 0.13792191 0.008426134 0.01577335 0.0028898886 -0.14695874 -0.022863034
-0.008158057 -0.0047357935 0.008836661 0.1897283 0.050249007 0.019930363 -0.14246593 0.163404
-0.26915023 0.15208085 0.0036643816 0.01912125 0.20867412 0.12590306 -0.029676065 0.27436176
0.14808643 0.13577376 0.023414018 0.03462308 -0.08081494 0.05015569 -0.2440319 0.12905808
0.06585922 0.19652732 0.16326588 0.058528066 0.05749883 -0.032673568 0.07408007 0.012032312
0.029725403 0.2155949 -0.055028882 0.16244318 0.257269 -0.0082173 0.10485253 0.21939729

action_model._discrete_distribution.branches.0.bias f4 [3]
00000000: e7be bfbd 72f7 b73d cea6 113d
-0.093625836 0.08982743 0.035559468

action_model._discrete_distribution.branches.1.weight f4 [2, 256]
00000000: 29aa ac3d 3325 073e 76a2 b33e 7761 2abe
00000010: b126 f73d 43f7 4d3d 2206 82b9 2c30 72bd
00000020: c01e 0fbe 6ae2 7d3c 6207 653d d55f 343d
00000030: 4959 693e a9d3 b4bd ebf2 83be 176b bc3e
00000040: 5ac3 083e 20a5 473c d0d0 b8bd 4948 bfbe
00000050: 5b2f 2e3e 8d6f a13d 7508 29bd efd7 6abd
00000060: 5b5d 7dbe 8894 85be 56af b43d e959 a7bd
00000070: abbe debd 3340 48be bca2 32be 834c 4bbc
00000080: 1e76 3b3d c9b7 afbd f59a e13d 1217 793e
00000090: a066 173d c565 94bb b0b9 a4be 2206 863d
000000a0: 2a39 d13d f864 69be 4695 20be 07f9 13be
000000b0: 4de7 913d 500c 3a3e 0b90 50be b872 32be
000000c0: cf0b 0fbe 41f9 0f3e 7f3f 2b3c b0fb 9dbd
000000d0: 004b ea3d 14de 6cbc 29de 96bd 1015 1b3e
000000e0: 454e d2bd 53b0 e43e 3e07 bdbc ed63 f7bb
000000f0: 376a 163e 5c03 463e c700 ddbb abeb 58be
00000100: d10c cb3e b115 943d 1a9f 843c 8f0e 05bd
00000110: 771b 283e eb49 b73c a7f6 373d 397d 92be
00000120: 6cf3 54bb 02a7 1b3e cb22 343d 166b 133e
00000130: aeaf c63d cc63 f3bc 885d bfbc b225 01bd
00000140: d97c 6fbd 4f62 633e 40d4 103d 7b30 2f3e
00000150: c08c 353d 2a0d 8c3e e779 e8be d824 98be
00000160: 567a 0ebd f1c7 c33c bf63 e93b 7f6b a0bc
00000170: 2f15 b1be 1220 28be c0ad dabc 30f2 873d
00000180: 140a f63d a520 9fbd d86c f83c 9322 a2bd
00000190: 9f1e 8d3c b547 16bd ff00 0c3d 8730 803e
000001a0: 725b ad3d 4c5b a83e bc57 973d 93e8 9cbc
000001b0: b863 07be 0992 f4bd 8713 b43d 7c0f babd
000001c0: fcb6 6fbc 057b 68bc 4ca6 99bd 1052 d1bd
000001d0: c11e 6a3c af47 1c3e e62a 6a3e 4f9a c2bd
000001e0: 8212 0ebe 221e 2f3d b93e 7abb 5fae 773e
000001f0: 5a3d b33c 93bc 6bbd 7b9f 963d c45c b5be
00000200: 91e6 d9bd 14fd bebe 93fe 42be 32c8 3d3c
00000210: c756 fdbd 607f 773c 5811 d63b f825 aeba
00000220: 997a 0bbd 484a 4b3c 5784 e23d 73e9 81bc
00000230: c24d 193d 09a4 0b3e 8376 0dbd c6e8 06bd
00000240: f50f f5bd 268a c2bd 48ae 40be 1800 33bc
00000250: 09bb 6fbe 8eb3 46bf b2c7 09be 6943 e5bb
00000260: d379 1bbd 23e8 283e 9cb6 573c 8d88 6dbe
00000270: 682b a7bd 7d8b 4a3e 0192 ca3d ea3a 913d
00000280: 0bf1 44bd cdb6 5a3d 7ae6 c8bc 77e2 59be
00000290: 9dba 163e aca5 333d f30f babd 2512 803d
000002a0: 1e54 1bbd b9b8 5abd e488 f53c 4019 4a3d
000002b0: 6639 fd3d a306 0f3e e60e abbc 3be0 e6bc
000002c0: c9c2 843d 865b 0b3e 722d 7b3c c658 55bd
000002d0: 1e18 69be a1f8 283d 033c e23d 9dfc b63d
000002e0: 9ba9 78bd 9e57 78bd 6cbd 893e 9db3 ce3c
000002f0: 9cd5 1abe d144 e3bc d2e1 92be 5dc8 893e
00000300: 81ac c13d e9c7 a1be 005c 57be ddc2 b73c
00000310: 7050 d33c 16dc d3bb 4130 d23d df87 c23c
00000320: 5e5c 8d3e 374e 393d 86c5 d73e 943b cbbd
00000330: 25f4 60be 9406 c2bc 843d 1fbe 3d16 e8bc
00000340: 0b8e 533e fa2f 2e3d 5e2d 07bc e40b 58bd
00000350: b94f 23be 4142 74bd f1eb 06bd ec26 d13d
00000360: 23ba f0bd b61e 5fbd 39c7 12bd 68b0 80bd
00000370: a702 76bd 49d9 683e 56d1 b73e 0409 1abd
00000380: c3bc db3c 6d6b ee3c b412 9e3e 00c7 b0bc
00000390: efc2 07bf 71b9 8cbc 979e a13d 3f3e 543e
000003a0: bc66 bbbc 2952 ceba 1cb0 193e 2607 a63c
000003b0: 9cde 99bc aea8 473e fd0e 94be c89a de3d
000003c0: 0807 67be a94a c5be 931b 073d a4d8 ecbd
000003d0: 13f8 16be 7d6a 983d 0135 c2bd 1d75 d9be
000003e0: c02a 7bbc ad13 873e 6cff 313b 231b ee3c
000003f0: c2ae e6bd 4f01 963d 2b25 74bc be88 26be
0.08430893 0.13197784 0.35084885 -0.16638742 0.12067927 0.050284635 -0.00024800102 -0.05912797
-0.13976574 0.015495876 0.055915244 0.044036705 0.22787966 -0.088294335 -0.2577127 0.36800453
0.1335577 0.012185365 -0.09024203 -0.37359837 0.17010252 0.07882605 -0.04126783 -0.057334837
-0.24742644 -0.26089883 0.08822505 -0.08171446 -0.10876211 -0.1955574 -0.1744489 -0.0124083785
0.045766942 -0.08579976 0.11015884 0.24325207 0.036963105 -0.0045287334 -0.32172918 0.065441385
0.10215981 -0.22792423 -0.15681943 -0.14450465 0.07124195 0.1816876 -0.20367448 -0.17426574
-0.13969348 0.14059927 0.01045215 -0.07714021 0.11440086 -0.014457244 -0.073665924 0.15144753
-0.10268835 0.44665775 -0.023074742 -0.007549754 0.14688955 0.19337219 -0.0067444774 -0.2118365
0.39658216 0.072307 0.016189147 -0.032484587 0.16416727 0.022374114 0.04491296 -0.28611162
-0.0032493724 0.15200427 0.043978494 0.14396319 0.09701477 -0.029710673 -0.023360029 -0.03153009
-0.058468673 0.2220547 0.035358667 0.17108338 0.044323683 0.27353793 -0.45405504 -0.2971561
-0.034784637 0.02389905 0.0071224864 -0.019582508 -0.34586474 -0.16418484 -0.026694179 0.066379905
0.12013641 -0.07769898 0.030325338 -0.07916751 0.017226515 -0.03668948 0.034180637 0.25037023
0.084647074 0.32882154 0.07389781 -0.019153869 -0.13221633 -0.119419165 0.08792787 -0.09084985
-0.014631029 -0.014189486 -0.07502422 -0.1022073 0.014289559 0.1526172 0.22867927 -0.09502088
-0.13874248 0.042753346 -0.0038184358 0.24187611 0.02187984 -0.057552885 0.07354637 -0.35422337
-0.1063968 -0.37302458 -0.19042425 0.011583375 -0.12370067 0.015106052 0.0065328293 -0.0013286462
-0.034052465 0.012407847 0.11060398 -0.015858388 0.03742767 0.13636793 -0.03453685 -0.032936834
-0.11965934 -0.09499006 -0.18816483 -0.010925315 -0.23411192 -0.7761773 -0.13455084 -0.0069965613
-0.037957978 0.16494803 0.013166096 -0.23196621 -0.08162576 0.19779773 0.09891129 0.07091315
-0.04808144 0.05339699 -0.024523962 -0.21277796 0.14719625 0.04385917 -0.09085073 0.06253461
-0.037922017 -0.05339882 0.029972501 0.049340487 0.123644635 0.13967375 -0.020881128 -0.028183093
0.06482465 0.13609132 0.015330659 -0.052086614 -0.22763106 0.041252736 0.110466026 0.08934901
-0.060708623 -0.060630433 0.2690233 0.02523213 -0.15120548 -0.027742775 -0.28687912 0.26910678
0.09456731 -0.31597832 -0.21031189 0.022431785 0.025795192 -0.0064654453 0.1026311 0.023746429
0.27609533 0.045240607 0.42142886 -0.09923473 -0.21968134 -0.023684777 -0.1555081 -0.028330917
0.20659654 0.042526223 -0.0082505625 -0.052745715 -0.1594838 -0.059633497 -0.032939855 0.10212502
-0.11754253 -0.054472648 -0.035834525 -0.06283647 -0.060061123 0.22739138 0.35901898 -0.037606254
0.026823407 0.029103959 0.30873644 -0.021579266 -0.5303182 -0.01717827 0.07891577 0.2072687
-0.022876136 -0.0015741038 0.15008587 0.02026708 -0.018782906 0.1949794 -0.28917685 0.10869366
-0.22561276 -0.38533524 0.03298528 -0.115647584 -0.1474307 0.07442186 -0.09482766 -0.42472163
-0.015330017 0.263822 0.00271603 0.029065674 -0.11263801 0.07324468 -0.01490144 -0.162631

action_model._discrete_distribution.branches.1.bias f4 [2]
00000000: 024a de3b c34a debb
0.0067837248 -0.0067838146

action_model._discrete_distribution.branches.2.weight f4 [2, 256]
00000000: 6b23 a83c d732 073d b2e2 a9bd 4425 153e
00000010: 2d5d 8b3d 1536 e8bd 5214 513d 7a31 063e
00000020: b4ff 563e d200 803d 77e8 463d ddc9 a7bc
00000030: 13e7 92be 5839 d3bc 6af4 1bbd 3e79 9e3b
00000040: bac0 9dbe afa8 06bd 1064 e8bb 9ed7 d5bd
00000050: 32ee 303e 3fb3 01bd 32f8 b6bd 250f c33c
00000060: e2c6 e43c 1986 0dbe 3b93 afbd 2df2 03be
00000070: 8dcb 30bd 1c4d 853e d95d 833d 2be2 fc3d
00000080: 8b5a 13bd 89fd ae3e 4f52 a13c 37eb afbd
00000090: 0b58 d4bd 3cf4 0c3e 91c6 6ebd ef58 843d
000000a0: 3fe1 c1bd 5e23 8b3d fddc 03bd a6ad 033d
000000b0: 305e b83d da5c d0bb 828d 03bd c50b 383e
000000c0: 72f8 42be 389e 82bb d86f 233d d3d1 373d
000000d0: 19e7 87be 0ec1 48be d3ca 78bd 0a41 48be
000000e0: a3cd ab3d af7f 7d3d 4bf0 acbe 957a a63e
000000f0: 56a2 ab3d d55f d13d 4510 18be f47f eebc
00000100: 47e1 193e b6a5 863e 912e 45bc c2f5 463e
00000110: ef64 fb3c 4f67 fabc b542 763e fb65 653e
00000120: 3922 f9bd ddde 123c 0343 4ebc 265c 42be
00000130: d9bb 19be cd6c ba3c 63e1 e33d 4e2a 40be
00000140: 9673 d63c 1667 f83d 74e8 453d 765d a83d
00000150: 7451 0fbe 8f91 16bd cd0c 7ebd 04c5 93be
00000160: 9fd7 6e3d 6093 9d3c a94d 79bd 44b2 5abc
00000170: d91f 58be 59c4 b6bd 9f74 16be 1321 4dbd
00000180: 73f3 f3bd 8f43 5dbe 90d8 753e 8489 193e
00000190: 3cd6 1ebe ca20 1cbe 5faa 22bd 38b5 debd
000001a0: 64fb 463e 5be4 a5be a030 d53d db3e 5b39
000001b0: 6c5b c23e 2b15 c3bc ae8e e33d 7f54 8abd
000001c0: 30d8 a6bd 5311 b4bc edb4 983d 1447 b3bd
000001d0: 8a95 06be 6186 bebc b58b 2dbc b59c b9bd
000001e0: 397e c43b 3c35 28bd dd3a 833c 4cfc 04bd
000001f0: d71b d53d 6081 033e 36eb 053c c839 7a3d
00000200: 594b 843c 1bbb c33d 12c3 c83a 8de7 2ebd
00000210: ae67 49bd 252e c53c 23cd c53d 43f3 bcba
00000220: 92f3 933c 3fea 413c a974 16be dcdb 3e3d
00000230: b4ee df3b e2ba e6bd 53a4 b8be 1e89 1cbe
00000240: 2507 713e 8e93 793b ef19 dd3c 08b9 083e
00000250: 6041 88be 9286 64bd 5383 bc3d 5121 e0bc
00000260: e6f0 7abd cba3 653d 98ec b5bc ee2e 90be
00000270: 5a47 52bd 24f5 b6bd 9e6e c03d 1233 5bbd
00000280: b8b0 dd3c b4b6 cabe 3309 83bd 6b06 83be
00000290: deba 93bd 7042 1d3c 851e 10bf b6c0 3e3d
000002a0: 5f63 88bd 3ab0 86bd 0b26 9cbb 9520 423d
000002b0: 63e4 9dbe 6045 e13e ee41 5fbd 93aa a8bd
000002c0: b9f3 bc3e 5d72 2b3d c1ea a8bd 4cde 3d3c
000002d0: b7ed 833e e07e b0bd 7e69 073e 4494 af3d
000002e0: 050c f33e a643 4ebd 4410 003e 7fdd 69bb
000002f0: cc9d 39bd 89f9 29bd 1715 273d f693 5bbe
00000300: 547d b8bd 0aa8 36be 6cd5 ebbe e133 27bc
00000310: 24d2 24be a7a1 c2bd 14be 41bc 0b9f 1e3e
00000320: 156b 153e 3e92 36bd b916 02be 9b70 723e
00000330: 26e4 99bd 4857 6dbd a5be cabd 7139 e53d
00000340: b692 13bb 13db 10bf dda0 903d 4ea0 6e3d
00000350: 4060 dabd 55fc 273e 7295 e23d 8941 263d
00000360: 79b2 193d 3e3a 513e d6ab bf3e 089d acbd
00000370: 7f46 2d3d 0179 5cbc 7e52 5cbe 62e8 013d
00000380: 1e96 5ebe dc17 853d 69df 83be b5d7 563c
00000390: 99b7 9bbc e31a 8cbc 80f0 193c 1d1a 7fbb
000003a0: 2242 4d3e 9c49 a93c b226 82bd fcef 1b3e
000003b0: 8c46 7bbd 9f80 1bbe 36fc 0dbd 6605 2e3d
000003c0: f2d0 89be 28d0 c1be 03cc b53d c336 ee3d
000003d0: 4e08 e63c e903 923d ba65 033e 0956 06be
000003e0: f03e 293d 0f7b 66be bcb2 3f3c 1e3e cfbe
000003f0: 1654 99be b90d 893c 088a 22bf da9c 6cbe
0.020524701 0.03300747 -0.08295192 0.14564997 0.06804881 -0.1133844 0.05104477 0.13104811
0.2099598 0.062501565 0.04856154 -0.020481998 -0.2869192 -0.02578418 -0.03807489 0.0048362305
-0.308111 -0.032875713 -0.0070920065 -0.10441516 0.17278364 -0.031665083 -0.08934058 0.023810932
0.027926866 -0.13820685 -0.08573004 -0.12885351 -0.04316287 0.26035392 0.064143844 0.123478256
-0.03597502 0.34177807 0.019692568 -0.085897855 -0.10368355 0.13765043 -0.058294836 0.06462275
-0.094667904 0.06793855 -0.032193173 0.032148026 0.0900234 -0.006358725 -0.032117374 0.1797324
-0.19040087 -0.0039861463 0.039901584 0.04487784 -0.265435 -0.19604895 -0.060740303 -0.1955606
0.083888315 0.061889347 -0.3377708 0.32515398 0.083805725 0.10223357 -0.14849956 -0.029113747
0.15027343 0.26298302 -0.012035028 0.19429687 0.030687777 -0.03056684 0.24048884 0.22402184
-0.121647306 0.008964268 -0.012589219 -0.18980464 -0.15013064 0.022756958 0.111269735 -0.18766138
0.026178163 0.12129037 0.048317388 0.08220951 -0.13995916 -0.03675991 -0.062023927 -0.28861248
0.0583111 0.019235313 -0.060865078 -0.013348166 -0.21105899 -0.08924169 -0.14692925 -0.05008037
-0.11911669 -0.21607803 0.24008393 0.14993864 -0.15511411 -0.15246883 -0.03971326 -0.108744085
0.19431835 -0.32400784 0.10409665 0.00020908883 0.37960374 -0.023813805 0.11111198 -0.067543976
-0.08146703 -0.021980917 0.07456384 -0.087537915 -0.13142982 -0.023257436 -0.010592391 -0.090630926
0.005996492 -0.041066393 0.01601928 -0.03246717 0.10405701 0.12842321 0.008173754 0.06109026
0.01614921 0.09557172 0.0015316925 -0.042701293 -0.049171142 0.024069855 0.09658267 -0.0014415759
0.01806048 0.011835634 -0.1469294 0.046596393 0.0068338756 -0.11266114 -0.3606287 -0.15286681
0.23537882 0.0038082334 0.026989905 0.13351834 -0.26612377 -0.0557924 0.092047356 -0.027359637
-0.061264895 0.05606441 -0.022207543 -0.28160805 -0.051337577 -0.089334756 0.093960986 -0.0535155
0.027061805 -0.39592516 -0.06398239 -0.25590834 -0.072133765 0.009598359 -0.5629657 0.046570502
-0.066595785 -0.06576581 -0.0047652773 0.047394354 -0.30838308 0.4399824 -0.054506235 -0.082356595
0.36904696 0.041857112 -0.08247901 0.011588644 0.257673 -0.086179495 0.13223836 0.08573201
0.47470108 -0.050357483 0.12506205 -0.0035685 -0.045316502 -0.04149774 0.040791597 -0.21443161
-0.090082794 -0.1783754 -0.46061265 -0.01020524 -0.16095787 -0.09503489 -0.011825103 0.15490358
0.1459163 -0.04457306 -0.1270398 0.23675768 -0.07514219 -0.057944566 -0.09899644 0.11192597
-0.0022517866 -0.5658428 0.07061932 0.058258347 -0.106628895 0.16404851 0.11063661 0.040589843
0.03752372 0.20432374 0.37435788 -0.08428389 0.04230356 -0.013456584 -0.21515843 0.03171576
-0.21736953 0.064986914 -0.25756386 0.013112952 -0.019008445 -0.017102664 0.009395719 -0.0038925477
0.20044759 0.020664982 -0.06355037 0.15228266 -0.061346576 -0.15185784 -0.034664355 0.042485617
-0.26917225 -0.37854123 0.08876803 0.11631539 0.028080132 0.07129652 0.12831774 -0.13118757
0.041319788 -0.2250788 0.011700328 -0.4047708 -0.29946965 0.016730176 -0.6349187 -0.23106709

action_model._discrete_distribution.branches.2.bias f4 [2]
00000000: 0a9a b53d 2d9a b5bd
0.08867271 -0.08867297

action_model._discrete_distribution.branches.3.weight f4 [2, 256]
00000000: bf43 d83d 7c9d 86bd ee11 a43d 3924 b73c
00000010: 8777 aa3c 326f 63be fe69 2d3e 4997 c0bb
00000020: 90b6 13be 6235 ec3d 2ff4 e0bd acd4 853e
00000030: e874 8fbe 03e6 033d caab 883e 8bdd 02be
00000040: cd4d d53c be5c 7a3d f92e 6a3e 7dbb e13d
00000050: 5bac 583d 5f46 f43d b11b 45be 53d3 6a3e
00000060: d2e4 a2bc 20e2 d4bd 082c 08bd 3f2e a63d
00000070: 4c22 0e3e e3cc 3fbe 5248 80be 278c 113e
00000080: b6b9 bc3c 48dd 27be e365 09be fe85 3d3d
00000090: c87a 693e e63e 7fbd 8b53 9cbd 4086 c3bc
000000a0: 98e5 b93d 605b 8bbd 9b6c b63e e366 c03c
000000b0: 8dfa bf3d c65d 95bd 956c 2abe ddca 1ebe
000000c0: 801d 71be 8224 25bd df67 bbbd 34a0 a73d
000000d0: 3f66 543e f767 3b3a 8379 a7bb 9452 83be
000000e0: b5ea 2cbe 4f06 cebc e110 913d 8f18 c4bc
000000f0: 0582 8b3d c3f3 e73d b944 b5bc b04e a73e
00000100: 2203 afbe 8b9e 83be fcf9 2e3c 68fa 203e
00000110: 8eac f2bd 8942 873e 291e 50be 0776 9b3d
00000120: b79c ee3c 3d6f b93d 73e3 01be c346 ac3d
00000130: ae61 52bd 9c54 6d3e e885 eebe 669f 34be
00000140: 1409 34bc 065d a4bc af8b a7bd b345 c93d
00000150: 3cb5 77be 4af0 65bd 2146 7b3d ce62 2dbc
00000160: 5e91 36be 7297 9a3e f2a5 fcbd 8d05 e23d
00000170: a7c9 b3be 2361 373d 6744 2b3c 6545 cd3e
00000180: c13c 2c3e feba a7bc 3a68 a53d d1d8 053e
00000190: dfc0 2e3e c7d8 313b 4b17 d5bb ce34 11be
000001a0: 832b 36bc a231 9b3c 2ee0 cf3c 7560 5c3e
000001b0: 15ba 813c 1485 00bd e53a 5ebe 9eed 403d
000001c0: 28b3 c5bd 8e29 2d3e 3f85 743e 95d7 88be
000001d0: 172e 993c 81e3 aebd 1e4e 66be f1f3 993d
000001e0: ec0c 58be e8ea e3bc c43b fb3e 484d 633c
000001f0: bacd 66bd d6e5 d23e 7143 86be 6552 93bd
00000200: 7f32 723d 161d 16be dae4 883c 418b 88bd
00000210: 4b70 9ebc b422 20be b9f3 ae3d 7555 adbd
00000220: e6cb 953d b1f5 76be f93b 9c3e 126c fa3d
00000230: 66ac f2bd ab38 413e 3fc7 65be 23cc f73d
00000240: 3225 0fbd 8c87 783d 4fb7 91bd 3cd6 d0bd
00000250: 22ed 19be a6e3 80be 3e39 14bd e357 793d
00000260: 5393 62be 9349 56bd 2499 4e3e 3d2f 35be
00000270: 0ebe acbd a125 8ebd b8a5 503d b428 553d
00000280: f3fe 153e 68c1 f93d 78df 27bd c791 c0be
00000290: 86d3 1dbe 5386 00be b591 4dbe d6bb 5ebe
000002a0: 3104 953c 7eb9 003c 72c5 143e c514 143e
000002b0: 0908 40be 083a 19bd 7de4 b9bb 5eac 2b3e
000002c0: d31d dcbd 3109 0d3e 9a60 acbd 423a 0a3d
000002d0: dee6 89bd c5ca 863d 0abc b53e 0325 58be
000002e0: 9a39 97bd 10bb 36bc 66e2 253e edf4 edbd
000002f0: 9095 823d a5f3 b5bc 967f 28bd 0d05 323c
00000300: c29a 433e 4505 cc3d 5c91 07be 56e8 c9bd
00000310: 2d0b 543e 9089 c2bd 8094 043e 6051 913d
00000320: 362b 033d 32fb 9cbc 88b9 1a3e 07a9 9abe
00000330: e2d5 f83d 8f3e ec3d 8c1d 203d 618b 473e
00000340: 9812 93be 01dc ee3d 213d 493e cbd0 dc3d
00000350: 322e 4f3e 44ea 15be 51f3 373c ada1 603c
00000360: 000c b9bd 69ed 6b3d 334c 433e a0ee 82be
00000370: 1c03 d13d 56a9 933e c988 e2bc 710c 413d
00000380: a27f 86be 08d7 0cbe 9244 76be 876e 623c
00000390: 6ee9 893d aefd 82bd eb61 813e 7734 0f3d
000003a0: c6c9 ea3d b3ab 3a3e 8bea d9bd 0b62 1f3e
000003b0: f784 823e 56de 78bc 8f9b a13d e863 b2bc
000003c0: 3497 9b3d 0487 b1be ce94 c03d 9796 babd
000003d0: 66f6 383e d488 ed3d 9123 5a3d c3ec b13e
000003e0: fc89 20bc 5dd8 263e a4d2 ab3d a567 2abd
000003f0: 0013 9cbe 3d92 1d3e 6773 913e ff91 78be
0.105597965 -0.065730065 0.08011232 0.02235614 0.020808948 -0.22210386 0.16934964 -0.0058774096
-0.14425111 0.115336195 -0.10984074 0.26138818 -0.2801888 0.03220178 0.26693565 -0.12779824
0.026038075 0.061123602 0.22869481 0.11022089 0.052898746 0.11927485 -0.19248845 0.22932176
-0.0198845 -0.103946924 -0.033245116 0.081142895 0.1388027 -0.18730502 -0.25055176 0.1421362
0.023037773 -0.16393006 -0.13417773 0.046270363 0.22800744 -0.062315844 -0.07633122 -0.023867726
0.09076995 -0.06804538 0.35629734 0.02348656 0.09373961 -0.072932765 -0.16642983 -0.15507074
-0.2354641 -0.04031802 -0.09150671 0.08184853 0.20742129 0.0007148976 -0.005110921 -0.2564894
-0.16886409 -0.025149493 0.070832975 -0.023937492 0.06811909 0.11325791 -0.022127496 0.3267722
-0.34182078 -0.25706896 0.010679718 0.15720522 -0.118493184 0.2641795 -0.20324005 0.07590871
0.029127462 0.0905442 -0.12684421 0.08411934 -0.051362686 0.23176807 -0.46586537 -0.1763893
-0.0109884925 -0.020063888 -0.081809394 0.09827747 -0.24190229 -0.05613736 0.061346177 -0.010582639
-0.1782889 0.3019367 -0.12336339 0.11036215 -0.35114786 0.04477037 0.01045332 0.40092006
0.16820051 -0.020474907 0.0807652 0.1307099 0.17065762 0.0027137266 -0.006503021 -0.141803
-0.011118772 0.018944565 0.025375452 0.2152117 0.015835801 -0.031376913 -0.21702154 0.04710161
-0.09653312 0.16910383 0.23878954 -0.26726976 0.018698735 -0.08539487 -0.22490737 0.07517231
-0.2109868 -0.027821973 0.49069035 0.013873406 -0.05634854 0.41190976 -0.2622333 -0.0719345
0.059130188 -0.14659533 0.016710687 -0.066671856 -0.019340655 -0.15638238 0.0854258 -0.08463565
0.07314281 -0.24117161 0.30514506 0.12227644 -0.11849289 0.18869273 -0.22439288 0.12099483
-0.03494758 0.060676143 -0.071150415 -0.10197112 -0.15031865 -0.25173682 -0.036187403 0.06087483
-0.22126512 -0.05231626 0.20175606 -0.17693801 -0.084346876 -0.06940771 0.05093929 0.05204077
0.14648037 0.121950924 -0.0409846 -0.3761122 -0.15412721 -0.1255124 -0.20075114 -0.21751341
0.018190475 0.007856725 0.14528444 0.14461048 -0.18753065 -0.03740886 -0.00567299 0.16764972
-0.10747876 0.13773037 -0.08416863 0.033746965 -0.067334875 0.06581644 0.35495025 -0.21107869
-0.073840335 -0.011152998 0.16199645 -0.116189815 0.06376183 -0.022210905 -0.0411373 0.010865462
0.19102004 0.099619426 -0.13239044 -0.09858768 0.20707388 -0.09498894 0.12947273 0.07095599
0.03202363 -0.019162748 0.15109837 -0.30207083 0.1215017 0.115353696 0.039090678 0.19486763
-0.28725123 0.11663056 0.19652225 0.107820116 0.20232466 -0.14640146 0.011227445 0.0137104215
-0.09035492 0.05759946 0.19072036 -0.2557268 0.10205671 0.2884013 -0.027653115 0.047131006
-0.2626925 -0.13753903 -0.24049595 0.013820297 0.06733976 -0.06396042 0.25270018 0.034962144
0.114642665 0.1822956 -0.10640439 0.15564744 0.2549207 -0.015189728 0.078909986 -0.021776155
0.07597199 -0.3467332 0.09403382 -0.09110754 0.18062744 0.115983635 0.053256575 0.34750947
-0.009798523 0.16293474 0.08389786 -0.04160275 -0.30483246 0.15387817 0.28408358 -0.24274443
