Assets/Onx/MoveAgent2D-6600052.onnx (onnx, 102003 bytes, 9 tensors)

discrete_act_size_vector f4 [1, 2]
00000000: 0000 4040 0000 0040
3.0 2.0

network_body._body_endoder.seq_layers.0.weight f4 [128, 50]
00000000: d5be 7f3f 6d86 07bf e5a1 07bf 98a2 cd3e
00000010: 3c01 04be 41c4 f9be e932 853e a513 4a3d
00000020: 4c20 4fbe 16c0 053e 9bcf aabe c5c0 083d
00000030: 7734 883e 53ed 4dbe 4793 28be 7541 193e
00000040: ca8f 2dbd 15c4 363e 9c7f 83be 846a a83d
00000050: b2d5 a63d 134e e33e 6ce1 253d e15e 523d
00000060: 3816 68bc 3839 5bbc da2e 513c dc52 09bd
00000070: da21 7fbe f4fe 173e f553 00bf 2bfd 23bb
00000080: e9ba 353d 5c2f 9d3d 25f7 abbc 08be 69be
00000090: 3045 7f3e b8c7 0dbe aa92 87bc 77e0 88be
000000a0: 1d13 a23e 3202 eebc 7ea1 e83d 126c 4b3e
000000b0: 6bba 2a3d efb9 b23d c205 41bf fd94 53be
000000c0: cbc6 103e 6c66 57bd c839 f53b a82f 20bc
000000d0: c3ba 27bd 1d42 8e3d 45ca f63c 23c6 01be
000000e0: 4a8b 55bc 8352 20be 62aa 18bc 2a4c f0bd
000000f0: d87d 1d3e 6647 a8bd ce7c 8bbe 7e90 a63e
00000100: e127 10bd 3a2d f93e e1a8 b2bd 2ff9 3dbe
00000110: 5677 a3bd 1b9c e7bd e44a 373e 120b 1ebe
00000120: 0a52 09bd eda4 18bd 8a39 443c 6c4c f53d
00000130: d0b4 81bd 5d97 00be d7e4 803c 156e a03c
00000140: 80d8 153e 2888 e2bc 7cc3 e53a ea74 d8be
00000150: 1b5b 203d 37bf 153e 7867 703e bc7c 8c3e
00000160: f13f 773d 2121 a4be 90c2 843d 1a55 1a3e
00000170: 02ff 943d 519f e7bd 531a 64bc e91f 0cbe
00000180: 04ee 3f3f 06eb 4b3d 8991 c7bd 1099 04be
00000190: 92f6 0e3f 993d 48be e200 9ebe 019c bf3d
000001a0: 4bf4 8cbe 2e32 76be fe31 4c3e c74a 89be
000001b0: ce6f 82be da57 203e 275f e6bd 7e0f 563d
000001c0: 9727 58bd 4308 85bd 39f6 a4be 0021 933d
000001d0: 2f16 62be d45d bebd e70f 9bbe 3e25 533d
000001e0: 13a1 ab3d a835 1b3e 7c5f 3e3e d253 40be
000001f0: 78cf 8a3e 071c 83be 46d1 1ebd b30c dbbd
00000200: dd46 7e3c 9fa5 18be 4724 293e 2220 7d3a
00000210: 8346 b2bd 6db2 8c3e 71b2 a6be 7851 3fbe
00000220: e2f7 cabe 7401 603e 5d1f 833e cfad 1ebe
00000230: 1f60 0e3e d414 32be 5da6 dc3b f7c9 473e
00000240: d0d6 04be ee99 a3bb 0ed8 d0be 25a1 13be
00000250: d65f 31bd d8a7 ad3d a285 be3e d75e 35be
00000260: e6ee 69be 7c5e 98be 9e5c 65be ae26 073e
00000270: 91e2 c7bb efaa c1be 2f1b 4fbe 4ea1 91be
00000280: 95dc 0a3c 750a 68bd 486e b3bd 91e2 6dbd
00000290: 3d57 8e3d 6291 51bd a2c2 bdbd e0ad 3438
000002a0: 96aa b6be ba93 1abe 7d7e 2ebe 1442 6abe
000002b0: 7e56 823d 35b5 f8bd a863 04bf 6cb4 743e
000002c0: a82b 133e a9d0 513d d946 21bd 7e8d 8a3d
000002d0: e4be 053f 3477 83be 9aae 2cbe 46f3 2ebf
000002e0: 8403 a53e 823e a83e 8c8a afbe 6327 063e
000002f0: 0d74 d0bd 912c 833d 6195 3dbe 2585 14be
00000300: 9ad4 553d 42cb 76be a385 9e3d 08a3 373e
00000310: 854e 8c3e e552 3fbd a916 10be 726e 583e
00000320: da09 6ebe 8ef5 a13c ae73 a4be 1eb6 b1bd
00000330: 1018 073d c0c8 5bbe 917b 41be b4e7 e6bd
00000340: dd82 693e 6b0b e5be 89d3 f0bd 48c2 c6bd
00000350: 3c45 6d3e ba9a f3bd 997e 70be 87ff bbbe
00000360: 362b 05be 09f6 43be 0686 343d 9f33 85be
00000370: 4357 9ebe a680 43bd f75b e2bd 6fb9 54be
00000380: 617a e9be 2e81 68bb ab04 77be e85e e23e
00000390: 6282 bebd c539 1abe 6b6f 7ebe e004 eabe
000003a0: d8ef 3cbe b669 52be 5985 bf3d b73a 78be
000003b0: 049e 74be d369 863e debd d03c d309 10bf
000003c0: 2245 8bbe 8023 1bbe fd3a 693e 8b06 bc3d
000003d0: 8b3b e7bc 4368 03bc 2893 7abf 69b1 5e3c
000003e0: 4cfb 523c 4be4 93be aa88 b6be 2e93 b63d
000003f0: 185b e9bd 0969 30bc 749f 16be b0c9 863d
0.9990056 -0.5293949 -0.52981406 0.40163112 -0.12891096 -0.48782542 0.26015404 0.04933514
-0.20227164 0.13061556 -0.33361515 0.033386964 0.26602527 -0.20110063 -0.16462432 0.14966376
-0.042373456 0.17848237 -0.25683296 0.08223441 0.08146228 0.44395503 0.040498182 0.051360015
-0.014165454 -0.013380341 0.012767518 -0.033526286 -0.24915257 0.1484335 -0.5012811 -0.0025022726
0.044367705 0.07675049 -0.020991871 -0.22826397 0.24928737 -0.13845718 -0.016549427 -0.26733753
0.31655207 -0.029053781 0.11358927 0.19865444 0.04168169 0.0872687 -0.7539941 -0.20662303
0.14138333 -0.05258791 0.0074836947 -0.009776987 -0.040949594 0.06946204 0.030125747 -0.1267324
-0.013033697 -0.15656476 -0.009317966 -0.11733277 0.15380037 -0.08216743 -0.27243656 0.32532114
-0.03519428 0.48667318 -0.08723617 -0.18552087 -0.07981746 -0.11309072 0.17899662 -0.1543391
-0.033525504 -0.03726666 0.011976609 0.11977467 -0.06333315 -0.1255774 0.01573412 0.019583741
0.1463337 -0.027652815 0.0017529572 -0.42276698 0.039149385 0.14623724 0.2347697 0.27438915
0.060363714 -0.32056525 0.06482422 0.15071526 0.072752014 -0.11309684 -0.013922292 -0.13684048
0.7497256 0.049784683 -0.097445555 -0.12949014 0.55844986 -0.19554748 -0.3086005 0.09355927
-0.2753013 -0.2404258 0.19940946 -0.26814863 -0.25475925 0.15658513 -0.112486176 0.05226087
-0.05277213 -0.064957164 -0.32219103 0.071840286 -0.22078775 -0.0929524 -0.3028557 0.05154919
0.08380332 0.15157187 0.18591112 -0.18781975 0.2711141 -0.2560732 -0.038773797 -0.106957816
0.015519825 -0.1490693 0.16517745 0.0009655972 -0.08704855 0.27479878 -0.32558015 -0.18683422
-0.39642245 0.21875554 0.25609866 -0.1549599 0.13903855 -0.17390758 0.0067336992 0.19510637
-0.1297257 -0.004992715 -0.40789837 -0.1441694 -0.043304287 0.08479279 0.3721133 -0.1771196
-0.22845039 -0.29759586 -0.22398612 0.13198349 -0.006100007 -0.37825724 -0.20225213 -0.28443378
0.008475442 -0.056650598 -0.08761269 -0.0580774 0.06950233 -0.05116404 -0.09265639 4.3077278e-05
-0.35677022 -0.15095416 -0.17040439 -0.2287677 0.06364153 -0.121439375 -0.51714563 0.2389695
0.14372122 0.051224384 -0.039374206 0.06765269 0.522444 -0.25676882 -0.1686348 -0.68339956
0.32229245 0.3286019 -0.3428539 0.13100962 -0.10178385 0.06404985 -0.18514015 -0.14503916
0.052204706 -0.24100974 0.07740333 0.17933285 0.27403656 -0.046709914 -0.14071144 0.21135882
-0.23245946 0.01977041 -0.32119507 -0.08677314 0.032981932 -0.21463299 -0.18894793 -0.112746626
0.22803827 -0.44735274 -0.11759097 -0.09705025 0.23170942 -0.11894746 -0.23485793 -0.3671839
-0.13004765 -0.19136824 0.044073127 -0.26015946 -0.3092595 -0.04773011 -0.11052697 -0.20773862
-0.4560118 -0.0035477388 -0.24122874 0.44213033 -0.09302212 -0.150611 -0.2484719 -0.45706844
-0.18450868 -0.20548138 0.09351606 -0.24241148 -0.23888403 0.26252612 0.02548116 -0.5626499
-0.27201182 -0.15150261 0.22776408 0.091809355 -0.028226634 -0.008020463 -0.9788079 0.013592103
0.012877297 -0.2888511 -0.3565114 0.08914791 -0.11394328 -0.01076723 -0.14709264 0.065814376

network_body._body_endoder.seq_layers.0.bias f4 [128]
00000000: 9878 d6bd 8d6e 2ebd 9a03 84bd 52a1 73bd
00000010: 3a8b 03be 0c43 10bd 0e85 22be d6ba 88bd
00000020: 981c d6bd fe31 3abd b9d2 09be 4c23 1bbd
00000030: a4dd 62bd 1cb7 5bbe ff40 dcbd d2d8 b13c
00000040: 0d67 91bc 15e0 abbd f0c7 20bb a4df 73bd
00000050: faa3 c5bd ea38 89bd 42fe f1bc e65d 833c
00000060: d3c0 54be 1461 9abd d36c a2bd 0eee d0bd
00000070: 680e 83bd 2cdf 0dbd e184 25bd 99e9 eebc
00000080: 3617 89bd cebd 65bd 2a03 a4bd 7b0a e6bd
00000090: 756c edbd 3910 6dbd b5cf 7dbc 75d2 87bd
000000a0: 636f adbd 4b66 70bc 2818 88bc ff3e ddbd
000000b0: a913 95bd 9420 ecbd 5713 b1bd 4963 e2bc
000000c0: 561a d53c 9c97 d1bb 46db 93bd cca0 08bd
000000d0: 57e4 7a3d a736 a33b 5600 e13b 9c5c 58bd
000000e0: 902f 97bd f72b 5e3d 4c6c 203d 1291 663c
000000f0: 0212 95bd 3711 b83d 6634 e93c 495e 9abd
00000100: 2985 09bd 406b dcbd df71 62bd 3ac7 bcbd
00000110: d6e7 61bd 94b5 0e3d d09c 0abd b334 8f3c
00000120: 48f7 b03c e06e 00be 95e7 1c3d ca12 14be
00000130: c807 04be 91cb 1cbe 26f0 abbc c358 e3bd
00000140: fd3e f4bd bc22 aabd 07b5 1cbd 0346 053d
00000150: e7c7 d0bd 1020 c1bc 78d2 33bd 5138 bdbc
00000160: 840b 84bd 58aa d3bd a68b 86bd a446 d13b
00000170: 6484 6abd 598a 03be 2708 3b3d ae31 dabc
00000180: 7148 cabd 6376 20be 4b9c 2cbd 25d1 28be
00000190: 06f8 68bb 9464 71bd 07fa 07be 396e 323d
000001a0: 7633 99bd 6e15 98bd 2747 cf3b 9ba5 01be
000001b0: e476 75bd baaf e3bc 7066 07be ebd8 e03c
000001c0: ccec dfbd 6279 e7bc c512 06be e593 e4bd
000001d0: e1df 15be 61b1 12bd 3c43 aa3d d113 77ba
000001e0: a5c2 8f3b 6d31 21be 100c b8bc 8bb5 c9bd
000001f0: 62ba 0bbe 995e dcbd a133 a0bd e570 6abc
-0.1047222 -0.0425859 -0.064459994 -0.05948002 -0.1284608 -0.03522019 -0.15871069 -0.06676261
-0.104546726 -0.045457833 -0.1345929 -0.03787546 -0.055387154 -0.2145657 -0.107545845 0.021709833
-0.017749334 -0.0839235 -0.0024533235 -0.059539452 -0.09650417 -0.067003086 -0.029540185 0.016035985
-0.20776682 -0.075380474 -0.07930913 -0.10201655 -0.06399232 -0.03463666 -0.040409926 -0.029164122
-0.0669388 -0.056089215 -0.08008416 -0.11232468 -0.11592952 -0.0578768 -0.015491416 -0.06631938
-0.08468511 -0.014672826 -0.016613081 -0.10803031 -0.072791405 -0.11529651 -0.08646267 -0.027635233
0.026013535 -0.006396247 -0.072195575 -0.033356473 0.061252918 0.0049808803 0.006866495 -0.052822694
-0.07382119 0.054241147 0.03916578 0.014072673 -0.07278825 0.089876585 0.028467368 -0.07537515
-0.033574257 -0.10762644 -0.055284377 -0.09217687 -0.055152737 0.034841135 -0.033840954 0.017481184
0.021602288 -0.12542295 0.03830679 -0.14460292 -0.12893593 -0.1531203 -0.020988535 -0.11100914
-0.119260766 -0.08307406 -0.03825858 0.03253747 -0.10194378 -0.023574859 -0.04390189 -0.023098143
-0.06447509 -0.10335225 -0.065696046 0.006386595 -0.057255164 -0.12845744 0.04566207 -0.026635017
-0.09877098 -0.15670161 -0.04214124 -0.16486032 -0.0035548224 -0.05893381 -0.13278972 0.043562148
-0.074805185 -0.074259624 0.0063256207 -0.1266083 -0.059927836 -0.027793754 -0.1322267 0.027447185
-0.10933837 -0.028256122 -0.13093098 -0.11161021 -0.14636184 -0.035813693 0.08313605 -0.0009425255
0.004387217 -0.1574151 -0.02246669 -0.0984908 -0.13645318 -0.107602306 -0.078223474 -0.014309143

network_body._body_endoder.seq_layers.2.weight f4 [128, 128]
00000000: a25a aebe 4bbf 26be 7ccf c63d d41b 89be
00000010: 44db a9be dfd1 7dbe 5932 fa3d 0133 c8be
00000020: 8ac3 8bbe 271b b5bc 1ef1 96bd 3057 24bd
00000030: 9203 a3bd 42b3 013e e368 853d aebb bdbd
00000040: a672 e4bd b430 97bd c6f2 383e ddae 7d3c
00000050: 65b9 d53c 2480 4bbe d21f b2be 9e8b 79be
00000060: 829e 8cbd 1267 72bd 7255 9fbd 8e76 66be
00000070: de3f 2fbc 6374 58be 6a9a b43d d8bd c4bd
00000080: f904 17be c337 b4bb e20b 543d fddb babd
00000090: 1ac4 1f3e 169e 5ebc 0154 57be 4385 543d
000000a0: e08f 0ebf 4778 033e ef63 53be 9896 d2bc
000000b0: 76b2 fdbd 2878 3a3d 2dfa ccbe 5194 abbc
000000c0: e62f e7bd f6e1 293e b870 efbd 0afc 82bd
000000d0: fd32 2a3d 342a 55be dcf2 abbd 5841 6d3d
000000e0: e598 4cbe e3b1 7abd acb0 733e e602 e3be
000000f0: 57fc 363e 6146 efbd 2e11 f83c 9b82 94bd
00000100: d5ad bfbd 96c8 5cbe 0956 8c3c 97d9 49bd
00000110: ae06 5f3c 6f3c 5ebc dd18 96be 0851 d43d
00000120: 3983 9ebe 76a1 2f3e 43d9 353d ca93 dabc
00000130: ae6b a3be f168 ffbd aaa4 30be 19ec 0e3e
00000140: eb4b 2dbe a7cf 9fbd 66e8 b3bd 30e4 88bd
00000150: a661 b13d d581 55be ba94 eebc 317b 0e3c
00000160: 7e3a f9bc ff99 3abe 5511 14be 0c5c acbd
00000170: dd16 6c3b b134 473e 0b4d 2bbc 05cc b2bd
00000180: 3c29 5a3c e971 53bd b2ef eabe 8ae4 38bb
00000190: 8da0 fbbd dd60 0b3e f619 1c3c 1827 e5be
000001a0: 3f6c 86bd 1a4e 263d d743 66bd eb22 52be
000001b0: 76a8 6cbe b52b c2be ff0f 733d fb92 843e
000001c0: 78d2 08bd 5d6e 3abc 1a34 99be df44 56be
000001d0: 8da6 22bd c658 a8bc 1aa4 29be ade9 1abe
000001e0: aa3f 2a3c 9057 fcbe 48d0 58bd 1bff dc3c
000001f0: bacd ae3d d327 083e 360e 073d 83f8 18be
00000200: a699 16be 76e8 f63d 72ec 333e da19 383e
00000210: 11e3 253d 6004 63be 01bc eebd af4b 5cbd
00000220: c10d f2bd 0225 7b3d d605 633d 1d06 3ebe
00000230: a1f2 0dbe 5212 83be 3d7c 7dbe 1936 c4bd
00000240: 1f4e 9a3d 2ad4 24be 1626 67be d6c6 01be
00000250: f865 933d 59f6 383d c421 82bd 0f77 343c
00000260: 48c8 2ebf ad2b 3b3b be93 d43d d293 f7bc
00000270: f3f5 05be 71a8 0bbd 9680 7fbe 43d2 1abe
00000280: 021b 973d 3cc3 76be 2587 e6be 7d54 853d
00000290: 3711 d2bc 0883 0cbf 488a a53d 0c35 b5bd
000002a0: 0bd8 993e b9ec 3f3d d86c 09be c14c 99bd
000002b0: 5bd1 6cbd 4e24 a7bc fffe 933e d4eb 00be
000002c0: 82e2 c4be bf2b d7bd bca4 5ebf cac1 a93d
000002d0: 5dd2 abbe ca99 9c3d 6193 e3be f992 c4bd
000002e0: b6ff 7dbe 7f8d 873d acc2 07bf d461 8e3d
000002f0: 85e7 853d ee3d f63d 17fa 37bd efd1 d0bc
00000300: ce8f 22bb 4fbc 12bf 670f 0e3e 6ccb 553e
00000310: 92db 3cbe 746d 93be cc83 073c 5da8 023e
00000320: a137 6cbd 0569 e1bd cce7 3abe 7743 643e
00000330: a717 efbd e7a2 82bd 3932 4cbe 2a31 363e
00000340: 6d8d a7ba 8158 84be 075d 49bd 7b07 6abd
00000350: 3a83 c63d 2775 adbd c3a1 2dbe 4f2c d43d
00000360: 4f59 303e 7e15 86bd bba5 3fbe b7a1 9f3d
00000370: 45f7 a8be d098 0f3e 31f1 3dbd ca47 ec3d
00000380: dcd1 54bc f4c3 cb3e 429f 55be 6eb7 8a3c
00000390: e172 803c f104 b7be 5c1c 2abe 7656 9ebd
000003a0: e8b8 9fbe 148c b0be 6079 19bc 31ce d1bd
000003b0: 7ead a53b bf86 c4bd 9610 b23d 7541 edbe
000003c0: bf57 78be 93a9 8fbe 0a1e 13bf 1b3d c4bd
000003d0: 37cd 0abe 52ca 95be fd2e 803d e6bb cfbb
000003e0: 7134 8dbe 39af 98bd 0e50 5cbc 85c4 9fbc
000003f0: a575 2a3d 7ea6 c8bd ddae 86bc c354 803a
-0.34053522 -0.1628391 0.09707543 -0.26779044 -0.331751 -0.2478709 0.12216634 -0.39101413
-0.27297622 -0.022107674 -0.07370208 -0.04012221 -0.07959665 0.12666038 0.06514146 -0.09264313
-0.1115468 -0.07382336 0.1806136 0.015483585 0.02608938 -0.198731 -0.34789902 -0.24369666
-0.068661705 -0.059180327 -0.07779969 -0.22506163 -0.0106963795 -0.21138148 0.08818515 -0.09606522
-0.1474799 -0.0054998114 0.051769145 -0.09123991 0.1560215 -0.013587495 -0.21028139 0.0518849
-0.55688286 0.12838851 -0.2064359 -0.025706574 -0.12387554 0.045524746 -0.4003462 -0.020944746
-0.11288433 0.16590104 -0.11691421 -0.06395729 0.041552532 -0.2081688 -0.08395931 0.057923645
-0.199802 -0.061204802 0.23797864 -0.4433815 0.17869698 -0.116833456 0.03028163 -0.072514735
-0.09359328 -0.21560892 0.017130869 -0.049279775 0.013612432 -0.013564213 -0.29315844 0.10367018
-0.3095949 0.17151436 0.04439665 -0.0266818 -0.3191809 -0.12471188 -0.17250314 0.13957252
-0.16923492 -0.078032784 -0.08784561 -0.06684148 0.08661203 -0.20850308 -0.029123653 0.008696363
-0.030423399 -0.18222807 -0.14459737 -0.08415994 0.003602437 0.19453694 -0.01045538 -0.0873032
0.013315495 -0.051622305 -0.45885998 -0.0028212392 -0.12286482 0.13611169 0.009527674 -0.4475639
-0.06563615 0.040601827 -0.05621704 -0.20521133 -0.23111138 -0.3792397 0.059341427 0.25893387
-0.033403844 -0.011378852 -0.29922563 -0.2092471 -0.039709616 -0.020550143 -0.16566506 -0.15128203
0.010391155 -0.49285555 -0.052933007 0.026977113 0.08535333 0.13296442 0.032972537 -0.1493855
-0.1470705 0.12056057 0.17570665 0.17978612 0.04049975 -0.22169638 -0.11656953 -0.053783115
-0.118190296 0.06131459 0.055425487 -0.1855702 -0.13862087 -0.25599915 -0.24754424 -0.09580631
0.07534432 -0.16096559 -0.22573122 -0.12673506 0.07197183 0.04515681 -0.063540965 0.011014714
-0.68274355 0.0028559968 0.10379742 -0.030221853 -0.13082103 -0.034096185 -0.24951395 -0.15119271
0.07378198 -0.24097914 -0.45024982 0.065102555 -0.025642974 -0.5488744 0.08083016 -0.088480085
0.3004764 0.046856616 -0.13420427 -0.07485343 -0.057816844 -0.020403054 0.28905484 -0.12589961
-0.38454062 -0.10506391 -0.86970115 0.082889155 -0.33558932 0.076465204 -0.4444838 -0.09598345
-0.24804577 0.06618785 -0.5303142 0.06952253 0.065382995 0.12023531 -0.04491624 -0.02549073
-0.0024804953 -0.57318586 0.13873063 0.2087838 -0.18443134 -0.28794444 0.008271169 0.12759538
-0.05767024 -0.11006359 -0.18252486 0.22291361 -0.11674433 -0.063787274 -0.19941033 0.17792192
-0.0012783237 -0.25848773 -0.049160983 -0.05713604 0.09692998 -0.08469611 -0.16956238 0.10360014
0.17221569 -0.06547068 -0.18715565 0.077945165 -0.33001152 0.14023137 -0.046372596 0.1153713
-0.0129894875 0.39797938 -0.20861533 0.01693317 0.015679779 -0.35745957 -0.1661238 -0.07731335
-0.3119576 -0.3448187 -0.009367317 -0.10244406 0.0050560823 -0.09596013 0.0869457 -0.46339002
-0.24252222 -0.28059062 -0.5746771 -0.095819674 -0.13554846 -0.2925592 0.06258962 -0.006339538
-0.27579072 -0.07455296 -0.013446821 -0.019502888 0.0416161 -0.09797381 -0.016440803 0.0009790886

network_body._body_endoder.seq_layers.2.bias f4 [128]
00000000: c923 cebd 1a8b 373d 9423 3dbd 4449 11be
00000010: eba3 8cbd 5bf9 963c e4f3 38be 5403 4abd
00000020: 3552 18be 5795 f2bc 36dc 7f3d b68d 0ebd
00000030: d593 c4bc 0bed e63d 9870 a7bb e9a3 94bd
00000040: 4ad1 c2bd 57ec fcbd ff4c babd 4659 04bd
00000050: 676a 43bd 7639 a6bd e389 aebc 03e9 5bbd
00000060: 27eb 1abc ad5e 25be eddb 84bc 6ebc 3bbd
00000070: 779e f6bd 6519 11bc 33f8 22be 0f3d a13d
00000080: 2e95 fdbd c9f0 58be 7ae8 84bd fef4 9abd
00000090: 7916 c4bd 17d5 02be 83d3 b6bd 560e 19bd
000000a0: 4ea9 9bbd 1b18 d3bd 7c08 533c bc36 84b8
000000b0: 224c c13c 4383 af3d b5c1 033d 7105 003d
000000c0: 49d0 df3a 821b 93bb 89bc 57bd f7e3 ad3c
000000d0: fd4e 6cbd 48e8 2e3c 98b1 00be 5f75 a3bd
000000e0: ebad 0fbe 80eb 4dbe 272c 8dbd 46dc 90bd
000000f0: 384c 173d e7d6 b8bd 4960 003d d6dd e4bc
00000100: c866 4a3d a9dc 8fbd f37e 083c d15e a5bd
00000110: 508a 24bc 9159 c9bd 352e 13be 9e3c c93c
00000120: c3bc 803d ca61 90be 6b80 42be 7c0d 0abe
00000130: e683 b2bd 603b 8e3d 1f9c 0abe f924 bdbd
00000140: d7ad 6a3d c297 a0bd f8a1 10be b6e9 93bb
00000150: f966 d6bd 6919 c13c 1841 523d c17f 96bd
00000160: 2513 463d c1a1 ca39 9fc2 9fbe 5fe9 bdbc
00000170: 5744 33bd 9743 c2bd da20 65bd d377 d53c
00000180: fe69 1ebe 6f24 72bd 0a11 9ebd 97ff 9abd
00000190: 899b fbbd ab5b dcbd a1fc d6ba d40e 523b
000001a0: b996 143d 264b 2abe 3f25 143d 83f2 1ebd
000001b0: 8cbe 90bc 8bf6 073e e178 63bc d232 aebd
000001c0: df21 47bd 8a63 2fbd dcf8 e7bd ec22 9ebd
000001d0: d149 a8bc 7f34 6cbd 9a6b 1fbb d8ee e7ba
000001e0: 6b74 bebd 0b97 31be d95b ba3d 0dd4 02bd
000001f0: e205 26bd 525e 68bd 6cb9 04be 5935 00bd
-0.10065419 0.044810392 -0.046176508 -0.14188105 -0.06867202 0.018429449 -0.18061787 -0.04931958
-0.1487511 -0.029612226 0.06246587 -0.034803115 -0.023996273 0.11275681 -0.005109858 -0.07257826
-0.09512575 -0.12349766 -0.09096717 -0.0323117 -0.047708895 -0.081164286 -0.021305984 -0.053689014
-0.009455479 -0.16149397 -0.01621815 -0.045833997 -0.120419435 -0.008856152 -0.15914993 0.07872974
-0.123819694 -0.21185602 -0.06489654 -0.0756626 -0.09574599 -0.127766 -0.089270614 -0.037367187
-0.07600652 -0.10307332 0.012880441 -6.3044456e-05 0.023595873 0.08569958 0.032167155 0.03125519
0.0017075624 -0.004489363 -0.052670036 0.021226866 -0.057692517 0.010675497 -0.12567747 -0.07981371
-0.14031188 -0.20109367 -0.06893187 -0.07073264 0.036937922 -0.09025364 0.031341825 -0.02793781
0.049414426 -0.070245095 0.008331048 -0.080747254 -0.010042742 -0.098315366 -0.14373095 0.024565037
0.062860034 -0.28199607 -0.189943 -0.13481706 -0.08716564 0.06944919 -0.13536118 -0.092355676
0.057294693 -0.078414455 -0.14124286 -0.0045139445 -0.10468859 0.023571687 0.05133161 -0.07348586
0.0483581 0.00038648958 -0.31203172 -0.02318257 -0.043766346 -0.09485548 -0.055939533 0.026058113
-0.1547012 -0.059116777 -0.07718094 -0.07568281 -0.12285525 -0.10759672 -0.0016402194 0.0032052295
0.036276553 -0.1663023 0.036168333 -0.038805496 -0.017668985 0.13277642 -0.0138838 -0.08505787
-0.048616286 -0.042819537 -0.11326763 -0.077215046 -0.02054301 -0.05766725 -0.002432561 -0.0017695082
-0.09299549 -0.17342775 0.0909955 -0.03194051 -0.040532954 -0.056730576 -0.12961358 -0.031300876

action_model._discrete_distribution.branches.0.weight f4 [3, 128]
00000000: d9ee 933d 0637 48bd 4613 77bd 37a4 3ebb
00000010: ec90 00be 6c8c 1b3e b8d6 183d 83ce 24be
00000020: 6d9c 15b9 1a72 88be c529 9c3c b7dc 823d
00000030: f225 873c 3c39 9a3d 3887 c73d ea51 38bd
00000040: 9982 e1bd 98ed 4abd 3030 8c3d 0455 30be
00000050: e366 993b 8dac 42be 322d 843d 0194 a83d
00000060: 25d8 35be ca07 6b3d 0b49 0f3d 861c 0ebc
00000070: 43f1 623d aca4 3b3e 964e 0cbd 6f3a ae3d
00000080: d2a6 febc 5275 dd3b 26c5 053c 24cd 543d
00000090: 0889 96be d99f a9bd dcfb 533c 1200 863d
000000a0: 5859 313e 9321 29be 7503 ca3c c4a5 0e3e
000000b0: 62c7 fd3a c2d0 95bc 70ef 4c3c 7db4 f33d
000000c0: 197c 9b3d b2d6 583d 51aa 0cbe 7b1e 2dbc
000000d0: 11b2 363d 30cf f1bd 5494 363c b105 783c
000000e0: 2754 ea3c 95c9 a03d 7502 933c f7f5 d5bc
000000f0: 84f6 4d3c 56b6 0abd ede8 10bd 007a bfbd
00000100: 1df0 cdbb fbbe 343d 5d15 5abc 6506 9e3d
00000110: 98c8 6ebd bfde d63c 17aa 943d 1ff1 26bc
00000120: 5282 1a3c 2813 313d 3094 6d3c aa1d b9bd
00000130: b764 8dbd def8 d3bc dbf2 c43c cdbc 46bd
00000140: 8d39 533c de1c 3c3d dae6 3d3c 5e0f b5bd
00000150: dae8 c13d 65cd 8e3d a4b5 f23b 507e ce3c
00000160: 86fe a6bd 07b4 a1bd 7c9c 6d3c c4e6 92bb
00000170: 1ef9 1cbd fbe4 30bb 627b e3bd abfe 233c
00000180: eca5 4cbe 4dcf e13d 4552 853d 6e59 d8bc
00000190: 9bb1 ca3c 6d89 713d 0890 7e3d e832 13be
000001a0: 3bac b73d 93a1 5b3d 9d90 80bd da19 cc3c
000001b0: d291 4b3c 5e4d 2e3d 3200 2e3d 3888 8abd
000001c0: f4eb 333d 2437 0cbc 8529 533d a147 293c
000001d0: 50f3 9ebd e1e2 37bd cb01 fd3c 07db 443d
000001e0: 70b9 9abd 94f5 333c 3733 f73c 91c0 953c
000001f0: fd04 0b3d 325c 40bd 1b80 e23d 8191 2bbd
00000200: 0093 58be c335 7b3e 4eeb 4dbb b824 d1bc
00000210: 804d 8e3d 6035 3fbe 277e 43be 9fb2 783e
00000220: faa9 5c3d 14cb 383d cda9 efbd 3d60 2f3d
00000230: 49e3 a6bc ea61 9d3d 6e05 e8bd 1ea9 1abe
00000240: a3d3 66bd 12a2 fb3d 04d7 e6bb f41a 033d
00000250: e47c c83d 5ac0 553e 1568 29be b0e3 af3d
00000260: f011 02be 3502 3a3d edd5 833d b964 02be
00000270: b938 5ebd b45f 033e 6f77 8e3c 0ac1 013e
00000280: 7918 b3bd b3f2 1abd 9bbc b43c 06a5 05be
00000290: 610b 083f a27d bb3e d582 09be dc43 e6bd
000002a0: b624 4ebe c748 883e 1fb8 4f3c e5b8 513d
000002b0: 2db9 ef3d 9e86 90bc 8628 833d 7eaf aa3c
000002c0: 2828 a73d 6051 bc3c bc1e 13be 47d0 b33c
000002d0: 0ced f63d a957 b83d 64ca b03c e254 95bd
000002e0: 3efc 12bd 9acf 7abe 84e8 1fbe 92aa 0dbe
000002f0: 06c7 a53d ed80 5fbe 2ebc 063d 301d 4d3e
00000300: b9f9 c13d 1c73 bcbc 7a76 163e dc2c 933d
00000310: ce6b 8e3c 3d5a 3dbc d265 c23d 5d22 db3d
00000320: a2d6 c13d 876b 9abc b8f1 3e3e 3a68 613e
00000330: 3320 133d 8106 3abe 21e8 b0bc 75e1 923d
00000340: 2db7 64bd 07ec 273e 89a8 eebd e919 d93d
00000350: b67b 673b 8c6a 25be 87a3 6fbd 37e4 8a3d
00000360: eb4c b5bd ce20 cabd b2b0 5fbd 2968 aebd
00000370: f756 76bc 8877 b0bd 2770 0a3e 128c e7bd
00000380: 9b09 c03e 5763 3dbe 69eb a7bc 518b abbd
00000390: a761 c7bd 1377 77bd 9ec8 cd3d 3c6c 6cbe
000003a0: f940 48be 4f8e 9b3d 0278 51be b8cb 043d
000003b0: 2a97 353e 2e65 ee3d e3a8 183c a457 793e
000003c0: e393 4e3d bca5 50bd aa88 6dbe 9e8c 92bd
000003d0: 400c 613d d600 a53c 26ff 8c3c fcfa f5bd
000003e0: dfb7 8fbc b76a d1bd 42a8 aa3d 4b97 ea3a
000003f0: f33b 6ebb 8c75 f63c 223e 5abd 7fa5 c5bb
0.07223291 -0.0488806 -0.060321115 -0.002908958 -0.12555283 0.15190285 0.037314147 -0.16094403
-0.0001426802 -0.26649553 0.019062886 0.06389754 0.016497586 0.07530448 0.09742588 -0.044999994
-0.11011238 -0.049542993 0.068451285 -0.17219931 0.0046814545 -0.19011135 0.06453933 0.082313545
-0.17758234 0.057380475 0.03498177 -0.008673793 0.055405866 0.18324536 -0.034254633 0.08507239
-0.031085405 0.0067583704 0.00816468 0.05195345 -0.29401422 -0.08282442 0.012938466 0.06542982
0.17319238 -0.16516714 0.024659852 0.13930422 0.0019361789 -0.01828802 0.012508258 0.1189966
0.07592029 0.052939124 -0.13736846 -0.010566349 0.04460341 -0.11807096 0.011143763 0.015138076
0.02860458 0.07850949 0.017945508 -0.026118262 0.012570981 -0.033865295 -0.035378385 -0.093494415
-0.0062847272 0.044127446 -0.013310757 0.077160634 -0.05829677 0.02622926 0.072590046 -0.010189324
0.009430485 0.04323116 0.014500663 -0.09038861 -0.069039755 -0.025875505 0.024041584 -0.0485199
0.012892139 0.045925967 0.011590684 -0.08840822 0.09468241 0.0697277 0.007406907 0.025206715
-0.08154015 -0.078956656 0.014502641 -0.004483076 -0.038323514 -0.0026991952 -0.11107518 0.010009448
-0.19985169 0.110258676 0.06509832 -0.02640983 0.024742892 0.05896895 0.062149078 -0.14374888
0.08968397 0.053620886 -0.06277583 0.02491467 0.012424903 0.04255425 0.042480655 -0.06764263
0.043926194 -0.008558068 0.051553268 0.010332019 -0.07761252 -0.044894103 0.030884644 0.048060443
-0.07554901 0.010983843 0.030175788 0.0182803 0.033940304 -0.046962924 0.110595904 -0.04188681
-0.21149826 0.24532227 -0.003142077 -0.025530204 0.06948376 -0.18672705 -0.19091092 0.24286889
0.05387304 0.045115545 -0.11702309 0.04281639 -0.02037205 0.07684691 -0.11329161 -0.15103576
-0.056354176 0.12286772 -0.007044675 0.032008126 0.09789446 0.20874158 -0.1654361 0.0858835
-0.12702155 0.04541226 0.064372875 -0.12733735 -0.054253314 0.12829477 0.017390935 0.12671295
-0.08744902 -0.037829112 0.02206259 -0.13051233 0.5314236 0.36619288 -0.13428815 -0.11243412
-0.20131192 0.26618025 0.012678175 0.05120172 0.11705241 -0.017642315 0.064042136 0.020835634
0.08161956 0.022988021 -0.14367193 0.0219499 0.12056932 0.09001095 0.021580882 -0.07291581
-0.03588509 -0.24493256 -0.15616041 -0.13834599 0.08094601 -0.21826525 0.032894306 0.20030665
0.09471459 -0.023004107 0.14693633 0.071862906 0.01738539 -0.011557159 0.09492077 0.10699914
0.09464766 -0.018850101 0.18646896 0.22012416 0.03591938 -0.18166544 -0.021595063 0.07171909
-0.055838753 0.16398631 -0.11653239 0.10600645 0.003532154 -0.16153926 -0.05850556 0.0678181
-0.088525616 -0.09869538 -0.05461187 -0.08515961 -0.0150353825 -0.08616549 0.13519345 -0.11306013
0.37507328 -0.18494926 -0.020497994 -0.08376182 -0.097354226 -0.060416292 0.1004803 -0.23088163
-0.19556035 0.075955026 -0.20455936 0.032420844 0.17733446 0.11640392 0.0093176095 0.24349838
0.050434005 -0.050939307 -0.23196664 -0.07155727 0.054943323 0.020142 0.017211508 -0.12010762
-0.017543731 -0.10225432 0.08332874 0.0017897872 -0.003635165 0.030085348 -0.05328191 -0.0060316916

action_model._discrete_distribution.branches.0.bias f4 [3]
00000000: c041 133d 86b4 e2bd aa8a 8b3d
0.035951376 -0.11069588 0.068135574

action_model._discrete_distribution.branches.1.weight f4 [2, 128]
00000000: 545b 823e 31cc 593d b308 65be 5193 43be
00000010: 7802 84be 0651 23bc de76 f5bc feb3 29be
00000020: 7743 71bd efc9 02bb f776 2639 8747 8bbd
00000030: 14e7 583e 3c8f a93d af9b eebc 4eb4 c4bc
00000040: 1a38 78bd c3f6 e93b fdaf acbe 333d 12bd
00000050: 1424 d13e 59a7 59bb c3eb 41be 01ff be3c
00000060: 30c4 79bc d8bd bbbe 97f8 89be 20e9 323e
00000070: 4e12 0fbd 8ece 2c3d 950a e43b 3c67 bf3d
00000080: 6436 1abd 42b9 2ebd b0d1 a13e 2c36 f5bc
00000090: fb6e 423b cfe9 47bd 90d6 00be 9b0d 073d
000000a0: 7532 9cbd 0083 423c d741 143e 9ed7 583e
000000b0: 1d1e 9d3c 4852 dc3e 3347 7c3d 4a02 703b
000000c0: 2293 063e 13a4 e73d d433 40bd 4590 0a3e
000000d0: 8d81 6a3e 82ce c7bd 80a8 bbbd af0f d8bd
000000e0: d9eb f8bc 8e8b 833c 888d 6dbd 6038 81be
000000f0: ba3d 213e 0aa7 f2bc c17f 883d acb1 35be
00000100: 2b31 233e 54fe 6f3c c589 b4be 1ee4 a83e
00000110: 5ac1 0a3e 099b 45bc cc33 74bd 9cf0 183e
00000120: 8326 b43e bb1a 853e 2ec0 e6be be3f 303c
00000130: b17d 2dbe 1365 2fbd 29a1 2abd d1d6 fe3d
00000140: 023a a23e 4b56 263d 4f10 ffbc ca09 0e3e
00000150: e4f7 efbd fd43 52be 7433 f23d c089 ebbd
00000160: 3a6c 9f3c c82c dd3d 7bae a839 ac76 653d
00000170: f83b 3d3d a0cd e7bd 1eba 87bd 2638 ec3e
00000180: eea1 19bd 0ec4 17be d5d0 b4bd 25a8 b2bd
00000190: d74c 07be b368 3fbe 16da 1c3e 17e1 853e
000001a0: a5b6 88bd ee32 3abd c93a bcbc 503b ddbd
000001b0: b989 eb3b c891 2d3d a417 203e 2a9e d73a
000001c0: 9a99 cd3e 8983 6cbd 8c18 0ebd 669e 003d
000001d0: 67d5 b73d c09f c2bd 78a9 e4bd a248 40be
000001e0: a833 9cbd eee4 c4bc d65f ed3d a184 523e
000001f0: baa5 ad3d 152b cebd 5845 7a3d a5da d9bd
00000200: df95 89be 284b 5fbd 8f56 643e 1701 3b3e
00000210: a384 803e b02b 40b6 4856 e63c ce20 193e
00000220: e4a4 673d 3e01 c13b 70e2 493c 2b14 8d3d
00000230: d4e9 4bbe fda6 a3bd 7f63 c23c 50d6 e93c
00000240: ef5b 2f3d 7465 82bb b08c b73e a88f d73c
00000250: 8494 d3be 744d 283b 63da 383e 2d4d 46bd
00000260: 0adb 3f3c de2a bb3e f1c5 873e 384c 37be
00000270: 2f90 193d 87f2 99bc 4de1 8c3b 6dec a8bd
00000280: 74bb ec3c a6e8 323d ded2 a6be 1f54 f23c
00000290: edac 54bb 2e31 453d f09a f03d 6e2e 6cbd
000002a0: 4013 a13d 209b 3ebc aae5 e5bd e609 67be
000002b0: 4a76 b8bc 6972 ddbe e875 29bd 34d7 a33b
000002c0: 72c9 f4bd 231c dcbd 5aa9 483d c12e fabd
000002d0: da51 7abe 7832 c33d 57f1 a73d 6b0c c23d
000002e0: 1f53 013d 78be 32bc 004c 643d ab65 783e
000002f0: 4c9f 1fbe 559d c73c e343 9ebd 2f49 2e3e
00000300: a442 2fbe 42b3 14bd 6901 b93e bdd8 a3be
00000310: 8581 08be e6df f63a 5f0b 863d 1a67 1bbe
00000320: beb7 b0be f066 80be 0432 d93e 61dd 18bc
00000330: 3acb 313e 8d16 3e3d be03 4d3d 9d04 efbd
00000340: cae6 9abe 3d35 bdbc b60f 283d 5191 11be
00000350: cc73 f73d 7629 5c3e 18b0 c0bd d1ae 013e
00000360: c427 10bd 4763 c2bd 2500 debb 3abc 91bd
00000370: eefd 89bd 967c 013e a24e 5d3d 29e8 f2be
00000380: d1e9 593d e6b0 f83d ba34 d73d 4a91 df3d
00000390: dbb5 053e 537a 443e b673 1bbe 8c7a 82be
000003a0: 5364 af3d bd56 043d 54ec 033d 42b1 083e
000003b0: 75f7 683c ded5 3cbd 0c8e 12be 459a 873b
000003c0: 9b34 d2be 35df 933d 7ee6 d63c 4c4d 25bc
000003d0: 975d ccbd 4fdf c53d 4f9e af3d a68f 233e
000003e0: 95fc a43d c591 de3c 22cb d1bd cc82 44be
000003f0: 55a0 d9bd 424a bb3d a01d 4cbd 2c9f c93d
0.25460303 0.053173248 -0.223666 -0.19099165 -0.25783134 -0.009968048 -0.029963907 -0.16572568
-0.05890223 -0.0019956788 0.00015875312 -0.06800752 0.211819 0.08279273 -0.02912697 -0.024011757
-0.060600378 0.007140012 -0.33728018 -0.035702895 0.40847838 -0.003321132 -0.18937592 0.023314955
-0.015244529 -0.36668277 -0.26947471 0.17471743 -0.034929566 0.042189173 0.0069592693 0.09345862
-0.037649527 -0.042657144 0.3160529 -0.029933058 0.00296682 -0.04880696 -0.12581849 0.03297196
-0.076268114 0.011872053 0.14478241 0.21176001 0.019179398 0.43031526 0.06159134 0.0036622458
0.13142064 0.113105915 -0.046924427 0.13531597 0.22900982 -0.09756185 -0.09162998 -0.105498664
-0.030385898 0.016057756 -0.057996303 -0.25238323 0.15746203 -0.029620666 0.06664992 -0.17743558
0.15936725 0.014648039 -0.3526136 0.3298654 0.1355032 -0.012060889 -0.05961971 0.14935535
0.35185632 0.25996956 -0.45068496 0.010757385 -0.16942479 -0.042821 -0.0416576 0.12443317
0.3168488 0.04060964 -0.031135706 0.13870922 -0.11717203 -0.20533748 0.1182622 -0.11500883
0.019460786 0.10799557 0.00032173455 0.056021377 0.04619977 -0.11318517 -0.06627296 0.46136588
-0.037507944 -0.14820883 -0.08828894 -0.08723477 -0.13212906 -0.18692283 0.15317568 0.26148292
-0.06675462 -0.045458727 -0.02297725 -0.108023286 0.0071880487 0.042375356 0.15634018 0.0016450335
0.4015625 -0.05774263 -0.03469138 0.03140106 0.0897625 -0.09503126 -0.11165136 -0.18777707
-0.0762704 -0.024034943 0.11590545 0.20558406 0.084788755 -0.10066811 0.061101288 -0.10637406
-0.26872155 -0.054515034 0.22298644 0.18262134 0.25101194 -2.863566e-06 0.028117314 0.1495392
0.056553736 0.0058900407 0.012322053 0.06888612 -0.19913417 -0.07990835 0.023729084 0.028544575
0.042812284 -0.0039793793 0.35849524 0.026313618 -0.41324246 0.0025680931 0.18052058 -0.048413444
0.011709938 0.36556143 0.26518205 -0.17900169 0.03749102 -0.018792404 0.004299319 -0.0824822
0.028897978 0.043678902 -0.32582754 0.029581128 -0.0032451705 0.048142605 0.11748302 -0.057661466
0.07865 -0.011633664 -0.112254456 -0.2256237 -0.022517342 -0.4325135 -0.04137221 0.0050000194
-0.11952485 -0.10747554 0.04898963 -0.12215949 -0.24445286 0.095311105 0.08200329 0.09475025
0.03157341 -0.010909669 0.05573654 0.24257533 -0.1558811 0.024367014 -0.07727792 0.17020105
-0.17115265 -0.036303766 0.36133888 -0.32001296 -0.13330658 0.0018835037 0.065451376 -0.15176049
-0.34515184 -0.25078535 0.4242097 -0.009330125 0.17362681 0.046408225 0.050052397 -0.11670802
-0.30254203 -0.023096675 0.041030608 -0.1421559 0.120826334 0.21500191 -0.09408587 0.12664343
-0.035194173 -0.09491592 -0.0067749196 -0.071159795 -0.06737886 0.12645182 0.05403007 -0.4744275
0.0532015 0.12143116 0.10508104 0.109163836 0.13057654 0.19187288 -0.15180859 -0.2548412
0.08564057 0.032309283 0.032207802 0.13348868 0.014219155 -0.046102397 -0.14311999 0.0041382634
-0.4105576 0.07220308 0.026232954 -0.01008923 -0.09978788 0.09661733 0.08575117 0.15972766
0.08055989 0.027169118 -0.10243823 -0.1919052 -0.10626284 0.09145023 -0.04983294 0.09844813

action_model._discrete_distribution.branches.1.bias f4 [2]
00000000: 6c63 e53c 7f63 e5bc
0.02800151 -0.028001545
