Assets/Onx/MoveAgent2D-1300036.onnx (onnx, 78886 bytes, 9 tensors)

discrete_act_size_vector f4 [1, 2]
00000000: 0000 4040 0000 0040
3.0 2.0

network_body._body_endoder.seq_layers.0.weight f4 [128, 5]
00000000: 3bb8 2bbf f3c0 4dbf b18c 0ebd 131c 26be
00000010: b40d 423f 2a86 88bc 91b3 c2be e1b6 42bf
00000020: 090f 873e dce2 383f 7e5c 21bf 2b1f 513e
00000030: b8b2 373d 21cc 8bbe 81ae eb3e 66b4 a9be
00000040: 185f 293f d199 8bbe 8a81 393d 98a4 173f
00000050: 7d9d 4e3e 0687 5b3e 3fd2 15bf 7701 89bd
00000060: 094a a13e bc50 653e 46ce 193e 9113 373f
00000070: f0df 973e 20ec ec3e 594b 983e afd8 e93e
00000080: 0d84 a93d d37d cdbe e87e 74be 1448 8038
00000090: 05a4 8cbe dcf9 e7bd 301b 05bf 5b49 13bd
000000a0: 9341 5dbe 4a22 0d3f 8684 57be 38e1 a43e
000000b0: f95b fcbe 3720 753f efbb 49bf 2d28 49bf
000000c0: 2d4e 0d3e 07c3 823c 9751 71be 6356 99be
000000d0: 74b9 29bf 511e e4bd 3881 d73e 187a b4be
000000e0: 8b7c 0c3d 43d8 6c3e 799d 4fbe 7951 e23e
000000f0: da84 a9be 1767 fd3e 56a1 31be bc81 0d3d
00000100: c02f 0dbe 2114 84bd e407 4e3f 53d7 ab3e
00000110: 547b 41bd 5d8e 683d 98ac 8b3d c823 6bbb
00000120: af62 47bf 038e 583e e075 213d 6303 3b3f
00000130: 33e3 403e 7e6d 46bd 8798 04bd b610 d73d
00000140: 14ae a93e 5a8e 2dbf 4569 84be 1e98 bbbe
00000150: 6e27 a83c f639 403c c1fa fe3e a017 52bf
00000160: b620 ce3c f476 66bd ea06 a5bd 6072 05bf
00000170: 1891 33bf a62c ab3e 2e70 08be bdd3 533f
00000180: 60d5 293f be93 1b3f a2da 0d3f e90e 41be
00000190: b6d1 ab3d 71ca 20bf ccf2 dfbd 9000 273d
000001a0: 1896 f63e 2777 083f ea7a 26bf 925a 053f
000001b0: 779d b43e 299a 34bf 9026 ecbe d3b3 4d3f
000001c0: 2d25 caba 9c74 77bf cbbf 89be 3538 92be
000001d0: 2418 8abd 0725 80be 04aa 2c3f 5803 933e
000001e0: eee0 2d3e 479b 523f 95a3 40be ad70 c7be
000001f0: ef18 bdbf c924 923e 1ffa aabf 0c75 563f
00000200: 7057 debd 50bb 793e 8eab 163d 4800 87be
00000210: a901 7f3c 9049 39bf a7e9 5b3e d2b8 0ebd
00000220: 8c92 20bf 5fc4 63be ba28 82bd e5b9 ddbe
00000230: 8834 15bf 3e9f 5bbe d11b b3be 62a0 5cbf
00000240: 9944 6b3f 4a73 b63c afeb fabe 7bfa 263f
00000250: d724 24bf bf2c 133f d900 9e3d 4fbe c23d
00000260: 28c4 523e d535 413f 137d 7b3e 2090 0ebe
00000270: 95cd 52bd 5c92 463f b3e7 babe bdae 81be
00000280: e2a2 763f 5970 a03e d4a3 89bf d5cb f83e
00000290: 98e9 da3e 9d3e 0c3f 4207 01bd 77e6 20be
000002a0: c15a 54be be0e 0cbf 7781 773f 8afa df3e
000002b0: 5d11 15bf 21cd 61be a078 cabe 36d3 e8be
000002c0: e83d 24bf 5800 eabd bc5d 403f cf80 8bbd
000002d0: cb36 e4be 9af2 783d 48cf 153f 9731 e13b
000002e0: 6a6e debd 792b 93bd 2379 6bbe 0b90 b63e
000002f0: 4af2 d7bd 0c46 08be 95fe a6bd 4d8e 6a3e
00000300: 574c 183f ca7c 093e 1d21 b9bd 9554 9b3e
00000310: acfc 1ebe a56b 293f 65a2 b3be f5b7 0dbe
00000320: ba79 b23e bf31 f8be b29c f5bd 8dc3 eb3d
00000330: 0b08 acbe e116 3e3f 89c6 403d c788 40bc
00000340: 516f 403f ac4e 32bf fe4a d13e 6708 203e
00000350: 072c d63e 4b22 bc3d eee0 d8be 0d24 303e
00000360: 2b01 4ebe baa2 f8be c329 15be 9e7c 783e
00000370: 5baa 063f 92aa 68be c58a 2fbf 4131 cf3e
00000380: 0a3a 23bd 3271 b33d c5ad 1dbe d527 2b3e
00000390: a60d bd3c c4d9 523e 1872 1b3f 9e73 323f
000003a0: 7f85 963e b113 093f 93b5 17bf 1ea6 c83d
000003b0: 0c66 6d3e b026 10bf 240b dc3d da8f f1be
000003c0: 8bb4 9ebe 30f0 7fbd b38b 5e3b 728a 48bf
000003d0: 219f 173e a4b7 73be 05fc bcbe 5f8a cdbd
000003e0: 2703 203f bb0b da3d e12a fbbe 9dcb b7be
000003f0: 960a d1bd 4717 9d3e b902 9dbd 6f4f 0a3e
-0.6707799 -0.8037254 -0.034802143 -0.16221647 0.7580216 -0.016665537 -0.38027623 -0.760603
0.26378658 0.7222116 -0.63031757 0.20422046 0.044848174 -0.27304175 0.46031573 -0.33145446
0.66160727 -0.2726579 0.045289554 0.59235525 0.20177265 0.21438226 -0.58523935 -0.066897325
0.31501797 0.22394079 0.15020093 0.7151423 0.29663038 0.462739 0.29744986 0.4567313
0.0827714 -0.4013506 -0.23876536 6.116941e-05 -0.27468887 -0.11326954 -0.5199461 -0.03595863
-0.21607046 0.55130446 -0.21046647 0.32203078 -0.4928892 0.9575228 -0.7880239 -0.7857693
0.13799353 0.015962137 -0.2356628 -0.2994872 -0.66298604 -0.11138595 0.42090774 -0.352494
0.03429846 0.23129372 -0.20274915 0.44202784 -0.3310917 0.49492714 -0.17346701 0.034547552
-0.13787746 -0.06449152 0.8048079 0.33562717 -0.047236755 0.056776393 0.06820029 -0.0035879482
-0.77884954 0.21147923 0.039419055 0.7305204 0.1883667 -0.048444264 -0.032372024 0.10501234
0.33140624 -0.67795336 -0.25861564 -0.36639494 0.020526614 0.011732569 0.49800685 -0.820673
0.025162082 -0.056265786 -0.080579594 -0.5212765 -0.7014327 0.33432502 -0.13324043 0.8274496
0.6634121 0.6077231 0.5541173 -0.18853344 0.083896086 -0.628089 -0.10934982 0.04077202
0.48161387 0.5330681 -0.650313 0.52091324 0.35276386 -0.7054773 -0.4612317 0.80352515
-0.0015422456 -0.96662307 -0.2690414 -0.28558508 -0.06742886 -0.2502825 0.67446923 0.2871349
0.16980335 0.82268184 -0.18812402 -0.38953152 -1.4773234 0.2854369 -1.3357581 0.8377235
-0.10856521 0.2438786 0.0367847 -0.26367402 0.015564361 -0.7237787 0.2147585 -0.034844227
-0.6272361 -0.22242878 -0.06355424 -0.4330589 -0.5828328 -0.21447465 -0.3498216 -0.86182225
0.91901547 0.022271771 -0.49007937 0.6522595 -0.64118713 0.5749015 0.077150054 0.09508955
0.2058264 0.75472766 0.24559431 -0.13922167 -0.05146559 0.77567077 -0.36504897 -0.25328627
0.9634229 0.31335714 -1.0753121 0.48593011 0.42756343 0.5478304 -0.031501062 -0.15712915
-0.20737745 -0.54709995 0.9668192 0.43745834 -0.5822962 -0.22050907 -0.39545155 -0.4547364
-0.6415696 -0.11425847 0.7514303 -0.06811678 -0.44573054 0.060778238 0.5851941 0.0068723666
-0.108609036 -0.07186026 -0.22995429 0.3565677 -0.1054426 -0.13307971 -0.081540264 0.22905846
0.59491485 0.1342651 -0.09039519 0.30337968 -0.15526074 0.6617988 -0.35084835 -0.13839705
0.34858495 -0.48475453 -0.11992778 0.11511908 -0.33599886 0.7425366 0.047064338 -0.01175136
0.75169855 -0.69651294 0.40877527 0.15628205 0.41830465 0.09186228 -0.42359108 0.17201252
-0.20117633 -0.4856165 -0.14566712 0.24266288 0.5260369 -0.22721317 -0.6857112 0.40467265
-0.039850272 0.08761825 -0.15398319 0.16714413 0.023077797 0.20590883 0.6072097 0.6970767
0.29398724 0.5354567 -0.59261435 0.09797309 0.23183459 -0.5630903 0.107443124 -0.47180063
-0.30997118 -0.06248492 0.003395778 -0.7833625 0.14806797 -0.23800522 -0.36911026 -0.10036158
0.6250481 0.10646769 -0.49056152 -0.35897532 -0.10207097 0.30681822 -0.07666535 0.13506864

network_body._body_endoder.seq_layers.0.bias f4 [128]
00000000: e498 3a3d 8de1 813d c993 db3c 15eb 263d
00000010: 4d95 173c b6b4 abbc eacc 15bd 9245 343c
00000020: 37a0 1e3d 5632 63bc c0bf 13bd dd62 a4bc
00000030: 5ffd b53d 4b64 aabb cb98 29bc 0b1d 59bc
00000040: 2bef b4bc d6e0 38bc fbbe 7b3d a415 203b
00000050: 2608 323d a809 88bb 56e3 cd3b 369e 183d
00000060: ab31 463d 9710 d53c a89a 813c 40e4 debb
00000070: 60f2 20ba 282a a43c 427f 103b fab3 053d
00000080: c6db 523c 6dc5 60bc 52db 34bc 5bd3 743d
00000090: e199 2f3a aa2a 29bb 9898 233d f634 953d
000000a0: 654a b23c 9b4a c7bc 6803 0c3c 4a0f 833d
000000b0: 33da 0a3c 6636 16bd ce58 0cbc 2c7c 25bc
000000c0: 03a1 3cbd 8304 ab3c dbe3 543a 2788 44bd
000000d0: 6029 3bbb 9b80 cd3c 572f f23c 873b d2bb
000000e0: 2f4f 013a 724a 70bc 096c 08bc 0b34 3ebd
000000f0: db0d ad3c 7e8d 2f3d de10 3b3d 5138 eabc
00000100: b159 ffbc df20 17bd c04d 073d 2cdd 19bb
00000110: dc7e 79bc e441 c6bc fe3b 96bc 8ba5 c73b
00000120: 8b03 a1bb f00b 56bd 4da6 e3bc 8e1d e13c
00000130: bea4 cf3c c621 513c 4ac8 893c ffb1 97bc
00000140: eb55 fd3b 5b54 88bd dba0 b83c d080 2b3c
00000150: bb52 733c 71f6 be3b 5f96 0dbc bd95 883c
00000160: e17f ad3b 97c0 9c3c 2738 8e3d a5b9 1c3d
00000170: d134 613d fe42 1d3d 8467 2d3d 5621 0b3d
00000180: 5539 15bd 538c 433c f919 583d b4b6 733c
00000190: 425a 563b 04d4 b5bc 03a7 4f3c 8da7 d83c
000001a0: 16c9 0e3d d7be 0c3d e070 fa3c b1ff 5cbd
000001b0: ea67 453d 58a3 293d 9bf9 3b3d 89f1 08bc
000001c0: 052b 36bc bd7c f23c bf41 f1bb c897 42bd
000001d0: 47bc 823c cb82 bf3b 8226 073b 9bb3 56bc
000001e0: fdce 893a d4f6 603c 38e9 243d 403e ef39
000001f0: a715 a73c eebb 2cbc 8f12 543c 0232 883d
0.045555964 0.063418485 0.026803868 0.040751535 0.009251905 -0.020960193 -0.036572374 0.011002915
0.03872701 -0.0138669815 -0.03607154 -0.020066673 0.08886217 -0.005199944 -0.01035137 -0.013251553
-0.0220867 -0.011284074 0.06146143 0.0024426961 0.043464802 -0.0041515417 0.006283204 0.037260257
0.04838721 0.026008887 0.015820816 -0.006802112 -0.00061396323 0.020039633 0.0022048508 0.032642342
0.012869781 -0.013718945 -0.011038618 0.059771877 0.000669865 -0.0025812783 0.039940447 0.07285492
0.02176399 -0.024327567 0.008545734 0.063994005 0.008474874 -0.036672972 -0.008566095 -0.010100406
-0.04605199 0.020876175 0.00081211113 -0.047981407 -0.0028558597 0.025085738 0.029563589 -0.0064157876
0.0004932759 -0.014666187 -0.008326539 -0.04643635 0.02112477 0.042859547 0.045670383 -0.028591307
-0.031170698 -0.036896583 0.033033133 -0.0023477776 -0.015228 -0.024201341 -0.018339153 0.0060927323
-0.0049137524 -0.05225748 -0.02778926 0.027479913 0.02534711 0.0127644 0.016819138 -0.018517492
0.0077311895 -0.066567145 0.02253764 0.010467723 0.014851267 0.005827718 -0.008641808 0.016672963
0.0052947854 0.019134803 0.06944304 0.038262982 0.05498201 0.038393967 0.04233505 0.03396734
-0.03643163 0.011935311 0.052759144 0.014875103 0.0032707606 -0.022195823 0.012674096 0.026447082
0.03485974 0.034361687 0.030571401 -0.053954784 0.048194803 0.041415542 0.04589234 -0.008358368
-0.011118655 0.029600495 -0.007362574 -0.04750803 0.015958918 0.005844449 0.0020622318 -0.013104345
0.0010513958 0.013730723 0.040261477 0.00045632012 0.020396067 -0.010542853 0.012943878 0.06650163

network_body._body_endoder.seq_layers.2.weight f4 [128, 128]
00000000: a1c8 45bd 548d 15bd 5e52 90bd 8d65 0abd
00000010: 4945 3a38 73d5 ad3c 0cd9 e53c 60e5 2e3a
00000020: 7967 b1bc ad92 723d 388b e7bd af3f ed3d
00000030: 9f75 abbd 5614 8dbd 12bd b53c 61ae 643d
00000040: 7c9d 02bd 1e71 033e fa6c 82bc 4e3d 8e3b
00000050: edc9 893c 0ad4 9bbd 29eb 88bc 24bb e2bd
00000060: ffda d63b faeb 623d eeef 5e3d e5d9 573d
00000070: f748 bcbb 83a1 d1bc 0e16 3d3b 8292 e1bc
00000080: b7b9 1c3d b712 2abd b752 b2bd c020 3cbd
00000090: dda1 8fbd ca86 07be 7ea6 a43c d7be e73d
000000a0: 08b7 c93d 8ec9 c43d 483f 073e 1685 963b
000000b0: 769f 7d3e 4c1b e63c 824d 32be d600 6e3b
000000c0: 9c04 d33d 226f b13d 7e45 ba3c dce8 903d
000000d0: b40d a73c ac57 183d 2b92 5abd 95bd 29be
000000e0: 7265 f0bd adb7 0c3e 570f 803c 44af 003e
000000f0: 64ae 063c 0707 8dbe 847f 323c 9ebc 993d
00000100: 9fb7 de3d 40b5 713d 5b73 0f3b 4384 30bd
00000110: 25cd 3f3d 4371 55be 6517 de3d 3104 023e
00000120: cbfc 3f3d 7bb6 1b3d 1874 823e 76cd fabd
00000130: b1e7 9b3d e726 953c 2bde 2ebe c119 f63c
00000140: fced f83d e4ea 993d e970 59bd 598c c03d
00000150: e098 e03b f5be 263d 5332 bdbb 2205 473e
00000160: 4a46 b43d b4b3 2ebd 56c8 c8bb 1cef 28bb
00000170: 462a cc3d 6137 99bd de78 3fbc 5566 3ebe
00000180: 6a58 efbd 9583 6c3d e33e 1b3e fcb9 9d3d
00000190: b6ae b3bc a184 0dbe 69f7 9bbd f45b f4bd
000001a0: aaf9 773c 9f6e 283d b031 6f3d 6db2 1fbe
000001b0: 0d6c f93d 2930 cebd 3a45 96bd 43c0 063e
000001c0: a542 bc3d f70c c738 3a8c acbd 3aa8 c0bd
000001d0: 73da 7ebd fabd 163d 1f93 28bd 0d5b ac3d
000001e0: fa28 64bd c26a 8ebd 335b 6f3d be09 633d
000001f0: 26b7 e23d 9249 3c3e 0759 8c3d 815b 3bbe
00000200: 2760 2dbc 7477 08be 8022 b63d 4ffa d7bd
00000210: 27d5 bfbd f3fa a3bd 7056 2e3d 7462 c1bd
00000220: 9e7c 81bd f97d c7bc 4f31 133d 5b61 f1bc
00000230: afe2 d53c ab9c f2bd ba4c 363d 455e 17bb
00000240: 9d19 c2bd 98f6 d7bd 048f 933c 2498 89bc
00000250: df29 26bd 5150 9cbc 85bd d43b 7c04 873d
00000260: 6430 a43c dc41 173e f946 98bc 02f8 c8bc
00000270: f9ee f0bd f193 a1bc e798 ec38 52f4 edbc
00000280: 18ce dfbd ca6e 3f3e 63b2 98bc 49cf 0dbc
00000290: 61e6 e1bc 34b2 6d3d d9a4 80bd cd13 213d
000002a0: 14ff 9d3d 125a 433d e396 b7bd dfe4 96bd
000002b0: df8c fa3c 488e 48bd 1741 353d a95d 263e
000002c0: 3746 213d a86e aa3a c15d 273d 82e3 b7ba
000002d0: 6ce8 2e3e 4335 083c da34 ab3d b7ac 22be
000002e0: 528b cdbc 2eef ba3c dea0 0ebd 85b7 d93d
000002f0: 1918 cdbd 2c10 163d 1e78 953c 8c09 bbbd
00000300: 9061 f4bc 1a4b 8f3c 82dd 463d 6be8 773d
00000310: 33b7 b5bd 8ee8 af3d 7b30 733d e3c7 823e
00000320: 71e8 5fbd 6e6c 00be 14dd d8bd 5813 d5bd
00000330: de32 eebc a620 9ebc 97a4 6bbc fe17 c6bc
00000340: c5df b03d f64d b4bd 52e6 213d 023e db3d
00000350: 4378 20bd bf1f b8bd 4323 68bd c1a6 abbd
00000360: 94b9 4f3d e918 1bbd 5f77 d6bc da39 5cbd
00000370: 83cc 68bd 9be1 06bc 9b68 ffbd 35a6 04be
00000380: 0bef 023e eaae aebd 7535 3fbc 4755 d33a
00000390: 02ec 26be aa2b 01be 2553 0f3e 9ff9 1ebd
000003a0: 0187 a5bd 0fec c73d c22e abbd be3d 95bc
000003b0: f7e7 e4bd c907 7cbd 707b f4bc e06d 2a3e
000003c0: a273 5b3d 0458 123d 4539 293e efb1 d6bc
000003d0: 3061 01bc ad19 c9bc 0b96 48bd 209e 4bbe
000003e0: c793 273e 1a0b ed3d f24e 783d cc59 ea3b
000003f0: c7e8 65bb e8ea 06be 7649 383d 23e6 3c3d
-0.048287038 -0.036511734 -0.0704696 -0.033788253 4.4410383e-05 0.021219945 0.028057598 0.0006671753
-0.021655785 0.059221912 -0.11305851 0.11584412 -0.08372044 -0.068886444 0.022184882 0.055830363
-0.03188847 0.1283612 -0.015921105 0.004340804 0.016819919 -0.076088026 -0.016713696 -0.110708505
0.006556868 0.055400826 0.054428034 0.052698035 -0.005746003 -0.02558971 0.0028852257 -0.02753568
0.03826305 -0.041521754 -0.08707183 -0.04592967 -0.07013295 -0.13235012 0.02009892 0.11315697
0.098493636 0.09608756 0.13207734 0.004593502 0.24767861 0.028089188 -0.1741238 0.0036316416
0.103036135 0.08663775 0.022738215 0.070756644 0.020392276 0.037192985 -0.053362053 -0.16576226
-0.11738099 0.13741942 0.015632315 0.12566859 0.008220289 -0.27544424 0.01089466 0.07506679
0.10874867 0.059010744 0.0021888826 -0.043094885 0.0468265 -0.20843987 0.10844306 0.12696911
0.04687194 0.038015824 0.25479198 -0.1224622 0.07612551 0.018207027 -0.17076938 0.030041577
0.12154767 0.07515505 -0.053086195 0.09401769 0.0068541616 0.040709455 -0.0057738214 0.19435552
0.08802469 -0.042651847 -0.0061273975 -0.0025777286 0.099690005 -0.07481266 -0.011686532 -0.18593724
-0.116867855 0.057742674 0.15160708 0.07701489 -0.021933895 -0.13820125 -0.07615549 -0.11931601
0.015135208 0.04112112 0.058396995 -0.15595408 0.12178812 -0.100677796 -0.07337423 0.1315928
0.09192399 9.491474e-05 -0.084251836 -0.09407087 -0.06222005 0.03680227 -0.04115593 0.08415804
-0.05570314 -0.06953956 0.058436584 0.055429213 0.11070089 0.1838744 0.06852918 -0.18296625
-0.010582007 -0.13326818 0.08893299 -0.105457895 -0.093668275 -0.08006849 0.042562902 -0.094426066
-0.06322597 -0.02435206 0.035935696 -0.029465368 0.026109068 -0.11846288 0.044506766 -0.002309696
-0.094775416 -0.10545081 0.018012531 -0.01679618 -0.040567275 -0.019081267 0.006492319 0.06592652
0.020042606 0.14771217 -0.01858853 -0.024532322 -0.117643304 -0.019723864 0.00011281837 -0.029047165
-0.10927981 0.18694606 -0.018639749 -0.008655378 -0.027575674 0.058031276 -0.06281442 0.039325524
0.07714668 0.04769332 -0.08964326 -0.073678724 0.03058475 -0.048963815 0.044251528 0.16246666
0.039373603 0.0013002949 0.040860895 -0.0014029595 0.1708085 0.00831348 0.0835969 -0.15886198
-0.025090847 0.022819128 -0.034821384 0.10630707 -0.10014362 0.036636516 0.018245753 -0.0913268
-0.029831678 0.017491866 0.04855109 0.060524385 -0.08872833 0.08589278 0.059372406 0.25543126
-0.054665033 -0.12541363 -0.10589042 -0.1040408 -0.02907699 -0.019302677 -0.014382503 -0.024181362
0.08636431 -0.08803932 0.03952629 0.107051864 -0.03917719 -0.0899043 -0.056674253 -0.08381415
0.05071409 -0.037865553 -0.026179967 -0.05376611 -0.056835663 -0.0082324995 -0.12471124 -0.12954028
0.127865 -0.08529456 -0.01167046 0.0016123437 -0.16300967 -0.12614313 0.13996561 -0.038812276
-0.080823906 0.097618215 -0.08358528 -0.018217918 -0.11177056 -0.061530862 -0.029844016 0.16643476
0.053577073 0.03572847 0.16525753 -0.026207892 -0.007896706 -0.024548376 -0.048971217 -0.19884539
0.16364966 0.11574383 0.060622163 0.007151818 -0.0035081373 -0.13175547 0.044991933 0.046117913

network_body._body_endoder.seq_layers.2.bias f4 [128]
00000000: 3ce2 f1bc 0b54 11bc 7b59 703b 6e16 4cbd
00000010: f8cb 353d f270 103d b6ea d83c 0dc9 403d
00000020: 5865 fd3c 9997 31bd 2812 91ba c1c2 ce3c
00000030: 6acd 69bb 2dcf 7c3c a80d 32bc 6bfd 5d3c
00000040: 75c1 e33c 7fcd c93a c3b4 b03b 9774 8d3c
00000050: 30b3 fdbc fbbe debc 8bb9 933a 55a6 9fbc
00000060: a621 35bc 6fcf 213d 3c67 81bc 48b5 7a3a
00000070: 94ad 9dba 3ceb 673c 88fb 17bc d4f4 e43c
00000080: 55ce 203c 2c96 2dbd a44b 0b3d 3bd1 4fba
00000090: b297 5abb 2583 213c b8d8 0d3d a069 0b3c
000000a0: 008e b3bc 1203 a9bc 552d 1c3d be37 ce3b
000000b0: 7fdc 383d c218 8b3b 9ee3 63bc 5b16 0abd
000000c0: 03e8 6abc 9ee3 993a 18c2 d43b f1ba ca3c
000000d0: 5130 42bc cf11 56bc 819e 853c e657 a03c
000000e0: 14dd e7bc 14b0 5638 0002 8d3c 963d 063d
000000f0: c481 f0bc fc86 8cbc a8e7 833d d2fb 29bb
00000100: f270 a0bb 2a53 97bc fa5c a53a 4354 223c
00000110: f259 1abc 2323 d53b f1a8 83bc b178 72bb
00000120: 22be 91bc 3c8f ed3c 233d 2d3b eb45 12bc
00000130: 8f22 44bd 7626 163c 7338 1cbd c097 bcbc
00000140: a88a 33ba 11a0 8f3c e0ea c7ba 732f f43c
00000150: 98f7 87bb e7aa fbbb 2e30 b53c f4d7 2dbb
00000160: efe6 ceba 799b a2bc 4a18 90bc 5e99 8bbc
00000170: 8592 f53b 94f3 54bc 215e f33b 1809 5d3c
00000180: 4f8a d13c 5867 6abc 9fa5 18bd 11a8 44bb
00000190: 8268 623d e9c2 523c 1638 683d 18f0 c5bb
000001a0: 20c9 87bc 1cc6 e0ba b2d9 88bc 37ba 893c
000001b0: 8f1a 453d 115a 953c 8eea c0bc e879 2a3c
000001c0: 04f4 1b3d 9e0b 1b3d 12d9 433d dd89 dd3c
000001d0: db17 25bc 5efd 1abc cab1 14bb 07ce 823c
000001e0: 1cac 873b 3c1f 893c c292 7a3c 6cdf 13bd
000001f0: db09 d23b 40eb d4bc c69d 0fbc 1bb1 7c3c
-0.029526822 -0.008870135 0.0036674428 -0.049826078 0.044383973 0.035263963 0.026479106 0.047066737
0.030932114 -0.043357465 -0.0011068033 0.02523935 -0.0035675415 0.015430254 -0.010867514 0.013549189
0.027802208 0.0015396326 0.005392642 0.017267508 -0.030969232 -0.027190676 0.0011270506 -0.019488493
-0.011055386 0.039504465 -0.015796296 0.0009563756 -0.001202988 0.014155205 -0.009276278 0.027948774
0.009814818 -0.042379543 0.034007683 -0.0007927601 -0.0033354578 0.009857927 0.034630507 0.00850907
-0.021918297 -0.020631347 0.03812917 0.006293266 0.045132156 0.0042448947 -0.013909249 -0.033712726
-0.0143375425 0.0011740809 0.0064928643 0.024747344 -0.01185234 -0.013065769 0.016310932 0.019573163
-0.02830366 5.118556e-05 0.017212868 0.032773577 -0.029358752 -0.01715421 0.06440669 -0.002593745
-0.0048962766 -0.018472273 0.001261621 0.009907785 -0.009420859 0.0065044328 -0.016071768 -0.0036998207
-0.017790858 0.028998964 0.0026434145 -0.008927803 -0.04788452 0.009164443 -0.03813977 -0.023021579
-0.00068489695 0.01753238 -0.0015252493 0.029807782 -0.0041493885 -0.0076802853 0.0221177 -0.0026526423
-0.0015785376 -0.019849526 -0.017589707 -0.017040905 0.007494273 -0.012997527 0.0074269925 0.013490938
0.025578646 -0.014306866 -0.037267324 -0.0030007402 0.055275448 0.012863853 0.056694113 -0.0060405843
-0.016575396 -0.0017148885 -0.016705368 0.016812427 0.04812103 0.018231424 -0.023549344 0.010405041
0.03807451 0.037852876 0.047814436 0.027043277 -0.010076488 -0.0094598215 -0.0022688978 0.015967382
0.00414039 0.016738527 0.015293779 -0.036101744 0.0064098663 -0.025991082 -0.008765643 0.015423085

action_model._discrete_distribution.branches.0.weight f4 [3, 128]
00000000: 0fcb debb f5f5 e33c dd96 733b 3beb 0ebb
00000010: efcc 4bbc 164e cdbc 20e2 2d3c 38f2 323d
00000020: 60ae 303d 0a6c 86bc cab7 5ebc f11d 4f3c
00000030: 0023 48bd 7df6 653d d83f c3bc 09bb 02bc
00000040: b940 1f3b 2763 1cbb a4d5 05ba 40e8 5abc
00000050: 6a8d 78bc 10de a4bb bbc9 b039 36c6 87bc
00000060: f508 e9bb cbcb acbc 1f9c 243c 8305 1cba
00000070: 5e2e ce3c fbbe 893c 26a3 b6bc 96cd c8bc
00000080: e7c0 253b 742a b7bb 6c5c 923c 0eb8 65bc
00000090: e2e4 373c 80d4 493a 6ff9 f33b b9c4 19bb
000000a0: d781 063c b155 913c 9e9a 5b3b 9e47 ceb8
000000b0: 8cb9 47bd 4e02 bebc ef36 b13a d7a0 843c
000000c0: e65a d03c 1d1a f6bc 118f 003d 3ba1 83bc
000000d0: abfe db3b 55be 90bc 98fa a0bb 4587 c9bd
000000e0: fc2e 7a3b 8296 68bd 7d2f 17bd baaf 32bd
000000f0: 20af 84bc c182 a13a 0241 3e3d ce8d a73c
00000100: 72fc 353c 1d20 8a3c 66f2 b1ba 2e49 c9bc
00000110: de7a 083d a07a 4bbc e4a8 dfbc f3fa 9abc
00000120: 90f2 bdbb d04b 93bc a84f 97bc ac7c 18bd
00000130: 8698 64bd 890b 523c 7673 0bbd e1f4 b0b9
00000140: 6287 d9bc 32cb 96bb cd59 fb3b 7bfa adbb
00000150: e208 c1bb 26bc 953c cbe8 15bd 829d e0bb
00000160: 1f45 8c3c 3195 aabb b5bc 64bc 5f88 c53c
00000170: a0bd bd3b ef44 a03b c444 0bbb a629 dfbb
00000180: 601b 0ebc f5ae 83ba f620 96bb 6e35 ffbc
00000190: 922e aebb 5a97 b2bc 181a 243b 3124 4f3b
000001a0: 6d13 bebc 5590 b23c 2311 5e3c 72ff 4c3c
000001b0: df9d 083d 1306 ccbb e1bc aeb7 bc8c 4ebc
000001c0: f36f 853c cb97 403c 8eca 003d 43bf 0cbd
000001d0: 577a 86bc 10f5 ccba 5150 783c 2bb0 fb3c
000001e0: faa2 35bb 3c91 05bc b80a a4bb 6f27 6bbc
000001f0: 2c0d 9dbd 46a8 17ba 0a37 58bc 900b dabc
00000200: 2031 903c 4cc2 81bc 2f46 2e3d 8276 2cbc
00000210: d61d e93b 025f 0f3c 95a9 e13c d85f a9bd
00000220: 42f5 033b 2200 aa3c 2372 913c f920 bb3b
00000230: 7538 173d 0f73 553c 71f9 f03b 65ca e3bc
00000240: 3e9f 043d 9b8b 15bd 2023 ea3c 259c c33c
00000250: 03e9 86bc 251f 013c 15f3 1c39 31f7 933b
00000260: ae1a 8abc 0fb9 a6bc 35a4 b4bc 32d8 65ba
00000270: 00b7 3abd 45ef 21bd 8d68 e33c dcd3 dbbc
00000280: 9962 3b3d 674c 80bc 569f 213b 45f2 4d3c
00000290: e670 a9bc 5021 8ebb 13d8 8dba 58ec 27bd
000002a0: 39ba eaba cf02 d9bb 7f88 02bc d8a9 e6bc
000002b0: fab8 9dbd 05ba d5bc c471 843c 2682 dc3b
000002c0: b5d4 98bc 0e6d 083d 51a3 4fbc 2337 943c
000002d0: e9b3 8c3a 509a c0bb a456 cb3c 4d17 c7bd
000002e0: e035 e63b 2e4a 7bbb eaa6 6abd bc11 cb3c
000002f0: 640d 06bd 5a35 84bb 5b12 8ebd b39d c3bc
00000300: 34f9 9abc dab3 1d3c c71e 603c 2eae bb3c
00000310: 3548 d3bc 2b85 2a39 290d c23c fec3 7d3c
00000320: 2b15 91bb 1941 96ba 2134 5fb9 edf8 583d
00000330: 9b3c 543c 2a63 4cbd 6ee5 96bb 67fc babc
00000340: 9c5e 0b3d 6909 943c 4a2e 43bd 2674 eb3c
00000350: 45f3 d13b 0ea7 00bd 288c 483d 121e 36bd
00000360: d146 6fbc f4ec 06bb 62cb 0e3d 2e43 bcbb
00000370: b7e5 2e3b 0abc 773c d9c0 9fbc 81d1 d1bc
00000380: 766b 5b3c 1bd2 bb3b bf56 2cbc 5fb1 a23b
00000390: 6a92 2a3d 96e3 a23c 083b 09bd 0ed1 ee3c
000003a0: 481c e93c e93b b43b 1539 25bb 2088 db3c
000003b0: 096e 71bc 3e5e c3ba efed 1ebc ca9a e93a
000003c0: e553 433c 8949 2ebb a15b 4bbc 34c9 e9bb
000003d0: 08dc 88bc 89e6 94bc 434b 0ebd aab8 89bd
000003e0: e211 ba3c 2f36 ca3c a874 103c 79d1 09bc
000003f0: bebf 8aba d277 1c3c 8b59 d13c 66fd bd3c
-0.006799109 0.027827242 0.003716878 -0.0021807689 -0.012438997 -0.025061648 0.010612994 0.04368803
0.043135047 -0.016408939 -0.013593623 0.012641416 -0.048861504 0.056143273 -0.023834154 -0.007979163
0.0024300052 -0.002386281 -0.00051053823 -0.013361037 -0.0151704345 -0.0050313547 0.00033719637 -0.016574007
-0.0071116635 -0.02109327 0.010046988 -0.0005951749 0.025168594 0.0168147 -0.022294592 -0.024512094
0.002529198 -0.0055897776 0.017866336 -0.014020933 0.0112240035 0.00076992065 0.0074455063 -0.0023463203
0.008209667 0.017741056 0.0033508907 -9.836185e-05 -0.048760936 -0.023194458 0.00135204 0.016189976
0.025433969 -0.030041749 0.03138644 -0.016068092 0.0067137084 -0.017668882 -0.0049126856 -0.09840254
0.0038174978 -0.05678416 -0.036910523 -0.043624617 -0.016196787 0.0012322293 0.046448715 0.02045336
0.011107551 0.016861016 -0.0013576269 -0.024571028 0.0333203 -0.012419373 -0.027302213 -0.01891849
-0.005796738 -0.017980486 -0.0184706 -0.03722827 -0.05580952 0.012820133 -0.03404566 -0.00033751785
-0.026553813 -0.0046018595 0.007670617 -0.0053094006 -0.0058909515 0.018278193 -0.03659896 -0.006854714
0.017122803 -0.0052057733 -0.013961007 0.024112878 0.0057904273 0.00489103 -0.0021250704 -0.006810385
-0.008673519 -0.0010046648 -0.004581566 -0.031153407 -0.00531561 -0.021800686 0.0025039967 0.0031607265
-0.023202622 0.021797339 0.01355389 0.012512075 0.033353683 -0.00622631 -2.083037e-05 -0.012606796
0.016288733 0.01175494 0.03144317 -0.03436209 -0.016415758 -0.0015636999 0.015155868 0.030723652
-0.002771555 -0.008152302 -0.0050061606 -0.014352663 -0.07668528 -0.00057852676 -0.013196716 -0.026616842
0.01760155 -0.015839718 0.0425474 -0.010526301 0.0071141524 0.008750679 0.027546683 -0.08270234
0.0020135199 0.020752016 0.01775462 0.0057107178 0.036919076 0.01302792 0.0073539545 -0.02780647
0.032378428 -0.03651009 0.028581202 0.023878166 -0.01646853 0.007880961 0.00014967874 0.0045155515
-0.016858425 -0.020351915 -0.022050956 -0.00087678724 -0.04558468 -0.039534826 0.027759815 -0.02683442
0.045748327 -0.015661431 0.0024661622 0.012569969 -0.020683717 -0.0043374673 -0.0010821841 -0.04099688
-0.0017908282 -0.0066226493 -0.0079671135 -0.02815716 -0.07701297 -0.026089678 0.016167529 0.006729382
-0.018656114 0.033307128 -0.012673215 0.018092697 0.001073477 -0.0058777705 0.024821587 -0.09721241
0.0070254654 -0.0038343775 -0.057288088 0.02478873 -0.032727614 -0.0040346803 -0.06937095 -0.023878908
-0.018917657 0.0096253995 0.013679213 0.022910204 -0.025791267 0.00016262072 0.023687916 0.015488623
-0.0044275722 -0.0011463492 -0.00021286357 0.05297177 0.012953903 -0.049899258 -0.004604987 -0.022825433
0.034025773 0.018070893 -0.047651567 0.028741907 0.006407174 -0.031409316 0.04896179 -0.04446227
-0.014604286 -0.0020588012 0.03486193 -0.005745313 0.0026687214 0.015120516 -0.019501137 -0.025612595
0.01339232 0.0057318336 -0.010518729 0.004964992 0.041643538 0.019883912 -0.033503562 0.02915242
0.028455868 0.005500306 -0.0025211025 0.026798308 -0.014735707 -0.0014905406 -0.0097002825 0.001782262
0.0119218575 -0.0026594123 -0.012411983 -0.007134581 -0.016706482 -0.018176334 -0.034739744 -0.06724675
0.022713605 0.02468404 0.0088168755 -0.008411759 -0.0010585708 0.009550052 0.025555393 0.023192119

action_model._discrete_distribution.branches.0.bias f4 [3]
00000000: bf0d 94bb b7d6 8d3c 6387 9bbc
-0.00451824 0.017314298 -0.018985456

action_model._discrete_distribution.branches.1.weight f4 [2, 128]
00000000: 7707 debb 0df5 edbb 2d32 09bc d19d d1bc
00000010: 71b1 253d ee74 ca3a 88ba b63b 9bd8 5e3d
00000020: e3e8 ac3c 2aa1 d1bc 4d58 383c 25b5 943b
00000030: 114c 36bc e968 32bd cc7b 043d 8c53 26bc
00000040: 306c d23c e510 79bb c855 d03a aa78 8c3b
00000050: 4455 adbb d1c7 cabc 73f0 fc3b 0389 a5bc
00000060: c3ea b8bc a42e 483c c35e 5e3b ca0f d03c
00000070: 0a06 c7bc 9875 cb3c c8ab 8bba e891 873c
00000080: 7d0d 2a3a 480a 233b 3d31 8b3c 2ad7 453b
00000090: c552 b8bb ee5d c93c 74f2 d93d 2d41 b63b
000000a0: 55fc 09bd 22ef 50bc 96c5 5b3c 3a43 0b3c
000000b0: 98b4 713b 13db 4dbb 0cb8 3ebd 0f93 d3bc
000000c0: 7419 ca3b dda0 56bb 18bf c4bc e974 703c
000000d0: 038c 47bc e270 f6bc 8e5b 6eb7 6a5b ad3d
000000e0: 1b0e f73b 9a84 27bc 74c4 023d 66b3 8abc
000000f0: ff5d 61bc a452 533b 6eb1 283d 3719 02bd
00000100: 8515 62bc 6ae6 13bd 421d cebc 164d dd3b
00000110: 4d61 25bc ec6c 1cbd 26e5 b9ba 0b9d c13a
00000120: 075c d2bc 2d57 803c d25f dc3b 17e0 b4bd
00000130: c652 7ebc e104 503b 7530 c6bc 64be 2e3c
00000140: 80fd 14bd 7ad0 8839 632c 7abc 8106 553c
00000150: a1d9 3a3b 3461 cbbc b62c 9b3c 1c53 38bc
00000160: 98b1 633d ddd7 ffba b3b1 ebba a2fc 4dbc
00000170: 55fe 973a 83b4 41bc 772a a8bc 00d4 0bbb
00000180: b81f b9bb 5aef d2bb f596 b03b 477c 423d
00000190: 8c7e 4abb 98e8 273c bab0 afbd 76d1 afbd
000001a0: a3ee 8fba d759 a2bc 7c68 b5bc 90f6 ff3b
000001b0: b1e5 503d 8b59 cb3b e6a8 5fbc 1906 783c
000001c0: 4ff0 8d3c 32cd f33c e169 243d 1302 c63c
000001d0: 0946 08bd 58e6 73bc bb09 7fbc 839f 1ebd
000001e0: 36d7 49bb 3767 4d3c 6dea 43bb 25c8 37bd
000001f0: 95eb 553c 2eaa 083b 2a03 9bb9 11df 83b9
00000200: 0060 093d 0eca c83a b20a d2bb db7c d73c
00000210: 9175 a8bc cff0 3ebc a400 d5bb 9d40 66bd
00000220: 88fe 8ebc cd59 3a3c 00c0 8abc cdfb 183c
00000230: 3217 0dbc 7fe1 2d3d c6fb c2bb 4c4a d1bb
00000240: 81a6 793a b73e ceb9 d8a2 143c 01f6 65bc
00000250: 3f1d 0e3b 1484 183d 5207 5c3b ee31 1c3c
00000260: 0701 44bb c56a 94bc 1895 733c c5ce d23a
00000270: 8753 f73c 0f6c adbc bef1 eebb 8045 45bc
00000280: 9b74 8d3c 4a0f acbb 1aa3 e6bc cee5 143a
00000290: 014d 3e3c ff29 70bc 7d7b c1bd f2b9 e5bb
000002a0: 7116 8eb8 cfdf b4ba 7f9f 19bc 9782 0bbc
000002b0: 41df 7ebc 0198 cebc c94f 183d 3d7e 3e3d
000002c0: 5124 3d3c 0e00 fe3b 22f3 223d 34c7 16bc
000002d0: b3cd 473a 0778 c73c 9b9a df3b 2728 adbd
000002e0: 7238 48bc 6c1c 723c 48c0 bbbc 9d03 ffba
000002f0: d7d8 253b df87 dc3c 515f 1dbd 5d1c 553d
00000300: 8e27 be3c 8bea c43c 8668 3f3c 0cf7 f53a
00000310: 3b8c 35bb aa58 2a3d 6e4b 173c 3aee d3bc
00000320: 54f9 c13c 9d6a e8bc d834 deb9 e811 a13d
00000330: cd1f 463d 9725 f9ba 6a85 c83c f7ad 8ebb
00000340: d811 a33c 215a 9abc 80de dd3b bb67 02bc
00000350: b5f0 b53b 3b88 e33c 523a 96bc ec3e 62bb
00000360: 9b63 3dbd 505d 8b3b a8af 9c3c d08f f83c
00000370: 1fe6 0ebc 1c91 b33b e1fa efba 4e15 a1ba
00000380: 5ba2 64bb b0fd 403c fa1a 013d fe98 02bd
00000390: c8f3 2a39 91c3 963b 6d1b d13d fa10 a03d
000003a0: c369 b43c d607 5e3c 85a0 d03b 09c3 c0bb
000003b0: 8963 9dbc 022e 97bb 3ac1 793c d86c 87ba
000003c0: 8d9c e1bb 5f7b d3bc b169 28bd 4c7f 07bd
000003d0: 2a02 1f3d f42b 103b 8723 1dbc 4668 083d
000003e0: 51c9 343b 2126 21bc 81c4 51b9 9dfb 233d
000003f0: 0162 0fbc d5ba 84bc 851e 583c 07b3 40bc
-0.006775792 -0.0072618783 -0.008373779 -0.025587948 0.040452424 0.0015446225 0.0055764355 0.05440579
0.021107143 -0.025589544 0.011251521 0.0045381957 -0.011126534 -0.04355708 0.032344624 -0.010151755
0.025686353 -0.0038004455 0.0015894705 0.004286845 -0.0052897055 -0.024753483 0.0077190935 -0.020206934
-0.02257288 0.012218151 0.0033930994 0.025398154 -0.024294872 0.024836347 -0.0010656053 0.016549066
0.0006486995 0.0024877954 0.016991252 0.0030188062 -0.0056251013 0.024580922 0.106419474 0.005561969
-0.03368791 -0.012752326 0.013413807 0.008499915 0.0036881324 -0.0031411096 -0.04656224 -0.025826959
0.006167585 -0.003274969 -0.024016902 0.014676311 -0.0121793775 -0.030083124 -1.4207222e-05 0.084647015
0.0075395233 -0.010224486 0.031925634 -0.016931247 -0.013755321 0.0032245303 0.041184835 -0.031762328
-0.013799076 -0.03610841 -0.025160436 0.006753574 -0.010093999 -0.038189813 -0.0014182671 0.0014771534
-0.025678648 0.015666569 0.00672529 -0.08831804 -0.015522664 0.003174119 -0.024193028 0.01066551
-0.03637457 0.0002609527 -0.015269372 0.013002039 0.0028511065 -0.024826623 0.018942218 -0.011250284
0.05558929 -0.0019519288 -0.0017982036 -0.012572439 0.0011596183 -0.0118228225 -0.020528061 -0.0021336079
-0.005649533 -0.0064372243 0.005389089 0.0474818 -0.0030898182 0.010248326 -0.0857863 -0.085848734
-0.0010981153 -0.01981823 -0.022144549 0.007811375 0.0510003 0.0062057427 -0.013651108 0.015138173
0.017326502 0.02976093 0.040140036 0.024170911 -0.033269916 -0.014886461 -0.015566285 -0.03872634
-0.0030798442 0.012536815 -0.0029894367 -0.044868607 0.013056655 0.0020853388 -0.0002956626 -0.00025152465
0.03353882 0.0015319006 -0.0064099664 0.026304653 -0.020563873 -0.011654093 -0.0065003205 -0.056213964
-0.017455354 0.011373949 -0.016937256 0.009337378 -0.008611487 0.042451378 -0.005950424 -0.0063870307
0.0009523407 -0.00039338108 0.009072028 -0.014035703 0.0021684912 0.037235335 0.00335737 0.009533389
-0.002990784 -0.018117318 0.01486709 0.0016083351 0.030191196 -0.02116969 -0.0072920015 -0.012040496
0.017267516 -0.005250846 -0.028153945 0.00056799955 0.011615039 -0.01465845 -0.09447382 -0.007010692
-6.775268e-05 -0.001379961 -0.009376406 -0.008515022 -0.015556158 -0.025218965 0.037185464 0.04650711
0.011544303 0.0077514714 0.03978265 -0.009202767 0.0007621899 0.024349226 0.0068238503 -0.08454924
-0.012220489 0.014777284 -0.022918835 -0.0019456033 0.0025306249 0.026920257 -0.03842098 0.052029002
0.02321222 0.02403762 0.011682635 0.0018765642 -0.0027701992 0.041588463 0.009234292 -0.025870431
0.02367846 -0.02837115 -0.0004238251 0.078647435 0.04837017 -0.0019008395 0.02447768 -0.0043542343
0.01990597 -0.018841805 0.006770909 -0.007959302 0.005552376 0.02777492 -0.018338356 -0.0034522368
-0.04623757 0.004253067 0.019126728 0.030342013 -0.008721857 0.005479945 -0.0018309021 -0.0012289674
-0.003488681 0.011779234 0.031519867 -0.031884186 0.00016303279 0.00460095 0.10210309 0.07815738
0.022023087 0.013551673 0.0063667917 -0.005882625 -0.019212501 -0.004613639 0.015243823 -0.0010332121
-0.0068851174 -0.025815664 -0.04111642 -0.033080384 0.038820423 0.0021998854 -0.00959099 0.033302568
0.0027585814 -0.009835751 -0.00020004997 0.04003488 -0.008751393 -0.01620237 0.01319087 -0.011761433

action_model._discrete_distribution.branches.1.bias f4 [2]
00000000: 2cc1 ab3c 33c1 abbc
0.020966135 -0.020966148
