Assets/Onx/MoveAgent2D-85M_2DGround.onnx (onnx, 416259 bytes, 13 tensors)

discrete_act_size_vector f4 [1, 4]
0	0x40400000	3.0
1	0x40000000	2.0
2	0x40000000	2.0
3	0x40000000	2.0

network_body._body_endoder.seq_layers.0.weight f4 [256, 128]
0	0xbe6e4b1a	-0.23270836
1	0x3d6cbad9	0.05779538
2	0xbde2c347	-0.110724024
3	0x3f1d53f9	0.6145626
4	0x3e3e4a57	0.18583046
5	0x3d0a89e2	0.0338229
6	0xbee11424	-0.4396068
7	0xbf1b5e23	-0.60690516
8	0xbd90c589	-0.07068927
9	0x3d75b802	0.059989937
10	0xbdd1284f	-0.102127664
11	0x3e0f9c8f	0.14024566
12	0xbede40b7	-0.43408749
13	0x3e6c946f	0.23103498
14	0x3e4b675a	0.19863644
15	0x3ea7a50d	0.3274311
16	0xbe57a875	-0.21060355
17	0xbf0fa6af	-0.56113714
18	0x3efb23e4	0.4905082
19	0x3da023b0	0.07819307
20	0xbd1b33c0	-0.03789115
21	0xbe96d471	-0.29458955
22	0x3d82f8d6	0.06395118
23	0x3dac510d	0.08413897
24	0x3c0b623d	0.008507309
25	0xbea4009f	-0.32031724
26	0xbe328dea	-0.17436948
27	0x3d2f93e0	0.042865634
28	0xbcc51202	-0.024056438
29	0xbea63cee	-0.3246836
30	0x3d87829f	0.06616711
31	0x3dfbe9cf	0.12300455
32	0x3db6fe62	0.089352384
33	0x3e544f42	0.2073336
34	0xbdcf76ae	-0.10130058
35	0xbd39b460	-0.045338035
36	0xbd88b0dc	-0.06674358
37	0x3ca66cd4	0.020315565
38	0xbe378ba7	-0.17924367
39	0x3d24753d	0.04015087
40	0x3dcc5480	0.099770546
41	0x3f6d9f73	0.92821425
42	0xbe20f5e8	-0.15718806
43	0xbda65289	-0.08121211
44	0x3de84d18	0.113428295
45	0xbecc78db	-0.39935955
46	0x3e0a698b	0.13516824
47	0xbd8f2317	-0.06989115
48	0x3c40e2a4	0.011772785
49	0x3efd19e3	0.49433812
50	0xbe1f36fb	-0.15548317
51	0xbbb129f4	-0.0054066125
52	0xbcaa14a5	-0.020761797
53	0x3eceddcd	0.40403596
54	0xbed3c17a	-0.41358548
55	0xbe61a461	-0.22035362
56	0xbd7315d5	-0.059346993
57	0x3ea2644d	0.31717148
58	0xbe24ebd5	-0.16105588
59	0xbd1446da	-0.03620038
60	0xbdea33b9	-0.114356466
61	0xbe41156e	-0.18855831
62	0x3d2ff872	0.042961545
63	0x3d151bca	0.036403455
64	0x3e290c66	0.16508636
65	0xbaa18b0a	-0.0012324762
66	0x3c412354	0.011788208
67	0x3d7a1627	0.061056282
68	0x3e26b9d4	0.16281825
69	0x3e31e22e	0.17371437
70	0xbe13ca03	-0.1443253
71	0x3ac7e990	0.0015252102
72	0xbd646044	-0.05575587
73	0x3e0fc7c6	0.14041051
74	0xbe050569	-0.12990345
75	0xbd19f1a1	-0.03758395
76	0xbcd18265	-0.025574872
77	0x3f260c16	0.6486219
78	0xbd422a4f	-0.04740363
79	0xbd2eb043	-0.042648565
80	0x3c3bccd2	0.011462407
81	0x3dabf327	0.08395987
82	0x3e531415	0.2061313
83	0xbd1bb849	-0.038017545
84	0x3b5d9217	0.0033809
85	0x3e7dda98	0.24790418
86	0x3dd0ae05	0.101894416
87	0xbd8c2072	-0.06842126
88	0x3d9dab14	0.07698646
89	0x3d943213	0.072361134
90	0xbe96955b	-0.29410824
91	0xbe065d16	-0.13121447
92	0x3df29d22	0.11846377
93	0x3d555e10	0.052091658
94	0xbd436042	-0.04769922
95	0xbdb387d8	-0.087661445
96	0x3cec4ed3	0.02884618
97	0xbd8c2429	-0.068428345
98	0xbdbe79d9	-0.09300584
99	0xbe15d0ad	-0.14630385
100	0xbd2754a9	-0.040852223
101	0x3e459cc1	0.19298078
102	0xbe5d6e2e	-0.21624061
103	0xbe90b255	-0.28261057
104	0x3db04b87	0.08608156
105	0x3e74201d	0.23840375
106	0xbe650dfb	-0.22368614
107	0xbd318b30	-0.04334563
108	0x3d58175c	0.052756652
109	0xbe1d535f	-0.15363835
110	0xbe0b8687	-0.13625537
111	0xbda08211	-0.07837308
112	0x3cd30700	0.025760174
113	0x3e32e8ca	0.17471614
114	0xbd85594e	-0.06511174
115	0xbd35270e	-0.0442267
116	0xbd2af7f2	-0.041740365
117	0x3e12ee74	0.14348775
118	0xbe1d3aa4	-0.15354401
119	0xbe4fbd08	-0.20286953
120	0xbd8d79c8	-0.069079936
121	0x3e6273df	0.22114514
122	0xbe56a4a9	-0.2096125
123	0xbe410193	-0.18848257
124	0x3d2ee8db	0.042702537
125	0xbe166b5e	-0.14689395
126	0x3c399b99	0.011328601
127	0xbd7890a4	-0.060684815
128	0xbde65d23	-0.11248233
129	0x3d063eba	0.032774664
130	0xbf286831	-0.65783983
131	0xbe0c5d4b	-0.13707463
132	0xbbaa218a	-0.0051919864
133	0x3d5c2ec0	0.05375552
134	0xbe606516	-0.21913561
135	0xbd121368	-0.03566304
136	0xbe75e222	-0.24012044
137	0xbd711725	-0.058859963
138	0xbd4569fc	-0.048196778
139	0x3e28f723	0.16500525
140	0x3ea3a9c9	0.31965473
141	0x3d064dbf	0.03278899
142	0xbd92deb4	-0.071713835
143	0xbd41a623	-0.04727758
144	0xbf7da8ea	-0.9908587
145	0xbd244c9a	-0.040112115
146	0xbf8f141c	-1.1178012
147	0xbcd7700d	-0.026298547
148	0x3e292665	0.16518553
149	0x3f64797f	0.8924789
150	0xbda1073d	-0.07862709
151	0xbd819363	-0.0632694
152	0xbde3b100	-0.111177444
153	0x3efc7c63	0.4931365
154	0x3e377003	0.17913823
155	0xbe0a7000	-0.13519287
156	0x3d765902	0.06014348
157	0x3ebeca09	0.37263516
158	0x3c7e4554	0.015519459
159	0xbd012a80	-0.03153467
160	0xbddd4a0b	-0.10805138
161	0x3f035150	0.5129595
162	0x3d9ddcd7	0.077081375
163	0x3d6d0b61	0.05787218
164	0x3b3b4399	0.0028574227
165	0x3e835a51	0.25654843
166	0x3dd63837	0.10459941
167	0xbd1bc48b	-0.038029235
168	0xbd028d25	-0.031872887
169	0x3f2b5922	0.6693288
170	0x3e0faf30	0.14031672
171	0x3d783209	0.060594592
172	0xbd5ebfbc	-0.05438207
173	0xbdeeba2a	-0.11656602
174	0x3c1fb959	0.00974878
175	0x3e97cbdf	0.2964773
176	0xbc8c07e9	-0.017093616
177	0x3e573dcc	0.21019667
178	0x3de006ac	0.109387726
179	0x3dc0aa73	0.094075106
180	0xbbc13588	-0.005896274
181	0x3ec9833c	0.39357936
182	0x3e4f5367	0.20246659
183	0x3de60d0d	0.11232958
184	0xbcd72c0f	-0.026266126
185	0x3f81ec82	1.0150301
186	0xbe67c334	-0.22633058
187	0xbdef8de7	-0.116969876
188	0xbe2f8f56	-0.17144522
189	0x3f97c141	1.1855851
190	0xbde4186b	-0.1113747
191	0xbe69636c	-0.22791833
192	0x3ba2a231	0.0049631824
193	0x3f396f98	0.72435904
194	0xbd8f13c3	-0.06986191
195	0xbe7fb074	-0.24969655
196	0xbc795c99	-0.015219831
197	0x3f71a31c	0.9438951
198	0xbc05f06b	-0.008174996
199	0xbe61d465	-0.22053678
200	0xbbebc153	-0.007194677
201	0x3f352807	0.707642
202	0xbe6dd640	-0.23226261
203	0xbe95e364	-0.29275048
204	0x3d53ff55	0.051757175
205	0x3f83e343	1.030373
206	0xbe3224a1	-0.17396785
207	0xb8d74584	-0.00010264947
208	0x3bc0e103	0.0058861985
209	0x3f2e4838	0.6807895
210	0xbe34e03d	-0.17663665
211	0xbe5b1ef6	-0.2139853
212	0xbd1ee39e	-0.03879129
213	0x3f254421	0.6455708
214	0x3bd242b7	0.0064166444
215	0xbd3dc6e0	-0.04633224
216	0xbda058bd	-0.078294255
217	0x3f3ef15e	0.7458705
218	0xbe6713d9	-0.22566165
219	0xbea4782d	-0.32122937
220	0x3d86a9f0	0.06575382
221	0xbe7d3389	-0.2472669
222	0x3e5f3dbd	0.21800895
223	0x3e14ec10	0.14543176
224	0x3c9375c3	0.01800049
225	0xbe976a1d	-0.29573146
226	0x3e0a90f4	0.13531858
227	0x3e49ecd3	0.19719248
228	0x3db140aa	0.08654912
229	0xbd017247	-0.031603124
230	0x3caa7533	0.020807838
231	0x3e039ace	0.12852022
232	0x3da8755f	0.08225512
233	0x3e10f14a	0.14154544
234	0xbc2e1e26	-0.010627305
235	0xbdd66487	-0.10468393
236	0x3d89c679	0.06727309
237	0x3d74d709	0.059775386
238	0xbdd32c2f	-0.10311162
239	0x3e76eb2e	0.24113151
240	0x3d317920	0.043328404
241	0x3e91c463	0.28470144
242	0x3dfac913	0.12245383
243	0x3d324328	0.043521076
244	0x3daf1327	0.08548575
245	0xbe68e91d	-0.22745176
246	0x3dc7817a	0.097414926
247	0x3dcf59e9	0.10124571
248	0xbe394af8	-0.18095005
249	0xbe5b258e	-0.21401045
250	0x3d10f675	0.03539129
251	0x3e1a713e	0.15082261
252	0x3d399a26	0.045313023
253	0xbeccd0eb	-0.40003142
254	0x3e1bcf0f	0.15215705
255	0x3e9163e7	0.28396532

network_body._body_endoder.seq_layers.0.bias f4 [256]
0	0xbdb755ba	-0.08951898
1	0x3d3689e2	0.04456509
2	0xbdcd6d27	-0.10030585
3	0x3c34eb06	0.011042362
4	0xbd9eb0e7	-0.07748585
5	0xbe8555ec	-0.26042116
6	0xbcc82d53	-0.024435675
7	0xbdf6d34d	-0.12052021
8	0xbe52bb11	-0.20579173
9	0xbdbce72d	-0.09223781
10	0xbe634ac9	-0.22196497
11	0xbe1a7de5	-0.15087087
12	0xbe013b0f	-0.12620185
13	0x3d941571	0.07230652
14	0xbd99cead	-0.075101234
15	0xbe0d6eeb	-0.13811843
16	0xbe489ddc	-0.19591469
17	0xbe33fe04	-0.17577368
18	0xbe1c3a1d	-0.15256543
19	0xbe143f2b	-0.14477222
20	0xbde9ac19	-0.11409778
21	0xbdf4cb12	-0.11952795
22	0x3d4e3d20	0.050351262
23	0xbdfbe183	-0.12298872
24	0xbe058a66	-0.13041076
25	0xbdb68f9e	-0.089141116
26	0xbd883a5a	-0.06651755
27	0xbe58432a	-0.21119371
28	0xbe705ce5	-0.23472936
29	0xbdb7177f	-0.089400284
30	0xbd92e585	-0.071726836
31	0x3db6f112	0.08932699
32	0xbd4a446d	-0.049381662
33	0xbe6c0a9e	-0.23050925
34	0x3d5e399f	0.05425417
35	0xbd831402	-0.064003006
36	0xbe71379e	-0.23556373
37	0xbe4bcd40	-0.19902515
38	0xbe01a900	-0.12662125
39	0xbd6faf34	-0.058516696
40	0xbe17d2c7	-0.14826499
41	0xbcc1f660	-0.023677051
42	0xbd63ca86	-0.055613063
43	0xbe268d86	-0.16264924
44	0xbc907efb	-0.017638674
45	0xbe3b8564	-0.18312603
46	0xbddcb28b	-0.10776242
47	0xbda20e9f	-0.07912945
48	0xbcbf76f3	-0.02337215
49	0xbcaa6f2a	-0.02080496
50	0x3d02994c	0.031884477
51	0x3d234c50	0.0398677
52	0xbcc37cad	-0.023863161
53	0xbd9ac9f1	-0.075580485
54	0xbe6168fd	-0.22012706
55	0xbd6db716	-0.058035932
56	0xbe59b9de	-0.21262309
57	0xbe121a75	-0.14267905
58	0x3d9457ef	0.072433345
59	0x3e045326	0.12922344
60	0xbe41df25	-0.18932779
61	0x3c987499	0.018610286
62	0xbd51b78f	-0.051200446
63	0xbe2ce947	-0.16885863
64	0xbd717386	-0.058948062
65	0xbde4f93d	-0.11180351
66	0xbdb6fd3a	-0.08935018
67	0xbdfb83bc	-0.12280986
68	0x3caae067	0.020858957
69	0xbe2edd62	-0.17076638
70	0xbd9852c5	-0.07437662
71	0xbe092759	-0.13393916
72	0xbca41db7	-0.0200337
73	0x3bf677d7	0.0075216102
74	0xbde06148	-0.10956055
75	0xbc94b1fa	-0.018151272
76	0xbde9389c	-0.113877505
77	0xbd921d80	-0.07134533
78	0xbe170cb6	-0.14750943
79	0xbe66155f	-0.2246909
80	0x3e295853	0.165376
81	0xbdb47aaa	-0.08812459
82	0xbe921cca	-0.2853759
83	0xbe6b907b	-0.23004334
84	0x3cbeb49b	0.023279479
85	0xbd71f226	-0.05906882
86	0xbdc5d08a	-0.09658916
87	0xbe50df4e	-0.20397684
88	0xbe071cd9	-0.13194598
89	0xbe597b95	-0.21238549
90	0xbdb5637a	-0.08856864
91	0x3d1ebc37	0.038753714
92	0xbe1135ed	-0.14180727
93	0x3bc504fa	0.006012556
94	0xbe7b5c74	-0.24546987
95	0xbdb0aa56	-0.08626239
96	0xbd8bd2f7	-0.06827348
97	0xbe898b89	-0.2686427
98	0xbe0b72ea	-0.13618055
99	0xbd69ec3e	-0.057110064
100	0xbd5a2a83	-0.0532632
101	0xbcce0dc1	-0.025153043
102	0xbcdb6708	-0.026782528
103	0x3cf20ec1	0.02954805
104	0xbe2df873	-0.16989307
105	0xbdbfac03	-0.093589805
106	0xbcae5a73	-0.021283364
107	0xbe0f5591	-0.13997485
108	0xbe46ca0e	-0.19413015
109	0xbd2e3fab	-0.042541187
110	0x3dfa5ae2	0.12224366
111	0xbcf47088	-0.029838815
112	0xbdffff3a	-0.124998525
113	0xbcad6255	-0.021165052
114	0xbe035aa0	-0.1282754
115	0x3b009e19	0.0019625484
116	0xbd9592b5	-0.07303373
117	0xbd32f6fc	-0.043692574
118	0xbcf84c7a	-0.030309904
119	0xbd9292bc	-0.071568936
120	0xbd14a8cc	-0.03629379
121	0xbd608805	-0.05481722
122	0xbe1e7f2c	-0.154782
123	0xbda8f907	-0.08250623
124	0xbd04549b	-0.03230725
125	0x3c97f202	0.018548016
126	0x3e427ce4	0.18992954
127	0x3e38c0d6	0.18042311
128	0xbe3a802b	-0.18212955
129	0xbdbcf19b	-0.0922577
130	0xbe1c4702	-0.15261462
131	0x3e1f1b86	0.15537843
132	0xbe8bc6e4	-0.2730018
133	0xbdbde696	-0.092724964
134	0xbe3685a9	-0.17824425
135	0xbd330f6a	-0.043715872
136	0x3e365b54	0.17808276
137	0xbe372c89	-0.17888083
138	0x3c15c391	0.009140865
139	0x3cccc798	0.024997517
140	0xbd9e98fc	-0.07744023
141	0xbd36431d	-0.044497598
142	0x3da70e53	0.08157029
143	0xbdc10cf1	-0.094262965
144	0xbe283987	-0.16428195
145	0xbe41bf6a	-0.18920675
146	0xbe2a7a9e	-0.16648337
147	0xbdd2c8b4	-0.10292187
148	0xbd5cdab1	-0.053919498
149	0xbe53b64b	-0.20675008
150	0xbe2618b0	-0.16220355
151	0x3c9f1b55	0.019422213
152	0xbdc94af0	-0.09828746
153	0xbe1a0b01	-0.1504326
154	0xbe0bb69d	-0.1364388
155	0xbdc334ad	-0.095315315
156	0xbda292fc	-0.07938191
157	0xbe39fc59	-0.18162669
158	0xbe33ffcd	-0.17578049
159	0xbe1183ec	-0.1421048
160	0xbd5b0345	-0.053469915
161	0xbd3ecda0	-0.046582818
162	0x3d202aca	0.039103307
163	0xbe0ec947	-0.13943969
164	0xbda529a8	-0.08064586
165	0x3df25eb0	0.118344665
166	0xbe25acea	-0.16179243
167	0xbe791cfa	-0.2432746
168	0xbcf9a06b	-0.030472001
169	0xbdc04183	-0.09387495
170	0xbd02531c	-0.03181754
171	0xbe22107c	-0.15826601
172	0xbe6a0cb5	-0.2285641
173	0xbde7f194	-0.11325374
174	0x3d06c5a1	0.032903317
175	0xbe29aa3e	-0.16568848
176	0xbe359523	-0.17732672
177	0xbdddfe63	-0.10839536
178	0xbe290077	-0.16504084
179	0xbd924a3a	-0.07143064
180	0xbdb6ff99	-0.0893547
181	0xbe761de2	-0.24034837
182	0xbdf6db01	-0.120534904
183	0xbde122be	-0.10992955
184	0xbef59e79	-0.47972468
185	0xbdc2e810	-0.09516919
186	0xbe090ae8	-0.13383067
187	0xbddb2ed7	-0.10702293
188	0xbe5e83c2	-0.21729949
189	0xbe861091	-0.26184514
190	0x3cc36a58	0.02385442
191	0xbe4ccfa7	-0.20001088
192	0xbc62188c	-0.013799798
193	0xbdee353b	-0.11631247
194	0xbd8e9307	-0.06961637
195	0xbe1e5690	-0.15462708
196	0x3b4c7730	0.003119897
197	0x3c289f5c	0.0102919005
198	0x3ad3e05e	0.0016164889
199	0xbe43a34f	-0.19105266
200	0x3df310d1	0.11868442
201	0xbe588b63	-0.21146922
202	0xbcabfe71	-0.02099535
203	0xbd96b13e	-0.07358025
204	0xbd8001eb	-0.06250366
205	0x3de7c0df	0.11316084
206	0xbe4302e0	-0.19044065
207	0xbe1da820	-0.15396166
208	0xbcca2aae	-0.024678554
209	0x3dd2a5b9	0.10285515
210	0xbe05a017	-0.1304935
211	0xbe02afc1	-0.12762357
212	0xbe56ac4c	-0.20964164
213	0xbe377437	-0.17915426
214	0xbe24f6b3	-0.16109733
215	0x3dbd8987	0.09254747
216	0x3d83f324	0.0644286
217	0xbe23956c	-0.15974969
218	0x3cbdf056	0.02318589
219	0xbd2697bc	-0.04067205
220	0xbe78a3a1	-0.2428117
221	0xbe2f9a03	-0.17148595
222	0x3ca9965d	0.020701582
223	0xbe97a11c	-0.29615104
224	0xbd933e6a	-0.07189639
225	0xbe34deeb	-0.17663161
226	0x3c4e0d44	0.012576405
227	0xbd5be5ac	-0.05368583
228	0xbe1f3d37	-0.15550695
229	0xbdd8ff0f	-0.105955236
230	0x3b0a3796	0.002109026
231	0x3db21296	0.08694951
232	0x3d8b831e	0.06812118
233	0x3c97632f	0.018479912
234	0x3df63c7c	0.12023255
235	0xbe6f7697	-0.23385082
236	0xbd9ba61c	-0.07600042
237	0xbcec9948	-0.028881684
238	0xbe01e8ec	-0.12686509
239	0xbe265b27	-0.1624571
240	0xbd04331c	-0.032275304
241	0xbdf4ef94	-0.119597584
242	0xbe354407	-0.17701732
243	0xbe015aef	-0.12632345
244	0xbe1ec19a	-0.1550354
245	0xbe082554	-0.1329549
246	0xbac9394b	-0.0015352158
247	0xbe6200db	-0.22070639
248	0xbc9f3861	-0.019436063
249	0xbe0f24f4	-0.1397894
250	0xbdd0a487	-0.10187631
251	0x3cb95e35	0.02262793
252	0xbcda08ed	-0.026615584
253	0xbd66d687	-0.056356933
254	0x3ccfe57d	0.025377983
255	0xbd8b85e8	-0.0681265

network_body._body_endoder.seq_layers.2.weight f4 [256, 256]
0	0x3eba8829	0.36432007
1	0xbf1fa51d	-0.6236132
2	0x3de35337	0.11099856
3	0x3de54c33	0.111961745
4	0x3e694985	0.22781952
5	0xbea370ae	-0.31921905
6	0x3e83542d	0.2565016
7	0x3e1699f7	0.1470717
8	0x3d1ef287	0.03880551
9	0xbe34b239	-0.17646112
10	0x3e1d8ef8	0.1538657
11	0x3e01e2c4	0.1268416
12	0xbd10903f	-0.035293814
13	0x3e8c1682	0.27360922
14	0xbeb641fd	-0.3559722
15	0x3e0fcb51	0.14042403
16	0x3dfb0a03	0.12257769
17	0x3eb4595d	0.3522443
18	0x3e406b50	0.18790936
19	0x3c7d2eb2	0.015453028
20	0x3e1ad493	0.15120153
21	0x3e6ff2e0	0.23432493
22	0x3e8a9e57	0.2707393
23	0xbeb55da0	-0.35422993
24	0xbf300ab6	-0.68766344
25	0x3f24973f	0.64293283
26	0x3da894d7	0.08231514
27	0xbe8bdd1d	-0.27317134
28	0xbdca66d9	-0.09882898
29	0x3dadc1ec	0.08484253
30	0xbe1872ac	-0.14887494
31	0xbd95b535	-0.07309953
32	0xbd5cc3c4	-0.053897634
33	0x3bf35b50	0.007426657
34	0x3dcc51e9	0.099765606
35	0xbe476308	-0.19471371
36	0xbe941611	-0.28923085
37	0x3e8b049e	0.2715196
38	0x3ef4fa86	0.47847384
39	0xbf0fcf73	-0.5617592
40	0x3eb6f8f0	0.357368
41	0xbe4cfd11	-0.20018412
42	0xbe219353	-0.15778856
43	0xbce1a469	-0.027544217
44	0xbe485e76	-0.19567284
45	0xbf5264f0	-0.8218527
46	0xbf487d29	-0.7831598
47	0x3d40b1ab	0.047044437
48	0x3cd019d4	0.02540294
49	0xbf165138	-0.5871768
50	0x3ea803df	0.32815453
51	0xbe9ae4dc	-0.3025273
52	0xbd2a7e16	-0.04162415
53	0xbf32ab2f	-0.69792455
54	0xbe02092e	-0.12698814
55	0xbe7f35d5	-0.24922879
56	0x3e2e9755	0.17049916
57	0xbdc5e97a	-0.09663673
58	0xbed7d688	-0.42155862
59	0xbe8e8ef3	-0.27843437
60	0xbe986290	-0.29762697
61	0x3dca619a	0.09881897
62	0xbf07a088	-0.52979326
63	0xbe8bb54f	-0.27286765
64	0x3db57c4c	0.08861598
65	0xbe0c5d3b	-0.1370744
66	0xbe813e89	-0.25243023
67	0xbe82045b	-0.25393948
68	0x3ea4dcf7	0.32199833
69	0x3c5d07e6	0.013490653
70	0xbed70497	-0.4199569
71	0x3dd7ac59	0.105309196
72	0xbe4f62fb	-0.20252602
73	0xbd668f95	-0.056289274
74	0xbeaf0172	-0.3418079
75	0xbec33272	-0.38124424
76	0x3dd84b9e	0.10561298
77	0x3d82fece	0.063962564
78	0xbf218494	-0.63092923
79	0x3e923c8a	0.28561813
80	0x3e5e9a18	0.2173847
81	0xbde3e40c	-0.11127481
82	0x3ebc2d21	0.3675318
83	0x3e99ca27	0.30037042
84	0x3e8efe44	0.27928364
85	0xbeecef4a	-0.46276313
86	0xbf5d57f2	-0.8646232
87	0x3e1bf050	0.1522839
88	0xbe8d4991	-0.2759519
89	0xbd773f76	-0.060363255
90	0x3f260850	0.64856434
91	0xbda76d95	-0.08175198
92	0x3d80779d	0.062728144
93	0xbe029b35	-0.1275452
94	0x3d988c5a	0.07448645
95	0x3d206493	0.039158415
96	0x3eb2c184	0.34913266
97	0x3e804b46	0.2505743
98	0x3e4b0a73	0.19828205
99	0xbeb7db3b	-0.35909447
100	0xbeb88aa8	-0.36043286
101	0x3e869e52	0.26292664
102	0xbe89f4dc	-0.26944625
103	0x3ed027f7	0.4065549
104	0x3df0f0e7	0.117646985
105	0xbec504fe	-0.3848037
106	0xbdb3b2ea	-0.087743595
107	0x3c88c9c2	0.016697768
108	0xbd76abc5	-0.060222406
109	0x3eb384bc	0.35062206
110	0x3debb1ce	0.11508523
111	0xbd702d26	-0.058636807
112	0xbf01b0fa	-0.5066067
113	0x3e7f8c24	0.24955803
114	0xbe524df7	-0.20537554
115	0x3e9cb463	0.30606374
116	0xbdd0966a	-0.10184939
117	0x3e820ad3	0.25398883
118	0x3f4b9b18	0.7953353
119	0xbeb69cb6	-0.35666436
120	0xbd737ac7	-0.05944326
121	0x3e1f5421	0.15559436
122	0xbdb5028c	-0.088383764
123	0xbd90279c	-0.07038805
124	0x3edf2bc1	0.4358807
125	0x3da378ef	0.079820506
126	0xbec5b372	-0.38613468
127	0xbf059212	-0.5217601
128	0xbe237139	-0.1596116
129	0x3e304b2f	0.1721618
130	0xbe8b6d40	-0.2723179
131	0xbd8d8481	-0.06910039
132	0x3ec70f2c	0.38878763
133	0x3e2aeca7	0.16691838
134	0xbe9a0737	-0.3008363
135	0xbd8c983b	-0.06864973
136	0xbe898492	-0.26858956
137	0x3e2ee51f	0.1707959
138	0xbf58f110	-0.8474283
139	0xbdd78c3f	-0.10524797
140	0x3f165b12	0.5873271
141	0xbe6e38d4	-0.23263866
142	0xbe699f6a	-0.22814718
143	0x3dcc3e09	0.0997277
144	0xbee97efe	-0.456047
145	0x3e946988	0.28986764
146	0x3c83fede	0.016112741
147	0x3e254012	0.16137722
148	0x3d691858	0.05690798
149	0xbd8f7929	-0.07005531
150	0xbe356d17	-0.17717396
151	0x3dacba2f	0.08433949
152	0xbd8c85d9	-0.06861467
153	0xbc7c8957	-0.015413604
154	0xbe6a0f3c	-0.22857374
155	0xbea3561a	-0.31901628
156	0x3e91cf17	0.2847831
157	0x3cc3bd5b	0.023894003
158	0x3e91d27d	0.28480902
159	0xbe1d6e91	-0.15374209
160	0xbdeb0189	-0.11474902
161	0xbedae1f6	-0.4275052
162	0xbe8f02e9	-0.27931908
163	0xbe881963	-0.2658187
164	0x3bec0381	0.007202566
165	0xbf1e46f7	-0.61827034
166	0xbeb4a01c	-0.35278404
167	0xbeadc95f	-0.33942696
168	0xbe50c734	-0.2038849
169	0xbf139814	-0.5765393
170	0x3e362eb5	0.17791255
171	0x3dc89cab	0.09795507
172	0x3ddf359f	0.10898899
173	0x3e8060b2	0.25073773
174	0x3ebb47ab	0.36578116
175	0xbed5d5de	-0.4176473
176	0xbe9041fb	-0.2817534
177	0xbe5a026c	-0.21289986
178	0x3e934a91	0.28767827
179	0x3e8e9231	0.2784591
180	0xbe9f256f	-0.31083247
181	0x3c76d6b4	0.015065838
182	0x3e021865	0.12704618
183	0xbe3d7016	-0.18499789
184	0xbdcd4ba1	-0.10024191
185	0xbe3fedb1	-0.18743016
186	0x3ecb02c5	0.3965055
187	0x3db4a3a4	0.088202745
188	0xbe425d6f	-0.18980955
189	0xbe9efd12	-0.31052452
190	0x3c8d42ee	0.017243829
191	0xbf75dec2	-0.96043026
192	0x3ebe9e88	0.37230325
193	0xbf34abf4	-0.7057488
194	0x3e08eaa6	0.13370761
195	0xbe25f10c	-0.16205233
196	0xbd958fbe	-0.07302807
197	0x3dd8d877	0.105881624
198	0x3ee9b4bb	0.456457
199	0x3efc04c7	0.49222395
200	0x3ec95cab	0.39328513
201	0x3e8844b1	0.26614907
202	0xbcbf86c8	-0.023379698
203	0xbdcdef4d	-0.100554086
204	0xbf090efe	-0.535385
205	0xbe0c4c48	-0.13700974
206	0x3ed7bb15	0.4213492
207	0xbe143b7c	-0.14475816
208	0xbcb01133	-0.021492576
209	0xbee009df	-0.4375753
210	0xbe4ac906	-0.19803247
211	0xbef4504b	-0.4771751
212	0x3f1942f7	0.59867805
213	0xbd991eb5	-0.0747656
214	0xbe5e5333	-0.21711425
215	0x3d3e3195	0.046434004
216	0xbd1db27e	-0.0385003
217	0x3d7281d8	0.05920586
218	0xbe88d0fa	-0.26721936
219	0x3eba01a8	0.3632939
220	0x3d476120	0.04867661
221	0x3f36461f	0.71200746
222	0xbeb45472	-0.35220677
223	0xbde814e3	-0.11332109
224	0xbe9888d6	-0.29791898
225	0xbe82cbeb	-0.25546202
226	0xbeaa76c7	-0.33293745
227	0x3f1d7eaf	0.6152143
228	0xbe8013e5	-0.25015178
229	0x3c6f9b72	0.014624463
230	0xbe51f64d	-0.20504113
231	0xbdf2f232	-0.11862601
232	0x3e6a34bd	0.2287168
233	0x3dbfd1e7	0.093662076
234	0x3b447fc5	0.0029983383
235	0xbd598cac	-0.05311267
236	0xbec489e4	-0.38386452
237	0x3ef9e8eb	0.48810515
238	0xbf0309be	-0.5118674
239	0x3e6dd8e4	0.23227268
240	0xbea100fa	-0.31446058
241	0x3dd4f875	0.10398952
242	0xbdd901ec	-0.1059607
243	0x3d20b291	0.039232794
244	0x3ed30842	0.41217238
245	0xbd92656e	-0.071482524
246	0x3dddea44	0.10835698
247	0x3eb144fa	0.34622937
248	0x3ea8ea62	0.3299132
249	0xbd3b4216	-0.04571732
250	0x3e471a5c	0.19443649
251	0x3e6ccf72	0.23126009
252	0xbe8e78b0	-0.27826452
253	0x3dce3c8d	0.10070143
254	0xbed08e6c	-0.4073366
255	0xbe15be7c	-0.14623445

network_body._body_endoder.seq_layers.2.bias f4 [256]
0	0xbdc13859	-0.094345756
1	0xbe708116	-0.23486742
2	0xbe60ad92	-0.21941212
3	0xbe7f1993	-0.249121
4	0xbe900381	-0.28127673
5	0xbe8febc3	-0.2810956
6	0xbe138538	-0.14406288
7	0xbe407e64	-0.18798214
8	0xbdd7d376	-0.1053838
9	0xbc142498	-0.009041928
10	0xbe8c186f	-0.2736239
11	0x3e276041	0.16345312
12	0xbe2eeb9b	-0.17082064
13	0xbd9b3844	-0.07579091
14	0xbe078c6e	-0.13237163
15	0xbec930d5	-0.39295068
16	0xbd64e581	-0.055882934
17	0xbe5fd858	-0.21859872
18	0xbe803847	-0.25042936
19	0xbe52388f	-0.20529388
20	0xbe1669ed	-0.14688845
21	0xbe257d68	-0.1616112
22	0x3d93bc32	0.0721363
23	0xbd5f5aeb	-0.054530066
24	0xbde77f81	-0.11303616
25	0xbdb9f9d3	-0.09080853
26	0xbdd96573	-0.10615053
27	0xbdc37441	-0.09543658
28	0xbe920930	-0.28522635
29	0xbec05ff3	-0.37573203
30	0xbf053d7b	-0.52046937
31	0xbe2a2182	-0.16614345
32	0xbe49247c	-0.19642824
33	0xbe4918a1	-0.19638301
34	0xbd88b270	-0.06674659
35	0xbe03cbe1	-0.12870742
36	0xbe168551	-0.14699294
37	0xbea0edf8	-0.31431556
38	0xbe3237fc	-0.17404169
39	0xbd44f6a2	-0.04808677
40	0xbe83ebe6	-0.25765914
41	0xbe390264	-0.18067318
42	0xbe3a5ba8	-0.18199027
43	0xbe4df9d6	-0.20114836
44	0xbe9b801d	-0.3037118
45	0xbe02eb50	-0.12785077
46	0xbe1419a8	-0.14462912
47	0xbe12ac1f	-0.14323471
48	0xbe4f2565	-0.20229109
49	0xbdc21892	-0.09477343
50	0xbebd1814	-0.36932433
51	0xbe280426	-0.16407833
52	0xbe979670	-0.29606962
53	0xbe565a32	-0.20932844
54	0xbe1511ea	-0.14557615
55	0xbeb3298b	-0.34992632
56	0xbdeb18bb	-0.11479326
57	0xbea56306	-0.3230211
58	0x3ba31904	0.0049773473
59	0x3eb69492	0.35660225
60	0xbe3d7921	-0.18503238
61	0x3d4df279	0.050280068
62	0xbe81a867	-0.25323793
63	0xbea637ec	-0.3246454
64	0xbeabc801	-0.33551028
65	0xbe2785bf	-0.16359614
66	0x3a3da3f7	0.00072342105
67	0xbd372fae	-0.044723205
68	0xbebcef78	-0.3690145
69	0xbe2bffb2	-0.16796759
70	0xbe229cf3	-0.15880184
71	0xbddf21af	-0.108950965
72	0xbe0b0e07	-0.1357957
73	0x3cead075	0.028663853
74	0xbda391b7	-0.07986777
75	0xbeb0ae93	-0.3450819
76	0xbe151454	-0.14558536
77	0x3dbc579a	0.09196396
78	0xbe82ef01	-0.2557297
79	0xbeb18bf7	-0.34677097
80	0xbe86eec0	-0.26354027
81	0xbea047b4	-0.31304705
82	0xbd82a66d	-0.063793994
83	0xbe873790	-0.26409578
84	0xbe279a36	-0.1636742
85	0xbecae5eb	-0.39628538
86	0xbe708403	-0.23487858
87	0xbd7c25dd	-0.061559547
88	0xbdfb65e3	-0.12275293
89	0xbe11c02c	-0.14233464
90	0xbe96641b	-0.2937325
91	0xbe24be09	-0.16088118
92	0xbe896367	-0.2683365
93	0xbe9cc073	-0.30615577
94	0xbea44017	-0.32080147
95	0xbe1c4993	-0.15262441
96	0xbec76c1f	-0.38949677
97	0xbeaf61ac	-0.34254205
98	0x3ccfcc03	0.025365835
99	0xbe572f86	-0.21014223
100	0xbe67dafc	-0.2264213
101	0xbde57d1c	-0.11205503
102	0xbe04269b	-0.12905352
103	0xbe23e60f	-0.16005729
104	0x3da04b7a	0.07826896
105	0xbd98e0e7	-0.07464772
106	0xbe550d04	-0.20805746
107	0xbe391b95	-0.18076928
108	0x3caa8ffb	0.020820608
109	0xbe241069	-0.16021885
110	0xbe658f4c	-0.22417945
111	0xbda6b27f	-0.08139514
112	0xbe28a6fa	-0.16469947
113	0xbdca6100	-0.098817825
114	0xbdc21672	-0.09476937
115	0xbdea7ecd	-0.114499666
116	0xbd46d388	-0.048541576
117	0xbdaf3f9b	-0.08557054
118	0xbe942d5a	-0.2894085
119	0xbe2493a9	-0.16071953
120	0xbe4ec04e	-0.20190546
121	0xbdb9bf57	-0.09069698
122	0x3e405697	0.18783031
123	0xbe920759	-0.2852123
124	0xbea6fc9d	-0.32614604
125	0xbe3709c8	-0.17874825
126	0xbeb4e580	-0.35331345
127	0xbea281c8	-0.3173964
128	0xbe206194	-0.15662223
129	0xbed2d8df	-0.41181085
130	0xbe8881b5	-0.2666146
131	0xbe656266	-0.22400817
132	0xbd8092c6	-0.06277995
133	0xbdd58179	-0.104250856
134	0x3ceb825a	0.02874868
135	0x3e199404	0.1499787
136	0xbe3c1a9c	-0.18369526
137	0xbe39d7e2	-0.18148759
138	0xbe871485	-0.26382843
139	0xbea0a2db	-0.3137425
140	0xbe112456	-0.14174017
141	0xbe91aeaa	-0.2845357
142	0xbec46442	-0.3835774
143	0xbdcddba7	-0.10051661
144	0xbe8247d0	-0.25445414
145	0xbe0024d3	-0.12514047
146	0xbd5f84c9	-0.054569993
147	0xbece4d84	-0.40293515
148	0xbe846dc5	-0.25864998
149	0xbe12a3f8	-0.14320362
150	0xbe417da7	-0.18895589
151	0xbe335db3	-0.17516212
152	0xbe27e609	-0.16396345
153	0xbe46461e	-0.19362685
154	0x3d035a34	0.032068446
155	0xbd7d5f84	-0.06185867
156	0xbe18ba7c	-0.14914888
157	0x3b3cb5a4	0.002879479
158	0xbeb20e8b	-0.3477672
159	0xbe3850f1	-0.17999627
160	0xbe9fb3e7	-0.31191942
161	0xbc990dcb	-0.018683335
162	0xbe2a46cd	-0.16628571
163	0xbe0f117a	-0.1397151
164	0xbef4f72a	-0.4784482
165	0xbee4f543	-0.4471837
166	0xbe3120fc	-0.17297739
167	0xbf01073e	-0.50401676
168	0xbcb8cc6f	-0.022558419
169	0x3d0a1847	0.03371456
170	0xbe708f10	-0.23492074
171	0xbd9ac9e3	-0.07558038
172	0xbe892b69	-0.26790932
173	0xbe953eea	-0.29149562
174	0xbee71ba0	-0.45138264
175	0xbea4d9d5	-0.32197443
176	0xbe12ed5c	-0.14348358
177	0xbe2901a2	-0.16504529
178	0xbe4d166b	-0.20028083
179	0xbe4988cc	-0.1968109
180	0x3b15e4c4	0.002287195
181	0xbe7d8236	-0.24756703
182	0xbe71c52d	-0.23610373
183	0xbe92b40e	-0.28652996
184	0xbea2f41d	-0.3182687
185	0xbe81571f	-0.2526178
186	0xbefdbfcf	-0.495604
187	0xbf03b615	-0.5144971
188	0xbe0d6fe0	-0.13812208
189	0xbe971ee5	-0.29515758
190	0xbf0f9983	-0.56093615
191	0xbd5aeb9b	-0.053447347
192	0xbe96389e	-0.2934007
193	0x3dff7e60	0.12475276
194	0xbea175a5	-0.31535068
195	0xbeabb646	-0.335375
196	0x3df627bd	0.12019298
197	0xbe7485a7	-0.2387911
198	0xbed28ace	-0.41121525
199	0xbe0594d6	-0.13045058
200	0xbe165086	-0.14679155
201	0xbdeb6990	-0.11494744
202	0xbcadf170	-0.02123329
203	0xbe4d935c	-0.20075744
204	0xbed37c04	-0.41305554
205	0xbe00299d	-0.12515874
206	0xbd62e2e0	-0.055392146
207	0x3b9ee128	0.004848618
208	0xbd8d7a16	-0.06908052
209	0xbea3dade	-0.3200292
210	0xbe408249	-0.187997
211	0xbeb161e0	-0.34644985
212	0xbe655e1a	-0.22399178
213	0xbe5f50e7	-0.21808206
214	0xbe0fa9ed	-0.14029665
215	0xbe2abc58	-0.1667341
216	0xbe69e9f1	-0.22843148
217	0x3de84333	0.11340942
218	0x3e7dad35	0.24773104
219	0xbea1ad2a	-0.31577426
220	0xbe6ad9ec	-0.22934693
221	0xbe4941bf	-0.19653986
222	0xbe54f256	-0.20795569
223	0x3db33ecd	0.08752213
224	0xbe92692c	-0.28595865
225	0xbe16dda4	-0.14732987
226	0xbe58a236	-0.21155629
227	0xbe6f2dbe	-0.23357293
228	0xbe95d1e2	-0.2926169
229	0xbdc8e563	-0.09809377
230	0xbe510ac7	-0.20414267
231	0xbe2f08ab	-0.1709315
232	0xbdb527cb	-0.088454805
233	0xbd7d7974	-0.061883405
234	0xbd90a997	-0.07063597
235	0xbe2bc9d9	-0.16776218
236	0x3cbee6d1	0.023303421
237	0xbee41e0c	-0.44554174
238	0xbe5d39ee	-0.2160413
239	0xbe8d8e5d	-0.27647677
240	0xbe974876	-0.2954747
241	0xbdc2d1d5	-0.095126785
242	0xbebe8dc3	-0.3721753
243	0x3c8eb729	0.017421322
244	0xbdd5743b	-0.1042256
245	0xbd6aed86	-0.057355426
246	0xbe6d8d51	-0.23198439
247	0xbe296f63	-0.16546397
248	0x3d038bc0	0.032115698
249	0xbe0e1a11	-0.13877131
250	0xbe1fc503	-0.15602498
251	0xbe22f042	-0.15911964
252	0xbdbe3be2	-0.092887655
253	0xbe6d85bc	-0.23195547
254	0xbc5e53a6	-0.013569748
255	0xbe79df9a	-0.24401703

action_model._discrete_distribution.branches.0.weight f4 [3, 256]
0	0xbcc2ddc6	-0.02378739
1	0x3e2083bc	0.15675253
2	0x3e8ee8a8	0.27911878
3	0x3c611caa	0.013739744
4	0xbd768010	-0.060180724
5	0x3e110913	0.14163618
6	0x3de768bf	0.112992756
7	0xbf070cc5	-0.5275386
8	0x3d566cd2	0.052349873
9	0xbc121f36	-0.008918574
10	0x3e32e2b1	0.17469288
11	0x3ddcecba	0.107873395
12	0x3d6c845f	0.057743426
13	0x3e6c3a91	0.23069216
14	0xbd9e6822	-0.077347055
15	0x3be21964	0.0068999995
16	0xbf19fd36	-0.60151994
17	0x3dec7dbc	0.115474194
18	0x3ded53db	0.1158826
19	0xbe945f9d	-0.28979197
20	0x3dbe3855	0.09288088
21	0x3e12d656	0.14339575
22	0x3e5827d1	0.21108939
23	0x3de8c8b1	0.11366404
24	0xbd48a2a5	-0.048983235
25	0x3ccf5d60	0.02531308
26	0xbe1d0c57	-0.15336739
27	0xbd27a7e7	-0.04093161
28	0x3e43c590	0.19118333
29	0x3e839204	0.2569734
30	0xbeb2d7da	-0.34930307
31	0x3c67cb6a	0.014147619
32	0xbd192f1d	-0.037398446
33	0x3e731424	0.23738152
34	0x3cd7f2a4	0.026360817
35	0x3cdebb44	0.027188905
36	0x3e331f50	0.17492414
37	0xbd24f0ae	-0.040268593
38	0x3da3ca5b	0.079975806
39	0x3d493b1e	0.049128644
40	0xbe2b103a	-0.16705409
41	0xbd8bfcf9	-0.0683536
42	0xbe890beb	-0.26766905
43	0x3cbb9077	0.022896035
44	0xbda3ba7e	-0.07994555
45	0x3db27ec3	0.08715584
46	0x3d44409b	0.047913175
47	0xbe76c33f	-0.24097918
48	0x3d14faed	0.036372114
49	0x3d8c5644	0.06852391
50	0xbbc5dbf5	-0.006038184
51	0xbdbd8378	-0.09253591
52	0xbd889810	-0.066696286
53	0xbd440fea	-0.04786674
54	0x3d1474ee	0.036244325
55	0xbd5f27ff	-0.054481503
56	0xbcf367be	-0.029712554
57	0x3dfa4e00	0.122219086
58	0x3e17f9d0	0.1484139
59	0xbce8e80d	-0.028430963
60	0x3e47a832	0.19497755
61	0xbd9e2a47	-0.077229075
62	0x3e125110	0.14288735
63	0x3e27c93a	0.16385356
64	0x3ebe4eba	0.3716944
65	0xbe4fda39	-0.20298089
66	0x3d79fb9b	0.061030965
67	0x3d845922	0.06462313
68	0x3d85ceda	0.065335944
69	0x3dcbe4a9	0.09955723
70	0x3c2da5bc	0.010598596
71	0x3dbdd6a8	0.09269458
72	0xbbc3771e	-0.0059651276
73	0x3e344d7e	0.17607686
74	0xbc217493	-0.009854454
75	0x3dfb9f01	0.12286187
76	0x3da11090	0.07864487
77	0xbc8892fa	-0.016671646
78	0xbb91e1fd	-0.0044519887
79	0xbd106fca	-0.03526286
80	0xbcddc3e3	-0.027070945
81	0x3e7e7433	0.24849014
82	0x3e1207ff	0.14260863
83	0x3d482af9	0.048869107
84	0x3d913abc	0.07091281
85	0x3df9de01	0.12200547
86	0x3e9fdc7d	0.31222907
87	0x3df17bb5	0.11791173
88	0x3c852a21	0.01625544
89	0xbd27c84d	-0.040962506
90	0x3be09c78	0.00685459
91	0xbe6198a0	-0.22030878
92	0x3c613a37	0.01374679
93	0xbd140171	-0.036134187
94	0x3e81df1e	0.25365537
95	0x3d16cd94	0.03681715
96	0x3ce6ab30	0.0281578
97	0x3dca1055	0.09866396
98	0x3c177231	0.009243534
99	0xbc229534	-0.009923268
100	0x3cf1e48c	0.029527925
101	0xba6f230d	-0.00091223494
102	0x3d938ef7	0.07205003
103	0xbda52f43	-0.08065655
104	0xbdbff497	-0.09372824
105	0xbe9ed94d	-0.31025162
106	0x3c3c21ed	0.011482698
107	0x3e119afa	0.14219275
108	0x3cf65065	0.030067632
109	0x3bd296f5	0.006426687
110	0xbe48e1c1	-0.19617368
111	0x3e19fbe9	0.15037502
112	0xbd4fd1a8	-0.050737053
113	0x3d514840	0.051094294
114	0x3c7a6b8f	0.015284433
115	0x3e746dd4	0.23870021
116	0xbe0a0f74	-0.13482457
117	0x3df4d375	0.11954395
118	0xbe8db324	-0.27675736
119	0x3cedb94a	0.029019017
120	0xbd86340c	-0.06552896
121	0x3dbacc19	0.0912096
122	0xbcc77c55	-0.024351278
123	0x3c9480d2	0.018127833
124	0x3e0b27c0	0.13589382
125	0x3e038c91	0.1284659
126	0x3b9dad46	0.0048119156
127	0x3e2793fa	0.16365042
128	0x3d1dbde8	0.038511187
129	0xbea4543e	-0.32095522
130	0x3df97805	0.12181095
131	0xbe1f0da1	-0.15532543
132	0xbdbefeaf	-0.09325921
133	0x3c63e2b8	0.013909034
134	0x3de39470	0.111122966
135	0x3d5f301d	0.054489244
136	0xbe06ddfe	-0.13170621
137	0x3cc5d46c	0.024149142
138	0x3e8a61cd	0.2702774
139	0x3d531ac9	0.051539216
140	0xba7794a0	-0.0009444449
141	0x3e50056b	0.20314567
142	0xbdfc6de5	-0.12325648
143	0xbddfb620	-0.109234095
144	0xbd87cf7b	-0.06631371
145	0xbd9f8a2a	-0.077900246
146	0x3e0c1d5c	0.13683075
147	0xbd15df9b	-0.0365902
148	0xbd0dad48	-0.034589082
149	0x3ec1e638	0.37870955
150	0x3d8fa25b	0.07013389
151	0xb8fba2fa	-0.000119989694
152	0x3dd34658	0.103161514
153	0xbc862781	-0.016376259
154	0x3e2b1d61	0.16710426
155	0x3c6c75e9	0.014432409
156	0x3deccf3a	0.11562963
157	0xbda56d00	-0.08077431
158	0xbbf60402	-0.007507802
159	0xbc681c9e	-0.014166979
160	0xbe1328cd	-0.14371033
161	0x3c50f8e9	0.012754657
162	0x3e4f42bc	0.20240301
163	0xbe2bfae7	-0.1679493
164	0xbdc5cf65	-0.09658698
165	0xbd25b870	-0.040459096
166	0x3d8d19fa	0.0688972
167	0x3e1c3419	0.15254249
168	0x3ea2a454	0.31765997
169	0xbd58805e	-0.052856795
170	0x3d056409	0.032566104
171	0xbd2769b0	-0.040872276
172	0x3e2a97ec	0.16659516
173	0x3e12f194	0.14349967
174	0x3bebd53f	0.007197052
175	0x3e2d2a25	0.16910608
176	0xbcc7b3be	-0.0243777
177	0x3dc74381	0.09729672
178	0x3d963613	0.073345326
179	0xbdcae523	-0.099069856
180	0x3db3ac6c	0.08773121
181	0x3d4af384	0.04954864
182	0x3e314886	0.17312822
183	0xbd2c05ee	-0.041997842
184	0xbed39405	-0.41323867
185	0xbe0088e6	-0.12552223
186	0xbd2ec315	-0.042666513
187	0x3e7fae62	0.24968866
188	0x3db431ea	0.08798583
189	0x3dca689e	0.098832354
190	0xbe1caec2	-0.1530104
191	0x3da0fc2a	0.078605965
192	0xbd7df6d3	-0.062002968
193	0x3e4bb0ac	0.19891614
194	0x3daf135d	0.08548615
195	0x3e001f46	0.1251193
196	0x3d9a25bd	0.07526729
197	0x3b4775d0	0.0030435212
198	0x3e11fbbc	0.14256185
199	0x3c738a8f	0.014864578
200	0x3da44cd1	0.08022464
201	0xbd132f94	-0.035934046
202	0x3ebe8557	0.37211105
203	0x3caa88fd	0.020817274
204	0x3e0aa6a8	0.13540137
205	0xbe50cb52	-0.2039006
206	0x3dcd54ff	0.10025977
207	0x3d53bbb9	0.0516927
208	0xbe148fcd	-0.1450798
209	0x3e7d2ea2	0.2472482
210	0x3e073da6	0.13207111
211	0xbcfeddf2	-0.031111691
212	0x3b08712b	0.0020819406
213	0xbc6fd801	-0.014638902
214	0xbe0abd67	-0.13548814
215	0xbc7ad467	-0.01530943
216	0xbc76a0a5	-0.015052949
217	0xbca07c36	-0.019590478
218	0x398bb121	0.00026644117
219	0x3e29ae8e	0.16570494
220	0x3d705ac4	0.05868031
221	0x3cf8f869	0.030391889
222	0xbe58fa17	-0.21189152
223	0x3e192b82	0.14958003
224	0xbe95b387	-0.2923853
225	0x3e196549	0.14980043
226	0xbd573b04	-0.052546516
227	0x3d5588dd	0.052132476
228	0x3e2eea75	0.17081626
229	0x3de3869e	0.111096606
230	0xbd43e3c0	-0.04782462
231	0x3e77ab73	0.24186496
232	0x3df22430	0.118233085
233	0x3e073c57	0.13206612
234	0xbb921702	-0.004458309
235	0x3d3d6747	0.04624107
236	0xbd6242f5	-0.055239636
237	0x3cb84087	0.022491707
238	0xbe5b065f	-0.21389149
239	0x3dff23c9	0.12457997
240	0x3d0bbcee	0.034115724
241	0x3e3e7add	0.18601556
242	0x3e28cf09	0.16485228
243	0x3d817f1c	0.06323072
244	0x3da23af7	0.07921403
245	0xbcdde235	-0.027085403
246	0x3d822db2	0.06356372
247	0xbd12a9f0	-0.035806596
248	0x3d115dd0	0.035489857
249	0x3e47051c	0.19435543
250	0xbd25a748	-0.040442735
251	0x3dfeb7c2	0.12437393
252	0x3e9aefe3	0.30261144
253	0xbc72261e	-0.014779596
254	0x3dd32513	0.10309806
255	0x3e703893	0.23459081

action_model._discrete_distribution.branches.0.bias f4 [3]
0	0xbd831f97	-0.0640251
1	0x3d9ce37f	0.07660579
2	0x3c85b36d	0.016320908

action_model._discrete_distribution.branches.1.weight f4 [2, 256]
0	0x3d5f25ba	0.05447934
1	0x3e081caa	0.13292184
2	0x3eae3dbc	0.34031475
3	0xbe1f1138	-0.15533912
4	0x3dd11c23	0.10210445
5	0x3d802772	0.062575236
6	0xbcf6e7ea	-0.030139882
7	0xbc4e7701	-0.012601615
8	0xbe293af3	-0.16526394
9	0x3ca77b10	0.020444423
10	0x3d39149b	0.045185667
11	0x3d632a66	0.055460356
12	0x3e748c05	0.23881538
13	0xbda8c4bb	-0.08240648
14	0xbe6bd493	-0.2303031
15	0x3eac7971	0.33686402
16	0x3e40530e	0.18781683
17	0x3c45d92d	0.0120757045
18	0xbda5cb24	-0.080953866
19	0xbeb1d3c6	-0.34731883
20	0x3e11b8dd	0.14230676
21	0x3da7f55e	0.08201097
22	0xbc59ed22	-0.013301166
23	0xbd82d310	-0.06387913
24	0xbe78d629	-0.24300446
25	0xbe6e6d99	-0.23283996
26	0x3dc37a55	0.09544817
27	0xbd505e40	-0.050871134
28	0xbde78954	-0.1130549
29	0xbe1fa4ab	-0.1559016
30	0xbe010fec	-0.1260373
31	0xbc864246	-0.016389024
32	0x3c87d1bc	0.016579501
33	0xbd95dcc3	-0.073174976
34	0x3de5e6ba	0.11225648
35	0x3e854c6a	0.26034862
36	0x3cee4354	0.029084839
37	0xbc02663b	-0.007958944
38	0xbe9e51ba	-0.30921727
39	0x3cae53c2	0.021280173
40	0x3da4bf8e	0.08044349
41	0xbe79914b	-0.24371831
42	0xbe1d67c3	-0.15371613
43	0xbe0b9ff3	-0.13635235
44	0x3d4ec1ad	0.050477672
45	0x3e1b8f5d	0.15191408
46	0xbe3eb173	-0.18622379
47	0xbe065fc2	-0.13122466
48	0xbe0c5772	-0.13705233
49	0x3dc7f07d	0.097626664
50	0x3bfca124	0.007709639
51	0xbd542e99	-0.05180225
52	0x3e0c9284	0.13727766
53	0xbcebf98c	-0.028805517
54	0xbd8714a0	-0.06595731
55	0x3e1c08c3	0.15237717
56	0xbd948a17	-0.07252901
57	0x3ee7c570	0.4526782
58	0xbc8c3e64	-0.017119594
59	0xbc2d00dd	-0.010559288
60	0x3dce1dc0	0.10064268
61	0x3e3697f5	0.17831405
62	0xbc226de5	-0.009913896
63	0xbe73b0b2	-0.23797873
64	0x3ed21610	0.41032457
65	0x3db0ae3a	0.08626981
66	0x3c62adad	0.013835353
67	0xbcca3eb8	-0.02468811
68	0x3e34128a	0.17585197
69	0x3d426d65	0.047467608
70	0x3d50691e	0.050881498
71	0xbe917410	-0.2840886
72	0xbd406ae1	-0.046976928
73	0x3e061817	0.13095127
74	0x3ce595a8	0.028025463
75	0x3df39b37	0.11894839
76	0x3d8d7a2e	0.069080696
77	0xbd1cd975	-0.03829332
78	0xbcc457cd	-0.023967648
79	0xbd6d4373	-0.057925653
80	0xbd8fc240	-0.07019472
81	0x3e54695a	0.20743313
82	0x3d378092	0.04480035
83	0x3e236596	0.1595672
84	0x3cc19e38	0.023635015
85	0x3e9ce0d3	0.30640277
86	0xbee35fcb	-0.44409022
87	0xbe960e1f	-0.2930765
88	0x3c980212	0.018555675
89	0x3ccbd257	0.024880571
90	0x3c66a1e1	0.014076681
91	0xbd1067e0	-0.035255313
92	0xbe9349a0	-0.2876711
93	0xbe21cb95	-0.15800317
94	0xbc847311	-0.01616815
95	0x3dd580c5	0.104249515
96	0x3dea2f21	0.114347704
97	0xbd87af5b	-0.06625243
98	0x3cccbf84	0.024993666
99	0xbd9262d8	-0.07147759
100	0x3b5b3412	0.0033447784
101	0xbd36f606	-0.04466822
102	0x3cb821e3	0.022477096
103	0x3e8593ec	0.26089418
104	0x3db7ca12	0.08974089
105	0x3e9c7ab5	0.30562368
106	0x3d871f7a	0.065978006
107	0xbcc7e0de	-0.024399217
108	0xbe160a51	-0.14652373
109	0xbe0fff1f	-0.14062165
110	0x3dc40dee	0.095729694
111	0xbde18f92	-0.11013712
112	0xbc247fcc	-0.010040235
113	0xbb4c1d18	-0.003114527
114	0xbddaead3	-0.106893204
115	0xbdc4c025	-0.09606961
116	0xb887b07f	-6.4701766e-05
117	0x3e1b327e	0.1515598
118	0x3e30e1f9	0.17273702
119	0xbdd26447	-0.10273033
120	0xbdf5e652	-0.12006821
121	0x3d11fb1f	0.03563988
122	0x3c224753	0.0099047
123	0x3e744e3a	0.23857966
124	0x3cce0973	0.02515099
125	0xbd2a5f3a	-0.04159472
126	0x3c8d2312	0.017228637
127	0xbeaff664	-0.3436767
128	0xbda84178	-0.08215612
129	0xbeadc821	-0.3394175
130	0xbe427334	-0.18989259
131	0x3d62c3e3	0.055362593
132	0xbdb7bc8f	-0.089715116
133	0x3d165837	0.036705222
134	0x3d1bdfd5	0.03805526
135	0xbc4278df	-0.011869638
136	0xbd0782e8	-0.033083826
137	0x3d3dd5ef	0.0463466
138	0x3e01dae2	0.12681153
139	0xbd043186	-0.03227379
140	0x3c1fa353	0.009743529
141	0x3e3c71d5	0.18402798
142	0xbc8aaa1c	-0.016926818
143	0xbcbd0d6d	-0.023077691
144	0xbde9e41a	-0.1142046
145	0xbda4c4dc	-0.080453604
146	0xbe3eb203	-0.18622594
147	0x3b32e6be	0.0027298178
148	0xbe4eff99	-0.2021469
149	0xbf3c69b1	-0.7359877
150	0xbe1ae39a	-0.15125886
151	0xbc9a8552	-0.0188624
152	0xbc7c5108	-0.015400179
153	0x3e255243	0.16144662
154	0x3ca815a6	0.020518135
155	0xbe86478f	-0.2622647
156	0xbdc0a7f2	-0.09407033
157	0x3e352de9	0.17693295
158	0x3da89131	0.08230818
159	0x3d07911a	0.033097364
160	0xbd6fab1d	-0.058512796
161	0x3d6c5d73	0.057706308
162	0xbd48d044	-0.049026743
163	0xbe37b5db	-0.17940466
164	0x3e1ca258	0.15296304
165	0x3d9de5df	0.0770986
166	0xbdf062b2	-0.11737575
167	0x3d4b8668	0.049688727
168	0xbcff4de0	-0.031165063
169	0xbcef3b53	-0.029203093
170	0x3acbe4df	0.001555588
171	0x3d5a953a	0.05336497
172	0x3df4e6e6	0.11958103
173	0x3ddc8c51	0.10768951
174	0x3b02ad75	0.0019939814
175	0x3b43495f	0.0029798371
176	0x3d7a9387	0.06117585
177	0x3df5976a	0.119917706
178	0x3aae9add	0.0013321299
179	0xbd276bcf	-0.0408743
180	0xbe5d07d4	-0.21585017
181	0x3c909dc6	0.017653357
182	0x3db81101	0.08987618
183	0x3d4b717d	0.049668778
184	0xbd0abe3f	-0.03387284
185	0xbc9e6aff	-0.01933813
186	0x3e98278f	0.2971768
187	0xba42d385	-0.00074320316
188	0xbe01e93b	-0.12686627
189	0xbcdd3505	-0.02700282
190	0xbe9a89c8	-0.30183244
191	0x3e84d36a	0.25942546
192	0x3dc440f4	0.09582701
193	0xbe948d73	-0.29014167
194	0xbe696a75	-0.22794516
195	0x3c9f0003	0.019409185
196	0x3c831e91	0.016005786
197	0xbc64efbd	-0.013973174
198	0x3db18803	0.0866852
199	0x3cb07ae7	0.02154298
200	0x3e7be508	0.24599087
201	0x3ddaac83	0.10677435
202	0x3ee38cd1	0.44443372
203	0xbddf143a	-0.1089253
204	0xbe66e4ca	-0.22548214
205	0xbb4e4a4d	-0.0031477392
206	0xbe4a2f4e	-0.19744608
207	0xbd534d9e	-0.051587693
208	0x3e4aef7e	0.19817922
209	0x3d90feda	0.07079859
210	0x3b705681	0.0036672654
211	0xbda05f68	-0.07830697
212	0xbe1ede8a	-0.1551458
213	0xbd6905c0	-0.05689025
214	0xbba3da31	-0.0050003757
215	0x3db8a083	0.0901499
216	0xbde41110	-0.11136067
217	0xbd1e40dc	-0.038636073
218	0xbca8ccb5	-0.020605424
219	0xbd019fad	-0.03164642
220	0xbd4a1c35	-0.049343307
221	0x3e53ffec	0.20703095
222	0x3eb6f7f3	0.35736045
223	0xbc97c66c	-0.018527232
224	0xbc44bcc6	-0.012007898
225	0x3ced1c60	0.028944194
226	0x3ea8cc0f	0.32968184
227	0xbb81964c	-0.0039546844
228	0xbef3378a	-0.4750331
229	0xbd219e3b	-0.03945754
230	0x3d7bc068	0.06146279
231	0x3e55b967	0.20871507
232	0xbd0739b9	-0.033014033
233	0xbaad157f	-0.0013205259
234	0x3e17c63a	0.14821711
235	0x3c5071b8	0.012722425
236	0xbbd0ae4f	-0.0063684355
237	0x3e28235f	0.16419743
238	0xbe82fc5c	-0.2558316
239	0x3d99362e	0.07481037
240	0xbe9840a5	-0.2973682
241	0xbebc906c	-0.36828935
242	0xbc8a92f1	-0.01691577
243	0xbdc164c1	-0.094430454
244	0xbdeb79a8	-0.114978135
245	0x3d845336	0.06461184
246	0xbdc8335b	-0.0977542
247	0xbec9b4a2	-0.39395624
248	0xbc9237bf	-0.017848847
249	0x3e848909	0.258858
250	0x3bf6cf41	0.007532031
251	0xbca67cd4	-0.020323195
252	0xbdd0548a	-0.101723745
253	0x3d950e4f	0.0727812
254	0xbd5d9a4a	-0.05410222
255	0xbe016c9a	-0.12639084

action_model._discrete_distribution.branches.1.bias f4 [2]
0	0xb9af818a	-0.00033475115
1	0x39af7350	0.00033464516

action_model._discrete_distribution.branches.2.weight f4 [2, 256]
0	0x3c982f5b	0.018577268
1	0x3d265018	0.040603727
2	0xbd71f9c7	-0.059076097
3	0x3e1d7d2d	0.15379782
4	0x3d73fca4	0.05956711
5	0xbde5ea59	-0.11226339
6	0x3d538d28	0.05164829
7	0x3db21f07	0.08697324
8	0x3e5850eb	0.21124618
9	0x3d89789b	0.06712457
10	0x3d72baca	0.059260167
11	0x3aa48b29	0.001255368
12	0xbea551d4	-0.32288992
13	0xbcc3dbee	-0.023908582
14	0xbd264385	-0.040591735
15	0x3cc938ae	0.02456316
16	0xbe571609	-0.210045
17	0xbd486c9d	-0.048931707
18	0xbba74a9f	-0.005105331
19	0xbdf22c8c	-0.11824903
20	0x3df6f983	0.12059309
21	0xbd3bf7bf	-0.045890566
22	0xbd891b4c	-0.066946596
23	0x3cd9bf21	0.026580395
24	0x3cbc6f85	0.023002395
25	0xbe1c89a9	-0.15286888
26	0xbe025dc3	-0.1273108
27	0xbde50f88	-0.11184603
28	0xbd5447ab	-0.05182616
29	0x3e8a293f	0.26984593
30	0x3da1ec0d	0.07906351
31	0x3df94573	0.121714495
32	0xbc6b8655	-0.014375289
33	0x3eb593cd	0.35464326
34	0x3d7646b8	0.060126036
35	0xbdcfceae	-0.10146843
36	0xbdfd6de3	-0.12374475
37	0x3e07fa0a	0.13278976
38	0xbd68ef5e	-0.056868903
39	0x3d67eec6	0.056624196
40	0xbdde6e9e	-0.10860942
41	0x3d9afcf3	0.075677775
42	0xbc993895	-0.018703738
43	0x3d578fe4	0.05262746
44	0x3da01c26	0.07817869
45	0x3a450ca7	0.0007516839
46	0xbd894fbd	-0.06704662
47	0x3e3a8967	0.18216477
48	0xbe3926e8	-0.18081248
49	0xbc4ea8e6	-0.012613511
50	0x3d4bdef0	0.049773157
51	0x3d1459ca	0.036218442
52	0xbe93f729	-0.28899506
53	0xbe429905	-0.19003685
54	0xbd89192b	-0.066942535
55	0xbe514800	-0.20437622
56	0x3d675f07	0.05648711
57	0x3d187b3c	0.0372269
58	0xbea4f606	-0.3221895
59	0x3ea54d2c	0.3228544
60	0x3d866d7b	0.065638505
61	0x3dd94696	0.10609166
62	0xbe172291	-0.1475928
63	0xbde4fb67	-0.11180764
64	0x3def8b12	0.116964474
65	0x3e964363	0.29348287
66	0x3bddf9c0	0.0067741573
67	0x3e40926c	0.18805856
68	0x3c2e368e	0.010633124
69	0xbcc8514b	-0.024452826
70	0x3e54e7fc	0.2079162
71	0x3e5fed9b	0.21867983
72	0xbe028483	-0.12745862
73	0x3cff62b5	0.031174997
74	0xbd9bdfe5	-0.07611064
75	0xbe3483bf	-0.17628382
76	0xbe35b2b3	-0.1774395
77	0x3cd2cacc	0.025731467
78	0x3dfa47ca	0.12220724
79	0xbe50b206	-0.2038041
80	0xbb8240bd	-0.0039750026
81	0x3de45b69	0.111502476
82	0x3d95f6ab	0.07322439
83	0x3dccd745	0.10001997
84	0xbe15fb7e	-0.14646718
85	0xbcdbe6e4	-0.026843496
86	0xbd5406cb	-0.05176429
87	0xbe89ae5c	-0.26890838
88	0x3dbecf1e	0.09316848
89	0x3c853fed	0.016265834
90	0xbd553be2	-0.05205906
91	0xbd203246	-0.039110444
92	0xbe4c71e5	-0.19965322
93	0xbe012177	-0.12610422
94	0xbe2bf8c8	-0.16794121
95	0xbcfa3171	-0.030541154
96	0xbdd269af	-0.10274064
97	0xbe5a9dda	-0.21349278
98	0x3e6fcc97	0.23417889
99	0x3dea4fec	0.11441025
100	0xbe2b6bca	-0.16740337
101	0xbe3005e6	-0.1718975
102	0xbd1641c4	-0.036683813
103	0xbdc2f521	-0.09519411
104	0x3e27732a	0.16352525
105	0xbe9bd751	-0.3043771
106	0x3dcefd70	0.10106933
107	0xbbd00a79	-0.0063489047
108	0x3ea76943	0.32697496
109	0xbc949b1a	-0.018140364
110	0x3dbdc6eb	0.09266456
111	0xbd92177b	-0.07133385
112	0xbd7134d4	-0.05888827
113	0xbcfac781	-0.030612709
114	0x3d7c7a6a	0.06164018
115	0xbdb3cf03	-0.08779719
116	0xbde41ec7	-0.11138683
117	0x3d0ca18f	0.03433376
118	0xbbb0a9cb	-0.0053913346
119	0xbd8c6d22	-0.06856753
120	0xbc8b576b	-0.017009458
121	0xbd12474c	-0.035712525
122	0xbb81eb3a	-0.003964809
123	0xbd477efe	-0.048705094
124	0x3e02cf43	0.12774377
125	0x3e0e4e61	0.13897087
126	0x3d0139bf	0.03154921
127	0x3daa10aa	0.0830396
128	0x3c6485df	0.013947933
129	0x3de76f70	0.11300552
130	0x3ad06258	0.0015898449
131	0xbd17fb04	-0.03710462
132	0xbcedae42	-0.029013757
133	0x3cd558a1	0.026043238
134	0x3dc26692	0.0949222
135	0xbcf3cf35	-0.02976189
136	0x3cb0be95	0.021575252
137	0xbd62ba3d	-0.055353392
138	0xbe2aacb9	-0.16667451
139	0x3cecc329	0.028901653
140	0xbc32d7ae	-0.01091568
141	0xbe16a37b	-0.147108
142	0xbea41696	-0.32048482
143	0xbe30adb4	-0.17253762
144	0x3e5fd48d	0.21858425
145	0xbcd6049e	-0.026125249
146	0x3cff2366	0.031144809
147	0x3dcbb88c	0.09947309
148	0xbeab1531	-0.33414605
149	0xbd7b7ff3	-0.06140132
150	0x3d8545e8	0.06507474
151	0xbcf75fa6	-0.030196976
152	0xbd393498	-0.045216173
153	0x3dc319e4	0.095264226
154	0xbc6df7ed	-0.014524442
155	0xbe8b4542	-0.27201277
156	0xbcbc3597	-0.022974772
157	0xbdce5a5a	-0.10075827
158	0x3dd1d542	0.10245754
159	0xbd747c03	-0.05968858
160	0x3d540047	0.051758077
161	0xbebd75d4	-0.37003958
162	0xbd5b008b	-0.053467315
163	0xbe88c681	-0.26713946
164	0xbca40ac3	-0.020024663
165	0x3c74dfe4	0.014945958
166	0xbf095289	-0.53641564
167	0x3cdb9665	0.026805112
168	0xbd7f8d61	-0.06239069
169	0xbdadf9b3	-0.08494892
170	0xbd299058	-0.041397423
171	0x3d66081a	0.05616007
172	0xbeb07216	-0.3446204
173	0x3ed95eec	0.42455232
174	0xbd67161f	-0.05641758
175	0xbde0c7f5	-0.10975639
176	0x3ecdaa53	0.4016901
177	0x3d34455f	0.04401147
178	0xbd8d2abf	-0.06892919
179	0x3c55d55a	0.013051355
180	0x3e603695	0.21895821
181	0xbda43195	-0.080172695
182	0x3dfde0e1	0.12396408
183	0x3ddb0d86	0.10695939
184	0x3edac24c	0.42726362
185	0xbd1c94c4	-0.03822781
186	0x3e0e1241	0.13874151
187	0xbd1411d7	-0.036149826
188	0xbd69cd0d	-0.057080317
189	0xbd51cc7c	-0.051220402
190	0x3d7bcfc7	0.06147745
191	0xbe4ffb85	-0.20310791
192	0xbdb31564	-0.08744314
193	0xbe23e5a4	-0.1600557
194	0xbee44260	-0.4458189
195	0x3bae4de1	0.0053193425
196	0xbe2fdd0c	-0.17174166
197	0xbdb224c6	-0.0869842
198	0xbcddbbee	-0.02706715
199	0x3e1169b5	0.1420048
200	0x3e3969de	0.18106791
201	0xbd8a075d	-0.06739686
202	0xbe08a2ab	-0.13343303
203	0x3e8149d0	0.25251627
204	0xbd61b000	-0.055099487
205	0xbd90e187	-0.07074266
206	0xbd4c5a89	-0.04989103
207	0x3dabf7d0	0.08396876
208	0xbca06775	-0.019580582
209	0xbf0a8f07	-0.5412449
210	0x3dc5ec71	0.09664238
211	0x3d010b71	0.031505052
212	0xbda9e0df	-0.08294844
213	0x3e153dee	0.14574406
214	0x3e051330	0.129956
215	0x3caba558	0.020952865
216	0x3d12c2e2	0.035830386
217	0x3e70a5dd	0.23500772
218	0x3eb7c026	0.35888785
219	0xbdfb3230	-0.12265432
220	0x3c5dc72f	0.013536259
221	0xbb28ee98	-0.0025776979
222	0xbe35e42f	-0.17762826
223	0x3cdaabd5	0.026693264
224	0xbe42c772	-0.19021395
225	0x3d48afd6	0.048995815
226	0xbe726f83	-0.23675351
227	0xbb6ee6f2	-0.0036453572
228	0xbd65933e	-0.056048624
229	0x3b9b797d	0.004744707
230	0x3c0e6e22	0.00869325
231	0xbb1abe04	-0.0023611793
232	0x3e557946	0.20847043
233	0x3c7aa4dc	0.015298095
234	0xbd88e12b	-0.066835724
235	0x3e0bcf66	0.13653335
236	0xbd8eb61c	-0.06968328
237	0xbe116b74	-0.14201146
238	0xbd37d629	-0.044881973
239	0x3d776524	0.06039919
240	0xbe8359bc	-0.256544
241	0xbebbd1a4	-0.3668338
242	0x3daf9f4a	0.08575304
243	0x3de41832	0.111374274
244	0x3c7af001	0.01531601
245	0x3de9d89a	0.114182666
246	0x3df51066	0.119660184
247	0xbdb090f4	-0.086213976
248	0x3d396a2d	0.045267273
249	0xbe7d407f	-0.24731635
250	0x3c82b864	0.015957065
251	0xbed5ef41	-0.417841
252	0xbe6dff1b	-0.23241846
253	0x3cb12747	0.021625174
254	0xbf17d730	-0.59312725
255	0xbe5fe6d7	-0.21865402

action_model._discrete_distribution.branches.2.bias f4 [2]
0	0x3dac5e02	0.08416368
1	0xbdac5e28	-0.084163964
