Assets/Onx/MoveAgent2D-11100067.onnx (onnx, 102003 bytes, 9 tensors)

discrete_act_size_vector f4 [1, 2]
00000000: 0000 4040 0000 0040
3.0 2.0

network_body._body_endoder.seq_layers.0.weight f4 [128, 50]
00000000: c329 7f3f bbbe 06bf 7fe8 06bf ae77 ce3e
00000010: fe05 02be dcb0 f8be eb05 843e 2c8f 543d
00000020: 7d8f 4cbe 6c23 063e 5a9b a9be 8723 123d
00000030: b265 883e 847e 4bbe 7f18 26be 4013 1f3e
00000040: a7d1 28bd 3c51 383e 9a0d 85be c3f4 ad3d
00000050: 2545 ac3d 1ed7 e33e 0c46 2f3d 4a3b 5b3d
00000060: 99d2 68bc 575f 33bc 7009 793c 68b2 0ebd
00000070: ba48 7cbe 51d0 1a3e 84dd 00bf 0698 8238
00000080: 3629 403d 6e32 a73d 93b3 a9bc 6a91 68be
00000090: cf2a 803e d469 0bbe 4442 56bc b282 88be
000000a0: d076 a33e bcd7 d6bc 137c e93d cf7c 4c3e
000000b0: bf6e 393d a899 ac3d 3159 40bf 730a 55be
000000c0: 0369 103e 754f 5bbd 066c d33a f424 14ba
000000d0: 209c 03bd 3fd5 9c3d e7f7 133d be1e f6bd
000000e0: 2b78 513b 03cb 1bbe 6dd0 7cbb b8c5 f8bd
000000f0: 7fe0 253e 2a42 98bd a45e 8bbe f848 aa3e
00000100: 8bcb e4bc 9536 f13e 7bb2 9ebd 9655 35be
00000110: 6985 a1bd eb09 d9bd 6392 3e3e a9f0 16be
00000120: 7c26 debc 10d8 fabc 78be 563c 40d2 013e
00000130: 85be 66bd 8f41 01be 4741 bb3c d3e7 da3c
00000140: 4491 113e 0eeb a5bc 6296 153c 9bd4 dabe
00000150: ddc8 4b3d 61df 1e3e ae71 763e b24f 8f3e
00000160: f004 873d ca9e a0be f77d 953d d7a9 203e
00000170: e919 923d 4c2e e5bd b52a 90bc 7013 10be
00000180: 1aff 413f eb2e 433d 78b8 cebd 02db 02be
00000190: ff04 103f ecf4 4bbe bbbb 9fbe 992f c33d
000001a0: 1050 8ebe 3200 79be e9e4 453e b1a1 89be
000001b0: 4dff 82be 037b 253e 07ac eebd 57ee 473d
000001c0: f79d 5abd 2418 89bd 47f8 a5be 25b0 a33d
000001d0: fa82 66be bc1d c5bd a57a 9dbe e7ed 4d3d
000001e0: 76d0 a83d 6ff8 1b3e 673e 3c3e f90a 43be
000001f0: 159f 863e 0f60 83be 9906 22bd de36 e0bd
00000200: 235f 643c d55f 1abe 5ae1 2d3e 31e6 c8ba
00000210: c94a b7bd 00f8 8c3e 020d a8be 8f98 42be
00000220: f5a9 ccbe 7fb4 613e 480b 833e 5f4c 26be
00000230: 7d52 0e3e ee75 32be b816 033c ade7 463e
00000240: 9f62 03be 2ea5 65bb 1035 d5be a7c7 13be
00000250: e9d7 2bbd 818e ae3d 9488 c13e 91c2 33be
00000260: a1a4 67be ad61 9bbe 9c56 5ebe 3768 0d3e
00000270: 9eaa 2739 e2fb bfbe 91cf 4bbe bc95 91be
00000280: b164 5c3c 7ba8 54bd 8a9c 9ebd 8f29 64bd
00000290: ccde 933d ca51 3ebd 1404 b6bd 0ab8 923b
000002a0: 3ac4 b7be 0b58 15be f363 29be 9f97 64be
000002b0: fa0e 8b3d e1e5 efbd ce7c 04bf 1ae9 793e
000002c0: 9853 183e d6dc 5e3d aaae 0ebd 05e2 933d
000002d0: ae5e 053f 08e0 80be 3695 27be d524 2ebf
000002e0: 72fe a63e 33d0 aa3e 40fb acbe b44c 083e
000002f0: 8609 ccbd ab0c 6e3d 23fe 37be 8e46 0ebe
00000300: 360c 423d d3bd 76be d684 a13d 14f8 3c3e
00000310: d714 903e c915 2bbd 982c 16be 816c 583e
00000320: 2811 6abe 9134 bb3c 8ad9 a2be e1bd b1bd
00000330: a7ce 143d bd66 58be 9b77 3bbe 2c7e e0bd
00000340: dfba 6c3e 46a0 e4be f302 eabd 3920 c0bd
00000350: e23d 723e 0a2b edbd 5244 6dbe e940 b3be
00000360: 4011 04be 05a1 41be acac 413d ee8c 83be
00000370: 1ab1 9cbe 7bc5 33bd a6fc dbbd 9c73 51be
00000380: 06e8 e7be 482b 95b9 c7ad 73be abd2 e63e
00000390: 5ad2 b8bd 874e 17be 26e6 7bbe 785f e8be
000003a0: aaa3 39be 7a1f 4bbe d5b9 c03d c796 75be
000003b0: 34f9 70be a693 873e a7e5 e73c fd48 0fbf
000003c0: 102e 8bbe 4d8e 18be 0a4f 6e3e 8d00 c93d
000003d0: c5db f9bc 443e a3bc f78b 79bf d7fc e83c
000003e0: 899b 103c cf6b 8ebe 58a0 b5be cdce cf3d
000003f0: 151c d0bd fdd3 18bc bbcc 09be e473 a03d
0.996731 -0.5263478 -0.5269851 0.40325683 -0.12697598 -0.48572433 0.25785765 0.05189435
-0.19976611 0.1309945 -0.33126336 0.035678413 0.26640087 -0.1987248 -0.16220282 0.15534687
-0.041215565 0.17999738 -0.2598694 0.0849395 0.08411626 0.4450006 0.04279141 0.05352334
-0.014210367 -0.010948024 0.015200004 -0.03483811 -0.24637118 0.15118529 -0.50338006 6.2271996e-05
0.0469143 0.081639156 -0.02071551 -0.22711721 0.2503266 -0.13614589 -0.013077322 -0.26662213
0.31926584 -0.026225917 0.114006184 0.19969486 0.04527163 0.08427745 -0.75136095 -0.20804767
0.14102559 -0.053542573 0.0016130216 -0.00056512584 -0.032131314 0.07657861 0.03612509 -0.12017582
0.0031962495 -0.15214162 -0.003857638 -0.12147087 0.1619892 -0.07434495 -0.27220643 0.33258796
-0.027929088 0.47111955 -0.07748886 -0.1770843 -0.07886774 -0.10597595 0.1861053 -0.14740242
-0.02711796 -0.030620605 0.013106935 0.1267786 -0.056334037 -0.12622665 0.022858275 0.02672187
0.1421557 -0.020253684 0.009130092 -0.4274033 0.049752105 0.155149 0.24066803 0.2799049
0.06592739 -0.31371146 0.072994165 0.15689789 0.07133848 -0.11190471 -0.01759849 -0.14069915
0.7577988 0.047652166 -0.10093778 -0.12778857 0.56257623 -0.19917649 -0.31197914 0.09530563
-0.27795458 -0.24316481 0.19325604 -0.26881173 -0.25585404 0.16160206 -0.11653905 0.048811283
-0.053373303 -0.066940576 -0.32415983 0.07992581 -0.22510901 -0.09624812 -0.30757633 0.05027571
0.08242886 0.15231489 0.1838318 -0.19047154 0.26293245 -0.25659224 -0.039557073 -0.10947965
0.013938698 -0.1507562 0.16980496 -0.0015327391 -0.08949811 0.2753296 -0.32822424 -0.19003509
-0.39973417 0.2204151 0.25594544 -0.16240071 0.13898654 -0.17427799 0.008001022 0.19424315
-0.1283059 -0.0035041082 -0.41642046 -0.1443163 -0.041953955 0.08523274 0.37799513 -0.1755469
-0.22621395 -0.30347958 -0.21712726 0.13809286 0.00015989921 -0.3749686 -0.19903399 -0.2843455
0.013451741 -0.051918488 -0.07744701 -0.055703696 0.072202295 -0.04646472 -0.088874966 0.0044775056
-0.35891896 -0.14584367 -0.16542034 -0.22323464 0.06789966 -0.11713768 -0.51752937 0.24405327
0.14875638 0.054409824 -0.03483454 0.07220844 0.52097595 -0.25170922 -0.16365513 -0.6802495
0.32616 0.33361968 -0.3378544 0.1331051 -0.09962754 0.05811755 -0.17968039 -0.13894102
0.047374927 -0.2409585 0.078866646 0.1845401 0.281409 -0.041768823 -0.14665449 0.21135141
-0.22858107 0.022852214 -0.31806594 -0.08678795 0.03632989 -0.21132942 -0.18307345 -0.109615654
0.2311816 -0.4465353 -0.11426344 -0.09381146 0.23656419 -0.11580475 -0.23170593 -0.3501046
-0.12897205 -0.1890908 0.047283813 -0.25693458 -0.30603868 -0.043889504 -0.10741548 -0.20454258
-0.45294207 -0.00028451742 -0.2379676 0.45082602 -0.090244964 -0.1477605 -0.24599513 -0.45385337
-0.18128839 -0.19836226 0.09410445 -0.23983298 -0.23532563 0.26479834 0.028307749 -0.55970746
-0.2718358 -0.14898033 0.23272339 0.09814558 -0.030500302 -0.019927152 -0.97479194 0.028440876
0.008826145 -0.27816626 -0.35473895 0.10146866 -0.10161606 -0.009327886 -0.13457005 0.078346044

network_body._body_endoder.seq_layers.0.bias f4 [128]
00000000: 998b d1bd 9e0d 11bd 9c51 88bd d9ca 60bd
00000010: c227 00be d925 bbbc fcb9 22be 5494 88bd
00000020: ffb6 d9bd 75c0 56bd a898 07be 51f8 24bd
00000030: 3510 49bd a8af 57be cea1 d1bd 7607 573c
00000040: c87c 9bbc 50d5 a7bd 9dda dabb 4fa2 80bd
00000050: 6ff4 b3bd 33c1 82bd 4ccd 0ebd 7aaf 903c
00000060: b928 4fbe 8052 97bd 6f00 adbd 5d25 cbbd
00000070: c4d8 87bd a890 07bd 477a 28bd c38c ebbc
00000080: e91f a4bd e83d 56bd 85e5 a5bd 7eac dcbd
00000090: ed56 e3bd 759b 62bd bca8 d5bc 6ec1 85bd
000000a0: 7e34 babd 4e48 47bc 49c6 79bc a608 dcbd
000000b0: 59d9 90bd af34 e5bd 54cc aebd 9395 d9bc
000000c0: f39b 033d b99b fcbb 0153 9bbd eb90 f5bc
000000d0: 2de0 833d bbef 51bc bb20 683c fcab 5cbd
000000e0: 8920 92bd 77c8 2e3d 3698 443d 8ddd 333c
000000f0: 252e 9abd 81fd a43d 1e82 d03c 97d4 a5bd
00000100: c9c8 10bd 6812 dbbd 552e 78bd ca93 c2bd
00000110: a417 70bd 7b5e 003d f5dd eabc 5dea 5a3c
00000120: b81c cc3c f365 01be 2279 083d dd85 18be
00000130: 63b8 02be a0d1 1ebe dffe cdbc bdd7 d8bd
00000140: 038b f4bd 0ab4 b0bd c1f1 05bd e307 c83c
00000150: b525 d3bd 170f 9fbc 66cf 29bd e36d fabc
00000160: f71f 87bd df02 debd 202e 96bd 4f55 693c
00000170: ff43 70bd 8592 03be 5ddf 2e3d 65dc 7fbc
00000180: d9de bfbd 5215 1dbe eada 34bd ba5d 24be
00000190: e7bf 83bb ff25 65bd 17e3 03be 82c4 393d
000001a0: 948a a2bd b3f0 8fbd 4244 383c 1943 09be
000001b0: e27f 87bd dc4b 00bd 7974 06be 2e48 153d
000001c0: 6406 e3bd c644 bebc 3404 00be 2ab6 e0bd
000001d0: e076 17be 1e1c 12bd 9973 a23d 7a00 4b3b
000001e0: f607 dd3a 02da 26be 9474 a7bc d61e c6bd
000001f0: ef45 04be 2871 dcbd 0b55 8cbd ec35 d5bc
-0.10231704 -0.035413377 -0.06656191 -0.05488095 -0.12515166 -0.022845196 -0.1589126 -0.06668916
-0.10630607 -0.052429635 -0.13241827 -0.040275875 -0.04908772 -0.21063101 -0.1023594 0.013124337
-0.018980399 -0.08194983 -0.0066788928 -0.06280958 -0.087868564 -0.06384506 -0.034863755 0.017661799
-0.20230378 -0.073887825 -0.08447348 -0.09919236 -0.06633142 -0.03309694 -0.041132238 -0.028753644
-0.08013899 -0.052305132 -0.08100418 -0.10775088 -0.11100564 -0.055324037 -0.026081435 -0.065310344
-0.09092043 -0.012163235 -0.015245029 -0.10743837 -0.07072706 -0.11191689 -0.08535066 -0.02656058
0.032131147 -0.0077089933 -0.07584191 -0.029976329 0.064392425 -0.012813504 0.01416796 -0.053874955
-0.07135112 0.042671647 0.047996722 0.010978115 -0.075283326 0.080561645 0.02545267 -0.08097189
-0.035347734 -0.1069687 -0.06059106 -0.09500845 -0.058616295 0.031340104 -0.02867029 0.013361541
0.024916038 -0.12636547 0.033318646 -0.14894815 -0.1276565 -0.15509653 -0.025145946 -0.10588024
-0.11940577 -0.0862809 -0.032701258 0.024417823 -0.103099264 -0.019416375 -0.041457556 -0.030569976
-0.06597894 -0.10840391 -0.073330164 0.014241531 -0.058658596 -0.12848862 0.042693485 -0.015616511
-0.09368677 -0.15340164 -0.044154085 -0.16051379 -0.0040206793 -0.05594444 -0.12879597 0.04535342
-0.07936588 -0.070283316 0.011246743 -0.13404502 -0.066161886 -0.031322345 -0.13130368 0.03644579
-0.11085203 -0.023226153 -0.12501603 -0.10972245 -0.14791441 -0.035671346 0.07932205 0.0030975626
0.0016863334 -0.16294101 -0.020441331 -0.0967385 -0.12917303 -0.1076377 -0.06852158 -0.026026689

network_body._body_endoder.seq_layers.2.weight f4 [128, 128]
00000000: 0e43 a8be f290 28be bc35 c63d c55e 8abe
00000010: 0232 a2be 015f 7ebe 544a ef3d 4604 cabe
00000020: 4b62 8cbe 4015 b3bc eec3 94bd 2b16 2bbd
00000030: 8c59 aebd 4024 073e 7cd1 813d 5f32 c2bd
00000040: 044e e6bd b1ef b1bd b865 363e 6fac 583c
00000050: 80d3 a53c 8e40 4dbe 9fc2 b4be 9b02 7abe
00000060: 288c 8fbd 27d3 65bd 42a3 a2bd 1a78 6dbe
00000070: 03ed 52bc d57a 4ebe 7958 ae3d 4889 d6bd
00000080: 3e08 19be 5175 3dbb c9e5 4e3d 1f51 bfbd
00000090: 3818 133e 81c2 94bc 2ca8 58be f5a6 4e3d
000000a0: 72af 0ebf 485e 013e 905b 53be 9a58 f7bc
000000b0: fbc1 11be 64ca 3c3d 655e cdbe a8fb bfbc
000000c0: b8ef ecbd 2b92 273e 77c4 f1bd c181 83bd
000000d0: b513 1f3d b732 53be 0821 b0bd cff5 6d3d
000000e0: 1a18 4dbe 9542 7ebd 880a 703e 964b e1be
000000f0: fece 363e 85fe dfbd 2046 e63c 0ac3 99bd
00000100: ee73 cfbd 7d41 57be 8596 7e3c d1c9 56bd
00000110: f788 343c a8ae b0bc 3d56 94be 3999 d53d
00000120: f819 9ebe d771 2d3e b6be 353d 4df9 d9bc
00000130: 7310 a5be d85a fbbd 0f48 32be 07b9 0d3e
00000140: a981 30be 36eb 9cbd f113 babd 7765 94bd
00000150: 3802 ab3d d941 5bbe 5940 0ebd 80a4 d73b
00000160: 1f2b 00bd 2212 36be 67f0 17be 0e61 acbd
00000170: 9fcd 2c3b ed6a 453e 5058 11bc 89e8 b5bd
00000180: 9b7b 413c 81b7 19bd 1e7d ecbe e2c9 79bb
00000190: d377 febd e849 f83d a86a 1d3c a6ac e4be
000001a0: 6bd8 82bd 7519 2e3d fcc0 6fbd fbe5 52be
000001b0: 94b6 65be dda4 c3be e5b7 6c3d c228 833e
000001c0: e59c 28bd 660a 96bc 62ce 9abe 5379 53be
000001d0: 11fc 42bd 351a 95bc 441b 2ebe cfe7 1bbe
000001e0: f0a4 ff3b eef8 fbbe b213 63bd d5fd e23c
000001f0: 1d97 ab3d b9fd 063e 62f8 013d f27f 15be
00000200: 638c 0dbe 812c f53d 5a4f 353e bd4d 313e
00000210: 53a9 433d 32d8 6ebe e415 efbd 4953 7cbd
00000220: f705 f5bd fba8 8c3d 2dde 653d d052 3bbe
00000230: 1c7a 16be 9f0a 82be 342d 7fbe e326 cfbd
00000240: 9e90 9a3d 93af 29be 97e7 6ebe 8c3b 04be
00000250: 280d a33d 5656 223d 28d5 83bd 4c02 093c
00000260: 2873 2dbf 0d7b 2c3b f735 cf3d 6eb4 f9bc
00000270: a8d4 0dbe 53dd 0fbd d390 83be c2aa 1bbe
00000280: 9731 963d c8b0 84be c330 e5be 0c3a 7e3d
00000290: 9f35 a2bc 0cbd 0ebf d746 a83d 817f b9bd
000002a0: 81c5 983e d718 333d 3b3f 00be dbed b0bd
000002b0: 0539 57bd d385 debc 88b6 933e d10f 0dbe
000002c0: 0da6 bfbe 3ec5 d1bd 428e 5cbf a954 b63d
000002d0: 305b acbe 1721 a03d 45cd e6be b748 c2bd
000002e0: dc8c 79be c2aa 893d 27b6 08bf 8f51 903d
000002f0: 32d3 6e3d 2c69 003e fc1d 33bd d537 e6bc
00000300: 2b45 c5bb f337 11bf b951 0b3e 51cd 523e
00000310: 03b8 3fbe 0e1d 92be 935d ec3b d44d 093e
00000320: 3fc2 5cbd fb97 e7bd fbea 3fbe b17e 693e
00000330: ed5e 03be 6b33 54bd 7ea1 53be d304 3b3e
00000340: 5232 debb 6f0f 8bbe 7b9b 51bd 3a44 6fbd
00000350: 6e51 c93d 75ef bebd 5639 37be dbc8 cb3d
00000360: 1a7b 2f3e 320c 8bbd e843 45be 0176 b53d
00000370: c929 acbe 1661 0d3e 3c3b 1abd f625 023e
00000380: 22e0 62bc f853 ce3e 0ace 60be ca2b 813c
00000390: f246 583c 4b1f b8be 6a25 38be ab31 a7bd
000003a0: 1543 9fbe 54ef b5be 7606 67bc 0305 cdbd
000003b0: f9fe 423c f6ce d5bd 0420 bb3d ed93 efbe
000003c0: 3204 7dbe 761d 8cbe 59e0 14bf 9296 b1bd
000003d0: 736e 19be 5a6b 9bbe fe10 7d3d 4795 5eb9
000003e0: ff7d 8fbe 26dc 86bd b02c 31bc 70bc bbbc
000003f0: 3e17 313d 3e6d cdbd b21e 83bc 2abd c93b
-0.3286366 -0.16461542 0.09678218 -0.27025428 -0.31678778 -0.24840929 0.11684099 -0.39456385
-0.27418742 -0.021860719 -0.07263933 -0.041769188 -0.085131735 0.13197422 0.06338784 -0.09482264
-0.11245349 -0.08688296 0.1781224 0.013224705 0.020242453 -0.20044157 -0.35304734 -0.24415056
-0.070091546 -0.056109574 -0.07941295 -0.23190346 -0.012873891 -0.20164044 0.085129686 -0.10475403
-0.1494455 -0.0028909037 0.05051211 -0.093416445 0.14364707 -0.018159153 -0.21157902 0.05045219
-0.5573646 0.12633622 -0.20640397 -0.030193616 -0.14234154 0.046091452 -0.4011108 -0.023435429
-0.1156916 0.16364352 -0.11805051 -0.06421233 0.038837153 -0.20624815 -0.0860005 0.05809575
-0.20028725 -0.062075216 0.23441517 -0.4400298 0.17852399 -0.109372176 0.02810961 -0.07507904
-0.10129534 -0.21021076 0.015538816 -0.05243856 0.011018983 -0.021567658 -0.28972045 0.104296155
-0.30879188 0.16937958 0.04437133 -0.026608134 -0.32239112 -0.122731864 -0.174103 0.13840114
-0.17236961 -0.076620504 -0.09085835 -0.072459154 0.083500326 -0.21411838 -0.034729335 0.006580889
-0.031291123 -0.17780355 -0.148378 -0.08416949 0.0026367677 0.1927907 -0.008871153 -0.08882243
0.011809255 -0.03752852 -0.46189207 -0.0038114716 -0.124251984 0.121234715 0.009607948 -0.4466297
-0.06388935 0.042504746 -0.058533654 -0.20595543 -0.2243293 -0.38211718 0.057792563 0.25617033
-0.04116525 -0.018315505 -0.30235583 -0.2065175 -0.04760367 -0.018200973 -0.17002589 -0.15225147
0.0078016445 -0.49213356 -0.055438705 0.027708927 0.08378432 0.13182725 0.031731017 -0.14599589
-0.13823085 0.11971379 0.17706051 0.17314811 0.047768902 -0.2332466 -0.11674097 -0.061602864
-0.11964028 0.06868168 0.056120086 -0.18293309 -0.14695019 -0.25398728 -0.24919587 -0.10114839
0.07547115 -0.16570882 -0.23330532 -0.1291334 0.07961494 0.039633118 -0.06437141 0.008362364
-0.6775384 0.0026318461 0.10117715 -0.030481543 -0.13850653 -0.03512318 -0.2569643 -0.15201858
0.07333677 -0.25916123 -0.44763765 0.062067077 -0.01980096 -0.5575721 0.08216637 -0.090575226
0.29838184 0.04372486 -0.1252412 -0.08639117 -0.052544612 -0.027163422 0.28850198 -0.13775565
-0.37431374 -0.10242699 -0.8615457 0.089028664 -0.3366332 0.078188114 -0.45078483 -0.094865255
-0.2437014 0.067220226 -0.5340294 0.07046806 0.05830688 0.1254012 -0.043729767 -0.028102795
-0.0060202084 -0.56725997 0.13605393 0.20586134 -0.18722539 -0.28537792 0.0072133034 0.13408595
-0.053896185 -0.11308285 -0.18741982 0.22802235 -0.1282918 -0.05180685 -0.20667073 0.18263559
-0.006780901 -0.27160212 -0.05117367 -0.058414675 0.098299846 -0.093230166 -0.17892966 0.099504195
0.17136803 -0.067894354 -0.19264185 0.08860398 -0.3362563 0.13806567 -0.037654147 0.12709793
-0.013847383 0.40298438 -0.21953598 0.01576795 0.013200508 -0.35961375 -0.17983022 -0.0816377
-0.31105867 -0.35534155 -0.0141006615 -0.100107215 0.0119016105 -0.10439865 0.09136966 -0.46792546
-0.24708632 -0.27366227 -0.5815483 -0.08671297 -0.1498354 -0.3035534 0.061783783 -0.0002122718
-0.28025815 -0.06584959 -0.010813877 -0.022917002 0.043235056 -0.10030602 -0.016005848 0.0061565833

network_body._body_endoder.seq_layers.2.bias f4 [128]
00000000: 7fa4 d1bd 4dd0 553d edd3 32bd 4f74 0bbe
00000010: 02bd 79bd 11ab 8c3c 834f 3cbe 06d2 4ebd
00000020: 7fe5 16be d01d d9bc 6647 743d 61ac 08bd
00000030: d9cc bdbc dd83 033e e1da 3cbc e8ea 94bd
00000040: fe3f bbbd 4990 fcbd 7ad6 bdbd 42c1 00bd
00000050: 6a34 4fbd abd6 a6bd b1fa a6bc 36db 41bd
00000060: a053 5cbc 86bc 1ebe 3703 7dbc 714b 2dbd
00000070: 2637 fbbd 5c0d 1abb dc22 20be c2e5 af3d
00000080: 4d68 f1bd 6bde 56be d39a 86bd a2aa 8fbd
00000090: 1772 c2bd aec1 02be a0f1 b7bd caaa 25bd
000000a0: 3049 98bd 2ac5 cfbd 6010 b53c ebde 8dbb
000000b0: 63cf fa3c 1466 b93d f20a 223d 6f99 3d3d
000000c0: bd67 423c c855 47bc a883 55bd 29de d43c
000000d0: 4927 6ebd 4fd6 c53b 05db f3bd dcce 9ebd
000000e0: 184c 0abe 52d0 53be 6e03 85bd c46c 8ebd
000000f0: a273 1e3d c3ad b8bd e150 143d e079 9ebc
00000100: 467e 3c3d 90f8 8dbd f553 0b3c 58c8 afbd
00000110: ea33 26bc 3535 afbd aa28 11be 24be 9f3c
00000120: 6281 7c3d 6039 91be c473 46be b2a1 0ebe
00000130: 5a9e a3bd 8824 793d 13c0 0cbe 5e17 b6bd
00000140: f164 613d 570b a4bd 2391 0bbe 2fb9 8ebc
00000150: 9d21 c6bd afd9 243d cc68 363d a203 8ebd
00000160: 86d3 4c3d 4aa5 ae39 ffde 9dbe 8c75 83bc
00000170: 6e9b 0abd b551 bbbd 9f87 64bd fa86 f13c
00000180: b869 17be e6a1 5dbd 1d99 99bd c450 88bd
00000190: 7dcc e9bd efe9 dfbd 4e5d d13b 6539 f93a
000001a0: 837c 313d 0103 29be 2743 0b3d 17d7 13bd
000001b0: b705 8dbc 9c3e 183e bf4b 8bbc ff46 acbd
000001c0: 7c28 56bd 3aec 1abd a100 e6bd 446f b6bd
000001d0: c8ae 87bc a3e5 61bd bde5 64bb e2d4 e5bb
000001e0: acc8 abbd 4604 32be 52ac c63d af59 46bd
000001f0: 53a3 31bd db48 7bbd e4ab 07be efe2 f9bc
-0.10236453 0.052200604 -0.04365914 -0.13618587 -0.060971268 0.017171415 -0.18389706 -0.050493263
-0.14735983 -0.026503474 0.059638403 -0.03336752 -0.023168968 0.1284327 -0.011526794 -0.07271367
-0.09143065 -0.12332208 -0.09269424 -0.031434305 -0.050587095 -0.081464134 -0.02038321 -0.047328196
-0.013447672 -0.15501603 -0.015442661 -0.042308275 -0.12266378 -0.0023506498 -0.15638298 0.08588745
-0.11787472 -0.20983283 -0.06572499 -0.070149675 -0.09494417 -0.12769195 -0.08981633 -0.04044608
-0.074358344 -0.10145028 0.022102535 -0.0043295524 0.030616468 0.09052673 0.03956122 0.046288904
0.011865553 -0.012166448 -0.05212751 0.02598484 -0.058142934 0.0060375105 -0.11907009 -0.07754299
-0.1350559 -0.20684937 -0.06494795 -0.06954339 0.038684495 -0.090175174 0.036209945 -0.019345224
0.04601886 -0.06932175 0.008503904 -0.085831344 -0.010144213 -0.0855507 -0.14175668 0.019499846
0.061646827 -0.28364086 -0.19380099 -0.1392887 -0.079891875 0.060825855 -0.13745145 -0.08891176
0.055027906 -0.080099754 -0.13629584 -0.017422287 -0.0967438 0.04024666 0.044533536 -0.06934287
0.050006412 0.00033311016 -0.30834195 -0.016047262 -0.033839636 -0.09146444 -0.0557934 0.029483307
-0.14786422 -0.054109477 -0.07499907 -0.0665603 -0.11415956 -0.10933291 0.0063892966 0.0019014297
0.043331634 -0.16505052 0.03399959 -0.036093798 -0.01721464 0.14867634 -0.017003892 -0.08411979
-0.052284703 -0.03782294 -0.11230589 -0.08907941 -0.016562834 -0.05515064 -0.0034926974 -0.007013903
-0.083878845 -0.17384443 0.09700836 -0.048425373 -0.04336865 -0.061348777 -0.13249165 -0.030503718

action_model._discrete_distribution.branches.0.weight f4 [3, 128]
00000000: b031 933d 70e4 63bd c1fe 7cbd d419 c7ba
00000010: 069c f6bd 8b72 213e 584b 0b3d 386b 29be
00000020: ce43 883b 5516 8bbe 0b6a 983c a9ec 953d
00000030: 4abf 883c e061 a63d 801e c33d 53e1 35bd
00000040: 9190 ecbd 9c3f 50bd b6f5 913d e28e 31be
00000050: 8ac9 c53a 07f9 49be 65d8 823d 2cef af3d
00000060: d0e8 34be 47ad 673d 5e48 de3c 0430 3cbc
00000070: f50d 5f3d 66a4 373e 7606 1cbd 484a b73d
00000080: ec50 f4bc 736d 033c 8666 d03b acf3 573d
00000090: b793 99be 5911 afbd fa6e e53b 579a 8c3d
000000a0: 5687 293e 542e 2cbe 1a55 513c ef75 003e
000000b0: a1c7 fcba c0ef bcbc 3c0b 5abb b256 fe3d
000000c0: 8f46 b33d 9e3a 403d d98b 10be 1420 36bc
000000d0: f689 0c3d baa7 f1bd 21bf 7b3c b08f 773c
000000e0: 7c18 fd3c f5e4 9f3d 0b66 9c3c bf34 8dbc
000000f0: c2d5 583c f52b 0ebd 6c95 17bd c9ed adbd
00000100: 382e 22bc 8930 163d 3963 bfbc a688 7c3d
00000110: 205c 71bd 2e45 243d 702a 9b3d 198a 63bc
00000120: 3600 073b ec4e 193d f632 953c e042 babd
00000130: e398 98bd 2e8c d5bc f548 a83c c988 45bd
00000140: 59a6 8c3c caa1 283d a461 253c ca92 aabd
00000150: c911 ca3d d92c b83d 27b1 063c 929f ec3c
00000160: 3eab b0bd 51a2 c1bd 2776 813c 751c 8dbb
00000170: 01eb 31bd ed3f 21bc 7a49 debd 6d66 443c
00000180: 2514 55be cd58 de3d 95a9 7f3d 277b c4bc
00000190: 3c9e ce3c c776 6f3d 135f 5f3d 9fbe 1dbe
000001a0: 6a96 c43d 9fe6 5d3d 35e2 79bd f57d af3c
000001b0: 039b 7e3b 8a32 263d 014b 3c3d 6eba 85bd
000001c0: 9020 f53c 3f3d 3bbc 78de 5f3d 4d44 323c
000001d0: 0f9d a2bd c33b 41bd a76e c63c a2c7 453d
000001e0: e8c2 a1bd 02a8 3b3c 1bef ff3c f9ea 7f3c
000001f0: e49e 1b3d c50b 42bd 896b d93d c711 3abd
00000200: a505 5cbe 3d1a 823e 2adf afbb 3017 c7bc
00000210: 935b 913d 1b6c 39be bf0d 3cbe c5e7 7e3e
00000220: 05f0 473d 5956 343d bcc3 e8bd 3a11 0e3d
00000230: e938 b0bc d26a a93d e9c5 d5bd d839 1abe
00000240: 6aca 74bd bec3 fc3d eec7 ffbb a785 e43c
00000250: b386 d23d 1ebe 5e3e 8a6c 2bbe 3acb ac3d
00000260: a666 08be ee32 2f3d 5e79 803d f135 03be
00000270: 41d0 6fbd db3e 073e 300a 793c a1e0 013e
00000280: 7e07 b8bd 94e1 22bd 4ec6 573c c85e 08be
00000290: f281 083f edcd ba3e d9b8 05be beaa ebbd
000002a0: 8c06 4ebe 3c8a 893e 670a 8f3c e0e8 783d
000002b0: 92f2 ff3d d2bc 5fbc a02d 883d 03fa 6a3c
000002c0: cfdf a93d d337 cc3c b808 12be 37c7 ad3c
000002d0: 797c f63d 9a8f b03d 7404 a83c 3865 9cbd
000002e0: 7f23 1cbd 5b7a 7bbe af4e 27be c22c 17be
000002f0: d543 9e3d cd43 5fbe c8ed e63c cdc3 4e3e
00000300: f6db bd3d 8b16 c3bc f17b 223e 2597 a13d
00000310: c06c 743c a812 8dbc d147 bc3d d812 ef3d
00000320: 59ea d03d f0da 51bc c803 3e3e 18f1 613e
00000330: 7a4b f43c 2921 33be b79e d4bc d0a8 923d
00000340: b262 3dbd b925 333e 8cab fabd 5ef4 e13d
00000350: 8126 94ba 04c5 2ebe 3f72 5cbd 002c 823d
00000360: 3c4a b4bd 7dcd c3bd 4864 68bd 8223 b3bd
00000370: bc88 8cbc 9da9 b5bd 8623 0c3e 88ee ecbd
00000380: b0cf c63e 75c9 42be 0882 81bc f18d b9bd
00000390: 837d cabd 4092 72bd a143 df3d 2e91 6dbe
000003a0: 57f1 48be 7b0a 993d 42f6 55be b9ea eb3c
000003b0: 057a 393e 2bd2 fd3d de5f ac3b b220 7d3e
000003c0: f207 583d cfc7 5ebd 5b37 73be 6472 78bd
000003d0: 8509 3d3d 0386 cb3c 2afa 3b3c 7edf 02be
000003e0: 538e abbc 0179 d7bd f282 a53d 14d9 8b3b
000003f0: e0af 32bc 586a c33c e90b 2ebd 2e82 aebc
0.071872115 -0.055637777 -0.06176639 -0.0015190192 -0.12041478 0.15766351 0.0340074 -0.16544807
0.0041584736 -0.27165475 0.018605253 0.0732053 0.016692776 0.08124137 0.09527302 -0.04440434
-0.11551011 -0.050841913 0.07126944 -0.17339662 0.001508997 -0.19723903 0.0638893 0.0859054
-0.17666936 0.056561735 0.027134117 -0.011486057 0.05445667 0.17933807 -0.0380921 0.08949715
-0.029823743 0.0080217 0.006359878 0.052722618 -0.2999551 -0.08548231 0.007001755 0.068653755
0.16555533 -0.16814548 0.012776637 0.12544988 -0.0019285568 -0.02306354 -0.0033270856 0.124188796
0.08753692 0.0469309 -0.14115848 -0.011116046 0.034311257 -0.117995694 0.015365393 0.015109941
0.030895464 0.07807342 0.019091627 -0.017237065 0.013234558 -0.03470989 -0.037007734 -0.084926195
-0.009898715 0.03666738 -0.023362743 0.061653756 -0.058925748 0.040105037 0.07576454 -0.0138879055
0.002059949 0.03742878 0.018212777 -0.09094787 -0.07451036 -0.02606782 0.020542601 -0.04822615
0.017169164 0.04116992 0.01009408 -0.08328779 0.098666735 0.08992929 0.008220947 0.028884683
-0.08626412 -0.094547875 0.01580341 -0.004306371 -0.043437008 -0.009841901 -0.10853858 0.011987311
-0.20808466 0.10856781 0.062417585 -0.023984505 0.025221936 0.058462884 0.05453403 -0.15404747
0.09599002 0.054175016 -0.061006743 0.021422366 0.0038849718 0.04057554 0.045969967 -0.06529699
0.029922754 -0.011428176 0.054655522 0.010880542 -0.07940113 -0.047176134 0.024222685 0.048286088
-0.078985035 0.01145363 0.031241944 0.015619987 0.037993327 -0.047374506 0.10616214 -0.04542711
-0.21486528 0.25410643 -0.0053671794 -0.024303049 0.070975445 -0.18107645 -0.18364619 0.248931
0.048812885 0.04402766 -0.11365458 0.034684397 -0.021511512 0.082723275 -0.10438139 -0.15061128
-0.05976335 0.12342022 -0.007805816 0.027895762 0.10279598 0.21752211 -0.16740623 0.084372
-0.13320407 0.04277318 0.06273149 -0.12813546 -0.058548216 0.13207571 0.015200183 0.12683345
-0.08985804 -0.03976591 0.013169838 -0.13317406 0.5332328 0.36485234 -0.13058795 -0.11507176
-0.20119685 0.26863277 0.017461015 0.060768962 0.124974385 -0.013655858 0.06649327 0.014341834
0.08294641 0.024928963 -0.14261138 0.021213157 0.1203546 0.0862114 0.020509936 -0.076364934
-0.03811979 -0.24558394 -0.16338609 -0.14763168 0.07727782 -0.21803208 0.028189555 0.2019188
0.0927047 -0.02381446 0.15867592 0.07890157 0.014918506 -0.01722081 0.091933854 0.11673516
0.10200948 -0.012808546 0.1855613 0.22064626 0.029821146 -0.17493118 -0.025954587 0.07161105
-0.0462367 0.17494859 -0.12239751 0.110329375 -0.0011302979 -0.17067343 -0.05381989 0.063560486
-0.088032216 -0.09560678 -0.05673626 -0.08747007 -0.017155044 -0.08870242 0.13685426 -0.11568934
0.38830328 -0.19022162 -0.015809074 -0.09060276 -0.09887221 -0.059221506 0.10901571 -0.23199913
-0.19623314 0.07472702 -0.20894721 0.028798448 0.18112953 0.12393602 0.0052604517 0.24719504
0.052741952 -0.05438977 -0.23751585 -0.060655966 0.046151657 0.024844175 0.011473218 -0.12780568
-0.020941889 -0.105211265 0.080816165 0.004267821 -0.01090619 0.02385442 -0.042491827 -0.021302309

action_model._discrete_distribution.branches.0.bias f4 [3]
00000000: 4b1a 263d 6213 eabd e503 883d
0.04055242 -0.11429478 0.06641368

action_model._discrete_distribution.branches.1.weight f4 [2, 128]
00000000: 67c1 813e 4d90 543d d802 69be 6a8c 47be
00000010: 6832 8abe 4433 48bc 12a5 00bd aff4 2abe
00000020: cffb 7ebd cb7e a7bb 58ef a33a 6114 97bd
00000030: f964 5c3e ad8f 873d 0ddf 01bd 1923 01bd
00000040: 0b5e 84bd 14e1 913b f0a5 aebe 0a3b 09bd
00000050: f52a d03e dc06 09bb 5e00 3fbe a530 c13c
00000060: 9155 32bc 9409 bfbe 0985 8abe b94a 3b3e
00000070: 669f f4bc d17e 353d cf00 923b 1834 c53d
00000080: 96b9 12bd 9ce9 1abd fb6b a33e 02b4 0abd
00000090: 291c 653b c7e9 4dbd d266 01be 9747 c33c
000000a0: bcee 93bd 03f1 463c 5457 173e a035 573e
000000b0: 3cc0 cf3c 09a5 df3e 9e1f 8c3d ea38 59ba
000000c0: 7130 ef3d 5d5e ee3d bc08 51bd 1281 123e
000000d0: debd 6d3e 4786 cbbd 1a4a ddbd b1d9 d1bd
000000e0: 6563 eabc c500 843c 529f 65bd ef62 83be
000000f0: 42ae 233e 83bd b9bc 0fea 993d 289c 3bbe
00000100: c501 1b3e 20d1 e03c 77e0 b2be 1283 aa3e
00000110: fb94 0d3e a52a c9bc de6a 78bd 39c5 163e
00000120: a9d8 b63e 8a8c 843e d188 e4be 5aa0 fa3b
00000130: 5e7c 30be a83f 27bd f2ec 11bd 0804 023e
00000140: cf94 a33e 4567 0e3d 8c75 1bbd 6688 0c3e
00000150: 4f68 01be 5067 63be 4b0c ec3d 49dd f1bd
00000160: 57f9 813c 9a80 e03d 7ba1 733a 4c13 813d
00000170: 674a 803d 7229 f5bd 2cd2 89bd eb9a ee3e
00000180: 4a3f 24bd f511 1ebe 1428 bdbd 1e22 bbbd
00000190: 651f 15be e353 3ebe 0141 253e 20d8 873e
000001a0: 52a9 9ebd 4a36 53bd b779 afbc 4f6b e8bd
000001b0: 63ce 933b bb96 353d 86a8 223e 0c27 73ba
000001c0: 077e d03e 875c 54bd 1217 06bd ca8c 033d
000001d0: b19c b83d 2432 c7bd 6835 e8bd 50ca 3ebe
000001e0: 98c6 9abd ce23 b5bc 14cf f13d ef96 4c3e
000001f0: 1be6 aa3d bee6 cebd 6245 793d e78c d1bd
00000200: f2fb 88be 3e0f 5abd b650 683e 31fa 3e3e
00000210: 93b4 863e d559 133b 8e29 f23c 7f61 1a3e
00000220: 405d 753d ae8d 133c aefe 373c 03e1 983d
00000230: b867 4fbe 6aa7 81bd ae85 d73c e9b3 133d
00000240: 9bdf 3f3d 173e a9ba a282 b93e 7b8c c53c
00000250: 659b d2be e55a af3a feee 353e f265 47bd
00000260: 66d8 f03b 9a76 be3e 6352 883e d3ad 3fbe
00000270: 5fce 043d 3454 abbc 04eb de3b 4ab9 aebd
00000280: 63c2 dd3c f918 1f3d 266d a8be 0843 093d
00000290: 005a 77bb 2631 4b3d 21bb f13d 94c4 46bd
000002a0: 87cf 983d 1a09 43bc 2c11 ecbd e467 65be
000002b0: 6d18 ebbc 2ac5 e0be fd6d 45bd 797f 1b3c
000002c0: 14d4 d6bd 6dd6 e2bd 447e 593d 5008 05be
000002d0: 2b8e 7dbe 3cea c63d f092 c93d 6bd6 bb3d
000002e0: e91d f43c 00a9 33bc cb5d 5c3d 39bb 7c3e
000002f0: d30f 22be cab3 8e3c 30ae afbd ab33 343e
00000300: 3c13 27be b01c 49bd 1c58 b73e b177 a5be
00000310: 2855 0bbe 5e95 6b3c b026 883d b83b 19be
00000320: e469 b3be d1b1 7fbe a7fa d63e 5cdb cbbb
00000330: e7c9 343e 22f1 353d 894f 343d 1736 f4bd
00000340: 9741 9cbe 7c57 8dbc 1bfd 433d ea0f 10be
00000350: d425 053e c94c 6d3e ee88 babd 9ed8 043e
00000360: 956d 01bd 19b7 c5bd 03e9 f1bb 3114 a0bd
00000370: 14aa abbd 052a 083e d77e 613d ee4a f5be
00000380: 3087 643d 5ea6 023e ff8b df3d 430b e83d
00000390: 6888 133e 8365 433e a1da 23be 9471 84be
000003a0: 0157 c53d 135a 1d3d 8e16 fb3c 4849 0e3e
000003b0: 1d6a 8a3c cfda 44bd ee1e 15be b6e6 db3b
000003c0: 0819 d5be abcb 873d b7e3 c63c b405 31bc
000003d0: e124 cdbd bc71 ca3d 432a b33d 5411 223e
000003e0: 848f a33d b2d0 ce3c 5f3a d6bd 1b95 3ebe
000003f0: b5e0 d6bd ed05 bc3d 691d 4bbd 6e51 c13d
0.25342867 0.05189543 -0.22754991 -0.19487157 -0.26991582 -0.012219254 -0.031407423 -0.16694902
-0.062251862 -0.0051115504 0.0012507243 -0.07376934 0.21522893 0.06619201 -0.03170686 -0.031527612
-0.0646325 0.00445188 -0.34110975 -0.03350357 0.40657774 -0.002090863 -0.18652484 0.023582766
-0.010884658 -0.37311995 -0.27054623 0.18290223 -0.029861163 0.044310395 0.004455663 0.09629077
-0.03582152 -0.037820444 0.3191832 -0.033863075 0.0034959412 -0.050271776 -0.12636879 0.023837848
-0.07223269 0.012142423 0.14779407 0.2101655 0.02536022 0.436806 0.06841968 -0.0008286374
0.11679161 0.11639092 -0.05103372 0.14307049 0.2321696 -0.09937721 -0.108051494 -0.102465995
-0.028611848 0.016113648 -0.056060143 -0.25661418 0.15984443 -0.022673374 0.07515346 -0.18321288
0.15137394 0.027443469 -0.34936878 0.33303124 0.13826363 -0.024556467 -0.06064879 0.14723672
0.35712174 0.25888473 -0.44635633 0.00764851 -0.17234942 -0.04083219 -0.03562636 0.1269685
0.3194947 0.034766454 -0.0379539 0.13723907 -0.12637447 -0.2220738 0.11525782 -0.11809785
0.015865965 0.10962029 0.0009293777 0.06302509 0.06264191 -0.11970796 -0.0672954 0.46602568
-0.04009942 -0.15436538 -0.0923616 -0.09137367 -0.14562757 -0.18586688 0.16138078 0.26532078
-0.07747139 -0.051565446 -0.021420343 -0.113485925 0.004510687 0.0443332 0.15884599 -0.0009275533
0.4072115 -0.051846053 -0.032736845 0.03211669 0.090142615 -0.097263604 -0.113383114 -0.18631864
-0.0755741 -0.0221118 0.11807075 0.19979452 0.083446704 -0.10102604 0.060857184 -0.10231953
-0.2675472 -0.053237192 0.22687039 0.18650128 0.26309642 0.0022483964 0.02956083 0.15076254
0.059903383 0.009005947 0.011230154 0.074647926 -0.2025441 -0.0633076 0.02630886 0.036060248
0.046844106 -0.0012912181 0.36232477 0.024114838 -0.41134182 0.0013378529 0.1776695 -0.048681207
0.0073500155 0.3719986 0.26625356 -0.18718652 0.032423373 -0.020914175 0.0068029184 -0.08531435
0.02707023 0.038842175 -0.32895774 0.03351119 -0.0037742853 0.04960742 0.1180327 -0.048527315
0.07461458 -0.011904025 -0.11526713 -0.22402912 -0.02869817 -0.43900424 -0.048200596 0.009490841
-0.104896694 -0.11076055 0.053098932 -0.12991452 -0.24761264 0.097126454 0.09842479 0.09171756
0.029799419 -0.010965586 0.053800385 0.24680795 -0.15826349 0.017419714 -0.085781455 0.17597835
-0.16315931 -0.049099624 0.3580941 -0.3231788 -0.13606703 0.014378874 0.06648004 -0.14964187
-0.35041726 -0.24970175 0.41988108 -0.006221218 0.17655145 0.044419415 0.044021163 -0.11924379
-0.3051879 -0.01725363 0.047848802 -0.1406857 0.13002712 0.23173822 -0.091081485 0.12973258
-0.031598646 -0.09654064 -0.0073825135 -0.07816351 -0.08382049 0.13297279 0.055052605 -0.4790873
0.055792987 0.12758777 0.10915374 0.11330273 0.14407504 0.19081692 -0.16001369 -0.25867903
0.09635735 0.03841598 0.030650403 0.13895142 0.016896302 -0.048060235 -0.1456258 0.0067108525
-0.4162066 0.066306435 0.024278505 -0.010804582 -0.100168 0.09884974 0.08748295 0.15826923
0.07986358 0.025245998 -0.10460352 -0.18611567 -0.10492078 0.09180818 -0.049588595 0.094393596

action_model._discrete_distribution.branches.1.bias f4 [2]
00000000: 3fda de3c 4bda debc
0.027203677 -0.0272037
