Assets/Onx/MoveAgent2D-6900020.onnx (onnx, 102003 bytes, 9 tensors)

discrete_act_size_vector f4 [1, 2]
0	0x40400000	3.0
1	0x40000000	2.0

network_body._body_endoder.seq_layers.0.weight f4 [128, 50]
0	0x3f7fba4c	0.9989364
1	0xbf079e3e	-0.52975833
2	0xbf07bc24	-0.53021455
3	0x3ecd8fc1	0.40148738
4	0xbe04587c	-0.12924379
5	0xbef9f22a	-0.4881757
6	0x3e856494	0.26053298
7	0x3d47d4a4	0.048786774
8	0xbe4faa67	-0.20279847
9	0x3e0603ab	0.13087337
10	0xbeab10d4	-0.33411276
11	0x3d06bd01	0.032895092
12	0x3e886281	0.26637653
13	0xbe4e50da	-0.2014803
14	0xbe28f37c	-0.16499132
15	0x3e197dd1	0.14989401
16	0xbd2f03e7	-0.04272833
17	0x3e366928	0.17813551
18	0xbe83a4a2	-0.25711542
19	0x3da7cb80	0.081931114
20	0x3da63310	0.08115208
21	0x3ee37b4d	0.4443001
22	0x3d246e26	0.04014411
23	0x3d50f061	0.051010493
24	0xbc61eadc	-0.013788905
25	0xbc616e57	-0.013759217
26	0x3c4b0ec5	0.012393658
27	0xbd0c151e	-0.034199826
28	0xbe7f7252	-0.24945953
29	0x3e17ae04	0.14812475
30	0xbf004eec	-0.50120425
31	0xbb3a3a29	-0.0028416014
32	0x3d3454c1	0.04402614
33	0x3d9d219e	0.076724276
34	0xbcaefb84	-0.021360166
35	0xbe6a3a79	-0.22873868
36	0x3e80098a	0.25007278
37	0xbe0e3288	-0.13886464
38	0xbc89e076	-0.016830664
39	0xbe88f01b	-0.26745686
40	0x3ea1f48f	0.31631896
41	0xbcf1071f	-0.02942234
42	0x3de79be4	0.11309031
43	0x3e4b1e66	0.19835815
44	0x3d2bca5e	0.04194104
45	0x3db19196	0.086703464
46	0xbf417679	-0.755714
47	0xbe53d165	-0.20685346
48	0x3e10c1ad	0.14136381
49	0xbd58853a	-0.05286143
50	0x3bef4bd9	0.007302743
51	0xbc104e71	-0.008807764
52	0xbd23ccf0	-0.039990366
53	0x3d8ec383	0.06970885
54	0x3cfe681d	0.031055504
55	0xbe00d22b	-0.12580173
56	0xbc5c0a31	-0.013430164
57	0xbe1f5597	-0.15559994
58	0xbc08de29	-0.008353748
59	0xbdefc0ec	-0.11706719
60	0x3e1e706e	0.15472576
61	0xbda66064	-0.08123854
62	0xbe8b81cf	-0.27247474
63	0x3ea70c17	0.3262641
64	0xbd0c4c3a	-0.034252383
65	0x3ef93297	0.4867141
66	0xbdb0bdc3	-0.08629944
67	0xbe3d0364	-0.18458325
68	0xbda432c1	-0.08017493
69	0xbde59cf9	-0.11211581
70	0x3e38491e	0.17996642
71	0xbe1e1825	-0.15438898
72	0xbd057738	-0.0325844
73	0xbd14ca11	-0.036325518
74	0x3c3b43a5	0.011429702
75	0x3df7517a	0.12076087
76	0xbd7f662b	-0.062353294
77	0xbe015115	-0.12628587
78	0x3c88a895	0.016681949
79	0x3ca8311d	0.020531232
80	0x3e156c18	0.14592016
81	0xbcdac0e7	-0.026703311
82	0x3b3110e0	0.0027018115
83	0xbed87836	-0.42279214
84	0x3d24b8a5	0.040215153
85	0x3e16cb69	0.14726032
86	0x3e7077c8	0.23483193
87	0x3e8cefbd	0.27526656
88	0x3d7a20c8	0.06106642
89	0xbea44680	-0.32085037
90	0x3d86b5fb	0.06577679
91	0x3e1b4fd3	0.1516717
92	0x3d961f7e	0.073302254
93	0xbde6558f	-0.11246788
94	0xbc5de5db	-0.013543571
95	0xbe0cff3e	-0.13769242
96	0x3f40298e	0.7506341
97	0x3d4a76d4	0.04942973
98	0xbdc743e2	-0.097297445
99	0xbe04fce4	-0.12987095
100	0x3f0f042b	0.55865735
101	0xbe482048	-0.19543564
102	0xbe9df0da	-0.30847818
103	0x3dc02846	0.093826815
104	0xbe8ce672	-0.27519566
105	0xbe761582	-0.24031642
106	0x3e4cd1df	0.20001934
107	0xbe894224	-0.26808274
108	0xbe826594	-0.25468123
109	0x3e207679	0.15670194
110	0xbde616d8	-0.11234826
111	0x3d569ecd	0.052397538
112	0xbd582a65	-0.052774806
113	0xbd84b801	-0.064804085
114	0xbea4e1cc	-0.3220352
115	0x3d935336	0.071936056
116	0xbe61efa4	-0.22064072
117	0xbdbe0f7f	-0.092802994
118	0xbe9af8bc	-0.30267894
119	0x3d53910a	0.051651992
120	0x3dabd729	0.08390648
121	0x3e1b6c35	0.15177996
122	0x3e3e85d1	0.18605734
123	0xbe402d1e	-0.18767211
124	0x3e8af7cc	0.2714218
125	0xbe830ee7	-0.25597307
126	0xbd1e6617	-0.03867158
127	0xbddc50e0	-0.10757613
128	0x3c80960c	0.015696548
129	0xbe1877ac	-0.14889401
130	0x3e2a2358	0.16615045
131	0x3a86200e	0.0010232942
132	0xbdb21fda	-0.086974815
133	0x3e8cfd54	0.27537024
134	0xbea6c294	-0.32570326
135	0xbe3f3ccd	-0.18675537
136	0xbecb0a89	-0.39656475
137	0x3e606510	0.21913552
138	0x3e833daf	0.25632998
139	0xbe1d3e85	-0.1535588
140	0x3e0e3f35	0.13891299
141	0xbe320e2c	-0.17388219
142	0x3bd6d81a	0.006556523
143	0x3e47b633	0.19503097
144	0xbe0548af	-0.13016008
145	0xbb9ac4e2	-0.0047231773
146	0xbed16338	-0.4089601
147	0xbe133f38	-0.14379585
148	0xbd325eef	-0.043547567
149	0x3dae33c4	0.08505967
150	0x3ebe4bb1	0.37167123
151	0xbe3568b6	-0.17715725
152	0xbe6a1c13	-0.22862272
153	0xbe989983	-0.2980462
154	0xbe65aeea	-0.22430006
155	0x3e06cd2e	0.13164207
156	0xbbc934e0	-0.0061403364
157	0xbec1dda0	-0.378644
158	0xbe4f7e24	-0.20262963
159	0xbe91d748	-0.2848456
160	0x3c05c171	0.008163796
161	0xbd6960ea	-0.05697719
162	0xbdb40331	-0.08789671
163	0xbd6f0cb8	-0.05836174
164	0x3d8dbda1	0.069209345
165	0xbd51bf33	-0.051207732
166	0xbdbe7a07	-0.093006186
167	0xb9a17db6	-0.00030801975
168	0xbeb708db	-0.35748944
169	0xbe1acc3b	-0.1511697
170	0xbe2ec02a	-0.17065492
171	0xbe6a53cd	-0.2288353
172	0x3d819fe8	0.06329328
173	0xbdf96c23	-0.121788286
174	0xbf0410b2	-0.51587975
175	0x3e743c98	0.2385124
176	0x3e12bbda	0.14329472
177	0x3d53b3f4	0.05168529
178	0xbd22c5cb	-0.03973941
179	0x3d89ce86	0.06728844
180	0x3f058635	0.5215791
181	0xbe838da7	-0.2569401
182	0xbe2ce79b	-0.16885225
183	0xbf2f02fd	-0.68363935
184	0x3ea4e087	0.3220255
185	0x3ea817ef	0.3283076
186	0xbeaf7893	-0.34271678
187	0x3e05d183	0.13068204
188	0xbdd13a1f	-0.10216164
189	0x3d82bc8b	0.06383618
190	0xbe3de238	-0.18543327
191	0xbe14d29f	-0.1453347
192	0x3d56f97b	0.052484017
193	0xbe7782e4	-0.24171025
194	0x3da00461	0.07813335
195	0x3e3749bf	0.17899226
196	0x3e8c4035	0.27392736
197	0xbd42b0ec	-0.047532007
198	0xbe0f56bc	-0.1399793
199	0x3e57ac1e	0.21061751
200	0xbe6e2130	-0.23254848
201	0x3ca04db9	0.019568311
202	0xbea48ddb	-0.32139477
203	0xbdb23f5b	-0.0870349
204	0x3d064a10	0.032785475
205	0xbe5bfd62	-0.21483377
206	0xbe40bd89	-0.18822302
207	0xbde754b4	-0.11295453
208	0x3e694c7b	0.22783081
209	0xbee5188a	-0.44745284
210	0xbdf13c91	-0.1177913
211	0xbdc72b49	-0.09725053
212	0x3e6c5021	0.23077442
213	0xbdf3fa5a	-0.11912985
214	0xbe70aef0	-0.23504233
215	0xbebc0bc5	-0.3672773
216	0xbe055f89	-0.13024725
217	0xbe442a6a	-0.19156805
218	0x3d33edc5	0.043927927
219	0xbe854d43	-0.2603551
220	0xbe9e7118	-0.3094566
221	0xbd43249e	-0.047642343
222	0xbde2c573	-0.11072817
223	0xbe54ee23	-0.20793967
224	0xbee8db76	-0.45479935
225	0xbb76c756	-0.0037655435
226	0xbe773d89	-0.24144568
227	0x3ee2fb5f	0.44332406
228	0xbdbefad9	-0.09325189
229	0xbe1a7564	-0.15083843
230	0xbe7dbb0d	-0.24778385
231	0xbeea20ef	-0.4572825
232	0xbe3d2824	-0.18472344
233	0xbe52c627	-0.20583402
234	0x3dbf74b0	0.09348428
235	0xbe785d24	-0.2425428
236	0xbe741d50	-0.23839307
237	0x3e8648a6	0.262273
238	0x3ccf06ca	0.025271792
239	0xbf1000ca	-0.56251204
240	0xbe8b5786	-0.27215213
241	0xbe1b58ab	-0.15170543
242	0x3e68f6c9	0.22750391
243	0x3dbc52e0	0.09195495
244	0xbce7fbcd	-0.02831831
245	0xbc02b9de	-0.0079788845
246	0xbf7abfe2	-0.9794904
247	0x3c615705	0.013753657
248	0x3c5ad679	0.013356798
249	0xbe93c593	-0.28861675
250	0xbeb70e8b	-0.35753283
251	0x3db7fca4	0.08983734
252	0xbde7f589	-0.11326129
253	0xbc2d1bbd	-0.010565695
254	0xbe15f5b8	-0.14644516
255	0x3d881d76	0.06646244

network_body._body_endoder.seq_layers.0.bias f4 [128]
0	0xbdd72a37	-0.10506099
1	0xbd2a9572	-0.04164643
2	0xbd83b4ea	-0.06430991
3	0xbd7514cc	-0.059834287
4	0xbe03bff2	-0.1286619
5	0xbd0d98a9	-0.034569416
6	0xbe220cff	-0.1582527
7	0xbd889ab9	-0.06670136
8	0xbdd55ce4	-0.10418108
9	0xbd3e4cb3	-0.046459865
10	0xbe098d91	-0.1343291
11	0xbd16e135	-0.036835868
12	0xbd5efeb1	-0.05444211
13	0xbe5c5fa0	-0.21520853
14	0xbddb24a7	-0.1070035
15	0x3cb042e6	0.021516275
16	0xbc98f612	-0.018672023
17	0xbda99959	-0.08281202
18	0xbb4286fb	-0.0029682505
19	0xbd71d4c9	-0.05904082
20	0xbdc48163	-0.09594991
21	0xbd86d5aa	-0.06583722
22	0xbcf09e1f	-0.029372273
23	0x3c80be82	0.015715841
24	0xbe558d68	-0.20854723
25	0xbd9ad8c2	-0.075608745
26	0xbda524a5	-0.0806363
27	0xbdd01408	-0.10160071
28	0xbd847916	-0.06468408
29	0xbd0db537	-0.034596648
30	0xbd213c42	-0.039364107
31	0xbce79f1f	-0.028274117
32	0xbd8c7b18	-0.06859416
33	0xbd66e667	-0.056372073
34	0xbda57358	-0.08078641
35	0xbde461c3	-0.11151459
36	0xbdeb3932	-0.114855185
37	0xbd6ae1d2	-0.057344265
38	0xbc8a4785	-0.016879806
39	0xbd87d04b	-0.066315256
40	0xbdacdbfc	-0.08440396
41	0xbc6e5588	-0.014546759
42	0xbc8551f7	-0.016274435
43	0xbddea40a	-0.10871132
44	0xbd942981	-0.07234479
45	0xbdec940c	-0.11551675
46	0xbdb256d1	-0.08707965
47	0xbcd98433	-0.026552295
48	0x3ccc851c	0.024965815
49	0xbbe66897	-0.007031511
50	0xbd94a3cf	-0.072578065
51	0xbd099ed9	-0.033598755
52	0x3d7c766a	0.061636366
53	0x3b839c02	0.0040164003
54	0x3bf54bee	0.007485858
55	0xbd5856ef	-0.05281728
56	0xbd98b299	-0.0745594
57	0x3d64311b	0.055710893
58	0x3d21a34c	0.039462373
59	0x3c683cf9	0.014174693
60	0xbd9489ab	-0.072528206
61	0x3db7495b	0.08949538
62	0x3cf46717	0.029834313
63	0xbd9ba9d8	-0.076007545
64	0xbd081931	-0.03322715
65	0xbddddefe	-0.10833548
66	0xbd645056	-0.055740677
67	0xbdbc143b	-0.09183546
68	0xbd5f075c	-0.054450378
69	0x3d0b025b	0.033937793
70	0xbd07e395	-0.033176024
71	0x3c8ca2ad	0.017167414
72	0x3cb34e5a	0.021887947
73	0xbe008e8d	-0.12554379
74	0x3d1b3e85	0.03790142
75	0xbe148fd3	-0.1450799
76	0xbe03fbb0	-0.1288898
77	0xbe1d8e5c	-0.15386337
78	0xbcb4f7f0	-0.022090882
79	0xbde24fcf	-0.110503785
80	0xbdf437a5	-0.11924676
81	0xbdab90c1	-0.08377219
82	0xbd2099de	-0.03920924
83	0x3d00931e	0.031390302
84	0xbdd0520f	-0.101719014
85	0xbcc11e50	-0.023574024
86	0xbd306cff	-0.043072697
87	0xbcb37aa4	-0.021909066
88	0xbd833422	-0.06406428
89	0xbdd34b16	-0.10317056
90	0xbd86d20c	-0.06583032
91	0x3bcd8fd8	0.006273251
92	0xbd6b5f90	-0.057464182
93	0xbe0386b1	-0.1284435
94	0x3d3d7bc8	0.046260625
95	0xbcd08c1a	-0.02545743
96	0xbdc9a1d4	-0.098453194
97	0xbe207445	-0.15669353
98	0xbd2befc0	-0.04197669
99	0xbe28261d	-0.16420789
100	0xbb8bdf63	-0.004268573
101	0xbd6bc82a	-0.05756394
102	0xbe08332e	-0.13300774
103	0x3d304b35	0.043040473
104	0xbd9a181b	-0.07524129
105	0xbd99b4f4	-0.07505217
106	0x3bdb0a9a	0.0066846134
107	0xbe020b33	-0.12699585
108	0xbd75ec6c	-0.060039923
109	0xbce6b7f4	-0.028163888
110	0xbe073c34	-0.1320656
111	0x3ce6643f	0.028123973
112	0xbddfd6f2	-0.109296694
113	0xbce60c35	-0.028081993
114	0xbe055c30	-0.13023448
115	0xbde545aa	-0.11194928
116	0xbe15c78c	-0.14626902
117	0xbd14075d	-0.036139835
118	0x3dacb139	0.0843224
119	0x388f4e0c	6.833309e-05
120	0x3b5be126	0.0033550947
121	0xbe21ba4a	-0.1579372
122	0xbcbaa7bd	-0.022785062
123	0xbdc98729	-0.09840233
124	0xbe0c5cdf	-0.13707303
125	0xbddc82b2	-0.10767116
126	0xbd9e842e	-0.07740055
127	0xbc6e7588	-0.014554389

network_body._body_endoder.seq_layers.2.weight f4 [128, 128]
0	0xbeaeb2d4	-0.3412081
1	0xbe26b327	-0.16279279
2	0x3dc67e48	0.09692055
3	0xbe896a53	-0.2683893
4	0xbeaa329f	-0.33241746
5	0xbe7df0aa	-0.24798837
6	0x3dfa1490	0.12210953
7	0xbec844d0	-0.39115
8	0xbe8c4102	-0.27393347
9	0xbcb22c7c	-0.021749727
10	0xbd969086	-0.073517844
11	0xbd23d56a	-0.03999845
12	0xbda3ff6c	-0.08007702
13	0x3e026646	0.12734327
14	0x3d857e90	0.065182805
15	0xbdbdd174	-0.09268466
16	0xbde36ba2	-0.11104514
17	0xbd9810cf	-0.07425081
18	0x3e38f1f2	0.18061045
19	0x3c8022bf	0.015641568
20	0x3cd7e5a1	0.026354613
21	0xbe4b8eb6	-0.19878659
22	0xbeb1cc7f	-0.3472633
23	0xbe7ab176	-0.24481758
24	0xbd8c49a9	-0.06849987
25	0xbd6efa10	-0.058343947
26	0xbd9e1aa0	-0.07719922
27	0xbe66ad64	-0.22527081
28	0xbc314bdf	-0.010821312
29	0xbe58e688	-0.2118169
30	0x3db5981b	0.088669024
31	0xbdc509b5	-0.09620992
32	0xbe15e712	-0.14638928
33	0xbbba2a72	-0.0056813294
34	0x3d55ba7f	0.05217981
35	0xbdba68ee	-0.09102045
36	0x3e1f9e26	0.15587673
37	0xbc5b1b3a	-0.013373191
38	0xbe567a3c	-0.20945066
39	0x3d51aa24	0.05118765
40	0xbf0e9f9d	-0.557123
41	0x3e03acbc	0.12858862
42	0xbe542d2c	-0.20720357
43	0xbcd13e59	-0.025542425
44	0xbdfecf03	-0.12441828
45	0x3d3a9568	0.04555264
46	0xbeccd87c	-0.40008914
47	0xbcb0c955	-0.021580378
48	0xbde67f27	-0.11254721
49	0x3e29d373	0.16584568
50	0xbdee96f2	-0.11649884
51	0xbd828a1f	-0.06374001
52	0x3d29e885	0.041481514
53	0xbe540f1d	-0.2070889
54	0xbdab33e6	-0.08359508
55	0x3d6c348a	0.057667293
56	0xbe4c561a	-0.1995472
57	0xbd7934f1	-0.060841504
58	0x3e73cd3b	0.23808758
59	0xbee2ef21	-0.44323066
60	0x3e36ea1b	0.17862742
61	0xbdeeac2c	-0.11653933
62	0x3cf7b14e	0.030235913
63	0xbd933914	-0.07188621
64	0xbdc122ce	-0.094304666
65	0xbe5d0ff1	-0.21588112
66	0x3c8cfcb7	0.017210348
67	0xbd4ad5d4	-0.04952033
68	0x3c5c0aa1	0.0134302685
69	0xbc56d8e5	-0.013113235
70	0xbe964406	-0.29348773
71	0x3dd4bbac	0.10387358
72	0xbe9e8f7f	-0.30968854
73	0x3e2f7e4d	0.17138024
74	0x3d336195	0.043794233
75	0xbcd83432	-0.026392076
76	0xbea35c7f	-0.31906506
77	0xbdff09f7	-0.124530725
78	0xbe2ff6bf	-0.1718397
79	0x3e0f0056	0.13964972
80	0xbe2dff8a	-0.16992012
81	0xbda0e41d	-0.07856009
82	0xbdb52208	-0.088443816
83	0xbd8806b3	-0.06641903
84	0x3db0c18b	0.086306654
85	0xbe55525b	-0.20832197
86	0xbcf037e9	-0.029323535
87	0x3c0d41d4	0.008621652
88	0xbcf87800	-0.030330658
89	0xbe3a907f	-0.18219183
90	0xbe1470a1	-0.1449609
91	0xbdac0fe3	-0.08401468
92	0x3b69af42	0.003565744
93	0x3e4727fb	0.19448845
94	0xbc2dfbdc	-0.01061913
95	0xbdb2c4ac	-0.087289184
96	0x3c4ef193	0.012630838
97	0xbd554109	-0.052063975
98	0xbeeacab4	-0.45857775
99	0xbb39ce5a	-0.0028351755
100	0xbdfd49fc	-0.12367627
101	0x3e0ae8eb	0.13565414
102	0x3c17824e	0.009247376
103	0xbee4f5ce	-0.44718784
104	0xbd86559d	-0.06559298
105	0x3d25c585	0.040471572
106	0xbd65b99f	-0.056085225
107	0xbe528406	-0.20558175
108	0xbe6d17f2	-0.23153666
109	0xbec25565	-0.37955776
110	0x3d74041a	0.059574224
111	0x3e849e96	0.2590224
112	0xbd09f782	-0.033683307
113	0xbc3b5165	-0.01143298
114	0xbe9930e4	-0.29920113
115	0xbe56ad41	-0.20964529
116	0xbd220590	-0.039556086
117	0xbca89e80	-0.020583391
118	0xbe2a0661	-0.16603996
119	0xbe1adefd	-0.15124126
120	0x3c25f16b	0.010128359
121	0xbefcda89	-0.4938548
122	0xbd599c7a	-0.053127743
123	0x3cd92026	0.026504587
124	0x3dae862b	0.08521684
125	0x3e07ce53	0.132623
126	0x3d0636a9	0.03276697
127	0xbe18fe2e	-0.14940712
128	0xbe1612b9	-0.1465558
129	0x3dfb5624	0.122722894
130	0x3e33d7ec	0.17562836
131	0x3e36cceb	0.17851608
132	0x3d2a50c8	0.041580945
133	0xbe644305	-0.22291191
134	0xbdf06a88	-0.11739069
135	0xbd5f3b61	-0.054499988
136	0xbdf245d8	-0.11829728
137	0x3d80c984	0.06288436
138	0x3d5b30f5	0.053513486
139	0xbe3e90ab	-0.18609874
140	0xbe0f317a	-0.13983718
141	0xbe83e7d3	-0.25762805
142	0xbe7ddf1f	-0.24792145
143	0xbdc58ff4	-0.096465975
144	0x3d9e438f	0.077277295
145	0xbe269aaa	-0.16269937
146	0xbe668a8e	-0.22513792
147	0xbe023c57	-0.1271833
148	0x3d93c943	0.07216122
149	0x3d320c97	0.043469038
150	0xbd830472	-0.06397332
151	0x3c2fd09e	0.010730891
152	0xbf2ec5b7	-0.6827044
153	0x3b6dd5df	0.0036290807
154	0x3dd3b403	0.10337069
155	0xbd01826c	-0.03161852
156	0xbe061f06	-0.13097772
157	0xbd067632	-0.032827564
158	0xbe802128	-0.25025296
159	0xbe1c1c7c	-0.15245241
160	0x3d9a49a4	0.07533577
161	0xbe77b479	-0.24189939
162	0xbee6b9b9	-0.4506357
163	0x3d863415	0.065529026
164	0xbcd013fb	-0.025400152
165	0xbf0cce5a	-0.5500237
166	0x3da7cb73	0.08193102
167	0xbdb51f03	-0.08843806
168	0x3e9a6f0e	0.30162853
169	0x3d449c14	0.04800041
170	0xbe0a1f2c	-0.13488454
171	0xbd9b99fc	-0.075977296
172	0xbd6acd2c	-0.057324573
173	0xbcadf5d2	-0.02123538
174	0x3e949095	0.29016557
175	0xbe023eff	-0.12719344
176	0xbec5b4fb	-0.3861464
177	0xbdda3e04	-0.1065636
178	0xbf5ec517	-0.87019485
179	0x3dadb5b7	0.08481925
180	0xbeacaa90	-0.3372388
181	0x3d9dff21	0.077146776
182	0xbee446a4	-0.44585145
183	0xbdc3dabf	-0.09563207
184	0xbe7ce5a1	-0.24696971
185	0x3d8b1871	0.06791771
186	0xbf07e6bf	-0.53086466
187	0x3d92c2fd	0.07166097
188	0x3d84cc4b	0.06484278
189	0x3dfa922a	0.1223491
190	0xbd32ce3a	-0.043653704
191	0xbccdd8a3	-0.025127714
192	0xbb4522e4	-0.003008061
193	0xbf12b3e7	-0.5730576
194	0x3e0e3d0a	0.13890472
195	0x3e55581a	0.2083439
196	0xbe3d4861	-0.18484642
197	0xbe93e33f	-0.28884313
198	0x3c18a57c	0.009316798
199	0x3e04b225	0.12958582
200	0xbd6b63bc	-0.05746816
201	0xbde068a9	-0.10957462
202	0xbe3c227d	-0.18372531
203	0x3e644c5c	0.22294754
204	0xbdf18e90	-0.1179477
205	0xbd866997	-0.065631084
206	0xbe4aa707	-0.19790278
207	0x3e36a416	0.17836031
208	0xb8489474	-4.7821974e-05
209	0xbe852ca5	-0.26010624
210	0xbd49e7c9	-0.049293313
211	0xbd67db37	-0.056605544
212	0x3dc7073d	0.097181775
213	0xbdafc4d9	-0.085824676
214	0xbe2f274f	-0.17104839
215	0x3dd4e348	0.10394913
216	0x3e30c1e3	0.17261462
217	0xbd85b8e8	-0.06529409
218	0xbe407c39	-0.18797387
219	0x3da362ee	0.07977854
220	0xbea93025	-0.33044544
221	0x3e0f338b	0.13984506
222	0xbd369e11	-0.044584338
223	0x3dee65a9	0.11640484
224	0xbc613ac2	-0.013746919
225	0x3ecc4bb5	0.3990151
226	0xbe56103d	-0.20904632
227	0x3c886af5	0.016652564
228	0x3c8be6bf	0.017077802
229	0xbeb7b5ee	-0.3588099
230	0xbe29b98a	-0.16574684
231	0xbd99ffe2	-0.07519509
232	0xbea0313e	-0.3128757
233	0xbeb0a8c8	-0.3450377
234	0xbc25e406	-0.010125166
235	0xbdd1ab6d	-0.10237775
236	0x3bd28511	0.006424554
237	0xbdc6e226	-0.09711103
238	0x3db317f5	0.08744804
239	0xbeedfab7	-0.46480343
240	0xbe78acd2	-0.24284676
241	0xbe8f9012	-0.28039604
242	0xbf136a0c	-0.5758369
243	0xbdc31bca	-0.09526785
244	0xbe0c2384	-0.13685423
245	0xbe960eeb	-0.29308257
246	0x3d831849	0.064011164
247	0xbb92ac76	-0.0044761254
248	0xbe8d5524	-0.2760402
249	0xbd96bc36	-0.07360117
250	0xbc74a535	-0.014931967
251	0xbc9c9073	-0.019111848
252	0x3d247773	0.04015298
253	0xbdc7dffb	-0.09759518
254	0xbc8bbc7c	-0.01705765
255	0x3b3d2ef1	0.002886709

network_body._body_endoder.seq_layers.2.bias f4 [128]
0	0xbdcdad02	-0.10042764
1	0x3d3f0a09	0.04664043
2	0xbd3d08b9	-0.046150897
3	0xbe116b73	-0.14201145
4	0xbd8bd454	-0.06827608
5	0x3c88798f	0.016659526
6	0xbe380945	-0.17972286
7	0xbd4be60a	-0.04977993
8	0xbe18d73f	-0.1492586
9	0xbcf44520	-0.029818118
10	0x3d793079	0.060837243
11	0xbd0f2b73	-0.034953546
12	0xbcc791fe	-0.024361607
13	0x3de82358	0.11334866
14	0xbbd779d5	-0.006575803
15	0xbd94d646	-0.07267432
16	0xbdc39291	-0.0954944
17	0xbdfdfda3	-0.12401893
18	0xbdba6b3c	-0.091024846
19	0xbd07a088	-0.03311208
20	0xbd3c491f	-0.04596817
21	0xbda7529e	-0.08170055
22	0xbcaabec8	-0.020842925
23	0xbd587387	-0.05284455
24	0xbc055388	-0.008137591
25	0xbe2546f7	-0.16140352
26	0xbc7cd6e0	-0.01543209
27	0xbd3adfe9	-0.045623694
28	0xbdf3647a	-0.11884399
29	0xbc171643	-0.009221616
30	0xbe246f6e	-0.16058132
31	0x3da34fca	0.07974203
32	0xbdfa125b	-0.12210532
33	0xbe5755c4	-0.2102881
34	0xbd845014	-0.06460586
35	0xbd9b69df	-0.07588553
36	0xbdc3d228	-0.095615685
37	0xbe02d39f	-0.1277604
38	0xbdb4f232	-0.088352576
39	0xbd1b2bd3	-0.03788359
40	0xbd98dbe2	-0.07463814
41	0xbdd28e23	-0.10281017
42	0x3c4edb7b	0.01262557
43	0xba38c01a	-0.00070476683
44	0x3ccee424	0.02525527
45	0x3db10aac	0.086446136
46	0x3d09e8bf	0.03366923
47	0x3cfe7517	0.031061692
48	0x3b2004a4	0.0024416829
49	0xbb9925c9	-0.004673694
50	0xbd55b1f4	-0.052171662
51	0x3cb8ebc6	0.022573363
52	0xbd678344	-0.05652167
53	0x3c37b60b	0.011212836
54	0xbe016c71	-0.12639023
55	0xbda020ab	-0.07818731
56	0xbe0de689	-0.13857473
57	0xbe4e78c1	-0.20163251
58	0xbd8da551	-0.06916297
59	0xbd910685	-0.070813216
60	0x3d18be94	0.037291124
61	0xbdb627c9	-0.08894307
62	0x3d066af6	0.03281685
63	0xbcde61b5	-0.0271462
64	0x3d4f0f5d	0.05055176
65	0xbd8c95e8	-0.0686453
66	0x3c1901d3	0.009338814
67	0xbda3fe71	-0.08007515
68	0xbc179496	-0.009251734
69	0xbdcc70e7	-0.09982472
70	0xbe12d098	-0.14337385
71	0x3cd5954d	0.026072169
72	0x3d84111b	0.06448575
73	0xbe904521	-0.2817774
74	0xbe428452	-0.18995789
75	0xbe09d650	-0.1346066
76	0xbdb4929b	-0.08817025
77	0x3d8b2375	0.06793872
78	0xbe0a8d1c	-0.13530391
79	0xbdbdbc21	-0.09264398
80	0x3d6a330a	0.05717758
81	0xbd9fc9f6	-0.07802193
82	0xbe104cf7	-0.1409186
83	0xbb3a53e3	-0.0028431348
84	0xbdd5d90a	-0.104417875
85	0x3cba29db	0.022725036
86	0x3d5227fd	0.051307667
87	0xbd93f462	-0.07224347
88	0x3d44b6bb	0.048025828
89	0x3a21f5f5	0.0006178313
90	0xbe9ee7dd	-0.31036273
91	0xbcc3edb4	-0.023917057
92	0xbd30628f	-0.043062743
93	0xbdc26423	-0.09491756
94	0xbd638fcb	-0.055557054
95	0x3cdb670b	0.026782533
96	0xbe1ed43c	-0.15510648
97	0xbd73d929	-0.059533272
98	0xbd9c9cf1	-0.07647122
99	0xbd9b91b5	-0.07596151
100	0xbdfb61a7	-0.12274485
101	0xbddb9a94	-0.10722843
102	0xba7948b5	-0.00095094304
103	0x3b4b5b09	0.0031029603
104	0x3d0e600f	0.034759577
105	0xbe2a96ef	-0.16659139
106	0x3d11a977	0.035562005
107	0xbd2101db	-0.03930841
108	0xbc8dcf63	-0.017310804
109	0x3e08dde2	0.13365892
110	0xbc6af8f8	-0.014341585
111	0xbdad4d16	-0.084619686
112	0xbd445930	-0.04793662
113	0xbd295b5d	-0.041346896
114	0xbde9e347	-0.11420303
115	0xbd9d27c5	-0.07673601
116	0xbca21053	-0.019783175
117	0xbd67be27	-0.056577828
118	0xbb683691	-0.0035432915
119	0xbb208e41	-0.0024498852
120	0xbdc04037	-0.09387248
121	0xbe305b11	-0.17222239
122	0x3dbc9913	0.09208884
123	0xbd038bfe	-0.03211593
124	0xbd25bf74	-0.040465787
125	0xbd68fc88	-0.056881458
126	0xbe042ca1	-0.1290765
127	0xbd031b59	-0.032008503

action_model._discrete_distribution.branches.0.weight f4 [3, 128]
0	0x3d974649	0.07386453
1	0xbd50b245	-0.05095126
2	0xbd72c9b4	-0.05927439
3	0xbafcbe5d	-0.0019282807
4	0xbe005b3a	-0.125348
5	0x3e1a52ef	0.15070699
6	0x3d178a89	0.03699735
7	0xbe23b00f	-0.1598513
8	0x3a0959de	0.00052395265
9	0xbe88130c	-0.26577032
10	0x3c945553	0.018107092
11	0x3d8287c0	0.063735485
12	0x3c8ca0d9	0.017166542
13	0x3d970309	0.07373626
14	0x3dc8b238	0.097996175
15	0xbd35d022	-0.044387944
16	0xbdde2ead	-0.108487464
17	0xbd499a9e	-0.04921972
18	0x3d8f1de5	0.06988124
19	0xbe2f2a55	-0.17105992
20	0x3b5699a5	0.0032745388
21	0xbe423ed2	-0.18969277
22	0x3d86e286	0.06586175
23	0x3da65eda	0.0812356
24	0xbe37e68a	-0.17959037
25	0x3d71051c	0.058842763
26	0x3d14c342	0.036319025
27	0xbbdf7af5	-0.0068200775
28	0x3d68c593	0.056829046
29	0x3e3ac04e	0.18237421
30	0xbd064097	-0.03277644
31	0x3daa95a8	0.08329326
32	0xbcf22aab	-0.029561361
33	0x3c05f5b5	0.008176257
34	0x3c04b4ba	0.008099729
35	0x3d5a372e	0.05327528
36	0xbe962217	-0.29322883
37	0xbda6ec2e	-0.081505165
38	0x3c6df1d7	0.014522991
39	0x3d896ae6	0.067098424
40	0x3e32ef55	0.1747411
41	0xbe28df10	-0.16491342
42	0x3cbdae9a	0.023154546
43	0x3e0d098f	0.13773178
44	0x39acc7b7	0.00032955196
45	0xbc9f69e7	-0.019459678
46	0x3c683615	0.01417305
47	0x3df647ec	0.12025437
48	0x3d98664d	0.07441387
49	0x3d577caf	0.052609142
50	0xbe0dd2fa	-0.13850012
51	0xbc4a8a84	-0.012362126
52	0x3d38cd82	0.045117863
53	0xbdf01ce8	-0.117242634
54	0x3c4c8968	0.012483932
55	0x3c88f3ad	0.016717756
56	0x3cf65860	0.030071437
57	0x3da0ccff	0.078516
58	0x3c9e0fad	0.019294584
59	0xbcd3c8dd	-0.025852615
60	0x3c593d86	0.013259297
61	0xbd048101	-0.03234959
62	0xbd15ab65	-0.036540408
63	0xbdbfd1bb	-0.09366175
64	0xbbe1a0f7	-0.0068856436
65	0x3d3b8abb	0.0457866
66	0xbc714777	-0.014726511
67	0x3d9b2c70	0.07576835
68	0xbd6f5b31	-0.058436576
69	0x3ce46cb2	0.027883861
70	0x3d978d86	0.0740004
71	0xbc4321c3	-0.011909905
72	0x3c0124bf	0.007882296
73	0x3d332b1c	0.043742284
74	0x3c842299	0.016129779
75	0xbdb65f33	-0.089048766
76	0xbd8a031b	-0.067388736
77	0xbcdfc020	-0.027313292
78	0x3cd42f0d	0.025901342
79	0xbd4182d1	-0.047243897
80	0x3c358913	0.011080044
81	0x3d4259b8	0.047448844
82	0x3c4be1a1	0.012443931
83	0xbdb755a1	-0.08951879
84	0x3dc4ad4e	0.09603368
85	0x3d91717a	0.07101722
86	0x3bc26d2b	0.005933424
87	0x3cdbccbc	0.026831023
88	0xbda56ea3	-0.08077743
89	0xbda2d367	-0.07950478
90	0x3c829283	0.015939003
91	0xbb41655a	-0.0029509873
92	0xbd184a30	-0.037180126
93	0xba8cbacb	-0.0010736821
94	0xbde15633	-0.11002769
95	0x3c3c2c98	0.011485241
96	0xbe4be488	-0.19911397
97	0x3de54ceb	0.111963116
98	0x3d85d3a6	0.06534509
99	0xbcc90e9f	-0.024543105
100	0x3cd372f0	0.025811642
101	0x3d77c8cd	0.060494233
102	0x3d7ee0d3	0.062226128
103	0xbe11e05b	-0.14245741
104	0x3db71ff2	0.0894164
105	0x3d6092fb	0.05482767
106	0xbd8496ce	-0.06474076
107	0x3cd4c0b7	0.0259708
108	0x3c5136e5	0.0127694355
109	0x3d278f35	0.040908057
110	0x3d32e562	0.043675788
111	0xbd878b3f	-0.06618356
112	0x3d2f843c	0.042850718
113	0xbbe60096	-0.007019113
114	0x3d5110b9	0.05104134
115	0x3c2e1df1	0.010627256
116	0xbd9b868f	-0.075940244
117	0xbd3a89a9	-0.04554144
118	0x3d0427e6	0.032264613
119	0x3d4a2375	0.04935022
120	0xbd975962	-0.07390095
121	0x3c46c25f	0.012131303
122	0x3ce8a5aa	0.028399307
123	0x3c89feee	0.016845193
124	0x3d0b2406	0.0339699
125	0xbd3a5262	-0.045488723
126	0x3de20a6a	0.110371426
127	0xbd25561a	-0.040365316
128	0xbe5a4f1a	-0.21319237
129	0x3e7d6d4e	0.24748728
130	0xbb6b17cb	-0.0035872336
131	0xbcd73e6c	-0.026274882
132	0x3d8d7e12	0.06908812
133	0xbe3e1bce	-0.18565294
134	0xbe440419	-0.19142188
135	0x3e781c9e	0.24229667
136	0x3d59ba52	0.053156205
137	0x3d36be58	0.04461512
138	0xbdeda66f	-0.1160401
139	0x3d30341a	0.043018438
140	0xbca83d52	-0.020537052
141	0x3da0d49c	0.07853052
142	0xbdeb71f0	-0.11496341
143	0xbe1b6892	-0.15176609
144	0xbd6c5e81	-0.057707313
145	0x3dfb28a9	0.12263615
146	0xbc0ac756	-0.008470377
147	0x3d001b07	0.031275775
148	0x3dcba11f	0.09942841
149	0x3e563b49	0.20921053
150	0xbe2a545a	-0.1663374
151	0x3db31175	0.08743564
152	0xbe01dea6	-0.1268259
153	0x3d346619	0.04404268
154	0x3d816e94	0.06319919
155	0xbe044715	-0.1291774
156	0xbd647fc5	-0.055785913
157	0x3e0463c3	0.12928681
158	0x3c81c6e3	0.015841907
159	0x3e038c76	0.1284655
160	0xbdb66a4a	-0.08906992
161	0xbd211fd4	-0.039336994
162	0x3caed00d	0.02133944
163	0xbe070e6c	-0.13189095
164	0x3f082e71	0.53195864
165	0x3ebb53a7	0.3658726
166	0xbe0b0884	-0.13577467
167	0xbde9e9be	-0.11421536
168	0xbe4fc63a	-0.20290461
169	0x3e888f61	0.2667189
170	0x3c674fa0	0.014118105
171	0x3d585a5f	0.05282056
172	0x3df3c5f6	0.119029924
173	0xbc888176	-0.016663294
174	0x3d7fc587	0.062444236
175	0x3c9d27d0	0.019184023
176	0x3daa4ebd	0.083157994
177	0x3cc17319	0.023614453
178	0xbe11c6a4	-0.14235932
179	0x3cbf3bea	0.023343999
180	0x3df74d28	0.12075263
181	0x3db7992e	0.089647636
182	0x3ca5d6eb	0.020244082
183	0xbd98a76e	-0.0745381
184	0xbd193ae7	-0.03740969
185	0xbe7b34d5	-0.24531873
186	0xbe219c1a	-0.15782204
187	0xbe0d9e24	-0.13829857
188	0x3da63db0	0.08117235
189	0xbe6161a5	-0.22009905
190	0x3d08e8fd	0.03342532
191	0x3e4cda9b	0.20005266
192	0x3dc2caa5	0.095113076
193	0xbccae046	-0.024765145
194	0x3e17a401	0.14808656
195	0x3d972f62	0.073820844
196	0x3c8b9cb9	0.017042505
197	0xbc55116d	-0.013004643
198	0x3dbfadca	0.093593195
199	0x3ddf600d	0.10906992
200	0x3dc51b18	0.09624308
201	0xbc9a0eda	-0.01880591
202	0x3e3d9b31	0.18516232
203	0x3e626ac3	0.22111039
204	0x3d0c4a65	0.034250636
205	0xbe38dd38	-0.18053138
206	0xbcbec936	-0.023289304
207	0x3d921fd1	0.07134975
208	0xbd5e2027	-0.05422988
209	0x3e285bdc	0.16441292
210	0xbdf0e1c1	-0.11761809
211	0x3ddc681c	0.10762045
212	0x3b2455de	0.0025075595
213	0xbe26e9b0	-0.16300082
214	0xbd699834	-0.057029918
215	0x3d874763	0.06605413
216	0xbdb7e122	-0.089784876
217	0xbdc9458f	-0.098277204
218	0xbd66cea8	-0.056349427
219	0xbdb022ff	-0.08600425
220	0xbc84244a	-0.016130585
221	0xbdb3145d	-0.08744118
222	0x3e09f84e	0.13473627
223	0xbdeb271b	-0.11482068
224	0x3ec01500	0.37516022
225	0xbe3ef39b	-0.18647616
226	0xbcb26406	-0.02177621
227	0xbdae9d74	-0.085261256
228	0xbdc93c92	-0.09826006
229	0xbd7c44c7	-0.06158903
230	0x3dcdaa9e	0.10042308
231	0xbe6d266a	-0.23159185
232	0xbe479cce	-0.1949341
233	0x3d995f76	0.07488911
234	0xbe503e10	-0.20336175
235	0x3cfd065b	0.03088682
236	0x3e35542b	0.17707889
237	0x3df18466	0.11792831
238	0x3c0f72be	0.008755384
239	0x3e79e4fd	0.24403758
240	0x3d53d55c	0.051717147
241	0xbd575686	-0.05257275
242	0xbe6eb4df	-0.23311184
243	0xbd944625	-0.072399415
244	0x3d5b4187	0.05352929
245	0x3ca1f664	0.019770809
246	0x3c822483	0.01588655
247	0xbdf89ffd	-0.1213989
248	0xbc9cfecd	-0.019164467
249	0xbdd43e56	-0.10363452
250	0x3dae0273	0.08496561
251	0x3b54cd9f	0.0032471193
252	0xbb6031e9	-0.0034209436
253	0x3cf48d34	0.029852487
254	0xbd5bcc71	-0.053661767
255	0xbbfb4665	-0.007668304

action_model._discrete_distribution.branches.0.bias f4 [3]
0	0x3d0cc23f	0.034364935
1	0xbde03946	-0.10948424
2	0x3d8ce679	0.06879897

action_model._discrete_distribution.branches.1.weight f4 [2, 128]
0	0x3e827af9	0.25484446
1	0x3d59af25	0.053145546
2	0xbe64e745	-0.22353847
3	0xbe43b4ae	-0.19111893
4	0xbe845362	-0.25844866
5	0xbc14d721	-0.009084494
6	0xbcf5f2c2	-0.030022983
7	0xbe29b737	-0.16573797
8	0xbd6d6ccd	-0.05796509
9	0xbb406413	-0.0029356524
10	0x39d304f7	0.00040248755
11	0xbd8b0d9c	-0.06789705
12	0x3e5927f0	0.21206641
13	0x3da9c15d	0.08288834
14	0xbcf0da2c	-0.029400907
15	0xbcc0efbb	-0.023551812
16	0xbd78ac38	-0.060711116
17	0x3bda0296	0.0066531403
18	0xbeaca12a	-0.33716708
19	0xbd13f28a	-0.036119975
20	0x3ed121de	0.4084615
21	0xbb71a88e	-0.0036874148
22	0xbe41664d	-0.18886681
23	0x3cba2d6d	0.022726739
24	0xbc702114	-0.014656324
25	0xbebb92b3	-0.3663536
26	0xbe89f055	-0.2694117
27	0x3e33ba63	0.1755157
28	0xbd0f8462	-0.03503836
29	0x3d2f40cf	0.042786416
30	0x3bcc98ed	0.006243816
31	0x3dbeac1a	0.093101695
32	0xbd18ef54	-0.037337616
33	0xbd2fe2bc	-0.04294084
34	0x3ea1f52e	0.3163237
35	0xbcf45b9a	-0.029828835
36	0x3b3b0a19	0.0028539954
37	0xbd453c55	-0.04815324
38	0xbe00f123	-0.12591986
39	0x3d07a1e2	0.033113368
40	0xbd9ccf9b	-0.07656785
41	0x3c398774	0.011323798
42	0x3e1413c8	0.14460671
43	0x3e59ce22	0.2127004
44	0x3c9b58e2	0.018963281
45	0x3edcb486	0.43106478
46	0x3d791355	0.060809452
47	0x3b52d828	0.0032172296
48	0x3e073b69	0.13206257
49	0x3de9aed8	0.11410302
50	0xbd43acd5	-0.047772247
51	0x3e0b345f	0.13594197
52	0x3e6ad1f5	0.22931655
53	0xbdca6bbe	-0.098838314
54	0xbdbc681d	-0.091995455
55	0xbdd8c91f	-0.10585236
56	0xbcf40636	-0.029788118
57	0x3c83ba61	0.016080083
58	0xbd6b5c67	-0.05746117
59	0xbe814c50	-0.25253534
60	0x3e210c5b	0.1572737
61	0xbcf0b55f	-0.02938336
62	0x3d8af4e8	0.067849934
63	0xbe360662	-0.17775872
64	0x3e231e11	0.15929438
65	0x3c69dded	0.014274103
66	0xbeb4c030	-0.35302877
67	0x3ea9637f	0.33083722
68	0x3e0bb170	0.13641906
69	0xbc510026	-0.012756383
70	0xbd727a1d	-0.059198488
71	0x3e1981de	0.14990947
72	0x3eb4b99b	0.35297856
73	0x3e854b3c	0.26033962
74	0xbee6a1ca	-0.4504531
75	0x3c29e092	0.010368483
76	0xbe2e384d	-0.17013665
77	0xbd2d270b	-0.042273562
78	0xbd2c2634	-0.04202862
79	0x3dfe6cc1	0.12423087
80	0x3ea2b3e5	0.31777874
81	0x3d227c12	0.039669104
82	0xbd012f8d	-0.03153949
83	0x3e0e1ab7	0.13877378
84	0xbdf15d91	-0.117854245
85	0xbe52ddca	-0.20592418
86	0x3df2da66	0.118580624
87	0xbdeb0993	-0.114764355
88	0x3ca6216a	0.020279605
89	0x3dddda98	0.10832709
90	0x3a176bba	0.00057762454
91	0x3d65319f	0.055955525
92	0x3d3f847f	0.046757217
93	0xbde88608	-0.113536894
94	0xbd891d70	-0.06695068
95	0x3eeca24e	0.4621758
96	0xbd1b4a94	-0.03791292
97	0xbe18d69e	-0.1492562
98	0xbdb5cf91	-0.08877481
99	0xbdb12bee	-0.08650957
100	0xbe07e5e4	-0.1327129
101	0xbe3f6762	-0.18691781
102	0x3e1dabfc	0.15397638
103	0x3e85da1a	0.2614296
104	0xbd880668	-0.06641847
105	0xbd3add6b	-0.045621317
106	0xbcb98b34	-0.022649385
107	0xbdde492f	-0.108538024
108	0x3be8c5ee	0.007103673
109	0x3d2d18af	0.04225987
110	0x3e1fbc97	0.15599285
111	0x3a0f9d3a	0.00054784457
112	0x3ecdcd73	0.40195808
113	0xbd6cf0bb	-0.057846766
114	0xbd0d441f	-0.034488793
115	0x3cff20f9	0.031143652
116	0x3db92ccd	0.09041748
117	0xbdc55186	-0.0963469
118	0xbde60f3d	-0.11233375
119	0xbe406290	-0.18787599
120	0xbd9d6b18	-0.07686442
121	0xbcc873a9	-0.024469214
122	0x3dee42f7	0.11633866
123	0x3e53028e	0.20606443
124	0x3daf0aa4	0.085469514
125	0xbdcdff09	-0.1005841
126	0x3d7b81e3	0.061403167
127	0xbdd927fb	-0.10603329
128	0xbe89b584	-0.26896298
129	0xbd5f2e1d	-0.054487336
130	0x3e643521	0.22285892
131	0x3e3b2274	0.18274862
132	0x3e80d58d	0.25162926
133	0xba685c94	-0.0008863893
134	0x3ce6d22c	0.02817639
135	0x3e192407	0.1495515
136	0x3d63ce3a	0.055616595
137	0x3bdfce50	0.0068300143
138	0x3c45e44c	0.012078356
139	0x3d8cda40	0.068775654
140	0xbe4c2ab0	-0.19938159
141	0xbda3d91c	-0.08000395
142	0x3cc4a1fb	0.02400302
143	0x3ce611bc	0.028084628
144	0x3d2fd00f	0.04292303
145	0xbb64e25c	-0.003492496
146	0x3eb77ddd	0.35838214
147	0x3cdafa3f	0.026730655
148	0xbed3924e	-0.4132256
149	0x3b404eaa	0.0029343762
150	0x3e3854ed	0.18001147
151	0xbd43e44d	-0.047825146
152	0x3c3637ee	0.011121733
153	0x3ebaffb9	0.36523226
154	0x3e87bdaf	0.26511905
155	0xbe381d7b	-0.17979996
156	0x3d1a0241	0.037599806
157	0xbc9ed6e4	-0.019389577
158	0x3ba452ee	0.005014769
159	0xbda8314c	-0.08212528
160	0x3cea2d93	0.028586185
161	0x3d34121e	0.04396259
162	0xbea6f65c	-0.32609832
163	0x3cf1798d	0.029476905
164	0xbb4d480d	-0.0031323463
165	0x3d4283b4	0.047488883
166	0x3df0d03f	0.1175847
167	0xbd6cc2b5	-0.057802875
168	0x3da1b066	0.078949735
169	0xbc359f94	-0.01108541
170	0xbde589db	-0.112079345
171	0xbe680069	-0.22656406
172	0xbcb6b10f	-0.022301225
173	0xbeddd4a7	-0.43326303
174	0xbd26420c	-0.04059033
175	0x3bb26c63	0.0054450496
176	0xbdf619f1	-0.12016667
177	0xbdde26e8	-0.108472645
178	0x3d4c225b	0.04983745
179	0xbdfb76e0	-0.12278533
180	0xbe7aa242	-0.24475959
181	0x3dc5cfb4	0.09658757
182	0x3da8b0f3	0.082368754
183	0x3dc2c5da	0.095103934
184	0x3cfdc078	0.030975565
185	0xbc331c0f	-0.010931983
186	0x3d621adf	0.055201408
187	0x3e788d90	0.24272752
188	0xbe1f6ded	-0.15569277
189	0x3cc5abaa	0.024129707
190	0xbda0b90a	-0.078477934
191	0x3e2e9de5	0.1705242
192	0xbe2f2f8a	-0.17107978
193	0xbd132b4e	-0.03592997
194	0x3eb937d4	0.36175406
195	0xbea4581e	-0.32098478
196	0xbe09719b	-0.13422243
197	0x3b2903f0	0.00257897
198	0x3d852ea3	0.06503036
199	0xbe1bf85c	-0.1523146
200	0xbeb14ad6	-0.34627408
201	0xbe809771	-0.2511554
202	0x3ed913a0	0.42397785
203	0xbc127e34	-0.008941222
204	0x3e3285d6	0.17433867
205	0x3d3bd885	0.045860786
206	0x3d4e88c9	0.050423417
207	0xbdee9a8d	-0.11650572
208	0xbe9b60ad	-0.30347195
209	0xbcb580c3	-0.022156125
210	0x3d29b715	0.041434366
211	0xbe11a23b	-0.14222042
212	0x3df8d979	0.121508546
213	0x3e5cc343	0.21558861
214	0xbdc1570a	-0.094404295
215	0x3e016ebf	0.12639903
216	0xbd13823d	-0.036012877
217	0xbdc31117	-0.09524744
218	0xbbe662b6	-0.00703081
219	0xbd91999e	-0.07109378
220	0xbd8b2221	-0.06793619
221	0x3e01d8a9	0.12680306
222	0x3d601524	0.05470766
223	0xbef35251	-0.4752374
224	0x3d5b9277	0.053606477
225	0x3dfad667	0.12247925
226	0x3dd83376	0.105566904
227	0x3dde1513	0.10843863
228	0x3e064ee8	0.13116038
229	0x3e447902	0.19186786
230	0xbe1c459c	-0.15260929
231	0xbe82738f	-0.2547879
232	0x3daeb416	0.085304424
233	0x3d05013a	0.032471873
234	0x3d02949e	0.031880014
235	0x3e093844	0.1340037
236	0x3c6a5984	0.014303569
237	0xbd3c5cc4	-0.045986906
238	0xbe1232ff	-0.14277266
239	0x3bab8e26	0.0052354513
240	0xbed26874	-0.41095316
241	0x3d9415d9	0.072307296
242	0x3cd53db2	0.026030395
243	0xbc21155d	-0.009831754
244	0xbdcdb4fd	-0.100442864
245	0x3dc89117	0.09793299
246	0x3db10414	0.08643356
247	0x3e23a994	0.15982658
248	0x3da63405	0.08115391
249	0x3ce22082	0.027603392
250	0xbdd2ae43	-0.10287144
251	0xbe4500b9	-0.19238557
252	0xbddb053e	-0.10694359
253	0x3dbb1e36	0.09136622
254	0xbd4d5a2a	-0.050134815
255	0x3dc8ec82	0.09810735

action_model._discrete_distribution.branches.1.bias f4 [2]
0	0x3ce4e862	0.02794284
1	0xbce4e874	-0.027942874
