Assets/Onx/MoveAgent2D-5.1M_Latest.onnx (onnx, 102003 bytes, 9 tensors)

discrete_act_size_vector f4 [1, 2]
000000 00 00 40 40 00 00 00 40
       3.0 2.0

network_body._body_endoder.seq_layers.0.weight f4 [128, 50]
000000 96 de c2 be 21 05 33 be 83 a3 9e 3d b3 f4 5e be
       -0.38060445 -0.17482425 0.07746031 -0.21773033
000010 bc 68 48 be e9 a1 6d 3b f3 09 7b 3e e3 0d 9c 3d
       -0.19571203 0.0036259836 0.24515514 0.07619836
000020 cd 14 9f bd 2d 5f 34 3e 23 0b b2 bd be e8 13 bd
       -0.07767639 0.17614432 -0.086935304 -0.036110632
000030 1f 95 12 3e 28 3e 01 3d 9d bf 0b be d7 fc 51 3e
       0.14314698 0.031553417 -0.13647313 0.20506607
000040 a1 6a 88 3d a1 b1 a0 bd 94 5e 96 bd 28 b1 31 3e
       0.06660963 -0.0784638 -0.07342258 0.17352736
000050 b1 a3 17 be f5 af 98 bd 74 c5 3f be 25 bf 7b bd
       -0.14808537 -0.07455436 -0.18727666 -0.061461587
000060 7f 5d f0 be 02 e5 57 3d 06 7f ce 3c aa af ae b7
       -0.46946332 0.052708633 0.025207054 -2.0824216e-05
000070 86 36 52 be 81 46 b7 3d 71 7c cb 3d fc f9 58 be
       -0.20528612 0.089489944 0.09935845 -0.21189111
000080 42 e6 89 bd 09 67 4c be e6 e7 73 bd 80 bf 7d 3e
       -0.06733371 -0.1996118 -0.059547327 0.24780083
000090 c4 8b 78 3e 81 c9 9b be 70 89 bc be 9f 5f d5 be
       0.24272066 -0.30427173 -0.36823606 -0.41674516
0000a0 2d 40 29 be 2f e8 07 be 24 8b c5 bd 24 63 08 bf
       -0.16528387 -0.13272165 -0.096456796 -0.53276277
0000b0 0d 3e 3b be 7b 34 d1 bd 58 bd 2a 3e eb bf 85 3d
       -0.18285389 -0.10215088 0.16673791 0.06530746
0000c0 49 f5 1b bd a0 1f 16 be 77 f0 46 3e 88 d7 67 3e
       -0.03807572 -0.14660501 0.19427668 0.22640812
0000d0 0e e2 28 3d 38 26 a3 3e 6e b0 c1 ba 93 de d7 bd
       0.041231208 0.31865096 -0.0014777312 -0.105404995
0000e0 c8 f2 cb be 3e 40 c6 bd 5f 76 29 3c 2a cb 02 be
       -0.39833665 -0.09680222 0.010343163 -0.12772813
0000f0 1e 88 1c be 62 57 4d bd b8 44 09 bf be 06 13 3d
       -0.152863 -0.050132163 -0.5362048 0.0358951
000100 c0 b7 c4 3d b8 a2 04 3f 11 5f f6 3d 94 f5 14 be
       0.0960536 0.5181079 0.12029851 -0.14546806
000110 7c 9d 94 be 58 d1 82 3c 1a 7b 5d 3e 49 6c dd 3d
       -0.290264 0.015968964 0.21628991 0.108116694
000120 b0 43 e9 bd 94 83 f1 ba aa 22 1d 3d 7a 31 1c 3e
       -0.113898635 -0.0018426054 0.038363136 0.15253249
000130 5c a4 ac bc d5 21 dd 3b c3 77 83 3d 57 3f 2a 3e
       -0.021074466 0.006748418 0.06419327 0.16625725
000140 c4 da a3 3e d9 e5 4d be 63 fc 22 be 74 de 92 3e
       0.32002842 -0.20107211 -0.1591659 0.28685343
000150 5e ff 1d be 7e 5e 67 3d 53 9a d1 be 19 c3 0d 3f
       -0.15429446 0.0564866 -0.40938053 0.5537582
000160 c8 1d 29 3e 63 2b 8e bc 2c fc 32 3e 8a 98 29 bd
       0.16515267 -0.017354673 0.17479008 -0.04140524
000170 c1 dc 58 bd 5f 76 49 3d c3 16 16 3e d5 e9 10 3e
       -0.052944902 0.049185153 0.1465712 0.141517
000180 da 5b cf 3e b8 34 94 bd 52 83 65 be 48 4a bb be
       0.40499765 -0.07236618 -0.22413376 -0.3658011
000190 d3 d2 bf bd 3b 69 7e 3c 6d 81 15 be ff d7 a9 3d
       -0.093663834 0.015528019 -0.14600153 0.08293151
0001a0 ca 99 0a be e5 be 76 be 75 36 25 3f 1b b6 4a be
       -0.13535228 -0.24096258 0.6453622 -0.1979603
0001b0 2d 8e ce be 69 bf a1 3c e0 2c ae be 08 a0 b2 bd
       -0.40342847 0.019744592 -0.34018612 -0.0872193
0001c0 01 ea 09 3e f4 33 a8 bd 25 6e 36 be dd 44 23 bd
       0.13468172 -0.08213034 -0.17815454 -0.039860595
0001d0 e0 97 b4 3c 85 fa 42 be af 9e 39 be f3 4d 9a bd
       0.022045076 -0.19040878 -0.18126939 -0.07534399
0001e0 2e b8 39 be c7 97 14 3e 86 46 97 bd 0d f6 01 3c
       -0.18136665 0.14511023 -0.07386498 0.007932198
0001f0 b4 04 22 3f ad 78 ca bd d7 75 34 be 95 0b 76 be
       0.63288426 -0.09886298 -0.17623077 -0.24027856
000200 a1 07 0a be 5b 91 2d be 82 ab ff bd 95 7d b8 bd
       -0.13479473 -0.1694998 -0.124838844 -0.09008328
000210 90 e6 03 bb 4a 79 26 bf f6 ec 9e 3e 6a 9a e3 bd
       -0.002012644 -0.6502882 0.31040162 -0.111134365
000220 f0 4e 12 3e 0a 54 8f be 3d f4 9f be 2d 23 02 bf
       0.14287925 -0.27993804 -0.31241027 -0.50834924
000230 d0 fe 15 bd e9 ba 17 bd 53 6c 36 3e 4a 22 dc 3c
       -0.03661996 -0.037043486 0.1781476 0.026871819
000240 f2 12 92 bd bf 0b 0f 3e ce 9b 6c be a1 f7 77 3d
       -0.0713252 0.13969325 -0.2310631 0.06053889
000250 af db 4f 3c d2 ba a2 3d 96 2e a3 3e 96 38 02 bd
       0.012686654 0.079457894 0.3187148 -0.031792246
000260 8a 6a ae 3d 30 a0 07 be 67 1c be 3c 86 b7 51 be
       0.085164145 -0.132447 0.023206903 -0.20480165
000270 5b 2b 01 be 59 60 bb 3c 53 66 7f 3d 3f f4 71 3e
       -0.12614195 0.02287309 0.062353443 0.23628329
000280 98 aa 05 3e d5 b6 b4 bd 67 bc bb bc 86 c3 94 bd
       0.13053358 -0.08823935 -0.022916986 -0.07263856
000290 fa b2 2a 3e ea 7c 3e 3e fa e2 36 3e e6 f2 0e 3c
       0.16669837 0.18602338 0.17860022 0.008724904
0002a0 60 9e 39 be ca e1 f6 3b 6b 0f cd bc 55 4b 3f 3d
       -0.18126822 0.0075342404 -0.025031766 0.0467027
0002b0 b8 7a 2c 3c 44 23 d0 bd e0 66 e4 3d 2b b7 e0 3c
       0.010527305 -0.101629764 0.11152434 0.027431091
0002c0 8a e4 81 be de 90 ad 3e ba 63 c0 3d 19 0f 16 3f
       -0.25369674 0.33899587 0.09394021 0.5861679
0002d0 ca fa 40 3e fd 17 be bd 99 53 b7 bd a2 f4 18 be
       0.18845668 -0.09281919 -0.08951492 -0.1493707
0002e0 52 01 d7 3e 6b c3 31 bd 4c de d4 bd 79 38 93 3e
       0.41993195 -0.043399256 -0.10393962 0.28754023
0002f0 9c 5e 59 3e e9 24 fd 3d 56 1a fe bd e4 7e 9a 3d
       0.21227497 0.12360556 -0.12407367 0.07543734
000300 04 bc d3 3c 2c 7b 58 3d 05 86 ec bd 61 93 88 3c
       0.025846489 0.05285184 -0.11549 0.016671838
000310 fe 12 55 3e c4 17 d0 3b bf 5b e1 bd 4d c8 4d 3c
       0.20808026 0.0063504893 -0.11003827 0.012559962
000320 7c 1a 93 3d ad 8f 9d be 1d c5 8b be 34 a9 d7 3c
       0.07182786 -0.30773678 -0.27298823 0.0263258
000330 f9 84 f3 3d e6 44 27 be 81 6d d0 be 78 6f 2d 3d
       0.11890597 -0.16334876 -0.40708545 0.042342633
000340 e8 a7 d5 bd b3 d5 95 3e d7 a6 05 be 9d 77 8d 3d
       -0.10432416 0.29264602 -0.13051926 0.0690758
000350 d2 a9 a0 be f3 d2 a9 bd a5 08 3e be bc e4 8d 3e
       -0.31379563 -0.082921885 -0.18557985 0.27713573
000360 03 59 0b 3e c5 dc d1 bd 42 ff 37 3d ba ce 02 be
       0.13608174 -0.102471866 0.044921167 -0.12774172
000370 d5 5e 86 be 85 9e b5 3d ba fe 62 be 5d e4 68 3c
       -0.26244226 0.08868126 -0.22167483 0.014214602
000380 d1 ec 76 be 6e 6e 93 be 0a 9b 45 be db d9 11 3e
       -0.24113776 -0.2879519 -0.19297424 0.14243262
000390 29 9d bb bd 72 12 6c be 2a ed 63 be b1 ce 29 3c
       -0.09160835 -0.23053911 -0.2225844 0.0103642205
0003a0 47 29 75 bd a0 f3 91 3e 21 de 0d 3d bc be 15 be
       -0.05985382 0.28506184 0.034635667 -0.1462354
0003b0 27 70 fb 3e e4 41 20 bd bd e9 f8 be 53 75 c8 be
       0.49109003 -0.03912534 -0.48615828 -0.3915201
0003c0 bc b2 66 be e3 55 96 bd 65 47 6b 3e fd 92 42 bc
       -0.22529119 -0.073406 0.22976454 -0.011875865
0003d0 c8 80 ab bd d0 88 57 3e 57 a2 a8 be c0 d9 4d be
       -0.083741724 0.21048284 -0.32936355 -0.20102596
0003e0 fd 60 ad bd ba bc 28 3e d5 69 a9 3d 31 3f 85 3d
       -0.08465765 0.16478243 0.08272139 0.065061934
0003f0 dc 0b 14 3d 9e 1d cd bd 4e 34 73 3d 8d 1b 9d bd
       0.036144122 -0.10015415 0.059376054 -0.076712705

network_body._body_endoder.seq_layers.0.bias f4 [128]
000000 0c 84 2b bd 20 3a fc 3c 68 5b 15 be 43 e4 6d bc
       -0.041873977 0.030789435 -0.1458565 -0.014519754
000010 13 87 ef bd a2 27 c1 bb 99 3d a3 bd 02 0a d3 3b
       -0.11695685 -0.005894617 -0.07970733 0.006440402
000020 9c f2 ec bd 85 8c 05 be aa 5f db bd 85 0f 2b be
       -0.115697116 -0.13041885 -0.10711606 -0.16705139
000030 86 5d 7d bd fd 21 9e bb 27 3b ce bd a9 d7 dd bc
       -0.06185677 -0.004825829 -0.10069876 -0.027080374
000040 47 03 0a be 3a c0 1e be e6 e1 c1 bb 8a 7f 94 bd
       -0.13477813 -0.15503016 -0.005916822 -0.07250889
000050 58 bf 17 be e2 90 15 be a4 c7 e2 bd 84 04 c5 bd
       -0.14819086 -0.1460605 -0.11073235 -0.09620002
000060 80 81 0b bd e8 d0 a6 bd 36 2c b9 bd c9 a4 b3 bd
       -0.034059048 -0.081453145 -0.09041636 -0.08771665
000070 c3 8d e9 bd 36 64 2d bd d2 fb ca bd 0f 17 28 bd
       -0.11403992 -0.042331897 -0.09911312 -0.041037615
000080 5e 6c f8 bd f0 1a 6e bb 4e 00 f4 3a d3 43 d9 bd
       -0.121300444 -0.0036331974 0.0018615813 -0.106086396
000090 14 d2 3d bd c9 68 e0 bd 41 fd cc bb 07 0a 70 3c
       -0.046342924 -0.10957486 -0.006255776 0.014650828
0000a0 2f 35 5d bd 9a c8 06 bb 62 8c 61 bd 54 64 80 3c
       -0.054005798 -0.0020566345 -0.05506552 0.01567284
0000b0 3d 21 31 3c 23 7f 3b bd c0 e4 ce 3c 2e c8 da bd
       0.010811147 -0.045775544 0.02525556 -0.106827125
0000c0 3e 57 26 be e8 b1 da bc 92 f8 10 bc e9 0a ac bd
       -0.16244218 -0.02669616 -0.008848326 -0.084005184
0000d0 d5 89 9b bd f9 8a b2 bd f1 b2 76 bd 8e 04 06 bd
       -0.07594649 -0.08717913 -0.060229246 -0.032719187
0000e0 55 82 bc bd c6 c9 02 bd 3d a3 49 bd 90 6c 18 3b
       -0.09204546 -0.031930707 -0.04922794 0.0023258068
0000f0 03 ef 80 bd 27 64 74 bd fb 7f 07 be 20 f9 e4 bc
       -0.06295588 -0.059665825 -0.13232414 -0.027950823
000100 d6 59 19 be 7b 70 c6 bd 10 cd f2 bb 9b b5 30 be
       -0.14975676 -0.09689423 -0.0074096993 -0.17256777
000110 a3 92 3c bd e0 7d ce bc a0 1c 18 3d 04 d6 e5 bc
       -0.04603828 -0.025206506 0.037136674 -0.028056152
000120 18 f6 ec bd a8 9b 83 bd db dd 2e bd 7c 3e a7 bd
       -0.11570376 -0.064261734 -0.042692047 -0.08166215
000130 57 77 76 bd dc 73 b6 bd c3 91 76 bd 51 8f c4 bd
       -0.060172405 -0.08908817 -0.060197603 -0.09597648
000140 7c 90 65 bd 6e b3 b7 bc 17 2d a6 bb 7c 6c fb bd
       -0.056045994 -0.022424426 -0.005071293 -0.12276551
000150 0b 1f 7d bc 92 95 95 bd 23 76 84 bd fb dc 39 bd
       -0.015449296 -0.07303919 -0.06467845 -0.04537676
000160 f3 d9 a0 ba 7a 38 11 bd b1 36 17 bc a9 0c 05 bd
       -0.0012271985 -0.03545425 -0.009229348 -0.032482777
000170 35 f8 bf bd a0 75 66 3c 7d e8 90 bd db 92 c9 bd
       -0.093735136 0.01406613 -0.070755936 -0.098424636
000180 0e 60 d0 bd 96 a9 e9 bd 6e 24 74 bd 57 58 0b bd
       -0.10174571 -0.11409299 -0.059605055 -0.034019794
000190 2e 8a ff bd 20 a6 14 be 54 74 06 be 77 22 67 bd
       -0.124775276 -0.14516497 -0.13130313 -0.056429353
0001a0 ff 99 34 bd 40 47 eb 3c 70 4a 09 be a0 6d fe bd
       -0.044092175 0.028720498 -0.13407302 -0.12423253
0001b0 6e a0 a9 bd 10 3f bb bd 8a c5 0b bd de 9b bb bd
       -0.08282553 -0.091428876 -0.034123935 -0.09160589
0001c0 1a 61 f8 bd 28 f6 21 bd 76 5f d3 bd 57 1c 2f bd
       -0.12127896 -0.039541394 -0.10320942 -0.042751636
0001d0 d2 f6 93 bd d9 c9 30 bd 3d b6 e7 bd 11 e1 9b bd
       -0.072248116 -0.043161247 -0.11314056 -0.076112874
0001e0 1b 14 0e bd 0b c4 23 bd e0 86 cb bd 5a 96 3e bb
       -0.034687143 -0.039981883 -0.09937835 -0.0029081316
0001f0 07 56 35 3c 83 55 12 be 1d a8 e3 bd 1a 74 d3 3c
       0.011067874 -0.14290433 -0.111160494 0.025812197

network_body._body_endoder.seq_layers.2.weight f4 [128, 128]
000000 2e de cf 3b d9 22 29 be a8 36 f7 bd cb 11 fc bd
       0.0063436246 -0.165172 -0.12070972 -0.12308081
000010 e9 30 07 be 5a 7a 00 be e7 84 8f be 0f cf d3 bb
       -0.13202251 -0.12546673 -0.28031084 -0.0064638923
000020 48 10 24 be 89 8f c4 3d e3 9f 4d bd a7 c9 4b bd
       -0.16021836 0.0959769 -0.050201308 -0.049752858
000030 9a e6 2f 3c bf 37 37 3e ad 46 e1 bd 42 db 41 3c
       0.010736132 0.17892359 -0.109998085 0.01183206
000040 4d d2 38 be 1f f5 c4 bd 64 2e 28 bb fd c7 5e 3e
       -0.18048973 -0.09617066 -0.0025662417 0.21755977
000050 a3 e4 8c be a1 e2 8d be 27 2d 71 bd 5d 26 56 bd
       -0.27518186 -0.27711967 -0.05888095 -0.05228268
000060 84 73 32 3c 16 e8 f2 3d f7 c2 ae be 47 83 89 bd
       0.010891799 0.11860673 -0.3413312 -0.06714492
000070 c1 2a 18 3d 96 c3 a0 be 1c b1 15 be 0c 31 ec bd
       0.03715015 -0.3139922 -0.14618343 -0.115327924
000080 f6 8b 76 ba 87 4b 98 3d 97 89 95 be bc fa 4a be
       -0.0009405011 0.07436281 -0.29206535 -0.1982221
000090 06 ff 99 3d 5e 09 7c 3d 5d 42 68 be c9 38 1d be
       0.07519345 0.06153237 -0.22681566 -0.15353693
0000a0 fa 6e a5 3d b2 71 08 bd 6e 23 6b bd a6 94 46 3d
       0.08077808 -0.033311553 -0.057406835 0.048481606
0000b0 82 40 4b 3d 5a 2e ee 3d 0f 36 02 be ed c4 93 39
       0.049622066 0.116299346 -0.12715934 0.00028184746
0000c0 c8 08 85 bd 61 54 7e 3d 56 07 0a bd e5 f9 38 bd
       -0.064958155 0.06209219 -0.033698402 -0.045160193
0000d0 d5 0d 04 be 30 b9 7e be 63 53 1e be a8 69 35 be
       -0.12895902 -0.24875331 -0.15461497 -0.17716086
0000e0 6d 5c 4a 3e 0d 29 90 bd 3a 7f 5b be f8 54 c1 3d
       0.1976182 -0.0703908 -0.21435252 0.09440035
0000f0 90 b5 99 bb 08 94 7a bd 66 27 de bc 93 c8 22 be
       -0.0046908334 -0.06117633 -0.027118396 -0.15896825
000100 03 31 54 be 32 6e 3c be 86 0e d5 bd 73 f1 d5 bd
       -0.20721821 -0.18401411 -0.10403161 -0.104464434
000110 ce 69 ee 3d 15 6d 02 be b1 5a 01 be c8 17 25 3e
       0.116412744 -0.12736924 -0.12632252 0.16122353
000120 f6 10 b3 bd fe 7d 3f bd 62 68 c4 bd 85 18 b3 b9
       -0.087434694 -0.046751015 -0.09590222 -0.0003415981
000130 45 89 99 be 1c a4 95 be 9c 64 bf 3d 32 ba 89 be
       -0.2998754 -0.29226768 0.093453616 -0.26899868
000140 cf d9 d5 bd 54 b7 49 3e 7b 30 cf bc 47 a7 21 bd
       -0.10441934 0.1969884 -0.025291672 -0.03946617
000150 07 c3 2a 3e 8f 24 02 3e 83 c4 89 3c ad 18 74 3d
       0.1667596 0.12709258 0.016817337 0.059593845
000160 58 06 2f bc 33 9b 1e 3e ce 50 11 be 17 23 70 3c
       -0.010682665 0.15488891 -0.14190981 0.014656804
000170 c8 8e bb bc 0a 88 28 be c4 41 8c 3d 14 04 f4 bb
       -0.022895232 -0.16458145 0.06848481 -0.007446775
000180 15 f2 00 be 9e 25 29 be bd 13 c5 bd e5 34 c1 bd
       -0.12592347 -0.16518256 -0.096229054 -0.09433917
000190 10 cd 77 3d f3 61 16 bd 26 31 ba be 36 0f ab bc
       0.060498297 -0.036714505 -0.36365622 -0.020881277
0001a0 1b bf 0c 3e 91 f1 26 3e 62 17 33 3e fb 0a 94 bd
       0.13744776 0.16303088 0.17489389 -0.07228657
0001b0 fc ee a3 bb 85 d8 6b bc 70 04 94 bd 8d c8 49 3d
       -0.0050028544 -0.014394884 -0.07227409 0.049263526
0001c0 2e 1d 2c be 2f a1 22 be 9c 53 f4 3d b8 2b 63 3c
       -0.16808006 -0.15881799 0.1193001 0.013865404
0001d0 ec ed e2 3d ae e3 95 3d 01 e5 5d be 32 7c 46 bd
       0.11080536 0.07318817 -0.2166939 -0.048458286
0001e0 92 a8 7f be 33 0d 13 bd 6e 47 c8 3d a8 03 0a bc
       -0.24966648 -0.03590126 0.09779249 -0.008423723
0001f0 3c 60 ad 3e 84 51 b3 bb 27 80 d3 be e7 c9 33 be
       0.33862484 -0.005472364 -0.4130871 -0.17557488
000200 f4 c1 b1 3c 85 e8 8c 3c f8 62 6c be f6 69 8d 3d
       0.02169893 0.017200718 -0.23084629 0.06904976
000210 e4 aa 2e 3d d2 b4 f3 bd 44 2f ba bd 91 5e ea bd
       0.042643443 -0.11899723 -0.090910465 -0.11443818
000220 22 50 ef 3d ee bf 72 be ac b1 10 be 2b 67 33 be
       0.11685206 -0.23706028 -0.14130276 -0.17519824
000230 4f f1 77 be 51 26 ad 3d 9e 3f b9 3a e1 c9 60 bd
       -0.24213146 0.08454574 0.0014133339 -0.054880027
000240 f9 d3 52 be 58 ef 4e be b4 d4 13 bd df a2 b4 bd
       -0.20588674 -0.2020849 -0.03609152 -0.08820128
000250 22 25 2c 3e 18 3b f4 3d c1 79 2a be eb 7e d6 bc
       0.1681104 0.11925334 -0.16648008 -0.026183566
000260 86 45 ad bd 77 43 07 bd 00 d6 75 bd de c0 87 bd
       -0.08460526 -0.033023324 -0.06001854 -0.06628583
000270 b2 ff dd bd aa c7 8d 3c 2f 87 9f bd 01 41 eb bc
       -0.10839786 0.017307121 -0.07789456 -0.02871752
000280 69 ca 94 3d f0 fc 03 be 51 95 7e 3b dd bb b5 bd
       0.07265169 -0.12889457 0.0038846324 -0.08873723
000290 18 3f 66 3c e0 89 8a bc 25 a8 99 bd 49 75 0c 3d
       0.014053129 -0.016911447 -0.07502774 0.03429154
0002a0 90 e0 47 bd b5 82 5b 3c e2 69 f0 bd 4a aa fb bd
       -0.048798144 0.013397862 -0.117389455 -0.122883394
0002b0 bf 53 9c be aa 20 3d 3e 97 da e2 3d 3a ce c8 bd
       -0.30532643 0.18469492 0.11076849 -0.098049596
0002c0 a4 f3 a4 3d 85 2c 57 bd f4 42 74 bc ad 26 83 3d
       0.08054283 -0.05253269 -0.014908541 0.06403861
0002d0 f7 86 b7 3d 24 a8 cf bd 16 1c 3f bd 60 bc 07 be
       0.089612894 -0.10139492 -0.046657644 -0.13255453
0002e0 65 5d 1a be 4c e6 08 bf a4 5b 7d 3d 2a 53 77 bc
       -0.1507469 -0.53476405 0.061854973 -0.015095511
0002f0 23 52 8a bd 88 52 85 ba c8 e5 88 bd 23 0e 47 be
       -0.067539476 -0.0010171691 -0.06684452 -0.19438986
000300 3d f5 d8 bc 16 19 41 3d e6 1e bb 3d 22 6f 3e be
       -0.026484126 0.047143064 0.09136753 -0.18597081
000310 af b2 10 3e ff 0a 33 3e e5 93 76 be cc 7e 83 be
       0.14130662 0.17484663 -0.24079855 -0.25682676
000320 0b d1 ae 3d 48 54 1e bd b8 44 93 be eb b0 fb 3a
       0.085359655 -0.038654596 -0.28763366 0.0019202506
000330 9b 38 fa bd c3 53 20 bd 8c 49 cd 3c b7 ab fc bd
       -0.12217828 -0.03914238 0.025059484 -0.123374395
000340 c7 7b a0 bd 99 65 a9 3d 1e a1 68 bd 3b 69 51 bd
       -0.07836109 0.08271331 -0.05679428 -0.051125746
000350 2b d9 d2 bd 7b 7a 9f 3d 75 dd 9b 3d 43 93 5f bd
       -0.10295328 0.07787033 0.07610599 -0.0545838
000360 27 23 9d 3d 25 d9 c1 3d 0a b9 9c 3d 50 93 cc 3d
       0.076727204 0.09465245 0.07652481 0.09989035
000370 b8 cf 41 bd 33 7b 32 bd 35 22 f0 bd a3 a0 05 3d
       -0.047317237 -0.043574523 -0.117252745 0.0326239
000380 a8 82 38 be c5 ff 1e 3d 3a 40 c0 bd 74 ae 7a be
       -0.18018591 0.03881814 -0.0938725 -0.24480611
000390 ce 9b 40 3e 03 b7 f2 bd e4 6a 3d be 37 84 28 bd
       0.18809435 -0.11851313 -0.18497807 -0.041141715
0003a0 53 d0 7b 3d e0 35 c0 3d 0a df b4 bd 81 29 57 3d
       0.06147797 0.09385276 -0.08831604 0.052529816
0003b0 75 57 27 bd 2e a5 53 3e 0b 62 6c bd 57 26 c0 bd
       -0.04085489 0.2066848 -0.05771069 -0.09382313
0003c0 e3 38 24 be 47 6a c0 bd 37 82 d3 bd b7 e1 3f be
       -0.16037326 -0.09395271 -0.10327571 -0.18738447
0003d0 0e 3c 89 3d 1c d0 a8 bc 01 05 d3 bd 5e 7d e1 3d
       0.06700908 -0.020607047 -0.10303689 0.1101024
0003e0 fa ec cf bd b9 22 42 be 01 c1 5b bd 06 17 ef bc
       -0.101526216 -0.18958558 -0.05365086 -0.029185783
0003f0 0f 43 07 3e c0 70 46 be cd 8e 3e bd 91 f8 9c bc
       0.13209175 -0.19378948 -0.046522904 -0.019161494

network_body._body_endoder.seq_layers.2.bias f4 [128]
000000 e7 76 a5 bd 09 d0 2a 3c 27 62 54 bd 0f 83 38 bd
       -0.080793194 0.010425576 -0.051851418 -0.045046862
000010 3a 2e 81 bd 82 c5 f8 3c cf b7 0a 3d f0 d2 7c bd
       -0.06307645 0.030367617 0.0338667 -0.061724603
000020 53 8f 86 bd d8 bd 54 3d 72 20 aa bd 00 0c 3d bd
       -0.06570306 0.05193886 -0.0830697 -0.046154022
000030 c1 4a d1 bb 40 3e 9c 3d bf 4d c0 bd 45 17 32 be
       -0.006387085 0.07629061 -0.09389829 -0.17391689
000040 1e f1 c8 bd fe ce 26 3c 05 80 86 bd e6 17 99 bd
       -0.098116145 0.010181187 -0.065673865 -0.074752614
000050 3a 68 35 bc fd 47 29 bd f3 a5 cf 3a 96 91 89 3d
       -0.011072213 -0.04132842 0.0015842303 0.067172214
000060 7b af a0 bd 48 30 be 3b 80 ee 1c 3d af d7 7e 3d
       -0.0784597 0.0058040954 0.03831339 0.06221741
000070 6e ca 83 bd 6d 8f 0c bb 5c 0d ba bd a4 26 77 3d
       -0.06435095 -0.0021447793 -0.09084579 0.060339585
000080 c2 b9 86 bd 13 cd 72 bd 1b 08 46 bd 06 74 87 3d
       -0.06578399 -0.059277605 -0.048347574 0.066139266
000090 fe 05 8f bc 10 96 e9 bd 4c 25 4a ba e6 db c1 3a
       -0.017458912 -0.11405575 -0.0007711246 0.0014790266
0000a0 34 a7 92 bd 7e 92 a1 3d e1 ec ef bd 1c 56 30 bd
       -0.07160798 0.07889269 -0.11715103 -0.04305087
0000b0 d7 70 15 be f7 25 c6 bd 33 b2 3c bc d1 1a a8 bc
       -0.14593826 -0.0967521 -0.011517095 -0.0205206
0000c0 a9 9b 97 bc 02 68 aa bc 42 02 d9 bb 98 68 1b 3d
       -0.018506842 -0.020801548 -0.0066225836 0.037941545
0000d0 4a 47 9a 3c 8c 44 92 bd a0 cf 54 bd cf 94 b1 bd
       0.018832821 -0.071419805 -0.05195582 -0.08670961
0000e0 5a 1b bb bc 35 8d 69 bd ec 35 62 bd ee 79 f1 bd
       -0.02284019 -0.05701943 -0.055227205 -0.11790834
0000f0 fc e3 18 3d cb d2 f3 bd 0c 81 df bd 31 b8 2b bd
       0.037326798 -0.1190544 -0.109132856 -0.041923705
000100 f3 85 8b bd 8a 8f 9c bb 0f cc 2d be 67 02 4b 3d
       -0.06812658 -0.0047778534 -0.16972373 0.049562838
000110 13 69 38 bd 6c 69 cf bc 3a a7 a4 3d 2d cf 40 3e
       -0.04502208 -0.025318824 0.080397084 0.18829031
000120 0d 57 00 bd 22 33 05 3d 60 33 1e be 27 91 6c bd
       -0.031333018 0.032519467 -0.15449286 -0.057755616
000130 ed 7b f4 3d d6 d6 4c bd 0e 89 9e 3d 09 c7 aa bd
       0.119376995 -0.05000957 0.07740985 -0.08338744
000140 91 a8 c6 bd 90 fc cc 3d ed 5d dc bd 94 67 45 bd
       -0.0970012 0.1000911 -0.107601024 -0.048194483
000150 09 f4 3b 3e 28 9e db bc 56 f1 02 be e4 d5 94 3d
       0.18354811 -0.026808813 -0.12787375 0.07267359
000160 47 5b 37 3d b9 da 28 bd 0b 17 57 bd 54 c5 a4 3d
       0.044764783 -0.041224215 -0.05251221 0.0804545
000170 23 25 56 bd 05 64 e3 bd 09 0b 49 bd ff 96 f3 bc
       -0.05228151 -0.111030616 -0.04908279 -0.029735086
000180 8f 27 de bc 53 3e af bd dd b1 03 3c 3c 1a b5 3d
       -0.027118472 -0.08556809 0.008038011 0.088428944
000190 1f ad 36 bd f0 77 c9 bd c3 06 2b bb ad fa 78 bd
       -0.044598695 -0.098373294 -0.002609656 -0.060785938
0001a0 43 bb 8a bb 74 3c 0f bd 19 c5 53 3d 09 d1 8d 3d
       -0.004233749 -0.034969762 0.05170164 0.06924636
0001b0 92 39 1d bd c9 ad 28 bc 83 18 26 bc 8c 68 99 3c
       -0.03838498 -0.01029534 -0.01013768 0.01872661
0001c0 b5 19 eb bd 5b eb 9d 3d 91 b2 2d be ac 60 ec bd
       -0.114795126 0.07710906 -0.16962649 -0.11541876
0001d0 68 62 6e 3d db 08 ee 3c 7e f8 90 3c d4 a1 85 bd
       0.058199316 0.029056957 0.017696615 -0.06525007
0001e0 93 06 8f bd 58 d1 5a bd 43 ea 1a bd b7 c7 d9 bd
       -0.06983676 -0.053422302 -0.037821066 -0.10633796
0001f0 66 0c 18 be 6d fd a1 3d d3 56 c2 bd 0a 8b b8 3c
       -0.1484848 0.07909665 -0.09489217 0.022527236

action_model._discrete_distribution.branches.0.weight f4 [3, 128]
000000 bb 83 b3 3b 59 51 ae bd fb 84 ed bd fb 38 33 be
       0.00547835 -0.085116096 -0.1159763 -0.17502205
000010 09 e5 bd bc 1e 76 0a 3d 5e b0 56 3d b6 ad 96 3d
       -0.023180502 0.03380405 0.05241429 0.073573515
000020 cd 7b c6 bd 01 9d 40 3e 1f 19 05 3e 99 c4 a0 bd
       -0.09691582 0.18809892 0.12997864 -0.07849998
000030 5e fd 57 3e f0 32 0e be 22 9c 35 be 5b d6 a2 bd
       0.21092746 -0.13886619 -0.17735341 -0.07951041
000040 62 c7 f6 bd c2 3d d5 bd 92 6a 19 be 51 e2 c4 3b
       -0.12049748 -0.1041217 -0.1498206 0.0060084243
000050 6f 65 d9 bd 24 ca 4d be 8e 3f 4e bc fa 4c 4c bd
       -0.1061505 -0.20096642 -0.012588395 -0.049878098
000060 bc 77 d4 bd ac 8b c1 3d de 63 20 3d 2a 34 1b 3c
       -0.103744 0.094504684 0.03915774 0.009472886
000070 73 12 eb bd 7d 00 1b 3e dc ba 09 bd 64 38 86 3c
       -0.11478128 0.15136905 -0.03362547 0.016384311
000080 0c a7 b1 bc 5d 97 17 be 02 65 2b be 2d 81 0f 3d
       -0.0216861 -0.14803834 -0.1673775 0.0350353
000090 d6 8d 21 be 85 a1 00 be dc cd ef bd 78 63 10 bc
       -0.15776762 -0.12561615 -0.117091864 -0.008812778
0000a0 c7 7b ff bc 2c ce 8b 3d 1f 2a ab bd be a9 1b be
       -0.031186951 0.068264335 -0.08357643 -0.1520147
0000b0 5c 0a 4b 3d 2a 96 5a be 8b 3b 7d 3d e1 68 07 be
       0.049570426 -0.21346346 0.061824363 -0.13223602
0000c0 d5 cf 88 bc bc 5e 01 bc f9 b2 c2 3a 65 eb 4e be
       -0.016700665 -0.007896122 0.0014854363 -0.20206983
0000d0 40 69 ff 3d 00 c8 57 bd 98 16 5e be 0f 64 84 bc
       0.12471247 -0.05268097 -0.21688306 -0.016160993
0000e0 86 c4 a6 bd 87 95 95 3a b6 f4 a1 bc 88 94 b7 ba
       -0.081429526 0.001141236 -0.019770008 -0.0014006058
0000f0 8a cf 50 bd 2e 43 dd bc 33 b4 28 be 75 44 21 be
       -0.050979175 -0.027009573 -0.1647499 -0.1574877
000100 54 f2 8e bd 6f 17 7b 3e dd 2a 46 be ca fd e4 bd
       -0.06979814 0.24520658 -0.19352289 -0.11181219
000110 55 e8 46 bd e6 b2 23 be 0e 16 61 be 2c 55 2f 3c
       -0.048561413 -0.15986213 -0.2198107 0.010701459
000120 ac 94 ab bd b9 7c ca 3c e7 e0 47 be 67 38 4f be
       -0.08377966 0.024717676 -0.19519387 -0.2023636
000130 36 06 66 3d 68 aa 26 be c3 c8 14 3e 60 65 fa 3c
       0.056158267 -0.16275942 0.1452971 0.030565917
000140 e3 a9 d8 3d ef ee ae 3d eb 7d c8 bc 16 de 08 be
       0.10579278 0.08541667 -0.024474105 -0.13365969
000150 ae 86 f8 3d de 97 96 bd 12 da 93 be 66 ae c4 bd
       0.12135063 -0.07353185 -0.28877312 -0.09603576
000160 b8 d9 99 bd 80 0a 6d be 3d dc 3e 3d d6 f4 a9 3d
       -0.0751223 -0.23148537 0.046596754 0.08298652
000170 e5 08 8d 3d 3c 81 da bd 1b 29 59 3e d6 f6 5c 3d
       0.06886462 -0.10669181 0.21207087 0.05394634
000180 e4 14 89 bd 08 3f ae 3c fa 84 b3 bd c3 cf 2c 3e
       -0.06693438 0.02127029 -0.08765598 0.1687613
000190 19 82 b2 bd 5c a7 68 3d 78 80 33 be 76 c9 08 3d
       -0.087162204 0.05680023 -0.17529476 0.033395253
0001a0 c7 c8 e6 3c 9f ef b0 bd dc a1 29 3d 5e 56 c1 bd
       0.02817191 -0.08639454 0.041414127 -0.09440301
0001b0 cc 67 d0 bd 56 43 53 3d 2a c6 85 3d 18 14 d7 bd
       -0.10176048 0.05157789 0.065319374 -0.105018795
0001c0 d6 17 97 bd 92 71 3f 3d 67 e5 be 3c 5b c1 3a 3d
       -0.07377593 0.04673917 0.023302747 0.045594554
0001d0 6e 21 50 bb b9 7f a4 3d 3e 41 19 3e b4 d1 4f bd
       -0.0031758207 0.08032174 0.14966294 -0.050737098
0001e0 03 c9 89 3c 39 e7 dc bd f1 0e 7f bc 8b 54 d5 3d
       0.016819483 -0.1078629 -0.015567527 0.10416516
0001f0 d6 3e 72 3d 31 10 47 bb 1f 89 f9 bd a9 dd 82 be
       0.059141956 -0.003037464 -0.12184357 -0.25559738
000200 1f b6 e3 bd 1d 62 ba bd 4c 9f 08 3e 7c 06 13 3e
       -0.11118721 -0.09100745 0.13342017 0.14357942
000210 18 f6 be 3d 1c b4 3c bd 66 e0 a1 3d 98 bb aa 3c
       0.093242824 -0.046070203 0.07904129 0.020841405
000220 5d 2d 71 3e 3e 13 ae bd 5d e0 96 bd e6 3e 94 3d
       0.23552461 -0.08499764 -0.07367013 0.072385594
000230 84 e3 17 bd 93 e5 d9 3d f7 52 80 3e 21 ac 0e 3e
       -0.03708221 0.10639491 0.25063297 0.1393285
000240 10 9b 41 3e 61 f4 d9 3e d6 76 43 3e 32 97 66 3c
       0.18906808 0.4256926 0.19088301 0.014074134
000250 8f 6f 3f 3e 03 26 0a bc 0b 74 a5 3d 94 14 a1 3e
       0.186949 -0.008431914 0.08078774 0.31461012
000260 cd ab cc bd ea 24 46 3d c8 4f 04 be 4a 8e 01 3e
       -0.09993706 0.048375048 -0.12921059 0.12651935
000270 33 df 3a bd 6c 8d 92 3c cd d6 8f bd d8 ca 1d 3d
       -0.045623016 0.0178897 -0.07023392 0.038523525
000280 f4 b7 ad 3d 87 b3 b2 3e 03 70 97 3d e4 84 0d 3d
       0.08482352 0.34902593 0.073944114 0.034550563
000290 8a d9 2e 3e 48 a2 09 3e b7 2e 16 3e d2 cf 3c bb
       0.17075172 0.13440812 0.14666258 -0.0028810394
0002a0 86 1b 37 3d 13 5c a1 bd cb f5 ae 3d 85 ff 0f be
       0.044703983 -0.0787889 0.08542975 -0.14062317
0002b0 83 8f c3 bd e0 82 9a 3c 6b 64 4f bd ed ee a2 3e
       -0.09548857 0.018861234 -0.050632875 0.3182291
0002c0 bc 14 84 be b7 5a e2 3d ea b3 9b 3e 7d 46 fa 3d
       -0.2579707 0.11052459 0.304107 0.12220476
0002d0 47 dc cd bd 2e 9d d6 bd 47 48 0d 3e 5f 40 c4 3c
       -0.1005178 -0.104791984 0.13797103 0.023956476
0002e0 58 cf 66 3e 9d 7d d7 3d 27 33 03 3e ba 84 a2 bd
       0.22540033 0.10522006 0.12812482 -0.07935472
0002f0 ad bd 35 be 80 9e f0 3d 94 23 a7 3e 4d d2 7d 3e
       -0.17748137 0.117489815 0.3264433 0.24787255
000300 37 68 65 3d 2d 0d 12 be 60 9d b4 3d c0 e5 6a 3e
       0.05600759 -0.14262839 0.088190794 0.22939205
000310 76 cf 80 3d be 92 16 3e ac 04 ec 3e 1b db d2 bd
       0.0628957 0.14704415 0.46097314 -0.10295697
000320 5a 06 80 3e f6 77 b5 bd 26 72 61 3e 31 f8 96 3e
       0.25004846 -0.08860771 0.220162 0.2948623
000330 47 0d 0f be f9 a0 cb 3d 0a 89 a2 bc bf 46 dc 3c
       -0.13969909 0.099428125 -0.019840736 0.026889203
000340 96 cd b0 bd a2 d2 ab bd 4e 1b ec 3d 65 bf 37 3e
       -0.086329624 -0.083897844 0.115286455 0.17944105
000350 21 2a 06 bd f1 83 11 3e 55 3b 4d 3e 63 3e 4c 3d
       -0.03275502 0.14210488 0.20042165 0.049864184
000360 d1 53 03 3e 90 4b c6 3e 7d 3d d0 3a 91 5e 2a be
       0.12824942 0.38729525 0.0015887466 -0.16637637
000370 c5 4d 28 3e 23 81 af 3d a6 54 e8 bd 5e e6 f7 3d
       0.16435917 0.08569553 -0.113442704 0.12104486
000380 c2 99 19 be 71 e0 57 bc eb 58 22 bc f3 a0 22 be
       -0.1500006 -0.01317607 -0.009908895 -0.1588171
000390 8d 05 d2 bd c7 f6 b7 bd 53 e4 4e 3e f3 c1 03 be
       -0.10254965 -0.08982616 0.20204286 -0.12866955
0003a0 3b 8a a5 3d 67 d1 50 3d 4e 88 72 be 8a f5 40 3d
       0.08083006 0.05098095 -0.23684809 0.047109164
0003b0 51 f8 7f 3e b1 bb 26 be 55 96 36 3d 0f 8b 77 3e
       0.24997069 -0.16282536 0.04457696 0.2417414
0003c0 44 8e 04 3e a9 d7 70 bd a6 bb 7f be f4 d5 a0 3c
       0.12944895 -0.05879942 -0.24973926 0.01963327
0003d0 5a 52 08 be c8 e5 c8 bd 9b 93 1d be 9f 09 dc 3d
       -0.13312665 -0.09809452 -0.15388338 0.107440226
0003e0 74 9e 11 3e c6 a1 66 3e 98 a8 80 3c 97 a5 33 be
       0.14220601 0.22522649 0.015705392 -0.17543636
0003f0 d3 4a 87 bd 63 c1 06 3e 87 c9 10 3e e0 3b 95 3e
       -0.066060685 0.13159709 0.14139377 0.29147243

action_model._discrete_distribution.branches.0.bias f4 [3]
000000 24 67 3a 3d 88 5c e7 bd 9a 15 65 3d
       0.04550852 -0.11296946 0.055928804

action_model._discrete_distribution.branches.1.weight f4 [2, 128]
000000 b1 13 46 bd d9 93 8c 3d 39 99 8f 3e 15 eb 09 3e
       -0.048358623 0.06864137 0.28046587 0.13468583
000010 45 01 b0 bc fe 49 1e be 0c a5 21 be 35 89 b7 bd
       -0.02148498 -0.15457913 -0.15785617 -0.08961717
000020 4d 13 04 3e 27 38 fc 3d 2a 97 1b be 6e 2a ec bc
       0.12897988 0.12315398 -0.15194383 -0.028828826
000030 92 07 56 3c 8c 7a 50 3e b1 24 0e be b6 94 d9 bc
       0.013063328 0.20359248 -0.13881184 -0.026560169
000040 5b 7b 95 3c e7 42 2a 3d d1 6a 1d 3e c2 e4 5f 3e
       0.018247297 0.04156771 0.15372778 0.21864608
000050 c9 10 83 bc 14 e6 c9 3c 75 40 63 bb 24 ad c6 3d
       -0.015999215 0.024645843 -0.003467587 0.09700993
000060 d2 a9 e7 bd 2f 7a c6 3c c1 96 19 3e 1d ec 3f 3e
       -0.113116875 0.024228184 0.14998914 0.18742414
000070 37 25 8b 3d 1e 4a 04 bd e7 a7 95 bc fb 3f 9f bd
       0.067942075 -0.032297246 -0.018268539 -0.07775875
000080 15 1c 78 bd 60 bf 49 3d 7e c5 8a bd 8e 20 24 be
       -0.060573656 0.049254775 -0.0677595 -0.16028044
000090 a7 96 49 3e d0 38 03 bd 3f 6a 17 bd cf ee aa bd
       0.19686376 -0.032036602 -0.03696656 -0.083463304
0000a0 e5 be 07 be 25 92 09 be 03 48 db bd 1d f2 30 bb
       -0.13256414 -0.13434656 -0.107070945 -0.002699978
0000b0 fd cd b3 bc dc 0f 7a bb c2 0e 07 3e 65 f9 b0 bd
       -0.021948809 -0.0038156426 0.13189223 -0.08641318
0000c0 7a ae 52 3e 86 d2 0d be 4b 8a 83 bd db 8e 95 3e
       0.2057437 -0.1384984 -0.06422862 0.29210553
0000d0 2e f7 2c 3d 3a b3 23 bd f0 91 ac 3d 28 5a a8 be
       0.042227916 -0.039965846 0.08426273 -0.32881284
0000e0 2f e2 88 bd fc 07 55 bd a3 49 24 be 67 8c 15 bb
       -0.06683766 -0.052009568 -0.16043715 -0.0022819282
0000f0 a1 89 03 be fe 66 d1 3d 9a 5c 03 3e 08 39 8d bc
       -0.1284547 0.10224722 0.12828293 -0.017239109
000100 f2 92 8f be 35 01 00 bd 9d da c0 ba 23 d2 8f bd
       -0.28041798 -0.03125115 -0.0014713589 -0.07022502
000110 fd d3 87 bd 4f 7f 36 3e 36 ec cc bd ba 9c 81 bc
       -0.066322304 0.17822002 -0.10005991 -0.015821803
000120 86 ea 3d bd 51 8b 12 3e a0 c7 a3 bc 1e 11 9b bd
       -0.046366237 0.14310957 -0.01999265 -0.07571624
000130 e6 26 ef bc ce bf 0f 3e c3 e4 cf 3d e7 eb 12 3e
       -0.029193353 0.14038011 0.10151055 0.14347802
000140 9c 4c cd bd 67 12 10 bc dc c2 b9 bc e0 57 5d bd
       -0.10024378 -0.00879345 -0.022675924 -0.054038882
000150 1a 13 ea 3d 9a f2 e5 bc 50 d7 82 bb 76 0c 05 3e
       0.114294246 -0.028069783 -0.0039929524 0.12993035
000160 29 d5 3f 3e c8 fb 02 be 70 36 06 3e eb a1 4e be
       0.18733658 -0.1279136 0.13106704 -0.20178954
000170 6a 1b f0 bd 63 50 1d 3e c7 e1 0c bd f5 8b e5 bd
       -0.11723979 0.15362696 -0.034395006 -0.11208335
000180 14 d9 81 bc 00 be ef 3d 97 fd 96 3e b4 73 66 3c
       -0.015850581 0.117061615 0.2949035 0.014065672
000190 3e 18 7f bd c4 74 86 bd d4 6b 11 3e 12 9f 71 3e
       -0.06227898 -0.0656524 0.1420129 0.23595837
0001a0 12 41 4f bd 30 5a 81 3d 15 36 59 bc 6b 03 11 3e
       -0.050599165 0.0631603 -0.013257523 0.1416146
0001b0 18 e0 a7 3d 0b fa 56 be 47 e7 55 bd 76 b6 4f 3d
       0.08197039 -0.20993821 -0.052222516 0.050711118
0001c0 06 b9 4d bd 1f 5a a4 3e d2 3f a3 bc 04 44 06 be
       -0.05022528 0.32100007 -0.019927893 -0.13111883
0001d0 ee 84 c6 3c 09 21 3f be 62 d6 67 bd 28 07 99 3d
       0.024233308 -0.18664946 -0.056600936 0.07472068
0001e0 24 55 a9 3b 75 c8 e3 3b 3b 49 06 3e ca a6 49 3d
       0.0051676203 0.0069513866 0.13113873 0.049231328
0001f0 e6 ea bf bd 03 d1 09 bd 9d 07 b0 bd c5 16 82 3d
       -0.09370975 -0.033646595 -0.08595202 0.06351999
000200 ab fd 42 3d f2 72 87 bd 60 ea 9c be 5e 15 ef bd
       0.047605198 -0.06613721 -0.30647564 -0.11673997
000210 5f 7f b2 3c 2c a1 22 3e dc 96 33 3e 50 cc eb 3d
       0.02178925 0.15881795 0.17538017 0.11513579
000220 d6 9e da bd 6b 6d 04 be af 16 2b 3e ce fa 18 3d
       -0.10674827 -0.12932365 0.16707872 0.03734856
000230 41 54 99 bc a7 ee 4d be ec 41 0f 3e 16 4f bb 3c
       -0.018716933 -0.2011057 0.13989991 0.02286486
000240 f5 2d 1e bc e3 dc 3b bd 6f b1 20 be 12 8a 5b be
       -0.009654512 -0.04586495 -0.15692686 -0.21439388
000250 b3 c1 a5 3c 87 a3 01 bb 1d 73 82 3b 9b 94 a5 bd
       0.020233965 -0.0019781308 0.0039810077 -0.08084985
000260 5c be db 3d c4 f5 da bc 89 d4 18 be fd 12 3e be
       0.107296675 -0.026728518 -0.14924826 -0.18561931
000270 29 37 8b bd 9d fb 1b 3d f8 22 a3 3c eb 07 ad 3d
       -0.0679763 0.038081754 0.019914135 0.08448776
000280 57 5e 84 3d 8a d4 31 bd cf fb 94 3d 24 ff 14 3e
       0.064633064 -0.043415584 0.07274591 0.14550453
000290 df 6e 45 be 40 25 79 3d ea 33 1e 3d 93 78 aa 3d
       -0.19280575 0.06082654 0.038623728 0.08323779
0002a0 86 eb 12 3e 0e f7 0b 3e e3 10 ea 3d b4 59 63 3b
       0.14347658 0.13668463 0.11429002 0.0034690918
0002b0 75 b5 fc 3b 2b d7 c9 3b 7a 75 16 be 61 df 86 3d
       0.007712061 0.006159683 -0.14693251 0.06585575
0002c0 4f 99 4e be 25 d2 09 3e af 7b 91 3d 01 45 9f be
       -0.2017567 0.1345907 0.07103669 -0.31107333
0002d0 2b 96 f0 bc 3c a2 14 3d 85 09 8f bd a3 55 a4 3e
       -0.02936848 0.03628753 -0.069842376 0.32096586
0002e0 60 17 97 3d dc b3 46 3d bf 04 31 3e da 2d 61 3c
       0.07377505 0.04851137 0.17286967 0.013743842
0002f0 8d 25 02 3e 6c 4a bd bd 79 a6 f7 bd 35 8b fa 3c
       0.12709637 -0.092427105 -0.12092299 0.030583957
000300 80 c2 90 3e 9e b2 30 3d 60 e2 20 3c f6 51 99 3d
       0.28273392 0.043139093 0.009819597 0.07486336
000310 32 a1 7d 3d c8 0c 35 be 2d cc c5 3d 66 b5 a9 3c
       0.061921306 -0.17680657 0.09658084 0.02071638
000320 90 8e 24 3d 18 2a 1e be ea cb 1e 3d d2 02 a1 3d
       0.04017502 -0.15445745 0.038768686 0.07861866
000330 42 c5 93 3c a4 78 18 be 90 4e d5 bd ae 1a 1d be
       0.018038396 -0.14889771 -0.10415375 -0.15342209
000340 30 10 db 3d b3 33 2c 3c f6 a8 94 3b b6 f0 78 3d
       0.10696447 0.010510373 0.0045367433 0.060776435
000350 9b 90 17 be 48 06 1b 3d 05 69 c5 b8 f1 77 16 be
       -0.14801256 0.037847787 -9.4132534e-05 -0.14694192
000360 09 bf 3b be a6 82 f3 3d 39 94 15 be d4 56 44 3e
       -0.18334593 0.118901536 -0.14607324 0.19173747
000370 91 87 f3 3d a3 bf 25 be d2 af 2c 3d bc fb ef 3d
       0.118910916 -0.16186385 0.042159863 0.117179364
000380 92 72 8b 3c f3 57 e9 bd 1b b6 9a be b5 c7 b7 bc
       0.017022405 -0.11393728 -0.3021706 -0.022434095
000390 fa 85 82 3d d3 fc 3f 3d 10 bb 1b be a8 fc 6f be
       0.0637321 0.04687197 -0.15208077 -0.23436224
0003a0 db 0b 72 3d 7a 46 94 bd e6 bc a5 38 b7 9e 14 be
       0.059093338 -0.07240005 7.902998e-05 -0.1451367
0003b0 f8 47 93 bd e6 94 5d 3e 48 06 1b 3d 7a 67 45 bd
       -0.07191461 0.21638831 0.037847787 -0.048194386
0003c0 bc a7 00 3d 83 a8 a7 be 91 ca 11 3c de e4 0f 3e
       0.031409964 -0.32745752 0.008898393 0.1405215
0003d0 c9 b9 a2 bc f0 86 37 3e 35 f9 82 3d ca 38 a0 bd
       -0.01986398 0.17922568 0.06395189 -0.07823332
0003e0 dc 32 32 bc ff 86 14 bc 0d 37 10 be 13 34 17 bd
       -0.010876384 -0.009065389 -0.140835 -0.036914896
0003f0 8c 9c b1 3d 25 02 14 3d e1 8a 8f 3d d1 16 9f bd
       0.08672437 0.036134858 0.07008911 -0.07768024

action_model._discrete_distribution.branches.1.bias f4 [2]
000000 e9 2c 16 3d fe 2c 16 bd
       0.036663923 -0.036664
