Assets/Onx/MoveAgent2D-500036.onnx (onnx, 78886 bytes, 9 tensors)

discrete_act_size_vector f4 [1, 2]
0	0x40400000	3.0
1	0x40000000	2.0

network_body._body_endoder.seq_layers.0.weight f4 [128, 5]
0	0xbf2c9595	-0.67415744
1	0xbf4b7725	-0.79478675
2	0xbbcb67ea	-0.006207456
3	0xbe27fec7	-0.16405784
4	0x3f414a11	0.7550364
5	0xbc7ddeb8	-0.015494995
6	0xbec7ad92	-0.3899961
7	0xbf3f57dc	-0.7474344
8	0x3e85acd7	0.2610843
9	0x3f35cdb0	0.7101698
10	0xbf217aa7	-0.6307778
11	0x3e4d7db5	0.20067485
12	0x3d83b65b	0.06431266
13	0xbe8ecda7	-0.27891275
14	0x3eec86d2	0.4619661
15	0xbea394d0	-0.31949472
16	0x3f2964a3	0.66169184
17	0xbe906d22	-0.28208262
18	0x3d4cc0e7	0.049988654
19	0x3f1633c7	0.58672756
20	0x3e4a2e2f	0.1974418
21	0x3e5c5def	0.21520208
22	0xbf0c0f14	-0.5471051
23	0xbd8b07c3	-0.0678859
24	0x3ea2ef55	0.3182322
25	0x3e6aa692	0.22915104
26	0x3e1abee3	0.1511188
27	0x3f34442d	0.7041653
28	0x3e99423a	0.2993334
29	0x3eee7594	0.4657408
30	0x3e97490e	0.29547924
31	0x3ee91434	0.45523226
32	0x3daa3eb2	0.083127394
33	0xbeca0e18	-0.39463878
34	0xbe78cda7	-0.242972
35	0xbb8ee49d	-0.004360749
36	0xbe8de575	-0.27714124
37	0xbdd43975	-0.103625216
38	0xbf0439ec	-0.5165088
39	0xbd137d20	-0.036008
40	0xbe5dd82f	-0.21664499
41	0x3f0de80f	0.5543222
42	0xbe5ca0a4	-0.21545655
43	0x3ea21370	0.31655455
44	0xbefab3a8	-0.48965192
45	0x3f740088	0.9531331
46	0xbf485bd0	-0.78265095
47	0xbf43a0ce	-0.76417243
48	0x3e117a19	0.14206733
49	0x3cc4b5cb	0.024012467
50	0xbe71554a	-0.23567691
51	0xbe93d8a6	-0.28876227
52	0xbf30173a	-0.6878544
53	0xbdf3462d	-0.11878619
54	0x3ed6ec96	0.41977376
55	0xbeb42844	-0.3518697
56	0x3cfacced	0.030615294
57	0x3e3feec3	0.18743424
58	0xbe500dec	-0.20317811
59	0x3ee12e66	0.43980712
60	0xbea80eb2	-0.32823712
61	0x3efa95de	0.48942465
62	0xbe3abf81	-0.18237115
63	0x3d030ad9	0.031992767
64	0xbe234234	-0.15943223
65	0xbd5a10d7	-0.053238716
66	0x3f4cce43	0.8000223
67	0x3e9fee2e	0.31236404
68	0xbd202bc9	-0.039104257
69	0x3d4abc55	0.049496014
70	0x3d792b88	0.06083253
71	0xbac07796	-0.0014684077
72	0xbf42c773	-0.76085585
73	0x3e5cfd48	0.21580994
74	0x3d29f9e8	0.041498095
75	0x3f3a25d6	0.72713983
76	0x3e407d62	0.1879783
77	0xbce338c0	-0.027737021
78	0xbce6c2ff	-0.028169153
79	0x3ddfbdf3	0.10924902
80	0x3ea8f8e7	0.33002397
81	0xbf2bc630	-0.67099285
82	0xbe8b099a	-0.27155763
83	0xbeb81b1c	-0.35958183
84	0x3c07fa43	0.008299413
85	0x3cb76339	0.02238618
86	0x3efcbf53	0.4936472
87	0xbf593dc5	-0.8485988
88	0x3cfe1d3c	0.0310198
89	0xbd6fc191	-0.05853421
90	0xbd8eb67f	-0.06968402
91	0xbf04b119	-0.5183273
92	0xbf32ff23	-0.6992056
93	0x3eac6284	0.3366891
94	0xbe0b2103	-0.13586812
95	0x3f53e3b3	0.82769316
96	0x3f29d320	0.66337776
97	0x3f1e728a	0.6189352
98	0x3f0e523c	0.5559423
99	0xbe3824f1	-0.17982842
100	0x3db0dca4	0.08635834
101	0xbf2241d1	-0.6338168
102	0xbdfa56a3	-0.12223556
103	0x3d32738e	0.043567233
104	0x3eeed9be	0.466505
105	0x3f074dec	0.52853274
106	0xbf252af6	-0.6451868
107	0x3f005044	0.50122476
108	0x3eb6beed	0.3569254
109	0xbf331c43	-0.69965
110	0xbee9da42	-0.4567433
111	0x3f4e0173	0.8047096
112	0x3b8d093f	0.0043040807
113	0xbf75f562	-0.9607755
114	0xbe897a21	-0.2685099
115	0xbe91cf93	-0.2847868
116	0xbd869c4d	-0.06572781
117	0xbe798cff	-0.24370192
118	0x3f2ab0bf	0.66675943
119	0x3e91e2d3	0.28493366
120	0x3e24db79	0.16099347
121	0x3f54727a	0.8298718
122	0xbe0e3f61	-0.13891365
123	0xbec756d0	-0.3893342
124	0xbfbc7d0b	-1.472566
125	0x3e91a0e6	0.28443068
126	0xbfab7471	-1.339491
127	0x3f4d8b69	0.8029085
128	0xbdd01405	-0.101600684
129	0x3e75460d	0.23952504
130	0x3d225cbb	0.039639216
131	0xbe8db627	-0.27678034
132	0xbab48bac	-0.0013774536
133	0xbf380f69	-0.71898514
134	0x3e58b2b7	0.21161924
135	0xbcd8c499	-0.026460933
136	0xbf1f4a08	-0.6222234
137	0xbe5bb17a	-0.2145442
138	0xbd66d913	-0.05635936
139	0xbedc2f9f	-0.43005082
140	0xbf1551f6	-0.5832819
141	0xbe5bdb04	-0.21470267
142	0xbea313fa	-0.31851178
143	0xbf5cbd2e	-0.86226165
144	0x3f6d4ec6	0.92698324
145	0x3cb23f8e	0.02175882
146	0xbf007d50	-0.5019121
147	0x3f27ae5d	0.6550043
148	0xbf2346ce	-0.63779914
149	0x3f101e70	0.56296444
150	0x3da5f977	0.08104222
151	0x3dc7e830	0.09761083
152	0x3e40910e	0.18805334
153	0x3f4106e7	0.7540116
154	0x3e74b6f5	0.23897918
155	0xbe0f3f16	-0.13988909
156	0xbd463c0a	-0.0483971
157	0x3f4fcebc	0.81174827
158	0xbeba5b32	-0.36397702
159	0xbe831712	-0.2560354
160	0x3f77d629	0.9681116
161	0x3eaa37d5	0.3324572
162	0xbf8a67d7	-1.081294
163	0x3ef81e85	0.48460785
164	0x3ed71229	0.42006043
165	0x3f0aa394	0.5415585
166	0xbcc5413c	-0.024078958
167	0xbe312e62	-0.1730285
168	0xbe548af5	-0.20756133
169	0xbf0c713f	-0.548603
170	0x3f75f094	0.9607022
171	0x3ee0b1e1	0.4388571
172	0xbf11e5ab	-0.5699107
173	0xbe63d0ec	-0.22247666
174	0xbeca647d	-0.3952979
175	0xbee939d1	-0.45551923
176	0xbf256ff9	-0.6462398
177	0xbdd04032	-0.10168494
178	0x3f3c9dab	0.7367808
179	0xbd96a5c1	-0.07355834
180	0xbee55fa7	-0.4479954
181	0x3d8efdb0	0.06981981
182	0x3f21134b	0.62920064
183	0x3c035f51	0.008018331
184	0xbddc2135	-0.10748521
185	0xbd9b0a65	-0.07570342
186	0xbe6a8a5d	-0.22904344
187	0x3ec4de4b	0.38450846
188	0xbdd9508e	-0.10611068
189	0xbdfff945	-0.12498716
190	0xbd8ef5e8	-0.06980497
191	0x3e697f7a	0.22802535
192	0x3f0fa4f9	0.56111103
193	0x3e0762ae	0.13221237
194	0xbdc072c2	-0.09396888
195	0x3e948809	0.29010037
196	0xbe135a22	-0.14389852
197	0x3f1e1efb	0.6176602
198	0xbeb5501c	-0.3541268
199	0xbe2a84e0	-0.1665225
200	0x3ea77eff	0.32714078
201	0xbf0038e7	-0.50086826
202	0xbe1f605d	-0.15564103
203	0x3ddbe39d	0.10736773
204	0xbeb29b9e	-0.34884351
205	0x3f3e4f6c	0.7433994
206	0x3d5f5e84	0.054533496
207	0x3b6ed0ae	0.00364403
208	0x3f418a7d	0.7560194
209	0xbf304c6c	-0.6886661
210	0x3ed3b77f	0.41350934
211	0x3e1b0031	0.15136792
212	0x3ecc3fa3	0.398923
213	0x3db648c2	0.08900596
214	0xbedbeb0b	-0.4295276
215	0x3e269f45	0.16271694
216	0xbe5a679d	-0.21328588
217	0xbef6ad1f	-0.48178956
218	0xbe1cefdb	-0.15325873
219	0x3e663f58	0.22485101
220	0x3f04afb8	0.51830626
221	0xbe6cff32	-0.23144224
222	0xbf2cd99a	-0.67519534
223	0x3ed1c3b5	0.40969625
224	0xbd14f471	-0.03636593
225	0x3da5c379	0.08093924
226	0xbe1eb69b	-0.15499346
227	0x3e161c46	0.14659223
228	0x3ca6cc88	0.0203612
229	0x3e54c7d8	0.2077936
230	0x3f1a6b6e	0.60320175
231	0x3f329e26	0.69772565
232	0x3e884715	0.2661673
233	0x3f08873c	0.5333135
234	0xbf19580a	-0.5989996
235	0x3db76fcb	0.0895687
236	0x3e67dbb8	0.2264241
237	0xbf08972e	-0.5335568
238	0x3de1797b	0.11009499
239	0xbef3ad20	-0.4759302
240	0xbea01ce3	-0.3127204
241	0xbd90ec8e	-0.07076369
242	0xbc8e79c3	-0.017392045
243	0xbf49678d	-0.7867363
244	0x3e1b0091	0.15136935
245	0xbe6943b8	-0.22779739
246	0xbeb8d27c	-0.36098087
247	0xbdd86780	-0.10566616
248	0x3f201cd5	0.62543994
249	0x3dc2b4d1	0.09507144
250	0xbefd8acf	-0.49519965
251	0xbeb798f7	-0.3585889
252	0xbdfc3ba9	-0.12316067
253	0x3e977d37	0.2958772
254	0xbda8579c	-0.08219835
255	0x3e0712f0	0.13190818

network_body._body_endoder.seq_layers.0.bias f4 [128]
0	0x3d3978db	0.045281272
1	0x3d6944e5	0.05695047
2	0x3cee1e13	0.029067075
3	0x3d1debf3	0.038555097
4	0x3c54bfba	0.012985164
5	0xbc9ed6e8	-0.019389585
6	0xbd2c35da	-0.042043544
7	0x3be98a4b	0.0071270815
8	0x3d2c1c5a	0.042019226
9	0xbc0caec6	-0.008586591
10	0xbd21ee28	-0.039533764
11	0xbca1dc07	-0.019758238
12	0x3d9db898	0.07701224
13	0xbc64bb7a	-0.0139607135
14	0xbbf02982	-0.007329167
15	0xbc0f6e68	-0.00875435
16	0xbd0fb185	-0.035081405
17	0xbc48a958	-0.012247406
18	0x3d72afbe	0.059249632
19	0x3c2e0fbd	0.0106238695
20	0x3d203bd9	0.039119575
21	0x3b207e2d	0.002448927
22	0x3b7aee81	0.0038289132
23	0x3d123ef6	0.035704575
24	0x3d61c5e8	0.05512038
25	0x3cae9c56	0.021314781
26	0x3c0a860e	0.008454813
27	0xbc0e4d41	-0.008685411
28	0x3b3b5674	0.0028585466
29	0x3c837614	0.016047515
30	0xba4c100e	-0.0007784375
31	0x3cfe0dda	0.031012464
32	0x3bb08a4d	0.0053875805
33	0xbc8afd14	-0.01696638
34	0xbc37ce87	-0.011218674
35	0x3d6b6c83	0.05747653
36	0x3b156eec	0.002280171
37	0x3b10da0a	0.0022102618
38	0x3d1617d8	0.036643833
39	0x3d2fa938	0.04288599
40	0x3c2c201a	0.0105057005
41	0xbc991655	-0.018687407
42	0x3bf88b5e	0.0075849732
43	0x3d447905	0.047966976
44	0x3c5994f3	0.013280141
45	0xbd1fc659	-0.03900752
46	0xbc6b2a3c	-0.014353331
47	0xbc438c48	-0.011935301
48	0xbd317d68	-0.043332487
49	0x3c09581f	0.008382826
50	0xbabdf947	-0.0014493846
51	0xbd3b57de	-0.045738094
52	0xbc0ffef3	-0.008788812
53	0x3cc112c5	0.02356852
54	0x3c9267d7	0.01787178
55	0xbc00bf95	-0.007858177
56	0xbbf33f60	-0.0074233264
57	0xbc640040	-0.013916075
58	0xbb697471	-0.0035622383
59	0xbd322763	-0.043494593
60	0x3cd73bfd	0.026273722
61	0x3d387094	0.045029238
62	0x3d53e95b	0.051736217
63	0xbcb9c484	-0.022676714
64	0xbce096ec	-0.027415715
65	0xbd00a9a6	-0.03141179
66	0x3cf543b3	0.029939508
67	0xbb13835c	-0.0022508716
68	0xbc8e748a	-0.017389555
69	0xbc66a92a	-0.014078418
70	0xbc7ccb78	-0.01542937
71	0x3c470267	0.012146569
72	0xbbba8dc7	-0.0056931707
73	0xbd52026a	-0.051271833
74	0xbce2c4e6	-0.02768178
75	0x3ca53ab9	0.020169603
76	0x3ca89c98	0.020582482
77	0x3c0118a3	0.007879409
78	0x3c8a308c	0.016868852
79	0xbc2ad6a5	-0.010427152
80	0x3c0da41d	0.008645085
81	0xbd82bde6	-0.063838765
82	0x3c860b63	0.016362851
83	0x3c41e5b3	0.01183455
84	0x3c52adb5	0.012858798
85	0x3b084832	0.0020794985
86	0x3b868122	0.0041047493
87	0x3caaad7a	0.020834673
88	0x3c163328	0.00916747
89	0x3ca69151	0.020332964
90	0x3d85a46c	0.065255016
91	0x3cb5f7bc	0.022212856
92	0x3d66a11a	0.056305982
93	0x3d1372d3	0.035998177
94	0x3d1551f2	0.036455102
95	0x3ca91a55	0.020642439
96	0xbd0209c8	-0.03174761
97	0x3c45c4f2	0.012070881
98	0x3d45f426	0.04832854
99	0x3c7578dd	0.014982429
100	0x3bf14696	0.007363151
101	0xbc243a8d	-0.010023725
102	0x3c17fce2	0.009276601
103	0x3cdcc703	0.026950365
104	0x3d0766d2	0.03305704
105	0x3cb4c54d	0.022066737
106	0x3c9e9723	0.019359177
107	0xbd5420d3	-0.051789116
108	0x3d38ec3a	0.04514716
109	0x3cfb191e	0.030651625
110	0x3d16474d	0.03668909
111	0xbb69b818	-0.0035662707
112	0xbc47c246	-0.0121923145
113	0x3cf6d14d	0.0301291
114	0xbba0ff5b	-0.0049132532
115	0xbd407a9f	-0.04699194
116	0x3c4938f6	0.012281647
117	0x3c04642d	0.008080524
118	0x3c1d5d97	0.009604833
119	0xbc00baed	-0.007857067
120	0xbb17f937	-0.0023189315
121	0x3b9fb219	0.004873526
122	0x3d3b8b1a	0.045786954
123	0x3a443acc	0.0007485568
124	0x3c9c0b42	0.019048337
125	0xbbedb3fe	-0.0072541228
126	0x3c5e8d02	0.013583424
127	0x3d69fb6a	0.057124533

network_body._body_endoder.seq_layers.2.weight f4 [128, 128]
0	0xbd3ecdcb	-0.04658298
1	0xbd1b7bce	-0.037959866
2	0xbd93beba	-0.072141126
3	0xbd05dd2b	-0.032681625
4	0x390e9396	0.00013597155
5	0x3c9e4675	0.019320706
6	0x3cabd507	0.020975603
7	0x3b02f3c5	0.0019981724
8	0xbce22577	-0.027605755
9	0x3d5568c6	0.052101873
10	0xbde23e88	-0.11047083
11	0x3de9ea06	0.114215896
12	0xbdad18bb	-0.084519826
13	0xbd969955	-0.073534645
14	0x3ca64f99	0.020301627
15	0x3d541532	0.051778026
16	0xbd163549	-0.03667191
17	0x3dfe62cb	0.12421187
18	0xbc9fcd3d	-0.019507045
19	0x3b0dc176	0.0021630204
20	0x3c4c4c84	0.012469415
21	0xbda99f15	-0.082822956
22	0xbca33408	-0.019922271
23	0xbde3280a	-0.11091621
24	0x3b098c16	0.0020988039
25	0x3d4cb696	0.049978815
26	0x3d619589	0.05507425
27	0x3d4b7227	0.04966941
28	0xbbc8be73	-0.006126219
29	0xbcccc869	-0.024997907
30	0x3af1cf8f	0.0018448698
31	0xbcf70d46	-0.030157696
32	0x3d1104ec	0.035405084
33	0xbd63ec25	-0.055645127
34	0xbdbc4b39	-0.09194035
35	0xbd41f33d	-0.04735111
36	0xbd93bb7f	-0.072134964
37	0xbe05dc84	-0.13072401
38	0x3c4c5a7f	0.012472748
39	0x3ddd9055	0.10818545
40	0x3dbaad6c	0.09115109
41	0x3dbd0467	0.09229355
42	0x3e028283	0.12745099
43	0x38967275	7.173877e-05
44	0x3e793e82	0.24340251
45	0x3cb6d590	0.022318631
46	0xbe334102	-0.17505267
47	0x3b35e88e	0.0027757022
48	0x3dd143e3	0.102180265
49	0x3dadd2a5	0.08487443
50	0x3ce801e0	0.028321207
51	0x3d9280e3	0.071534894
52	0x3c9520cc	0.018204115
53	0x3d1392c8	0.036028653
54	0xbd57ea9e	-0.052713983
55	0xbe28de3c	-0.16491026
56	0xbdf2ba9a	-0.11851998
57	0x3e0c532a	0.137036
58	0x3b8d130e	0.00430525
59	0x3df82560	0.12116504
60	0x3acb49a5	0.0015509619
61	0xbe87dba4	-0.2653476
62	0x3b9eb0c1	0.004842848
63	0x3d91f795	0.07127301
64	0x3ddbfd2d	0.10741649
65	0x3d78bde6	0.060727976
66	0x3b64e459	0.0034926145
67	0xbd31997c	-0.043359265
68	0x3d2b4454	0.04181321
69	0xbe59e295	-0.2127784
70	0x3dd7acff	0.10531043
71	0x3df44966	0.11928062
72	0x3d3fc54a	0.04681901
73	0x3d0df3ef	0.03465646
74	0x3e82e73f	0.25567052
75	0xbdfede49	-0.12444741
76	0x3d98e19e	0.07464908
77	0x3c40ff28	0.011779584
78	0xbe317053	-0.17328005
79	0x3cec46a6	0.028842282
80	0x3de8eb69	0.11373026
81	0x3d88bea8	0.0667699
82	0xbd545b36	-0.051844798
83	0x3dc525ba	0.096263364
84	0x3b0719da	0.0020614774
85	0x3d1dc801	0.038520817
86	0xbbc24bf4	-0.0059294645
87	0x3e475ce8	0.19469035
88	0x3db855cc	0.090007395
89	0xbd33bbf5	-0.04388042
90	0xbc24c4ab	-0.010056655
91	0xbbed9f59	-0.0072516617
92	0x3dcaaeed	0.09896646
93	0xbd9feef4	-0.078092486
94	0xbc8df012	-0.017326389
95	0xbe3b8676	-0.18313012
96	0xbdfc1068	-0.12307817
97	0x3d6de036	0.058075152
98	0x3e13c57b	0.14430802
99	0x3d9a0512	0.07520498
100	0xbcce1879	-0.025158154
101	0xbe10d15d	-0.14142366
102	0xbda18278	-0.07886213
103	0xbdf4e5bd	-0.119578816
104	0x3c751ff4	0.0149612315
105	0x3d1aab63	0.037761103
106	0x3d4a5b35	0.049403388
107	0xbe1d381b	-0.15353434
108	0x3df9041e	0.121589884
109	0xbdc7391a	-0.09727688
110	0xbd971069	-0.07376177
111	0x3e057c6a	0.13035741
112	0x3db49cb6	0.08818953
113	0xbbd05c67	-0.0063586715
114	0xbdaea3ec	-0.08527359
115	0xbdc54268	-0.096318066
116	0xbd861c36	-0.065483496
117	0x3d08670a	0.03330139
118	0xbd2da653	-0.042394947
119	0x3d9f17bb	0.07768198
120	0xbd788267	-0.060671236
121	0xbd974063	-0.07385328
122	0x3d75275b	0.059851985
123	0x3d5b26d5	0.05350383
124	0x3de1945d	0.11014626
125	0x3e3a289a	0.18179551
126	0x3d971c8b	0.07378491
127	0xbe3cdf92	-0.1844466
128	0xbc2f5ad8	-0.010702811
129	0xbe052fda	-0.13006535
130	0x3dc12ae9	0.094320126
131	0xbdcc331e	-0.09970687
132	0xbd9b42b0	-0.07581079
133	0xbd97f13b	-0.07419058
134	0x3d068447	0.032840993
135	0xbdc83d71	-0.09777344
136	0xbd7338b9	-0.059380267
137	0xbc9b775e	-0.018977817
138	0x3d1820c9	0.03714064
139	0xbcd4630c	-0.025926135
140	0x3d057511	0.032582346
141	0xbde798b2	-0.11308421
142	0x3d4a6a4f	0.04941779
143	0x3c1855c1	0.009297789
144	0xbdbe7aac	-0.093007416
145	0xbdcc3842	-0.09971668
146	0x3c91f4d2	0.017816935
147	0xbc1195dc	-0.008885827
148	0xbd20a424	-0.039219037
149	0xbc851ba0	-0.016248524
150	0x3a93d58f	0.0011278855
151	0x3d8d3f58	0.068968475
152	0x3ca82362	0.020524684
153	0x3e17bc07	0.1481782
154	0xbcb48543	-0.0220362
155	0xbce83f71	-0.028350564
156	0xbdf1d603	-0.118083976
157	0xbcbe5244	-0.023232587
158	0x3b9a9bdc	0.004718287
159	0xbd0144e9	-0.03155986
160	0xbdd09116	-0.10183923
161	0x3e4df2a6	0.20112094
162	0xbb46af95	-0.0030317057
163	0xbc0d1308	-0.008610494
164	0xbcb5e8f1	-0.022205802
165	0x3d801848	0.06254631
166	0xbd6b0738	-0.05737993
167	0x3d35470b	0.044257205
168	0x3da430af	0.08017098
169	0x3d571b22	0.05251611
170	0xbda22a3f	-0.07918214
171	0xbd8aeaab	-0.067830406
172	0x3d0fb1bd	0.035081614
173	0xbd3911b7	-0.04518291
174	0x3d55f8b0	0.05223912
175	0x3e2d9f44	0.16955286
176	0x3d11c6d6	0.035590015
177	0x3b4c526f	0.0031177064
178	0x3d1e3a5d	0.03862988
179	0x3bb8d6b8	0.005640831
180	0x3e346226	0.17615566
181	0x3c37f59e	0.011227993
182	0x3dc9d3fc	0.09854886
183	0xbe1e2e49	-0.15447344
184	0xbca62e5a	-0.020285774
185	0x3ccd5948	0.025066987
186	0xbce38a2a	-0.027775843
187	0x3de625bc	0.11237666
188	0xbdc5a0ad	-0.09649787
189	0x3d19f292	0.03758485
190	0x3c803213	0.015648877
191	0xbd9b1756	-0.0757281
192	0xbc859a82	-0.016309027
193	0x3cb604d6	0.022219103
194	0x3d257208	0.04039195
195	0x3d898f94	0.067168385
196	0xbddca2f7	-0.107732706
197	0x3da9b90b	0.08287247
198	0x3d7fe578	0.062474698
199	0x3e854f12	0.26036888
200	0xbd556682	-0.052099712
201	0xbdf1ee8d	-0.11813078
202	0xbde61469	-0.11234362
203	0xbdd09e8c	-0.101864904
204	0xbcb797c3	-0.022411233
205	0xbc626adb	-0.013819422
206	0xbc04125d	-0.008061019
207	0xbc9d8848	-0.019230023
208	0x3dc1e228	0.09466964
209	0xbd9ad2f2	-0.07559766
210	0x3d1bdbc7	0.038051393
211	0x3ddf1a6b	0.10893711
212	0xbd1f688e	-0.03891807
213	0xbdb3ea24	-0.08784893
214	0xbd4a5f8c	-0.049407527
215	0xbd8cd3d9	-0.06876344
216	0x3d45ecd5	0.048321564
217	0xbd04cd9f	-0.032422658
218	0xbc9b2408	-0.01893808
219	0xbd08a2a3	-0.033358227
220	0xbd53be84	-0.05169536
221	0x3b53ff10	0.0032348074
222	0xbe0441c9	-0.1291572
223	0xbe15ccb5	-0.14628871
224	0x3e028aa2	0.12748197
225	0xbda912c0	-0.082555294
226	0xbbfec875	-0.007775361
227	0x3bacff5d	0.005279465
228	0xbe2a4edc	-0.16631645
229	0xbdf5c255	-0.119999565
230	0x3e13609b	0.14392321
231	0xbd067160	-0.032822967
232	0xbdae3e98	-0.085080326
233	0x3dcfa350	0.10138571
234	0xbdbfc29c	-0.09363291
235	0xbca757d5	-0.020427624
236	0xbdeb5eb3	-0.11492672
237	0xbd737546	-0.059438013
238	0xbcceb25c	-0.025231533
239	0x3e287644	0.16451365
240	0x3d6e3b23	0.058161866
241	0x3ccc04f4	0.024904706
242	0x3e1daec5	0.153987
243	0xbd11d25b	-0.035601
244	0xbb96b4e4	-0.0045992006
245	0xbcbd63be	-0.02311885
246	0xbd27e1ed	-0.040986944
247	0xbe478f41	-0.19488241
248	0x3e2a3f6e	0.16625759
249	0x3df00029	0.117187805
250	0x3d8e1269	0.06937105
251	0x3c5354f7	0.012898675
252	0xbb46c46b	-0.0030329477
253	0xbdf91b8e	-0.12163459
254	0x3d315dba	0.043302275
255	0x3d571250	0.0525077

network_body._body_endoder.seq_layers.2.bias f4 [128]
0	0xbcfc0bfd	-0.030767435
1	0xbb81846e	-0.0039525544
2	0x3b85f041	0.0040874784
3	0xbd4bba31	-0.049738113
4	0x3d25aed1	0.04044992
5	0x3d11f4cb	0.035633843
6	0x3cbf8c15	0.023382226
7	0x3d29521e	0.04133808
8	0x3d0390e5	0.032120604
9	0xbd3de1b4	-0.046357825
10	0xb8f5b9a8	-0.000117170915
11	0x3cda11c6	0.026619803
12	0xbc0f9ed2	-0.008765893
13	0x3c51134a	0.0127609465
14	0xbc8f786a	-0.017513473
15	0x3c66cc73	0.01408683
16	0x3ccfb852	0.025356445
17	0xba902f3b	-0.0011000404
18	0x3c06b5e5	0.008222078
19	0x3c6e66aa	0.014550844
20	0xbd0b5476	-0.034016095
21	0xbcf07e07	-0.02935697
22	0xbb975477	-0.0046182233
23	0xbca11ba4	-0.0196665
24	0xbc42629b	-0.01186433
25	0x3d19aa0d	0.03751569
26	0xbc68a3e8	-0.014199235
27	0x3b8e99e8	0.004351843
28	0x3adfa4e3	0.001706269
29	0x3c772273	0.015083897
30	0xbc5239f3	-0.012831199
31	0x3cc2914b	0.023750922
32	0x3c27547f	0.0102130165
33	0xbd3af3e7	-0.04564276
34	0x3d0bdbf4	0.03414531
35	0x3a1d1cbf	0.0005993358
36	0xba19090e	-0.0005837836
37	0x3c46b60d	0.012128365
38	0x3d0d586c	0.034508154
39	0x3bd1de2c	0.006404659
40	0xbcab455f	-0.020907102
41	0xbc986e93	-0.018607413
42	0x3d20d611	0.03926665
43	0x3bb50603	0.0055243983
44	0x3d3392a7	0.04384103
45	0x3b5eea8a	0.0034014308
46	0xbc87eeff	-0.016593454
47	0xbd04eacb	-0.03245048
48	0xbc28499b	-0.010271455
49	0xbb871ae9	-0.004123081
50	0x3ae84b30	0.0017722603
51	0x3c64522f	0.01393561
52	0xbc17fdd6	-0.009276828
53	0xbc3ed669	-0.011647799
54	0x3cc38e43	0.023871547
55	0x3c801b13	0.01563791
56	0xbce15a64	-0.027508922
57	0x3b43667a	0.002981572
58	0x3c7cf46a	0.015439132
59	0x3d142f50	0.036177933
60	0xbd061ac8	-0.032740384
61	0xbc8a7dd3	-0.0169057
62	0x3d8604df	0.06543898
63	0xbb3941e1	-0.0028268027
64	0xbc0a159d	-0.008428005
65	0xbc73d106	-0.014881378
66	0x3b6d2fe8	0.0036191884
67	0x3bf6e806	0.0075349836
68	0xbc3d004d	-0.011535716
69	0x3bf8f324	0.007597344
70	0xbc5839d5	-0.013197382
71	0xbb763b49	-0.0037571958
72	0xbca2deb6	-0.019881587
73	0x3ce21b12	0.027600799
74	0xba8be4ce	-0.0010673048
75	0xbc2a1778	-0.010381572
76	0xbd4f0fa9	-0.050552044
77	0x3b805dc8	0.0039174296
78	0xbd155d6e	-0.036466055
79	0xbcbb0878	-0.022831187
80	0xbb7aa98d	-0.0038248033
81	0x3c9caaa5	0.019124338
82	0xbbc3ef76	-0.0059794737
83	0x3cf7e42e	0.030260172
84	0xbaaafa76	-0.0013044614
85	0xbbff3dff	-0.007789373
86	0x3c9fd4a4	0.019510575
87	0xbb5e217c	-0.003389447
88	0xbb003e3a	-0.001956834
89	0xbc8c076e	-0.017093387
90	0xbc5c4605	-0.013444428
91	0xbc7ff6c4	-0.015622798
92	0x3c2ef0f4	0.010677565
93	0xbc33aaa7	-0.01096598
94	0x3bbf7d69	0.0058438075
95	0x3c07a6b4	0.008279491
96	0x3ccf6f5c	0.025321655
97	0xbc43b4ed	-0.011944992
98	0xbd0aa4cc	-0.03384857
99	0xbab3bf77	-0.0013713677
100	0x3d45aae3	0.048258673
101	0x3ba8c01e	0.0051498553
102	0x3d63b9fe	0.055597298
103	0xba8ec2d1	-0.00108918
104	0xbc3c701b	-0.011501337
105	0x3adf7026	0.0017046973
106	0xbc801246	-0.015633713
107	0x3c18a062	0.009315582
108	0x3d3b2a3e	0.045694582
109	0x3c651d56	0.013984045
110	0xbcaf9d92	-0.02143744
111	0x3c0ebf73	0.008712637
112	0x3d059a2b	0.03261773
113	0x3d0df6d4	0.03465922
114	0x3d3ea1fd	0.046541203
115	0x3cc33d78	0.023833022
116	0xbc67992c	-0.01413564
117	0xbc1d579c	-0.009603407
118	0x3b85c6fe	0.0040825596
119	0x3c334266	0.010941124
120	0x3b4c18a8	0.0031142626
121	0x3c90ff85	0.017699966
122	0x3ca0956d	0.019602502
123	0xbd0af9c2	-0.033929594
124	0x3bf07652	0.0073383236
125	0xbcd8739b	-0.026422312
126	0xbbfb9f32	-0.0076788897
127	0x3c8a81ec	0.016907655

action_model._discrete_distribution.branches.0.weight f4 [3, 128]
0	0xbc036317	-0.00801923
1	0x3ca50444	0.020143636
2	0xbafc7655	-0.001926134
3	0xbbcbf498	-0.006224226
4	0xbc2a92e2	-0.010410996
5	0xbc8d670c	-0.01726105
6	0x3c50f187	0.012752897
7	0x3d39d5a5	0.045369763
8	0x3d22214e	0.039582543
9	0xbc83b114	-0.016075648
10	0xbc91695e	-0.017750438
11	0x3c22fafa	0.009947533
12	0xbcdc1cc1	-0.02686918
13	0x3d68ffc2	0.056884535
14	0xbcde2f5a	-0.027122188
15	0xbb734b39	-0.0037123694
16	0x3be9f6db	0.007140023
17	0x3b82c226	0.0039904295
18	0xbb6957f6	-0.0035605407
19	0xbbc80641	-0.006104261
20	0xbbf429f7	-0.0074512917
21	0xbaec19ae	-0.0018013024
22	0x3b558c00	0.0032584667
23	0xbc90a506	-0.017656814
24	0xbc54a4a7	-0.012978709
25	0xbb83c6a9	-0.004021485
26	0x3acbf4cf	0.001556063
27	0x3b956b99	0.004559946
28	0x3c43af08	0.011943586
29	0x3c9e4681	0.019320728
30	0xbc0fcdad	-0.008777064
31	0xbc2ae99c	-0.010431673
32	0xbb7a1ef5	-0.0038165424
33	0xbba21db2	-0.0049473876
34	0x3c8b73da	0.017023016
35	0xbc259ce0	-0.010108203
36	0x3c1557ce	0.009115173
37	0x393af91d	0.00017831144
38	0x3b7580a6	0.0037460714
39	0xba85c22b	-0.0010204961
40	0x3bd261e7	0.0064203623
41	0x3c483327	0.012219227
42	0x3aaa2834	0.0012981952
43	0x3bdd5f3c	0.0067557376
44	0xbcb23b9e	-0.021756943
45	0xbc936b0c	-0.01799538
46	0x3b94a171	0.004535847
47	0x3caaa31f	0.020829735
48	0x3cb3a333	0.021928405
49	0xbcb37be3	-0.02190966
50	0x3cf2d454	0.029642262
51	0xbc4a3dd4	-0.012343843
52	0x3c11f2b9	0.008907967
53	0xbcc50f19	-0.02405505
54	0xbbeacb82	-0.0071653733
55	0xbd0d0188	-0.03442529
56	0x3bd0104b	0.0063495985
57	0xbd6be47a	-0.05759094
58	0x3bc502ca	0.0060122954
59	0xbd5219fa	-0.051294304
60	0xbc169ce2	-0.009192677
61	0xbc024fdf	-0.007953613
62	0x3d50d1cc	0.050981328
63	0x3ce8c747	0.028415335
64	0x3c7faf1d	0.015605715
65	0x3c6ed637	0.01457744
66	0xbc331255	-0.010929664
67	0xbc965090	-0.018348962
68	0x3c6b052a	0.014344493
69	0xbc6199e1	-0.013769598
70	0xbcdaa5de	-0.02669042
71	0xbcb50720	-0.022098124
72	0x39d4eab8	0.0004061067
73	0xbc3bc3f9	-0.011460298
74	0xbc27afa1	-0.010234744
75	0xbcecc8ff	-0.028904436
76	0xbd664fb7	-0.056228366
77	0x3c0e29fa	0.008677
78	0xbd2cb8f4	-0.042168573
79	0xbbdbd3d6	-0.0067086024
80	0xbcb6f028	-0.022331312
81	0xbc340251	-0.01098688
82	0x3c46b608	0.012128361
83	0x3b9682f4	0.0045932475
84	0xba3942ab	-0.0007067124
85	0x3c8a51e3	0.01688475
86	0xbd0ff2de	-0.035143726
87	0xb9b992dd	-0.0003539537
88	0x3cb323e4	0.0218677
89	0x3ba7ecbd	0.005124657
90	0xbc7f967e	-0.015599845
91	0x3c50e6b5	0.012750317
92	0x3c4abd8d	0.012374294
93	0x3a9d6a09	0.001200975
94	0x3b6c4db1	0.003605705
95	0x3bce65b9	0.0062987474
96	0xbc03f193	-0.008053201
97	0x3bdda3e2	0.006763921
98	0xbc53bb47	-0.012923068
99	0xbce9e253	-0.028550303
100	0xbbacaa08	-0.0052692927
101	0xbc8481e7	-0.016175224
102	0xbc2891df	-0.010288685
103	0x3b0be8e9	0.0021348542
104	0xbc9b673c	-0.018970124
105	0x3ccf2640	0.025286794
106	0x3c08f77e	0.008359788
107	0x3a115686	0.0005544204
108	0x3d0fe90e	0.035134368
109	0xbaa19377	-0.0012327273
110	0xbbeb185c	-0.0071745347
111	0xbb3fcd08	-0.0029266495
112	0x3c8350b8	0.0160297
113	0x3c3f1b9b	0.0116642965
114	0x3d175e41	0.036955122
115	0xbc6c9ad6	-0.014441213
116	0xbca9d17d	-0.020729775
117	0xbba34f07	-0.004983786
118	0x3c76737b	0.015042181
119	0x3cb619a2	0.02222902
120	0xbb448f0e	-0.0029992494
121	0x3b237335	0.0024940495
122	0xba97112f	-0.0011525507
123	0xbbf88fcc	-0.0075855013
124	0xbd88b08c	-0.06674299
125	0x397fabff	0.00024382769
126	0xbba951e6	-0.0051672338
127	0xbca2fdf2	-0.019896481
128	0x3bc061f0	0.00587105
129	0x3c4ba6ab	0.012429873
130	0x3d08f15c	0.033433303
131	0xbc1f27e7	-0.009714103
132	0x3c832f69	0.016013818
133	0x3be4d8e0	0.0069838613
134	0x3c64c37b	0.013962622
135	0xbd88007a	-0.06640716
136	0x3b5eee42	0.0034016524
137	0x3bacca4d	0.0052731396
138	0x3cbe22be	0.023209926
139	0xbafb295e	-0.0019162109
140	0x3cd5555b	0.026041677
141	0x3c794a32	0.015215443
142	0xbc3de5f1	-0.011590467
143	0xbcac0e57	-0.021002932
144	0x3ce68d83	0.02814365
145	0xbd098b08	-0.033579856
146	0x3ca0c744	0.019626267
147	0x3c99b089	0.018760936
148	0xbc7535e4	-0.014966462
149	0x3a7a757f	0.00095542514
150	0x3bba1c13	0.0056796162
151	0x3b419421	0.0029537755
152	0xbc9630e4	-0.01833386
153	0xbcaddb6e	-0.021222796
154	0xbc1f8148	-0.009735413
155	0x3c0a66f3	0.008447397
156	0xbd0279d0	-0.03185445
157	0xbc3fcdb7	-0.011706761
158	0x3c2c244d	0.010506702
159	0xbc23a177	-0.009987227
160	0x3d23f73d	0.040030707
161	0xbc16f01a	-0.009212518
162	0x3c1dfcf4	0.009642828
163	0x3c5db714	0.013532419
164	0xbcc3d2f6	-0.023904305
165	0xbb861576	-0.004091914
166	0x3cd5612b	0.02604731
167	0xbd118aaf	-0.03553265
168	0xbc1ad3f5	-0.009449949
169	0xbc392581	-0.0113004455
170	0xbbacaae8	-0.005269397
171	0xbcf2907b	-0.02960991
172	0xbd940db2	-0.07229175
173	0xbcc85ed3	-0.024459278
174	0x3b0992c3	0.0020992018
175	0xbb2ee62f	-0.0026687493
176	0x3a5a6714	0.00083314
177	0x3ccc1ba0	0.024915516
178	0xbcba1236	-0.022713762
179	0x3c069b1b	0.008215691
180	0x3b12e8c1	0.0022416564
181	0x3c37c621	0.011216671
182	0x3cb3f01e	0.021965083
183	0xbd8b0509	-0.0678807
184	0x3bac18bc	0.005251972
185	0xbbcb0951	-0.006196179
186	0xbd261d23	-0.04055513
187	0x3d1885fa	0.037237145
188	0xbcbe498e	-0.023228433
189	0x3c7a458a	0.0152753685
190	0xbd9d9c09	-0.07695777
191	0xbcc00e31	-0.023444267
192	0xbae489a0	-0.0017436035
193	0x3bbcddcf	0.0057637463
194	0x3ba88472	0.005142742
195	0x3cb88c17	0.022527738
196	0x3c13a5ec	0.009011727
197	0xb9947d6c	-0.00028322206
198	0x3cc9c0a6	0.024627995
199	0x3ca686bc	0.020327918
200	0xbbea5dd1	-0.007152297
201	0xbb928e1a	-0.004472506
202	0xbb8972cd	-0.0041945935
203	0x3d68f21b	0.056871515
204	0xb9fe49a3	-0.0004850152
205	0xbcaeea01	-0.021351816
206	0xba8d4f43	-0.0010781068
207	0xba06310e	-0.0005119004
208	0x3d17a3d6	0.03702148
209	0x3c6305c4	0.013856355
210	0xbd1cb230	-0.03825587
211	0x3cb1eb24	0.02171857
212	0x3b8404cd	0.0040288926
213	0xbce427e9	-0.027851062
214	0x3d03bf2b	0.032164734
215	0xbcce42e8	-0.025178388
216	0x3b2b56a9	0.0026144183
217	0xbc150371	-0.009095059
218	0x3ccee9ec	0.025258027
219	0xbb98a262	-0.0046580294
220	0xbb98369b	-0.0046451814
221	0x3c8355e7	0.016032172
222	0xbc7ab883	-0.01530278
223	0xbc6c354f	-0.014417007
224	0x3c36b578	0.011151664
225	0x39c4c1ce	0.0003752843
226	0xbb6fa980	-0.0036569536
227	0x3bcad3aa	0.006189783
228	0x3d008b9d	0.031383146
229	0x3c2f2c9e	0.01069179
230	0xbd0f6399	-0.035007093
231	0x3c8738bb	0.016506543
232	0x3c91d7b6	0.017803054
233	0x3b9cbc55	0.004783193
234	0xbc225348	-0.009907551
235	0x3cbd789c	0.0231288
236	0xbce52b65	-0.027974794
237	0x3b823889	0.0039740247
238	0xba44dd04	-0.00075097405
239	0xbb6b6087	-0.003591569
240	0x3bbfc66b	0.0058525107
241	0xbc07b552	-0.008282976
242	0xbcb611eb	-0.02222534
243	0xbc58f513	-0.013242024
244	0xbac2796a	-0.001483721
245	0xbc751ced	-0.01496051
246	0xbd09324f	-0.033495244
247	0xbd7de0bc	-0.0619819
248	0x3c541df7	0.012946597
249	0x3c874d36	0.01651631
250	0x3b6a0627	0.0035709233
251	0xbc3c2987	-0.01148451
252	0x3b635b25	0.0034691778
253	0x3b9a5b18	0.0047105663
254	0x3c116142	0.008873286
255	0x3c35412a	0.0110629

action_model._discrete_distribution.branches.0.bias f4 [3]
0	0x3ae5df3c	0.0017537843
1	0x3c800082	0.015625242
2	0xbccab9ad	-0.02474674

action_model._discrete_distribution.branches.1.weight f4 [2, 128]
0	0xbb3da977	-0.002894012
1	0xbc0b27be	-0.008493362
2	0xbc0e67ac	-0.0086917095
3	0xbcb2cf39	-0.021827327
4	0x3d1a6cb9	0.037701342
5	0x3b0db598	0.002162313
6	0x3bc6b6cf	0.006064273
7	0x3cc6ca61	0.024266424
8	0x3c946f9c	0.018119626
9	0xbc939994	-0.018017568
10	0x3bfb4ab1	0.007668816
11	0x3b99b7ed	0.004691115
12	0xbbf2d83b	-0.0074110306
13	0xbd2ccc07	-0.042186763
14	0x3c899ae8	0.016797498
15	0xbc1ca7a0	-0.009561449
16	0x3cba92a0	0.022774994
17	0xbb3993df	-0.0028316898
18	0x3b6f8935	0.0036550288
19	0x3a9db7b0	0.0012032893
20	0xbb8f7dcd	-0.0043790103
21	0xbc9e8e07	-0.019354833
22	0x3be1bb7c	0.006888805
23	0xbb1bd081	-0.00237754
24	0xbc797f35	-0.015228082
25	0x3c0c7425	0.008572613
26	0x3c0bb67d	0.008527395
27	0x3ce4abcc	0.02791395
28	0xbc88bb97	-0.016691012
29	0x3c8d680e	0.017261531
30	0xbafc8342	-0.0019265192
31	0x3c909004	0.017646797
32	0x3b150e7a	0.0022744224
33	0xb98b3bb9	-0.00026556643
34	0x3c824c0f	0.015905408
35	0x3b38285f	0.0028100235
36	0xbb267522	-0.0025399406
37	0x3cb10145	0.02160705
38	0x3da65de4	0.08123377
39	0x3bb00f65	0.005372929
40	0xbcf39ce7	-0.029737903
41	0xbc30b286	-0.010784751
42	0x3c371471	0.011174307
43	0x3c1512f0	0.009098753
44	0x3b10730d	0.0022041232
45	0xbb75aa29	-0.0037485457
46	0xbd193556	-0.03740438
47	0xbca82fa8	-0.020530537
48	0x3bf7e8bf	0.0075655873
49	0xbb8e880d	-0.0043497146
50	0xbcb00f29	-0.021491604
51	0x3c517c33	0.012785959
52	0xbc3db30f	-0.011578335
53	0xbcea8596	-0.028628152
54	0x3b472a04	0.0030390033
55	0x3d8e44df	0.0694673
56	0x3adb98ad	0.0016753875
57	0xbbd55a88	-0.0065110363
58	0x3ccb3564	0.024805732
59	0xbc7b3ac0	-0.015333831
60	0xbc5397e9	-0.012914636
61	0x3beefb23	0.0072931214
62	0x3d07260a	0.03299526
63	0xbcfb66e0	-0.030688703
64	0xbc037352	-0.0080231
65	0xbd00b1b8	-0.031419486
66	0xbcd32280	-0.025773287
67	0x3c02e1d1	0.007988409
68	0xbc27cbf6	-0.010241499
69	0xbd0db25e	-0.034593932
70	0x391d2704	0.00014987221
71	0xbc08793c	-0.008329686
72	0xbcb43bde	-0.022001203
73	0x3c650781	0.01397884
74	0x3bba9ff1	0.005695336
75	0xbd996cb2	-0.07491435
76	0xbbb62616	-0.0055587394
77	0xbaf16a79	-0.0018418572
78	0xbc9b82c9	-0.018983262
79	0x3bda8e16	0.00666977
80	0xbd023b3e	-0.03179478
81	0x3a22fafe	0.00062172103
82	0xbc455dbd	-0.012046275
83	0x3c31b172	0.010845529
84	0xb8b1daba	-8.480759e-05
85	0xbc9562d5	-0.018235603
86	0x3ca27856	0.019832771
87	0xbc59abfd	-0.013285634
88	0x3c9869d0	0.018605143
89	0x3ad8fe8a	0.0016555351
90	0xb9b0cf63	-0.0003372385
91	0xbb83e134	-0.004024649
92	0x3b07d917	0.002072876
93	0xbc21b2a8	-0.009869255
94	0xbc9fa8eb	-0.019489726
95	0xbb05d850	-0.0020423122
96	0xbabc0a48	-0.0014346326
97	0xbbf30459	-0.0074162898
98	0x3c16b588	0.009198554
99	0x3d1ffa31	0.03905696
100	0xb96a5500	-0.00022347644
101	0x3c0e1fb2	0.008674549
102	0xbdab4605	-0.083629645
103	0xbdb9aeea	-0.09066565
104	0xbb74c931	-0.0037351365
105	0xbc701314	-0.014652986
106	0xbc84ed4d	-0.016226435
107	0x3bbce3d2	0.005764463
108	0x3d2f3b79	0.042781327
109	0x3bc48e38	0.005998399
110	0xbad00f1e	-0.0015873646
111	0x3c5b20d6	0.013374528
112	0x3c8ea2f1	0.01741168
113	0x3ccb2a1f	0.024800358
114	0x3cef6c17	0.029226346
115	0x3cbb495c	0.022862129
116	0xbcf3ca59	-0.029759573
117	0xbbf6469e	-0.0075157424
118	0xbc7086fa	-0.014680618
119	0xbcd0208b	-0.025406143
120	0xbb50baf4	-0.0031849714
121	0x3c2b9914	0.010473508
122	0xb9976777	-0.00028878052
123	0xbd33a70a	-0.043860473
124	0x3cbaf609	0.022822397
125	0xb907ea28	-0.00012961833
126	0x3b7bf065	0.0038442847
127	0x3ac210f8	0.0014806082
128	0x3cf2f34c	0.029657029
129	0x3b3519f9	0.002763389
130	0xbbc79feb	-0.0060920618
131	0x3cb8ae44	0.022544034
132	0xbc91eca3	-0.017813032
133	0xbc490fae	-0.012271805
134	0xbbe4fceb	-0.006988158
135	0xbcd59a6a	-0.026074607
136	0xbc6d0a96	-0.014467856
137	0x3b792c38	0.0038020741
138	0xbc5acd09	-0.013354548
139	0x3c167a8b	0.00918449
140	0xbc49f726	-0.012326991
141	0x3d28449f	0.041081067
142	0x3c1d3be4	0.009596799
143	0xbbe4a229	-0.006977339
144	0x3b7d372a	0.0038637617
145	0xbab289a9	-0.0013621348
146	0x3be59666	0.0070064543
147	0xbc337097	-0.0109521365
148	0x3aa4dc68	0.0012577893
149	0x3d02674b	0.03183679
150	0x3b8938e8	0.004187692
151	0xbc07ebd4	-0.008295972
152	0xbc2956a1	-0.010335595
153	0xbc6d1a91	-0.014471666
154	0x3c1f7648	0.00973279
155	0xba6de71b	-0.000907527
156	0x3cb9090d	0.022587324
157	0xbc5ebd10	-0.013594881
158	0xbbd2bbd7	-0.0064310837
159	0xbc5741b0	-0.01313822
160	0x3c802355	0.015641848
161	0xbb23ad0d	-0.0024974972
162	0xbcddbdf0	-0.027068108
163	0x3a4ba061	0.0007767734
164	0x3c0bc0d6	0.008529862
165	0xbc3f7052	-0.011684494
166	0xbd8de6ea	-0.06928809
167	0xbbdf8829	-0.0068216515
168	0xbb83a7c6	-0.004017803
169	0xbb5b614f	-0.0033474748
170	0xbbe9dcae	-0.007136903
171	0xbc155249	-0.009113857
172	0xbc668ef5	-0.01407217
173	0xbcc99e17	-0.024611516
174	0x3ce59a3e	0.02802765
175	0x3d28cc7c	0.041210636
176	0x3c263cb2	0.010146307
177	0x3c109be6	0.008826232
178	0x3d189b2d	0.037257362
179	0xbbef9cf6	-0.0073124124
180	0x392904e1	0.00016118913
181	0x3cbb8cbc	0.022894256
182	0x3b771cd8	0.0037706401
183	0xbd8e119e	-0.06936954
184	0xbbd04952	-0.0063563967
185	0x3c3544f5	0.011063804
186	0xbc816ce0	-0.015798986
187	0xbb68328d	-0.0035430521
188	0x3add8262	0.0016899819
189	0x3cbb3375	0.022851685
190	0xbcf7a800	-0.030231476
191	0x3d50b68a	0.050955333
192	0x3c8ed672	0.01743624
193	0x3c9e80fc	0.019348614
194	0x3c49734b	0.012295554
195	0x3a283b5b	0.0006417536
196	0xbb2be27e	-0.002622753
197	0x3d1b9e1d	0.037992585
198	0x3bfb344c	0.0076661464
199	0xbc8397e1	-0.016063632
200	0x3ca3d92d	0.020001018
201	0xbcda976d	-0.026683534
202	0x3a1ee481	0.00060612714
203	0x3d859e83	0.06524374
204	0x3d1d4fc7	0.03840616
205	0x3b4c2765	0.003115141
206	0x3c9dd7bd	0.019267911
207	0xb9bbf3ba	-0.0003584901
208	0x3c7b1af3	0.015326249
209	0xbc9d4ec1	-0.019202592
210	0x3b688305	0.0035478484
211	0xbbbe255d	-0.005802794
212	0x3c0b127e	0.008488296
213	0x3cad89e7	0.021183921
214	0xbc9d85f5	-0.019228915
215	0xbab9b616	-0.0014168646
216	0xbc179b7f	-0.009253382
217	0x3a293dd2	0.00064560503
218	0x3c90b7c3	0.01766575
219	0x3cb289c3	0.021794206
220	0xbc1ddc8d	-0.009635103
221	0x3b671a46	0.0035263463
222	0xbb3c09bf	-0.0028692333
223	0xbaad0c67	-0.0013202549
224	0xbbfc6e2c	-0.007703563
225	0x3c510857	0.012758336
226	0x3ce300c4	0.027710326
227	0xbcc02e2e	-0.02345952
228	0xbb3129fd	-0.0027033084
229	0x3bca5537	0.006174709
230	0x3dccb0b7	0.09994643
231	0x3da9ee6e	0.0829743
232	0x3cca040a	0.02466013
233	0x3c09675e	0.008386461
234	0x39eb39d6	0.00044865784
235	0xbb7b6119	-0.0038357435
236	0xbc341e21	-0.010993511
237	0xbb9062ac	-0.004406294
238	0x3b5068b3	0.0031800687
239	0x3a3f79fc	0.0007304249
240	0xbbe46685	-0.006970229
241	0xbcaad84b	-0.02085509
242	0xbcf76bb4	-0.030202724
243	0xbd0222fb	-0.03177164
244	0x3d10a142	0.035310037
245	0xbba97049	-0.005170856
246	0xbc2ba645	-0.010476653
247	0x3ca3b255	0.019982496
248	0x3b3bad03	0.0028637059
249	0xbbfeb006	-0.0077724485
250	0xbb3e19c1	-0.002900705
251	0x3d1fda83	0.03902675
252	0xbc97b113	-0.018517053
253	0xbc652b49	-0.013987371
254	0x3c144a2b	0.009050886
255	0xbc5d1427	-0.013493574

action_model._discrete_distribution.branches.1.bias f4 [2]
0	0x3ca9c31c	0.020722918
1	0xbca9c323	-0.020722931
