Assets/Onx/MoveAgent2D-12500010.onnx (onnx, 100979 bytes, 9 tensors)

discrete_act_size_vector f4 [1, 2]
3.0 2.0
00000000: 0000 4040 0000 0040

network_body._body_endoder.seq_layers.0.weight f4 [128, 48]
0.5648371 -0.13455182 -0.16211842 0.44982642 -0.011168691 -0.12003205 0.29459625 -0.24696638
-0.01131281 0.28050268 -0.15588224 -0.108723015 0.09580263 -0.1689191 -0.03718803 0.23945762
0.0475359 -0.11137591 -0.16745871 -0.10090419 0.09018784 -0.26231968 -0.07090349 0.40793827
-0.37166628 -0.022981303 0.094040275 0.3876082 0.15176354 -0.08209808 0.0021674263 -0.2394066
-0.17630869 -0.44488144 0.10536764 -0.110034145 -0.020916175 -0.21503799 -0.12219991 0.23126994
-0.3827067 0.10045062 0.3016138 -0.17173113 0.073057815 0.11066509 -0.12315205 0.08757707
-0.0077697374 -0.16789831 0.08635205 -0.08285531 0.15656811 0.20041226 -0.22170903 0.058775246
0.13756153 -0.16857839 -0.16069904 -0.07669455 -0.35477796 0.082296036 -0.103052974 -0.3354886
0.028953217 0.40098986 -0.20497164 0.03170921 0.036150917 -0.02025579 -0.38324505 0.14185871
-0.3632002 -0.18160386 -0.019356916 -0.27098972 -0.141752 -0.18603042 -0.15638179 0.18351811
0.25558448 -0.096509375 -0.16202399 -0.1415374 -0.30748016 -0.14400306 -0.19459566 -0.0011930745
-0.19180438 -0.35571867 0.20239078 -0.024739753 0.10274902 0.037376605 0.10655044 -0.58390135
0.634736 -0.14776905 -0.158146 0.26962793 -0.14655186 0.116764024 -0.24621561 -0.022793628
0.17271918 -0.19487086 -0.003469371 -0.09588762 -0.14781035 0.0026051707 -0.25209185 -0.05751387
-0.19916645 0.17180291 -0.25398862 -0.25585762 0.0009682595 0.28935403 -0.13223244 -0.02797837
-0.36055723 0.06850734 -0.18823873 0.21757658 -0.098724015 0.24293505 0.18564059 -0.2662033
-0.09019145 0.26561698 -0.19179066 -0.012200095 -0.2348542 -0.09253395 0.049618613 -0.25380078
-0.05099241 -0.12478857 -0.048255578 -0.006195483 -0.08734755 -0.2972058 -0.21292397 0.27891913
-0.021461515 -0.21999334 -0.16842012 -0.21179765 -0.03789717 -0.26306885 -0.18731323 0.33218402
0.038083863 0.11598441 -0.24004704 -0.087475516 -0.13763675 -0.06150356 -0.08985913 0.12603106
0.03254892 -0.28091884 -0.15541023 -0.16058981 0.08778142 -0.3177603 -0.06716063 0.12135521
0.014219977 -0.04720491 -0.41773784 0.111444406 0.15512685 -0.077471204 -0.05122404 -0.24565254
-0.0759509 0.298932 -0.16895764 -0.33087754 -0.23032609 -0.07684012 0.122426674 -0.049718514
0.13216124 0.047924433 -0.2352818 -0.17266852 0.116964236 0.06486431 0.029593492 -0.066178024
0.1485966 0.079185285 -0.046261203 -0.17948017 0.066866435 -0.040851355 -0.1653359 -0.12989283
-0.1749054 0.003288936 -0.10241593 -0.021658374 -0.08117642 -0.23501621 -0.04320566 -0.22389896
-0.16063832 0.008411566 -0.15381192 -0.026576096 -0.36952516 -0.2860635 -0.17913048 0.03552731
-0.3690322 -0.053351067 0.045188222 -0.31320205 0.19507024 -0.3330864 0.112466864 0.112594664
-0.23636663 -0.22147839 0.053131286 0.17355025 -0.2832476 -0.308565 -0.12405479 -0.05965302
0.07467682 0.028721727 0.30343857 -0.25183642 -0.042896863 -0.10397354 0.46284765 -0.34464395
0.28166556 -0.41646644 -0.30110866 -0.40843597 -0.05399373 0.21637091 0.14651793 -0.07971608
-0.034442652 -0.07920081 -0.18681793 -0.06531591 0.4076667 0.024099173 0.003291386 0.18700773
00000000: 2a99 103f f4c7 09be 5f02 26be a64f e63e
00000010: e3fc 36bc 5dd3 f5bd 52d5 963e c1e4 7cbe
00000020: 5d59 39bc 0c9e 8f3e 989f 1fbe 2caa debd
00000030: 2b34 c43d 21f9 2cbe 7a52 18bd 6134 753e
00000040: 01b5 423d 0e19 e4bd 4c7a 2bbe dba6 cebd
00000050: 67b4 b83d c44e 86be d935 91bd 49dd d03e
00000060: 0b4b bebe 4943 bcbc 3098 c03d 9574 c63e
00000070: e767 1b3e 0a23 a8bd 610b 0e3b 0127 75be
00000080: 448a 34be 80c7 e3be fdca d73d 9559 e1bd
00000090: 6658 abbc eb32 5cbe f243 fabd 07d2 6c3e
000000a0: 22f2 c3be 0eb9 cd3d 206d 9a3e 49da 2fbe
000000b0: 569f 953d 61a4 e23d 2437 fcbd 9b5b b33d
000000c0: 4899 febb 89ed 2bbe 58d9 b03d 0bb0 a9bd
000000d0: 6453 203e df38 4d3e b107 63be 50be 703d
000000e0: eedc 0c3e d09f 2cbe 4a8e 24be 0812 9dbd
000000f0: 75a5 b5be d38a a83d 700d d3bd 29c5 abbe
00000100: 4c2f ed3c 8b4e cd3e 16e4 51be 84e1 013d
00000110: fc12 143d 78ef a5bc b238 c4be 6943 113e
00000120: 60f5 b9be 5df6 39be 6592 9ebc 2abf 8abe
00000130: 7027 11be c27e 3ebe 8c22 20be 2cec 3b3e
00000140: f8db 823e b5a6 c5bd 9ee9 25be 2eef 10be
00000150: 0a6e 9dbe 8a75 13be 1644 47be f060 9cba
00000160: 5e68 44be c220 b6be 873f 4f3e 06ab cabc
00000170: 146e d23d 3618 193d 1e37 da3d 8f7a 15bf
00000180: 0f7e 223f c550 17be 06f1 21be ac0c 8a3e
00000190: b111 16be fa21 ef3d f21f 7cbe b4b9 babc
000001a0: 4cdd 303e 3a8c 47be 635e 63bb ba60 c4bd
000001b0: 995b 17be 83bb 2a3b 2f12 81be aa93 6bbd
000001c0: 4af2 4bbe 1aed 2f3e cc0a 82be c5ff 82be
000001d0: ccd2 7d3a 3626 943e f167 07be e532 e5bc
000001e0: f59a b8be 944d 8c3d a7c1 40be 65cc 5e3e
000001f0: d12f cabd f7c3 783e 9118 3e3e cd4b 88be
00000200: 4cb6 b8bd f3fe 873e c564 44be e8e2 47bc
00000210: 9f7d 70be 7182 bdbd e33c 4b3d 2df2 81be
00000220: 6bdd 50bd 2691 ffbd a4a7 45bd 7a03 cbbb
00000230: 46e3 b2bd 5c2b 98be be08 5abe 7dce 8e3e
00000240: 0fd0 afbc ef45 61be 5376 2cbe 7ce1 58be
00000250: 103a 1bbd f6b0 86be 0acf 3fbe 0614 aa3e
00000260: d3fd 1b3d 3c89 ed3d e4ce 75be 5d26 b3bd
00000270: a6f0 0cbe 28eb 7bbd 1008 b8bd 490e 013e
00000280: 0452 053d 98d4 8fbe dc23 1fbe a871 24be
00000290: bfc6 b33d 7ab1 a2be 838b 89bd 1589 f83d
000002a0: e8fa 683c f059 41bd bce1 d5be f73c e43d
000002b0: 93d9 1e3e 39a9 9ebd 4dd0 51bd 578c 7bbe
000002c0: 258c 9bbd 9d0d 993e 3b03 2dbe c868 a9be
000002d0: 9ada 6bbe 5a5e 9dbd d6ba fa3d a4a5 4bbd
000002e0: 4755 073e 694c 443d b6ed 70be 04d0 30be
000002f0: f28a ef3d 94d7 843d 0d6e f23c 5888 87bd
00000300: b529 183e e52b a23d 637c 3dbd a6c9 37be
00000310: 45f1 883d c053 27bd d04d 29be a002 05be
00000320: 671a 33be 318b 573b 71bf d1bd e76c b1bc
00000330: d33f a6bd 17a8 70be 6bf8 30bd c545 65be
00000340: 5f7e 24be aad0 093c df80 1dbe 1db6 d9bc
00000350: 6732 bdbe ea76 92be fb6d 37be 1685 113d
00000360: caf1 bcbe a686 5abd 4917 393d 055c a0be
00000370: 7ec0 473e 4d8a aabe 0755 e63d 0898 e63d
00000380: 180a 72be 3bcb 62be 31a0 593d 28b7 313e
00000390: d405 91be 3bfc 9dbe 7010 febd ba56 74bd
000003a0: 29f0 983d d449 eb3c 4d5c 9b3e b4f0 80be
000003b0: 9fb4 2fbd 14f0 d4bd 5efa ec3e 2c75 b0be
000003c0: 7836 903e 173b d5be ea2a 9abe 851e d1be
000003d0: 8828 5dbd 5690 5d3e cc08 163e 2f42 a3bd
000003e0: bd13 0dbd 0934 a2bd 334d 3fbe 59c4 85bd
000003f0: b1b9 d03e a16b c53c 4bb4 573b f47e 3f3e

network_body._body_endoder.seq_layers.0.bias f4 [128]
-0.0207067 -0.071473956 -0.049612187 -0.07670341 -0.05990719 -0.031976797 -0.06391782 0.0030788488
-0.073464155 0.014133956 -0.07722935 -0.082028925 0.00487276 -0.109417535 -0.034171768 0.04304089
-0.05688541 -0.02580718 -0.07240721 -0.0418259 -0.02249857 0.08273687 -0.07080008 -0.027597196
-0.022298375 -0.1043736 0.0072983946 -0.050152857 -0.06911153 0.030622412 -0.04845667 -0.03929162
0.013183262 -0.08513383 -0.013585085 -0.0115037225 -0.045073163 -0.04061613 -0.04671826 0.043652177
-0.0062046316 0.034253262 -0.093819454 -0.06759577 -0.05169212 0.044266116 0.020875296 -0.061926782
-0.026549887 -0.015575238 -0.0066039837 -0.046144787 0.0029244497 -0.0090763485 -0.0053412393 0.011783186
-0.061460607 -0.034761336 -0.015957767 0.045761384 -0.024056725 -0.032768905 -0.017386721 0.017094655
-0.13068867 -0.0659351 -0.008913579 -0.045728814 0.052046593 0.015024074 -0.020664426 -0.05943867
-0.072905965 -0.0835149 -0.09622474 0.014954944 -0.04578144 -0.015517764 0.070806995 -0.015331146
0.021390578 0.03642824 0.014069378 -0.046549585 0.051270265 0.006282702 0.022288248 -0.08520801
0.06591988 -0.06556147 -0.0007141812 -0.01841753 -0.078014225 -0.04095701 -0.016578222 -0.07260662
-0.021809136 0.010816738 -0.030925365 0.059995636 -0.08343988 0.02639715 -0.0185404 0.030802626
-0.008072559 -0.06747426 -0.064922415 -0.004941246 -0.015790194 0.10507721 -0.06280189 0.07358969
-0.0022894621 -0.015715528 -0.035750423 -0.057500396 0.018672097 -0.04419342 -0.026257848 0.13433203
-0.0074547436 0.025594115 0.036626276 -0.029215794 -0.04230854 0.018634224 -0.005011859 0.011717726
00000000: 19a1 a9bc f060 92bd 2636 4bbd ad16 9dbd
00000010: 3e61 75bd 1afa 02bd 59e7 82bd 83c6 493b
00000020: 6074 96bd 1c92 673c 6c2a 9ebd c8fe a7bd
00000030: acab 9f3b 4d16 e0bd b2f7 0bbd a54b 303d
00000040: ad00 69bd 9469 d3bc 3b4a 94bd a351 2bbd
00000050: ec4e b8bc f371 a93d a2ff 90bd 8413 e2bc
00000060: 15ab b6bc d3c1 d5bd 5f27 ef3b 156d 4dbd
00000070: 598a 8dbd dadb fa3c 807a 46bd 40f0 20bd
00000080: 9cfe 573c a55a aebd fa93 5ebc 1c7a 3cbc
00000090: a39e 38bd 195d 26bd a55b 3fbd a0cc 323d
000000a0: 3950 cbbb 264d 0c3d 6a24 c0bd a76f 8abd
000000b0: 1ebb 53bd 6350 353d ab02 ab3c f0a6 7dbd
000000c0: 267f d9bc 482f 7fbc 3b66 d8bb 5102 3dbd
000000d0: 20a8 3f3b f7b4 14bc 9005 afbb 440e 413c
000000e0: 1ebe 7bbd e761 0ebd ddb9 82bc 4a70 3b3d
000000f0: 9c12 c5bc b038 06bd 996e 8ebc 170a 8c3c
00000100: 40d3 05be fb08 87bd 430a 12bc 234e 3bbd
00000110: cf2e 553d 8927 763c 7148 a9bc f675 73bd
00000120: b94f 95bd dc09 abbd 7a11 c5bd 9505 753c
00000130: 5285 3bbd 383e 7ebc 4203 913d 7d2f 7bbc
00000140: 4b3b af3c c735 153d 4083 663c c7aa 3ebd
00000150: c500 523d 20df cd3b d895 b63c 8a81 aebd
00000160: 0101 873d 1845 86bd e437 3bba 5ce0 96bc
00000170: ecc5 9fbd 8ac2 27bd 0dcf 87bc c8b2 94bd
00000180: 13a9 b2bc b038 313c 3157 fdbc fcbd 753d
00000190: 87e2 aabd d63e d83c 09e2 97bc ca55 fc3c
000001a0: c442 04bc f22f 8abd 0bf6 84bd 2dea a1bb
000001b0: 705a 81bc b832 d73d 479e 80bd 31b6 963d
000001c0: cd0a 16bb dabd 80bc 096f 12bd 8985 6bbd
000001d0: 3af6 983c 2904 35bd b31a d7bc 568e 093e
000001e0: ec46 f4bb c0aa d13c 6f05 163d f655 efbc
000001f0: b84b 2dbd cda6 983c 853a a4bb b4fb 3f3c

network_body._body_endoder.seq_layers.2.weight f4 [128, 128]
0.03453011 0.021061981 -0.09347605 -0.16755016 -0.052788008 -0.10588895 -0.1504835 -0.092125215
-0.33653432 -0.0025923194 0.057118792 -0.021138323 0.0010823702 -0.13750027 -0.11327803 -0.095848426
-0.15017456 -0.2914757 0.055731226 0.05219835 0.10423414 0.19082981 -0.14807698 -0.052319363
-0.2222375 0.04471358 -0.118886575 -0.009276416 0.06128931 0.048514225 0.15665442 -0.15266225
-0.35591194 0.14978269 0.22635552 -0.1864834 -0.12884948 0.07099757 -0.15450388 0.04548433
-0.08377919 0.17065966 -0.24188258 -0.111634895 -0.27062017 0.068186924 0.09881947 -0.16895443
-0.12761961 0.014746793 -0.19614182 0.118822955 0.18608247 -0.1640758 0.0012641752 0.2853487
0.0891392 0.08528242 -0.008143172 0.022761147 -0.17818642 -0.12336921 0.003660112 0.089257374
-0.12339044 -0.20657088 -0.25478122 -0.026291968 -0.06485469 0.044322956 0.106343314 0.036174223
-0.15368111 0.055044737 -0.15972114 -0.060864933 0.038855523 -0.055185355 0.18440805 0.015245862
-0.083389364 -0.14513378 -0.063234374 -0.029875038 -0.35324204 -0.033047725 -0.12076396 -0.3652031
0.19677202 -0.04747326 -0.05416149 0.09222299 -0.23032878 0.15759444 -0.062461533 -0.05676207
-0.1338872 0.028715512 -0.15381019 -0.083112195 -0.18008636 -0.017660333 -0.32215723 0.18245889
-0.103084475 0.084189944 -0.071734264 0.07583513 -0.15600808 0.22005203 -0.055840574 0.12651965
0.25109938 0.041468147 -0.08033536 0.13802668 -0.2216668 -0.15159455 0.012261456 0.10234501
0.06949684 -0.03765032 0.015937401 0.16450775 0.14394346 0.045315437 -0.081756 -0.5841968
0.100764364 0.050126303 -0.28555363 0.21200727 -0.17334162 0.11526428 -0.11388336 -0.14442883
-0.0488649 0.008725454 -0.11334615 -0.29728356 -0.14099103 -0.058361284 0.15928108 -0.04493189
0.2739376 -0.16067025 -0.29502013 -0.27215016 -0.013259962 0.25132018 -0.23761332 -0.030567875
0.122103825 0.02334084 -0.16165271 0.16925009 -0.1621569 -0.2759919 0.09540096 0.021219885
0.13034914 -0.1970717 -0.26092514 0.122462764 0.18953502 -0.033150848 -0.09937531 -0.09044382
-0.10832149 0.12551078 -0.084584445 -0.0050141057 0.08327949 -0.34780094 -0.023847517 0.09577175
0.1062528 -0.028550282 -0.004431768 -0.15541416 -0.10985021 0.068938725 -0.1338403 -0.3489643
-0.0064849216 -0.012252453 -0.12108125 -0.07945122 -0.085800976 -0.102544114 -0.060662743 -0.049917083
-0.03855889 -0.02170436 -0.13617632 -0.23422673 0.095840394 -0.0693753 0.09456384 -0.009102164
-0.08738989 -0.02181035 -0.046518967 -0.5629227 -0.14167416 0.09596011 -0.1306688 0.081499256
0.06182273 0.15751454 -0.013050367 -0.07042128 -0.015498417 -0.06333309 -0.2591538 0.10597847
0.1356295 -0.07528602 -0.27104878 0.18738292 -0.09115069 0.23897152 -0.03114962 -0.10301148
-0.28088737 0.0665718 -0.032331523 0.110128485 0.007477091 -0.36434817 0.03115111 0.219417
-0.26330286 0.01888541 0.04387515 0.06257698 -0.1932131 0.05406095 -0.029575016 -0.0025275548
0.03128449 0.075817406 0.081257194 -0.19858438 -0.13449892 0.0918802 -0.0022152527 -0.13892786
-0.060951363 0.070156805 -0.2727813 -0.19598156 -0.09127225 -0.14166214 -0.0053220633 0.022807335
00000000: 726f 0d3d 2d8a ac3c 5f70 bfbd 4592 2bbe
00000010: 3d38 58bd 4edc d8bd 5918 1abe 25ac bcbd
00000020: 3a4e acbe e7e3 29bb 65f5 693d 472a adbc
00000030: 51de 8d3a dfcc 0cbe 50fe e7bd 2e4c c4bd
00000040: 5cc7 19be 4e3c 95be 6d46 643d f0cd 553d
00000050: b578 d53d e468 433e 7ea1 17be d44c 56bd
00000060: 3a92 63be 9625 373d ce7a f3bd 1cfc 17bc
00000070: 800a 7b3d dab6 463d 046a 203e 7e53 1cbe
00000080: 173a b6be a260 193e bec9 673e 81f5 3ebe
00000090: 1ef1 03be 2d67 913d 4436 1ebe c74d 3a3d
000000a0: 6d94 abbd 68c1 2e3e 11b0 77be d6a0 e4bd
000000b0: ba8e 8abe 96a5 8b3d dd61 ca3d 6402 2dbe
000000c0: b7ae 02be 889c 713c 67d9 48be 7359 f33d
000000d0: 678c 3e3e 7d03 28be aeb2 a53a 3a19 923e
000000e0: 9d8e b63d 8da8 ae3d f06a 05bc 9675 ba3c
000000f0: 8076 36be ffa8 fcbd 7dde 6f3b 92cc b63d
00000100: 21b4 fcbd 5187 53be af72 82be 4162 d7bc
00000110: 89d2 84bd fd8b 353d 86ca d93d 6c2b 143d
00000120: 955e 1dbe 9776 613d f08d 23be 824d 79bd
00000130: f826 1f3d 0a0a 62bd 77d5 3c3e c8c9 793c
00000140: 0bc8 aabd f39d 14be 0681 81bd 7fbc f4bc
00000150: 24dc b4be 0d5d 07bd 1853 f7bd e7fb babe
00000160: 9b7e 493e 5273 42bd 70d8 5dbd 68df bc3d
00000170: 4fdb 6bbe 7060 213e aad7 7fbd 587f 68bd
00000180: ba19 09be cb3c eb3c 6b80 1dbe ba36 aabd
00000190: 8f68 38be 67ac 90bc cbf1 a4be 81d6 3a3e
000001a0: f41d d3bd c76b ac3d 6ae9 92bd 734f 9b3d
000001b0: 95c0 1fbe 5255 613e 16b9 64bd 5e8e 013e
000001c0: 1990 803e 81da 293d dd86 a4bd de56 0d3e
000001d0: 9ffc 62be 9a3b 1bbe 46e4 483c 439a d13d
000001e0: 5c54 8e3d 3937 1abd 278f 823c b874 283e
000001f0: ea65 133e ae9c 393d b16f a7bd ec8d 15bf
00000200: 8c5d ce3d 3d51 4d3d 1634 92be 6f18 593e
00000210: 7780 31be ae0f ec3d ae3b e9bd 27e5 13be
00000220: 9026 48bd 35f5 0e3c 0722 e8bd 8d35 98be
00000230: f45f 10be 3e0c 6fbd 941a 233e 800a 38bd
00000240: 8d41 8c3e be86 24be e10c 97be 4457 8bbe
00000250: 5040 59bc 0aad 803e e850 73be 7b69 fabc
00000260: 9211 fa3d 4a35 bf3c 4a88 25be e54f 2d3e
00000270: 750c 26be cf4e 8dbe 9461 c33d 53d5 ad3c
00000280: 3f7a 053e 2acd 49be fb97 85be c2cd fa3d
00000290: 7815 423e 2fc9 07bd 4885 cbbd 9c3a b9bd
000002a0: a8d7 ddbd e685 003e 9c3a adbd 5e4d a4bb
000002b0: 708e aa3d f712 b2be de5b c3bc fb23 c43d
000002c0: 119b d93d 48e2 e9bc 5d38 91bb e424 1fbe
000002d0: 26f9 e0bd bf2f 8d3d 6e0d 09be 73ab b2be
000002e0: 777f d4bb 83be 48bc 72f9 f7bd 52b7 a2bd
000002f0: 6cb8 afbd a602 d2bd 7f79 78bd db75 4cbd
00000300: edef 1dbd 58cd b1bc ce71 0bbe 22d9 6fbe
00000310: f847 c43d a314 8ebd b0aa c13d 3e21 15bc
00000320: 78f9 b2bd 9eab b2bc ac8a 3ebd b41b 10bf
00000330: 0813 11be bc86 c43d 0bce 05be 15e9 a63d
00000340: d539 7d3d 7e4b 213e 35d1 55bc 0839 90bd
00000350: 13ed 7dbc c7b4 81bd cfaf 84be 3d0b d93d
00000360: 76e2 0a3e 8f2f 9abd e8c6 8abe 4fe1 3f3e
00000370: 37ad babd f3b4 743e 7d2d ffbc aff7 d2bd
00000380: 78d0 8fbe cc56 883d 0f6e 04bd 0b8b e13d
00000390: 6302 f53b d88b babe 9d30 ff3c daae 603e
000003a0: a2cf 86be 93b5 9a3c 6eb6 333d 5c28 803d
000003b0: a8d9 45be 046f 5d3d 4e47 f2bc 55a5 25bb
000003c0: 2a24 003d 2846 9b3d 2c6a a63d b459 4bbe
000003d0: 16ba 09be b02b bc3d c62d 11bb 1b43 0ebe
000003e0: 23a8 79bd 5fae 8f3d fea9 8bbe 64af 48be
000003f0: f2ec babd e10f 11be b464 aebb 73d6 ba3c

network_body._body_endoder.seq_layers.2.bias f4 [128]
-0.010571937 -0.05263985 -0.03614961 -0.010906569 -0.0012783454 0.04079634 -0.008777098 -0.007032886
0.027091265 -0.076877125 -0.0032506674 -0.055272125 -0.046312336 0.044287823 0.05114939 0.025638267
-0.12793237 -0.048394192 -0.014572284 -0.013370678 -0.077370584 0.02236442 0.056650966 -0.08303425
0.05569097 0.007721625 -0.03468868 -0.021047946 -0.009062715 -0.043289896 -0.04759497 -0.20509431
-0.027576465 0.06104108 -0.12174352 -0.022868015 0.03966685 -0.06394294 0.04297358 -0.13107927
-0.024405107 -0.05600343 0.0033200984 -0.0041323933 0.010621511 0.07332797 -0.03482309 0.0022801016
-0.05583732 0.00036901882 0.0014307097 -0.008168595 0.0052771275 -0.091707975 0.056398824 0.012247644
-0.057528056 -0.012741187 -0.13412435 -0.045833003 -0.027989892 0.022273295 0.08943307 0.060972556
-0.04541868 -0.052030545 -0.06277289 -0.012822815 -0.04135613 0.03159798 -0.05012781 -0.04125972
-0.016727408 -0.034192394 0.061540846 0.011704642 -0.039911155 -0.017429834 0.04462144 -0.032664586
0.032308023 -0.086403765 -0.017304504 -0.027074521 0.009623576 0.020129563 -0.002975674 -0.05936416
0.04591446 0.01430654 0.019697422 -0.028476128 -0.027540231 -0.05115951 0.028181424 0.058806676
0.015809638 -0.016836243 0.0076246727 0.025659045 -0.010748898 0.02600799 -0.014823398 -0.112439096
0.009554305 0.080244854 0.00040247504 -0.06422519 -0.0131165935 0.010618165 -0.03306126 -0.08306466
-0.0037117149 0.060393028 0.018986452 -0.03602752 -0.0028565782 -0.022643035 -0.032022737 0.07449327
0.049205773 -0.06590229 0.027448019 -0.017592354 0.061150074 0.084500454 0.046809807 -0.04588515
00000000: eb35 2dbc e29c 57bd 9d11 14bd 77b1 32bc
00000010: 278e a7ba 101a 273d d1cd 0fbc 2074 e6bb
00000020: 80ee dd3c c171 9dbd 2609 55bb 0665 62bd
00000030: 01b2 3dbd 2667 353d 0682 513d 5807 d23c
00000040: b400 03be fd38 46bd 97c0 6ebc b010 5bbc
00000050: 7874 9ebd 9735 b73c d80a 683d dc0d aabd
00000060: 371c 643d af05 fd3b b815 0ebd be6c acbc
00000070: c87b 14bc bf50 31bd f1f2 42bd 3e04 52be
00000080: 0ae8 e1bc 3606 7a3d ab54 f9bd b455 bbbc
00000090: b579 223d 84f4 82bd 1105 303d a539 06be
000000a0: 38ed c7bc da63 65bd 0296 593b 0769 87bb
000000b0: d905 2e3c fa2c 963d a8a2 0ebd c26d 153b
000000c0: acb5 64bd de78 c139 a786 bb3a 92d5 05bc
000000d0: c1eb ac3b 64d1 bbbd 7402 673d 58aa 483c
000000e0: 8aa2 6bbd 69c0 50bc e557 09be 63bb 3bbd
000000f0: 0f4b e5bc 7c76 b63c af28 b73d 5cbe 793d
00000100: f008 3abd fb1d 55bd 138f 80bd c916 52bc
00000110: 0c65 29bd e26c 013d d252 4dbd f4ff 28bd
00000120: eb07 89bc 530d 0cbd 4112 7c3d d4c4 3f3c
00000130: e179 23bd 03c9 8ebc f9c4 363d 4dcb 05bd
00000140: 6b55 043d 75f4 b0bd 2dc2 8dbc 63cb ddbc
00000150: 34ac 1d3c c1e6 a43c 8703 43bb d527 73bd
00000160: cd10 3c3d fa65 6a3c 7d5c a13c c546 e9bc
00000170: 0d9c e1bc a28c 51bd bbdc e63c 45df 703d
00000180: 3783 813c 29ec 89bc 64d8 f93b eb32 d23c
00000190: 251c 30bc b50e d53c d6dd 72bc 7846 e6bd
000001a0: a989 1c3c 6a57 a43d 4903 d339 7f88 83bd
000001b0: fbe6 56bc d0f7 2d3c 3e6b 07bd ce1d aabd
000001c0: 3e40 73bb ae5e 773d 7a89 9b3c 9891 13bd
000001d0: 6e35 3bbb e37d b9bc 462a 03bd ed8f 983d
000001e0: fe8b 493d c8f7 86bd abda e03c d71d 90bc
000001f0: 8078 7a3d 930e ad3d a4bb 3f3d 11f2 3bbd

action_model._discrete_distribution.branches.0.weight f4 [3, 128]
-0.13226794 0.038904615 -0.19043356 -0.113082685 0.031227669 0.1481656 -0.06736877 -0.06254326
0.057419926 -0.1855688 -0.08421755 -0.17267653 -0.113134466 0.14507654 0.099741384 0.07747559
-0.018193198 -0.032950923 -0.071987815 -0.13594092 -0.14821038 -0.06582604 0.03633084 -0.08783032
-0.09831292 -0.05228549 0.029734958 -0.111696176 -0.03785986 -0.112494625 -0.13237986 -0.033744104
-0.14793609 -0.088339426 -0.018747946 -0.13523124 0.09939734 -0.06987245 0.118069805 0.001457031
-0.11756503 0.0060312115 -0.010147024 -0.007897518 -0.04739434 -0.07530963 0.012375966 0.060734272
0.01689735 0.017296039 -0.07011216 -0.10023085 0.064562775 -0.060626835 -0.057992235 -0.044500552
0.0037034512 -0.17080206 -0.050554946 -0.068203636 0.003965757 0.051748894 0.10814217 0.005986588
-0.15126428 0.038648453 -0.101682454 -0.01667531 -0.15262698 -0.05150864 -0.13027738 -0.026848417
-0.08505373 -0.14844692 -0.010987995 -0.09790866 -0.011680978 -0.10994349 -0.12213185 -0.09400536
0.070304714 -0.15665019 -0.025164146 0.01887844 -0.08520096 -0.11418793 -0.12984827 0.12990908
0.13307424 -0.020020232 0.09786543 -0.13020699 0.11112841 -0.056375727 -0.07638481 -0.15131707
0.11039035 0.0077472865 -0.06302099 0.0066723484 -0.011341951 -0.114247635 -0.07070461 0.027599199
-0.1301013 0.01513046 0.013581077 -0.11747923 -0.085833445 -0.15071937 -0.016884316 0.051433455
-0.033544123 -0.014168713 0.012469081 -0.016414255 0.082026325 -0.119243026 -0.060601197 -0.06145145
0.014016368 -0.15305291 -0.063374184 -0.104759306 -0.033153065 -0.0038302327 -0.17793056 0.027305678
0.0547459 -0.04064727 0.08258402 -0.119660884 -0.009393664 -0.18789689 0.1141143 0.011922061
0.124246635 -0.09162186 0.19261268 0.0019276515 0.03976244 -0.2899497 0.1315132 -0.2559736
-0.048034772 0.0782636 -0.105505146 0.02991678 0.009670457 -0.05898542 -0.12931675 0.059670392
-0.060739294 0.18487713 -0.22383288 0.18892615 0.059938304 0.09606701 0.23965186 -0.009205451
-0.00828777 -0.10820964 -0.042515937 0.04013567 -0.0013687683 0.16151743 -0.0013306187 0.034383487
0.065965086 -0.13430777 -0.09944724 -0.035627488 -0.15190755 0.30871266 -0.24280053 -0.033253834
-0.0070657665 0.09907344 -0.20555313 -0.072894976 -0.07817124 -0.17493886 -0.028313782 0.1967283
0.11980247 -0.004000847 -0.024363017 -0.079706356 -0.14961666 -0.086943224 0.21720995 0.11483919
0.054577075 0.06468978 0.09403632 0.18536651 -0.016249051 -0.14574802 -0.045886282 0.07266343
-0.02290877 0.062213775 -0.013757218 0.14674586 0.04097594 -0.019490153 0.25579342 -0.017926343
0.12926933 -0.029215554 0.10585388 0.04736184 0.15063715 -0.11208916 0.18972114 -0.072365806
-0.006880211 -0.05832225 -0.15311795 0.063429534 0.07284258 -0.101977326 -0.08903925 0.10572086
0.11218703 -0.08070311 0.18865937 0.15118477 0.080354795 -0.0817689 -0.22510044 -0.03220885
0.06905943 -0.15335584 0.06267415 0.013548045 0.10429629 0.080911025 0.058498077 -0.1913845
-0.13399413 0.18648656 0.15494773 0.073027566 0.0050202375 0.10557277 0.11893019 0.12895162
0.16203801 -0.17613554 -0.20079343 0.07946488 0.17397217 0.21691415 0.024147252 0.34189302
00000000: 3f71 07be 725a 1f3d 0401 43be e597 e7bd
00000010: 2bd1 ff3c b9b8 173e a3f8 89bd ae16 80bd
00000020: 2831 6b3d bf05 3ebe 407a acbd 1ed2 30be
00000030: 0bb3 e7bd f28e 143e 3645 cc3d 86ab 9e3d
00000040: e709 95bc 8cf7 06bd 596e 93bd 1934 0bbe
00000050: 76c4 17be cecf 86bd a6cf 143d 62e0 b3bd
00000060: 4958 c9bd 4f29 56bd ba96 f33c f7c0 e4bd
00000070: f112 1bbd 9563 e6bd 968e 07be 4237 0abd
00000080: 8f7c 17be 4deb b4bd 4b95 99bc 0f7a 0abe
00000090: d590 cb3d 4919 8fbd 95ce f13d d9f9 be3a
000000a0: efc5 f0bd 78a1 c53b b43f 26bc 9764 01bc
000000b0: 9120 42bd ef3b 9abd 90c4 4a3c 80c4 783d
000000c0: 506c 8a3c 6cb0 8d3c f796 8fbd d545 cdbd
000000d0: 7d39 843d d853 78bd 4489 6dbd 3646 36bd
000000e0: 9ab5 723b bce6 2ebe b412 4fbd 59ae 8bbd
000000f0: 2ef3 813b a6f6 533d a479 dd3d 242b c43b
00000100: 06e5 1abe d74d 1e3d e43e d0bd a99a 88bc
00000110: 3f4a 1cbe b9fa 52bd 6f67 05be 36f1 dbbc
00000120: a630 aebd 7802 18be fe06 34bc 5684 c8bd
00000130: 9361 3fbc 0d2a e1bd 4320 fabd e285 c0bd
00000140: ebfb 8f3d e868 20be 0a25 cebc f5a6 9a3c
00000150: d77d aebd 5ddb e9bd f2f6 04be e306 053e
00000160: 9d44 083e 7801 a4bc ac6d c83d fb54 05be
00000170: 4b97 e33d 3cea 66bd a46f 9cbd ddf2 1abe
00000180: 5614 e23d f3dc fd3b 2611 81bd b7a3 da3b
00000190: 97d3 39bc aafa e9bd 94cd 90bd b717 e23c
000001a0: 4639 05be c0e5 773c 2a83 5e3c f398 f0bd
000001b0: 72c9 afbd 2e56 1abe fa50 8abc e3ab 523d
000001c0: 9065 09bd e423 68bc 1e4b 4c3c 3077 86bc
000001d0: 6bfd a73d b035 f4bd f638 78bd 84b4 7bbd
000001e0: e9a4 653c e7b9 1cbe 53ca 81bd 0c8c d6bd
000001f0: 82cb 07bd a404 7bbb 6e33 36be 28b0 df3c
00000200: 3d3d 603d c07d 26bd d021 a93d c410 f5bd
00000210: e2e7 19bc 0b68 40be c2b4 e93d c054 433c
00000220: 0575 fe3d 3ea4 bbbd 423c 453e 40a9 fc3a
00000230: f1dd 223d 4974 94be 65ab 063e f90e 83be
00000240: 1cc0 44bd ab48 a03d 1513 d8bd 0914 f53c
00000250: d670 1e3c b29a 71bd 9c6b 04be f168 743d
00000260: c4c9 78bd 6e50 3d3e 7234 65be db75 413e
00000270: de81 753d c8be c43d 4c67 753e 76d2 16bc
00000280: 6dc9 07bc 049d ddbd 3125 2ebd 4d65 243d
00000290: 3e68 b3ba d364 253e 2868 aeba b3d5 0c3d
000002a0: b418 873d fa87 09be ffaa cbbd 21ee 11bd
000002b0: a78d 1bbe 960f 9e3e b4a0 78be 2c35 08bd
000002c0: f287 e7bb 04e7 ca3d 857c 52be f649 95bd
000002d0: 3e18 a0bd 2c23 33be 4ef2 e7bc 2573 493e
000002e0: ff5a f53d 8a19 83bb f394 c7bc 163d a3bd
000002f0: 1c35 19be 4a0f b2bd 496c 5e3e cf30 eb3d
00000300: 368c 5f3d 137c 843d 1d96 c03d b8d0 3d3e
00000310: bb1c 85bc f83e 15be 41f3 3bbd 90d0 943d
00000320: 2cab bbbc dfd3 7e3d f465 61bc 8c44 163e
00000330: 63d6 273d d0a9 9fbc 5bf7 823e 44da 92bc
00000340: 2e5f 043e 7555 efbc ebc9 d83d 7dfe 413d
00000350: a040 1a3e 008f e5bd 4246 423e 8634 94bd
00000360: 6573 e1bb 50e3 6ebd f4ca 1cbe 58e7 813d
00000370: 7e2e 953d 7dd9 d0bd 365a b6bd 2e84 d83d
00000380: 50c2 e53d ac47 a5bd ec2f 413e 2ed0 1a3e
00000390: 0e91 a43d 7476 a7bd bb80 66be 6ded 03bd
000003a0: 086f 8d3d 5009 1dbe 4e5b 803d 9ff8 5d3c
000003b0: 4b99 d53d aeb4 a53d ae9b 6f3d 4cfa 43be
000003c0: c235 09be 55f6 3e3e 9eaa 1e3e 7a8f 953d
000003d0: ce80 a43b 8936 d83d ac91 f33d e50b 043e
000003e0: 4bed 253e e05c 34be cb9c 4dbe 7cbe a23d
000003f0: c325 323e be1e 5e3e 75d0 c53c 9a0c af3e

action_model._discrete_distribution.branches.0.bias f4 [3]
-0.018762324 0.0057350616 0.010787654
00000000: 72b3 99bc 2fed bb3b b3be 303c

action_model._discrete_distribution.branches.1.weight f4 [2, 128]
-0.3545447 -0.13569419 0.09191977 -0.046144776 -0.007358537 0.33294985 -0.057656452 -0.00885036
0.015912572 0.010336303 -0.05496883 0.049757164 -0.04899371 0.0013992032 0.06532032 -0.060641337
-0.013323551 -0.06016265 -0.16277626 -0.07674174 -0.03373667 -0.09886864 -0.00780707 -0.053792767
0.22706714 0.011803939 0.032340273 -0.03201284 -0.06401362 -0.106302716 -0.007195449 -0.030064901
-0.0949822 0.007191641 0.076619156 -0.11754861 0.1006351 0.0013126404 0.3520141 -0.05129611
-0.06666952 0.007224691 0.16950761 -0.13583994 -0.0034086995 0.03599102 0.0007507608 -0.056208145
0.016144522 -0.03044817 0.025864866 -0.060156707 -0.010997255 0.006934629 0.017566077 -0.01643106
-0.0021609063 -0.10173356 -0.05862874 -0.09271007 0.0140779 0.062136397 0.057089586 0.18738908
-0.0017494919 -0.065929 -0.07242074 0.049159177 -0.17531657 -0.15577948 0.010799201 0.017830316
-0.015717098 7.114445e-05 0.12699118 0.028487714 -0.025602022 -0.09197196 -0.16364893 -0.10025491
0.026547635 0.018798105 -0.1055089 0.02948471 0.031207474 0.005442066 -0.07319206 -0.0033198947
0.073912226 0.017599197 -0.020220203 -0.062401988 0.036984693 -0.024557421 -0.028707378 0.068704
0.18342128 0.027162323 0.02326022 0.040088084 0.03318542 -0.25822628 0.013071162 -0.02024773
0.092902005 -0.13169011 -0.16236335 -0.035776544 -0.11823726 -0.19104068 0.11022646 0.05950551
-0.005528119 -0.011242466 -0.010582012 -0.03836737 0.11534858 -0.07937491 -0.06788757 0.047664642
0.08530184 -0.006288383 -0.05407315 -0.036918085 0.058443204 0.11303826 -0.55999273 -0.106539994
0.34130493 0.120850354 -0.09179852 0.044325735 0.013040893 -0.32291895 0.07619901 0.0016186743
-0.0015419797 -0.021109676 0.062966354 -0.060762785 0.041599054 0.010450919 -0.06605436 0.067008935
0.016093833 0.05570679 0.19552088 0.082019106 0.04081679 0.09331357 0.011502078 0.056315158
-0.20656942 -0.015541661 -0.044678405 0.041205853 0.0441461 0.08760113 0.00982943 0.032796424
0.10495837 -0.0193578 -0.05796088 0.11855252 -0.10455463 -0.00518726 -0.34826067 0.054966122
0.07398042 0.005222962 -0.15052202 0.13487116 0.00032936837 -0.036565796 -0.0066357525 0.06463958
-0.0069457875 0.02330815 -0.017990705 0.070925914 0.00654172 -0.0181947 -0.010577996 0.04141396
-0.010491868 0.08440072 0.07132521 0.109895796 -0.019315567 -0.049200144 -0.059271995 -0.20911744
-0.005825379 0.070846036 0.04950051 -0.029646067 0.18770513 0.14598596 -0.004282009 -0.010721844
-0.0004213336 0.01168979 -0.13525781 -0.023602588 0.002686093 0.10429997 0.15737821 0.08295408
-0.021989534 -0.023204207 0.13172077 -0.040111158 -0.031363226 -0.015613147 0.06559521 0.032788053
-0.040274527 -0.012477271 0.034327716 0.051943045 -0.056319453 0.018061263 0.020005612 -0.0769989
-0.16172889 -0.016633948 -0.0062889783 -0.028827673 -0.019691654 0.27710024 -0.019882571 0.029047558
-0.103605814 0.14266847 0.14799336 0.04678512 0.14119002 0.16624111 -0.11889118 -0.06392176
0.01895665 0.022372436 0.008341732 0.05417496 -0.10694999 0.08346424 0.06869044 -0.060226455
-0.097257294 -0.00432757 0.06328242 0.042738874 -0.080031015 -0.09715153 0.57321805 0.09690481
00000000: e286 b5be 6bf3 0abe 6f40 bc3d 4e02 3dbd
00000010: e21f f1bb 6778 aa3e 2c29 6cbd 1a01 11bc
00000020: 155b 823c 9959 293c ff26 61bd 2bce 4b3d
00000030: a1ad 48bd 7865 b73a a9c6 853d 0d63 78bd
00000040: 064b 5abc 1c6d 76bd d2ae 26be c62a 9dbd
00000050: 762f 0abd a47b cabd 73d2 ffbb ce55 5cbd
00000060: 4a84 683e 4f65 413c 3c77 043d e51f 03bd
00000070: 9319 83bd 3db5 d9bd cdc7 ebbb ab4a f6bc
00000080: 0786 c2bd dba7 eb3b 81ea 9c3d 53bd f0bd
00000090: c619 ce3d e70c ac3a 313b b43e df1b 52bd
000000a0: 088a 88bd 1abd ec3b 6793 2d3e a019 0bbe
000000b0: 7d64 5fbb 526b 133d b4ce 443a 833a 66bd
000000c0: 8441 843c 716e f9bc 8ee2 d33c e166 76bd
000000d0: d52d 34bc e23b e33b bce6 8f3c 6e9a 86bc
000000e0: fe9d 0dbb af59 d0bd b124 70bd c7de bdbd
000000f0: fea6 663c bc82 7e3d c5d6 693d ece2 3f3e
00000100: 354f e5ba c905 87bd 5351 94bd 225b 493d
00000110: 3086 33be a884 1fbe 22ef 303c e210 923c
00000120: 25c1 80bc 6333 9538 fa09 023e 115f e93c
00000130: 55bb d1bc cc5b bcbd 9693 27be 7252 cdbd
00000140: 6d7a d93c 7cfe 993c 0d15 d8bd eb89 f13c
00000150: d1a6 ff3c 5c53 b23b b8e5 95bd 9792 59bb
00000160: 4b5f 973d 312c 903c d7a4 a5bc 3a99 7fbd
00000170: 437d 173d a52c c9bc bc2b ebbc afb4 8c3d
00000180: cad2 3b3e 8583 de3c 388c be3c 6733 243d
00000190: 6fed 073d 3c36 84be 6d28 563c 91de a5bc
000001a0: 6843 be3d c6d9 06be 9442 26be 6d8a 12bd
000001b0: 6026 f2bd 2ba0 43be 69be e13d 0dbc 733d
000001c0: 3925 b5bb 5232 38bc 2d60 2dbc 1a27 1dbd
000001d0: e03b ec3d 508f a2bd a308 8bbd 003c 433d
000001e0: bbb2 ae3d c80e cebb cf7b 5dbd 6b37 17bd
000001f0: 2462 6f3d 9a80 e73d af5b 0fbf a431 dabd
00000200: 85bf ae3e 6480 f73d dd00 bcbd e78e 353d
00000210: 78a9 553c a255 a5be 3a0e 9c3d b229 d43a
00000220: 411c caba 33ee acbc 81f4 803d 66e2 78bd
00000230: c563 2a3d 553a 2b3c 8247 87bd fb3b 893d
00000240: 37d7 833c ce2c 643d a036 483e a2f9 a73d
00000250: 822f 273d 2f1b bf3d 3673 3c3c b9aa 663d
00000260: ef86 53be 73a2 7ebc b400 37bd 78c7 283d
00000270: 8ad2 343d 3968 b33d 9e0b 213c 8b55 063d
00000280: 6af4 d63d 4094 9ebc 6368 6dbd aacb f23d
00000290: bd20 d6bd e4f9 a9bb 394f b2be 2824 613d
000002a0: 0c83 973d 6125 ab3b 7222 1abe aa1b 0a3e
000002b0: 13af ac39 04c6 15bd ba70 d9bb c261 843d
000002c0: 7d99 e3bb bcf0 be3c 3e61 93bc 9b41 913d
000002d0: ed5b d63b 0d0d 95bc 554f 2dbc afa1 293d
000002e0: 15e6 2bbc 49da ac3d f412 923d 0c11 e13d
000002f0: ae3b 9ebc 1786 49bd 31c7 72bd e222 56be
00000300: d2e2 bebb ba17 913d 0cc1 4a3d 4fdc f2bc
00000310: c635 403e 587d 153e 1850 8cbb acaa 2fbc
00000320: 70e6 dcb9 8886 3f3c 0681 0abe 375a c1bc
00000330: 2a09 303b 399b d53d c127 213e d4e3 a93d
00000340: 6523 b4bc c016 bebc cfe1 063e 994b 24bd
00000350: ba76 00bd 49ce 7fbc c856 863d c44c 063d
00000360: e7f6 24bd 786d 4cbc 389b 0c3d 3bc2 543d
00000370: 3aaf 66bd 37f5 933c cfe2 a33c 99b1 9dbd
00000380: 429c 25be eb43 88bc c613 cebb 0328 ecbc
00000390: 6450 a1bc 15e0 8d3e c6e0 a2bc 25f5 ed3c
000003a0: 492f d4bd af17 123e 928b 173e c1a1 3f3d
000003b0: 1e94 103e 1c3b 2a3e 387d f3bd 69e9 82bd
000003c0: fa4a 9b3c 6646 b73c c3ab 083c 90e6 5d3d
000003d0: 9908 dbbd 4def aa3d 93ad 8c3d 04b0 76bd
000003e0: d52e c7bd 4ace 8dbb 379a 813d f50e 2f3d
000003f0: 4de7 a3bd 62f7 c6bd 6bbe 123f 0776 c63d

action_model._discrete_distribution.branches.1.bias f4 [2]
0.02542381 -0.025423199
00000000: 9845 d03c 5044 d0bc
