Assets/Onx/MoveAgent2D-110M_2DGround.onnx (onnx, 423660 bytes, 15 tensors)

discrete_act_size_vector f4 [1, 5]
3.0 2.0 2.0 2.0 3.0
00000000: 0000 4040 0000 0040 0000 0040 0000 0040
00000010: 0000 4040

network_body._body_endoder.seq_layers.0.weight f4 [256, 130]
0.15258528 0.5337737 0.04319569 0.12016981 -0.2486655 -0.003986993 0.27336496 -0.74140644
-0.49565986 0.39107504 0.71619475 -0.082150936 0.2607396 -0.5706852 0.08365944 -0.024286207
-0.111736126 -0.16367793 -0.7737546 0.72349334 0.20820571 -0.26277068 0.2774598 -0.6648154
-0.18768106 -0.17776854 0.10642374 -0.6208738 -0.050426733 -0.14863583 0.41294146 -0.02786598
-0.52765715 -0.42581692 -0.103323966 0.43199667 -0.20404513 -0.07915428 0.0930483 -0.39563906
-0.273651 -0.37859237 0.39994186 0.20968115 -0.115906805 -0.3458735 -0.29241574 0.48672807
-0.35807577 -0.37090054 0.42872533 -0.017099138 -0.21911551 -0.39416826 -0.48589277 0.026908921
0.15636347 0.25704107 0.22378463 -0.13540864 -0.28922895 -0.2201931 -0.21671438 -0.74145156
0.17288932 0.1737512 0.07254941 0.118562095 -0.600704 -0.39965755 -0.8076192 -0.20733917
0.12419569 0.15554824 0.3931044 -0.23489876 -0.5970312 -0.578174 -0.4571494 0.20348445
-0.147725 -0.19467765 0.23490795 0.4173865 -0.4995928 -0.45709163 -0.7849804 -0.23483123
-0.12536238 -0.039600816 -0.47945434 0.3534307 -0.18642016 -0.049603827 -0.21265455 -0.49748892
-0.09831705 0.06269341 -0.4150668 -0.33396405 -0.06237702 0.14501145 -0.36441693 1.0274612
-0.3333099 -0.27226162 -0.87608033 -0.28032303 0.08170868 0.04451487 -0.32959175 0.03470261
-0.18514892 -0.16810642 -0.90072626 -0.35069332 0.0132816285 0.12198482 -0.670093 1.098595
-0.3658928 -0.16325274 -1.0484159 -0.3810878 0.11892264 0.015210354 -0.86462295 0.14751476
0.08627817 0.046574388 -0.15991834 0.5643593 -0.34815857 -0.11272172 -0.10216268 -0.431421
0.013292397 -0.11379805 0.04344593 -0.2829064 -0.39255613 -0.09823719 0.571202 -0.16785124
-0.03082739 0.03966009 -0.55006486 -0.28017908 0.014190597 -0.41608533 -0.24831176 0.07678936
-0.67674035 0.5934206 -0.0066763614 0.14505981 -0.9038282 0.23736522 0.09206412 0.13485947
-0.021661246 -0.34770602 0.11753694 -0.08750296 -0.311997 0.466834 0.11003541 -0.034233082
-0.06487873 0.16087113 -0.027998893 -0.20247333 -0.1870326 0.05483501 -0.11317062 -0.09740278
0.16351351 -0.58433324 -0.28921992 0.055217713 -0.12605439 0.4497983 -0.33334315 -0.22140376
-0.02118147 0.14088152 -0.31216067 -0.36441484 -0.6963043 0.065101005 -0.092983454 0.009886797
-0.804054 -0.029203037 0.08818447 -0.037753902 -0.41345966 0.31491652 -0.22186555 -0.19347063
-0.1949658 0.06480503 -0.16787429 -0.23019467 -0.13933574 -0.01567249 -0.05233751 -0.013652908
0.10125815 -0.12514685 -0.41215172 -0.27443928 -0.07587358 0.33438608 -0.33906445 -0.3329687
0.21797644 -0.36546704 -0.33929965 -0.36021677 0.07549372 -0.21132918 -0.54559034 -0.34803382
-0.73903435 0.18198228 0.12963381 0.0976607 -0.57848537 -0.17945498 -0.04962995 -0.08281108
-0.7612424 -0.052981444 0.29026523 0.27251452 -0.19520517 0.4054732 -0.107649505 -0.07126243
-0.72507447 -0.32527387 0.4119867 0.30621228 -0.3075002 -0.03487153 -0.16025724 -0.08497637
-0.5816511 0.044588674 -0.12930565 0.12443145 0.40503594 -0.489883 -0.46000543 -0.25552794
00000000: 513f 1c3e 65a5 083f f7ed 303d 971b f63d
00000010: 2ba2 7ebe 52a5 82bb 7ef6 8b3e d0cc 3dbf
00000020: 21c7 fdbe fd3a c83e 8a58 373f c03e a8bd
00000030: a97f 853e 6d18 12bf a455 ab3d def3 c6bc
00000040: e9d5 e4bd 309b 27be c814 46bf dc36 393f
00000050: e133 553e e189 86be 360f 8e3e 5831 2abf
00000060: 772f 40be f508 36be b1f4 d93d 96f1 1ebf
00000070: 438c 4ebd fe33 18be 106d d33e 3247 e4bc
00000080: 8a14 07bf ad04 dabe 849b d3bd ab2e dd3e
00000090: 35f1 50be a41b a2bd 1b90 be3d 3491 cabe
000000a0: fc1b 8cbe dcd6 c1be 2ec5 cc3e a8b6 563e
000000b0: 8c60 edbd 5516 b1be 84b7 95be 6c34 f93e
000000c0: b555 b7be ade6 bdbe e381 db3e 7e13 8cbc
000000d0: d15f 60be 6cd0 c9be f0c6 f8be 1970 dc3c
000000e0: bf1d 203e e39a 833e cc27 653e 90a8 0abe
000000f0: d115 94be 4d7a 61be 60ea 5dbe c5cf 3dbf
00000100: e609 313e d6eb 313e c994 943d afd0 f23d
00000110: bdc7 19bf ea9f ccbe 22c0 4ebf b850 54be
00000120: 4f5a fe3d 0a48 1f3e fb44 c93e 4d89 70be
00000130: 09d7 18bf 3603 14bf 7c0f eabe 3a5e 503e
00000140: 3945 17be 9459 47be b68b 703e afb3 d53e
00000150: a1ca ffbe ea07 eabe 7af4 48bf 9977 70be
00000160: ff5e 00be 7734 22bd 0a7b f5be def4 b43e
00000170: ede4 3ebe 622d 4bbd 1dc2 59be deb6 febe
00000180: 735a c9bd 6765 803d a383 d4be 56fd aabe
00000190: 0c7f 7fbd e27d 143e db94 babe d983 833f
000001a0: 98a7 aabe e065 8bbe cd46 60bf 8086 8fbe
000001b0: e156 a73d 3955 363d 40c0 a8be 5324 0e3d
000001c0: ae97 3dbe 1724 2cbe ff95 66bf 138e b3be
000001d0: 309b 593c 2dd3 f93d 378b 2bbf c39e 8c3f
000001e0: 4d56 bbbe ba2b 27be 7e32 86bf f11d c3be
000001f0: b78d f33d d934 793c ee57 5dbf 1c0e 173e
00000200: 9cb2 b03d c9c4 3e3d a2c1 23be da79 103f
00000210: d741 b2be a5da e6bd ab3a d1bd 37e3 dcbe
00000220: 5bc8 593c f40e e9bd 5cf4 313d 1cd9 90be
00000230: 1efd c8be 9430 c9bd 4b3a 123f 32e1 2bbe
00000240: b989 fcbc 9e72 223d 0dd1 0cbf a273 8fbe
00000250: ae7f 683c 2309 d5be 7045 7ebe bd43 9d3d
00000260: db3e 2dbf 6aea 173f 61c5 dabb 8f8a 143e
00000270: 4961 67bf de0f 733e 1d8c bc3d 9a18 0a3e
00000280: ed72 b1bc 8606 b2be 35b7 f03d c034 b3bd
00000290: 12be 9fbe de04 ef3e 3f5a e13d fd37 0cbd
000002a0: 24df 84bd 67bb 243e ef5d e5bc 2b55 4fbe
000002b0: 7985 3fbe ad9a 603d ffc5 e7bd 1c7b c7bd
000002c0: 1670 273e dd96 15bf a214 94be f82b 623d
000002d0: 6714 01be f64b e63e f4ab aabe abb7 62be
000002e0: c384 adbc 3f43 103e 86d3 9fbe 9594 babe
000002f0: 0041 32bf ad53 853d 1c6e bebd 3bfc 213c
00000300: 7cd6 4dbf 353b efbc 0f9a b43d d6a3 1abd
00000310: fcb0 d3be bd3c a13e b930 63be 2a1d 46be
00000320: 1da5 47be 80b8 843d 3de7 2bbe 27b8 6bbe
00000330: 07ae 0ebe 9863 80bc db5f 56bd 72b0 5fbc
00000340: 6f60 cf3d 7f26 00be 8d05 d3be 4e83 8cbe
00000350: 9c63 9bbd a734 ab3e db99 adbe e07a aabe
00000360: 3735 5f3e 7f1e bbbe afb8 adbe 556e b8be
00000370: 749c 9a3d ad66 58be cfab 0bbf 7d31 b2be
00000380: 5b31 3dbf 9059 3a3e babe 043e 5502 c83d
00000390: 9e17 14bf 0cc3 37be c648 4bbd db98 a9bd
000003a0: c8e0 42bf 1203 59bd a59d 943e 0687 8b3e
000003b0: dde3 47be 2f9a cf3e 5877 dcbd 09f2 91bd
000003c0: 7b9e 39bf 4c8a a6be ecef d23e dbc7 9c3e
000003d0: ab70 9dbe 73d5 0ebd 791a 24be 1708 aebd
000003e0: 16e7 14bf 9da2 363d b368 04be ebd5 fe3d
000003f0: df60 cf3e f2d1 fabe d585 ebbe 8fd4 82be

network_body._body_endoder.seq_layers.0.bias f4 [256]
-0.15532856 -0.3402525 0.009896291 -0.22989623 -0.33515438 -0.14187475 -0.09732625 -0.18869679
-0.10514081 -0.24202748 -0.21919692 -0.041325536 -0.010783376 0.12952995 0.0804518 -0.23104323
-0.2411222 -0.28512454 -0.43864626 -0.18214625 0.024088897 -0.23688604 -0.17863178 -0.042058975
-0.30250385 -0.10943066 0.12358873 -0.14931624 -0.1992805 -0.16481765 -0.35603872 -0.022445818
0.033714272 -0.0877928 -0.25245085 0.52764934 -0.0357809 -0.20604707 -0.09287805 -0.25815332
-0.084194005 -0.25883645 -0.1632901 -0.18930246 -0.41218114 -0.23622605 -0.15651822 -0.18179904
0.26133466 -0.14366469 -0.26438138 -0.13096443 0.02142824 -0.045521766 0.017796692 0.075876884
0.17640524 -0.47380173 -0.26387885 0.024296321 -0.24183264 0.32202005 0.011956812 -0.4561404
-0.39725935 -0.4136972 -0.038583808 -0.08661453 -0.17555477 -0.053977635 -0.14796272 0.22482595
-0.2891258 -0.20459804 -0.41438055 0.026510198 -0.09146652 -0.11998958 -0.25405562 -0.14826937
-0.25120807 -0.2206664 -0.06510472 -0.46023548 -0.36738288 0.16658327 -0.2557217 -0.06458725
-0.22555846 -0.38317132 -0.0029695807 -0.117209785 -0.058000397 -0.095438346 -0.28207758 -0.20029184
-0.18713935 -0.28708574 0.12237217 -0.12103849 -0.09739123 -0.424088 -0.52749574 -0.008824269
-0.25049043 -0.08895027 0.14901358 -0.15470669 0.012804082 -0.14774321 -0.091851726 -0.43346015
0.074159026 -0.27735093 -0.007476549 -0.3190848 -0.2746659 -0.25783122 -0.28360257 -0.080026925
0.14974093 -0.14096552 -0.2077741 -0.2083427 0.021355627 -0.35439923 -0.045765206 -0.1186522
0.39903164 -0.3425426 0.017474651 -0.2647925 -0.011568598 0.48209685 -0.113950305 -0.28176513
-0.25838625 -0.28158587 -0.42297137 -0.17864092 -0.09714416 -0.26012275 -0.4072737 -0.059529305
-0.18464686 -0.049435314 -0.3048839 0.11504696 -0.24881826 -0.1192041 -0.061100002 -0.21328905
-0.21517 0.056576587 -0.22388293 -0.14990328 -0.09658143 -0.19847007 -0.14062586 -0.3029316
-0.38568395 -0.12516572 -0.13541588 -0.12088104 -0.163781 -0.10408951 -0.16542226 -0.14101008
-0.35489696 -0.13432015 0.19963925 0.42257687 -0.2838061 -0.14069173 -0.11890788 -0.21580663
-0.14290047 -0.008452557 -0.2507046 -0.014104804 -0.011903663 -0.38848522 0.047232833 -0.21467397
-0.16335088 -0.06956668 -0.09910321 -0.07854175 -0.3755649 -0.18823126 -0.15500663 -0.059142627
-0.30884355 -0.41325372 -0.2214389 -0.06070991 0.00964377 -0.14187224 -0.0652297 -0.310859
0.03434887 -0.22558917 -0.17888696 -0.300659 -0.13127422 0.0021535293 0.24942048 -0.27638006
-0.17797793 -0.14756425 -0.2793773 -0.33217886 0.10679257 -0.38906804 -0.36158812 -0.11537415
-0.45125294 -0.24782515 -0.18115793 0.024091704 -0.20570369 0.0015282976 0.15448268 -0.012759862
-0.39060685 -0.115545616 -0.38106766 -0.30640382 -0.12642 -0.043472838 0.09077082 0.12959725
-0.008379537 0.05140662 -0.24118683 -0.1862082 -0.2017634 -0.24805228 -0.08912797 -0.14096233
-0.30891743 -0.23659179 -0.11310335 -0.08936557 -0.15553218 -0.0674499 -0.33022782 -0.35973752
-0.13745545 0.068728015 -0.22474755 -0.02773938 -0.38048133 -0.09570639 -0.22503832 -0.013043101
00000000: 730e 1fbe 9335 aebe 0e24 223c eb69 6bbe
00000010: 5b99 abbe 9d47 11be fc52 c7bd bb39 41be
00000020: 1154 d7bd 0dd6 77be 2875 60be f744 29bd
00000030: c2ac 30bc 80a3 043e eac3 a43d 9996 6cbe
00000040: bde8 76be d8fb 91be 3e96 e0be 8c84 3abe
00000050: 1456 c53c 4192 72be 40eb 36be 0846 2cbd
00000060: c9e1 9abe 2f1d e0bd 171c fd3d 5be6 18be
00000070: 3010 4cbe f5c5 28be b54a b6be 4be0 b7bc
00000080: fa17 0a3d b6cc b3bd 3d41 81be 0714 073f
00000090: fe8e 12bd 01fe 52be d936 bebd ac2c 84be
000000a0: e86d acbd 3686 84be 8535 27be 81d8 41be
000000b0: 6809 d3be 3ee5 71be 5046 20be 8729 3abe
000000c0: a8cd 853e d61c 13be ff5c 87be 8a1b 06be
000000d0: 478a af3c 0875 3abd 5eca 913c 5765 9b3d
000000e0: 93a3 343e 2496 f2be 211b 87be 1409 c73c
000000f0: faa2 77be d0df a43e 81e6 433c 3c8b e9be
00000100: 9465 cbbe 1fd0 d3be 0e0a 1ebd f562 b1bd
00000110: a1c4 33be a717 5dbd 8a83 17be c638 663e
00000120: 4c08 94be 2682 51be b029 d4be ea2b d93c
00000130: cd52 bbbd 19bd f5bd 9413 82be edd3 17be
00000140: 589e 80be 5ff6 61be a055 85bd fca3 ebbe
00000150: 9c19 bcbe ce94 2a3e f4ed 82be 5246 84bd
00000160: ccf8 66be 082f c4be 4c9d 42bb af0b f0bd
00000170: d391 6dbd 2e75 c3bd 796c 90be 4e19 4dbe
00000180: 75a1 3fbe e7fc 92be 439e fa3d 07e3 f7bd
00000190: 0e75 c7bd 1022 d9be f609 07bf ab93 10bc
000001a0: 4840 80be 8f2b b6bd 0497 183e 6e6b 1ebe
000001b0: 36c8 513c ff49 17be c21c bcbd 7dee ddbe
000001c0: b0e0 973d f100 8ebe d7fd f4bb 155f a3be
000001d0: 02a1 8cbe 7402 84be 5b34 91be 28e5 a3bd
000001e0: b055 193e 4459 10be bcc2 54be ca57 55be
000001f0: fff1 ae3c d173 b5be 4c74 3bbd edff f2bd
00000200: e04d cc3e be61 afbe 0027 8f3c e292 87be
00000210: 388a 3dbc 66d5 f63e c75e e9bd 8543 90be
00000220: 344b 84be 062c 90be b48f d8be a5ed 36be
00000230: 84f3 c6bd cf2e 85be 2e86 d0be 00d5 73bd
00000240: 1114 3dbe af7c 4abd be19 9cbe be9d eb3d
00000250: 37ca 7ebe 4721 f4bd ff43 7abd 7268 5abe
00000260: 8655 5cbe dabc 673d 9141 65be 3f80 19be
00000270: 7ccc c5bd bd3b 4bbe 3a00 10be da19 9bbe
00000280: 5e78 c5be 712b 00be 76aa 0abe 7b90 f7bd
00000290: 35b6 27be e22c d5bd 7464 29be f264 10be
000002a0: 0eb5 b5be 398b 09be 3b6e 4c3e ff5b d83e
000002b0: 084f 91be 7e11 10be f985 f3bd 6afc 5cbe
000002c0: 8054 12be 987c 0abc 5a5c 80be d617 67bc
000002d0: 9507 43bc 89e7 c6be 3777 413d 7ed3 5bbe
000002e0: 7445 27be fa78 8ebd a0f6 cabd 7fda a0bd
000002f0: 0b4a c0be b2bf 40be 0fba 1ebe 8a3f 72bd
00000300: be20 9ebe fe95 d3be e1c0 62be f4aa 78bd
00000310: e700 1e3c f546 11be 2697 85bd e928 9fbe
00000320: 67b1 0c3d d900 67be 252e 37be faef 99be
00000330: c06c 06be 3a22 0d3b 1568 7f3e b081 8dbe
00000340: d93f 36be 151b 17be 8b0a 8fbe 5913 aabe
00000350: 10b6 da3d ed33 c7be 1422 b9be 4849 ecbd
00000360: a00a e7be e0c5 7dbe 7781 39be f75b c53c
00000370: fda3 52be 2851 c83a b530 1e3e bd0e 51bc
00000380: 9ffd c7be 2ea3 ecbd 4d1b c3be f6e0 9cbe
00000390: 3f74 01be 9310 32bd 0de6 b93d 24b5 043e
000003a0: 534a 09bc bf8f 523d aef9 76be 5dad 3ebe
000003b0: 119b 4ebe 6b01 7ebe ba88 b6bd 6e58 10be
000003c0: 6d2a 9ebe 1e45 72be bba2 e7bd 4c05 b7bd
000003d0: d443 1fbe 2c23 8abd 9f13 a9be 842f b8be
000003e0: 1fc1 0cbe 46c1 8c3d 3924 66be b23d e3bc
000003f0: 73ce c2be b601 c4bd 7270 66be bbb2 55bc

network_body._body_endoder.seq_layers.2.weight f4 [256, 256]
-0.60727954 -0.13700776 0.26793638 -0.15703169 -0.3418315 0.017680082 -0.59820765 0.19533005
-0.26794523 -0.39898515 0.17548372 -0.22245868 -0.1597786 -0.16639088 0.06565452 -0.49496683
-0.7636833 0.14574747 1.044897 -0.23619932 -0.32695785 -0.62071556 0.3095144 0.13506086
-0.6676818 0.28587493 -0.36165434 -0.23238437 -0.06083362 -0.48846716 0.17276654 0.06462796
-0.07549788 -0.9214909 -0.5710037 0.051815663 0.065923914 0.069536 0.0070997234 -0.29837114
0.34730673 0.032211017 -0.07805377 0.01432415 0.064120814 -0.048872564 -0.32215804 -0.086013414
-0.22214963 -0.16259454 0.34425187 -0.07648319 -0.31872815 -0.23820421 -0.3568082 0.07922259
-0.4148962 -0.48732343 0.20624827 -0.048691224 0.113503635 -0.23508291 -0.017052291 -0.27893466
-0.3014763 -0.77098775 -0.26936328 -0.8719774 -0.4018884 -0.031746794 -0.5334988 0.031941116
0.39055744 -0.22818239 0.5516726 -0.34140953 -0.2040144 -0.4432566 -0.042490292 -0.5711662
0.39061558 -0.1386562 -0.1563347 -0.05372094 0.10108218 -0.1936782 -0.360494 -0.37540993
-0.010913228 0.5337655 0.5175618 -0.6122554 -0.41841242 0.10094592 -0.3869558 -0.004430317
0.46436098 -0.21388751 -0.34830093 0.1946708 0.55945843 0.35143447 -0.11556543 -0.24995317
0.31109178 -0.1832886 0.003862546 -0.77550656 0.10404621 -0.21938272 0.43205354 0.16665779
-0.2598691 -0.059062842 0.070555575 -0.11136735 -0.24961355 -0.195049 -0.62369144 0.30489278
0.3386508 -0.34207514 -0.6705672 -0.1669742 -0.07748585 -0.4563708 -0.2820761 0.028280431
0.121268794 -0.5106664 0.23948044 0.10719932 -0.34061745 -0.2618502 -0.7252646 0.03551576
0.34441987 -0.21819524 -0.24155281 0.2018121 -0.31806928 0.30141038 -0.5381484 -0.13668194
0.12783317 -0.18873958 -0.11589449 -0.21208906 -0.39087978 -0.45126116 -0.26837844 -0.12480949
-0.13620646 -0.33952072 -0.65878034 -1.121391 -0.83223236 -0.47395605 0.5541792 -0.3011621
-0.1739342 -0.26540422 -0.5767218 -0.37980786 -0.33147436 -0.23353149 -0.41754812 -0.30046386
0.21936218 -0.83167166 0.06654719 -0.012629896 -0.41154796 -0.5520332 -0.10690839 -0.050489943
0.23288743 -0.21012087 0.42773157 -0.72467476 -1.0026779 -0.4727838 -0.83713275 -0.17130311
-0.11886414 -0.34427163 0.14483257 -0.33578107 -0.0037504719 -0.18050809 -0.28182894 -0.16321446
-0.08354073 -0.01801017 -0.15820064 0.19982623 -0.21420899 -0.39259964 0.48793638 -0.7530182
0.16593768 -0.059294827 0.25018045 -0.15968785 0.055276353 -0.65248215 -0.119111806 -0.15769169
0.10865895 -0.18719016 -0.10571541 -0.13220504 -0.32668784 -0.27325514 -0.39869472 0.17420831
-0.13142422 -0.048314806 -0.17714144 0.111052185 0.008151537 0.6562672 0.20004696 -0.32184467
0.2614288 -0.24018867 0.4904231 -0.22877449 0.57322335 -0.25857416 -0.16608945 -0.3293498
-0.30947495 -0.62566036 -0.13184805 0.14920051 0.23795052 -0.07260979 -0.5389664 -0.039516646
-0.17912126 0.19345129 0.663621 0.4172707 -0.11591098 0.22996388 0.27591708 0.04742479
0.14406374 -0.32068485 0.05696389 0.08342809 0.38811943 -0.17761822 0.043722223 -0.14888683
00000000: ac76 1bbf c34b 0cbe f52e 893e eacc 20be
00000010: 8a04 afbe d2d5 903c 2324 19bf 9a04 483e
00000020: 1e30 89be c847 ccbe 01b2 333e 35cc 63be
00000030: 009d 23be 5f62 2abe e175 863d 4b6c fdbe
00000040: c080 43bf d33e 153e 2fbf 853f 3cde 71be
00000050: 0567 a7be 37e7 1ebf ac78 9e3e 654d 0a3e
00000060: 32ed 2abf 335e 923e c22a b9be 2bf6 6dbe
00000070: ad2c 79bd 5e18 fabe b6e9 303e aa5b 843d
00000080: a29e 9abd d4e6 6bbf 4c2d 12bf a93c 543d
00000090: 1e03 873d e468 8e3d cca4 e83b 1ac4 98be
000000a0: 30d2 b13e b3ef 033d a8da 9fbd d7af 6a3c
000000b0: c651 833d 992e 48bd e6f1 a4be cd27 b0bd
000000c0: 317b 63be 2f7f 26be c841 b03e 38a3 9cbd
000000d0: 5630 a3be ceeb 73be 90af b6be 743f a23d
000000e0: 466d d4be 7582 f9be bf32 533e 7370 47bd
000000f0: 9874 e83d 93b9 70be 3fb1 8bbc 86d0 8ebe
00000100: 1a5b 9abe 745f 45bf fce9 89be e939 5fbf
00000110: 51c4 cdbe ed08 02bd 6193 08bf b0d4 023d
00000120: 25f7 c73e a5a8 69be 6a3a 0d3f 3bcd aebe
00000130: 27e9 50be 87f2 e2be 4d0a 2ebd f337 12bf
00000140: c4fe c73e e4fb 0dbe 3416 20be 7d0a 5cbd
00000150: 2d04 cf3d 9453 46be ab92 b8be bb35 c0be
00000160: 65cd 32bc dba4 083f ee7e 043f c5bc 1cbf
00000170: 273a d6be bcbc ce3d 121f c6be 312c 91bb
00000180: b9c0 ed3e 5405 5bbe 8054 b2be c857 473e
00000190: ab38 0f3f 38ef b33e 91ad ecbd b9f3 7fbe
000001a0: 6c47 9f3e 02b0 3bbe c522 7d3b 9987 46bf
000001b0: 2e16 d53d dda5 60be 1f36 dd3e 57a8 2a3e
000001c0: 900d 85be e1eb 71bd 717f 903d 9114 e4bd
000001d0: b29a 7fbe edba 47be 3eaa 1fbf e81a 9c3e
000001e0: a363 ad3e 7924 afbe 4baa 2bbf 49fb 2abe
000001f0: e7b0 9ebd 6fa9 e9be 476c 90be 5dac e73c
00000200: c65b f83d 08bb 02bf 5c3a 753e 518b db3d
00000210: 6965 aebe 3b11 86be f1aa 39bf f978 113d
00000220: cd57 b03e 936e 5fbe 9f59 77be d5a7 4e3e
00000230: fad9 a2be 7652 9a3e 18c4 09bf 5af6 0bbe
00000240: b3e6 023e f344 41be 175a edbd e02d 59be
00000250: 6521 c8be b40b e7be e668 89be 1e9c ffbd
00000260: b579 0bbe a9d5 adbe d4a5 28bf be89 8fbf
00000270: 2e0d 55bf 5eaa f2be b0de 0d3f eb31 9abe
00000280: cf1b 32be 10e3 87be 0aa4 13bf 2d76 c2be
00000290: 02b7 a9be e122 6fbe dec8 d5be 66d6 99be
000002a0: 7ba0 603e 6fe8 54bf e549 883d a0ed 4ebc
000002b0: 6ab6 d2be 0c52 0dbf c9f2 dabd 8bce 4ebd
000002c0: 0b7a 6e3e ed29 57be a2ff da3e 4984 39bf
000002d0: c057 80bf b810 f2be 554e 56bf 156a 2fbe
000002e0: 0b6f f3bd 5f44 b0be fd4e 143e 7feb abbe
000002f0: 7aca 75bb 1dd7 38be e24b 90be b121 27be
00000300: 6717 abbd 108a 93bc 59ff 21be 3f9f 4c3e
00000310: 9a59 5bbe d202 c9be ccd2 f93e cdc5 40bf
00000320: 91eb 293e 22df 72bd a717 803e 3685 23be
00000330: 7569 623d 1209 27bf e4f0 f3bd ee79 21be
00000340: 9588 de3d c7ae 3fbe 5281 d8bd c260 07be
00000350: a143 a7be 19e8 8bbe b721 ccbe aa63 323e
00000360: 1294 06be bfe5 45bd 9164 35be 546f e33d
00000370: 068e 053c 2101 283f 1cd9 4c3e d3c8 a4be
00000380: ffd9 853e 05f4 75be bd18 fb3e dc43 6abe
00000390: c4be 123f d563 84be 5a13 2abe 89a0 a8be
000003a0: 8073 9ebe 472b 20bf 2d03 07be 05c8 183e
000003b0: 4da9 733e 71b4 94bd b4f9 09bf 35dc 21bd
000003c0: 906b 37be 1818 463e 11e3 293f 81a4 d53e
000003d0: bc62 edbd a77b 6b3e 0145 8d3e 7f40 423d
000003e0: 7285 133e ce30 a4be f852 693d 59dc aa3d
000003f0: 97b7 c63e 8de1 35be 1316 333d ca75 18be

network_body._body_endoder.seq_layers.2.bias f4 [256]
-0.18901704 -0.38911268 -0.22712345 -0.05043534 -0.106522724 -0.20136777 0.01689076 -0.31854337
-0.3312834 -0.318798 -0.3114668 -0.15484144 -0.07971193 -0.03634397 -0.46408966 -0.26150146
-0.23557942 -0.5110012 -0.36767218 -0.29449093 -0.37672973 -0.4451156 -0.43419722 -0.21902062
-0.37088108 -0.24260904 -0.093294814 -0.4960311 -0.23747532 -0.32199278 -0.2886994 -0.17703636
-0.3631628 -0.31881654 -0.3552016 -0.35707307 -0.2786198 -0.33618468 -0.3189584 -0.45462716
-0.42400032 -0.26073405 -0.29364827 -0.49547932 -0.08264743 -0.28673384 -0.32217345 -0.22360453
-0.36241525 -0.202932 -0.23481937 -0.48476046 -0.30074546 -0.115572855 -0.2350061 -0.2887222
-0.19498783 -0.39742798 -0.20281653 -0.3316659 -0.30749822 -0.42766604 -0.3450986 -0.117966786
-0.31264654 -0.19246759 -0.4661361 -0.48150024 -0.18001707 -0.3139501 -0.41644526 -0.21956804
-0.32708725 -0.4196614 -0.32988942 -0.22008197 -0.32972193 -0.24306616 -0.30988637 -0.14055645
-0.4464929 0.006625736 -0.33453473 -0.24349879 -0.32302356 -0.12391745 -0.31890616 -0.05172876
-0.07739828 -0.39849755 -0.55650276 -0.5322446 -0.29731134 -0.268167 -0.22945501 -0.33733824
-0.18555886 -0.2512198 -0.3355417 -0.005142296 -0.36119738 -0.5608503 -0.050279822 -0.18053551
-0.16827318 -0.046142325 -0.25010738 -0.4031903 -0.51589316 -0.23008615 0.033446852 -0.64671046
-0.20461917 -0.10018283 -0.038351372 -0.034869704 -0.40315473 -0.2616838 -0.32873625 -0.29610616
-0.1885562 -0.31317052 -0.2378197 -0.26348713 -0.32858387 -0.39313397 -0.368716 -0.23913908
-0.45508185 -0.53056985 -0.24856147 -0.09731387 -0.15797308 -0.2733409 -0.30924767 -0.14037253
-0.15895374 -0.44705525 -0.4719943 -0.22138795 -0.04941535 -0.12516928 -0.26254296 -0.4473705
-0.5236449 -0.114815496 -0.42005542 -0.33815655 -0.38910654 -0.22595572 -0.09437806 -0.036834978
-0.4091097 -0.13766535 0.10004959 -0.23022418 -0.26152202 -0.4792679 0.27682132 -0.37077734
-0.021160508 -0.3001561 -0.29342857 -0.21839128 -0.19580436 -0.2185291 -0.26889336 -0.46286023
-0.16940573 -0.13283673 -0.29947445 -0.5547603 -0.41908163 -0.22155812 -0.4317363 -0.33371133
-0.24420294 0.13135035 -0.18449286 -0.15106831 -0.60743344 -0.4141457 -0.19774695 -0.44903058
-0.28181544 -0.44757402 -0.13354033 -0.29979202 -0.31584805 -0.15172328 -0.38902566 -0.23506485
-0.072823524 -0.402596 -0.51932126 -0.273854 -0.10303213 -0.15952498 -0.33941182 -0.18015988
-0.18774754 -0.21199584 -0.24247542 -0.48724905 -0.23619385 -0.5779672 -0.37019074 -0.56299525
-0.28400669 -0.17923382 -0.5597721 -0.23589754 -0.20152438 -0.5018589 -0.04980893 -0.3153927
-0.4535332 -0.030083409 -0.13014609 -0.2958014 -0.39713773 -0.39982733 -0.3442308 -0.46794483
-0.29843897 -0.38142237 -0.41158414 -0.35999048 -0.16698708 -0.04366236 -0.25137633 -0.31093937
-0.33147964 -0.3083545 -0.3299904 -0.44990006 -0.44077033 -0.25427127 -0.46433103 -0.44878474
-0.39637068 -0.33660144 0.015204061 -0.18372801 -0.11893507 -0.38763848 -0.20311828 -0.49064198
-0.4384871 -0.3451244 -0.38588947 -0.39730537 -0.42742845 -0.26799187 -0.1457577 -0.33364993
00000000: af8d 41be c739 c7be 0d93 68be 4995 4ebd
00000010: 9628 dabd 5a33 4ebe 7e5e 8a3c 1e18 a3be
00000020: fa9d a9be 7e39 a3be 9478 9fbe c18e 1ebe
00000030: 0240 a3bd 6add 14bd 299d edbe 85e3 85be
00000040: bb3b 71be fad0 02bf 873f bcbe 84c7 96be
00000050: b8e2 c0be 31e6 e3be 194f debe f146 60be
00000060: 20e4 bdbe 816e 78be 5a11 bfbd caf7 fdbe
00000070: bb2c 73be 3ddc a4be 68d0 93be 0549 35be
00000080: 79f0 b9be ec3b a3be fcdc b5be 48d2 b6be
00000090: 41a7 8ebe 6620 acbe 844e a3be e4c4 e8be
000000a0: 9216 d9be ef7e 85be 1159 96be 77af fdbe
000000b0: 0e43 a9bd c7ce 92be ebf3 a4be 96f8 64be
000000c0: 7e8e b9be 68cd 4fbe 7d74 70be 8632 f8be
000000d0: 4ffb 99be 76b1 ecbd 70a5 70be 65d3 93be
000000e0: e4aa 47be ae7b cbbe 23af 4fbe 1dd0 a9be
000000f0: 6870 9dbe 0bf7 dabe c4b0 b0be 9298 f1bd
00000100: 3513 a0be 3916 45be 64a9 eebe 3387 f6be
00000110: 6556 38be 11be a0be 5038 d5be 72d6 60be
00000120: fb77 a7be dcdd d6be 44e7 a8be 2b5d 61be
00000130: 50d1 a8be 56e6 78be 6da9 9ebe 08ee 0fbe
00000140: b89a e4be b41c d93b 2348 abbe bf57 79be
00000150: 5863 a5be 6fc8 fdbd ab47 a3be 89e1 53bd
00000160: fd82 9ebd df07 ccbe f776 0ebf 2f41 08bf
00000170: 3139 98be 2f4d 89be 41f6 6abe 99b7 acbe
00000180: 2403 3ebe e29f 80be 1fcc abbe b580 a8bb
00000190: ddee b8be e393 0fbf 37f2 4dbd 4dde 38be
000001a0: ce4f 2cbe bcff 3cbd 130e 80be f66e cebe
000001b0: 9311 04bf b49b 6bbe 91ff 083d d18e 25bf
000001c0: b087 51be a82c cdbd 5416 1dbd 89d3 0ebd
000001d0: 4c6a cebe 6bfb 85be 1e50 a8be 3a9b 97be
000001e0: e014 41be e357 a0be 0287 73be c9e7 86be
000001f0: 253c a8be db48 c9be 58c8 bcbe e0e0 74be
00000200: 7d00 e9be 6dd3 07bf e686 7ebe 7f4c c7bd
00000210: b2c3 21be 57f3 8bbe b655 9ebe d1bd 0fbe
00000220: c5c4 22be 6de4 e4be 3da9 f1be 86b3 62be
00000230: c067 4abd 602c 00be 086c 86be bf0d e5be
00000240: 980d 06bf 6324 ebbd 8111 d7be db22 adbe
00000250: f938 c7be f060 67be 4949 c1bd 46e0 16bd
00000260: d476 d1be 25f8 0cbe cde6 cc3d e3bf 6bbe
00000270: 37e6 85be 9a62 f5be 86bb 8d3e 87d6 bdbe
00000280: cd58 adbc 0fae 99be 453c 96be f7a1 5fbe
00000290: f080 48be 18c6 5fbe 64ac 89be 04fc ecbe
000002a0: b278 2dbe 5a06 08be b754 99be c504 0ebf
000002b0: de91 d6be 22e0 62be 8a0c ddbe 36dc aabe
000002c0: 5610 7abe b580 063e b2eb 3cbe a7b1 1abe
000002d0: c280 1bbf e80a d4be 2d7e 4abe 56e7 e5be
000002e0: 1d4a 90be 6c28 e5be ccbe 08be 577e 99be
000002f0: d6b6 a1be 595d 1bbe 5f2e c7be d7b4 70be
00000300: 8024 95bd 1021 cebe 3df2 04bf 9736 8cbe
00000310: 8202 d3bd 845a 23be 63c7 adbe d57b 38be
00000320: e440 40be 7015 59be 7a4b 78be b578 f9be
00000330: cddc 71be a9f5 13bf a489 bdbe 7520 10bf
00000340: 5369 91be 1289 37be 394d 0fbf 208f 71be
00000350: 685c 4ebe d379 00bf 7304 4cbd 277b a1be
00000360: 8135 e8be 7b71 f6bc 0445 05be 4873 97be
00000370: a355 cbbe 2bb6 ccbe 053f b0be 7796 efbe
00000380: fecc 98be cb49 c3be 28bb d2be ac50 b8be
00000390: a9fe 2abe 4ed7 32bd 66b4 80be 7233 9fbe
000003a0: b3b7 a9be a4e0 9dbe 80f4 a8be 4d59 e6be
000003b0: a6ac e1be d82f 82be ccbc edbe 1dc7 e5be
000003c0: 19f1 cabe 0657 acbe 741a 793c 3223 3cbe
000003d0: 3b94 f3bd 8d78 c6be 3dfe 4fbe 6d35 fbbe
000003e0: 6281 e0be 25b4 b0be 4e93 c5be 9c6b cbbe
000003f0: e7d7 dabe 3b36 89be 8241 15be 2ad4 aabe

action_model._discrete_distribution.branches.0.weight f4 [3, 256]
0.16469064 0.11809994 0.1449233 0.15284559 -0.011418173 0.22300982 -0.031197147 -0.05976614
0.1961284 0.11844693 -0.16808641 -0.01688217 -0.21412331 -0.0666449 0.19275314 0.25691086
0.061983485 -0.20066106 0.18286166 0.290328 0.09717666 -0.061731853 0.14689218 -0.032662623
0.10803068 0.040072903 -0.21168467 -0.05347916 -0.12861057 -0.10209845 0.13045816 0.27639487
0.22101754 -0.14912276 0.10666041 0.027441245 0.216468 0.21064025 -0.06490615 0.11494583
0.24655248 0.03805174 0.17202255 0.23081927 -0.0110093225 0.21914335 -0.063695826 0.3580892
0.064543314 0.06723498 0.049298152 0.0038947347 -0.13571453 0.09195641 0.022677109 0.10848637
-0.022056727 -0.06189368 0.16665441 0.31252924 0.03618161 -0.026939157 -0.051611193 0.014521226
-0.38092926 -0.03541356 -0.25319844 0.035594154 -0.010815896 -0.1333418 0.20732363 -0.14696953
-0.25301677 -0.13540316 0.2114229 -0.16964097 -0.18283056 0.07131401 0.13499673 -0.11189622
-0.25350147 -0.041028254 -0.09063466 -0.12046734 -0.059100434 0.058277864 -0.047878847 0.1657358
0.19698083 0.03348008 0.162897 0.0641721 0.1595358 0.051199585 0.15723008 -0.23987068
-0.081469245 0.31757498 -0.12235039 0.112005115 0.10890929 -0.012489539 -0.14274478 0.15343179
0.096581265 0.18372831 -0.17816855 0.2933466 0.20953895 0.0047170175 0.009799344 0.3243663
0.071981914 -0.12559253 -0.12283376 0.09028691 -0.010672567 -0.088150114 0.046615012 -0.1319439
0.118588135 -0.13670686 0.08812541 0.10259104 -0.23936749 -0.1481789 0.053449243 0.056547526
0.14813682 0.058752276 0.083119966 0.13005593 0.0155084925 0.11351414 -0.005374823 0.1779009
-0.055787925 0.061134152 0.21675786 0.20687547 0.089485444 0.13499442 0.14656892 -0.054839198
0.25761244 0.05850543 0.17433503 0.056268338 0.11698018 0.09229848 0.14941862 0.29641032
-0.19270335 -0.012887301 -0.04686876 -0.0055038854 0.009547384 -0.033756558 -0.03565251 0.14535104
0.03907986 0.04353831 -0.15026338 -0.00023715323 0.16924517 -0.058938798 -0.06241127 -0.12576585
0.25753278 0.16786543 0.04214764 0.065093815 -0.0023028767 0.1673533 0.14703117 0.1979749
0.3560254 0.15167776 -0.050149713 0.090948 0.20095024 0.047942996 0.008102157 -0.2141809
0.099928245 0.062309563 -0.17017175 0.069458485 -0.07782755 0.01759212 -0.17510001 0.06933807
0.059822414 0.017114706 0.10115389 -0.004455969 -0.007990472 0.16075191 -0.030913305 -0.1400129
-0.011660778 0.22881806 0.023236245 0.31203923 0.25828302 -0.0053894203 -0.117227204 0.14312488
0.4858561 0.17328364 -0.36556673 0.06187156 -0.047840316 0.20448779 0.026490439 -0.009386877
0.10198672 0.16775185 0.21910782 0.3601525 0.27903828 0.076339655 -0.0005164918 -0.08242572
-0.008765838 -0.22905223 -0.082692705 0.1590527 -0.14952704 0.16972217 0.051569436 -0.07764516
-0.0631011 0.09557841 0.03885831 0.20098017 0.06816707 0.039094906 0.054106113 0.28878137
0.095371984 0.03822826 0.024733651 0.15435071 -0.19869874 0.09076264 0.033521947 -0.19459397
-0.256681 -0.09878843 -0.5012733 0.13678835 0.18169035 0.09107556 0.1584482 0.096605286
00000000: aaa4 283e 62de f13d c666 143e 8e83 1c3e
00000010: 4a13 3bbc b05c 643e 2991 ffbc 57cd 74bd
00000020: e2d5 483e 4e94 f23d d81e 2cbe 7a4c 8abc
00000030: 2443 5bbe 1f7d 88bd 1461 453e d289 833e
00000040: 65e2 7d3d 187a 4dbe 1640 3b3e dfa5 943e
00000050: 8f04 c73d 8ada 7cbd e76a 163e 3ec9 05bd
00000060: 303f dd3d 7c23 243d dec3 58be f70c 5bbd
00000070: 7db2 03be fe18 d1bd d396 053e a183 8d3e
00000080: 6c52 623e a3b3 18be c670 da3d 76cc e03c
00000090: caa9 5d3e 14b2 573e 84ed 84bd b868 eb3d
000000a0: 4178 7c3e 24dc 1b3d ae26 303e e35b 6c3e
000000b0: 7260 34bc 1d67 603e f572 82bd 7857 b73e
000000c0: 492f 843d 7eb2 893d dcec 493d ce3e 7f3b
000000d0: c0f8 0abe a453 bc3d 58c5 b93c 1a2e de3d
000000e0: 4fb0 b4bc 3a84 7dbd 74a7 2a3e d503 a03e
000000f0: 2b33 143d 82af dcbc 4266 53bd 70ea 6d3c
00000100: 2909 c3be cf0d 11bd 3aa3 81be 2dcb 113d
00000110: 2835 31bc c18a 08be a54c 543e 2e7f 16be
00000120: 6a8b 81be 20a7 0abe 3f7f 583e 5db6 2dbe
00000130: ef37 3bbe 140d 923d 953c 0a3e d829 e5bd
00000140: f2ca 81be 3e0d 28bd aa9e b9bd 95b7 f6bd
00000150: 4c13 72bd c5b4 6e3d 9c1c 44bd a5b6 293e
00000160: 58b5 493e 6922 093d 79ce 263e a96c 833d
00000170: 5a5d 233e a8b6 513d ec00 213e a9a0 75be
00000180: 59d9 a6bd 3099 a23e d792 fabd f062 e53d
00000190: d50b df3d eca0 4cbc b02b 12be 391d 1d3e
000001a0: 66cc c53d 4623 3c3e d171 36be 8731 963e
000001b0: 6191 563e 3691 9a3b 6e8d 203c 5713 a63e
000001c0: 416b 933d 549b 00be 4490 fbbd 58e8 b83d
000001d0: fedb 2ebc 0c88 b4bd 62ef 3e3d 4d1c 07be
000001e0: 56de f23d e2fc 0bbe 187b b43d 401b d23d
000001f0: c01c 75be 36bc 17be 98ed 5a3d 619e 673d
00000200: 2eb1 173e 3aa6 703d cd3a aa3d 622d 053e
00000210: 5517 7e3c 1a7a e83d 491f b0bb a72b 363e
00000220: e181 64bd ce67 7a3d c6f5 5d3e 2ad7 533e
00000230: 2544 b73d fa3b 0a3e 2a16 163e 119f 60bd
00000240: c7e5 833e 64a3 6f3d e284 323e a179 663d
00000250: 4e93 ef3d fc06 bd3d 3201 193e 18c3 973e
00000260: 0754 45be 4225 53bc 75f9 3fbd f059 b4bb
00000270: a26c 1c3c 5144 0abd 5e08 12bd e7d6 143e
00000280: 3412 203d 3a55 323d a5de 19be 56ac 78b9
00000290: 9b4e 2d3e cf69 71bd f6a2 7fbd c3c8 00be
000002a0: 56db 833e eae4 2b3e 01a3 2c3d e84f 853d
000002b0: dceb 16bb aa5e 2b3e 578f 163e efb9 4a3e
000002c0: f648 b63e 6a51 1b3e c969 4dbd f242 ba3d
000002d0: e6c5 4d3e e05f 443d e9be 043c 3d52 5bbe
000002e0: 2ea7 cc3d 5038 7f3d 8141 2ebe 4040 8e3d
000002f0: 0d64 9fbd 5a1d 903c 6b4d 33be 1e01 8e3d
00000300: 5908 753d 2434 8c3c c529 cf3d 6103 92bb
00000310: 78ea 02bc 269c 243e e63d fdbc 8b5f 0fbe
00000320: d90c 3fbc 484f 6a3e f059 be3c 9bc3 9f3e
00000330: ac3d 843e bc99 b0bb d114 f0bd 548f 123e
00000340: 21c2 f83e 4471 313e 902b bbbe 086d 7d3d
00000350: 35f4 43bd 3f65 513e 7a02 d93c 6acb 19bc
00000360: 6ade d03d 24c7 2b3e cd5d 603e e965 b83e
00000370: 1bde 8e3e f757 9c3d 2e65 07ba d1ce a8bd
00000380: 979e 0fbc ab8c 6abe cb5a a9bd b6de 223e
00000390: 9e1d 19be a6cb 2d3e 793a 533d 6d04 9fbd
000003a0: 263b 81bd 9dbe c33d e429 1f3d bfcd 4d3e
000003b0: 2d9b 8b3d fb21 203d 5f9e 5d3d 27db 933e
000003c0: 6352 c33d 3c95 1c3d 3a9e ca3c 1d0e 1e3e
000003d0: af77 4bbe c3e1 b93d 4f4e 093d a443 47be
000003e0: b16b 83be 9751 cabd 7253 00bf 3f12 0c3e
000003f0: 090d 3a3e d385 ba3d 3f40 223e fed8 c53d

action_model._discrete_distribution.branches.0.bias f4 [3]
-0.03201863 0.12421507 -0.09337874
00000000: f825 03bd 7864 fe3d 5a3d bfbd

action_model._discrete_distribution.branches.1.weight f4 [2, 256]
0.058553383 0.06571261 0.1419947 0.8410606 -0.18491958 0.03822853 -0.105530635 0.10626059
-0.08520484 0.009226845 0.3686303 0.05631472 -0.06824834 -0.0029563208 -0.23765552 0.035728812
-0.009928725 0.05271936 -0.051510263 -0.083428964 0.014890003 -0.12506677 -0.040668864 0.13155429
0.043977294 -0.15099564 -0.19051254 -0.09381952 0.19955732 0.43217832 -0.1994127 0.024512015
0.2181184 0.0022959155 0.083583355 0.8869542 -0.06942772 -0.02133381 -0.11579268 0.120335914
-0.036374934 -0.05279264 -0.16280478 -0.08769342 0.26567823 0.03883134 0.31648475 -0.06626371
-0.06404213 0.18226665 0.05198546 -0.1285562 -0.0291297 -0.1662392 -0.023917703 -0.1291613
0.05974664 -0.1073984 0.005048389 0.10933454 -0.20317098 -0.10860631 -0.51266515 -0.18753253
0.30965593 -0.06130892 0.05851508 -0.008447633 -0.14179558 -0.078015834 -0.13755117 -0.05183183
-0.29216635 -0.06182693 -0.12240111 0.17767201 0.028102407 -0.09509153 -0.042128146 -0.17454319
-0.16415387 0.04073003 0.25276265 0.095713094 -0.06395075 -0.016744563 -0.10849961 0.036202665
0.11355175 -0.1233341 0.018521218 0.12180152 -0.09965374 0.4048393 0.062144034 -0.008504093
-0.055965398 -0.0077290027 0.35976124 0.2075409 0.1569282 -0.3918523 -0.118002474 -0.02129052
0.3367639 -0.07628123 -0.12041445 0.10394745 -0.04429527 -0.16875587 0.082010984 0.19095828
-0.02836201 -0.015821354 -0.012039516 0.35278913 0.06646009 0.14336105 0.031124456 -0.16703577
-0.07086634 -0.19336809 -0.08990743 -0.012647651 -0.03938737 -0.05027968 -0.07586938 0.04742093
-0.09715709 0.16597746 -0.022035906 -0.039734554 -0.30847946 0.04435321 0.05972671 0.039949074
0.45866826 -0.13207287 0.10294481 -0.0066226698 0.11694542 0.03705106 0.08942298 -0.16763575
-0.120286226 -0.09265229 -0.020221801 0.0035806107 0.25286707 0.15703279 -0.018067902 0.26287872
-0.04881366 0.013922357 0.023975149 -0.18941613 -0.25398216 0.013129721 -0.004985696 -0.06304622
0.097638175 0.0032972503 0.36012992 0.013127185 -0.2041261 -0.09564088 -0.07292486 -0.0968573
0.12837176 0.1325384 -0.008764797 -0.22105503 0.4832662 0.13702202 -0.026599513 0.07437807
-0.43867573 0.009867484 0.033577036 -0.15033095 0.22961271 0.08216873 -0.051857557 0.10636894
-0.0031123438 0.6878509 -0.03651293 -0.1868856 0.022472467 0.045500897 -0.13345708 0.03865068
-0.14371055 -0.10539751 -0.22841369 -0.09987497 0.028688116 0.04630334 -0.24878857 -0.08662396
-0.029724421 0.09118348 -0.108767666 0.18440537 0.15666117 -0.28434193 -0.1947148 0.4636308
-0.12212142 0.057120595 0.038839728 -0.04464657 -0.13079616 -0.06542271 -0.12309558 0.21267319
0.12064568 0.03873952 0.14427818 -0.0035913151 0.0023498917 -0.4396348 -0.069999166 0.1001178
0.077337496 0.110464744 -0.03730287 -0.17670384 -0.095034294 0.23205946 -0.0019539145 -0.0010486905
-0.1615747 0.03870467 0.18147275 -0.082848415 -0.013575607 -0.03586892 0.028993454 0.23227459
0.025078524 -0.11341212 0.06768291 0.5941823 0.042335954 0.1569735 -0.27125508 0.024320696
-0.13757153 -0.040704053 -0.05531605 0.07528483 0.0058582807 0.05976675 0.016185168 0.116452195
00000000: acd5 6f3d 5594 863d 0f67 113e bf4f 573f
00000010: 8f5b 3dbe 8595 1c3d 7220 d8bd 279f d93d
00000020: e07f aebd 312c 173c 1cbd bc3e 44aa 663d
00000030: c9c5 8bbd d5be 41bb f85b 73be 6058 123d
00000040: 17ac 22bc 41f0 573d 6dfc 52bd cedc aabd
00000050: 33f5 733c 8111 00be 6594 26bd 2bb6 063e
00000060: 8921 343d 9a9e 1abe b815 43be 7324 c0bd
00000070: c158 4c3e 7a46 dd3e d832 4cbe 6ccd c83c
00000080: 6e5a 5f3e 1277 163b c02d ab3d 6e0f 633f
00000090: 1f30 8ebd 3ec4 aebc b624 edbd ad72 f63d
000000a0: e2fd 14bd 183d 58bd 4cb6 26be 9c98 b3bd
000000b0: fa06 883e 9c0d 1f3d 4a0a a23e 45b5 87bd
000000c0: 8528 83bd 1ca4 3a3e b5ee 543d 3da4 03be
000000d0: 69a1 eebc 9c3a 2abe 0fef c3bc dc42 04be
000000e0: e5b8 743d b1f3 dbbd f56c a53b caea df3d
000000f0: 0e0c 50be fc6c debd 063e 03bf 8708 40be
00000100: 398b 9e3e 101f 7bbd 82ad 6f3d f167 0abc
00000110: dc32 11be c4c6 9fbd 37da 0cbe 9d4d 54bd
00000120: d496 95be 3c3e 7dbd 6fad fabd a7ef 353e
00000130: 0537 e63c 59bf c2bd 908e 2cbd 73bb 32be
00000140: f417 28be 88d4 263d 1b6a 813e 3a05 c43d
00000150: 9cf8 82bd e52b 89bc 0b35 debd 3f49 143d
00000160: d28d e83d 9796 fcbd cfb9 973c 1373 f93d
00000170: 4317 ccbd 1947 cf3e be8a 7e3d c054 0bbc
00000180: f93b 65bd 9343 fdbb a032 b83e 9a85 543e
00000190: c9b1 203e dda0 c8be 48ab f1bd 7569 aebc
000001a0: 516c ac3e 5539 9cbd da9b f6bd 67e2 d43d
000001b0: f56e 35bd 57ce 2cbe 60f5 a73d 918a 433e
000001c0: 7257 e8bc c99b 81bc 6441 45bc c7a0 b43e
000001d0: 3a1c 883d 3dcd 123e b7f8 fe3c 6d0b 2bbe
000001e0: 5f22 91bd 4902 46be 6321 b8bd 1838 4fbc
000001f0: a754 21bd 11f2 4dbd 6861 9bbd 733c 423d
00000200: 4cfa c6bd fff5 293e a584 b4bc b3c0 22bd
00000210: 05f1 9dbe b6ab 353d ffa3 743d a4a1 233d
00000220: 91d6 ea3e 1c3e 07be bbd4 d23d fb02 d9bb
00000230: 1581 ef3d dac2 173d 6523 b73d b5a8 2bbe
00000240: a058 f6bd 7cc0 bdbd 31a8 a5bc aea8 6a3b
00000250: cb77 813e 34cd 203e 2303 94bc 0a98 863e
00000260: d5f0 47bd 991a 643c 8867 c43c 4df6 41be
00000270: f309 82be 0b1e 573c 0d5f a3bb 601e 81bd
00000280: 86f6 c73d ae16 583b f362 b83e 6813 573c
00000290: 6f06 51be 5edf c3bd a159 95bd 1f5d c6bd
000002a0: e373 033e 25b8 073e 399a 0fbc 405c 62be
000002b0: ab6e f73e 804f 0c3e 39e7 d9bc 8853 983d
000002c0: 1b9a e0be 3aab 213c 1388 093d 5bf0 19be
000002d0: 981f 6b3e 1448 a83d 9768 54bd f5d7 d93d
000002e0: 77f8 4bbb ff16 303f 958e 15bd f05e 3fbe
000002f0: 2e18 b83c 265f 3a3d f9a8 08be 2d50 1e3d
00000300: dc28 13be a6da d7bd 47e5 69be 408b ccbd
00000310: 5703 eb3c 92a8 3d3d 6ec2 7ebe e767 b1bd
00000320: a180 f3bc 68be ba3d 95c1 debd c3d4 3c3e
00000330: c96b 203e 4495 91be 5163 47be 0461 ed3e
00000340: cc1a fabd 49f7 693d 6816 1f3d 52df 36bd
00000350: 6eef 05be 57fc 85bd 8919 fcbd 00c7 593e
00000360: 1515 f73d 55ad 1e3d a9bd 133e 455c 6bbb
00000370: a400 1a3b d017 e1be b95b 8fbd 900a cd3d
00000380: 1f63 9e3d 573b e23d e5ca 18bd daf1 34be
00000390: 57a1 c2bd ffa0 6d3e 3f0d 00bb 3774 89ba
000003a0: d773 25be ca88 1e3d fed3 393e 6eac a9bd
000003b0: 396c 5ebc 4aeb 12bd ae83 ed3c 64d9 6d3e
000003c0: 7a71 cd3c 9d44 e8bd 569d 8a3d 551c 183f
000003d0: 7768 2d3d a9bd 203e f2e1 8abe 323c c73c
000003e0: 8ddf 0cbe 4bb9 26bd 1593 62bd ef2e 9a3d
000003f0: d2f6 bf3b fbcd 743d c296 843c 7d7e ee3d

action_model._discrete_distribution.branches.1.bias f4 [2]
-0.0071514524 0.00715187
00000000: bb56 eabb 3c5a ea3b

action_model._discrete_distribution.branches.2.weight f4 [2, 256]
-0.28673437 -0.060379874 -0.018103976 -0.09579349 0.2447146 -0.0043406165 0.46348888 -0.0023616203
-0.20550555 0.020480536 -0.43841094 0.013939236 -0.17644969 -0.06752375 0.03755075 -0.010546552
-0.21303126 0.10755681 0.30357412 0.103397705 -0.15797623 0.12546128 -0.13368854 0.042466987
-0.06897994 0.15187287 -0.09751967 -0.05130883 -0.04330404 -0.06367171 -0.06223934 0.040287077
0.026518088 0.03385703 0.010761608 -0.05730167 0.18649818 -0.23972432 0.13772157 0.075505234
0.33323577 -0.13131186 -0.12893441 0.13288815 0.25505686 -0.2633425 -0.061801627 -0.2718936
0.16697301 -0.10844587 -0.076338306 0.024087435 0.0643247 -0.26924726 0.18443301 -0.103738375
-0.025812207 0.08344119 0.6341988 0.21547051 -0.12240358 0.028184256 -0.10650686 0.45185223
-0.030097188 -0.063556455 -0.06681222 0.060579102 0.19217625 -0.052032392 -0.25842047 -0.22292376
0.021991579 -0.038195606 -0.009372004 0.034659624 -0.11706361 -0.03877519 -0.0026688743 -0.03911427
0.17566147 0.41687322 -0.07715417 0.1433324 -0.04521352 0.018129397 0.061532363 0.09640308
-0.004632931 -0.059008747 0.13041028 -0.03676975 -0.21796519 0.18778037 0.05311864 0.059573658
-0.028789215 -0.048543032 -0.008877353 0.007552905 -0.017713122 0.029394306 0.13180593 -0.075361535
-0.23197193 -0.005083597 -0.27526873 0.38420948 -0.12227446 0.18049799 -0.018471496 -0.38064945
-0.063941754 -0.037562978 -0.12804909 -0.22879785 -0.07063556 0.12802349 0.027959652 0.09348037
0.031100133 0.0619554 0.007947238 0.08881278 0.06587149 -0.023532175 0.114462346 0.13395895
-0.012141498 0.07136926 -0.05736218 0.023611328 0.15279363 0.11834878 -0.04779389 -0.15927203
-0.19450411 0.07453298 0.2599952 0.13927111 -0.10217579 0.042463284 -0.047748704 -0.069197655
-0.117180154 -0.22433746 0.15633868 0.016634027 -0.111846864 -0.09523017 -0.009882697 -0.06143853
-0.33049485 -0.2548283 0.038994603 -0.09668003 0.015602272 0.07705301 0.5774822 0.021491434
-0.017431758 -0.14862981 0.16500385 -0.0556041 0.056298304 -0.048328236 -0.089227565 0.2879989
-0.23389143 -0.31332317 0.012015899 -0.14972535 0.35658008 0.14471543 -0.03304047 0.043386545
-0.16724962 -0.046810646 0.11090547 0.07080844 -0.17955598 0.056064 -0.0884714 0.040789604
-0.039835412 -0.18083906 -0.086709715 -0.056583382 0.022128103 0.042048413 0.06954183 0.02660577
0.07028153 0.105584934 -0.09751638 -0.03349826 -0.5296026 0.036127817 -0.21545899 -0.075087525
0.0439726 -0.041878194 0.13001835 0.52586216 0.050056387 -0.17475481 -0.046174906 -0.112120405
0.11945364 0.06850288 -0.04623645 0.08169126 0.107124664 -0.3960354 -0.44667524 -0.2090822
-0.051030945 0.19933435 -0.11441195 -0.081142284 -0.061198436 0.2916434 0.046903085 -0.03799261
0.03632323 -0.055633493 0.050049264 -0.19227764 -0.13059677 -0.07785471 -0.007492495 -0.3736874
0.13127439 -0.023102185 0.12297871 -0.110093415 -0.14964905 -0.04847552 0.15402633 0.07445827
-0.09938955 0.10836612 -0.09984574 -0.040153835 0.054873917 0.05256165 -0.087551005 -0.044466846
0.11214859 -0.07547704 -0.19431837 0.099628404 0.17036493 0.028014228 -0.05327581 0.05023398
00000000: d9ce 92be e350 77bd ca4e 94bc 612f c4bd
00000010: 7796 7a3e bb3b 8ebb 6a4e ed3e 6ac5 1abb
00000020: 0c70 52be ccc6 a73c 6677 e0be 6561 643c
00000030: 3aaf 34be e449 8abd d1ce 193d 72cb 2cbc
00000040: de24 5abe bf46 dc3d 116e 9b3e 2dc2 d33d
00000050: 85c4 21be ec78 003e a6e5 08be ddf1 2d3d
00000060: 5b45 8dbd 9084 1b3e 65b8 c7bd 3529 52bd
00000070: 945f 31bd 5066 82bd aeee 7ebd 1004 253d
00000080: 763c d93c abad 0a3d 7551 303c 28b5 6abd
00000090: 61f9 3e3e 4b7a 75be e206 0d3e 7da2 9a3d
000000a0: e19d aa3e 9e76 06be 6207 04be d513 083e
000000b0: d096 823e d4d4 86be b423 7dbd a335 8bbe
000000c0: f9fa 2a3e de18 debd 4257 9cbd 0353 c53c
000000d0: abbc 833d c7da 89be 02dc 3c3e c974 d4bd
000000e0: 1f74 d3bc 37e3 aa3d da5a 223f 4da4 5c3e
000000f0: baae fabd abe2 e63c 4520 dabd 2d59 e73e
00000100: 618e f6bc e329 82bd d8d4 88bd cb21 783d
00000110: dac9 443e eb1f 55bd b04f 84be 2046 64be
00000120: af27 b43c ff72 1cbd 098d 19bc 40f7 0d3d
00000130: 0cbf efbd bcd2 1ebd 48e8 2ebb 4936 20bd
00000140: 9ae0 333e 6870 d53e 0103 9ebd bbc5 123e
00000150: d031 39bd 1a84 943c 5c09 7c3d fa6e c53d
00000160: d8cf 97bb 28b3 71bd 468a 053e e19b 16bd
00000170: 4432 5fbe 7f49 403e ee92 593d 8203 743d
00000180: 5cd7 ebbc 0fd5 46bd 5172 11bc 5c7e f73b
00000190: 1c1b 91bc 54cc f03c 22f8 063e 2657 9abd
000001a0: 0d8a 6dbe 4d94 a6bb 06f0 8cbe 1bb7 c43e
000001b0: 086b fabd 77d4 383e 8951 97bc 7ce4 c2be
000001c0: e5f3 82bd a3db 19bd 4d1f 03be fc49 6abe
000001d0: 60a9 90bd 9718 033e a40b e53c a372 bf3d
000001e0: b5c5 fe3c f2c4 7d3d 2235 023c 7ae3 b53d
000001f0: a2e7 863d 8cc6 c0bc 3c6b ea3d 892c 093e
00000200: 22ed 46bc 0c2a 923d 9bf4 6abd 8b6c c13c
00000210: ef75 1c3e d860 f23d 87c3 43bd 3518 23be
00000220: 162c 47be bfa4 983d 171e 853e 169d 0e3e
00000230: 8a41 d1bd fbed 2d3d 2594 43bd 80b7 8dbd
00000240: 26fc efbd b8b8 65be 3f17 203e 1544 883c
00000250: f80f e5bd 0908 c3bd 09eb 21bc f8a6 7bbd
00000260: 9f36 a9be db78 82be ceb8 1f3d 2e00 c6bd
00000270: aca0 7f3c f8cd 9d3d e0d5 133f ce0e b03c
00000280: 0ccd 8ebc 6a32 18be c5f6 283e 20c1 63bd
00000290: 0d99 663d d4f3 45bd f1bc b6bd 9874 933e
000002a0: 3c81 6fbe e56b a0be 55de 443c 9a51 19be
000002b0: aa91 b63e 4830 143e 7255 07bd 17b6 313d
000002c0: 7c43 2bbe 85bc 3fbd 6822 e33d 0404 913d
000002d0: 86dd 37be 5da3 653d 7e30 b5bd 0013 273d
000002e0: 752a 23bd e02d 39be dd94 b1bd fac3 67bd
000002f0: ff45 b53c f53a 2c3d f26b 8e3d 58f4 d93c
00000300: c3ef 8f3d ea3c d83d abb6 c7bd 7935 09bd
00000310: 0994 07bf c3fa 133d 48a1 5cbe 7dc7 99bd
00000320: 9d1c 343d 7888 2bbd 8823 053e e79e 063f
00000330: ed07 4d3d edf2 32be e621 3dbd 629f e5bd
00000340: 1ca4 f43d 3d4b 8c3d 6f62 3dbd bf4d a73d
00000350: 2d64 db3d 27c5 cabe 9eb2 e4be a519 56be
00000360: d305 51bd 4e1e 4c3e d050 eabd ed2d a6bd
00000370: 36ab 7abd 4952 953e 731d 403d 249e 1bbd
00000380: abc7 143d f2df 63bd 7500 4d3d 6ee4 44be
00000390: 29bb 05be 4a72 9fbd 9a83 f5bb f453 bfbe
000003a0: cb6c 063e cb40 bdbc 43dc fb3d a878 e1bd
000003b0: 9a3d 19be 448e 46bd 14b9 1d3e 947d 983d
000003c0: c08c cbbd 0eef dd3d ec7b ccbd 5978 24bd
000003d0: 79c3 603d e24a 573d f14d b3bd de22 36bd
000003e0: 29ae e53d b593 9abd 65fb 46be fa09 cc3d
000003f0: 2574 2e3e 187e e53c bc37 5abd 25c2 4d3d

action_model._discrete_distribution.branches.2.bias f4 [2]
0.1377792 -0.1377787
00000000: fe15 0d3e dc15 0dbe

action_model._discrete_distribution.branches.3.weight f4 [2, 256]
-0.26901892 0.06473062 0.062328275 0.12725416 0.029331934 0.039415844 0.04849467 0.046445683
-0.18236858 0.05161906 0.5134809 -0.021706799 -0.12582532 0.029837731 -0.018486928 -0.04179066
0.006608904 0.009046347 0.09301342 0.12449739 0.017110387 0.14949195 0.05973597 0.0646712
-0.15342103 -0.13592526 0.23705249 0.2545358 0.06043908 0.05856216 -0.08120446 -0.11646227
-0.016960714 0.20387809 0.22760873 -0.13030468 0.1498147 -0.22871208 -0.18583931 -0.1372814
-0.006638658 -0.28473917 -0.15067784 -0.029946063 0.122079365 0.059558347 -0.13433288 -0.35022974
0.1427417 -0.0136775 -0.099109836 0.0036295343 0.18051821 -0.08250646 0.19071993 -0.041431434
-0.07933729 -0.045821626 -0.09629335 0.032488994 0.01241134 -0.059702367 -0.0556612 -0.39504865
0.3138042 -0.14322472 -0.07470288 -0.28143913 0.034462776 -0.051816065 -0.021313794 -0.13750581
-0.01905733 0.019191196 -0.14046782 0.14180274 -0.021472922 -0.1496097 0.081550956 -0.139632
-0.0018788036 -0.008420165 0.1385067 -0.16614325 0.31395864 0.1077468 -0.16839688 0.20768376
-0.095958665 0.085461736 0.018728964 0.028479131 0.18567556 0.113969 -0.13891381 0.026011202
0.124576256 -0.043701414 0.029994117 -0.19018328 0.0049983826 -0.18158688 0.06517587 -0.06726571
-0.086979285 0.01124972 0.028543534 -0.049157824 -0.0058788774 0.0340122 -0.109737806 0.06450118
0.06472696 -0.023431983 0.06851233 -0.08331818 -0.029429028 -0.045168813 -0.007415663 0.062187947
-0.023395246 0.017595988 0.19184333 -0.19327615 -0.6297997 -0.17488836 0.08889091 0.05200973
-0.023146939 0.20073079 0.15760599 0.17973386 -0.019675411 0.03364374 0.013223455 -0.35612464
0.11246864 -0.055483542 -0.092830904 0.014732042 -0.053758685 0.017082646 0.005211756 0.10296638
0.19790141 -0.020264404 0.04192914 0.03667319 -0.0023356802 0.13257013 0.010423467 0.013073199
0.08090432 -0.026438642 -0.009707405 -0.025652824 -0.055658154 0.41469535 0.024449639 0.21492206
-0.04245833 0.09964488 0.08923026 -0.14288402 0.21275815 0.034153726 -0.18591742 -0.041483343
-0.2482833 -0.10607423 -0.21163951 -0.0065278984 0.017756034 0.15818505 0.3011859 0.10815193
-0.2640074 -0.0062190196 0.11861678 0.0340005 0.05931065 -0.18546665 0.053581234 0.16682416
-0.029990023 0.13358252 0.059003647 -0.08178107 0.00092770124 0.19849734 0.12195354 0.06869816
-0.08776525 -0.098143764 -0.21726467 0.1299544 0.26337984 0.053605776 -0.078440696 0.16520396
-0.2754744 0.036163602 -0.06964585 -0.09885039 0.5339111 -0.065988936 -0.057554524 -0.04016756
0.27419165 0.047319505 -0.20528987 -0.04517207 0.14233354 0.030740958 0.12788059 -0.005826961
0.12997106 0.035397623 0.0959827 0.091249794 -0.12805155 0.02766436 -0.087947264 0.061039098
-0.043891054 0.2674247 0.06470373 -0.24443085 -0.045161206 0.008515267 -0.16672681 0.00038114403
-0.017350633 0.02446372 -0.10853475 0.38990825 -0.07644271 0.00292401 0.015324807 0.11777234
-0.41965476 -0.14620519 -1.1134977 -0.010662509 0.08197037 0.14535199 0.046677664 0.03827247
0.32451814 0.07944889 0.17916209 -0.11592634 0.24651667 0.13960762 -0.13340606 0.02603473
00000000: d9bc 89be 7d91 843d ef4b 7f3d ea4e 023e
00000010: 8649 f03c 8272 213d 59a2 463d d43d 3e3d
00000020: d4be 3abe 826e 533d 7c73 033f 75d2 b1bc
00000030: 5ad8 00be 426e f43c e671 97bc af2c 2bbd
00000040: 818f d83b 2137 143c d27d be3d 7df8 fe3d
00000050: 152b 8c3c 6b14 193e b4ad 743d 5672 843d
00000060: 671a 1dbe fe2f 0bbe e3bd 723e 8452 823e
00000070: f88e 773d e0de 6f3d 864e a6bd c583 eebd
00000080: 32f1 8abc 6bc5 503e 4312 693e 976e 05be
00000090: 0669 193e 8033 6abe a94c 3ebe 7f93 0cbe
000000a0: 1989 d9bb 55c9 91be 4b4b 1abe 7251 f5bc
000000b0: bf04 fa3d 74f3 733d 8f8e 09be 5051 b3be
000000c0: e12a 123e 9817 60bc 19fa cabd 7bdd 6d3b
000000d0: c4d9 383e 26f9 a8bd 164c 433e 02b4 29bd
000000e0: 977b a2bd 75af 3bbd 7335 c5bd 2e13 053d
000000f0: ef58 4b3c 788a 74bd 00fd 63bd d143 cabe
00000100: f2aa a03e 80a9 12be d3fd 98bd ca18 90be
00000110: d728 0d3d 153d 54bd 449a aebc 53ce 0cbe
00000120: 1e1e 9cbc db36 9d3c ccd6 0fbe bd34 113e
00000130: fbe7 afbc 4933 19be 3004 a73d b1fb 0ebe
00000140: 3042 f6ba bbf4 09bc b3d4 0d3e 7521 2abe
00000150: 30bf a03e 5baa dc3d 3b70 2cbe 0dab 543e
00000160: fa85 c4bd 9006 af3d 7c6d 993c 114d e93c
00000170: bc21 3e3e 9468 e93d 6c3f 0ebe 7215 d53c
00000180: d621 ff3d 4100 33bd 39b6 f53c 68bf 42be
00000190: 79c9 a33b e9f1 39be ed7a 853d 9bc2 89bd
000001a0: 3222 b2bd bf50 383c 21d4 e93c b759 49bd
000001b0: 99a3 c0bb 6050 0b3d 37be e0bd 3219 843d
000001c0: 928f 843d 6ef4 bfbc 3150 8c3d b9a2 aabd
000001d0: 2515 f1bc ef02 39bd 17ff f2bb cab8 7e3d
000001e0: 63a7 bfbc 7625 903c 9472 443e 2fea 45be
000001f0: 8e3a 21bf ef15 33be 700c b63d 2808 553d
00000200: a69e bdbc 5f8c 4d3e 7763 213e 270c 383e
00000210: 542e a1bc 05ce 093d 31a7 583c f855 b6be
00000220: f555 e63d b642 63bd 211e bebd aa5e 713c
00000230: 1132 5cbd e8f0 8b3c 61c7 aa3b 0ae0 d23d
00000240: aba6 4a3e 8901 a6bc e4bd 2b3d a036 163d
00000250: 3612 19bb 77c0 073e 30c7 2a3c f930 563c
00000260: 2ab1 a53d da95 d8bc cf0b 1fbc df25 d2bc
00000270: cef9 63bd f352 d43e 9c4a c83c 8714 5c3e
00000280: c9e8 2dbd 9d12 cc3d 5bbe b63d 3050 12be
00000290: 46dd 593e c7e4 0b3d 2361 3ebe 70ea 29bd
000002a0: fa3d 7ebe 723d d9bd 07b8 58be fbe7 d5bb
000002b0: 1a75 913c 43fb 213e 0a35 9a3e c27e dd3d
000002c0: fa2b 87be ebc8 cbbb 5bed f23d 1c44 0b3d
000002d0: b9ef 723d f8ea 3dbe ff77 5b3d f4d3 2a3e
000002e0: a3ad f5bc dbc9 083e cfad 713d d57c a7bd
000002f0: fa30 733a e342 4b3e c7c2 f93d 9fb1 8c3d
00000300: 44be b3bd 99ff c8bd a17a 5ebe c412 053e
00000310: b9d9 863e bb91 5b3d 84a5 a0bd 3a2b 293e
00000320: fb0a 8dbe 4920 143d 7ca2 8ebd 1372 cabd
00000330: 66ae 083f 3525 87bd 4bbe 6bbd bd86 24bd
00000340: d962 8c3e 19d2 413d 8237 52be 5906 39bd
00000350: e2bf 113e 76d4 fb3c 21f3 023e 17f0 bebb
00000360: 2217 053e 19fd 103d 9492 c43d 2ce1 ba3d
00000370: f21f 03be 5ea0 e23c b21d b4bd 2204 7a3d
00000380: 1bc7 33bd e4eb 883e 6483 843d 154c 7abe
00000390: f5fa 38bd 9e83 0b3c 6fba 2abe 49d4 c739
000003a0: ea22 8ebc 2468 c83c 7847 debd 0ea2 c73e
000003b0: ff8d 9cbd bfa0 3f3b e614 7b3c a032 f13d
000003c0: fddc d6be d0b6 15be 1887 8ebf ceb1 2ebc
000003d0: 15e0 a73d 27d7 143e 1431 3f3d 98c3 1c3d
000003e0: 3e27 a63e 1ab6 a23d 4476 373e ca6a edbd
000003f0: de6e 7c3e 4df5 0e3e 999b 08be c946 d53c

action_model._discrete_distribution.branches.3.bias f4 [2]
0.059041232 -0.059040837
00000000: 38d5 713d ced4 71bd
