Assets/Onx/MoveAgent2D-11400205.onnx (onnx, 102003 bytes, 9 tensors)

discrete_act_size_vector f4 [1, 2]
0	0x40400000	3.0
1	0x40000000	2.0

network_body._body_endoder.seq_layers.0.weight f4 [128, 50]
0	0x3f7f1be0	0.9965191
1	0xbf06a413	-0.5259411
2	0xbf06cf1a	-0.5265976
3	0x3ecea7ea	0.40362483
4	0xbe01d6d8	-0.12679613
5	0xbef895c6	-0.48551768
6	0x3e83cf40	0.25744057
7	0x3d5614f2	0.05226607
8	0xbe4c3059	-0.19940318
9	0x3e0650a5	0.13116701
10	0xbea978d8	-0.3310001
11	0x3d133d57	0.03594717
12	0x3e8844c1	0.26614955
13	0xbe4b2932	-0.19839934
14	0xbe25c34b	-0.1618778
15	0x3e1f0983	0.15530972
16	0xbd277c9a	-0.040890314
17	0x3e38a65b	0.1803221
18	0xbe851f31	-0.2600036
19	0x3dae9901	0.08525277
20	0x3daceae3	0.084432386
21	0x3ee3eeea	0.44518214
22	0x3d30581d	0.04305278
23	0x3d5c5c28	0.053798825
24	0xbc6a51f4	-0.014301766
25	0xbc2e54e0	-0.010640353
26	0x3c7e1e58	0.015510164
27	0xbd0ea810	-0.034828246
28	0xbe7bf793	-0.24606161
29	0x3e1b20e4	0.15149266
30	0xbf00fdd1	-0.50387293
31	0x39d66d6d	0.0004089879
32	0x3d418dac	0.04725425
33	0x3da73fec	0.08166489
34	0xbca71386	-0.020395052
35	0xbe684663	-0.226831
36	0x3e804193	0.2505003
37	0xbe0af18b	-0.13568704
38	0xbc4f02c6	-0.012634939
39	0xbe8864ab	-0.26639304
40	0x3ea39949	0.31952885
41	0xbcd441e8	-0.025910333
42	0x3de987e9	0.11402876
43	0x3e4cb235	0.19989856
44	0x3d3aa130	0.045563877
45	0x3dacf890	0.08445847
46	0xbf405119	-0.75123745
47	0xbe5523b8	-0.20814407
48	0x3e101378	0.14069927
49	0xbd5bc9e0	-0.05365932
50	0x3aaa547e	0.0012995151
51	0xb9a9802b	-0.00032329684
52	0xbd02b777	-0.031913247
53	0x3d9cc396	0.076544926
54	0x3d145dea	0.036222376
55	0xbdf5e980	-0.12007427
56	0x3b59ef21	0.0033254104
57	0xbe1bb6d1	-0.15206458
58	0xbb773249	-0.0037719181
59	0xbdf8d85a	-0.12150641
60	0x3e25f9d2	0.1620858
61	0xbd9812fe	-0.074254975
62	0xbe8b6077	-0.27222034
63	0x3eaa56f7	0.33269474
64	0xbce3ec3d	-0.027822608
65	0x3ef110cc	0.47083127
66	0xbd9e6bdf	-0.077354185
67	0xbe353920	-0.17697573
68	0xbda1f22f	-0.07907521
69	0xbdd8cd02	-0.10585977
70	0x3e3eaf8f	0.18621658
71	0xbe1729df	-0.14762066
72	0xbcdd4082	-0.027008299
73	0xbcf9ead8	-0.03050749
74	0x3c5537e3	0.013013813
75	0x3e01ecdd	0.12688012
76	0xbd66596e	-0.05623763
77	0xbe017c6a	-0.12645116
78	0x3cbc244a	0.022966523
79	0x3cdbcd67	0.026831342
80	0x3e11ca41	0.1423731
81	0xbca55937	-0.020184143
82	0x3c16c3c7	0.00920195
83	0xbedad8b5	-0.4274346
84	0x3d4c41a5	0.04986729
85	0x3e1efe8e	0.15526792
86	0x3e765bc2	0.2405844
87	0x3e8f5753	0.2799631
88	0x3d873948	0.066027224
89	0xbea0a81d	-0.3137826
90	0x3d95d56e	0.07316099
91	0x3e20bed2	0.15697792
92	0x3d91ec40	0.07125139
93	0xbde58b19	-0.112081714
94	0xbc92d832	-0.017925356
95	0xbe0f9cb0	-0.14024615
96	0x3f421a73	0.7582161
97	0x3d41bbdc	0.047298297
98	0xbdce99c2	-0.10087921
99	0xbe035096	-0.1282371
100	0x3f0ff977	0.5624003
101	0xbe4c01ef	-0.19922613
102	0xbe9fc461	-0.31204513
103	0x3dc386bd	0.09547184
104	0xbe8e6855	-0.27813974
105	0xbe792f88	-0.24334538
106	0x3e45e654	0.19326144
107	0xbe89b288	-0.2689402
108	0xbe831021	-0.25598243
109	0x3e25ff5d	0.16210695
110	0xbdef5322	-0.11685778
111	0x3d46e30f	0.048556384
112	0xbd59c79b	-0.053168874
113	0xbd8966b8	-0.06709045
114	0xbea60bc6	-0.32430857
115	0x3da2ceb5	0.079495825
116	0xbe668470	-0.22511458
117	0xbdc52423	-0.09626033
118	0xbe9d3a12	-0.30708367
119	0x3d4d29ae	0.050088577
120	0x3da8744f	0.08225309
121	0x3e1bbc45	0.15208538
122	0x3e3c2a7c	0.18375582
123	0xbe432110	-0.19055581
124	0x3e86a42d	0.2629713
125	0xbe837110	-0.25672197
126	0xbd229173	-0.039689492
127	0xbde04f7f	-0.10952663
128	0x3c6284ec	0.013825636
129	0xbe1a7e6b	-0.15087287
130	0x3e2de4b0	0.16981769
131	0xbad944e7	-0.0016576321
132	0xbdb78d01	-0.08962441
133	0x3e8d0be9	0.2754815
134	0xbea82a3b	-0.3284472
135	0xbe42c93d	-0.19022079
136	0xbecc776e	-0.39934868
137	0x3e61682e	0.22012398
138	0x3e82fa78	0.25581717
139	0xbe26ee1c	-0.16301769
140	0x3e0e3310	0.13886666
141	0xbe328fdf	-0.17437695
142	0x3c057268	0.008144952
143	0x3e46c846	0.19412336
144	0xbe0362ee	-0.12830707
145	0xbb609b71	-0.0034272338
146	0xbed57806	-0.41693133
147	0xbe13acf9	-0.14421453
148	0xbd2dc262	-0.042421706
149	0x3daea181	0.08526898
150	0x3ec197f7	0.37811252
151	0xbe33d0a9	-0.17560066
152	0xbe67b9bf	-0.2262945
153	0xbe9b4dd9	-0.3033283
154	0xbe5e5940	-0.21713734
155	0x3e0d64ae	0.13807938
156	0x3a0a849e	0.0005284044
157	0xbec00004	-0.37500012
158	0xbe4bd51d	-0.19905515
159	0xbe9171bb	-0.28407082
160	0x3c5b9778	0.013402812
161	0xbd54d65a	-0.051962234
162	0xbd9e2b6b	-0.07723125
163	0xbd642972	-0.055703588
164	0x3d93dd63	0.072199605
165	0xbd3d3d06	-0.046200775
166	0xbdb6046f	-0.088875644
167	0x3b938d25	0.0045029097
168	0xbeb7af53	-0.3587595
169	0xbe155486	-0.14583024
170	0xbe295f77	-0.16540323
171	0xbe646537	-0.22304235
172	0x3d8b21ad	0.067935325
173	0xbdefd43d	-0.11710403
174	0xbf047df8	-0.51754713
175	0x3e79f6f2	0.24410608
176	0x3e185ffe	0.14880368
177	0x3d5ff03c	0.054672465
178	0xbd0e8ca0	-0.03480208
179	0x3d93f3cb	0.07224234
180	0x3f054bbb	0.5206868
181	0xbe80d2ec	-0.2516092
182	0xbe277da9	-0.1635653
183	0xbf2e3b37	-0.68059105
184	0x3ea72f66	0.3265335
185	0x3eaae47d	0.33377448
186	0xbeacd5bd	-0.3375682
187	0x3e0842dc	0.13306755
188	0xbdcc43c3	-0.09973862
189	0x3d6dc077	0.058044877
190	0xbe37e694	-0.17959052
191	0xbe0e2ee3	-0.13885073
192	0x3d4062c9	0.04696921
193	0xbe76aaf2	-0.24088648
194	0x3da25aee	0.079275
195	0x3e3da2a1	0.18519069
196	0x3e902426	0.2815258
197	0xbd2a8246	-0.041628145
198	0xbe162e49	-0.14666094
199	0x3e5859d4	0.21128017
200	0xbe6a21b8	-0.22864425
201	0x3cbe7cbc	0.023252837
202	0xbea2a56f	-0.3176684
203	0xbdb1e607	-0.08686452
204	0x3d166dee	0.03672593
205	0xbe57ffda	-0.21093693
206	0xbe3b7e51	-0.18309905
207	0xbddfb475	-0.10923091
208	0x3e6d1fae	0.23156616
209	0xbee46f6e	-0.44616264
210	0xbde95166	-0.11392479
211	0xbdbf66b6	-0.093457624
212	0x3e72402a	0.23657289
213	0xbdec62ff	-0.115423195
214	0xbe6ce02f	-0.23132394
215	0xbeb310a1	-0.34973624
216	0xbe03b720	-0.12862825
217	0xbe414458	-0.18873727
218	0x3d41360f	0.047170695
219	0xbe835a38	-0.2565477
220	0xbe9c7e86	-0.3056528
221	0xbd337681	-0.043814186
222	0xbddb346c	-0.10703358
223	0xbe5113d2	-0.20417717
224	0xbee7d3fe	-0.45278925
225	0x38c61b4a	9.446459e-05
226	0xbe734a48	-0.23758805
227	0x3ee703f0	0.45120192
228	0xbdb81d80	-0.08990002
229	0xbe16f2de	-0.14741084
230	0xbe7c1078	-0.24615657
231	0xbee82c59	-0.45346335
232	0xbe393db9	-0.18089952
233	0xbe4af1cd	-0.19818802
234	0x3dc16ea8	0.09444934
235	0xbe7528f8	-0.2394141
236	0xbe714685	-0.23562057
237	0x3e87cb27	0.2652218
238	0x3ceb1154	0.028694786
239	0xbf0f3c68	-0.5595155
240	0xbe8b0ae1	-0.27156737
241	0xbe183a61	-0.1486602
242	0x3e6eb70a	0.23312011
243	0x3dc9d412	0.09854902
244	0xbcf749da	-0.030186582
245	0xbca9eaff	-0.020741938
246	0xbf797d93	-0.97457236
247	0x3ceab051	0.028648527
248	0x3c14af7a	0.00907504
249	0xbe8e55e8	-0.27799916
250	0xbeb5aa9c	-0.35481727
251	0x3dd0e449	0.10199792
252	0xbdcf08fc	-0.101091355
253	0xbc183f33	-0.009292412
254	0xbe094b83	-0.13407712
255	0x3da17d6a	0.07885249

network_body._body_endoder.seq_layers.0.bias f4 [128]
0	0xbdd0eef5	-0.102018274
1	0xbd10b110	-0.03532511
2	0xbd8891c8	-0.066684306
3	0xbd60991a	-0.05483351
4	0xbdff8747	-0.12476974
5	0xbcb71537	-0.022348983
6	0xbe22fdaa	-0.15917078
7	0xbd88717c	-0.066622704
8	0xbdda646f	-0.106636874
9	0xbd57daa3	-0.052698743
10	0xbe0763aa	-0.13221613
11	0xbd26449b	-0.04059277
12	0xbd48bbbe	-0.04900717
13	0xbe57a772	-0.21059969
14	0xbdd12c09	-0.10213477
15	0x3c4ef1ba	0.012630874
16	0xbc9b3e1e	-0.018950518
17	0xbda88d61	-0.08230091
18	0xbbc86c6f	-0.006116442
19	0xbd80eaef	-0.0629481
20	0xbdb307c7	-0.08741718
21	0xbd827f92	-0.06371988
22	0xbd0f3605	-0.034963626
23	0x3c8f41ec	0.017487489
24	0xbe4ed152	-0.20197037
25	0xbd97796c	-0.07396206
26	0xbdad2f22	-0.084562555
27	0xbdca6e47	-0.09884315
28	0xbd86dc64	-0.06585005
29	0xbd070f2d	-0.032973457
30	0xbd2a1083	-0.041519653
31	0xbcebb1fb	-0.028771391
32	0xbda49831	-0.08036841
33	0xbd5546d4	-0.0520695
34	0xbda5b950	-0.08091986
35	0xbddb9d09	-0.107233115
36	0xbde2feb9	-0.11083741
37	0xbd620600	-0.055181503
38	0xbcd88cbf	-0.0264343
39	0xbd8602e4	-0.0654352
40	0xbdba61a0	-0.09100652
41	0xbc44abb7	-0.012003831
42	0xbc7a4ad0	-0.015276626
43	0xbddc165c	-0.10746452
44	0xbd9144e4	-0.07093218
45	0xbde5d9f6	-0.112232134
46	0xbdae7b0c	-0.08519563
47	0xbcda3d00	-0.026640415
48	0x3d0523ae	0.03250473
49	0xbc011d39	-0.007880502
50	0xbd9b3443	-0.075783275
51	0xbcf70291	-0.030152591
52	0x3d84cc4c	0.06484279
53	0xbc56496d	-0.0130790295
54	0x3c6fb399	0.014630222
55	0xbd5bc747	-0.053656843
56	0xbd91f7e6	-0.07127361
57	0x3d2ca968	0.042153746
58	0x3d462656	0.048376404
59	0x3c3455a9	0.011006751
60	0xbd99bc14	-0.07506576
61	0x3da44390	0.08020699
62	0x3cd17f72	0.025573466
63	0xbda6df42	-0.08148052
64	0xbd113230	-0.035448253
65	0xbddafcd1	-0.10692752
66	0xbd79aab0	-0.060953796
67	0xbdc29fc0	-0.09503126
68	0xbd711a47	-0.05886295
69	0x3d01f849	0.031730924
70	0xbce928a8	-0.02846177
71	0x3c53c0d8	0.0129243955
72	0x3ccebdda	0.025237013
73	0xbe00bb10	-0.12571359
74	0x3d08a4c5	0.03336026
75	0xbe1876b8	-0.14889038
76	0xbe02a15d	-0.12756868
77	0xbe1f2b84	-0.15543944
78	0xbccf400a	-0.02529909
79	0xbdd8aec5	-0.1058021
80	0xbdf3f8cc	-0.119126886
81	0xbdb187f7	-0.08668511
82	0xbd044789	-0.032294784
83	0x3cc86981	0.02446437
84	0xbdd35577	-0.103190355
85	0xbc9d1a43	-0.019177562
86	0xbd2a0b2a	-0.041514553
87	0xbcfbb576	-0.030726176
88	0xbd873bfd	-0.06603239
89	0xbdddde9c	-0.10833475
90	0xbd96e470	-0.0736779
91	0x3c6cdeeb	0.014457445
92	0xbd70238a	-0.058627643
93	0xbe037751	-0.12838484
94	0x3d2e74ee	0.04259198
95	0xbc7cbdfd	-0.015426156
96	0xbdbfdcfd	-0.09368322
97	0xbe1d2270	-0.15345168
98	0xbd366be3	-0.044536483
99	0xbe244e27	-0.16045438
100	0xbb7cb654	-0.0038560824
101	0xbd65addc	-0.05607401
102	0xbe04003b	-0.12890713
103	0x3d39d800	0.04537201
104	0xbda2aa05	-0.07942585
105	0xbd8efddc	-0.069820136
106	0x3c429b12	0.011877792
107	0xbe09d594	-0.1346038
108	0xbd879d8b	-0.06621846
109	0xbd02a8e7	-0.03189936
110	0xbe068bf3	-0.13139324
111	0x3d167f48	0.03674248
112	0xbde33557	-0.11094158
113	0xbcbd122b	-0.023079952
114	0xbe0000c7	-0.12500297
115	0xbde008e0	-0.10939193
116	0xbe17f14a	-0.14838138
117	0xbd12ce31	-0.03584117
118	0x3da19694	0.078900486
119	0x3b4592e6	0.0030147373
120	0x3ac2502b	0.0014824917
121	0xbe26dd69	-0.16295399
122	0xbca3ff1f	-0.020019112
123	0xbdc56551	-0.09638465
124	0xbe041a9e	-0.12900779
125	0xbddbfe45	-0.107418574
126	0xbd8bbe8c	-0.06823453
127	0xbcd87820	-0.026424468

network_body._body_endoder.seq_layers.2.weight f4 [128, 128]
0	0xbea7f063	-0.32800588
1	0xbe282fc1	-0.16424467
2	0x3dc646b5	0.09681455
3	0xbe8a5397	-0.270169
4	0xbea1c9f7	-0.315994
5	0xbe7e86f0	-0.24856162
6	0x3deeeaf1	0.11665905
7	0xbeca0b80	-0.394619
8	0xbe8c4f55	-0.27404276
9	0xbcb40f54	-0.021979965
10	0xbd957349	-0.072973795
11	0xbd2adbf4	-0.04171367
12	0xbdaec02d	-0.08532748
13	0x3e074468	0.13209689
14	0x3d81bff3	0.063354395
15	0xbdc1eba5	-0.09468774
16	0xbde61552	-0.11234535
17	0xbdb2800b	-0.087158285
18	0x3e36bac9	0.1784469
19	0x3c56a8c7	0.013101763
20	0x3ca5452f	0.02017459
21	0xbe4d5546	-0.2005206
22	0xbeb4c43a	-0.3530596
23	0xbe79b9f9	-0.24387349
24	0xbd8f8397	-0.07007521
25	0xbd66ce77	-0.056349244
26	0xbda28bba	-0.07936807
27	0xbe6d9d39	-0.23204507
28	0xbc4eeb1b	-0.012629296
29	0xbe4e22e6	-0.201305
30	0x3dae51c5	0.0851169
31	0xbdd754db	-0.10514232
32	0xbe199c00	-0.15000916
33	0xbb3165f1	-0.0027068818
34	0x3d4f232a	0.050570644
35	0xbdbf4f57	-0.09341305
36	0x3e12cc06	0.14335641
37	0xbc9582c8	-0.018250838
38	0xbe58fc62	-0.21190026
39	0x3d4ec584	0.050481334
40	0xbf0ea36d	-0.5571812
41	0x3e019af0	0.1265676
42	0xbe538036	-0.20654377
43	0xbcf8399f	-0.030300913
44	0xbe1229a0	-0.14273691
45	0x3d3d3da7	0.046201374
46	0xbecd4b65	-0.40096584
47	0xbcbfb3eb	-0.023401221
48	0xbdecc347	-0.11560684
49	0x3e27b7e3	0.16378741
50	0xbdf15bda	-0.117850974
51	0xbd831113	-0.06399741
52	0x3d1fe655	0.03903802
53	0xbe532dc7	-0.20622931
54	0xbdaffbd3	-0.085929535
55	0x3d6eb463	0.0582775
56	0xbe4cd557	-0.20003258
57	0xbd7eb840	-0.062187433
58	0x3e700d70	0.23442626
59	0xbee14af3	-0.44002494
60	0x3e36d902	0.1785622
61	0xbddfac7d	-0.109215714
62	0x3ce7a0c9	0.02827491
63	0xbd99b1aa	-0.0750459
64	0xbdcfe840	-0.1015172
65	0xbe57102f	-0.21002267
66	0x3c7dfe86	0.015502578
67	0xbd56ff84	-0.052489772
68	0x3c361eac	0.011115711
69	0xbcb3335d	-0.021875078
70	0xbe943ad7	-0.2895114
71	0x3dd5900a	0.10427864
72	0xbe9de7a1	-0.3084078
73	0x3e2db3b8	0.16963089
74	0x3d356e39	0.04429457
75	0xbcdaaa50	-0.02669254
76	0xbea50952	-0.32233673
77	0xbdfb6122	-0.12274386
78	0xbe3268e5	-0.17422827
79	0x3e0dc422	0.1384435
80	0xbe307863	-0.17233424
81	0xbd9c978f	-0.07646095
82	0xbdb9d413	-0.09073653
83	0xbd94d027	-0.072662644
84	0x3dab2fdc	0.08358738
85	0xbe5bf078	-0.2147845
86	0xbd0fc11c	-0.035096273
87	0x3bde46fe	0.0067833653
88	0xbd0039cd	-0.031305123
89	0xbe362822	-0.17788747
90	0xbe17e162	-0.1483207
91	0xbdac77c0	-0.08421278
92	0x3b3d52e4	0.0028888518
93	0x3e459900	0.19296646
94	0xbc104f27	-0.008807934
95	0xbdb5d0f8	-0.08877748
96	0x3c40ab76	0.0117596295
97	0xbd16ed1c	-0.03684722
98	0xbeec6356	-0.46169537
99	0xbb7ffa36	-0.003905905
100	0xbdfe7bbe	-0.12425946
101	0x3df7a766	0.120924756
102	0x3c1cb0d7	0.009563646
103	0xbee4933f	-0.4464359
104	0xbd826f85	-0.06368927
105	0x3d2f5efe	0.0428152
106	0xbd6f8a89	-0.058481727
107	0xbe52dd0a	-0.20592132
108	0xbe656b5f	-0.2240424
109	0xbec385b7	-0.38187954
110	0x3d6c9ddf	0.057767745
111	0x3e83361e	0.25627226
112	0xbd281209	-0.041032825
113	0xbc966ee9	-0.018363433
114	0xbe9ad9c4	-0.30244267
115	0xbe531a70	-0.20615554
116	0xbd43ea11	-0.047830645
117	0xbc929b68	-0.01789637
118	0xbe2e052f	-0.16994165
119	0xbe1be36f	-0.15223478
120	0x3bffe775	0.0078095743
121	0xbefbc1fb	-0.49171433
122	0xbd61e7ed	-0.055152822
123	0x3ce32f19	0.027732419
124	0x3dabe8ba	0.083939984
125	0x3e073806	0.13204965
126	0x3d02ca72	0.03193135
127	0xbe158db7	-0.14604841
128	0xbe0d1d69	-0.1378075
129	0x3df50efa	0.11965747
130	0x3e358b2f	0.17728876
131	0x3e31315d	0.17303987
132	0x3d4549eb	0.048166197
133	0xbe6ebc29	-0.23313965
134	0xbdef20f6	-0.11676209
135	0xbd7b89c7	-0.06141069
136	0xbdf51de9	-0.119685955
137	0x3d8d1992	0.06889643
138	0x3d683083	0.05668689
139	0xbe3b239c	-0.18275303
140	0xbe170c0e	-0.14750692
141	0xbe81fef6	-0.25389832
142	0xbe7efdb4	-0.24901468
143	0xbdcf8a83	-0.10133841
144	0x3d9a6c01	0.07540131
145	0xbe2a0a5f	-0.16605519
146	0xbe6f8b8b	-0.23393075
147	0xbe042058	-0.12902963
148	0x3da2e9d7	0.07954758
149	0x3d219818	0.03945169
150	0xbd83d92d	-0.06437907
151	0x3c095c40	0.0083838105
152	0xbf2d6088	-0.6772542
153	0x3b341993	0.0027481064
154	0x3dcf0a3c	0.10109374
155	0xbcfcbf18	-0.03085284
156	0xbe0e3699	-0.13888015
157	0xbd0fbe12	-0.035093375
158	0xbe8387b9	-0.25689486
159	0xbe1c0b1c	-0.15238613
160	0x3d95f868	0.0732277
161	0xbe84f75a	-0.25969964
162	0xbee54881	-0.4478188
163	0x3d7f0731	0.062262718
164	0xbca2f7a5	-0.019893477
165	0xbf0ebbd4	-0.5575535
166	0x3da80638	0.08204311
167	0xbdb99020	-0.09060693
168	0x3e98d7e7	0.2985222
169	0x3d32bcc0	0.043637037
170	0xbe000531	-0.1250198
171	0xbdb0ccfe	-0.08632849
172	0xbd5729ff	-0.052530285
173	0xbcdf534b	-0.027261397
174	0x3e93aa89	0.28841045
175	0xbe0d6c21	-0.13810779
176	0xbebfd325	-0.37465778
177	0xbdd0fc47	-0.10204368
178	0xbf5c826b	-0.861365
179	0x3db6929f	0.089146845
180	0xbeac1ea0	-0.33617115
181	0x3da02d4f	0.07821142
182	0xbee6ccc9	-0.45078114
183	0xbdc22bc5	-0.094810046
184	0xbe79075a	-0.2431921
185	0x3d89a6fb	0.06721302
186	0xbf089135	-0.5334657
187	0x3d9016c1	0.0703559
188	0x3d6e4969	0.058175478
189	0x3e0068c0	0.12539959
190	0xbd329bd8	-0.043605655
191	0xbce6785d	-0.028133566
192	0xbbc80a43	-0.006104739
193	0xbf1117c7	-0.56676906
194	0x3e0b5577	0.13606821
195	0x3e52ca00	0.2058487
196	0xbe3faf29	-0.18719162
197	0xbe91f742	-0.28508955
198	0x3bef1706	0.007296446
199	0x3e0966e5	0.13418157
200	0xbd5c14b0	-0.053730667
201	0xbde837a2	-0.11338736
202	0xbe40350c	-0.18770236
203	0x3e694d70	0.22783446
204	0xbe039719	-0.12850608
205	0xbd508019	-0.050903413
206	0xbe540440	-0.20704746
207	0x3e3b801d	0.1831059
208	0xbbe442a0	-0.00696595
209	0xbe8b6ba5	-0.27230564
210	0xbd5157cb	-0.051109117
211	0xbd6f4a48	-0.05842045
212	0x3dc99737	0.09843295
213	0xbdbf601c	-0.09344503
214	0xbe377e7b	-0.17919342
215	0x3dcba539	0.09943623
216	0x3e2f98d9	0.1714815
217	0xbd8b0760	-0.06788516
218	0xbe45af50	-0.19305158
219	0x3db662d1	0.089055665
220	0xbeac4fcd	-0.33654633
221	0x3e0d5f25	0.13805826
222	0xbd1a49a9	-0.037667904
223	0x3e02fecf	0.12792514
224	0xbc62901a	-0.013828302
225	0x3ece66cf	0.40312812
226	0xbe611545	-0.2198077
227	0x3c81a7f8	0.015827164
228	0x3c58093e	0.013185797
229	0xbeb8515f	-0.3599958
230	0xbe382d49	-0.17986025
231	0xbda7e4dc	-0.08197948
232	0xbe9f9008	-0.31164575
233	0xbeb65ed2	-0.35619217
234	0xbc654451	-0.013993339
235	0xbdccc0c3	-0.09997704
236	0x3c4622b6	0.012093237
237	0xbdd490d6	-0.10379188
238	0x3dbbf9b7	0.09178489
239	0xbeef57d9	-0.4674671
240	0xbe7cc2e4	-0.2468372
241	0xbe8c0b0a	-0.27352172
242	0xbf14db2d	-0.58146936
243	0xbdb01bb9	-0.08599038
244	0xbe19ae22	-0.15007833
245	0xbe9b5c0a	-0.30343658
246	0x3d7cf7d4	0.061759785
247	0x38d0f339	9.963517e-05
248	0xbe8f997a	-0.2804678
249	0xbd85b2fd	-0.0652828
250	0xbc30aeeb	-0.010783891
251	0xbcbd5f37	-0.023116691
252	0x3d31565b	0.043295246
253	0xbdcd6bff	-0.10030364
254	0xbc82b0dc	-0.015953474
255	0x3bc7d438	0.0060982965

network_body._body_endoder.seq_layers.2.bias f4 [128]
0	0xbdd192bd	-0.10233066
1	0x3d5660b6	0.052338324
2	0xbd31d04d	-0.04341154
3	0xbe0b22f6	-0.13587555
4	0xbd78b6b0	-0.0607211
5	0x3c8d20e2	0.017227594
6	0xbe3caa4b	-0.18424337
7	0xbd4da8d0	-0.05020982
8	0xbe167958	-0.14694726
9	0xbcd647ac	-0.026157223
10	0x3d72c8c4	0.059273496
11	0xbd087051	-0.03331024
12	0xbcba91fe	-0.022774693
13	0x3e036b32	0.1283386
14	0xbc44361d	-0.011975792
15	0xbd95f1c2	-0.07321502
16	0xbdba8df0	-0.09109104
17	0xbdfbff47	-0.1230455
18	0xbdbcca37	-0.09218257
19	0xbd0005a7	-0.03125539
20	0xbd503d1f	-0.05083954
21	0xbda69728	-0.081342995
22	0xbca89a9b	-0.020581534
23	0xbd446601	-0.04794884
24	0xbc5abc4a	-0.013350556
25	0xbe1ea7c4	-0.15493685
26	0xbc7dedfb	-0.0154986335
27	0xbd2b5d3c	-0.041836962
28	0xbdfaf7be	-0.12254284
29	0xbb1f2af9	-0.0024287088
30	0xbe1fbb2a	-0.15598741
31	0x3db009b8	0.08595604
32	0xbdf134e3	-0.117776655
33	0xbe56ee8f	-0.2098944
34	0xbd86be2d	-0.06579242
35	0xbd8f238b	-0.06989201
36	0xbdc1b1b1	-0.0945772
37	0xbe02e873	-0.12783985
38	0xbdb6e2ce	-0.08929978
39	0xbd272a31	-0.04081172
40	0xbd9861a3	-0.07440498
41	0xbdcefe3b	-0.10107084
42	0x3cb94f4c	0.02262082
43	0xbba035dd	-0.0048892335
44	0x3cfcd3f2	0.030862782
45	0x3db9af4d	0.09066639
46	0x3d229f79	0.039702866
47	0x3d3e50cb	0.04646377
48	0x3c3f8708	0.011689909
49	0xbc5397ea	-0.012914637
50	0xbd540c09	-0.05176929
51	0x3cd52d53	0.026022589
52	0xbd6d39c8	-0.057916433
53	0x3bbfcff7	0.0058536488
54	0xbdf38a4d	-0.11891613
55	0xbd9ef5f6	-0.07761757
56	0xbe0a71a6	-0.13519916
57	0xbe542a34	-0.20719224
58	0xbd844857	-0.0645911
59	0xbd8e9708	-0.06962401
60	0x3d1f905e	0.03895604
61	0xbdb8e99b	-0.09028932
62	0x3d13d723	0.036093842
63	0xbc9c07bc	-0.019046657
64	0x3d3c5674	0.045980886
65	0xbd8df650	-0.06931746
66	0x3c0a5459	0.008442962
67	0xbdafe1db	-0.085880004
68	0xbc282f49	-0.01026518
69	0xbdaea1ff	-0.08526992
70	0xbe112c88	-0.14177144
71	0x3c9dca62	0.019261543
72	0x3d7be3aa	0.061496414
73	0xbe911316	-0.28334874
74	0xbe46ea1c	-0.19425243
75	0xbe0edeb8	-0.13952148
76	0xbda352c8	-0.07974774
77	0x3d78e374	0.06076379
78	0xbe0d748b	-0.13813989
79	0xbdb51c0c	-0.0884324
80	0x3d6166e0	0.05502975
81	0xbda40eeb	-0.08010658
82	0xbe0b6807	-0.13613902
83	0xbc914687	-0.017733825
84	0xbdc67b60	-0.09691501
85	0x3d278d42	0.0409062
86	0x3d35d112	0.044388838
87	0xbd8dfd85	-0.06933121
88	0x3d4de1fb	0.05026434
89	0x3a6d99dd	0.000906376
90	0xbe9de70c	-0.30840337
91	0xbc82d216	-0.015969317
92	0xbd086900	-0.03330326
93	0xbdbaf596	-0.09128873
94	0xbd63f75e	-0.05565583
95	0x3cf369d2	0.029713545
96	0xbe172442	-0.14759925
97	0xbd5e7610	-0.054311812
98	0xbd9973f6	-0.07492821
99	0xbd8800cf	-0.06640779
100	0xbde9d601	-0.11417771
101	0xbddf911a	-0.10916348
102	0x3bda6942	0.0066653797
103	0x3b1860be	0.0023251022
104	0x3d31cc2f	0.043407615
105	0xbe28ca34	-0.16483384
106	0x3d0b4686	0.034002803
107	0xbd1341d2	-0.035951443
108	0xbc8b6f32	-0.017020795
109	0x3e189250	0.14899564
110	0xbc88f52d	-0.016718471
111	0xbdac424d	-0.08411083
112	0xbd575934	-0.052575305
113	0xbd1b057d	-0.03784703
114	0xbde632f8	-0.1124019
115	0xbdb7702f	-0.08956944
116	0xbc85e826	-0.016346049
117	0xbd61e970	-0.055154264
118	0xbb5a0d3d	-0.003327205
119	0xbbf2ea97	-0.007413219
120	0xbdabf591	-0.083964474
121	0xbe32625d	-0.17420335
122	0x3dc66647	0.096874766
123	0xbd47ef93	-0.04881246
124	0xbd329d93	-0.043607306
125	0xbd7c66e3	-0.061621558
126	0xbe07ffea	-0.13281217
127	0xbcfb4cee	-0.030676331

action_model._discrete_distribution.branches.0.weight f4 [3, 128]
0	0x3d935948	0.071947634
1	0xbd6604bf	-0.05615687
2	0xbd7ef5ea	-0.06224624
3	0xba9ca97e	-0.0011952368
4	0xbdf6c474	-0.12049189
5	0x3e218fea	0.15777555
6	0x3d0a99bb	0.033838015
7	0xbe295587	-0.16536532
8	0x3b91c622	0.004448668
9	0xbe8b42ee	-0.271995
10	0x3c999815	0.018749276
11	0x3d95eb09	0.0732022
12	0x3c8ac30e	0.016938712
13	0x3da66dd3	0.08126416
14	0x3dc29c4f	0.0950247
15	0xbd360491	-0.04443795
16	0xbdeda676	-0.116040155
17	0xbd515609	-0.05110744
18	0x3d927aac	0.07152304
19	0xbe31d7e2	-0.17367509
20	0x3aa0edc8	0.0012277896
21	0xbe4a1439	-0.19734277
22	0x3d826000	0.06365967
23	0x3daf2fd7	0.085540466
24	0xbe3514fd	-0.17683788
25	0x3d6a3b31	0.057185356
26	0x3cdd5fc0	0.027023196
27	0xbc3a8296	-0.011383673
28	0x3d5dc18a	0.05413965
29	0x3e37215f	0.17883824
30	0xbd1ef336	-0.038806163
31	0x3db87c60	0.09008098
32	0xbcf3c40e	-0.029756572
33	0x3c05863a	0.008149678
34	0x3bcb8d2e	0.0062118983
35	0x3d58104d	0.05274992
36	0xbe99d25e	-0.3004331
37	0xbdafdf86	-0.085875556
38	0x3bda588f	0.006663389
39	0x3d8cab04	0.06868556
40	0x3e2959e3	0.16538195
41	0xbe2bf709	-0.16793455
42	0x3c541ccd	0.01294632
43	0x3e0025f9	0.12514485
44	0xbb1489ba	-0.00226651
45	0xbcbd4ec1	-0.023108842
46	0xbb74b13b	-0.0037337083
47	0x3dfefd8d	0.12450705
48	0x3db3ce29	0.08779556
49	0x3d406919	0.04697523
50	0xbe10c627	-0.14138089
51	0xbc37a187	-0.011207945
52	0x3d0d039d	0.034427274
53	0xbdf1f751	-0.1181475
54	0x3c7f8e06	0.015597826
55	0x3c794e0d	0.015216363
56	0x3cfff3b8	0.031244144
57	0x3da0be96	0.078488514
58	0x3c9db8f2	0.019253228
59	0xbc8a573a	-0.016887296
60	0x3c5b42fe	0.013382671
61	0xbd0dc97a	-0.03461597
62	0xbd1653e1	-0.036701087
63	0xbdae72ba	-0.08517976
64	0xbc29466d	-0.010331732
65	0x3d15aeee	0.03654378
66	0xbcbe0813	-0.02319721
67	0x3d7c8048	0.061645776
68	0xbd7302c0	-0.059328794
69	0x3d258c85	0.040417213
70	0x3d9b3b59	0.07579679
71	0xbc6641df	-0.014053791
72	0x3af998dc	0.0019042748
73	0x3d1a4f5c	0.03767334
74	0x3c942dae	0.018088188
75	0xbdbad7f5	-0.09123222
76	0xbd98d504	-0.074625045
77	0xbcd33048	-0.025779858
78	0x3ca724f5	0.020403365
79	0xbd460e9b	-0.048353773
80	0x3c8df968	0.01733084
81	0x3d2b393a	0.041802622
82	0x3c29b89a	0.010358954
83	0xbdaacac2	-0.08339454
84	0x3dca44da	0.09876414
85	0x3db8ded6	0.090268776
86	0x3c0351c1	0.008015097
87	0x3cedc44e	0.02902427
88	0xbdb1c605	-0.08680347
89	0xbdc204ac	-0.09473547
90	0x3c82db26	0.015973639
91	0xbb8e4360	-0.004341528
92	0xbd32e1b2	-0.04367227
93	0xbc231168	-0.00995288
94	0xbdddb1c6	-0.10824923
95	0x3c46d10f	0.012134804
96	0xbe55622f	-0.20838235
97	0x3dde318f	0.10849296
98	0x3d7ee546	0.06223037
99	0xbcc848c3	-0.024448758
100	0x3ccc4593	0.02493552
101	0x3d70ff7d	0.058837403
102	0x3d60af06	0.054854415
103	0xbe1de9f8	-0.15421283
104	0x3dc49414	0.09598556
105	0x3d5d7f7f	0.054076668
106	0xbd79b5d1	-0.06096441
107	0x3caa0746	0.020755421
108	0x3b52ce9c	0.0032166606
109	0x3d2439a3	0.04009403
110	0x3d3dc01d	0.04632579
111	0xbd852b91	-0.0650245
112	0x3cf4468e	0.0298188
113	0xbc3a0706	-0.011354214
114	0x3d61a037	0.055084433
115	0x3c310b16	0.010805866
116	0xbda36e5d	-0.079800345
117	0xbd415da8	-0.04720846
118	0x3cc5eb3e	0.024160024
119	0x3d450754	0.04810269
120	0xbda1f998	-0.07908934
121	0x3c3e7e1d	0.011626747
122	0x3d00de8e	0.031462245
123	0x3c808948	0.01569046
124	0x3d1ba823	0.038002145
125	0xbd439384	-0.047748104
126	0x3dd8f676	0.10593884
127	0xbd3b1566	-0.045674704
128	0xbe5bebe7	-0.21476708
129	0x3e826029	0.2546399
130	0xbba1e1ad	-0.0049402327
131	0xbcc45dc4	-0.023970492
132	0x3d924ee8	0.071439564
133	0xbe396722	-0.18105748
134	0xbe3bb3db	-0.18330328
135	0x3e7f31ee	0.2492139
136	0x3d472aa8	0.048624665
137	0x3d32f033	0.043686103
138	0xbde81dac	-0.113337845
139	0x3d0e6eff	0.034773823
140	0xbcb265f7	-0.021777136
141	0x3da96e2f	0.08272969
142	0xbdd55c3c	-0.10417983
143	0xbe19e436	-0.15028462
144	0xbd7537b6	-0.059867583
145	0x3dfd218d	0.12359915
146	0xbbff2ed0	-0.007787563
147	0x3ce2c89e	0.027683552
148	0x3dd2ca92	0.102925435
149	0x3e5efdee	0.21776554
150	0xbe2ad072	-0.16681078
151	0x3dad6def	0.08468234
152	0xbe085407	-0.13313304
153	0x3d2d465f	0.04230344
154	0x3d807439	0.06272168
155	0xbe031da4	-0.12804276
156	0xbd70f580	-0.058827877
157	0x3e07d696	0.13265452
158	0x3c767743	0.015043083
159	0x3e01b01f	0.12664841
160	0xbdb7fd49	-0.08983857
161	0xbd2301e4	-0.039796725
162	0x3c529c2a	0.012854615
163	0xbe088bc9	-0.13334574
164	0x3f08a21b	0.53372353
165	0x3ebad8e2	0.36493593
166	0xbe05a807	-0.13052379
167	0xbdeb8a01	-0.115009315
168	0xbe4dfde9	-0.2011639
169	0x3e89bedc	0.26903427
170	0x3c937e47	0.01800455
171	0x3d79b465	0.060963053
172	0x3e0092f9	0.12556066
173	0xbc5ef8e2	-0.013609143
174	0x3d888a29	0.06666977
175	0x3c641a95	0.013922353
176	0x3da9a15b	0.08282729
177	0x3ccb9094	0.024849214
178	0xbe11b385	-0.14228638
179	0x3cb08521	0.021547856
180	0x3df61355	0.12015406
181	0x3db10f28	0.08645469
182	0x3ca8be10	0.020598441
183	0xbd9c8dd5	-0.0764424
184	0xbd1bebbb	-0.038066607
185	0xbe7b90c8	-0.24566948
186	0xbe27b920	-0.16379213
187	0xbe172154	-0.14758807
188	0x3d9e3fde	0.077270254
189	0xbe5f21cc	-0.21790236
190	0x3ce64338	0.028108224
191	0x3e4f265b	0.20229475
192	0x3dbef02e	0.093231544
193	0xbcc24ec7	-0.023719205
194	0x3e22d6d9	0.1590227
195	0x3da21693	0.07914462
196	0x3c78d7dd	0.015188185
197	0xbc8f412b	-0.01748713
198	0x3dbc3427	0.09189635
199	0x3deff846	0.11717276
200	0x3dd144a3	0.102181695
201	0xbc50eeec	-0.012752276
202	0x3e3e89d4	0.18607265
203	0x3e6218ef	0.22079824
204	0x3cf33fbf	0.029693482
205	0xbe331674	-0.17489034
206	0xbcd607e3	-0.026126808
207	0x3d9374c8	0.07200009
208	0xbd3c6dc0	-0.046003103
209	0x3e336c1d	0.1752171
210	0xbdfa9975	-0.12236301
211	0x3de2a827	0.11067229
212	0xba926754	-0.001116971
213	0xbe2f09de	-0.17093608
214	0xbd5b33c3	-0.05351616
215	0x3d819b83	0.0632849
216	0xbdb4a685	-0.088208236
217	0xbdc39455	-0.095497765
218	0xbd690020	-0.056884885
219	0xbdb31b29	-0.08745415
220	0xbc8e3797	-0.017360492
221	0xbdb5a06a	-0.08868487
222	0x3e0be492	0.13661411
223	0xbdec4e45	-0.11538366
224	0x3ec711b7	0.38880703
225	0xbe42b3a4	-0.1901384
226	0xbc7db4cb	-0.015484999
227	0xbdb8bfe9	-0.09020979
228	0xbdc97003	-0.09835818
229	0xbd731739	-0.05934832
230	0x3ddfc9da	0.10927172
231	0xbe6dfbce	-0.23240587
232	0xbe49020c	-0.19629687
233	0x3d997a5d	0.07494042
234	0xbe55df04	-0.20885855
235	0x3cec2ad3	0.028829014
236	0x3e3a0298	0.18165052
237	0x3dff7fc0	0.12475538
238	0x3ba2572e	0.0049542403
239	0x3e7d5d51	0.24742629
240	0x3d58add8	0.052900165
241	0xbd5ed61e	-0.054403417
242	0xbe732eea	-0.23748365
243	0xbd773761	-0.060355548
244	0x3d3f2b52	0.046672173
245	0x3cce556c	0.025187217
246	0x3c3948fd	0.011308906
247	0xbe026c11	-0.12736537
248	0xbcad10d0	-0.02112618
249	0xbdd7da4e	-0.10539685
250	0x3da5cb99	0.08095474
251	0x3b7e69bd	0.003882035
252	0xbc302ba1	-0.010752589
253	0x3cc52e65	0.024069974
254	0xbd2c30b3	-0.04203863
255	0xbcb138b4	-0.021633483

action_model._discrete_distribution.branches.0.bias f4 [3]
0	0x3d2585da	0.040410854
1	0xbde9561c	-0.11393377
2	0x3d876994	0.06611934

action_model._discrete_distribution.branches.1.weight f4 [2, 128]
0	0x3e81c772	0.25347477
1	0x3d52bcb0	0.051449478
2	0xbe6975a8	-0.22798789
3	0xbe47af04	-0.19500357
4	0xbe8a627b	-0.2702826
5	0xbc483ca0	-0.012221485
6	0xbd00c797	-0.031440344
7	0xbe2af22e	-0.16693947
8	0xbd801896	-0.062546894
9	0xbba86c6b	-0.0051398776
10	0x3aaf2595	0.0013362641
11	0xbd97797c	-0.07396218
12	0x3e5cc79c	0.2156052
13	0x3d8689ab	0.06569227
14	0xbd0183f9	-0.03162
15	0xbd00ca16	-0.031442724
16	0xbd845bb1	-0.06462801
17	0x3b90bbe1	0.004416928
18	0xbeaee8fa	-0.34162122
19	0xbd080ec8	-0.03321722
20	0x3ed04fa7	0.4068577
21	0xbafbd2b4	-0.0019212575
22	0xbe3eec0d	-0.18644734
23	0x3cbe9cf9	0.02326821
24	0xbc33db69	-0.010977604
25	0xbebf1c15	-0.37326112
26	0xbe8a75c5	-0.27042976
27	0x3e3bdc24	0.18345696
28	0xbcf32e0e	-0.029685047
29	0x3d35c444	0.044376627
30	0x3b9785c2	0.0046240995
31	0x3dc5f469	0.09665758
32	0xbd136372	-0.03598351
33	0xbd1a29a3	-0.037637364
34	0x3ea3796d	0.31928578
35	0xbd09a76e	-0.03360694
36	0x3b6de119	0.0036297499
37	0xbd4f514a	-0.050614633
38	0xbe01dc70	-0.12681746
39	0x3cc18a5d	0.023625547
40	0xbd93b3e7	-0.07212048
41	0x3c499466	0.012303447
42	0x3e177711	0.14791514
43	0x3e573e15	0.21019776
44	0x3cd31fc0	0.025771976
45	0x3edfc80a	0.43707305
46	0x3d8ce77b	0.06880089
47	0xba90084b	-0.00109888
48	0x3dedbe10	0.11608517
49	0x3dee0240	0.11621523
50	0xbd51b0a0	-0.051193833
51	0x3e12d35c	0.1433844
52	0x3e6db981	0.23215295
53	0xbdcb5f69	-0.099303074
54	0xbdde8560	-0.10865283
55	0xbdd18d7d	-0.10232065
56	0xbce8842e	-0.02838334
57	0x3c82b157	0.015953703
58	0xbd66436c	-0.056216642
59	0xbe83a17a	-0.25709134
60	0x3e23ce5b	0.15996687
61	0xbcb82485	-0.022478351
62	0x3d9a4916	0.07533471
63	0xbe3c251e	-0.18373534
64	0x3e1ac5de	0.15114543
65	0x3ce44846	0.027866494
66	0xbeb2bbae	-0.34908813
67	0x3eaa915f	0.33314034
68	0x3e0d9725	0.13827188
69	0xbccc0739	-0.024905788
70	0xbd790339	-0.06079409
71	0x3e1691bc	0.14704031
72	0x3eb6e23e	0.35719484
73	0x3e84bebf	0.25926778
74	0xbee45dcf	-0.4460282
75	0x3bf211b8	0.007387366
76	0xbe30b815	-0.17257722
77	0xbd25ceda	-0.040480472
78	0xbd1069b2	-0.03525705
79	0x3e0236a8	0.12716162
80	0x3ea3bab6	0.31978387
81	0x3d0dc178	0.034608334
82	0xbd1c069c	-0.03809224
83	0x3e0c839b	0.13722079
84	0xbe0156d1	-0.12630774
85	0xbe641fb4	-0.22277719
86	0x3debe51b	0.11518308
87	0xbdf2a2e8	-0.11847478
88	0x3c82a820	0.015949309
89	0x3de188bf	0.1101241
90	0x3a873019	0.0010314017
91	0x3d814bfa	0.063133195
92	0x3d818379	0.063239045
93	0xbdf59ec6	-0.11993174
94	0xbd8a2c2b	-0.067467056
95	0x3eeee1b4	0.46656573
96	0xbd248533	-0.04016609
97	0xbe1e5be3	-0.1546474
98	0xbdbd93d4	-0.092567116
99	0xbdbb3af4	-0.09142104
100	0xbe157185	-0.14594086
101	0xbe3e35f4	-0.18575269
102	0x3e25ab57	0.16178642
103	0x3e88221b	0.2658852
104	0xbd9eb1c0	-0.07748747
105	0xbd52ea07	-0.051492717
106	0xbcaf6ecd	-0.021415139
107	0xbde86ede	-0.11349271
108	0x3b901cd6	0.0043979688
109	0x3d35c2f6	0.044375382
110	0x3e22ff3d	0.15917678
111	0xba87471c	-0.0010320875
112	0x3ed09352	0.40737396
113	0xbd533c47	-0.051571157
114	0xbd071821	-0.032981995
115	0x3d0377d8	0.032096714
116	0x3db960f1	0.09051693
117	0xbdc74b1b	-0.09731122
118	0xbde90a0a	-0.11378868
119	0xbe3ed809	-0.18637098
120	0xbd9ab72a	-0.07554467
121	0xbcb350b5	-0.02188907
122	0x3df1dcc2	0.11809684
123	0x3e4d2c37	0.20036398
124	0x3daa6d01	0.08321572
125	0xbdcec7c7	-0.10096698
126	0x3d797e48	0.060911447
127	0xbdd1295f	-0.10212969
128	0xbe8901fd	-0.2675933
129	0xbd583ba1	-0.05279124
130	0x3e68c386	0.22730836
131	0x3e3f1ccb	0.18663327
132	0x3e86e4a6	0.2634632
133	0x3b137f5d	0.0022506334
134	0x3cf26ed1	0.029593857
135	0x3e1a5efe	0.15075299
136	0x3d769280	0.060198307
137	0x3c14048f	0.00903429
138	0x3c3697e5	0.011144613
139	0x3d99461e	0.07484077
140	0xbe4fca5b	-0.20292036
141	0xbd80a168	-0.06280786
142	0x3cd6cf8a	0.02622201
143	0x3d135ae6	0.03597536
144	0x3d3fdb0e	0.046839766
145	0xbaa4a91f	-0.0012562609
146	0x3eb9c5ac	0.36283624
147	0x3cc33412	0.02382854
148	0xbed2c017	-0.41162178
149	0x3a991ff1	0.0011682493
150	0x3e35daad	0.177592
151	0xbd461c35	-0.048366744
152	0x3bf3e40c	0.007442957
153	0x3ebe891b	0.37213978
154	0x3e88431f	0.2661371
155	0xbe403f3e	-0.18774125
156	0x3d0415c6	0.032247327
157	0xbcabdf07	-0.020980371
158	0x3bd96611	0.0066344817
159	0xbdaf799b	-0.08568116
160	0x3cdf1636	0.02723227
161	0x3d1e5900	0.038659096
162	0xbea87a98	-0.32906032
163	0x3d083674	0.033255056
164	0xbb800f51	-0.003908076
165	0x3d4c98a9	0.049950276
166	0x3df2a665	0.118481435
167	0xbd45e60f	-0.048315104
168	0x3d9894b2	0.074502364
169	0xbc45ac7d	-0.01206505
170	0xbdec50b0	-0.115388274
171	0xbe657059	-0.22406138
172	0xbcee77f1	-0.029109927
173	0xbee0e82b	-0.4392713
174	0xbd46fdb3	-0.04858179
175	0x3c1fecf2	0.009761082
176	0xbdd561b3	-0.10419025
177	0xbde27a50	-0.110584855
178	0x3d5a2628	0.053259045
179	0xbe055a9a	-0.13022843
180	0xbe7d89ce	-0.247596
181	0x3dc6c35e	0.09705232
182	0x3dcace36	0.09902613
183	0x3dbb8a37	0.09157222
184	0x3cf23eb2	0.029570911
185	0xbc310a15	-0.010805626
186	0x3d5d01e5	0.053956885
187	0x3e7d3865	0.24728544
188	0xbe222fec	-0.15838593
189	0x3c8d1acc	0.017224692
190	0xbdb00d37	-0.085962705
191	0x3e34bca1	0.17650081
192	0xbe26d755	-0.1629308
193	0xbd4ad849	-0.04952267
194	0x3eb73353	0.35781345
195	0xbea585fe	-0.3232879
196	0xbe0b5752	-0.13607529
197	0x3c714e8f	0.0147282025
198	0x3d8872be	0.0666251
199	0xbe19083b	-0.14944546
200	0xbeb37378	-0.35049033
201	0xbe800b1e	-0.25008482
202	0x3ed6cfa5	0.41955295
203	0xbbc34cb7	-0.005960073
204	0x3e35059e	0.17677924
205	0x3d348054	0.044067696
206	0x3d32cc49	0.043651853
207	0xbdf49b51	-0.11943687
208	0xbe9c677e	-0.30547708
209	0xbc8c0c13	-0.017095601
210	0x3d448e2d	0.047987152
211	0xbe100b20	-0.14066744
212	0x3e051456	0.12996039
213	0x3e6e052d	0.23244162
214	0xbdba61be	-0.09100674
215	0x3e053b6a	0.13010946
216	0xbd01c4ec	-0.03168194
217	0xbdc6bf3e	-0.09704445
218	0xbbf540e7	-0.0074845436
219	0xbda04cdf	-0.07827162
220	0xbdace327	-0.08441763
221	0x3e0864a6	0.13319644
222	0x3d6232d7	0.055224266
223	0xbef591b7	-0.47962734
224	0x3d64cd19	0.05585966
225	0x3e02f04c	0.12786978
226	0x3ddff7bf	0.10935926
227	0x3de82419	0.1133501
228	0x3e13da88	0.14438832
229	0x3e434794	0.19070274
230	0xbe2444f7	-0.16041933
231	0xbe84bb8f	-0.25924346
232	0x3dc55f6f	0.09637343
233	0x3d1d0dd0	0.03834325
234	0x3cfb0ba4	0.0306452
235	0x3e0e4af8	0.13895786
236	0x3c8b567b	0.01700901
237	0xbd450709	-0.048102412
238	0xbe1575a5	-0.14595659
239	0x3bdf5390	0.0068153813
240	0xbed52e53	-0.41636905
241	0x3d873ba4	0.066031724
242	0x3cc8e5b9	0.024523603
243	0xbc30b1ce	-0.010784579
244	0xbdcde921	-0.100542314
245	0x3dca8ab3	0.09889736
246	0x3db3fee5	0.08788852
247	0x3e221f0d	0.15832157
248	0x3da38016	0.07983415
249	0x3cccfd9b	0.025023272
250	0xbdd6480d	-0.10462961
251	0xbe3f2a63	-0.18668513
252	0xbdd6679b	-0.1046898
253	0x3dbbe6f6	0.09174912
254	0xbd4b5650	-0.04964286
255	0x3dc0ede6	0.094203755

action_model._discrete_distribution.branches.1.bias f4 [2]
0	0x3cddbb4e	0.027066853
1	0xbcddbb5a	-0.027066875
