Assets/Onx/2DGround/11Ob_13act_3.0/MoveAgent2D-175M.onnx (onnx, 424688 bytes, 15 tensors)

discrete_act_size_vector f4 [1, 5]
0	0x40400000	3.0
1	0x40000000	2.0
2	0x40000000	2.0
3	0x40000000	2.0
4	0x40800000	4.0

network_body._body_endoder.seq_layers.0.weight f4 [256, 130]
0	0xbd82e28a	-0.06390865
1	0x3e0f9299	0.14020766
2	0xbcbcef55	-0.023063341
3	0xbe7ddbdc	-0.24790901
4	0xbe7c8a50	-0.24662137
5	0xbd1d3226	-0.038377903
6	0xbe148485	-0.14503677
7	0xbf17aa1e	-0.59243953
8	0xbe4a393b	-0.19748394
9	0xbeafb5d6	-0.34318417
10	0x3d33549e	0.04378187
11	0xbd735294	-0.059404925
12	0xba1b0734	-0.0005913854
13	0x3f022749	0.50841194
14	0x3e6b35ed	0.2296979
15	0x3e69111e	0.22760436
16	0xbf1841bb	-0.59475297
17	0x3ebee93f	0.37287328
18	0xbeb8634c	-0.36013258
19	0xbefaeb6c	-0.49007738
20	0xbf0a82b9	-0.54105717
21	0xbe8ace19	-0.27110365
22	0x3db4b516	0.08823602
23	0xbe889072	-0.26672703
24	0xbd56b38d	-0.052417327
25	0x3e17241e	0.14759871
26	0x3ee8c3d3	0.45461902
27	0xbdb41380	-0.08792782
28	0xbeb6c1e5	-0.35694805
29	0xbe3ef106	-0.1864663
30	0xbf27fdc1	-0.6562157
31	0x3efa0b8f	0.48836944
32	0x3d978dc7	0.07400089
33	0x3e1ca5fa	0.1529769
34	0xbe3909c2	-0.18070129
35	0x3e58263d	0.21108337
36	0xbd535149	-0.05159119
37	0xbe15f3e7	-0.14643823
38	0xbedb496e	-0.4282946
39	0x3e921342	0.28530318
40	0x3de22942	0.110430256
41	0x3e407262	0.18793634
42	0xbe11e776	-0.14248452
43	0x3e59782c	0.21237248
44	0x3d7fbaf8	0.062434167
45	0xbda6e5c4	-0.08149293
46	0xbea3c7f9	-0.31988505
47	0xbe955bd0	-0.2917161
48	0x3e1f4997	0.15555416
49	0x3e6e101f	0.23248337
50	0xbe27aecf	-0.16375278
51	0x3ebc7d1f	0.3681421
52	0xbd13f095	-0.03611811
53	0x3e25c1cb	0.16187207
54	0xbf124407	-0.5713505
55	0xbd8e3f42	-0.06945659
56	0xbceb3a4f	-0.028714327
57	0x3dd7a8de	0.10530256
58	0x3c59c01c	0.013290431
59	0xbeb23cd7	-0.34812042
60	0xbdbe1d7e	-0.09282969
61	0x3cb0ad9b	0.021567157
62	0x3e901907	0.28144094
63	0xbe85a746	-0.26104182
64	0xbe9ff89a	-0.31244355
65	0x3cefaab3	0.0292562
66	0xbf0e9b5e	-0.5570582
67	0x3eb72a39	0.357744
68	0xbcfe48a9	-0.031040506
69	0x3c41bf5e	0.011825411
70	0x3e16f799	0.14742889
71	0x3ca7c4de	0.020479616
72	0xbde56dec	-0.112026066
73	0xbe465919	-0.19369926
74	0xbeb3b610	-0.3509984
75	0x3eba5666	0.36394042
76	0xbd38fed8	-0.045164913
77	0x3c423679	0.011853808
78	0x3e03e054	0.12878543
79	0x3d1372a6	0.03599801
80	0xbda7bdd8	-0.08190507
81	0xbe05a9af	-0.1305301
82	0xbdcfca81	-0.101460464
83	0xbcc23069	-0.023704724
84	0xbdee558d	-0.11637411
85	0xbdadec7c	-0.084923714
86	0xbe69eb0c	-0.2284357
87	0xbce254ae	-0.027628269
88	0xbd16c66e	-0.03681033
89	0xbde73048	-0.11288506
90	0xbe8fda2e	-0.28096145
91	0xbe8abe23	-0.27098188
92	0xbd82aed9	-0.06381006
93	0xbb86dff3	-0.0041160523
94	0xbe8c7ccd	-0.27438965
95	0xbe9dd6ac	-0.30827844
96	0x3e987ba7	0.2978184
97	0x3e85ef3b	0.2615908
98	0xbe3e2000	-0.18566895
99	0x3dbf2d27	0.09334784
100	0x3d4e83ae	0.05041855
101	0x3d8ba580	0.06818676
102	0x3dbdf53e	0.09275292
103	0x3d6d5efb	0.05795191
104	0xb888510f	-6.500084e-05
105	0x3cd98799	0.026553916
106	0xba8969a8	-0.0010483759
107	0x3e936cef	0.28794047
108	0x3d915f20	0.07098222
109	0xbe12f09b	-0.14349596
110	0x3ef61ec4	0.48070347
111	0x3f1d1a7d	0.6136854
112	0xbe99072f	-0.29888293
113	0xbed45d1d	-0.4147729
114	0x3e8fdf41	0.28100017
115	0x3e8ecbe1	0.27889922
116	0xbddf3978	-0.10899633
117	0xbcfe3ea0	-0.031035721
118	0x3f014a8e	0.50504386
119	0xbeb5f5a9	-0.35538986
120	0xbd8552b8	-0.06509918
121	0xbdf5dbd1	-0.12004817
122	0x3e786cce	0.24260256
123	0x3f098737	0.53721946
124	0xbd283122	-0.04106248
125	0xbdcb92ef	-0.09940135
126	0x3eabf395	0.33584276
127	0xbd8b3766	-0.06797676
128	0xbc4d1990	-0.012518302
129	0xbe140f3b	-0.14458935
130	0xbccf8813	-0.02533344
131	0xbdd43f93	-0.10363688
132	0x3e23f482	0.16011241
133	0xbed581f5	-0.41700712
134	0xbe9d4bd6	-0.3072192
135	0xbdb5dd04	-0.08880046
136	0x3e7f5427	0.24934445
137	0xbe0e7d4e	-0.13914987
138	0x3dbc958a	0.0920821
139	0x3ea911de	0.33021444
140	0xbdca74bd	-0.09885547
141	0xbe60b308	-0.21943295
142	0xbe8d6baa	-0.27621204
143	0xbd3292cc	-0.043597028
144	0xbe2f5f51	-0.17126204
145	0xbf0c19ed	-0.5472706
146	0x3de9ed48	0.11422211
147	0xbceac77d	-0.028659577
148	0xbb8bc7db	-0.004265768
149	0xbe2ea507	-0.1705514
150	0x3e5a7778	0.21334636
151	0xbf1a8af2	-0.60368264
152	0x3df057fd	0.117355324
153	0xbe0ff2ba	-0.14057437
154	0xbe062025	-0.130982
155	0x3d43770d	0.047720958
156	0x3e497fb1	0.19677617
157	0xbe79ebf3	-0.24406414
158	0xbe0147a8	-0.12624991
159	0xbd948ab5	-0.07253019
160	0x3ee298f7	0.44257328
161	0xbf3ee093	-0.74561423
162	0xbd9cbc3d	-0.07653091
163	0xbceeb828	-0.029140547
164	0x3dd25e02	0.10271837
165	0xbd8d5f7e	-0.06902979
166	0xbdc674ac	-0.09690222
167	0xbe123f11	-0.1428187
168	0xbdec43d9	-0.115363784
169	0xbe8545ba	-0.2602976
170	0x3c8547a1	0.016269507
171	0xbc276b1b	-0.010218407
172	0x3eb6a940	0.35676003
173	0xbccf44c6	-0.025301348
174	0xbdf22f39	-0.11825413
175	0xbd4db81c	-0.05022441
176	0xbd10d90c	-0.035363242
177	0xbe633f35	-0.2219208
178	0x3da1f89d	0.07908747
179	0xbe02d35e	-0.12775943
180	0x3e1f0ece	0.15532991
181	0x3e4b9477	0.19880854
182	0xbd7c25e8	-0.061559588
183	0x3d944596	0.07239835
184	0x3ecc993e	0.39960665
185	0xbe56dd12	-0.20982769
186	0xbe8622b4	-0.2619835
187	0xbe133656	-0.14376196
188	0xbed850a8	-0.42249036
189	0xbe58c1f6	-0.2116774
190	0x3e8cc72b	0.27495703
191	0x3d728643	0.059210073
192	0xbe93a755	-0.28838602
193	0x3d086fe1	0.03330982
194	0xbe1647ec	-0.14675874
195	0x3de3a3be	0.11115216
196	0xbed14d16	-0.40879124
197	0xbf0b29b3	-0.543605
198	0x3e9f9f45	0.311762
199	0x3e674427	0.22584592
200	0xbda2323c	-0.07919738
201	0xbd8a4f83	-0.06753447
202	0xbe0d8f39	-0.13824166
203	0xbe392e62	-0.180841
204	0xbec29b89	-0.3800929
205	0x3e50d0f2	0.20392206
206	0x3e5c0f78	0.21490276
207	0x3da80e58	0.08205861
208	0xbe8b7f3d	-0.27245513
209	0x3e0da8f8	0.13833988
210	0xbc8b5ff0	-0.01701352
211	0xbdbeb9b9	-0.093127675
212	0xbe400bb1	-0.1875446
213	0x3d87898d	0.066180326
214	0x3e25e6ec	0.16201371
215	0xbd83443c	-0.06409499
216	0xbed45dfd	-0.41477957
217	0x3d7e5390	0.06209141
218	0x3da483c0	0.08032942
219	0x3ce0482b	0.027378162
220	0x3ce7c192	0.028290544
221	0xbde2b47b	-0.1106958
222	0xbdf13d03	-0.11779215
223	0xbe6d3eca	-0.23168483
224	0xbf24c3e4	-0.64361405
225	0xbef4e02c	-0.4782728
226	0x3d912de4	0.07088831
227	0x3d59f080	0.053207874
228	0xbf1d4cf3	-0.6144554
229	0xbd859109	-0.06521804
230	0x3dddec80	0.108361244
231	0xbe426d49	-0.18987001
232	0xbec488ba	-0.38385564
233	0x3e41fcdd	0.18944116
234	0xbe8f5092	-0.27991158
235	0xbe666773	-0.225004
236	0xbe89021d	-0.26759425
237	0x3e4f2723	0.20229773
238	0xbdc155a6	-0.09440164
239	0xbe28f25f	-0.16498707
240	0xbeaa7f35	-0.33300176
241	0x3ed13d82	0.4086724
242	0xbe1a3914	-0.15060836
243	0xbd79eb45	-0.061015386
244	0xbcba4f68	-0.022742942
245	0x3dba95cb	0.09110602
246	0xbe4229ab	-0.18961208
247	0xbe202ee3	-0.15642886
248	0xbdae0796	-0.08497541
249	0x3e21a51c	0.1578564
250	0xbe1cbb14	-0.1530574
251	0xbe4c07ed	-0.19924898
252	0xbe718e07	-0.23589335
253	0x3cfbaecc	0.030722998
254	0xbdbdd3d7	-0.09268921
255	0xbe62852d	-0.22121115

network_body._body_endoder.seq_layers.0.bias f4 [256]
0	0xbc8f2a68	-0.017476276
1	0xbe4d8466	-0.20070037
2	0xbd00e858	-0.03147158
3	0xbd66797c	-0.0562682
4	0x3ce8e851	0.02843109
5	0xbdffe3a8	-0.12494594
6	0xbca21ae7	-0.019788219
7	0x3db29264	0.08719328
8	0xbe5ac97a	-0.2136592
9	0xbddc28c8	-0.10749966
10	0x3d10e144	0.03537108
11	0xbd562c2a	-0.052288212
12	0xbd1f9e57	-0.038969364
13	0xbd6a439f	-0.057193395
14	0xbdff3d78	-0.12462896
15	0xbdd1bd0a	-0.102411345
16	0xbe9473b0	-0.28994513
17	0xbe149969	-0.14511646
18	0xbd27afbf	-0.04093909
19	0x3db3a546	0.08771758
20	0xbd265114	-0.040604666
21	0xbd8de371	-0.06928147
22	0xbde1c235	-0.1102337
23	0xbe1437fd	-0.14474483
24	0xbdee92c0	-0.11649084
25	0xbc5094cc	-0.012730788
26	0x3cafce5a	0.0214607
27	0x3d5673cd	0.05235653
28	0x3d015e66	0.031584166
29	0x3d4b8028	0.049682766
30	0x3e651bb7	0.22373854
31	0xbcd71caf	-0.026258795
32	0xbdd3aa29	-0.1033519
33	0xbd1b81d0	-0.037965596
34	0xbd88448d	-0.066537
35	0xbdc9e637	-0.09858363
36	0x3d890975	0.06691257
37	0x3ddbb625	0.10728101
38	0xbcb62885	-0.022236118
39	0xbd9a7aab	-0.07542928
40	0x3d0cd1e5	0.03437986
41	0x3e752065	0.23938139
42	0xbe81aafe	-0.2532577
43	0xbd153cf4	-0.036435083
44	0x3d9196ae	0.07108818
45	0x3cc70776	0.02429555
46	0xbd6a5439	-0.057209227
47	0xbd7d5e7e	-0.061857693
48	0x3c6094d7	0.013707361
49	0xbe41cf9d	-0.18926854
50	0xbd9b39a5	-0.07579354
51	0xbe1601ba	-0.14649096
52	0x3d1f6231	0.038912002
53	0xbc307129	-0.010769167
54	0xbdcda941	-0.10042048
55	0xbdd98f3e	-0.106230244
56	0xbd18aad3	-0.037272286
57	0x3cfaae99	0.030600833
58	0xbe1c40f2	-0.1525915
59	0xbe4ed936	-0.20200047
60	0x3ca59c9b	0.020216277
61	0xbdb3cc48	-0.08779198
62	0xbcf6259d	-0.030047232
63	0x3af0c95f	0.001837056
64	0xbe00f135	-0.12592013
65	0xbc08bc28	-0.008345641
66	0xbde788ae	-0.113053665
67	0xbd9f2c9e	-0.07772182
68	0xbd65f198	-0.056138605
69	0xbdb0dedd	-0.08636258
70	0xbd8bad15	-0.06820122
71	0xbde9bdc8	-0.11413151
72	0xbd274fd6	-0.04084762
73	0xbe32cbb5	-0.1746052
74	0x3c4bb321	0.012432844
75	0xbe41d9b5	-0.18930705
76	0xbe4486b7	-0.19192015
77	0xbcbcce06	-0.023047458
78	0xbdccec6f	-0.10006034
79	0x3ce062b9	0.027390825
80	0xbd78f094	-0.06077631
81	0xbde7e199	-0.11322326
82	0xbdee851c	-0.11646482
83	0xbdac4d02	-0.084131256
84	0xbdadb87a	-0.08482452
85	0xbda0619a	-0.07831116
86	0xbcf9b8e2	-0.030483667
87	0x3ce67c9e	0.028135594
88	0xbe352a9b	-0.17692034
89	0xbe2ad42c	-0.166825
90	0xbe182dc3	-0.14861207
91	0xbd70becd	-0.05877571
92	0xbdbc6f33	-0.09200897
93	0xbc506a32	-0.012720631
94	0xbe0f6859	-0.14004649
95	0x3c071a74	0.008246053
96	0xbcb9d734	-0.022685625
97	0xbe015dc9	-0.12633432
98	0x3d4c9aea	0.049952425
99	0xbde63a83	-0.11241629
100	0xbe159cdc	-0.14610618
101	0xbc870047	-0.016479624
102	0xbdad0493	-0.08448138
103	0xbdcb5699	-0.099286266
104	0xbdd0cdfc	-0.101955384
105	0xbc464d82	-0.01210344
106	0x3ddb6b4a	0.10713823
107	0x3c299498	0.010350369
108	0xbd87ea1b	-0.06636449
109	0xbdac9650	-0.08427107
110	0xbdaeb0b2	-0.08529796
111	0xbd807637	-0.06272548
112	0x3da15947	0.078783564
113	0xbc459c5a	-0.012061203
114	0xbe5c6e9d	-0.2152657
115	0x3cbb7ddd	0.022887165
116	0xbd4187f1	-0.047248784
117	0xbdcba0a9	-0.09942753
118	0xbe23e682	-0.160059
119	0xbc39a703	-0.011331323
120	0xbe4b6dcf	-0.19866107
121	0xbe43245b	-0.19056837
122	0xbdf62073	-0.12017908
123	0xbe0d311b	-0.13788263
124	0xbe0ba369	-0.13636555
125	0xbe3b9031	-0.18316723
126	0xbddba31b	-0.10724469
127	0xbd16643b	-0.03671668
128	0xbcd5fac6	-0.026120555
129	0xbcc8b4bf	-0.024500249
130	0xbdcc1731	-0.09965361
131	0xbd429e41	-0.047514204
132	0xbdc17b2c	-0.09447321
133	0xbb9f04c1	-0.0048528616
134	0xbdacab03	-0.084310554
135	0xbd276d2b	-0.040875595
136	0xbe1ac699	-0.15114821
137	0xbdb6306c	-0.088959545
138	0xbcfb25aa	-0.030657608
139	0xbdb8721a	-0.09006138
140	0xbd6018e2	-0.05471123
141	0xbdc967ae	-0.098342285
142	0x3b5bac14	0.0033519315
143	0xbe855f36	-0.26049203
144	0xbd8e4222	-0.069462076
145	0x3da5c9d0	0.08095133
146	0xbe0f769b	-0.14010088
147	0x3d3510e2	0.044205554
148	0xbd84b797	-0.064803295
149	0xbdb1fb9e	-0.0869057
150	0xbe3e6cc3	-0.18596177
151	0xbe0a01ff	-0.13477324
152	0xbd065b14	-0.032801703
153	0xbdab2b00	-0.08357811
154	0xbe5a66ee	-0.21328327
155	0xbc90fed6	-0.01769964
156	0x386d0b27	5.651559e-05
157	0x3db901ac	0.09033522
158	0xbdb6017d	-0.088870026
159	0x3c3db05f	0.011577695
160	0xbdda8e55	-0.10671679
161	0xbd8138d0	-0.06309664
162	0x3d7f0e8b	0.06226973
163	0x3cca62e1	0.024705352
164	0x3d8eb57e	0.06968211
165	0xbdd815af	-0.10551011
166	0x3db8880d	0.090103246
167	0xbcea89a0	-0.028630078
168	0xbdbc12d9	-0.091832824
169	0xbdd27248	-0.10275704
170	0xbd73c3b1	-0.059512798
171	0x3d92d544	0.071695834
172	0xbd23b5e0	-0.03996837
173	0x3d0ad6cb	0.03389625
174	0xbdc6f0ec	-0.09713921
175	0xbc514730	-0.01277332
176	0xbe1c44d7	-0.15260635
177	0xbdef76b4	-0.11692563
178	0xbdd89bd2	-0.10576595
179	0xbe310e1f	-0.17290543
180	0xbda83e9c	-0.08215067
181	0xbdfe31f8	-0.124118745
182	0xbcb2e09c	-0.021835618
183	0xbe016fa7	-0.12640248
184	0xbc908e45	-0.017645964
185	0xbe468f19	-0.19390525
186	0xbe0dbd0c	-0.13841647
187	0xbcef5e21	-0.029219689
188	0xbe28d0cb	-0.16485898
189	0xbdfd7333	-0.12375488
190	0xbca00b95	-0.019536773
191	0xbe4cedd9	-0.20012607
192	0x3cce0d00	0.025152683
193	0xbdad24d9	-0.08454294
194	0xbdb01c6e	-0.085991725
195	0xbdfe1505	-0.12406353
196	0x3c4c7e53	0.01248129
197	0xbdb5ce3c	-0.08877227
198	0xbe1dcdc6	-0.15410528
199	0xbd038339	-0.032107566
200	0x3b36612b	0.0027828913
201	0xbcc8fbf6	-0.024534207
202	0xbd0b8509	-0.03406242
203	0xbe8a53d2	-0.27017075
204	0xbe0ad56a	-0.13557974
205	0xbe28d62e	-0.16487953
206	0xbe452faf	-0.19256471
207	0xbe38892c	-0.18021077
208	0xbd5055e4	-0.05086316
209	0xbd4f91b4	-0.050676063
210	0xbd80a987	-0.06282335
211	0x3d8e2f71	0.069426425
212	0xbc103e4d	-0.008803916
213	0xbd293b61	-0.041316394
214	0xbcedd2bc	-0.02903115
215	0xbd37f44c	-0.044910714
216	0xbce58845	-0.02801908
217	0xbce4d40d	-0.027933145
218	0xbc33228c	-0.01093353
219	0xbe057586	-0.13033113
220	0xbd126123	-0.035737168
221	0xbe308a1a	-0.17240182
222	0xbdead950	-0.1146723
223	0x3dfe4df7	0.12417214
224	0x3df9014a	0.12158449
225	0xbde010d9	-0.109407134
226	0xbd5700c7	-0.052490976
227	0xbda8a1d6	-0.08233993
228	0x3c6afd64	0.01434264
229	0xbdbe173e	-0.09281777
230	0x3cdf4d33	0.027258491
231	0xbc7149c0	-0.014727056
232	0x3d822249	0.063541956
233	0xbda43341	-0.080175884
234	0xbd96e8f4	-0.07368651
235	0x3e42f006	0.19036874
236	0xbccd4004	-0.02505494
237	0xbdcc9c12	-0.099907055
238	0x3c537e0f	0.012908473
239	0xbdeb1104	-0.11477855
240	0xbd559e6d	-0.05215304
241	0x3b7984df	0.0038073582
242	0xbd901247	-0.07034736
243	0xbcabfc73	-0.0209944
244	0x3b4eefdf	0.003157608
245	0xbcbeefae	-0.023307648
246	0x3e227474	0.15864736
247	0x3cffd676	0.031230193
248	0xbb98cdaa	-0.004663189
249	0x3de36cc4	0.1110473
250	0xbd5e949e	-0.05434095
251	0xbda77c28	-0.08177978
252	0xbcece2d6	-0.028916758
253	0xbda6b398	-0.081397235
254	0xbdc2c3de	-0.09510015
255	0xbe0c9425	-0.13728388

network_body._body_endoder.seq_layers.2.weight f4 [256, 256]
0	0xbe988238	-0.2978685
1	0x3c4d4686	0.012529021
2	0xbe5d4721	-0.21609165
3	0xbebe1868	-0.37127995
4	0x3eaca67c	0.33720767
5	0xbebc4eea	-0.36778957
6	0xbdc6b323	-0.09702136
7	0xbe0c404f	-0.13696407
8	0xbdf4c28d	-0.1195117
9	0x3e56a449	0.20961107
10	0xbc103e79	-0.008803957
11	0xbd770582	-0.060307987
12	0xbcdf344b	-0.027246615
13	0x3da4f3ec	0.08054337
14	0x3d1372f3	0.035998296
15	0x3dd77a72	0.105214015
16	0xbea9d9c8	-0.33173966
17	0xbed73262	-0.42030627
18	0x3c1fbbfa	0.009749407
19	0xbe6c37b7	-0.23068129
20	0x3e0be1b9	0.13660325
21	0xbebfdafd	-0.37471762
22	0x3e0705e9	0.13185848
23	0xbc1fa4a4	-0.009743843
24	0xbe5f2291	-0.2179053
25	0x3e85d02c	0.26135385
26	0xbe6c3b86	-0.23069581
27	0x3e86db42	0.26339155
28	0xbde755e9	-0.11295683
29	0x3db9258d	0.09040365
30	0xbc57a8aa	-0.013162771
31	0x3dd77dfc	0.105220765
32	0x38e0927a	0.00010708436
33	0x3efcd03f	0.4937763
34	0xbee3d2e4	-0.44496834
35	0x3e6b1e0c	0.2296068
36	0xbf097eb0	-0.53708935
37	0x3e1ac8d9	0.1511568
38	0x3e32a287	0.17444812
39	0xbe4ebbac	-0.20188779
40	0x3d863b2c	0.06554255
41	0xbeb282a7	-0.34865305
42	0x3ce6271f	0.028094826
43	0xbde1f1ab	-0.11032423
44	0x3ee58855	0.44830576
45	0xbe28d65f	-0.16488026
46	0xbd55dafa	-0.052210785
47	0xbd9d67a6	-0.07685785
48	0xbd754b43	-0.05988623
49	0x3ea1902a	0.315553
50	0x3ee3251a	0.44364244
51	0x3e2250d2	0.15851143
52	0x3e6c59f0	0.23081183
53	0xbcf0ea8f	-0.029408721
54	0xbe5f1a00	-0.21787262
55	0xbe4a9a06	-0.19785318
56	0xbd2fbe09	-0.04290584
57	0xbf20cf77	-0.62816566
58	0x3dc05503	0.09391215
59	0x3e902087	0.28149816
60	0x3d0c8da0	0.03431475
61	0xbe9adf14	-0.3024832
62	0x3db4541d	0.08805106
63	0xbcdb7dcf	-0.026793389
64	0x3e844031	0.25830224
65	0xbe4d45ea	-0.20046201
66	0xbe331330	-0.17487788
67	0x3ded6db6	0.11593191
68	0x3dc11db8	0.094294965
69	0xbe6ebd0a	-0.233143
70	0xbc31e6a4	-0.010858212
71	0x3d8937e4	0.067001134
72	0xbeacd1f1	-0.33753923
73	0xbe465d98	-0.1937164
74	0x3e1ba97b	0.1520137
75	0x3e246077	0.16052423
76	0x3e853a87	0.26021215
77	0x3dd78c25	0.10524777
78	0xbe91156e	-0.28336662
79	0xbdd1ac5b	-0.10237952
80	0xbd9828f7	-0.074296884
81	0x3e51993b	0.20468609
82	0xbc1c9fc3	-0.009559575
83	0x3db62ae8	0.088949025
84	0xbea3aee1	-0.3196936
85	0x3d3b1d52	0.04568226
86	0x3cf7d097	0.03025083
87	0x3d93d41e	0.072181925
88	0x3e9d9351	0.30776456
89	0xbe0a01be	-0.13477227
90	0xbe768791	-0.24075152
91	0xbe424867	-0.18972932
92	0xbe67c627	-0.22634183
93	0x3e4a5b38	0.1976136
94	0x3dd05aa5	0.10173539
95	0xbe8745b9	-0.26420382
96	0xbed120f8	-0.40845466
97	0xbe2508c5	-0.16116627
98	0x3e16ef93	0.14739828
99	0xbd8f642b	-0.070015274
100	0x3d7bfa05	0.061517734
101	0xbec55072	-0.38537937
102	0x3d6518c7	0.055931833
103	0x3e6d56fd	0.23177715
104	0xbe2481b7	-0.16065107
105	0xbe092840	-0.1339426
106	0x3eb4a492	0.35281807
107	0xbba7619b	-0.005108071
108	0x3d47bb9f	0.048762914
109	0xbe859932	-0.2609344
110	0xbe4a835e	-0.19776675
111	0xba4123bf	-0.00073676923
112	0xbe0012ca	-0.12507167
113	0x3e6dccc9	0.2322265
114	0x3dd346ce	0.10316239
115	0x3da5e489	0.0810023
116	0xbddd6f94	-0.108122975
117	0x3e1e21ce	0.15442583
118	0xbd95a8ab	-0.073075615
119	0xbe42b479	-0.19014157
120	0xbda5359d	-0.080668665
121	0xbd148a2d	-0.036264587
122	0x3ed855b0	0.42252874
123	0x3e1f30e1	0.1554599
124	0x3ced8b6a	0.028997142
125	0xbc8cd329	-0.017190533
126	0x3e2970c2	0.1654692
127	0xbdce54d5	-0.10074774
128	0x3c8a0bca	0.016851325
129	0x3d011116	0.031510435
130	0xbdcc3a8d	-0.09972105
131	0x3d36eb6d	0.044658113
132	0xbe04a453	-0.1295331
133	0xbe15fac5	-0.14646442
134	0x3ea6870a	0.32524902
135	0x3dff4765	0.12464789
136	0x3d2e658f	0.042577323
137	0x3e28b8f7	0.16476808
138	0xbd4ae1f0	-0.049531877
139	0x3e67b7ce	0.2262871
140	0xbede969b	-0.43474278
141	0xbeb1786e	-0.34662193
142	0xbe872c83	-0.26401147
143	0xbd99a3b8	-0.0750193
144	0xbc97a114	-0.018509425
145	0xbdbf8330	-0.09351194
146	0x3d2c3b80	0.04204893
147	0x3da55aa5	0.0807393
148	0x3d08deae	0.03341549
149	0x3d4a9a7a	0.049463727
150	0x3e10efac	0.14153928
151	0x3e9e0561	0.3086348
152	0x3e5b45a1	0.2141328
153	0xbecf7d8e	-0.40525478
154	0xbcdb1c70	-0.026746958
155	0x3e00ccc6	0.12578115
156	0xbe265ca2	-0.16246274
157	0xbebed84b	-0.37274393
158	0xbd44da05	-0.048059482
159	0xbde87a31	-0.11351431
160	0x3e4a693c	0.19766706
161	0x3d6a1d93	0.05715711
162	0xbe3cfa26	-0.18454799
163	0xbe8a4d1e	-0.2701196
164	0xbe07d777	-0.13265787
165	0xbf09e171	-0.5385962
166	0xbeb49f77	-0.35277912
167	0x3dced374	0.10098925
168	0x3e0d342b	0.13789432
169	0xbe9b7cd9	-0.3036869
170	0xbf26fad1	-0.65226465
171	0xbdc8e8b3	-0.09810009
172	0xbdf99e2a	-0.121883705
173	0x3dc005ee	0.09376131
174	0x3e5b2050	0.21399045
175	0xbe0d2991	-0.13785388
176	0xbda18ee5	-0.07888583
177	0x3dd76550	0.10517371
178	0xbe835dbd	-0.25657454
179	0x3dbe2c2c	0.09285769
180	0x3d9d5af3	0.07683363
181	0x3c81d0b0	0.01584658
182	0x3decb205	0.11557392
183	0x3d735c10	0.05941397
184	0x3e270968	0.16312182
185	0xbe4561a2	-0.19275525
186	0x3dcde582	0.10053541
187	0xbd087f48	-0.03332451
188	0xbe84cb55	-0.2593638
189	0x3d5d92db	0.05409513
190	0x3f173e4b	0.59079427
191	0xbe33be5b	-0.17553084
192	0x3d8c1900	0.06840706
193	0x3e2b9483	0.16755871
194	0xbd445a3f	-0.047937628
195	0xbea01a5e	-0.31270117
196	0xbe091f99	-0.1339096
197	0x3e252a06	0.16129312
198	0x3d0e96eb	0.034811895
199	0xbe69b8f4	-0.2282446
200	0xbe2cd089	-0.16876425
201	0xbe7056bc	-0.23470587
202	0x3d46b8da	0.048516132
203	0xbd9a5aae	-0.07536827
204	0xbf1288e6	-0.5724014
205	0x3dabf82c	0.083969444
206	0xbe96c2af	-0.29445407
207	0x3c5fb9e0	0.013655156
208	0xbe9b1c97	-0.3029525
209	0x3ce47d92	0.027891908
210	0xbb7940c8	-0.0038032997
211	0xbdb9c834	-0.09071389
212	0x3e628e54	0.22124606
213	0xbc8b7589	-0.017023819
214	0xbddd998f	-0.108203046
215	0xbd832189	-0.06402881
216	0xbd900e05	-0.07033924
217	0x3c3a6554	0.011376698
218	0x3c29846c	0.010346513
219	0x3e505b66	0.20347366
220	0xbd8166ff	-0.06318473
221	0xbe7cfbe6	-0.24705467
222	0xbe6dc903	-0.23221211
223	0x3e6ad2be	0.22931954
224	0xbebd8e8f	-0.37022826
225	0x3ee6bb68	0.45064855
226	0xbf0d876a	-0.5528475
227	0x3eb3913b	0.3507174
228	0x3e957aa1	0.2919512
229	0x3ea995b4	0.33122027
230	0x3eae4185	0.34034362
231	0x3ee45f1e	0.4460382
232	0x3c7b97e7	0.015356041
233	0x3d206a5c	0.039163932
234	0xbd717fd9	-0.058959816
235	0xbecb2704	-0.39678204
236	0x3e8575ee	0.26066536
237	0xbd7fd6b3	-0.062460613
238	0xbbceb7a0	-0.006308511
239	0xbd91ff2d	-0.07128749
240	0x3e716995	0.23575433
241	0x3d75b7a8	0.0599896
242	0xbed3c486	-0.41360873
243	0x3ed48815	0.41510072
244	0xbde4ebe6	-0.111778066
245	0xbc79f83b	-0.015256937
246	0x3e5fbdd0	0.21849751
247	0x3e62ce9c	0.22149128
248	0xbdd01eae	-0.10162102
249	0xbe2de06e	-0.16980144
250	0x3d71f068	0.05906716
251	0xbe5d5c54	-0.21617252
252	0xbe92b288	-0.28651834
253	0x3e342c36	0.1759499
254	0xbeea3e77	-0.45750782
255	0x3d534214	0.05157669

network_body._body_endoder.seq_layers.2.bias f4 [256]
0	0xbe83f7f4	-0.2577511
1	0xbe1f6ef9	-0.15569676
2	0xbe535c61	-0.20640709
3	0xbe3aafd4	-0.18231136
4	0xbde39890	-0.11113083
5	0xbe343906	-0.17599878
6	0xbe6aba0b	-0.22922532
7	0xbe5f31c3	-0.21796326
8	0xbe95ef6e	-0.29284233
9	0xbe6b0c86	-0.22953996
10	0xbe6b1501	-0.22957231
11	0xbd62efb0	-0.055404365
12	0xbd0f384a	-0.03496579
13	0xbddd45ec	-0.10804352
14	0xbe8cdf04	-0.27513897
15	0xbdeb051c	-0.11475584
16	0xbe2cb924	-0.168675
17	0xbd5d2bae	-0.053996734
18	0xbe54924d	-0.20758934
19	0xbd941c54	-0.07231966
20	0xbe5b7eeb	-0.21435134
21	0xbe75c49b	-0.2400078
22	0xbb9fa329	-0.004871745
23	0xbe7a17e8	-0.24423182
24	0xbe5171a5	-0.20453508
25	0xbe74b39a	-0.23896638
26	0xbe370d8b	-0.1787626
27	0xbd99c2f9	-0.07507891
28	0xbe989f5b	-0.2980908
29	0xbe71c256	-0.2360929
30	0xbe48118f	-0.19537948
31	0xbdd30437	-0.10303538
32	0xbe0b4008	-0.13598645
33	0xbe81acb4	-0.25327075
34	0xbdc6ea2b	-0.09712633
35	0xbe31763b	-0.17330258
36	0xbdeb25a2	-0.11481787
37	0xbed1da95	-0.40987077
38	0xbd8336fd	-0.064069726
39	0xbe982ac5	-0.2972013
40	0xbe3ae4f6	-0.18251404
41	0xbe2962b9	-0.16541566
42	0xbe87a2f0	-0.264915
43	0xbe59c7e3	-0.21267657
44	0xbc1ce7ca	-0.009576747
45	0xbe7c3f59	-0.2463354
46	0xbe82b5d0	-0.25529337
47	0x3d92964f	0.07157575
48	0xbe8bbb2a	-0.27291232
49	0xbed7d7b7	-0.42156765
50	0xbcf119c2	-0.029431228
51	0xbe2e25b7	-0.17006575
52	0xbe7068c8	-0.23477471
53	0xbea38285	-0.31935516
54	0xbeb5aedd	-0.35484973
55	0xbe38a6ba	-0.18032351
56	0xbe74f79a	-0.23922578
57	0xbe92bb79	-0.28658655
58	0xbdc0603e	-0.09393357
59	0xbea1d6e3	-0.31609258
60	0xbe73d3dc	-0.23811287
61	0xbe9fef75	-0.3123738
62	0xbe7b5243	-0.24543099
63	0xbe8a81a1	-0.27052024
64	0xbe932776	-0.28741044
65	0xbdf54773	-0.119765185
66	0xbe5d63c5	-0.2162009
67	0xbe42372c	-0.18966359
68	0xbd90ce19	-0.0707056
69	0xbe689a02	-0.22715
70	0xbe089ae3	-0.13340335
71	0x3a0053f1	0.0004895321
72	0xbe5e7826	-0.2172552
73	0xbe74918f	-0.23883651
74	0xbe5c24ed	-0.21498461
75	0xbe5377b7	-0.20651136
76	0xbe2ed4f8	-0.17073429
77	0xbe369d52	-0.1783345
78	0xbe479908	-0.1949197
79	0xbe886106	-0.26636523
80	0xbd62805b	-0.05529819
81	0xbde60c19	-0.11232776
82	0xbe1c3b32	-0.15256956
83	0xbe85852b	-0.26078162
84	0xbe841cbd	-0.25803176
85	0xbe3f3f03	-0.18676381
86	0xbe4315e0	-0.19051313
87	0xbe635a82	-0.22202495
88	0xbe6c4f09	-0.23077025
89	0xbe399802	-0.18124393
90	0xbe70c717	-0.23513447
91	0xbe8cab74	-0.27474558
92	0xbe36d6d3	-0.17855386
93	0xbc12f745	-0.008970086
94	0xbe4348cb	-0.19070737
95	0xbe77816f	-0.24170469
96	0xbe6f6ea3	-0.23382048
97	0xbe7fde15	-0.24987061
98	0xbe92d603	-0.28678903
99	0xbdf1c3ee	-0.11804949
100	0xbdfdb1e0	-0.123874426
101	0xbe912b0c	-0.28353155
102	0xbd7f3ace	-0.06231194
103	0xbe74f1a2	-0.239203
104	0xbee8b89a	-0.4545334
105	0xbdb9dd9e	-0.09075473
106	0xbdb4c2de	-0.088262305
107	0xbd989c60	-0.07451701
108	0xbe0f1efb	-0.13976662
109	0xbdf2a65a	-0.11848135
110	0xbea3f80d	-0.32025185
111	0xbe5290b3	-0.20563011
112	0xbe59141f	-0.21199082
113	0xbe40dac9	-0.1883346
114	0xbe4d5888	-0.20053303
115	0xbe2015d9	-0.15633334
116	0xbe91b2bc	-0.28456676
117	0xbd7fb5de	-0.0624293
118	0xbe76a993	-0.24088125
119	0xbe9f3123	-0.31092176
120	0xbe84d88d	-0.25946465
121	0xbdcbe480	-0.09955692
122	0xbe19a35f	-0.15003727
123	0xbd7d2e0c	-0.06181149
124	0xbe2b5948	-0.16733277
125	0xbe8438ce	-0.2582459
126	0xbe4b1905	-0.19833763
127	0x3d6931e7	0.056932356
128	0xbe834a3b	-0.2564257
129	0xbe34f3ec	-0.17671174
130	0xbe5c3cf6	-0.2150763
131	0xbd34cd95	-0.04414137
132	0xbe6dda6a	-0.2322785
133	0xbe0f4063	-0.13989405
134	0xbdc6433f	-0.09680795
135	0xbe0919c7	-0.1338874
136	0xbdb6d728	-0.089277565
137	0xbe011691	-0.12606265
138	0x3ce70170	0.028198928
139	0xbe424112	-0.18970135
140	0xbe6942bc	-0.22779363
141	0xbd866d5d	-0.06563828
142	0xbe0624d9	-0.13099994
143	0xbe167e7f	-0.14696692
144	0xbe1078ab	-0.14108531
145	0xbd04834f	-0.032351788
146	0xbd5f1d5d	-0.054471362
147	0xbe67fc62	-0.2265487
148	0xbda2a52d	-0.07941661
149	0xbe9e3345	-0.3089849
150	0xbe2701df	-0.16309308
151	0xbe5a1089	-0.2129537
152	0xbdd5d974	-0.104418665
153	0xbe38df66	-0.1805397
154	0xbda57a1b	-0.080799304
155	0xbe88a02f	-0.2668471
156	0xbe82c575	-0.25541273
157	0xbd81daf4	-0.0634059
158	0xbe2710df	-0.1631503
159	0xbe1a7806	-0.15084848
160	0xbe4b8400	-0.19874573
161	0xbe86b11d	-0.26307002
162	0xbe1f5985	-0.15561493
163	0xbe8c3f3b	-0.2739199
164	0xbe11391c	-0.14181942
165	0xbe43f3a5	-0.19135912
166	0xbdd2f82b	-0.103012405
167	0xbe80b229	-0.25135925
168	0xbe54f498	-0.2079643
169	0xbe824a56	-0.2544734
170	0xbe8c21e6	-0.27369612
171	0xbe9f40c7	-0.3110411
172	0xbd3868ad	-0.0450217
173	0xbe46f2a7	-0.19428502
174	0xbe4cf86b	-0.20016639
175	0xbe066289	-0.13123526
176	0xbe9b74d8	-0.30362582
177	0xbe6b0780	-0.2295208
178	0xbdd9c66c	-0.10633549
179	0xbe765fce	-0.24059984
180	0xbe78a5f4	-0.24282056
181	0xbe90ca88	-0.2827952
182	0xbe1d2996	-0.15347895
183	0xbe595409	-0.21223463
184	0xbe0520c1	-0.13000776
185	0xbe58a728	-0.21157515
186	0xbe6ce6a4	-0.23134857
187	0xbe4ae25e	-0.19812915
188	0xbdf1f197	-0.11813658
189	0xbe1119c3	-0.14169984
190	0xbe9e776a	-0.3095048
191	0xbe4c1c20	-0.19932604
192	0xbe340e79	-0.17583646
193	0xbd02409e	-0.031799905
194	0xbea39996	-0.31953114
195	0xbeba74c7	-0.3641722
196	0xbeb6817d	-0.35645667
197	0xbe93935a	-0.28823358
198	0xbe762850	-0.24038815
199	0xbeaafa37	-0.33394024
200	0xbd4cda8d	-0.050013114
201	0xbe602252	-0.21888092
202	0xbec7fefe	-0.3906173
203	0xbe22346f	-0.15840314
204	0xbe0a4831	-0.13504101
205	0xbc7cd9d0	-0.01543279
206	0xbe905036	-0.28186196
207	0xbe75f457	-0.2401899
208	0xbe6f294f	-0.23355602
209	0xbea53383	-0.32265863
210	0xbeaf93af	-0.3429236
211	0xbdb2b4d0	-0.087258935
212	0xbccc35d5	-0.024928013
213	0xbe5bc033	-0.21460037
214	0xbe22ac6a	-0.15886083
215	0xbe64b219	-0.22333564
216	0xbe2e5925	-0.17026193
217	0xbe931836	-0.2872941
218	0xbe557b13	-0.2084773
219	0xbdc2c506	-0.095102355
220	0x3daa9293	0.08328738
221	0xbcce627b	-0.025193444
222	0xbe131bf6	-0.14366135
223	0xbec3470e	-0.38140148
224	0xbda37936	-0.079821035
225	0xbdbde344	-0.09271863
226	0xbe04ce78	-0.12969387
227	0xbd753c0d	-0.059871722
228	0xbe39a324	-0.1812864
229	0xbd14ade1	-0.036298636
230	0xbe404c48	-0.18779099
231	0xbe7ecf43	-0.24883752
232	0xbe13de3e	-0.14440247
233	0xbeaa567c	-0.33269107
234	0xbe87f209	-0.26551846
235	0xbe58852f	-0.21144556
236	0xbd7ef888	-0.062248737
237	0xbd7eb10f	-0.062180575
238	0xbe2a3835	-0.16623004
239	0xbd91fe00	-0.07128525
240	0xbeb07439	-0.3446367
241	0xbe8031dc	-0.2503804
242	0xbe8e9bf7	-0.27853367
243	0xbe92f9a0	-0.28706074
244	0xbde81a11	-0.11333097
245	0xbdd42be2	-0.103599325
246	0xbe964488	-0.2934916
247	0xbeaed248	-0.34144807
248	0xbd926e61	-0.07149959
249	0xbe20dc81	-0.15709116
250	0xbe749730	-0.23885798
251	0xbe76e2bb	-0.24109928
252	0xbe87514f	-0.2642922
253	0xbdd36033	-0.10321083
254	0xbe8f4e52	-0.2798944
255	0xbe0f2bff	-0.13981627

action_model._discrete_distribution.branches.0.weight f4 [3, 256]
0	0xbdf2f70c	-0.11863527
1	0xbc072eea	-0.008250931
2	0x3e8f27de	0.27960104
3	0xbe6333db	-0.2218775
4	0x3e04ec94	0.12980872
5	0xbdc6dfc3	-0.09710648
6	0x3d90ac8e	0.07064162
7	0x3e34dea4	0.17663056
8	0x3d1e35c8	0.03862551
9	0xbdfc7d4c	-0.12328586
10	0xbd2307e9	-0.039802466
11	0x3e05e219	0.1307453
12	0x3e150828	0.14553893
13	0xbd2ee8c4	-0.04270245
14	0xbddac9e0	-0.10683036
15	0xbd93d4b2	-0.07218303
16	0x3e53140c	0.20613116
17	0xbe2f0621	-0.17092182
18	0x3b767ed5	0.003761222
19	0x3e873b81	0.26412585
20	0xbe89a228	-0.26881528
21	0xbeec9ad8	-0.46211886
22	0x3f08410d	0.5322426
23	0x3d8fa10a	0.07013138
24	0x3dfc25f7	0.12311929
25	0xbe5a6f7d	-0.21331592
26	0x3d89c21f	0.06726479
27	0x3d76f034	0.06028767
28	0xbdb4cff2	-0.08828725
29	0xbd963b40	-0.0733552
30	0x3e1293d0	0.14314198
31	0x3d1bc964	0.038033858
32	0x3c87ea55	0.01659123
33	0x3deeff06	0.116697356
34	0x3e79531c	0.2434811
35	0xbe838838	-0.25689864
36	0xbb829c3a	-0.003985909
37	0x3ca26cac	0.01982721
38	0xbdc71a4d	-0.09721813
39	0xbdb73865	-0.08946303
40	0xbdd33aab	-0.103139244
41	0x3d9d0eac	0.07668814
42	0xbe05e4a8	-0.13075507
43	0xbe17b809	-0.14816298
44	0xbd72050a	-0.059086837
45	0xbe83db7b	-0.25753388
46	0x3db690d7	0.08914345
47	0x3e88d3f1	0.26724198
48	0x3d9416f4	0.072309405
49	0xbd03afc2	-0.032150038
50	0x3e8338ff	0.25629422
51	0xbe50b89c	-0.20382923
52	0xbe8881c6	-0.2666151
53	0xbe3ae838	-0.18252647
54	0xbd5ad433	-0.053425025
55	0xbddcadb9	-0.107753225
56	0x3d8accb0	0.06777322
57	0xbddf60e4	-0.10907152
58	0xbe99c020	-0.30029392
59	0x3dd4ab07	0.103841834
60	0xbe42ac0a	-0.1901094
61	0xbe71dde0	-0.23619795
62	0xbd0ffe1f	-0.035154458
63	0xbce10b87	-0.027471317
64	0xbae6053d	-0.0017549169
65	0xbe62314f	-0.22089122
66	0xbd363ea2	-0.044493325
67	0x3e3c0e40	0.18364811
68	0x3d8c27cc	0.06843528
69	0x3e09c3d8	0.13453615
70	0x3d82ce27	0.06386977
71	0xbdabbf35	-0.08386079
72	0x3b2eb8c5	0.0026660424
73	0xbe1db1f2	-0.15399912
74	0x3c53fd56	0.012938818
75	0xbe3b8a31	-0.18314435
76	0x3dea76bc	0.11448428
77	0x3d633082	0.055466183
78	0xbd9719df	-0.073779814
79	0xbd55f761	-0.052237872
80	0x3e03727f	0.12836646
81	0x3ea61283	0.32435998
82	0x3de77851	0.113022454
83	0xbdce71c6	-0.10080294
84	0x3e233f6a	0.1594216
85	0xbe88b01c	-0.2669686
86	0xbe6beb74	-0.23039037
87	0xbdb2c4e0	-0.08728957
88	0xbd56678c	-0.052344844
89	0x3cabcc26	0.020971369
90	0xbe8afdec	-0.27146852
91	0x3d81e67e	0.06342791
92	0xbba735b7	-0.005102839
93	0xbce386df	-0.027774272
94	0x3d962f16	0.073332
95	0x3e0790ad	0.13238783
96	0x3dedf66c	0.11619267
97	0xbea806d6	-0.32817715
98	0x3e181052	0.14849976
99	0x3dead004	0.11465457
100	0x3d19f663	0.03758849
101	0xbe4cf4de	-0.20015284
102	0xbc3aaa5b	-0.011393155
103	0xbdfafc7e	-0.1225519
104	0xbe01ead3	-0.12687235
105	0xbc5c05ea	-0.013429144
106	0x3d94a922	0.07258822
107	0x3cd9c5f4	0.02658365
108	0xbd405fd9	-0.046966407
109	0x3c913d34	0.01772938
110	0x3daf85ec	0.085704654
111	0xbdba5d93	-0.09099879
112	0x3da6759a	0.081278995
113	0x3af4efc3	0.0018687177
114	0x3dbcaaf4	0.09212294
115	0xbe97d10c	-0.29651678
116	0x3e0a7235	0.13520129
117	0x3e5d36e8	0.21602976
118	0xbe0f57cb	-0.13998334
119	0xbd8be6e3	-0.068311475
120	0x3e23b3c8	0.1598655
121	0xbd522370	-0.051303327
122	0xbe0dbd91	-0.13841845
123	0xbe387def	-0.1801679
124	0x3e85edb5	0.2615792
125	0xbe424027	-0.18969785
126	0xbd250c1c	-0.04029475
127	0xbd000d08	-0.031262428
128	0xbd64a196	-0.055818163
129	0xbc1bdaa0	-0.0095125735
130	0x3d57e483	0.05270816
131	0x3e8b7778	0.27239585
132	0xbe3883d1	-0.18019034
133	0x3c8fc0d8	0.01754801
134	0xbd7d7ee1	-0.06188858
135	0x3dd69170	0.10476959
136	0x3dd7be40	0.10534334
137	0xbe1308d1	-0.14358832
138	0x3dcff4f4	0.10154143
139	0x3e891e66	0.26781005
140	0xbece9b82	-0.40353018
141	0x3e3efa2f	0.18650125
142	0xbdbed870	-0.09318626
143	0x3e0c5267	0.13703309
144	0x3dd14b4f	0.10219442
145	0x3e0623f4	0.13099653
146	0x3e805167	0.25062105
147	0x3d85459d	0.06507418
148	0xbed24f23	-0.41076002
149	0x3e3aadf7	0.18230425
150	0x3e8fe505	0.28104416
151	0x3d23faf0	0.040034235
152	0xbd845816	-0.064621136
153	0x3e3abc4c	0.18235892
154	0x3c6284aa	0.013825575
155	0xbd58e415	-0.05295189
156	0xbe7e845c	-0.24855179
157	0xbda65300	-0.081213
158	0xbe0911e9	-0.13385738
159	0x3e4452db	0.19172232
160	0x3e52a690	0.20571351
161	0x3e41fabe	0.18943307
162	0xbe3804d4	-0.17970592
163	0xbd13669a	-0.03598652
164	0xbe2fe704	-0.17177969
165	0xbb58e568	-0.003309572
166	0xbd95a037	-0.07305949
167	0xbe856e13	-0.26060542
168	0xbeb89807	-0.36053488
169	0x3d12a00f	0.035797175
170	0xbe0b7703	-0.13619618
171	0xbd96e2c0	-0.07367468
172	0xbe0469ac	-0.12930936
173	0x3d093f74	0.03350778
174	0xbdbb2482	-0.09137823
175	0xbd09726f	-0.033556398
176	0x3d0aa072	0.03384442
177	0x3d0072ed	0.0313596
178	0x3e15ec85	0.14641006
179	0x3c0ec5c5	0.008714144
180	0xbd1dd5ba	-0.038533904
181	0xbe62c837	-0.22146688
182	0x3d8fc507	0.07020002
183	0xbead9c8b	-0.33908495
184	0xbe4206c8	-0.189479
185	0xbea401a5	-0.32032505
186	0x3ba690b7	0.0050831693
187	0x3e30d856	0.17270026
188	0x3df47a7d	0.11937425
189	0x3e3f3521	0.18672611
190	0xbda4c1ff	-0.08044814
191	0x3db9e624	0.09077099
192	0x3d872e8f	0.06600677
193	0x3ec48746	0.38384455
194	0x3e927a87	0.28609106
195	0xbe87c11c	-0.26514518
196	0xbdd900fa	-0.105958894
197	0xbe834265	-0.25636593
198	0xbe659d70	-0.22423339
199	0xbe21f4fa	-0.15816107
200	0x3cac79c3	0.021054154
201	0x3da5ea4e	0.08101331
202	0x3e2e4e19	0.1702198
203	0xbef6822c	-0.48146188
204	0xbe6d7ef5	-0.23192962
205	0x3ed67a75	0.41890302
206	0xbdeeddb8	-0.11663383
207	0xbc88b5c7	-0.01668824
208	0x3d03b263	0.032152545
209	0xbdf9d5b4	-0.12198964
210	0x3d3fa678	0.046789616
211	0x3e5eabed	0.21745272
212	0x3e3f65b5	0.18691142
213	0xbd283a8e	-0.041071467
214	0x3d9c6ab6	0.07637541
215	0xbe043ffc	-0.12915033
216	0xbd9cd7ca	-0.07658346
217	0x3d9bc13c	0.07605216
218	0xbdae772b	-0.08518823
219	0x3d7f4de7	0.062330153
220	0x3e49a0b5	0.19690211
221	0x3ebe39ef	0.37153575
222	0xbe647a74	-0.22312337
223	0x3e04db2c	0.12974232
224	0x3db9d697	0.09074133
225	0xbd4f135d	-0.050555576
226	0xbdbcd1d2	-0.092197075
227	0xbb30ef63	-0.0026998154
228	0xbb6e364c	-0.0036348281
229	0x3e2a04a2	0.1660333
230	0xbeb74205	-0.35792556
231	0x3c607529	0.013699808
232	0xbe5ac2f9	-0.21363439
233	0x3e30743e	0.17231843
234	0x3c60ec94	0.01372828
235	0x3e51eecc	0.2050125
236	0xbd46d9ad	-0.048547436
237	0x3db719d9	0.08940477
238	0x3e1d3ade	0.15354487
239	0x3e12bfaf	0.14330934
240	0x3e058e0c	0.13042468
241	0x3e05d66c	0.13070077
242	0x3e8a7b02	0.27046973
243	0xbee49d2f	-0.44651172
244	0xbea398f9	-0.31952646
245	0x3dffec67	0.12496262
246	0x3dc513ea	0.09622939
247	0xbe55e463	-0.20887904
248	0xbd7031e7	-0.05864134
249	0xbd345012	-0.044021674
250	0xbe3a5fad	-0.1820056
251	0x3d64d97c	0.05587147
252	0x3c7d9019	0.01547625
253	0xbe134981	-0.14383508
254	0x3eac6792	0.33672768
255	0xbe27ae7d	-0.16375156

action_model._discrete_distribution.branches.0.bias f4 [3]
0	0xbd86673c	-0.06562659
1	0x3bf5666d	0.0074890167
2	0x3d79ce57	0.060987797

action_model._discrete_distribution.branches.1.weight f4 [2, 256]
0	0xbdfe45cc	-0.124156564
1	0xba99ab52	-0.0011724031
2	0x3db6f5f6	0.08933632
3	0xbd710ce0	-0.05885017
4	0x3e2ef489	0.1708547
5	0x3e22e3aa	0.1590716
6	0x3ccf10d2	0.025276575
7	0xbe3e7dbc	-0.18602651
8	0x3ac1866a	0.001476479
9	0x3eaf1d3b	0.3420199
10	0x3df556b7	0.1197943
11	0x3e4539ed	0.19260378
12	0xbd865f00	-0.065610886
13	0x3d9d36b1	0.07676447
14	0x3e6f4b98	0.2336868
15	0xbe329389	-0.17439093
16	0xbcdea9e6	-0.027180623
17	0xbd4545cf	-0.048162278
18	0xbd41871a	-0.047247984
19	0xbe40c9da	-0.18827
20	0x3d443bc8	0.047908574
21	0x3eca9e9d	0.39574137
22	0x3e830e15	0.2559668
23	0xbe879472	-0.26480442
24	0xbe8a2849	-0.2698386
25	0x3db94fdc	0.09048435
26	0x3d02b59e	0.031911485
27	0x3e8df178	0.2772329
28	0xbd582934	-0.05277367
29	0xbe0d3993	-0.13791494
30	0xbcc8254a	-0.024431843
31	0xbd398a15	-0.0452977
32	0x3df88101	0.121339805
33	0x3d832123	0.06402805
34	0xbd06804d	-0.0328372
35	0xbcaa094a	-0.020756382
36	0x3e8ce1db	0.27516064
37	0x3e0cf9ee	0.13767216
38	0xbe896e10	-0.26841784
39	0xbaa9f984	-0.0012968038
40	0x3df88af2	0.12135877
41	0xbe33c7bd	-0.17556663
42	0xbcf7552f	-0.030191986
43	0x3d835a19	0.06413669
44	0xbe9e6bc4	-0.30941594
45	0x3e225c3e	0.158555
46	0x3e3d8ef7	0.18511568
47	0x3ed1aec5	0.4095365
48	0xbe276fa9	-0.16351189
49	0xbdfb3c09	-0.1226731
50	0x3cfc3dc4	0.03079117
51	0x3e58159e	0.21101996
52	0x3b49b386	0.003077717
53	0x3dcb6bed	0.099326946
54	0x3df8df59	0.12151975
55	0x3da35856	0.07975833
56	0x3dbe2ad8	0.092855155
57	0xbea19012	-0.3155523
58	0xbe895c5a	-0.2682827
59	0xbe213e3b	-0.15746395
60	0xbe3ecac0	-0.1863203
61	0xbe632005	-0.22180183
62	0x3e4cdff7	0.20007311
63	0xbdcfb9df	-0.10142874
64	0xbef6e35b	-0.48220333
65	0x3d8db29e	0.06918834
66	0x3e4f90a2	0.20270017
67	0xbe55dc31	-0.20884778
68	0x3d7026ff	0.05863094
69	0x3e46f5e2	0.19429734
70	0xbdf7a333	-0.12091675
71	0xbe29f09e	-0.16595694
72	0xbd32a958	-0.04361853
73	0xbe48bd0b	-0.19603364
74	0xbb9ff17b	-0.0048810816
75	0xbd91df99	-0.07122726
76	0xbe017d0f	-0.12645362
77	0xbe68c5ca	-0.227317
78	0x3d8a6dd4	0.06759229
79	0x3db807eb	0.08985885
80	0xbdf82104	-0.12115672
81	0xbe7cfac3	-0.24705033
82	0xbe81acb9	-0.2532709
83	0x3c70e957	0.01470407
84	0xbe32ce04	-0.17461401
85	0x3da12e54	0.078701645
86	0x3d636136	0.05551263
87	0xbc9e022a	-0.019288141
88	0xbd6bcf71	-0.05757088
89	0xbdb4f640	-0.08836031
90	0x3dc82539	0.09772725
91	0x3e63cb1c	0.22245449
92	0x3d989e2c	0.07452044
93	0xbe6e5c8c	-0.23277491
94	0x3e7014ed	0.23445483
95	0xbd8c1192	-0.06839289
96	0x3d9df85a	0.07713385
97	0xbe1bdbc6	-0.15220556
98	0xbe99aa2c	-0.30012643
99	0xbd56a116	-0.052399717
100	0xbd3d5f71	-0.0462336
101	0xbe1b82f8	-0.1518668
102	0x3dea6eff	0.11446952
103	0x3d417919	0.04723463
104	0xbe461cae	-0.19346878
105	0x3dc498b3	0.095994376
106	0xbe83b31e	-0.25722593
107	0x3ee9f2d0	0.45693064
108	0xbe33dbaa	-0.17564264
109	0x3d942a5a	0.072346404
110	0x3e5b66ca	0.2142593
111	0xbeab87db	-0.33502087
112	0x3e8d2fea	0.27575618
113	0xbee00646	-0.43754786
114	0x3da2eefa	0.079557374
115	0x3def57bc	0.11686656
116	0xbd566ccd	-0.052349854
117	0x3db9cf44	0.09072736
118	0x3ed0759e	0.40714735
119	0x3d0eb22f	0.034837898
120	0xbee620c8	-0.44946885
121	0xbd716787	-0.058936622
122	0x3c281853	0.010259706
123	0xbe80f3c9	-0.25185993
124	0x3da9870a	0.0827771
125	0xbe81cc04	-0.25350964
126	0x3e9e7269	0.30946663
127	0x3cb6e368	0.022325233
128	0xbe7e0021	-0.24804737
129	0xbe385078	-0.17999446
130	0xbe03d777	-0.12875162
131	0x3dc3707c	0.09542939
132	0xbe1b8f6d	-0.15191431
133	0x3e531407	0.20613109
134	0x3e1f56a3	0.15560393
135	0xbe03bc47	-0.12864791
136	0x3dc560a7	0.096375756
137	0xbe19d54d	-0.15022774
138	0x3e3901ae	0.18067047
139	0xbdc74d8e	-0.09731589
140	0xbe87f1d5	-0.2655169
141	0xbc773acd	-0.015089703
142	0x3e126bf3	0.14298992
143	0x3e502c25	0.2032934
144	0x3d878bd7	0.06618469
145	0xbe7db6cf	-0.24776767
146	0xbe093351	-0.13398482
147	0x3d9bba08	0.07603842
148	0x3cc2fd00	0.02380228
149	0xbe0f2d7b	-0.13982193
150	0xbe6dbf76	-0.23217568
151	0x3ca3822f	0.019959537
152	0xbd82e715	-0.06391732
153	0xbda45374	-0.0802373
154	0xbc95f1cb	-0.018303772
155	0xbd8de6dc	-0.069287986
156	0xbe66c4a1	-0.22535945
157	0x3d039b5b	0.03213058
158	0xbebd0a03	-0.369217
159	0x3d2f9c9e	0.04287397
160	0xbe599d7a	-0.21251479
161	0x3ee935d9	0.45548895
162	0x3cbcc347	0.023042334
163	0xbddf7574	-0.10911074
164	0x3d258f08	0.04041961
165	0x3d5c942b	0.05385224
166	0xbd1e8aee	-0.038706712
167	0xbdf45906	-0.119310424
168	0x3c9f80ad	0.019470537
169	0x3e2b8d3d	0.16753097
170	0xbdd01d96	-0.10161893
171	0xbd3e0852	-0.046394654
172	0x3e511cb9	0.20421113
173	0x3d9f45d8	0.077769935
174	0xbd4d873d	-0.0501778
175	0x3ea89b9f	0.3293123
176	0x3eb84f02	0.35997778
177	0xbdc3899e	-0.09547733
178	0x3d98f973	0.07469454
179	0x3e98cc28	0.2984326
180	0x3dfb1bb9	0.12261147
181	0x3aae2f08	0.0013289163
182	0xbd18681e	-0.03720867
183	0x3e1d2efa	0.15349951
184	0x3e229ca2	0.15880063
185	0xbe401d8f	-0.18761276
186	0xbc493d2d	-0.012282652
187	0x3cb8deaf	0.022567121
188	0xbd6e7e73	-0.05822606
189	0xbe2fda14	-0.17173034
190	0xbb85b94a	-0.004080926
191	0xbd1ac689	-0.037786994
192	0x3d96ead4	0.07369009
193	0xbd740aea	-0.05958072
194	0xbc12318c	-0.008922946
195	0x3d01a215	0.031648714
196	0x3eb8353c	0.35978115
197	0xbe1487ab	-0.14504878
198	0x3e767872	0.24069384
199	0xbdabc4e3	-0.083871625
200	0x3dc4de1f	0.09612679
201	0xbd8272fa	-0.06369586
202	0xbe462edf	-0.19353817
203	0x3ec515b6	0.38493127
204	0x3c70eb93	0.014704603
205	0x3e8ff68b	0.28117785
206	0x3e1bc8d3	0.15213327
207	0xbe33d411	-0.17561366
208	0x3e1550de	0.1458163
209	0x3e66e945	0.22549923
210	0x3e4463a9	0.19178642
211	0xbef46900	-0.4773636
212	0x3e702f4d	0.23455544
213	0x3c681d2a	0.0141671095
214	0x3e493881	0.19650461
215	0xbd6993f0	-0.05702585
216	0x3d87860b	0.066173635
217	0xbe83de56	-0.25755566
218	0xbdcdddab	-0.100520454
219	0xbd8a9cd7	-0.06768196
220	0x3def578a	0.116866186
221	0x3cbf6f8e	0.023368623
222	0x3e5c6651	0.21523406
223	0xbe4de0c5	-0.20105274
224	0xbd838e80	-0.06423664
225	0x3d33f8af	0.043938335
226	0xbd6b732c	-0.057482883
227	0x3d97b1ae	0.074069366
228	0xbd8b6393	-0.06806102
229	0x3e0a62a2	0.13514188
230	0x3cf33322	0.029687468
231	0x3d0a554f	0.033772763
232	0x3e7d2401	0.24720766
233	0xbdaa59a5	-0.083178796
234	0x3e111551	0.14168288
235	0x3dd35f6f	0.10320937
236	0xbebb3d08	-0.3657
237	0x3d7fa50a	0.062413253
238	0x3dc4df8d	0.096129514
239	0xbe02c6dd	-0.12771173
240	0xbd1acb55	-0.03779157
241	0x3c481679	0.012212389
242	0xbe1bf7c4	-0.15231234
243	0x3e38f39d	0.18061681
244	0x3e120808	0.14260876
245	0xbdc477b9	-0.09593148
246	0xbe85a833	-0.26104888
247	0xbd7f9ce3	-0.06240548
248	0x3f105449	0.5637861
249	0x3e107f96	0.1411117
250	0xbd5afa63	-0.053461444
251	0xbd968013	-0.07348647
252	0xbd9a9d5b	-0.075495444
253	0xbdc223d5	-0.09479491
254	0xbe50858d	-0.20363446
255	0x3e4763ba	0.19471636

action_model._discrete_distribution.branches.1.bias f4 [2]
0	0xbd849ae4	-0.064748555
1	0x3d849bcf	0.06475031

action_model._discrete_distribution.branches.2.weight f4 [2, 256]
0	0xbe50f831	-0.20407178
1	0xbe50986c	-0.20370644
2	0xbeab7609	-0.3348849
3	0x3ecec621	0.40385535
4	0xbd4a4c41	-0.049389128
5	0xbc6d95d1	-0.014501051
6	0x3d04f497	0.03245982
7	0x3e06468d	0.1311285
8	0xbe06cf17	-0.13164936
9	0xbd76709e	-0.060165994
10	0xbe3c31b3	-0.18378334
11	0x3e95cac2	0.29256254
12	0x3cef9190	0.029244214
13	0xbdf0df29	-0.117613144
14	0xbd139416	-0.036029898
15	0x3e07d28b	0.1326391
16	0x3dddabde	0.10823797
17	0x3db293cd	0.08719597
18	0x3d9a7213	0.07541289
19	0xbd1efafc	-0.038813576
20	0xbd1216df	-0.035666343
21	0x3e45511c	0.19269222
22	0xbdd899c7	-0.10576206
23	0x39b01b1e	0.0003358954
24	0xbd4842ce	-0.048891835
25	0x3d034b90	0.032054484
26	0x3d876299	0.06610603
27	0xbd1e2dfe	-0.03861808
28	0x3e50aba7	0.2037798
29	0x3e5fd523	0.21858649
30	0xbd974621	-0.07386423
31	0xbe7ddfe6	-0.24792442
32	0xbd0b538d	-0.034015227
33	0x3ee45313	0.4459463
34	0xbd93c899	-0.07215995
35	0xbcdb4fb7	-0.02677141
36	0xbe3aa74d	-0.18227883
37	0xbe2f19ea	-0.17099729
38	0xbc812720	-0.015765727
39	0x3e81fcd8	0.25388217
40	0x3e36e32e	0.178601
41	0x3ebb1ac5	0.3654386
42	0xbdb803ae	-0.08985077
43	0x3e8d7547	0.27628538
44	0x3da673c2	0.08127548
45	0x3df6faa4	0.12059525
46	0xbf0e509b	-0.55591744
47	0xbdad54a4	-0.084634095
48	0x3ca2b1ad	0.019860113
49	0x3d38def4	0.0451345
50	0xbe2b4657	-0.16726051
51	0xbeb2ba86	-0.3490793
52	0x3e921133	0.28528747
53	0xbe024ff9	-0.1272582
54	0xbe0a1ef9	-0.13488378
55	0xbeccdf83	-0.40014276
56	0x3eb9baba	0.36275274
57	0x3bd90f1e	0.0066241166
58	0x3e7d0fad	0.24713011
59	0x3da12c0f	0.07869732
60	0x3d719e66	0.05898895
61	0xbd5c2315	-0.053744394
62	0x3c6ec3e6	0.014573073
63	0xbdfa456f	-0.12220275
64	0xbe3e3b04	-0.185772
65	0xbca596c6	-0.020213496
66	0x3eb79cc4	0.3586179
67	0x3e336dab	0.17522304
68	0xbe77637d	-0.24159046
69	0x3eb4bc6b	0.35300002
70	0x3de0d9ca	0.1097904
71	0x3d8acb5e	0.067770705
72	0xbd00bcda	-0.031430103
73	0x3d1a8005	0.037719745
74	0xbe117ed7	-0.14208542
75	0xbdc77cf6	-0.09740631
76	0x3ea22032	0.31665188
77	0xbd6ac09a	-0.057312585
78	0xbc8b9304	-0.017037876
79	0xbd6d2e22	-0.057905324
80	0x3d0e06e1	0.03467453
81	0x3e9b5b19	0.3034294
82	0x3b96255b	0.00458209
83	0x3e05b804	0.13058478
84	0xbe08e19b	-0.13367312
85	0x3ca92913	0.020649469
86	0xbe9c5ff0	-0.30541945
87	0xbe4a0123	-0.19726996
88	0x3e0a8cb3	0.13530235
89	0x3e876c69	0.26449898
90	0xbd40cc20	-0.04706967
91	0x3cb32a9a	0.0218709
92	0x3e520a5d	0.20511766
93	0xbe1c3672	-0.15255144
94	0xbd266ca5	-0.040630955
95	0x3e0c3ed5	0.13695844
96	0xbc749bc6	-0.014929717
97	0xbd25756b	-0.04039518
98	0x3e8f7670	0.28020048
99	0xbd86b7af	-0.065780036
100	0xbe09d358	-0.13459527
101	0xbe7d237d	-0.24720569
102	0x3d7c6299	0.061617468
103	0x3d84bdce	0.06481515
104	0xbd8c9fbd	-0.06866405
105	0xbd4c4462	-0.049869902
106	0x3e378ef1	0.17925622
107	0x3d43f09d	0.04783689
108	0xbe974adf	-0.2954931
109	0xbe17c91d	-0.14822812
110	0xbe40e785	-0.18838318
111	0x3cd92b57	0.026509924
112	0xbe372522	-0.17885259
113	0xbd0e6671	-0.034765664
114	0xbd809dae	-0.06280075
115	0x3dbcb61b	0.09214421
116	0xbc329dec	-0.010901909
117	0xbdda99eb	-0.10673889
118	0xbd906421	-0.07050348
119	0xbd9c9418	-0.07645434
120	0x3e81a8d8	0.2532413
121	0x3e43d2ea	0.19123426
122	0x3eaaa697	0.33330223
123	0x3c80546e	0.01566526
124	0x3e564d4f	0.20927928
125	0x3c38d6a5	0.011281644
126	0xbde9f6eb	-0.11424049
127	0xbcdedbf3	-0.02720449
128	0xbc556810	-0.013025299
129	0x3e103506	0.14082727
130	0x3e30af6f	0.17254423
131	0xbe833b69	-0.25631264
132	0x3d58d4d1	0.052937333
133	0x3da762b0	0.0817312
134	0xbe9a069b	-0.30083165
135	0xbc9daa14	-0.019246139
136	0xbde5ca99	-0.11220283
137	0xbd5f8740	-0.054572344
138	0xbd873282	-0.066014305
139	0x3dfb843e	0.122810826
140	0xbe783275	-0.24237998
141	0xbd287df2	-0.041135736
142	0xbddfbfc5	-0.10925249
143	0x3c8a62df	0.016892849
144	0xbdfc4f39	-0.12319798
145	0xbe25c81d	-0.16189618
146	0xbd86957e	-0.06571482
147	0xbdc0fe0b	-0.09423455
148	0x3d385275	0.045000512
149	0x3cde63be	0.02714717
150	0x3db709a3	0.08937385
151	0xbdcb01a4	-0.09912422
152	0x3dfe8dc2	0.12429382
153	0x3d9abe5c	0.075558394
154	0xbc0bf8d3	-0.008543211
155	0x3e3ca73a	0.18423167
156	0xbd057b43	-0.032588255
157	0xbdf52c65	-0.11971358
158	0xbd29e570	-0.041478574
159	0x3dd7d043	0.1053777
160	0xbcb1177a	-0.02161764
161	0xbe774c0e	-0.24150106
162	0x3cd02e6c	0.02541276
163	0x3e2f5b69	0.17124714
164	0xbe09e022	-0.13464406
165	0xbe13f60a	-0.14449325
166	0xbe05c93c	-0.13065046
167	0xbe35e46c	-0.17762917
168	0x3d9bfd26	0.076166436
169	0xbcd6457d	-0.026156181
170	0x3e53760f	0.20650505
171	0xbd991291	-0.074742444
172	0x3e7feecf	0.24993442
173	0xbe11a2f3	-0.14222316
174	0xbc56af31	-0.013103292
175	0x3d47e085	0.048798103
176	0x3e132a94	0.14371711
177	0xbd3abc35	-0.045589644
178	0x3e1bd850	0.15219235
179	0x3e2af702	0.16695789
180	0x3d4c7d88	0.049924403
181	0xbe320660	-0.17385244
182	0x3de783cd	0.11304436
183	0xbe5c0679	-0.21486844
184	0x3e912328	0.28347135
185	0x3db668b5	0.0890669
186	0x3eba1689	0.36345318
187	0xbe10398c	-0.14084452
188	0xbbe3336d	-0.0069336207
189	0x3e68eb23	0.22745948
190	0xbe9f80af	-0.31152865
191	0xbe800875	-0.25006452
192	0x3e5d1345	0.21589382
193	0xbe29a185	-0.16565521
194	0x3e58c3ec	0.21168488
195	0xbd10663d	-0.035253752
196	0x3e56aefb	0.20965187
197	0x3dfb6932	0.12275924
198	0x3da9f454	0.08298555
199	0xbe41bc41	-0.1891947
200	0x3dc578eb	0.09642204
201	0xbe6d82fc	-0.23194498
202	0xbc815e86	-0.015792143
203	0x3eb848e1	0.35993102
204	0x3e2ede1b	0.17076914
205	0x3c1daa5a	0.0096231345
206	0x3e3cdd8a	0.18443885
207	0x3d6dc766	0.05805149
208	0x3e0c87c1	0.13723661
209	0xbdbd6a31	-0.0924877
210	0xbe482188	-0.19544041
211	0x3d5f5c50	0.054531395
212	0xbd8737d1	-0.06602443
213	0x3cb73233	0.022362804
214	0x3e89b4b2	0.26895672
215	0x3da06a63	0.07832792
216	0xbd8d629b	-0.06903573
217	0xbbd9c526	-0.0066458164
218	0xbe64405f	-0.2229018
219	0x3e2a8f77	0.1665629
220	0xbdaf658d	-0.08564291
221	0xbe61e5ac	-0.22060269
222	0x3d8597a1	0.065230615
223	0xbd39aff6	-0.045333825
224	0xbe28d0a2	-0.16485837
225	0x3d5d234e	0.053988747
226	0xbe384dd1	-0.17998435
227	0x3e56d1d9	0.20978488
228	0xbeae1a89	-0.3400462
229	0xbcbcd2ea	-0.02304979
230	0x3b4b409c	0.0031013852
231	0x3c513e0e	0.012771143
232	0xbe7d3282	-0.24726298
233	0xbe412fc7	-0.18865882
234	0xbdae8bd2	-0.08522762
235	0x3e57991a	0.21054497
236	0x3dbe3c7b	0.092888795
237	0x3ea9c9c6	0.33161753
238	0x3d2c883f	0.042122122
239	0x3d941b74	0.07231799
240	0x3e9d0f79	0.30675867
241	0xbefcc6d9	-0.4937046
242	0x3c9f786d	0.019466603
243	0x3e71b00b	0.23602311
244	0x3d45208c	0.048126742
245	0x3e4d19f1	0.20029427
246	0x3a29d851	0.0006479072
247	0xbe32a29b	-0.17444842
248	0x3ce83388	0.028344885
249	0xbe49479f	-0.19656228
250	0xbdc92035	-0.09820596
251	0x3de0869b	0.10963174
252	0x3dfed862	0.124436155
253	0x3df12660	0.117748976
254	0xbd23a6ea	-0.039954104
255	0xbde5b785	-0.11216644

action_model._discrete_distribution.branches.2.bias f4 [2]
0	0xbd0e465c	-0.03473507
1	0x3d0e4692	0.03473527
