Assets/Onx/2DGround/MoveAgent2D-30M_Attack.onnx (onnx, 423660 bytes, 15 tensors)

discrete_act_size_vector f4 [1, 5]
000000 00 00 40 40 00 00 00 40 00 00 00 40 00 00 00 40
       3.0 2.0 2.0 2.0
000010 00 00 40 40
       3.0

network_body._body_endoder.seq_layers.0.weight f4 [256, 130]
000000 79 2b a0 bc bf b9 16 3f b9 36 98 3e d4 f9 dd bc
       -0.01955198 0.58877176 0.2972925 -0.027096666
000010 6d ee ea bd 95 4d 29 3d 32 7b 69 3e 53 cf 1a bf
       -0.11471257 0.041333754 0.22800902 -0.604726
000020 7a 09 15 bf fd 3a c8 3e dc 1b 73 3e 44 85 71 be
       -0.58217585 0.39107504 0.23741096 -0.23585993
000030 19 09 84 3e e6 61 19 bf de 01 6f 3d dd dc f7 bc
       0.2578819 -0.59915006 0.05835139 -0.030256683
000040 b3 93 fb bd a2 3d fb bd 36 d6 21 bf 79 15 eb 3e
       -0.12284031 -0.12267615 -0.63217485 0.4591482
000050 e1 33 55 3e b9 69 6b be 32 a7 7f 3e c3 df 9f be
       0.20820571 -0.22989549 0.24966124 -0.31225404
000060 71 7f fc bd d1 f5 03 be f2 5b 43 3e bb cf d5 be
       -0.12328995 -0.1288674 0.19078043 -0.41760048
000070 20 f4 94 bd c7 26 2b be be 36 a0 3c 85 af c7 3d
       -0.07273126 -0.16714011 0.019557353 0.097502746
000080 ab b1 1b be 37 16 b8 bd 1c a0 5c be 08 f8 c4 3c
       -0.15204494 -0.08988612 -0.21545452 0.024044052
000090 fc c5 8d bd 9b 95 2f 3d aa 5b 5e 3c d6 58 2c be
       -0.06922528 0.042867284 0.013571659 -0.16830763
0000a0 75 d1 09 be 61 10 6b be df 75 7f 3e 6b f6 19 bd
       -0.13458808 -0.22955467 0.24947308 -0.037588518
0000b0 e7 31 b1 3b ea e4 67 be 7a 6a dc bc 19 6e e2 3e
       0.00540756 -0.22645918 -0.02690624 0.44224623
0000c0 2e ff bc be 80 3d b8 be f6 56 66 3e d5 fb 3b be
       -0.36913437 -0.3598442 0.2249411 -0.18357785
0000d0 0c ba ac bd 04 ca 89 be 8b 87 78 be 7a 38 30 bd
       -0.08433923 -0.26911938 -0.24270456 -0.04302261
0000e0 16 42 0d 3e ab 3e 73 3e 0a 4d d2 3d 0b db c1 3c
       0.13794741 0.23754375 0.102686 0.023664018
0000f0 80 51 3b be c9 3e 33 be f3 d3 96 be 8b 59 ef be
       -0.18292809 -0.1750442 -0.2945858 -0.46748003
000100 4b 68 58 3e b4 2c 4f 3e c2 5b 16 be 5a 64 1a be
       0.21133535 0.20231897 -0.1468344 -0.15077344
000110 5e 1c 6e be 14 e0 a2 bd b4 39 4f bf d3 53 8c be
       -0.23253009 -0.07952896 -0.80947423 -0.27407703
000120 5b cb 56 3e e5 4e 6f 3e 50 9e aa bd 7c d1 c8 3e
       0.20976011 0.2336994 -0.08330977 0.39222324
000130 53 05 ad be e9 f2 97 be e4 bc 05 bf a5 b6 14 bd
       -0.33793125 -0.29677513 -0.5224135 -0.036306996
000140 60 73 0c bd 47 74 aa bd 98 cc 5f be 4e 95 4c 3e
       -0.034289718 -0.083229594 -0.2185539 0.1997883
000150 1a 34 b8 bd 7f c8 b3 bd 8a 4f f4 be 04 a7 74 be
       -0.089943126 -0.08778476 -0.47716933 -0.23891836
000160 17 4b d2 bd e9 71 84 bc fb 5a d4 be b2 b7 83 3e
       -0.102682285 -0.016167598 -0.41475663 0.25726086
000170 ae d1 cd bd 82 0f 1b 3d e6 7d d5 be 78 0b a9 be
       -0.10049759 0.037856586 -0.41697615 -0.33016562
000180 00 5c 8f 3c 81 b2 fd 3d 9e a3 e5 be 6f 0e 0b bd
       0.017499924 0.123875625 -0.44851393 -0.03394931
000190 b4 cf a7 bd 3a 21 e5 3d d6 b0 1f bf 2b e8 fb 3e
       -0.08193913 0.11187978 -0.62379205 0.49200568
0001a0 e8 09 85 3d 87 86 7b 3d d6 ae 22 bf 72 eb c7 be
       0.0649603 0.061407592 -0.6354803 -0.39046818
0001b0 ee 77 a2 3d 71 42 27 3d d5 9e bf be 2f 41 bc 3e
       0.07933031 0.040834848 -0.37425867 0.3676848
0001c0 80 dc 19 be 87 3d d8 bd 7c eb 39 bf dc f4 b1 be
       -0.1502552 -0.105586104 -0.72624946 -0.34757125
0001d0 8b 72 2e 3d 3d 91 1d 3e a2 4b 27 bf 13 7a 5e 3f
       0.042589705 0.15387435 -0.6534978 0.8690502
0001e0 cf 39 4b be e3 2d 61 bc a2 e7 4c bf 30 a0 42 be
       -0.19846271 -0.01374385 -0.80040944 -0.19006419
0001f0 cf 8b 0e 3e 5c ee 1c 3d 66 76 26 bf c3 bb 7f 3b
       0.1392052 0.038313255 -0.6502441 0.0039021827
000200 e3 e6 d4 3d a8 d4 87 3d 2b 68 7c be 73 23 1d 3f
       0.10395601 0.06632358 -0.24649112 0.61382216
000210 e9 30 b8 bd 45 03 a5 be 1a 5a e0 bd 2e f1 e3 bd
       -0.08993704 -0.32229057 -0.109546855 -0.11129986
000220 db 82 4a 3e a7 87 18 3e 4c 83 73 3e 1c d9 90 be
       0.1977648 0.14895497 0.23780555 -0.2829064
000230 0f 38 84 be 97 d0 0a be e6 74 1b 3f de a1 28 be
       -0.2582402 -0.13556133 0.6072525 -0.16467997
000240 9d b1 68 bd af 25 0c be 0d 54 4c be c5 9a 70 be
       -0.05681001 -0.1368625 -0.19953938 -0.2349654
000250 af ff 87 3e b6 b8 6b 3d 70 45 7e be db 07 91 3e
       0.2656226 0.0575492 -0.24831176 0.28326306
000260 7c 32 8b be ee 71 b8 3e b6 91 1f 3d a5 e7 14 3e
       -0.27186954 0.3602442 0.03895732 0.1454149
000270 ea 55 58 be 3c db c6 3d e4 77 6f bd a5 ec 18 3c
       -0.21126524 0.097097844 -0.058463946 0.009333764
000280 80 98 e0 3d 03 76 27 be 7b fc a3 3d 8b fb 47 bd
       0.10966587 -0.16353612 0.08007141 -0.048823874
000290 ff 64 e0 bd 99 b2 89 3e 82 1b 20 3e f6 34 e8 bb
       -0.109567635 0.26894072 0.15635493 -0.0070863916
0002a0 32 d6 98 bc 79 a8 5a 3d ac 83 e9 3d be e1 a2 bd
       -0.018656824 0.053383324 0.114020675 -0.07953213
0002b0 92 9e 05 3e 02 a9 54 3e 44 e3 1f be 75 48 08 be
       0.13048771 0.20767596 -0.15614039 -0.1330889
0002c0 e0 5b 8e 3e ae 2a 17 bf dd cd 76 be 7f c3 d4 3d
       0.2780447 -0.590495 -0.24101968 0.103888504
0002d0 3d 1f 8e 3d 00 df e3 3e e5 95 9e be 40 a0 47 be
       0.06939552 0.44506073 -0.30973735 -0.19494724
0002e0 24 ba 2e 3e 90 bc 07 bd 7b 28 9a be cf 26 b7 be
       0.17063195 -0.03313881 -0.3010901 -0.35771796
0002f0 e8 41 a1 bd 4b 1e 99 3d 27 b8 30 be 96 0f 6c bd
       -0.07873899 0.07476481 -0.17257749 -0.05763205
000300 85 62 5e bd b6 63 54 3e 02 2f 98 bd 6c 6e 31 be
       -0.054293174 0.20741162 -0.07430841 -0.17327279
000310 00 f8 d0 bd d6 85 c9 3e 90 93 94 be 0d c7 4e be
       -0.10203552 0.3935992 -0.2901883 -0.2019312
000320 59 dc 1a 3e e7 31 17 3e 60 e0 61 be 5b 24 90 be
       0.15123118 0.1476513 -0.22058249 -0.28152737
000330 ec e7 0a ba 01 ad 70 be 0c 61 a4 3d 47 8b cc 3d
       -0.0005298841 -0.23503496 0.08026323 0.099875025
000340 41 f0 06 3e 2d a9 41 bc da b9 9d be 2b 85 3a be
       0.13177587 -0.01182012 -0.30805856 -0.18214862
000350 f7 55 b9 3b ca fb 15 bd 6e 8c 2d be bb ef 3a be
       0.0056559998 -0.036617078 -0.16948101 -0.18255512
000360 01 70 ad 3e b1 a5 90 bc 1e 88 9d be 9b dd a1 be
       0.33874515 -0.017657133 -0.30767912 -0.31614384
000370 6f 6b df 3d 84 d0 9f be de 4c de be 9b 4f 7c be
       0.10909163 -0.31213772 -0.4341802 -0.24639742
000380 db ac c5 be 1a fc 37 be 60 65 54 3e fc b3 fa 3d
       -0.3860844 -0.17967263 0.20741796 0.122413605
000390 20 46 d3 3c 4c 74 aa bd 5e e3 fa bd 24 0f 13 be
       0.025790274 -0.08322963 -0.12250398 -0.14361244
0003a0 97 53 aa be 02 2c c1 3d 5b 9e 20 3e a6 7a 5b 3e
       -0.332669 0.09432222 0.15685408 0.21433505
0003b0 56 43 ef bd e2 af 7c 3e 2b ef 27 bb 31 dd 96 3c
       -0.11682765 0.24676469 -0.0025624733 0.01841602
0003c0 29 94 97 be 17 3d d7 be 07 3a a6 3e 7a 86 6a 3e
       -0.29605225 -0.42038795 0.32466146 0.22902861
0003d0 6e 0d 86 be f6 0e ff 3d 61 b5 82 bd 87 ef 47 3c
       -0.2618212 0.124540254 -0.063822515 0.012203104
0003e0 ff e7 20 be d9 7a 96 be 53 b8 3e be 50 90 89 3d
       -0.157135 -0.293906 -0.18625002 0.067169785
0003f0 8d d3 e1 3d 11 b5 da bd e4 53 86 be 28 06 88 bd
       0.11026678 -0.10679067 -0.26235878 -0.06641799

network_body._body_endoder.seq_layers.0.bias f4 [256]
000000 ee ef 11 be 1c aa 07 be e9 ac 4d bd 60 68 dc bd
       -0.14251682 -0.13248485 -0.050213728 -0.107620955
000010 d7 62 a4 be bb b6 42 be 83 0c 0d be f9 40 e1 bd
       -0.3210666 -0.19015019 -0.13774304 -0.10998721
000020 1e c0 0f be 8e 25 57 be c2 3a 2e be e1 45 58 3d
       -0.1403813 -0.2101042 -0.17014602 0.052801017
000030 b4 d4 08 3d 08 21 96 3b 6b 0a 89 3c 75 0b b8 bd
       0.033405975 0.0045815744 0.0167286 -0.0898656
000040 b6 f9 04 be 09 4a 20 be da 93 5a be 13 e6 37 be
       -0.12985882 -0.15653242 -0.21345463 -0.1795886
000050 e7 be aa 3d 86 d8 2d be e0 3f 42 be 26 9f cb bc
       0.08337193 -0.16977128 -0.18969679 -0.024856161
000060 20 c8 60 be f6 5e 0d be 56 0e cc 3d 42 56 29 be
       -0.21951342 -0.13805756 0.09963672 -0.16536811
000070 a7 04 11 be 86 dc 64 bd 96 4c 1a be 74 82 09 be
       -0.14161931 -0.05587437 -0.15068278 -0.1342867
000080 93 e3 1f bd e7 c7 2c be d9 50 58 be 2b 30 6b 3e
       -0.03903539 -0.16873132 -0.21124591 0.22967593
000090 ea 30 1b bd 2b 31 ac bc 21 04 3c be 70 9d 41 be
       -0.037888445 -0.021019539 -0.1836095 -0.18907714
0000a0 ed 87 52 be 3d 11 e7 bd da b8 b2 bd 65 28 3e be
       -0.20559664 -0.11282585 -0.08726664 -0.18570097
0000b0 8d 7a c5 be 23 c9 55 be aa 01 ff bd de 6f 7a be
       -0.3857006 -0.20877509 -0.12451489 -0.24456736
0000c0 e8 60 81 3b b0 c8 01 be a2 2c 81 be 92 4d c6 bd
       0.0039483197 -0.12674212 -0.25229365 -0.09682764
0000d0 e8 c5 9b 3c c3 2d 16 be 51 1f e7 3d f0 0e b5 3d
       0.019015267 -0.14665894 0.1128527 0.0884074
0000e0 43 fa 95 3d bd a1 91 be 76 1f 45 be 17 f6 21 be
       0.07323124 -0.2844371 -0.19250283 -0.15816532
0000f0 28 83 26 be 27 6b 29 3e bd cb 7d bc 2b 00 96 be
       -0.1626097 0.16544782 -0.0154904695 -0.29297003
000100 36 e5 5b be 47 49 6e be 43 a2 8f bd 31 6f 14 bd
       -0.21474156 -0.2327014 -0.07013371 -0.036238853
000110 6f 98 a6 bd 50 7e 3a bd ca 08 2d be 10 11 13 3e
       -0.08134543 -0.045530617 -0.16897884 0.14361978
000120 fd dd 3f be 39 65 06 be 5b 42 8c be 26 f7 e8 bc
       -0.18737026 -0.13124551 -0.27394375 -0.028438162
000130 af 75 8c bd 3d 30 18 be c3 16 0c be 89 01 1a be
       -0.06858384 -0.14862151 -0.13680558 -0.15039648
000140 8a 79 f9 bd 25 4e 5d be 57 df 17 bd e8 e0 91 be
       -0.12181385 -0.21611841 -0.037078228 -0.28491902
000150 03 2b 85 be a3 9f 5e 3c 8f d3 28 be 8f a0 e8 bc
       -0.26009378 0.013587865 -0.16486953 -0.028396873
000160 30 82 d8 bd 2d d9 a8 be cd df db bd ee 67 d4 bd
       -0.10571706 -0.32978192 -0.10736046 -0.103713855
000170 78 56 39 3d 16 11 e3 bd b5 04 b7 bd 61 e1 35 be
       0.04524848 -0.11087243 -0.08936445 -0.17761756
000180 c9 e1 12 be 88 cd 78 be e3 7c 8b 3d 6d 87 31 be
       -0.14343943 -0.24297154 0.068109296 -0.17336817
000190 11 16 0b bd b8 7b 98 be 6c b8 df be c6 08 b3 3c
       -0.03395659 -0.2978189 -0.4369539 0.02185477
0001a0 7a 48 6d be 8c 9e 37 bd 97 f6 59 bd 1d 98 23 be
       -0.23172179 -0.044828936 -0.053213682 -0.15975995
0001b0 73 28 cd 3d b5 18 c0 bd ad 8b ea bd 03 24 93 be
       0.10017481 -0.093797125 -0.11452422 -0.28738412
0001c0 d9 6e cc 3d 59 06 8c be cf f3 4c bd 7c 99 8b be
       0.0998208 -0.27348593 -0.0500372 -0.27265537
0001d0 e3 58 69 be c5 3d ca bd 84 0b 45 be d7 fe 77 bd
       -0.22787814 -0.09875063 -0.19242674 -0.06054577
0001e0 e4 be 29 3c 79 1b b3 bd fc 9b 3a be 1a 0f 21 be
       0.010360453 -0.08745474 -0.18223566 -0.15728417
0001f0 52 a1 3c bd 34 90 76 be 15 d2 5f bd 33 24 d4 bd
       -0.046052285 -0.24078447 -0.05464371 -0.10358467
000200 d8 44 ab 3e 22 67 48 be 77 92 da bc 49 0e 34 be
       0.3345096 -0.19570592 -0.026681168 -0.17583574
000210 73 3e 22 bd 59 87 69 3e f4 71 b2 bd 93 bf 8d be
       -0.039610337 0.22805537 -0.08713141 -0.27685222
000220 66 a8 34 be 0a f4 ae bd 18 c4 b4 be 4a a6 d1 bd
       -0.17642364 -0.085426405 -0.35305858 -0.10236795
000230 e6 8c a5 bd f6 9f 24 be 57 8f 8f be 94 1b 86 3b
       -0.08083515 -0.16076645 -0.28039047 0.004092643
000240 82 aa 01 3c bc 4f ce bd cf 1f 30 be 14 e9 5c 3e
       0.007914187 -0.10073802 -0.17199634 0.21573287
000250 3e 67 4a be 3a 68 40 bd 9c 6a 24 bd bc d4 2a be
       -0.19765946 -0.0469744 -0.040140733 -0.16682714
000260 6a c2 2c be d5 d0 f9 3c b1 56 73 be e0 59 45 be
       -0.16871038 0.030495087 -0.23763539 -0.19272566
000270 cc 0a b6 bd 09 84 4e be 16 fb 3b be 9d 0b 63 be
       -0.08888778 -0.20167555 -0.183575 -0.22172399
000280 ca 2c 6f be c5 24 32 be a7 a9 ae bc 53 c9 cc bd
       -0.2335693 -0.17396839 -0.02132113 -0.09999337
000290 20 0d ee bd 00 6d c6 bd f6 21 5c be 00 94 26 bd
       -0.11623597 -0.09688759 -0.2149733 -0.040668488
0002a0 48 76 61 be 44 3b 03 be 02 03 e3 bb 87 96 ac 3e
       -0.22017777 -0.12815577 -0.006927849 0.33708593
0002b0 45 44 19 be c1 62 01 be a5 7f b1 bd c0 5e 0e be
       -0.14967449 -0.12635328 -0.086669244 -0.13903332
0002c0 36 89 98 bd 6d 9d 0f be 8e ce 71 be 6f 70 7d 3d
       -0.07448046 -0.14024897 -0.2361395 0.061874803
0002d0 17 f9 a7 3c 9b 71 79 be 10 91 76 bc 62 80 16 be
       0.020504517 -0.24359743 -0.015049234 -0.14697412
0002e0 d4 92 e1 bd a6 3d be bd 4d f5 c9 bc ae ef f4 bd
       -0.11014333 -0.09289102 -0.024653101 -0.11959778
0002f0 26 f9 4f be 50 41 65 be 26 33 14 be f8 1e 12 3a
       -0.20309886 -0.22388196 -0.14472637 0.0005574073
000300 da 1e 37 be 66 e7 8c be 2d 6a 71 be 18 32 5c bd
       -0.17882863 -0.27520293 -0.23575659 -0.05375871
000310 ef f8 fa 3c 73 50 a9 bd dd 34 06 bb ea b4 29 be
       0.030636279 -0.082672976 -0.0020478286 -0.1657292
000320 0d 10 ee 3d 33 42 c5 bd 93 75 ee bd 9f bc 11 be
       0.11624155 -0.09631767 -0.11643519 -0.1423211
000330 e2 cc 28 bd f5 fc b9 bd 96 ea 8d 3d ca ef fc bd
       -0.041211016 -0.09081451 0.06929509 -0.12350424
000340 46 b4 25 be f0 d5 9b bd e1 08 3d be 2d 73 92 be
       -0.1618205 -0.07609165 -0.18460418 -0.28603497
000350 34 14 a5 3b 49 e3 f0 bd 17 14 8e be 4b a3 69 bd
       0.005037809 -0.11762101 -0.27749702 -0.057040494
000360 8d 7c c2 be 95 66 0b be b3 17 cd bd c0 d3 e9 3c
       -0.3798565 -0.1361335 -0.10014286 0.028543353
000370 9a a1 6e be fa d3 d9 bd 7a 01 a5 3a 77 63 27 bd
       -0.23303834 -0.106361344 0.0012588941 -0.04086634
000380 8c 32 88 be 41 18 8d bd 19 a5 83 be 61 ff 6e be
       -0.26601064 -0.06889392 -0.25711897 -0.23339607
000390 c1 7d 0c be 98 99 07 3d 3b 67 e3 3a bf c9 48 3d
       -0.13719846 0.033105463 0.0017349491 0.049020525
0003a0 7c 3b 14 bd 12 98 0d 3e a9 de 14 be ab 18 dd bd
       -0.03618954 0.13827541 -0.14538063 -0.10795721
0003b0 55 0a 45 be 5d de 44 be 1b b4 44 bd 9d bc ab bd
       -0.19242223 -0.1922545 -0.048023324 -0.083855845
0003c0 3f e8 7b be 48 e8 5b be 1d 98 8a bd 3c 1a ce bc
       -0.24600314 -0.21475327 -0.067672946 -0.025158994
0003d0 32 73 09 be 97 6c a3 bd 0a 99 96 be 76 f3 df be
       -0.1342285 -0.07979696 -0.29413635 -0.43740433
0003e0 3b 0f 1e be a7 0d b7 3d 40 c7 f9 bd 43 a2 50 bd
       -0.15435497 0.08938151 -0.12196207 -0.050935995
0003f0 c9 1d 49 be 7b df 9e 3d 95 0b 33 be c5 62 9a bd
       -0.19640268 0.07757469 -0.17484887 -0.0753837

network_body._body_endoder.seq_layers.2.weight f4 [256, 256]
000000 c1 71 3c bf 2e bf 85 be 9f c4 bd 3e a7 2b 72 bc
       -0.73611075 -0.2612242 0.37064072 -0.014780915
000010 16 f0 00 be b6 ec 1f 3c d2 5c 9f bd bc b7 fe 3d
       -0.12591586 0.009761026 -0.07781376 0.12437388
000020 36 a4 55 3e 65 fe 7c bd 2b b4 8c 3e a0 12 4c 3c
       0.20863423 -0.061766047 0.27481207 0.012455612
000030 89 54 e7 be ac 37 c8 be f6 60 36 bc 57 b8 7c be
       -0.45181683 -0.39104974 -0.011131516 -0.24679695
000040 10 f8 55 be 62 65 50 bd 3b 98 29 3f ae 2f 4a be
       -0.2089541 -0.050877936 0.6624791 -0.19744751
000050 95 c1 fb be 91 62 16 bf 77 4c fb 3e b4 b2 b7 3e
       -0.4917113 -0.5874415 0.49081776 0.35878527
000060 c8 01 01 be 02 59 fc 3e 87 5c bc bd 42 d8 7e be
       -0.12598336 0.49286658 -0.09197336 -0.24887183
000070 72 7e ee 3d 09 f1 d7 bc 4c c8 ce 3c 34 96 48 3e
       0.11645211 -0.026360052 0.025241993 0.19588548
000080 00 af cb 3e bb 0c fd be 1c 86 73 be 41 03 81 3d
       0.39781952 -0.49423775 -0.23781627 0.06299449
000090 6b 0c 46 3e 81 ef 9d 3d 1f 82 a8 bd 27 f1 f9 be
       0.19340675 0.07711697 -0.08227944 -0.48816797
0000a0 21 d6 f6 3e 7a 42 78 be 84 ce 8d be 2e 7b 8d be
       0.48210242 -0.24244109 -0.2769662 -0.2763304
0000b0 ea e3 8e be 19 0f 05 3e 9e e6 d1 bd 90 a9 eb bd
       -0.2790826 0.1299404 -0.10249065 -0.11506951
0000c0 6d e2 7c 3d 7e ec fe bd 29 07 32 3e 86 08 8b 3e
       0.061739374 -0.12447451 0.17385544 0.2715494
0000d0 80 05 68 3d a2 98 9c be 28 66 f7 bc 86 31 b9 3c
       0.05664587 -0.305852 -0.03020008 0.022606622
0000e0 b9 70 37 be 9d 48 1c be 6e 28 ba 3c 31 59 89 bd
       -0.17914094 -0.15262075 0.022724357 -0.06706465
0000f0 1c ac 91 39 37 fd df 3d 11 b0 1c 3e 4c b8 f0 3d
       0.00027784787 0.10936969 0.15301539 0.11753902
000100 d6 34 1a 3e 73 33 a3 be d1 33 04 be 53 f1 40 bf
       0.15059218 -0.3187519 -0.12910391 -0.7536823
000110 60 24 fc be 52 36 12 bd 51 21 fd be 1e f9 b2 bd
       -0.49246502 -0.035696335 -0.4943948 -0.087389216
000120 2b 91 f4 3e db 04 72 bd 67 5a 17 3e 60 1a e1 3c
       0.47767004 -0.05908666 0.1478058 0.027478397
000130 32 6c 36 3e 5f 03 2c be 33 e0 6b 3e e9 cb 4c be
       0.1781471 -0.16798161 0.23034744 -0.1999966
000140 23 e8 d5 3e f2 8d 3d 3d ad 6d 90 be de f2 d0 bc
       0.4177867 0.046277948 -0.28208676 -0.025506433
000150 a0 4b 80 bd 29 21 33 be 73 29 c6 be 50 78 84 bd
       -0.06264424 -0.17493118 -0.38703498 -0.0646826
000160 94 c4 d8 3d 36 22 fb 3e 08 e1 a0 3e 9c 86 a1 bd
       0.10584369 0.49049538 0.31421685 -0.07887003
000170 ff 88 9d bd dd f6 05 be 66 13 8d be ee 6f 65 be
       -0.076921456 -0.13082452 -0.27553862 -0.22405979
000180 43 20 7b 3e d7 f8 30 be 89 3d cf be cd 21 c9 3e
       0.24524026 -0.17282425 -0.40476635 0.392836
000190 4f bf 67 3e 65 58 c5 3e 49 21 d7 bc cc 6e f2 bd
       0.22631572 0.38544002 -0.026260989 -0.11837539
0001a0 68 5a ed bb d8 44 07 be 8c 40 3e 3d f1 87 8e be
       -0.0072434433 -0.13209856 0.046448275 -0.2783809
0001b0 1d 32 de bd 4b de 53 be 8a a2 9c 3e 27 a5 92 3d
       -0.10849402 -0.20690267 0.30592757 0.071604066
0001c0 cc 6a af be 25 ad 8b be 32 4a c1 3d 86 cd 98 bd
       -0.34261167 -0.27280536 0.0943798 -0.074610755
0001d0 7b 93 86 bd 09 ee b6 be e0 10 88 be 41 52 12 bd
       -0.065710984 -0.3572848 -0.26575375 -0.035722975
0001e0 ab 27 0e 3e fa 80 b8 bd 8c 56 2e bf a8 af 6f 3d
       0.1388232 -0.09008975 -0.6810081 0.05851713
0001f0 8e fc bb 3d 8a 4a a4 bd da d6 48 be 53 9d 96 3e
       0.0917903 -0.0802203 -0.1961321 0.29416904
000200 a6 47 d5 3c 88 7e 55 bd 30 0d 72 3e 15 64 94 3d
       0.026035141 -0.052122623 0.23637843 0.07245652
000210 65 a0 ba be 21 f8 8a be f9 94 b7 be 76 eb 66 3e
       -0.36450496 -0.27142432 -0.35855845 0.22550759
000220 97 42 68 3d 6b 42 8f bd c1 0e 2c be 13 ba 83 3c
       0.05670413 -0.0699509 -0.16802503 0.016079938
000230 38 46 db be f2 8b 62 bc a4 81 d8 bd 89 49 97 be
       -0.4282701 -0.013827311 -0.10571602 -0.2954829
000240 4c f5 bc ba 84 9c 75 3d fe 50 80 be bd be ff ba
       -0.0014416366 0.059963718 -0.25061792 -0.00195118
000250 39 95 c4 be c4 b9 0d bc d2 af ab be f0 35 b0 bd
       -0.38395098 -0.008650247 -0.33532578 -0.08604038
000260 9d 6f 6b be f5 6c 80 be 16 66 de be a4 60 55 bf
       -0.22991796 -0.25083128 -0.4343726 -0.83350587
000270 38 6a a3 be 43 af c7 be 65 17 0b 3e 2d b7 74 be
       -0.31916976 -0.39000902 0.13583143 -0.23898001
000280 f8 96 a1 3e 3d 4f 00 bd 7c dc ba be 2c 12 15 3e
       0.31560493 -0.031325568 -0.3649634 0.14557713
000290 5c 6e b6 be f7 65 af 3d f0 db 26 be 93 f5 f6 be
       -0.35631073 0.0856437 -0.16294837 -0.48234233
0002a0 49 d8 82 3d e0 0a 09 bf 90 59 c9 bb 99 08 80 bd
       0.06388909 -0.5353222 -0.00614471 -0.0625164
0002b0 b1 ee 70 be 44 f9 92 3c e2 d5 83 be b7 8b 89 bd
       -0.23528554 0.017941125 -0.25749117 -0.067161016
0002c0 b8 e3 82 3e e7 59 30 be ed 8f b7 3e 87 d4 4d bf
       0.2556436 -0.17221795 0.35851994 -0.80402416
0002d0 ff 53 60 bf 68 58 76 3d 10 d7 f8 be ae ec a4 be
       -0.8762817 0.060142905 -0.4860158 -0.32211822
0002e0 95 da 76 3d 99 2a 77 be af 1a 82 3e 4b 8c 86 3c
       0.06026705 -0.24137343 0.25410983 0.016424319
0002f0 83 47 a8 be d5 1f 1c b9 74 60 80 bd 08 f8 d4 bd
       -0.3286706 -0.00014889178 -0.06268397 -0.10398871
000300 cc 55 0a bd 6e 33 46 be 2f 83 a4 be 3b 14 8f be
       -0.03377323 -0.19355556 -0.32131335 -0.27945122
000310 d3 49 91 be 15 fb a8 be 81 64 7f 3d 42 b2 1a bf
       -0.28376636 -0.3300406 0.062351707 -0.6042825
000320 ae 6a 24 3e 98 f9 7f bd 3b e1 42 3e b6 c3 10 3d
       0.1605632 -0.06249389 0.19031231 0.035342894
000330 9c 06 1e 3c 84 a8 b8 3c 77 ee 17 be 3e 6b f8 be
       0.0096451305 0.022541292 -0.14837061 -0.4851932
000340 b3 c0 0e 3e 25 ed 5c 3e aa b0 86 3d 01 a0 a2 3d
       0.13940696 0.21574838 0.06576665 0.079406746
000350 67 50 9d be 57 07 4f be e8 31 f6 3d 03 7d 95 3d
       -0.30725405 -0.20217644 0.120212376 0.07299235
000360 cb 90 59 3d d7 b1 8e ba a2 09 c2 bc 80 ec d4 3d
       0.0531166 -0.0010886741 -0.023686234 0.10396671
000370 56 75 ac 3c cd ed 83 bd 74 4d ec 3d b0 61 56 bf
       0.021052044 -0.06441841 0.115382105 -0.8374281
000380 37 32 b1 3e dd 42 b2 3d 85 8f b3 3e 16 41 16 3d
       0.34608623 0.087041594 0.35070434 0.036683165
000390 69 15 ac 3e f9 b5 9d 3e a6 f4 ba 3d 1d 47 96 bc
       0.33610085 0.30802897 0.09128694 -0.018344456
0003a0 5a 1d 9e be 8c 99 90 be 38 90 09 3e 90 a0 67 bd
       -0.30881768 -0.28242147 0.13433921 -0.05654961
0003b0 37 66 38 3e a4 ce 84 bd 0b 1b ed be 59 47 72 bd
       0.18007742 -0.06484726 -0.46309695 -0.059150074
0003c0 f8 f1 f7 bd 19 2c e7 3d d2 f7 2d 3f bb f8 17 3e
       -0.12106699 0.11287708 0.6795627 0.14840977
0003d0 a9 7e 21 bd 3d c7 36 3e e2 14 4e bd 85 ba 66 bd
       -0.039427433 0.17849441 -0.050312884 -0.056330223
0003e0 c4 a0 98 3e 29 52 14 be 1a 28 96 3e 49 ca 93 3b
       0.29810154 -0.14484467 0.2932747 0.0045101983
0003f0 de 10 c2 3e d9 03 0e bd a3 76 5e be 20 4e ad be
       0.37903494 -0.03467164 -0.21724944 -0.33848667

network_body._body_endoder.seq_layers.2.bias f4 [256]
000000 34 22 44 be 55 56 8f be 89 1b 6f be 8e 92 82 bc
       -0.19153672 -0.27995554 -0.23350348 -0.015939023
000010 dc 9e 7a be 4a 2c 14 be e7 18 ce bd ff b5 db be
       -0.24474663 -0.1447002 -0.100633435 -0.4291229
000020 2f 8a 99 be f6 ba 89 be 70 f5 54 be 41 e0 f6 bd
       -0.29988238 -0.26900452 -0.20796752 -0.12054492
000030 21 66 3f be 59 97 e6 bd ee dd af be 6c bf 53 be
       -0.18691303 -0.11259336 -0.34349006 -0.2067849
000040 96 16 62 be 08 68 b3 be bf 9b c4 be f4 26 94 be
       -0.22078928 -0.35040307 -0.38400075 -0.2893597
000050 cd f2 c1 be 21 d4 ca be 9f bf 99 be a7 c0 cb bd
       -0.37880555 -0.39614967 -0.30029008 -0.09948855
000060 3f 96 86 be 86 74 4d be 43 9d fa bd 49 60 c3 be
       -0.26286504 -0.20063981 -0.122370265 -0.38159397
000070 6a 19 93 be d4 9c 98 be 61 92 8f be 46 f2 3f be
       -0.28730327 -0.2980715 -0.28041366 -0.18744764
000080 90 15 72 be 17 dd aa be ea 1b 8d be 13 15 91 be
       -0.23641038 -0.33371803 -0.2756036 -0.2833639
000090 ad f6 a1 be 69 fc 90 be f3 55 a8 be 1c 76 40 be
       -0.3163351 -0.28317574 -0.32878074 -0.18795055
0000a0 13 57 92 be 60 bc ec bd 2d b6 30 be 2f 86 bd be
       -0.28582057 -0.11559367 -0.17256995 -0.37016436
0000b0 eb 6c 32 be 38 31 c8 be 6b 59 83 be 84 e9 64 be
       -0.17424361 -0.3910005 -0.25654158 -0.22354704
0000c0 fe 3b 5a be dd 6e cf bd d5 d1 32 be 71 d5 b3 be
       -0.21311948 -0.10128567 -0.17462857 -0.3512378
0000d0 10 9d 75 be 2a 33 ec bd 9f 8b 00 be ee 47 8e be
       -0.23985696 -0.11533196 -0.12553261 -0.27789253
0000e0 fb 4a 7f be f4 52 b0 be 60 f5 9c be b5 7e b7 be
       -0.24930947 -0.34438288 -0.30655956 -0.35838857
0000f0 97 01 cd be c6 63 9c be ea 8f d0 be 78 6c 80 be
       -0.40040275 -0.3054487 -0.40734798 -0.25082755
000100 dd 68 4c be c4 5e 3a be ab ff 72 be 99 a1 aa be
       -0.19961877 -0.18200213 -0.23730342 -0.33326414
000110 c9 8b 4d be fa 06 35 be 16 a2 69 be 2b b4 75 be
       -0.20072855 -0.17678443 -0.22815737 -0.2399451
000120 c4 7a 38 be c9 86 92 be 43 e9 b0 be 4c 9b 2f be
       -0.18015581 -0.28618458 -0.34552965 -0.17149085
000130 02 d9 94 be c8 b6 55 be 54 28 25 be 88 a9 2b be
       -0.29071814 -0.20870507 -0.16128665 -0.1676389
000140 4f e9 f1 be da fa 38 be 26 c5 84 be df e3 0e be
       -0.47248313 -0.18064442 -0.25931662 -0.13954113
000150 d4 48 90 be 2f ee 9a be ce 66 95 be 46 33 88 bd
       -0.28180563 -0.30259845 -0.29179996 -0.06650405
000160 b4 19 aa bc 82 e7 55 be ce 08 c3 be 81 80 d0 be
       -0.02076421 -0.20889094 -0.38092655 -0.4072304
000170 65 e5 67 be ae f3 2b be 70 ba 09 be 5d 4a 82 be
       -0.22646101 -0.16792175 -0.13450027 -0.2544736
000180 23 04 8c be 76 08 39 be 76 b9 c4 be bc eb dd bd
       -0.27346906 -0.18069634 -0.38422745 -0.108359784
000190 ed 69 ca be 42 4f d9 be c1 65 15 be 8f 21 66 be
       -0.3953394 -0.4244328 -0.14589597 -0.22473739
0001a0 d2 c8 e2 bd ba 91 80 bd fe 50 b4 be fc ee b1 be
       -0.1107346 -0.06277795 -0.35218042 -0.34752643
0001b0 1d 6a db be 7c 90 78 be bf fb f2 bd 6b b2 f5 be
       -0.42854396 -0.24273866 -0.11864423 -0.47987685
0001c0 53 99 db bd 77 e7 e6 bd af 7a 95 bd c7 79 b7 bd
       -0.10722604 -0.11274617 -0.07298791 -0.08958774
0001d0 fc 97 ba be dc be 11 be 94 90 4e be 42 d8 35 be
       -0.3644408 -0.14232963 -0.2017234 -0.17758277
0001e0 8a 71 29 be 6f 46 d0 be ca c5 4e be a8 0b 80 be
       -0.16547218 -0.40678737 -0.20192638 -0.25008893
0001f0 6b 38 5c be 34 5b e8 bd b3 a3 7d be 08 b3 2d bd
       -0.21505897 -0.113455206 -0.24769478 -0.042407066
000200 2f c7 8d be f2 a3 dd be d0 30 a7 be 13 37 68 bd
       -0.27691028 -0.43289143 -0.32654428 -0.056693148
000210 a5 b0 ac bd 86 ee 41 be 4d 64 85 be 54 3c 30 be
       -0.0843213 -0.18938646 -0.26053086 -0.17210513
000220 b9 ce 10 be 0a 28 7c be 0f 7f 69 be 1e dc 39 be
       -0.14141358 -0.24624649 -0.22802375 -0.18150374
000230 16 74 36 bd 8a bb 39 be 34 4a 89 be 8c 27 39 be
       -0.044544302 -0.18137947 -0.26814425 -0.18081492
000240 89 25 b7 be a9 5b 12 be 38 62 91 be 53 95 1a be
       -0.35770825 -0.14292778 -0.28395247 -0.15096025
000250 e5 28 aa be 8f e0 84 be 10 27 da bd a2 be 83 bd
       -0.33234325 -0.25952575 -0.10651982 -0.06432845
000260 bf ec a4 be 6f 8c c9 bd cb 6a 8d bd 4b 93 37 be
       -0.32211873 -0.09841239 -0.06905135 -0.17927282
000270 fd 2a 76 be 0e 1a 8f be 61 61 09 3e d9 03 83 be
       -0.24039836 -0.27949566 0.13416053 -0.25588873
000280 75 61 47 be 50 b0 a6 be 34 0e d0 be e5 a9 73 be
       -0.1947077 -0.3255639 -0.40635836 -0.23795278
000290 fe b5 9e bd 90 74 3c be 3b b5 2e be e0 12 b3 be
       -0.07749556 -0.1840384 -0.17061321 -0.34975338
0002a0 83 c4 c2 bd b8 dd 95 bd a5 23 67 be 31 9c b0 be
       -0.09510138 -0.0731768 -0.22572191 -0.34494165
0002b0 6f 96 cf be 30 10 46 be 06 ec aa be b6 ae 83 be
       -0.4054446 -0.19342113 -0.33383197 -0.2571923
0002c0 46 ce 65 be 05 44 83 3d d9 c1 21 be a0 bb 72 be
       -0.22441968 0.06409458 -0.15796603 -0.23704386
0002d0 19 52 bb be d6 fe be be 19 f7 69 be 68 d7 a7 be
       -0.36586073 -0.373038 -0.22848167 -0.3278153
0002e0 fe 66 bb be 2e 18 b9 be 7a 28 2e be c4 69 9d be
       -0.36602014 -0.3615126 -0.17007628 -0.30744755
0002f0 b3 27 83 be ed 79 13 be 50 1b 96 be 8e ed 22 be
       -0.25616226 -0.1440198 -0.29317713 -0.15910932
000300 00 dc 6a bd a6 98 3f be e1 bf ec be af 39 31 be
       -0.057338715 -0.18710575 -0.46240142 -0.17307161
000310 4d 3a 0d be c6 91 13 be 04 f6 48 be bc f6 69 be
       -0.13791771 -0.14411077 -0.19625098 -0.22848028
000320 e3 61 f6 bd d2 7f 18 be 77 be 83 be ed 96 ba be
       -0.12030389 -0.1489251 -0.2573125 -0.36443272
000330 4f c3 4b be c8 3f b2 be 77 f3 47 be da e2 b0 be
       -0.19898723 -0.34814286 -0.19526468 -0.34548074
000340 02 9d 96 bd 52 6d 42 be fb 62 9c be 7b c6 49 be
       -0.073541656 -0.18987015 -0.30544266 -0.1970462
000350 1d 4f ef bd f4 00 a4 be e3 27 7c bd f8 ce 56 be
       -0.116850115 -0.32031977 -0.061561476 -0.2097739
000360 2f 36 98 be 88 bc 41 be 96 1d da bd 8c 64 95 be
       -0.2972884 -0.18919575 -0.10650174 -0.29178274
000370 60 25 bb be 19 02 a2 be 1f a3 bc be d0 88 9d be
       -0.36551952 -0.31642225 -0.36843202 -0.30768442
000380 bf 46 89 be 8f c7 8e be a6 14 f0 be ff 1b 85 be
       -0.26811787 -0.27886626 -0.46890754 -0.25997922
000390 d9 a7 8c bd 79 5a d8 bd ba c5 86 be 2e d0 b2 be
       -0.06867952 -0.10564131 -0.26322728 -0.34924453
0003a0 10 d9 ad be 13 5b 7f be c0 46 a1 be 68 3b a9 be
       -0.33954668 -0.24937086 -0.3149929 -0.33053136
0003b0 29 7d 9b be 0a 6f 40 be 56 14 c2 be 0e ef ac be
       -0.30368927 -0.18792358 -0.3790614 -0.33776134
0003c0 19 ba 81 be e9 4c 86 be 5c 0d d0 bb ce e7 69 be
       -0.25337294 -0.26230553 -0.006349249 -0.22842333
0003d0 f4 ad 20 be ac 59 ba be 08 97 6e be 8d ab cc be
       -0.15691358 -0.3639654 -0.23299801 -0.39974633
0003e0 92 ce 81 be 04 90 64 be ad 84 97 be 5d 5a 98 be
       -0.25352913 -0.22320563 -0.2959341 -0.29756442
0003f0 10 72 57 be 1f 6f 49 be ce e0 81 be 50 3e b5 be
       -0.21039605 -0.19671296 -0.25366825 -0.35399103

action_model._discrete_distribution.branches.0.weight f4 [3, 256]
000000 fd dd 83 3e 4a f5 bb 3a 34 24 d5 3c e5 f2 13 3e
       0.257553 0.001434007 0.02601824 0.14448126
000010 df 0f 29 3e 1e 95 2c 3d 07 47 57 3c fa 34 ce bc
       0.1650996 0.042134397 0.013139493 -0.025171746
000020 08 2b cb 3d 2b 1c b3 bd 40 5e 59 3e f0 1b a3 3c
       0.09920317 -0.08745607 0.2122736 0.019910783
000030 98 f0 f1 3d 58 c1 64 bd 28 7a a6 3e 94 72 a9 be
       0.11813468 -0.05584845 0.32515073 -0.3309523
000040 c1 9b 56 bd 2f 72 9f bd 5b 86 e4 3c b5 0a 0b 3e
       -0.052394632 -0.07785451 0.027896097 0.13578303
000050 fc ae a9 be 6d 38 e3 3c dd a3 db 3d bc 88 38 bd
       -0.33141315 0.027736867 0.10724614 -0.045052275
000060 a3 ad c0 bd 4e 40 a7 bc d1 27 74 bd 69 8d 2c be
       -0.094081186 -0.020416405 -0.059608284 -0.16850819
000070 e1 98 76 3d 73 cc c4 3d 22 95 f7 3d 92 3c 1e 3e
       0.06020439 0.09609308 0.12088992 0.15452793
000080 42 5d 3d 3d ff fa a6 bd 1b e8 b0 bc dc 97 4b 3e
       0.046231516 -0.081533425 -0.021595052 0.19882149
000090 05 a0 87 bd e1 74 13 be 11 09 02 be c1 cf 52 bd
       -0.06622318 -0.14400055 -0.12698771 -0.05146766
0000a0 15 b3 05 3d 9d 8f 64 3e 00 68 c6 bd fb 55 8a 3c
       0.03264149 0.22320409 -0.09687805 0.016886702
0000b0 11 6e bf 3e 51 a2 e9 3d a1 5e 30 3d 7b 46 fd bd
       0.37388662 0.114079125 0.043058995 -0.12366959
0000c0 e7 af 04 3e 20 14 51 bb aa 43 d8 3c e9 93 22 be
       0.12957726 -0.0031902865 0.026399452 -0.15876736
0000d0 dd b0 5c be e1 37 70 bd 91 1e 6d bd 6b fa b9 bc
       -0.21551843 -0.05864704 -0.05789048 -0.022702416
0000e0 8b 1d 80 3e 6d 18 c9 bd 43 31 9b 3d ab ba 48 3e
       0.2502254 -0.09819112 0.07577755 0.19602458
0000f0 77 c3 13 be fc 95 d2 bc b0 5d 3f 3d db f7 94 bd
       -0.14430033 -0.025706284 0.046720207 -0.07273837
000100 76 3d 52 be 3b ab 17 be be 49 34 3d 90 8d e3 3c
       -0.20531258 -0.14811413 0.04401564 0.027777463
000110 c6 a1 77 3c d4 94 17 bc f0 bf 0f 3e e6 fc e2 bc
       0.015114253 -0.009251792 0.14038062 -0.027708482
000120 f9 c9 56 3e df 99 22 3e ce 94 82 3d 68 19 d1 bd
       0.20975484 0.1587901 0.063760385 -0.10209924
000130 43 bf 71 be f6 74 1f be 3f 45 56 ba 80 a3 8f bd
       -0.23608117 -0.15571961 -0.00081737706 -0.07013607
000140 41 19 8e be 88 0c df bc 32 f9 e0 3d 8e 60 66 3e
       -0.27753642 -0.027227655 0.1098503 0.2249777
000150 c1 cc d3 bd 2b 75 0b be 0d 2d a7 3d 4c 69 ce 3d
       -0.10341788 -0.13618915 0.0816289 0.100786775
000160 f8 53 2b 3e f2 46 a8 3c 9b 58 2d 3c d7 0c a6 be
       0.1673125 0.020541642 0.010580207 -0.3243167
000170 c5 fa 3d be 70 b8 6b bd c8 f5 0d 3e bc 52 11 be
       -0.18552692 -0.05754894 0.1386329 -0.14191717
000180 a7 a3 e8 bd f0 d3 f3 3d 11 fe b6 3d 09 56 b9 3c
       -0.11359339 0.11905658 0.08935178 0.022624033
000190 ac 04 c6 3d bb fe c3 bd 35 b5 6f be 35 0e 61 3d
       0.0966886 -0.0957007 -0.23408969 0.05494519
0001a0 45 97 c1 bd 5d f5 52 3e 34 55 17 be 4b b5 ac 3e
       -0.094526805 0.20601411 -0.14778596 0.33732066
0001b0 5f 16 ff 3c 8f b9 05 3b 53 8e 1b 3e b0 cb 6f 3d
       0.031138597 0.002040479 0.15191011 0.05854386
0001c0 9d 16 70 3c 77 6a 11 be a9 ba 09 3e 01 7f 33 3d
       0.014653829 -0.1420077 0.13450111 0.043822292
0001d0 ae 5e 65 be 28 45 46 3e 9a 5b c7 bd 35 7f fb bc
       -0.22399399 0.19362319 -0.097342685 -0.030700305
0001e0 eb 7b a1 3b 7a 75 d3 bd a2 cf 15 3d a2 80 01 3e
       0.0049281023 -0.10325141 0.036574967 0.12646726
0001f0 91 d9 a5 bd b0 bd 0f bd d8 88 c8 bd 19 80 52 3e
       -0.08098138 -0.03509301 -0.09791726 0.20556678
000200 ce ad 03 3e 6e 40 80 bd da 42 17 3e 7d 89 bf 3d
       0.1285927 -0.06262289 0.14771596 0.09352396
000210 ea ee 3e 3d 23 aa 04 bb 7f 9f c0 3c 87 67 37 3e
       0.046614565 -0.002024301 0.023513554 0.17910586
000220 f3 65 c7 bb 26 f5 2e bd 26 d8 c6 3d c7 96 41 3d
       -0.0060851513 -0.04271426 0.09709196 0.047262933
000230 ce 48 70 3d 8d fe 96 3e b1 40 4d bd 5c 9a d6 3c
       0.058663182 0.29491082 -0.050110523 0.026196651
000240 72 8e 29 3e 5a da 04 3e a8 45 a9 3d 24 dc 01 3e
       0.16558245 0.1297392 0.08265239 0.12681633
000250 d0 75 41 bd 4a 1f b2 3d 4b 7b 04 3e 58 80 18 be
       -0.047231495 0.08697374 0.12937658 -0.1489271
000260 be f7 bd 3a 9b 48 86 3c be 01 05 bd 6f 5e af 3d
       0.0014493389 0.016392043 -0.032472365 0.08562934
000270 8e bd 3a 3e 90 db 0c be 70 81 a0 bc 0b a3 0c 3e
       0.18236372 -0.13755631 -0.01959297 0.13734071
000280 5a c6 89 3d ea 27 80 bd ff 08 57 bd ec c2 ed 3b
       0.06727286 -0.06257613 -0.052498814 0.0072559025
000290 1b 24 78 3e 41 4d 04 be 1f f5 a2 bd fa 34 2e 3d
       0.24232523 -0.12920095 -0.079569094 0.04253099
0002a0 42 60 85 3d 33 33 83 bc d8 31 cb 3b a5 70 c6 bc
       0.065125 -0.016015625 0.00620101 -0.024223635
0002b0 a9 6b 64 be 19 db b2 3d a8 da aa 3d 5f 89 c1 bd
       -0.22306694 0.08733196 0.083424866 -0.094500296
0002c0 75 2f 9a bc 1a a0 e1 3d af ea 47 be 0f c9 0a be
       -0.018821457 0.11016865 -0.19523118 -0.1355326
0002d0 d6 b7 06 3e 24 bf 0b be 7c 83 e4 bc 8a c1 39 bc
       0.13156065 -0.13647133 -0.027894728 -0.011337647
0002e0 52 64 2e 3e 2f a6 4b 3e 38 5c ba 3d 60 c0 da bd
       0.17030457 0.19887613 0.090996206 -0.10681224
0002f0 0c 32 fc bd 0d 91 19 3d c1 06 b7 bd fe d8 96 3d
       -0.12314233 0.037491847 -0.08936835 0.07365607
000300 4b 4c 50 3c 03 50 e0 bc 5b 84 05 3e fa ef 40 3e
       0.012713502 -0.027381903 0.13038771 0.18841544
000310 a5 2f 8e bd b8 d6 d0 3d 55 66 0a bd 76 5f a2 bd
       -0.06942681 0.10197204 -0.033788998 -0.07928364
000320 f8 64 bb 3c 78 2f 21 3e 7b 68 b3 3d c1 4f 00 3d
       0.022875294 0.15740764 0.087601624 0.03132606
000330 c8 0e 3c 3d 18 e2 e2 3d 08 31 ab 3c 04 20 d3 3d
       0.045912534 0.1107828 0.020897403 0.10308841
000340 0f 65 c7 3e 7c c6 1e be 69 e6 51 3e b1 40 65 3d
       0.3894429 -0.15505403 0.20498051 0.055969898
000350 81 60 26 bd 14 5f a4 3d 50 4a da 3d cd 57 40 3e
       -0.040619377 0.08025947 0.10658705 0.18783493
000360 04 9b 3b 3e e9 5d d6 bc a0 68 09 3e fe 47 c9 3b
       0.18320853 -0.026167827 0.13418818 0.0061426153
000370 1a 92 e4 3d e9 be 48 3e c9 b6 85 3d cf 15 36 be
       0.11160679 0.19604076 0.06529004 -0.17781757
000380 3f 1b c2 bd 5f ef c0 3c 90 7d 1d 3e 2e 26 e6 3d
       -0.09477853 0.023551641 0.1537993 0.11237751
000390 95 9a 1d bd 98 11 8c 3c 1b 67 14 3e 2a be 5f 3c
       -0.0384775 0.017098233 0.14492457 0.0136561785
0003a0 6e 71 e7 3c 30 49 cb 3c 79 ff 28 be 3e 4c 62 be
       0.02825233 0.024815172 -0.16503705 -0.22099397
0003b0 92 e2 1e 3c fb aa 0d 3c 3c 7c 75 3d 0d 0b e2 3d
       0.009697573 0.008646722 0.059932932 0.11037264
0003c0 23 48 53 3e 8b 34 20 3e 7a 9b 82 bd 82 eb 32 3e
       0.20632987 0.15645044 -0.06377311 0.17472652
0003d0 40 1f 7b be 8f 14 41 be 26 89 55 be bf d2 a4 3d
       -0.2452364 -0.18855499 -0.20853099 0.08048009
0003e0 28 7f 4c bc b5 a1 ef bd f8 82 91 bd 1e 59 e9 3c
       -0.012481488 -0.11700765 -0.071050584 0.028484877
0003f0 57 00 47 3e 71 65 8f bc e2 53 46 be 44 d4 40 bd
       0.19433723 -0.017504426 -0.19367936 -0.047077432

action_model._discrete_distribution.branches.0.bias f4 [3]
000000 cf ef 9f bd 85 e2 a1 3d 8d e4 bf 3b
       -0.07809412 0.07904533 0.005856103

action_model._discrete_distribution.branches.1.weight f4 [2, 256]
000000 66 fa 2a be cd f8 0a 3e 18 b4 96 bd d2 c8 e1 3e
       -0.16697082 0.13571472 -0.07358569 0.44098526
000010 ae a4 59 bd 71 44 a9 3d 88 c6 6f bd a1 b0 28 3e
       -0.053135566 0.08265007 -0.058538944 0.16473629
000020 a7 98 bc 3d 4c 01 18 bd aa 7a 0b 3e fe eb 5d 3d
       0.092088036 -0.03711061 0.13621011 0.054180138
000030 e2 63 b0 3d cd 72 15 3c 78 0c 01 3e aa a9 26 3e
       0.08612801 0.009121609 0.12602413 0.16275659
000040 d3 f1 42 3e d1 0c 64 3c 82 2f e7 bd d9 ef c7 3d
       0.19037561 0.013919071 -0.11288358 0.09762544
000050 ab 20 bf bd b3 4f 17 be ab 4b 53 bd 12 69 26 3e
       -0.09332403 -0.14776497 -0.051585834 0.16251019
000060 6f 28 4e be 61 12 53 bd c4 14 68 be 3c d9 84 bd
       -0.20132612 -0.0515312 -0.22664171 -0.06486747
000070 e8 37 13 be 1c 71 ed 3d 3e 54 e6 bd 26 bd b9 bc
       -0.14376795 0.115938395 -0.11246537 -0.0226732
000080 24 7a f9 bc 9c a6 65 bd cb 82 91 3d c4 b1 26 3e
       -0.030453749 -0.056067094 0.07105025 0.1627875
000090 92 64 c3 bd 8f fd 64 bd 5a d8 c1 bc e0 33 96 3c
       -0.09540667 -0.055905875 -0.023662735 0.018335283
0000a0 8b a5 86 3e 49 39 06 3e d5 fe 01 3e 10 d9 44 bd
       0.26298174 0.1310779 0.12694867 -0.04805857
0000b0 ef f5 d8 3e b6 55 88 3d cf 06 87 3d 81 f2 ae bd
       0.42375132 0.06656973 0.065930955 -0.08542348
0000c0 58 d8 b5 3c 65 e7 e6 bd 9f c6 55 be d6 e1 36 3d
       0.022197887 -0.11274604 -0.20876549 0.044648968
0000d0 d3 bb df 3d eb 77 c4 be 09 94 8e 3d e8 32 52 bc
       0.109244965 -0.3837274 0.06961829 -0.01282952
0000e0 f8 5a a0 3c a3 0c 1b 3e 72 4b b3 bc 3c 50 aa bd
       0.019574627 0.1514154 -0.021886561 -0.08316085
0000f0 65 8e 78 be b9 7d 01 bd 06 0d dd be 96 b0 25 be
       -0.24273069 -0.03161404 -0.43174 -0.16180643
000100 a6 4c 43 3d d8 0e 63 3d 59 df e0 3d b1 1e 84 bd
       0.04768052 0.055434078 0.109801 -0.064511664
000110 d6 47 c1 bd aa 10 96 bd 31 a6 f8 bc ad 65 4f be
       -0.0943753 -0.07327397 -0.030352684 -0.2025363
000120 13 8c 4e be 5c c6 18 bc 05 1f 18 be 3a e6 82 3e
       -0.20170622 -0.009324636 -0.14855583 0.25566274
000130 a5 ce b5 bd df b7 83 3c f1 43 9a be 18 64 3d bd
       -0.08877305 0.016078888 -0.3012996 -0.046238035
000140 19 e9 30 3d ec 78 2b bc 60 9e 05 3e c5 3d e0 3d
       0.04319105 -0.010465842 0.13048697 0.109492816
000150 6d 2e 6b 3d 2b 84 cc 3d 7f e7 d9 bc e4 41 a5 3b
       0.057417322 0.099861465 -0.026599644 0.005043255
000160 f5 0c 9b 3d 5a 0f b7 bc 4c 14 ff bd f3 9d cd bd
       0.07570831 -0.022346187 -0.12455043 -0.10039892
000170 ff 56 5c 3d 5b 37 23 3e 2b 8c 49 3d 48 ce 6e bc
       0.053793903 0.15939085 0.04920594 -0.0145755485
000180 a7 ba bf bc 00 25 af 3d 97 76 42 3e ad 39 53 3e
       -0.023404432 0.08551979 0.18990551 0.2062747
000190 12 09 24 3e 4e 6d b5 bd f3 b8 5a 3d 1a 50 fe bd
       0.16019085 -0.08858739 0.053399038 -0.12417622
0001a0 69 ae d1 3d 8a 69 d9 3c d1 ba 06 be 0b 1a 8b bd
       0.10238344 0.026539583 -0.13157202 -0.06792077
0001b0 2d 28 0e be db 01 94 bd cc 75 99 3b 95 5c 68 bc
       -0.13882513 -0.072269164 0.004683232 -0.0141822295
0001c0 cf 97 00 3e 27 d9 c5 bd b6 a3 19 3d a1 d2 1f 3e
       0.1255791 -0.09660559 0.037509643 0.15607692
0001d0 43 48 ed bc 01 84 71 3e 9a 3e 1f 3e 04 74 6c be
       -0.028965121 0.23585512 0.15551224 -0.23091131
0001e0 62 9b 8b 3e 7a 74 26 3d 55 ce e8 bc a4 b7 76 3d
       0.27266985 0.040638424 -0.0284187 0.060233727
0001f0 5d 8a c3 3e 0c c6 a7 bd 55 1a 19 be 84 d6 3a be
       0.381915 -0.08192071 -0.14951451 -0.18245894
000200 d2 0d 21 bc 91 b6 c3 3d c2 0b 91 3d c4 72 b0 bc
       -0.009829955 0.09556306 0.07082321 -0.0215391
000210 24 54 99 bd 1e 61 e7 3d 42 9c b1 bd d2 c0 15 be
       -0.07486752 0.112978205 -0.08672382 -0.14624336
000220 8f 14 0f 3c 38 aa 49 be 84 49 fe bd 67 2a d4 bd
       0.008732929 -0.1969384 -0.12416366 -0.1035965
000230 b3 7a fa 3c 30 42 5d 3d 42 ce ed bd e4 05 b3 bb
       0.030576086 0.0540182 -0.11611606 -0.0054633487
000240 d0 7f 91 bb ea 61 94 3d 5a b0 07 3d 75 cd 1d bd
       -0.0044402853 0.07245238 0.033127166 -0.038526017
000250 00 55 2e 3e 02 11 c6 3e b6 8f 07 3c 6d 70 65 3e
       0.17024612 0.3868485 0.008274009 0.22406168
000260 08 55 d5 3c 74 08 89 3d dd 99 44 3d 41 66 91 bd
       0.026041523 0.066910654 0.047998298 -0.070995815
000270 94 33 a8 bd 6b 99 24 bd b4 59 b1 3b 57 e0 28 3d
       -0.08212963 -0.040185373 0.005412305 0.041229572
000280 42 44 26 3e a7 f4 b0 bb db de 28 be bd 40 2d bc
       0.16236976 -0.0054002586 -0.16491263 -0.010574517
000290 5a 37 9c bd 43 92 09 bd aa f5 84 bd d7 ff 5e bd
       -0.07627745 -0.03358675 -0.06492169 -0.054443207
0002a0 ab 57 08 3b fd 32 85 3d 40 39 c3 3e be b7 6b bd
       0.0020804207 0.06503866 0.38129616 -0.057548277
0002b0 9b 10 e2 3b 43 91 5a 3e a4 c7 ea bd 78 b6 d3 3c
       0.006898952 0.21344475 -0.1146386 0.025843844
0002c0 17 27 8a be 37 bf 97 3b a2 a7 fa 3c 8f 12 c9 3b
       -0.26982948 0.004630949 0.030597512 0.0061362456
0002d0 5c 13 36 bc df 21 3d be d1 a3 bc 3e 78 db aa bd
       -0.011113014 -0.18469952 0.36843732 -0.083426416
0002e0 f0 60 cd bc b6 9a 30 3f de 3a e1 3d 88 1d 35 be
       -0.025070637 0.6898607 0.10997556 -0.17687047
0002f0 53 7a 9b bd 3a 5d 74 3c ad eb ae bd 8d be 01 3e
       -0.07591691 0.014914805 -0.08541045 0.12670346
000300 fc 1b 51 bd e0 76 b9 3c 83 f0 f6 bd 83 4d 57 be
       -0.05105208 0.022639692 -0.12057593 -0.21025662
000310 d0 93 34 3d 8d a3 02 bd f5 eb 13 bd 3e 19 41 be
       0.044086277 -0.031894255 -0.036113698 -0.18857285
000320 fa 0d bd bc 6a 30 0f ba 09 e6 99 3c 5f 7e 1e be
       -0.023077954 -0.00054622313 0.018786447 -0.15477894
000330 cb b5 72 3e 44 dd b2 be 61 05 4d bd 65 ad 79 3e
       0.23702161 -0.34934437 -0.050053958 0.24382551
000340 74 2c cf bd 15 9a d9 3d 24 f9 1c be d7 dc be 3c
       -0.10115901 0.10625092 -0.15329415 0.023298664
000350 ed 56 e9 3c eb 73 13 3e bd dd 95 bd c5 a9 fd 3e
       0.028483832 0.14399688 -0.07317684 0.49543586
000360 83 b8 30 bd ec 2d 47 bd ac 11 01 3e 0f 8a 99 bc
       -0.043144714 -0.04862778 0.12604398 -0.01874259
000370 83 69 c3 3d 40 6b 52 be cb 7d 2f 3b 6c 18 3c 3e
       0.09541609 -0.20548725 0.002677786 0.18368691
000380 35 4e 13 3d df 31 bd 3a 89 db 88 3d d6 39 03 3d
       0.035963256 0.0014434418 0.06682498 0.03203758
000390 9f 79 a2 bd c1 cc 33 3e 20 ad 16 3d 3b 74 9e bd
       -0.07933354 0.17558576 0.0367862 -0.07737013
0003a0 91 c1 e7 bd 0f 8e 9d bd fe 49 ad bd 21 f2 0a be
       -0.11316217 -0.07693111 -0.084613785 -0.13568927
0003b0 e5 58 9a be 13 ef 92 be 4c 72 b7 3d fb 63 b5 3d
       -0.30145946 -0.28698024 0.08957347 0.088569604
0003c0 6a d9 b0 3d 27 37 8d be af aa 5b 3d 9e ae 94 3e
       0.086352184 -0.2758114 0.053629573 0.29039472
0003d0 52 3b 5b 3d 62 14 c9 3c ea c1 42 be c6 77 c4 bd
       0.05352337 0.024545852 -0.19019285 -0.095931575
0003e0 e6 9a af 3d 78 dd 2b be 97 bd 2e be 44 7f 08 3e
       0.085744664 -0.16783702 -0.1706451 0.13329798
0003f0 66 03 8d 3c f1 a9 4b bd 7f 6b bb 3d 33 02 2a 3d
       0.017213535 -0.049722616 0.09151363 0.041506004

action_model._discrete_distribution.branches.1.bias f4 [2]
000000 2d ba 02 3c 9f b9 02 bc
       0.007978958 -0.007978826

action_model._discrete_distribution.branches.2.weight f4 [2, 256]
000000 8d a8 c1 be 9e 24 9d bd 3f 83 a7 3d 3d b2 15 3e
       -0.37823907 -0.07673 0.0817933 0.14618774
000010 3d b9 8e bd 7a ba 61 3c 73 a1 d3 3e b4 d7 9a bd
       -0.06968925 0.01377737 0.41334113 -0.07560673
000020 b9 6d 33 bc 6f ec db ba 3a f9 e0 be a0 cf 19 3d
       -0.010951453 -0.0016778837 -0.43940145 0.037551522
000030 29 6d 51 bd fd 2c be bd a1 43 05 3e 01 f6 51 be
       -0.051129494 -0.092859246 0.1301408 -0.20504
000040 26 a1 41 be 99 02 ae 3d 0c 33 6c be 65 48 32 3e
       -0.1890913 0.08496589 -0.23066348 0.17410429
000050 31 a3 bf bd 5e 60 a1 3d d5 f3 35 bd 7d fa a4 3d
       -0.09357298 0.07879709 -0.04442199 0.08055589
000060 b5 b1 5b 3c dc 01 06 3e a9 f6 84 be f6 32 e8 bd
       0.013409068 0.13086647 -0.25969437 -0.11337845
000070 91 95 75 bd b0 a0 24 3e 06 b9 a5 3c 17 c9 e3 bc
       -0.05995709 0.16076922 0.020229828 -0.027805848
000080 04 33 72 3e 80 1e f8 3d 5e d7 0f be a3 4c 8a 3d
       0.23652273 0.121151924 -0.14047 0.067528985
000090 76 1c 31 3d b3 79 12 3e 2f d9 5a 3e e4 65 5b bd
       0.043240033 0.14304237 0.21371911 -0.053563967
0000a0 70 06 fb 3d 1d 83 89 be 08 f5 e6 3c 7f 9a 86 3e
       0.12257087 -0.26857844 0.028193012 0.26289746
0000b0 aa fb f4 3d 14 46 bc 3c a5 70 e0 bd 20 70 a3 be
       0.119620636 0.022982635 -0.10958985 -0.31921482
0000c0 7a 31 b4 3c 63 26 28 be 1b f9 c1 bd 13 0f 1c 3e
       0.021996249 -0.16420893 -0.09471341 0.15240125
0000d0 d8 9d f2 bc b5 7b 72 be f2 ca 07 be 18 f7 b8 be
       -0.029616281 -0.23680003 -0.13261011 -0.36126018
0000e0 49 27 5b be e0 cb b7 3c 93 b1 9a 3d 0f 6f 52 be
       -0.21401705 0.022436082 0.07553401 -0.20550178
0000f0 88 15 f8 bb 0b 55 24 bd 22 ab 39 3e 2f 4f 2e 3e
       -0.007570926 -0.040120166 0.18131688 0.17022394
000100 6b 3a cb 3d f1 ff 24 bc 66 46 37 3e 50 cb be bb
       0.09923252 -0.010070787 0.17897949 -0.0058225766
000110 15 fe 10 3e 82 01 5a 3c b2 34 8b be 3e 3f 50 3d
       0.14159425 0.013306024 -0.2718864 0.050841562
000120 30 8e a4 bc 8c e4 05 3d 28 41 a5 bd a5 8c f3 3b
       -0.020087332 0.032688662 -0.08069068 0.0074325376
000130 0c 2c c8 bd 8c 8d cb bd 05 63 57 3e 27 f7 b0 3c
       -0.09774026 -0.09939107 0.21033867 0.021602226
000140 55 c0 6d 3e 5c cf 6c 3e a3 4e 63 3c ca 66 e5 bd
       0.232179 0.23125976 0.013873729 -0.11201246
000150 40 01 24 bd 22 8e 63 be e1 8c 9d 3d f3 0e 2c bd
       -0.040040255 -0.22222188 0.07692886 -0.042006444
000160 7d 3c 02 3e 0c 80 08 3e 7d 3e 9d 3d 26 10 04 be
       0.12718387 0.13330096 0.07677934 -0.12896785
000170 35 8f 3f 3d 2c 41 c3 bd 6d 79 ad 3a 29 26 7f bb
       0.046767432 -0.09533915 0.001323504 -0.0038932657
000180 24 50 cc 3b da 03 46 be 70 5e 96 bc e9 6a 1f 3e
       0.0062351394 -0.19337407 -0.018355578 0.15568127
000190 0e 68 1d be 69 c5 0a be 37 13 32 3d 42 5a 96 bd
       -0.15371725 -0.13551868 0.043475356 -0.07341434
0001a0 9c 53 54 bd 31 55 3e bc 81 99 f8 3b 25 13 09 3e
       -0.05183755 -0.011616991 0.0075866585 0.1338621
0001b0 58 6f 57 3d 9a 33 5a 3c 93 24 11 3c 95 00 25 be
       0.05259642 0.013317967 0.008858818 -0.16113503
0001c0 7d 7a d4 3c a7 4a 14 bd 74 f5 6d bd 09 8b 29 be
       0.025937313 -0.036204007 -0.05809541 -0.16556944
0001d0 cc 6f ce 3d ef 98 84 3d bc 7b d4 3d 85 0d c1 bd
       0.10079917 0.06474482 0.10375163 -0.09426407
0001e0 35 67 7f bd e3 03 cd ba 42 87 3d be 9e e9 2c 3e
       -0.062354285 -0.0015641417 -0.18508628 0.16885993
0001f0 ca 4b 98 3c f9 72 e9 bc e1 b1 44 bd 0e 70 9b 3c
       0.018590827 -0.028497206 -0.0480212 0.01897433
000200 c5 fc f2 bc 7a 74 dc 3d d6 ed 0a bc 32 87 11 3d
       -0.029661546 0.10764404 -0.008479556 0.035529323
000210 6c ca c5 3c 50 4b 06 bc b1 7a 17 bc d8 8f b0 3d
       0.024144374 -0.008196667 -0.0092455605 0.08621186
000220 ea 5b 12 be 74 92 52 3d 70 40 ed 3d c0 42 ed 3c
       -0.14292875 0.0514092 0.11584556 0.028962493
000230 72 fe f8 3c 7f dd 3b 3c 33 ad 34 be d1 7a 06 3e
       0.030394766 0.011466383 -0.17644195 0.13132788
000240 3e 0a 9e 3d df 5e 45 be 78 82 6c 3e c7 96 ed 3c
       0.07716797 -0.19274472 0.23096645 0.02900256
000250 36 57 bf bd 16 f7 95 3d 06 1d 8e bb 8d 39 a6 bd
       -0.09342806 0.073225185 -0.004336956 -0.08116446
000260 8f 8a a3 bc 98 2d 8d be 3a c3 c5 3d 21 79 c2 bd
       -0.01996353 -0.27573848 0.09656377 -0.0949576
000270 23 26 cb bd d9 10 0b 3e 01 0f f0 3e 46 10 4c bd
       -0.099193834 0.13580646 0.46886447 -0.049820207
000280 50 eb bc 3d 94 7e ad 3d 2a f7 da 3d d4 c6 a2 bd
       0.0922457 0.084714085 0.10691674 -0.0794808
000290 88 dc 8b bd ea 17 84 bd 9a 4f 60 be 33 b6 c6 3d
       -0.068291724 -0.06449874 -0.21905366 0.097027205
0002a0 42 f1 18 be b8 56 09 be 18 94 0f bd 76 c0 04 be
       -0.14935783 -0.13411987 -0.035053343 -0.12964043
0002b0 dc e8 83 3e e8 6b d3 3d 1e de be 3d 6e 75 81 be
       0.25763595 0.10323316 0.09319709 -0.25284904
0002c0 71 09 6e 3e fe b8 d2 3b c9 bd c1 3b 2b 75 73 be
       0.23245789 0.006430744 0.0059125167 -0.23775165
0002d0 db 23 91 3d a5 54 76 3c f8 6e c7 bd 46 05 c2 3c
       0.07086917 0.015034829 -0.097379625 0.023684155
0002e0 83 53 7f 3d 4d a4 1e be de 0c e5 bd 6e 86 58 be
       0.062335502 -0.15492363 -0.11184095 -0.21145031
0002f0 df 87 b5 bc 94 d5 9f bc a5 ff cb 3a 36 df 92 3d
       -0.022159515 -0.019511022 0.0015563859 0.0717148
000300 85 e7 2f bd 3f bb 13 3e 42 7b 1c be dd 66 70 bd
       -0.042945404 0.14426897 -0.15281394 -0.058691848
000310 4f 64 79 be 44 a9 64 3d 4f 6c a2 bb e4 f7 1e be
       -0.24354671 0.055825487 -0.004956759 -0.1552425
000320 73 8f b5 3d 78 d7 9d 3b cc 0d a9 3c 9e 12 00 3e
       0.088652514 0.0048169456 0.020636462 0.12507102
000330 63 a0 70 3e bb 26 8a 3e e4 a0 5a bd 99 c4 40 be
       0.23498683 0.26982674 -0.053376094 -0.18824996
000340 8f 48 81 3c 4b ff 3e bb f4 21 db bd 07 95 a3 3d
       0.015781669 -0.0029143866 -0.106998354 0.07987409
000350 59 36 09 3c a3 49 16 be 23 31 2d be 43 9b ff 3d
       0.008374774 -0.14676528 -0.16913275 0.12480786
000360 ab fa 77 bc c9 1b b0 bd 57 bb ec 3d e2 cf 86 be
       -0.0151354475 -0.085990496 0.1155917 -0.26330477
000370 e9 04 a9 bd 7e 67 c1 3e 46 e5 2a 3c 15 18 54 3e
       -0.0825289 0.3777427 0.01043064 0.20712312
000380 6c ae 51 be e3 c8 4f 3e 0a c7 2e 3d dc b0 35 3e
       -0.20476693 0.20291476 0.042670287 0.17743248
000390 bf 1f 49 bd 5c 88 80 be 11 44 db 3e 60 3c 7f 3d
       -0.04910254 -0.25104034 0.42825368 0.062313437
0003a0 85 46 fb 3b ab 6a ca bd d6 8d bd bd d1 28 f2 bd
       0.0076683187 -0.098836266 -0.09255569 -0.11824191
0003b0 bf 3e 8b be a5 bd 1c be 54 89 dd 3d dd 30 fe 3d
       -0.2719631 -0.15306719 0.10817209 0.12411664
0003c0 e4 a7 e3 3d 53 0d 8f 3e 7a 9e fa bc 40 c4 a7 3d
       0.11116007 0.27939853 -0.030593146 0.081917286
0003d0 55 bf ea 3c 5f b3 77 be dc fa dd 3d e1 a5 63 3d
       0.028655687 -0.24189518 0.10838863 0.055578116
0003e0 32 7e a9 3c a3 23 2a be 91 b2 fc bd 5f 2b 00 3e
       0.020690057 -0.16615157 -0.12338746 0.12516545
0003f0 22 ab c1 3d ea b7 1b 3e 9b 19 97 bd 8d 76 3f 3e
       0.09456469 0.15206876 -0.07377931 0.18697567

action_model._discrete_distribution.branches.2.bias f4 [2]
000000 06 e2 6c 3d 0a e2 6c bd
       0.05783274 -0.057832755
