Assets/Onx/2DGround/MoveAgent2D-13M_2DGround.onnx (onnx, 107559 bytes, 13 tensors)

discrete_act_size_vector f4 [1, 4]
3.0 2.0 2.0 2.0
00000000: 0000 4040 0000 0040 0000 0040 0000 0040

network_body._body_endoder.seq_layers.0.weight f4 [128, 48]
0.09089585 -0.30732888 0.12451813 -0.1096004 -0.0626078 -0.01734167 0.088432 -0.106140785
0.16799122 0.12706241 -0.15289213 -0.26431075 -0.0032091409 -0.035541378 0.043625697 0.06430251
0.1390499 0.05270595 0.0069123437 0.16568014 -0.0022960724 0.1507059 0.093642294 -0.18533927
0.12130632 0.009781758 0.21297136 0.09545428 -0.16587661 -0.050085332 -0.345286 0.16069531
-0.07650862 0.03588111 -0.047345757 -0.057281602 0.22089419 0.04987168 -0.20578001 0.050177455
0.14058657 0.0119144 -0.19052163 -0.041126415 -0.20768774 0.042870525 0.16944914 0.36894408
-0.03835827 -0.11287922 -0.13063474 0.06687554 0.12833633 -0.20192046 -0.005517378 -0.22215177
-0.12087867 0.019020442 -0.15300846 -0.0442257 -0.011055217 -0.14070526 0.07523152 -0.06512965
-0.14535788 -0.03403584 -0.1331091 0.032562394 -0.10954895 -0.101868495 -0.01264911 -0.056308858
-0.20344155 -0.101007305 -0.05406616 0.055266585 -0.1876711 -0.22536327 -0.018263334 0.2057164
-0.08042608 -0.21692735 -0.3715217 0.00951195 0.41367498 -0.17827368 0.051718336 -0.08639424
0.061962668 -0.28898528 -0.2254284 -0.14324938 -0.04249294 0.13567233 -0.033820763 0.07070976
0.014431129 0.36917448 0.0594011 -0.07897161 0.1358633 0.2118422 -0.23169658 0.35391706
0.06293507 -0.019622592 -0.04299129 0.0109585505 -0.0822879 -0.36510032 0.031044308 0.062816426
0.05770166 0.06989693 0.03166248 -0.048369206 -0.06143652 -0.17634803 0.025520656 0.013875159
-0.05572752 0.06521017 -0.010083597 0.1475884 -0.25669017 -0.012649016 0.04545714 0.210403
-0.1230681 0.044787213 -0.15541212 0.11958177 -0.008417995 -0.15913193 -0.223276 0.14671019
0.29791033 0.22583753 -0.35439113 -0.040742043 0.14635512 -0.0057269195 -0.02797992 -0.055710863
0.023452196 0.34857023 0.091821305 0.18160175 0.21712197 0.069105804 0.14888221 0.2379967
0.090703785 0.05444199 -0.22546828 -0.011320383 -0.20602916 0.254562 0.045559883 0.17780754
-0.024305305 0.03428304 0.20797145 0.14432584 -0.2082393 0.19697607 -0.12937409 0.25521845
0.14067303 -0.036015745 -0.30737355 0.17663854 -0.11483295 -0.066436216 0.04609496 -0.02631227
-0.005320557 0.20909408 -0.13981003 0.18594809 0.4027693 0.15412264 -0.25612992 0.2730993
0.21671866 -0.06775746 -0.31186494 0.024289286 -0.04839582 -0.13152695 -0.17052607 0.09219307
0.12874857 0.16661951 -0.17616075 -0.12456831 0.21088481 0.09990384 -0.10399972 -0.08399176
-0.09848932 -0.11885808 -0.3144052 0.19789916 0.07928126 0.11078336 -0.09142516 0.017929137
0.08092207 -0.13768457 0.2328756 0.11634108 -0.0413495 0.020983223 -0.0035756892 0.12574656
0.14789674 -0.12892638 0.20403576 0.055635046 0.3049952 -0.062829085 -0.10084165 0.44967288
-0.079501085 0.028135141 0.2048478 0.22003925 -0.20991652 0.13699274 0.2833429 0.08739406
-0.10312935 0.10650199 -0.26201397 -0.25378552 0.15623643 -0.05697177 -0.09755125 0.14276321
0.101462916 0.06498706 -0.13270362 0.17435731 -0.4091912 0.12824221 -0.1369502 0.14324449
-0.1689239 0.09036361 -0.257092 -0.26263157 0.09414481 -0.13014854 0.0023628382 -0.067150034
00000000: 9a27 ba3d 365a 9dbe 5d03 ff3d 2d76 e0bd
00000010: 8538 80bd 1e10 8ebc d61b b53d 5760 d9bd
00000020: e405 2c3e a61c 023e c18f 1cbe bd53 87be
00000030: 7350 52bb d693 11bd dcb0 323d 09b1 833d
00000040: 1963 0e3e 32e2 573d f180 e23b 0ea8 293e
00000050: b479 16bb a652 1a3e 88c7 bf3d 94c9 3dbe
00000060: 736f f83d ab43 203c 2a15 5a3e 897d c33d
00000070: 8fdb 29be 4726 4dbd 54c9 b0be 508d 243e
00000080: 8db0 9cbd 12f8 123d a0ed 41bd 1da0 6abd
00000090: 1632 623e 3f46 4c3d ffb7 52be e086 4d3d
000000a0: edf5 0f3e 9e34 433c 1a18 43be 2c74 28bd
000000b0: 18ac 54be 0199 2f3d 1384 2d3e 3de6 bc3e
000000c0: 901d 1dbd 382d e7bd 1dc5 05be 0bf6 883d
000000d0: 996a 033e 3dc4 4ebe 1fcb b4bb c17b 63be
000000e0: 3c8f f7bd c2d0 9b3c 40ae 1cbe 0226 35bd
000000f0: f120 35bc 0a15 10be fc12 9a3d b262 85bd
00000100: b2d8 14be 2a69 0bbd c04d 08be 2560 053d
00000110: 335b e0bd 6ea0 d0bd 363e 4fbc 1ea4 66bd
00000120: fb52 50be ebdc cebd 7a74 5dbd 375f 623d
00000130: da2c 40be a1c5 66be fd9c 95bc 52a7 523e
00000140: 6eb6 a4bd 3422 5ebe 1838 bebe 03d8 1b3c
00000150: 35cd d33e 608d 36be 9bd6 533d 77ef b0bd
00000160: 91cc 7d3d e1f5 93be b4d6 66be f7af 12be
00000170: 140d 2ebd b0ed 0a3e a487 0abd 47d0 903d
00000180: 8b70 6c3c 7004 bd3e 914e 733d debb a1bd
00000190: c01f 0b3e 29ed 583e de41 6dbe 9e34 b53e
000001a0: 1ae4 803d 8fbf a0bc a317 30bd 7e8b 333c
000001b0: 8f86 a8bd 6eee babe a250 fe3c e6a5 803d
000001c0: 9358 6c3d 1f26 8f3d 84b0 013d ca1e 46bd
000001d0: dca4 7bbd 9494 34be b210 d13c a354 633c
000001e0: 8a42 64bd e98c 853d ac35 25bc 6a21 173e
000001f0: e56c 83be d23d 4fbc 4431 3a3d e273 573e
00000200: 210b fcbd cc72 373d 5b24 1fbe 49e7 f43d
00000210: a1eb 09bc 7bf3 22be 77a2 64be 323b 163e
00000220: b487 983e f441 673e c172 b5be 21e1 26bd
00000230: 1ede 153e e2a8 bbbb 2536 e5bc 1331 64bd
00000240: d21e c03c cc77 b23e cf0c bc3d cff5 393e
00000250: 3955 5e3e 5887 8d3d 9474 183e 68b5 733e
00000260: e8c2 b93d 90fe 5e3d 28e1 66be 2179 39bc
00000270: 4ff9 52be f355 823e 009d 3a3d 2e13 363e
00000280: eb1b c7bc 5f6c 0c3d 78f6 543e 27ca 133e
00000290: af3c 55be 18b4 493e a47a 04be feab 823e
000002a0: 970c 103e 3f85 13bd 1160 9dbe bce0 343e
000002b0: 8a2d ebbd b60f 88bd 12ce 3c3d d48c d7bc
000002c0: 1158 aebb c21c 563e 5c2a 0fbe 2d69 3e3e
000002d0: c737 ce3e 53d2 1d3e 7623 83be acd3 8b3e
000002e0: 7feb 5d3e 6cc4 8abd c3ac 9fbe 53fa c63c
000002f0: b23a 46bd 00af 06be 639e 2ebe b8cf bc3d
00000300: aad6 033e 4e9e 2a3e 7c63 34be ac1d ffbd
00000310: 30f2 573e 629a cc3d cefd d4bd df03 acbd
00000320: c5b4 c9bd dd6b f3bd b8f9 a0be 14a6 4a3e
00000330: 375e a23d 63e2 e23d 1d3d bbbd 20e0 923c
00000340: 78ba a53d 2ffd 0cbe f176 6e3e 3b44 ee3d
00000350: 185e 29bd 02e5 ab3c 1c56 6abb b5c3 003e
00000360: 3e72 173e 4705 04be c0ee 503e 93e1 633d
00000370: 5528 9c3e 89ac 80bd 1186 cebd 863b e63e
00000380: 77d1 a2bd ab7b e63c 9fc3 513e f851 613e
00000390: 5bf4 56be d347 0c3e 5212 913e a8fb b23d
000003a0: 7b35 d3bd b71d da3d b226 86be 2df0 81be
000003b0: 71fc 1f3e 3b5b 69bd f3c8 c7bd 8530 123e
000003c0: cacb cf3d f017 853d 75e3 07be b98a 323e
000003d0: 8281 d1be ed51 033e ac3c 0cbe afae 123e
000003e0: 63fa 2cbe 8e10 b93d 90a1 83be a577 86be
000003f0: ffce c03d a945 05be d9d9 1a3b f585 89bd

network_body._body_endoder.seq_layers.0.bias f4 [128]
0.008908324 -0.046821613 -0.021192916 0.07561025 0.022099068 -0.043530706 -0.007208893 0.06716393
-0.09639573 0.03881814 -0.045937758 -0.07327901 -0.07864362 0.041766685 -0.022804817 -0.005381152
-0.10914611 -0.02026398 -0.010498551 -0.030744536 0.04005233 -0.03509359 0.039667185 -0.012409798
-0.044101972 -0.003427526 0.027828682 0.0063686958 0.0072220718 -0.018198866 0.035539124 -0.074967705
-0.016286453 0.025319027 -0.03057673 -0.041034702 -0.028605832 -0.037723523 -0.027726123 -0.063164964
-0.075307004 -0.030255388 -0.022403132 0.04174706 0.051535305 -0.06391218 -0.028976157 0.023778757
-0.064201094 -0.04364463 -0.11345471 0.050893974 -0.046320055 -0.095653124 0.034787323 -0.041166626
-0.026052387 -0.010920814 0.03665965 0.044650864 0.123952985 -0.020067563 -0.008187344 0.021504294
0.008145653 -0.0186845 0.027629187 -0.02520486 -0.08140698 -0.035834357 -0.0015926091 -0.07331513
0.059522733 -0.017016012 0.0640691 0.107525125 -0.033368755 -0.09507991 -0.024350874 0.03768183
-0.024645755 0.030494519 0.08277391 -0.025959652 0.00017984131 0.020280423 -0.068536595 0.005563382
0.0008722838 -0.009337508 -0.003005741 0.05763111 0.06526621 -0.027526176 -0.021213751 -0.019957904
-0.07292811 0.004499892 -0.02426431 -0.000113862436 -0.0036534148 0.006972852 0.023225773 -0.004404093
0.014224287 0.07214856 -0.0351504 0.0008180723 -0.020054184 0.042895027 0.03783274 0.07577731
-0.0441979 0.01837058 -0.011340692 -0.00035300446 0.06627218 0.033030555 0.049888533 -0.0070157126
0.029861689 0.030480722 -0.02671278 0.022798454 0.025556963 0.051422715 0.023902405 -0.03038086
00000000: 38f4 113c 05c8 3fbd c49c adbc 8cd9 9a3d
00000010: 1b09 b53c 414d 32bd 9438 ecbb 3e8d 893d
00000020: 206b c5bd c5ff 1e3d 3b29 3cbd 4e13 96bd
00000030: e80f a1bd 8b13 2b3d 2bd1 babc 6054 b0bb
00000040: ff87 dfbd a500 a6bc 1d02 2cbc f7db fbbc
00000050: e90d 243d 4cbe 0fbd 0f7a 223d 7752 4bbc
00000060: 45a4 34bd 58a0 60bb faf8 e33c 7eb0 d03b
00000070: 21a7 ec3b ca15 95bc 7991 113d ab88 99bd
00000080: 2b6b 85bc d969 cf3c 0d7c fabc 0114 28bd
00000090: c756 eabc fb83 1abd e521 e3bc a25c 81bd
000000a0: 8f3a 9abd 26da f7bc c686 b7bc f7fe 2a3d
000000b0: af16 533d 64e4 82bd 685f edbc abcb c23c
000000c0: dd7b 83bd b6c4 32bd f15a e8bd 3376 503d
000000d0: 19ba 3dbd c9e5 c3bd 277d 0e3d 569e 28bd
000000e0: d16b d5bc 37ed 32bc 6e28 163d d3e3 363d
000000f0: 10db fd3d bb64 a4bc 3624 06bc c629 b03c
00000100: 5875 053c 3d10 99bc 9b56 e23c 6c7a cebc
00000110: b4b8 a6bd 0cc7 12bd 18bf d0ba 3e26 96bd
00000120: 1cce 733d 2a65 8bbc a936 833d 2236 dc3d
00000130: adad 08bd 41b9 c2bd 7c7b c7bc 4358 1a3d
00000140: e5e5 c9bc a4cf f93c 5e85 a93d 56a9 d4bc
00000150: c993 3c39 2123 a63c ea5c 8cbd 084d b63b
00000160: faa9 643a 59fc 18bc f7fb 44bb 990e 6c3d
00000170: 4aaa 853d 937e e1bc 76c8 adbc c27e a3bc
00000180: 555b 95bd d473 933b f2c5 c6bc 6ec9 eeb8
00000190: 216e 6fbb 867c e43b fa43 be3c 3650 90bb
000001a0: fc0c 693c a0c2 933d def9 0fbd e773 563a
000001b0: ac48 a4bc b2b2 2f3d 81f6 1a3d 2231 9b3d
000001c0: db08 35bd e67d 963c 4fce 39bc 7513 b9b9
000001d0: b5b9 873d 0c4b 073d eb57 4c3d 10e4 e5bb
000001e0: 80a0 f43c b5b2 f93c c3d4 dabc d3c3 ba3c
000001f0: d65c d13c a0a0 523d face c33c 48e1 f8bc

network_body._body_endoder.seq_layers.2.weight f4 [128, 128]
-0.09003355 0.03858889 0.10854571 0.14996634 -0.10398631 -0.09173458 0.046134718 0.029976305
0.051722635 -0.024385026 -0.0007520409 0.093680464 0.030521156 -0.010173992 -0.16084222 -0.11719959
-0.091022484 -0.11228836 -0.027162204 -0.06314908 -0.07200205 0.11812721 0.07992609 -0.10697999
-0.027216945 0.11869306 -0.06062501 -0.051553283 0.08945168 -0.038740583 0.11029149 -0.017647075
0.094039425 0.026999783 -0.15357037 0.020419423 -0.10432925 -0.10452907 -0.019632587 -0.08043338
-0.18505676 0.24574359 -0.11149755 -0.07722606 -0.0050002574 0.06939193 0.026889786 -0.07661643
-0.16863473 -0.08074085 -0.03036426 -0.14242688 0.01233309 -0.06490582 -0.14489107 0.042493146
0.039444003 -0.11836026 0.25740993 0.063919604 0.023278696 -0.07649772 -0.007810024 -0.040330052
0.10714767 -0.07138729 0.28972822 -0.04395771 0.07146324 -0.1132627 -0.12760629 -0.073487855
0.084573 0.011659865 -0.047875065 -0.13018918 0.051337317 -0.061651915 -0.0627032 0.0307339
0.14490609 -0.073635444 0.05196997 -0.016220229 -0.31866542 -0.22408551 0.124892354 0.060839623
-0.099103026 -0.077211455 0.017471572 -0.034596927 0.17535241 -0.19917077 -0.120391935 0.05889862
0.055094883 -0.011130395 0.027915992 1.8635852e-05 0.02008818 0.1761326 0.145126 -0.061233502
0.0774614 -0.08817132 0.19662532 0.06705376 0.0775964 -0.2131638 0.06238998 -0.023018206
-0.07032254 -0.030521505 0.0009126145 0.085330814 -0.057953976 -0.11618036 0.14740407 -0.0012201688
-0.060417898 -0.08122611 0.042639248 0.07261058 -0.0070441714 0.015333961 0.040111303 -0.028457895
-0.06628575 -0.0482719 -0.14856021 -0.03398901 -0.046301454 -0.040286995 -0.11097973 -0.049989216
0.07165182 0.18130776 0.009202844 -0.14306591 0.08723116 -0.11007745 -0.14649859 -0.003337074
0.08973842 -0.0072051543 0.019412993 -0.035970297 0.06616776 -0.09716262 0.12404521 0.13488892
0.025122324 0.028699866 0.066973455 -0.09151504 -0.034732588 -0.018134682 0.26355302 0.067212276
-0.18381308 0.0970963 0.011780728 0.02952339 0.003141269 0.005518735 0.1284319 0.014169761
0.10857104 -0.08667731 -0.17106129 0.029553233 -0.015470008 0.021517193 -0.09721042 -0.041182958
0.093427524 -0.024505032 -0.0011247768 -0.011679578 -0.025517968 0.05465519 -0.032170687 0.0053340322
-0.008325027 -0.010372382 -0.13422577 0.004902524 -0.08046542 0.21310642 0.13068175 0.11686519
0.07235246 -0.015298915 0.14959323 0.010567307 -0.115761146 0.023265928 -0.004630487 0.11548126
-0.08775867 -0.08609696 -0.027793724 0.17063823 -0.16475731 -0.030085756 0.08705279 -0.033481985
0.17595634 0.08398154 -0.0023669011 0.032557715 0.058515918 -0.00817775 0.06276436 0.13151558
0.11536311 0.058368467 0.03242568 0.0030194663 0.09417066 0.030692345 0.08940612 -0.031342417
0.010110542 0.13800873 -0.046802275 0.10477595 0.07168778 -0.08699676 -0.060094662 0.027357189
-0.18166643 0.12017385 -0.028762762 -0.095922925 0.015207574 0.039717164 -0.07789736 0.050232876
0.01114749 0.052739564 0.07487028 -0.028621204 -0.0863071 0.07249347 0.0070817387 0.07742482
0.064481445 -0.09881354 -0.09430546 0.00060704804 -0.0010320569 -0.044900715 -0.008180736 -0.0152241485
00000000: 8363 b8bd 620f 1e3d 374d de3d c790 193e
00000010: c6f6 d4bd 57df bbbd c2f7 3c3d de90 f53c
00000020: 1ddb 533d 1bc3 c7bc 9c24 45ba 8bdb bf3d
00000030: 8107 fa3c d1b0 26bc d3b3 24be 5706 f0bd
00000040: ff69 babd 71f7 e5bd 4583 debc 4e54 81bd
00000050: d075 93bd aeec f13d 4ab0 a33d 5318 dbbd
00000060: 12f6 debc 5915 f33d ee51 78bd 8929 53bd
00000070: 7132 b73d 72ae 1ebd 81e0 e13d 9990 90bc
00000080: be97 c03d a62e dd3c 8d41 1dbe a246 a73c
00000090: 93aa d5bd 5613 d6bd 85d4 a0bc 42ba a4bd
000000a0: 857f 3dbe 35a4 7b3e d458 e4bd b228 9ebd
000000b0: 33d9 a3bb 5b1d 8e3d f847 dc3c 13e9 9cbd
000000c0: 95ae 2cbe 755b a5bd 78be f8bc 5ad8 11be
000000d0: bb10 4a3c 58ed 84bd 535e 14be 4b0d 2e3d
000000e0: 0990 213d dd66 f2bd 3ccb 833e 48e8 823d
000000f0: f7b2 be3c d6aa 9cbd 3beb ffbb 2031 25bd
00000100: 3d70 db3d 8033 92bd 4257 943e 000d 34bd
00000110: 525b 923d 46f6 e7bd 39ab 02be cd80 96bd
00000120: 9c34 ad3d 0509 3f3c a518 44bd 5050 05be
00000130: 1447 523d b886 7cbd 896a 80bd a9c5 fb3c
00000140: 4362 143e 2ece 96bd 77de 543d 49e0 84bc
00000150: 1d28 a3be ac76 65be 90c7 ff3d f832 793d
00000160: 87f6 cabd 0a21 9ebd 8b20 8f3c 82b5 0dbd
00000170: 958f 333e 6cf3 4bbe 0c90 f6bd ae3f 713d
00000180: 2cab 613d 435c 36bc 14b0 e43c 3054 9c37
00000190: f88f a43c 1b5c 343e e99b 143e fbcf 7abd
000001a0: 15a4 9e3d 2a93 b4bd 2658 493e 7b53 893d
000001b0: ddea 9e3d 9c47 5abe a38c 7f3d ad90 bcbc
000001c0: 4405 90bd 3c08 fabc 863c 6f3a ecc1 ae3d
000001d0: 2661 6dbd f8ef edbd 18f1 163e 12ee 9fba
000001e0: c278 77bd e059 a6bd 7ea6 2e3d dbb4 943d
000001f0: cbd2 e6bb 4b3b 7b3c c04b 243d 8820 e9bc
00000200: d3c0 87bd c1b8 45bd 2b20 18be 0f38 0bbd
00000210: 98a6 3dbd fa03 25bd 5749 e3bd 7ec1 4cbd
00000220: 30be 923d bea8 393e 87c7 163c df7f 12be
00000230: 40a6 b23d 4970 e1bd ba03 16be d0b2 5abb
00000240: c7c8 b73d 3719 ecbb ff07 9f3c 9755 13bd
00000250: f682 873d 32fd c6bd 6a0b fe3d 5220 0a3e
00000260: 55cd cd3c fb1b eb3c 6129 893d 3d6c bbbd
00000270: c243 0ebd 2f8f 94bc 6cf0 863e 97a6 893d
00000280: 7f39 3cbe 6dda c63d f403 413c 09db f13c
00000290: c0dd 4d3b 81d6 b43b a783 033e 4928 683c
000002a0: 7e5a de3d e083 b1bd b12a 2fbe 9f19 f23c
000002b0: eb75 7dbc d344 b03c 4216 c7bd 76af 28bd
000002c0: ee56 bf3d c7be c8bc 3f6d 93ba b35b 3fbc
000002d0: 0f0b d1bc 1fde 5f3d 69c5 03bd 1bc9 ae3b
000002e0: b265 08bc ecf0 29bc 7b72 09be 5aa5 a03b
000002f0: 0ecb a4bd 9238 5a3e 70d1 053e 0457 ef3d
00000300: 872d 943d 4da8 7abc f82e 193e 7f22 2d3c
00000310: 2e14 edbd 3098 be3c 57bb 97bb 7081 ec3d
00000320: d1ba b3bd 9a53 b0bd aaaf e3bc cabb 2e3e
00000330: 24b6 28be 6776 f6bc bc48 b23d 6824 09bd
00000340: e62d 343e 83fe ab3d 031e 1bbb 3d5b 053d
00000350: 63ae 6f3d f8fb 05bc 9a8a 803d 05ac 063e
00000360: 7f43 ec3d c613 6f3d cad0 043d 3de2 453b
00000370: 8cdc c03d 836e fb3c 8e1a b73d e860 00bd
00000380: b0a6 253c 2952 0d3e beb3 3fbd c694 d63d
00000390: 0bd1 923d 5b2b b2bd d225 76bd 2f1c e03c
000003a0: c406 3abe b51d f63d e29f ebbc 3d73 c4bd
000003b0: 3029 793c 77ae 223d a788 9fbd fdc0 4d3d
000003c0: f6a3 363c 7105 583d 9755 993d 0477 eabc
000003d0: c7c1 b0bd 7577 943d ee0d e83b e790 9e3d
000003e0: d90e 843d c15e cabd 3923 c1bd 4e22 1f3a
000003f0: 1546 87ba d0e9 37bd 7e08 06bc b56e 79bc

network_body._body_endoder.seq_layers.2.bias f4 [128]
-0.013264298 -0.020220209 -0.017796326 0.008481045 -0.019371087 -0.039621264 -0.060925856 -0.028285079
-0.034854937 -0.019361408 -0.03180852 0.014176947 -0.043564416 0.004785656 0.013808238 -0.019909369
-0.012684069 -0.0036558062 0.004726508 -0.0040673874 0.009996504 0.03620578 -0.020279417 -0.023431405
-0.021599498 -0.0016513692 -0.05210145 -0.028802525 -0.019158036 -0.022156838 -0.019445475 0.04973805
-0.013013099 -0.04750051 0.023524677 -0.008773927 -0.027197197 -0.042117286 0.021021316 0.0007979805
0.011840698 -0.065159015 0.063114405 -0.00840553 -0.005494066 -0.08414686 -0.04142563 0.008207378
0.0067125796 -0.032343574 0.021594336 0.015679656 0.02368195 -0.06269664 0.024227008 0.009339115
-0.0246936 -0.025677165 -0.047391582 -0.02083569 0.007587549 -0.035685234 -0.054174293 -0.04006958
-0.015445583 0.0068333303 -0.0024363915 0.0059953732 0.022419067 -0.0025804965 -0.010854752 0.03586259
0.0046839565 -0.03798453 -0.0061328593 -0.028397638 -0.04550691 -0.018794619 -0.012719157 0.025934478
0.013705623 -0.017236304 0.0135444505 -0.019230414 0.023180965 0.012110472 -0.0020274795 -0.013201102
-0.0032649531 0.0004363447 -0.05442069 -0.0013882954 -0.01868982 -0.06636096 -0.018923307 0.02320963
-0.04003731 -0.048386615 -0.061190005 -0.012392025 -0.023864476 0.0043997904 0.012780378 -0.04164679
-0.02557088 0.003800117 0.0102329105 -0.019698175 0.018731762 -0.04373981 -0.018948484 0.0042196265
0.042719275 -0.03396364 -0.031553797 -0.047547854 -0.046364944 -0.013867192 -0.0177209 0.017292958
0.0018247889 -0.058448557 0.012746246 -0.0757698 -0.0228452 -0.06442366 0.014807457 -0.01924029
00000000: 8052 59bc daa4 a5bc 9ac9 91bc 15f4 0a3c
00000010: 1db0 9ebc e849 22bd 648d 79bd 1cb6 e7bc
00000020: 0dc4 0ebd d19b 9ebc a749 02bd 6d46 683c
00000030: 9a70 32bd fed0 9c3b f33b 623c f918 a3bc
00000040: d7d0 4fbc 4096 6fbb d3e0 9a3b b847 85bb
00000050: 60c8 233c 834c 143d 0521 a6bc 38f3 bfbc
00000060: 6ef1 b0bc c172 d8ba 5468 55bd 46f3 ebbc
00000070: 50f1 9cbc 4282 b5bc 1e4c 9fbc 20ba 4b3d
00000080: e534 55bc e58f 42bd d3b6 c03c 84c0 0fbc
00000090: a8cc debc 2d83 2cbd e534 ac3c 912f 513a
000000a0: 7dff 413c 1772 85bd 2042 813d 59b7 09bc
000000b0: 9107 b4bb 3055 acbd ecad 29bd 3d78 063c
000000c0: 33f5 db3b b27a 04bd 9be6 b03c 9f72 803c
000000d0: a600 c23c 1967 80bd b877 c63c 1603 193c
000000e0: 3c4a cabc eb58 d2bc ad1d 42bd 9caf aabc
000000f0: f9a0 f83b ae2a 12bd dde5 5dbd 0020 24bd
00000100: 780f 7dbc 21ea df3b deab 1fbb d674 c43b
00000110: 31a8 b73c 8c1d 29bb 21d8 31bc a7e4 123d
00000120: e07b 993b ab95 1bbd 27f6 c8bb 2aa2 e8bc
00000130: 7465 3abd 2cf7 99bc 0364 50bc 8b74 d43c
00000140: 8d8d 603c 2633 8dbc 8be9 5d3c 1a89 9dbc
00000150: 02e6 bd3c 006b 463c 76df 04bb 6f49 58bc
00000160: d3f8 55bb 32c5 e439 3be8 5ebd 77f7 b5ba
00000170: 651b 99bc 41e8 87bd 0d05 9bbc 1f22 be3c
00000180: 2afe 23bd 0b31 46bd 5fa2 7abd ec07 4bbc
00000190: 6f7f c3bc 1e2c 903b ca64 513c d395 2abd
000001a0: 067a d1bc 620b 793b f0a7 273c 115e a1bc
000001b0: 5a73 993c 8428 33bd da39 9bbc cb44 8a3b
000001c0: 68fa 2e3d 751d 0bbd 8e3e 01bd 8ac1 42bd
000001d0: 2be9 3dbd 3833 63bc 6c2b 91bc f6a9 8d3c
000001e0: c12d ef3a c167 6fbd a1d5 503c 322d 9bbd
000001f0: db25 bbbc 8df0 83bd fa9a 723c d09d 9dbc

action_model._discrete_distribution.branches.0.weight f4 [3, 128]
-0.06109972 0.003717696 0.003899903 -0.03888693 -0.06558022 -0.053712845 -1.2916782e-05 -0.016833602
-0.015864352 0.0222498 0.0363577 -0.067949764 0.030743714 -0.02225045 0.0235055 -0.030951133
-0.020566715 -0.052088875 0.0046358556 0.032379176 0.017766643 0.0557919 0.030861365 0.03063153
0.0077390326 -0.008490396 -0.008206405 0.04165882 -0.012934159 0.027169878 -0.021520915 0.06419219
-0.029539216 0.03056924 0.00021545467 0.023472596 0.05382991 0.00858404 -0.0167099 0.034322843
0.024746804 -0.031514492 0.042310275 -0.11646237 0.027919732 -0.005034283 -0.03233217 -0.0074603925
-0.027392682 0.012190638 0.012334239 0.023873044 0.042168662 0.029310513 0.020374833 0.046455894
-0.0021884884 -0.0065357885 -0.009482211 0.027346088 0.02641965 0.016321737 0.013200648 0.01886461
0.050143227 0.035456426 -0.0194424 0.058780357 0.05512377 0.03304254 0.026531074 0.0470173
-0.033919316 0.004777507 0.010290032 -0.041168902 0.017001465 -0.0067268317 0.044360694 0.037753444
-0.0042244946 0.024592072 -0.06541159 -0.015123985 -0.013108912 -0.015077743 -0.08491002 -0.046607256
-0.049263485 0.039276123 -0.009135143 0.00881885 0.06115518 -0.018162707 -0.015382771 -0.0052787503
-0.008880729 -0.035776373 0.009511484 -0.01996549 -0.06646611 -0.016359314 0.049816296 0.015069339
-0.06527203 -0.010274939 -0.024954055 -0.024048418 -0.051082518 -0.017123414 -0.04920579 0.009182888
0.06653855 0.0630848 -0.023372762 0.0048965365 0.012938042 0.0039311484 0.0048989556 -0.049281344
0.017313551 0.051193647 0.013438766 -0.026081955 -0.025801275 0.063228674 -0.040857513 0.005166585
0.043521598 0.029468399 0.031104563 -0.044309814 -0.015861528 0.0274025 -0.01697941 0.040366884
0.011832606 -0.017991683 0.047515076 -0.011433673 0.009139992 0.03138227 0.025930198 0.043011572
-0.08684035 0.04755743 -0.033995703 -9.254804e-05 0.021047916 -0.05529222 -0.08606866 -0.013676136
-0.018421521 0.018035477 0.022431966 -0.039444204 0.013191999 0.056974724 0.026365932 -0.0008456014
0.0060756556 0.05680057 -0.027223526 0.0867136 -0.07676087 -0.033808198 -0.042296905 0.008080128
0.0017459239 0.036795203 -0.09754376 0.018611621 -0.028732447 -0.0356752 0.008465163 0.009343059
0.075182974 0.017699184 0.009733689 -0.04675084 0.095528305 0.010125996 -0.057177134 -0.017107712
0.021545315 -0.023593258 0.029832916 0.03532899 0.040362824 -0.029168753 0.0038293612 0.028865924
-0.06986408 -0.045650445 0.010728525 -0.030956166 0.04014574 -0.085528314 0.0006561485 0.043724123
0.0334258 0.020849312 -0.010700482 -0.024431678 -0.044176403 0.0023170854 -0.037630018 0.03971142
-0.06768837 0.00013795901 0.043676987 -0.01017932 -0.051332824 0.0454282 -0.01083214 0.050051555
-0.02549869 -0.061076358 0.006715166 0.035192613 -0.031293433 -0.02202598 -6.655868e-05 0.052669313
0.029237252 0.015285907 -0.025859213 0.0003282729 0.018491482 0.014433352 -0.016646147 0.06493356
0.020355875 -0.04628094 -0.011020864 0.035119686 -0.011494356 0.01432474 0.029227026 -0.05565465
-0.057041667 -0.021215752 0.035344124 0.032768875 0.019726114 0.044203453 -0.045228355 0.1017701
-0.03581167 -0.011144148 0.04463756 0.01561527 0.00058677566 -0.040732414 0.17070736 0.011303014
00000000: b343 7abd 97a4 733b 8495 7f3b e747 1fbd
00000010: ec4e 86bd 0002 5cbd 28b5 58b7 9fe6 89bc
00000020: f5f5 81bc 3645 b63c d0eb 143d 3f29 8bbd
00000030: 3eda fb3c 9346 b6bc 9b8e c03c 3b8d fdbc
00000040: 877b a8bc 255b 55bd 60e8 973b 07a0 043d
00000050: 5a8b 913c 0c86 643d f9d0 fc3c f9ee fa3c
00000060: b697 fd3b 4d1b 0bbc 2874 06bc 70a2 2a3d
00000070: cbe9 53bc 5d93 de3c a14c b0bc 3277 833d
00000080: 3afc f1bc 586c fa3c aceb 6139 9a49 c03c
00000090: c07c 5c3d 13a4 0c3c 33e3 88bc 1c96 0c3d
000000a0: cfb9 ca3c 5715 01bd 8a4d 2d3d d383 eebd
000000b0: ecb7 e43c a0f6 a4bb bd6e 04bd 4f76 f4bb
000000c0: 9e66 e0bc 3ebb 473c 8c15 4a3c 6791 c33c
000000d0: 0cb9 2c3d 9a1c f03c 1fe9 a63c 8948 3e3d
000000e0: be6c 0fbb 2b2a d6bb 475b 1bbc e704 e03c
000000f0: 066e d83c 2ab5 853c 8847 583c f489 9a3c
00000100: fc62 4d3d c23a 113d ab45 9fbc acc3 703d
00000110: 76c9 613d 9d57 073d b257 d93c 3695 403d
00000120: fbee 0abd a28c 9c3b 8697 283c b9a0 28bd
00000130: a846 8b3c c16c dcbb 8fb3 353d 5ba3 1a3d
00000140: a16d 8abb 5075 c93c 83f6 85bd 97ca 77bc
00000150: c3c6 56bc a308 77bc 4ee5 adbd 40e7 3ebd
00000160: 82c8 49bd 00e0 203d 91ab 15bc f07c 103c
00000170: db7d 7a3d f5c9 94bc 0508 7cbc 5ef9 acbb
00000180: 7a80 11bc 3f8a 12bd 0ed6 1b3c ab8e a3bc
00000190: 621f 88bd f803 86bc 2c0c 4c3d 64e5 763c
000001a0: 58ad 85bd 3858 28bc 726c ccbc 3001 c5bc
000001b0: e73b 51bd 6746 8cbc 038c 49bd d373 163c
000001c0: 5d45 883d 9b32 813d 3c78 bfbc 2073 a03b
000001d0: 15fa 533c ddd0 803b 6b87 a03b 3cdb 49bd
000001e0: 26d5 8d3c 6eb0 513d 452e 5c3c d3a9 d5bc
000001f0: 325d d3bc 097e 813d 355a 27bd 754c a93b
00000200: b443 323d b667 f13c ffce fe3c 357e 35bd
00000210: 09f0 81bc 357b e03c 6718 8bbc bf57 253d
00000220: 8cdd 413c 4b63 93bc 2b9f 423d 4d54 3bbc
00000230: e8bf 153c b28a 003d 916b d43c e72c 303d
00000240: 5ad9 b1bd 94cb 423d 143f 0bbd 5a16 c2b8
00000250: ae6c ac3c 187a 62bd c444 b0bd df11 60bc
00000260: bbe8 96bc 23bf 933c 3ec3 b73c 3f90 21bd
00000270: 4123 583c 545e 693d 5efd d73c 59ab 5dba
00000280: 4b16 c73b b7a7 683d df03 dfbc e696 b13d
00000290: ce34 9dbd 777a 0abd 853f 2dbd 8362 043c
000002a0: 7cd7 e43a 91b6 163d 06c5 c7bd 6677 983c
000002b0: 4f60 ebbc 2920 12bd 78b1 0a3c a113 193c
000002c0: 88f9 993d e1fd 903c 0d7a 1f3c cf7d 3fbd
000002d0: 58a4 c33d 81e7 253c 9232 6abd 7925 8cbc
000002e0: cd7f b03c a646 c1bc 2964 f43c 22b5 103d
000002f0: 7d53 253d 4ff3 eebc 05f6 7a3b 3b78 ec3c
00000300: e614 8fbd f6fb 3abd b2c6 2f3c c997 fdbc
00000310: dc6f 243d 7829 afbd 6101 2c3a 1118 333d
00000320: 7ee9 083d 2dcc aa3c 1351 2fbc f124 c8bc
00000330: 51f2 34bd 3eda 173b ef21 1abd 71a8 223d
00000340: 33a0 8abd 17a9 1039 a4e6 323d 2ac7 26bc
00000350: 5e42 52bd ec12 3a3d 4a79 31bc dc02 4d3d
00000360: a1e2 d0bc 342b 7abd e50a dc3b 2126 103d
00000370: 8b2d 00bd d46f b4bc 6b95 8bb8 c7bb 573d
00000380: f682 ef3c be71 7a3c b3d6 d3bc 0b1c ac39
00000390: 737b 973c de79 6c3c 805d 88bc e3fb 843d
000003a0: 5dc1 a63c 1591 3dbd db90 34bc a9d9 0f3d
000003b0: d352 3cbc 50b2 6a3c 846d ef3c 21f6 63bd
000003c0: 86a4 69bd a8cc adbc 00c5 103d a838 063d
000003d0: a998 a13c ae0e 353d 5e41 39bd d86c d03d
000003e0: 42af 12bd f295 36bc e0d5 363d 30d7 7f3c
000003f0: d9d1 193a 08d7 26bd e9cd 2e3e 4730 393c

action_model._discrete_distribution.branches.0.bias f4 [3]
0.0082475655 -0.0068387925 -4.0896244e-05
00000000: cc20 073c f317 e0bb 0288 2bb8

action_model._discrete_distribution.branches.1.weight f4 [2, 128]
-0.011670125 -0.050015166 0.010046105 0.007925421 0.041118287 -0.036617592 0.007380667 0.012670118
-0.014058983 -0.04188204 -0.024519196 0.008145968 0.0017487411 0.023094019 -0.0038931076 -0.020293485
-0.072207354 0.029349148 0.010810011 0.060392305 -0.018855806 -0.003704643 -0.0075962353 0.06544281
0.010784194 0.038623225 0.017153358 0.03738667 0.04255063 -0.029753128 0.052050967 0.024754928
0.0014814012 0.048859112 -0.040612888 0.07372517 -0.016851583 -0.058213364 0.004492041 0.07731544
-0.018332727 -0.014971301 0.0065751425 0.05951882 0.039718244 -0.016887445 0.017197134 -0.029093895
-0.012989658 0.025226114 0.030949997 -0.033770747 0.012718108 0.02125901 -0.0059401607 0.01729573
0.017109154 0.0014865256 0.02501396 0.009960567 0.0087395655 0.024838956 0.056893073 0.023176458
-0.026563289 0.041634038 -0.030741356 0.0030919279 0.042593118 0.0561992 -0.026102284 0.0065571675
0.04775013 0.035874456 0.045163583 -0.0054410268 0.0118852295 -0.01867388 0.010723244 -0.023772018
-0.0030948378 -0.03246299 -0.019303106 -0.02455805 -0.09609887 0.029027648 -0.06617887 -0.030453254
-0.024287082 0.014457986 0.047377836 0.048525978 -0.006629365 0.03765095 0.01918651 -0.026977519
0.061306294 -0.0047228425 0.005243884 -0.019404091 0.031795025 0.05656808 0.021898076 0.015422494
0.017704763 -0.02292552 0.051794775 -0.029027324 0.010875605 0.019437715 0.020999989 -0.0265335
-0.038011067 0.032707207 0.051965956 -0.010621733 0.009038958 -0.03306244 0.0033613837 -0.010175562
0.03819453 0.013974406 0.002969313 0.025816444 -0.00854051 -0.016531657 -0.03361476 -0.029857963
0.021326562 0.044599347 0.0018663948 0.013523951 -0.018330809 0.05154163 0.0029862607 -0.031520735
0.011453077 0.048113007 0.024748558 -0.013033607 -0.0015385173 -0.03231453 -0.009830174 0.0012576339
0.063855655 -0.03511735 -0.020739095 -0.074927874 0.016083933 0.002655965 -0.004900286 -0.05027611
-0.034877934 -0.053926267 -0.043394897 -0.013381369 -0.030213732 0.032056767 -0.04801715 -0.031000461
-0.00519864 -0.03568513 0.042484324 -0.055612214 0.00977897 0.06315787 0.008297213 -0.08035897
0.020856692 0.0050735488 0.009035732 -0.055474237 -0.039669923 0.0075433315 -0.007539801 0.028836308
-0.0067517823 -0.02522467 -0.045272145 0.047337353 -0.0021548658 -0.013350608 -0.0002451097 -0.011585337
-0.011816835 -0.015155139 -0.010582284 -0.033683237 0.013547459 -0.032870382 -0.032726094 -0.034212172
0.037659395 -0.03925323 0.013893739 -0.02647584 -0.040734734 -0.033692997 0.036862418 0.008669472
-0.036435414 -0.03412307 -0.038278624 0.040203594 -0.029111944 -0.0014016218 -0.020815924 0.024886083
0.01465399 0.029510006 0.019294513 0.029699832 0.08448519 -0.041321196 0.059925016 0.039886978
0.021191612 -0.005232876 -0.028922921 -0.025512332 -0.0022483924 -0.022971796 -0.027778672 0.02262593
-0.040793348 0.015816463 -0.017535377 0.019460898 -0.013823611 -0.052134845 -0.018347174 -0.0045992937
0.0022470693 0.020044124 -0.045900673 0.03266756 -0.01569033 -0.014179436 -0.02170505 0.042193413
0.048116278 -0.025450323 -0.06361691 0.012264483 -0.0040693725 0.023681145 -0.011279942 0.01806974
-0.034337077 -0.01846799 -0.0033855776 -0.0049129357 0.03091024 0.017180925 0.024702385 0.0138603095
00000000: 0d34 3fbc b4dc 4cbd 6b98 243c a0d9 013c
00000010: a66b 283d 54fc 15bd 86d9 f13b 5496 4f3c
00000020: a657 66bc 818c 2bbd 7bdc c8bc ab76 053c
00000030: 0436 e53a ab2f bd3c 8223 7fbb 863e a6bc
00000040: 73e1 93bd a06d f03c 791c 313c ec5d 773d
00000050: 7e77 9abc 99c9 72bb d7e9 f8bb e106 863d
00000060: 30b0 303c 6333 1e3d 3385 8c3c c422 193d
00000070: 9249 2e3d d5bc f3bc 6533 553d d9ca ca3c
00000080: 932b c23a 7e20 483d b359 26bd 39fd 963d
00000090: 550c 8abc 2371 6ebd f931 933b 8f57 9e3d
000000a0: 842e 96bc 304a 75bc 4b74 d73b 02ca 733d
000000b0: 99af 223d 8a57 8abc 01e1 8c3c 5256 eebc
000000c0: 93d2 54bc ffa6 ce3c d98a fd3c 3253 0abd
000000d0: 9c5f 503c 6027 ae3c aea5 c2bb c6af 8d3c
000000e0: 7f28 8c3c 86d7 c23a 14ea cc3c a531 233c
000000f0: 6530 0f3c 117b cb3c b608 693d 8edc bd3c
00000100: 419b d9bc 7488 2a3d 4cd5 fbbc f1a1 4a3b
00000110: 1f76 2e3d 2231 663d 75d4 d5bc 82dd d63b
00000120: a495 433d 18f1 123d 73fd 383d a44a b2bb
00000130: 44ba 423c f7f9 98bc 8cb0 2f3c 89bd c2bc
00000140: c3d2 4abb eaf7 04bd 8c21 9ebc f72d c9bc
00000150: 7ccf c4bd 64cb ed3c ca88 87bd 1a79 f9bc
00000160: b4f5 c6bc 30e1 6c3c 430f 423d 2dc3 463d
00000170: 253b d9bb e237 1a3d 072d 9d3c f5ff dcbc
00000180: 4f1c 7b3d 13c2 9abb e3d4 ab3b 54f5 9ebc
00000190: 803b 023d eeb3 673d 9863 b33c a1ae 7c3c
000001a0: 9409 913c 4dce bbbc c226 543d b6ca edbc
000001b0: 982f 323c d83b 9f3c 2b08 ac3c c85c d9bc
000001c0: 7eb1 1bbd fef7 053d 41da 543d c706 2ebc
000001d0: 2318 143c 7b6c 07bd a94a 5c3b 67b7 26bc
000001e0: de71 1c3d e8f4 643c ce98 423b 027d d33c
000001f0: 7fed 0bbc 666d 87bc a1af 09bd b098 f4bc
00000200: 0bb5 ae3c cead 363d d1a1 f43a 9093 5d3c
00000210: 7e2a 96bc 511d 533d 24b5 433b e31b 01bd
00000220: b0a5 3b3c 2512 453d 7dbd ca3c e98a 55bc
00000230: 13a8 c9ba 3e5c 04bd bd0e 21bc 31d7 a43a
00000240: c1c6 823d 36d7 0fbd 09e5 a9bc c973 99bd
00000250: 74c2 833c b30f 2e3b 9492 a0bb 53ee 4dbd
00000260: 2adc 0ebd cae1 5cbd d9be 31bd 883d 5bbc
00000270: ca82 f7bc f54d 033d a2ad 44bd aef4 fdbc
00000280: 5a59 aabb 922a 12bd 0b04 2e3d a2c9 63bd
00000290: f937 203c ea58 813d 09f1 073c 3e93 a4bd
000002a0: a7db aa3c 0340 a63b 9b0a 143c f438 63bd
000002b0: ee7c 22bd 0d2e f73b 6f10 f7bb 1f3a ec3c
000002c0: 0e3e ddbb f8a3 cebc 496f 39bd d0e4 413d
000002d0: a638 0dbb 82bc 5abc 1182 80b9 6dd0 3dbc
000002e0: 669b 41bc 434d 78bc 5161 2dbc 6ff7 09bd
000002f0: 29f6 5d3c 18a3 06bd cc0b 06bd 1022 0cbd
00000300: bd40 1a3d ffc7 20bd 91a2 633c dce3 d8bc
00000310: 77d9 26bd ab01 0abd 0cfd 163d 670a 0e3c
00000320: 4d3d 15bd a2c4 0bbd 0cca 1cbd 86ac 243d
00000330: 2c7c eebc a0b6 b7ba 2886 aabc e6dd cb3c
00000340: 4a17 703c f8be f13c 870f 9e3c 104d f33c
00000350: 9206 ad3d 6a40 29bd ef73 753d 8760 233d
00000360: 089a ad3c 8c78 abbb c3ef ecbc 3dff d0bc
00000370: c459 13bb 592f bcbc 1990 e3bc 045a b93c
00000380: ed16 27bd 8791 813c 5aa6 8fbc 766c 9f3c
00000390: 6d7c 62bc 598b 55bd d04c 96bc acb5 96bb
000003a0: 9143 133b 9333 a43c 5802 3cbd 6bce 053d
000003b0: 0289 80bc dd50 68bc cace b1bc 00d3 2c3d
000003c0: 9315 453d 327d d0bc 9549 82bd f8f0 483c
000003d0: 5f58 85bb f6fe c13c 81cf 38bc fe06 943c
000003e0: 09a5 0cbd 2f4a 97bc 91e0 5dbb b1fc a0bb
000003f0: 7937 fd3c 03bf 8c3c a85c ca3c 5a16 633c

action_model._discrete_distribution.branches.1.bias f4 [2]
-0.012458498 0.012458491
00000000: ba1e 4cbc b31e 4c3c

action_model._discrete_distribution.branches.2.weight f4 [2, 128]
0.036154788 -0.031656068 0.03638624 -0.0029056128 0.0062891697 0.01595998 0.033515643 0.027094489
0.027609956 0.017953131 -0.0022204272 0.021154268 -0.021955933 0.013335238 0.03576272 -0.054729745
-0.03171655 0.012129659 0.005470484 0.003102169 -0.05798758 -0.0088254595 -0.009828204 -0.008252703
0.005731239 -0.03523939 0.009857763 -0.046164524 -0.03211209 0.03132781 0.01728525 -0.04346396
0.017409073 0.045668706 -0.027700951 -0.09007649 -0.015027424 -0.033540662 0.0387863 -0.013777393
-0.031107359 0.0048404196 -0.0014751785 0.013841816 0.024969878 0.022318242 -0.008991843 -0.017524498
-0.070173874 -0.028601496 0.021732347 -0.01218017 -0.030635681 0.019419067 0.025426734 0.06783033
-0.06254273 0.027524918 0.052021544 0.020839635 0.061265986 0.00074373645 -0.006273571 0.028067045
-0.03673386 0.041043352 -0.034671646 0.035702396 0.08965877 0.025741797 0.0026728883 0.008817627
0.03046759 -0.013991877 -0.007942937 -0.005871459 -0.022837685 0.0019446597 0.03407758 -0.06512612
0.013710184 -0.04024558 -0.018766776 -0.022826608 -0.06108439 -0.008917382 -0.029124646 -0.027032923
0.09333613 -0.025346156 0.011385095 -0.009935673 -0.03382731 0.021960959 0.04697544 0.009509108
0.0026214086 0.021793544 0.049441863 -0.024974648 0.006132637 0.02303139 0.052814767 0.030722247
-0.026688293 -0.0332981 0.046119794 -0.05497973 -0.01608081 -0.014606108 -0.010264916 -0.0063452977
-0.054088064 -0.021976685 -0.016460618 -0.0025847498 0.008375802 -0.057567656 0.0047389516 -0.02272725
0.027795658 -0.006709455 0.051532388 0.013780594 -0.01401141 0.013464511 0.026243249 -0.03889715
-0.030913023 0.024790587 -0.028404312 0.0061000246 -0.025526743 -0.008059241 -0.031126412 -0.0367738
-0.031115117 -0.006341461 0.0006384156 -0.0054259873 0.015401856 -0.010577321 -0.024384893 0.0274504
0.02951377 -0.0094677955 0.0011053256 -0.013964032 0.037306786 0.008748332 -0.014277223 -0.018939272
-0.0031727613 0.026356643 -0.011638445 0.051723417 0.03666147 -0.051167194 -0.02729276 0.022681307
-0.025242213 -0.032701444 0.03160702 0.07434872 0.020859815 0.027385442 -0.039969303 0.033298627
0.04464993 -0.004919017 0.0024786533 -0.009484435 -0.011553253 -0.029082282 0.001530239 0.024548216
0.053759847 0.0323523 -0.018850971 -0.002906083 0.039991807 -0.024441551 -0.03624895 -0.07134916
0.039069753 -0.025922565 -0.049889814 -0.04512788 -0.069252454 -0.0027403408 -0.015381869 -0.014612182
0.03339625 -0.022060588 0.03358269 -0.02423038 -0.086048484 -0.003907147 0.0058669653 -0.011129392
-0.037176948 0.025377894 0.008856409 0.0042084707 0.008364828 0.0054733553 0.0017459046 0.08622067
-0.017481469 0.03801847 0.033815946 0.016328797 0.047975775 0.009815767 0.045442205 0.027592337
-0.05665596 0.024356594 -0.01821934 0.002467189 0.036859933 -0.033712227 -0.04996294 -0.0032857372
-0.005511946 -0.008398316 -0.05559905 0.0163337 -0.0007903903 -0.018633261 -0.07352116 -0.037191063
0.013144911 0.028643347 -0.04238723 0.039076116 -0.0054556807 0.028965328 0.00076936797 0.014941444
0.044744987 0.025987307 0.006456096 0.0039632567 -0.019045569 0.043872654 0.00049076206 0.023340665
-0.051041175 -0.0003593789 -0.036050536 0.0059336834 0.012208239 -0.019856876 -0.024952373 0.050008368
00000000: 0b17 143d cba9 01bd bd09 153d 186c 3ebb
00000010: 6115 ce3b 81be 823c b347 093d 43f5 dd3c
00000020: 462e e23c 7212 933c 9684 11bb b74b ad3c
00000030: eedc b3bc 0b7c 5a3c ee7b 123d 4c2c 60bd
00000040: 37e9 01bd 7abb 463c bf41 b33b c24d 4b3b
00000050: 6284 6dbd a998 10bc 7a06 21bc 5836 07bc
00000060: 1ecd bb3b 2e57 10bd 7482 213c 0317 3dbd
00000070: f887 03bd 9751 003d cc99 8d3c 4407 32bd
00000080: 799d 8e3c 1c0f 3b3d 1bed e2bc 067a b8bd
00000090: 9635 76bc ef61 09bd 62de 1e3d 93ba 61bc
000000a0: dcd4 febc 629c 9e3b c75a c1ba c9c8 623c
000000b0: a18d cc3c bfd4 b63c 8652 13bc 898f 8fbc
000000c0: 52b7 8fbd af4d eabc 0908 b23c 568f 47bc
000000d0: aef7 fabc bc14 9f3c ba4b d03c a1ea 8a3d
000000e0: 6716 80bd f07b e13c 8b14 553d e2b7 aa3c
000000f0: 0bf2 7a3d 4ff7 423a 8792 cdbb dcec e53c
00000100: 3e76 16bd 131d 283d db03 0ebd ad3c 123d
00000110: 049f b73d 76e0 d23c a02b 2f3b cf77 103c
00000120: 2b97 f93c 303e 65bc 1823 02bc 5e65 c0bb
00000130: 1916 bbbc f4e3 fe3a ef94 0b3d d860 85bd
00000140: aea0 603c 8dd8 24bd c8bc 99bc defe babc
00000150: a033 7abd 361a 12bc cf96 eebc 2674 ddbc
00000160: 0327 bf3d bea2 cfbc 8d88 3a3c 3cc9 22bc
00000170: 818e 0abd 78e7 b33c 5269 403d 17cc 1b3c
00000180: f0cb 2b3b 6088 b23c 8d83 4a3d a297 ccbc
00000190: 4af4 c83b 53ac bc3c 4c54 583d 39ad fb3c
000001a0: 68a1 dabc 9763 08bd 1ce8 3c3d 6d32 61bd
000001b0: e7bb 83bc 754e 6fbc 2e2e 28bc 37ec cfbb
000001c0: 728b 5dbd 7308 b4bc 6bd8 86bc e864 29bb
000001d0: a93a 093c 10cc 6bbd 3549 9b3b 7f2e babc
000001e0: b8b3 e33c fdda dbbb a013 533d 00c8 613c
000001f0: 1d90 65bc 419a 5c3c 15fc d63c 9e52 1fbd
00000200: 4f3d fdbc a115 cb3c 29b0 e8bc b7e2 c73b
00000210: 761d d1bc e80a 04bc d1fc febc 20a0 16bd
00000220: 21e5 febc 08cc cfbb 585b 273a 7bcc b1bb
00000230: 1158 7c3c 804c 2dbc d4c2 c7bc a9df e03c
00000240: ddc6 f13c d01e 1bbc 93e0 903a 65c9 64bc
00000250: 00cf 183d 2a55 0f3c 03eb 69bc 8826 9bbc
00000260: 1aee 4fbb e3e9 d73c 2daf 3ebc efdb 533d
00000270: 562a 163d b194 51bd 1195 dfbc 26ce b93c
00000280: c2c8 cebc f3f1 05bd 5d76 013d 2444 983d
00000290: 34e2 aa3c 6f57 e03c dab6 23bd 2464 083d
000002a0: d8e2 363d b52f a1bb e770 223b 9b64 1bbc
000002b0: db49 3dbc f73d eebc 4d92 c83a 5719 c93c
000002c0: 4933 5c3d d883 043d 5a6d 9abc fb73 3ebb
000002d0: 73ce 233d a639 c8bc c779 14bd 821f 92bd
000002e0: 9b07 203d 8f5b d4bc 4359 4cbd 03d8 38bd
000002f0: 3bd4 8dbd 4a97 33bb 3c04 7cbc ef67 6fbc
00000300: 82ca 083d 68b8 b4bc 018e 093d ca7e c6bc
00000310: 303a b0bd 8607 80bb ac3f c03b 0e58 36bc
00000320: db46 18bd 4de5 cf3c 791a 113c 36e7 893b
00000330: a20c 093c d559 b33b d6d6 e43a 7694 b03d
00000340: 4c35 8fbc 41b9 1b3d 9782 0a3d f8c3 853c
00000350: 3f82 443d 50d2 203c 9b21 3a3d 5309 e23c
00000360: 1410 68bd 7b87 c73c ba40 95bc 90b0 213b
00000370: 71fa 163d d515 0abd f1a5 4cbd 8655 57bb
00000380: 8e9d b4bb 1799 09bc d4bb 63bd 40ce 853c
00000390: 3232 4fba c8a4 98bc 4392 96bd a855 18bd
000003a0: c15d 573c 74a5 ea3c 3b9e 2dbd 470e 203d
000003b0: 91c5 b2bb b248 ed3c 69af 493a f5cc 743c
000003c0: 8546 373d 55e3 d43c a98d d33b 35de 813b
000003d0: 7405 9cbc d0b3 333d 7ca6 003a ec34 bf3c
000003e0: 8d10 51bd 056b bcb9 baa9 13bd 586f c23b
000003f0: 1105 483c e3aa a2bc eb68 ccbc 93d5 4c3d

action_model._discrete_distribution.branches.2.bias f4 [2]
0.00762064 -0.007620638
00000000: 90b6 f93b 8bb6 f9bb

action_model._discrete_distribution.branches.3.weight f4 [2, 128]
-0.008044414 0.00987918 -0.030603899 0.057693344 0.037066095 0.0525881 0.018194953 0.02627052
0.061513755 0.047845464 -0.019341607 0.017304301 0.023034528 0.054077372 -0.007463885 0.008756236
0.08933103 0.0019594126 0.0013073583 0.0013824054 0.0039159274 -0.03734167 -0.011556776 0.04043618
0.0113525 -0.0284638 0.0075705443 0.058950733 0.05010547 0.0032443954 0.05294403 -0.011332824
0.040045466 0.0017249694 0.035897326 -0.0050329147 0.016917275 0.01258903 -0.0075313943 0.033256985
-0.0041577923 0.0012287706 -0.044813138 -0.06830547 -0.014543447 0.021692492 0.03837309 -0.006973032
-0.041336767 0.026486402 0.03702571 -0.036530446 -0.014904446 0.01238754 -0.041025434 -0.02625875
-0.007133271 -0.053425323 -0.014305474 -0.058092665 -0.08552512 0.030062165 0.020134546 -0.019987334
0.011070754 -0.01202214 0.032535918 -0.009589898 -0.067170896 -0.0371851 -0.012271483 -0.039158735
0.024004808 0.045129783 0.051463813 0.050780077 -0.009170932 0.0497015 -0.040339302 -0.007200408
-0.019760717 -0.01060458 0.0055900286 0.02515338 0.014146794 0.05571124 0.11710769 0.02842846
0.058316804 0.012412174 0.03188777 0.038064048 0.06324225 0.030940786 -0.016284904 -0.021964164
0.06246586 0.034488607 -0.026650066 0.0005371448 -0.007860785 -0.0029510185 -0.01476286 -0.003100394
0.09270129 0.057067677 0.05067977 0.037617236 0.056545656 0.06329123 0.0875114 0.018363483
-0.033412635 -0.0058344775 0.06677379 0.065555714 0.03360426 -0.029495249 0.0646648 0.07297007
-0.02546948 0.010213915 -0.002393185 0.043818567 -0.025034217 0.044315513 -0.0464922 0.009091439
-0.0034325542 -0.0012352775 0.030642433 -0.045837376 -0.013736621 -0.06174479 -0.02514543 -0.02542604
-0.061484907 -0.04141996 0.009669226 -0.0076163164 -0.014884435 -0.04716478 0.029134963 -0.0052707023
-0.093325205 -0.005117509 -0.0017353279 0.03265452 -0.015545626 0.06466499 0.0349535 -0.051494583
-0.013286486 0.04715 -0.0111717805 -0.06481176 -0.05755621 -0.017588489 -0.04238601 0.006121007
-0.051288124 -0.010973525 -0.020324403 0.008795534 0.00047048705 -0.029772019 -0.0013768198 -0.03477757
0.016744427 -0.009542899 0.022379832 0.062231585 0.007688561 -0.02441857 -0.038543217 0.025735063
0.042977143 -0.0073820865 -0.028929347 0.033551924 0.025488753 -0.027453069 0.062627696 0.020828357
-0.022947544 0.04903531 0.013242576 0.040134296 0.10460201 -0.0070082494 -0.01796731 0.012748445
-0.00017821316 -0.0021797472 -0.029553127 0.0067326413 0.049425475 0.041255936 0.014624242 0.0035527232
0.0011302948 -0.037870992 -0.042753566 -0.07176591 0.006145196 -0.055355955 0.03520046 -0.000693934
0.04739165 -0.005773436 -0.007030194 -0.037666205 -0.015909344 -0.045696866 -0.118402265 -0.046845563
-0.049419962 -0.0052619837 -0.04762769 -0.059613604 -0.067209624 -0.023022449 0.0184625 0.037293367
-0.045027018 -0.057737187 0.017975872 0.018998077 -0.00453392 -0.010662718 0.011100204 -0.0034122537
-0.08209661 -0.056654554 -0.052198134 -0.04148394 -0.03946037 -0.06827937 -0.079020195 -0.009582834
0.06656435 0.010777646 -0.06099026 -0.03174109 -0.028725846 0.033794973 -0.039885137 -0.055468503
0.04405185 -0.01789967 0.016354995 -0.05122656 0.028621584 -0.05460997 0.014392332 0.0049829613
00000000: b8cc 03bc 49dc 213c 07b5 fabc db4f 6c3d
00000010: 9ed2 173d 9f66 573d 950d 953c 4635 d73c
00000020: d9f5 7b3d 9bf9 433d 4a72 9ebc c0c1 8d3c
00000030: e8b2 bc3c 3c80 5d3d 9b93 f4bb 5176 0f3c
00000040: 30f3 b63d 7d69 003b aa5b ab3a d431 b53a
00000050: 2e51 803b 94f3 18bd a258 3dbc 68a0 253d
00000060: d6ff 393c ea2c e9bc 5412 f83b 5376 713d
00000070: 653b 4d3d ec9f 543b d7db 583d 4fad 39bc
00000080: b706 243d 5e18 e23a 1309 133d 26eb a4bb
00000090: 1996 8a3c 3842 4e3c eac9 f6bb 7a38 083d
000000a0: 173e 88bb b30e a13a fb8d 37bd bde3 8bbd
000000b0: a347 6ebc 74b4 b13c 1a2d 1d3d 087e e4bb
000000c0: be50 29bd 03fa d83c 45a8 173d f3a0 15bd
000000d0: c731 74bc 1cf5 4a3c 490a 28bd 971c d7bc
000000e0: 37be e9bb 83d4 5abd 8261 6abc 93f2 6dbd
000000f0: cb27 afbd ee44 f63c 34f1 a43c 7abc a3bc
00000100: 1c62 353c 83f8 44bc 6244 053d f31e 1dbc
00000110: e590 89bd 674f 18bd 550e 49bc e964 20bd
00000120: bba5 c43c 02da 383d b8cb 523d c5fe 4f3d
00000130: ad41 16bc cd93 4b3d d33a 25bd 66f1 ebbb
00000140: 3ae1 a1bc d5be 2dbc 8f2c b73b 760e ce3c
00000150: f4c7 673c 7831 643d 28d6 ef3d cde2 e83c
00000160: 9add 6e3d 6e5c 4b3c c09c 023d 0ce9 1b3d
00000170: 2785 813d 8877 fd3c eb67 85bc 31ee b3bc
00000180: 34dc 7f3d ed43 0d3d 3d51 dabc 2dcf 0c3a
00000190: 86ca 00bc e065 41bb ecdf 71bc fb2f 4bbb
000001a0: 2dda bd3d ccbf 693d 9795 4f3d 8814 1a3d
000001b0: 6b9c 673d d59e 813d 2d39 b33d 046f 963c
000001c0: b0db 08bd 252f bfbb b2c0 883d 1342 863d
000001d0: 9fa4 093d 05a0 f1bc fb6e 843d 5571 953d
000001e0: 5fa5 d0bc 4458 273c fbd6 1cbb 197b 333d
000001f0: 8f14 cdbc 2f84 353d 9b6e 3ebd 42f4 143c
00000200: b4f4 60bb 09e9 a1ba d705 fb3c f9bf 3bbd
00000210: 900f 61bc 1be8 7cbd cafd cdbc 454a d0bc
00000220: 99d7 7bbd faa7 29bd ac6b 1e3c 4b92 f9bb
00000230: d8dd 73bc db2f 41bd 72ac ee3c dbb5 acbb
00000240: 4921 bfbd c7b0 a7bb f173 e3ba bfc0 053d
00000250: 15b3 7ebc 146f 843d 672b 0f3d fceb 52bd
00000260: 90af 59bc 5c20 413d d809 37bc 07bc 84bd
00000270: 0fc0 6bbd bc15 90bc f49c 2dbd ba92 c83b
00000280: 7f13 52bd 4dca 33bc 5d7f a6bc 251b 103c
00000290: b4ab f639 73e4 f3bc 6876 b4ba ed72 0ebd
000002a0: 9c2b 893c d259 1cbc e955 b73c 8ce6 7e3d
000002b0: 53f0 fb3b 7409 c8bc 7edf 1dbd 57d2 d23c
000002c0: cd08 303d 6ee5 f1bb 3dfd ecbc be6d 093d
000002d0: cacd d03c 42e5 e0bc f342 803d 3ba0 aa3c
000002e0: 7dfc bbbc 40d9 483d 64f7 583c dc63 243d
000002f0: 9439 d63d 75a5 e5bb 2e30 93bc dbde 503c
00000300: bbde 3ab9 17da 0ebb 6619 f2bc 7d9d dc3b
00000310: 5e72 4a3d fcfb 283d 849a 6f3c ced4 683b
00000320: 6626 943a 9d1e 1bbd 5d1e 2fbd 01fa 92bd
00000330: a45d c93b edbc 62bd 5c2e 103d 1fe9 35ba
00000340: bf1d 423d 172f bdbb 8b5d e6bb e147 1abd
00000350: 5054 82bc a32c 3bbd e37c f2bd 22e1 3fbd
00000360: 966c 4abd b86c acbb 4115 43bd 652d 74bd
00000370: 33a5 89bd 9399 bcbc ab3e 973c eec0 183d
00000380: 406e 38bd d47d 6cbd 2342 933c dba1 9b3c
00000390: 4791 94bb aeb2 2ebc a1dd 353c 1ea0 5fbb
000003a0: 4422 a8bd 9b0e 68bd b6cd 55bd 10eb 29bd
000003b0: 32a1 21bd 0ed6 8bbd 57d5 a1bd 5201 1dbc
000003c0: e452 883d b994 303c ecd0 79bd f202 02bd
000003d0: 7752 ebbc 996c 0a3d 995e 23bd f132 63bd
000003e0: b66f 343d 54a2 92bc e9fa 853c f1d2 51bd
000003f0: d077 ea3c b4ae 5fbd d1cd 6b3c 1c48 a33b

action_model._discrete_distribution.branches.3.bias f4 [2]
-0.03738894 0.037388958
00000000: 2525 19bd 2a25 193d
